results/ppo/My Behavior/checkpoint.pt (torch, 448479 bytes, 36 tensors)

network_body.linear_encoder.seq_layers.0.weight f4 [128, 9]
0.09100772 0.16527745 -0.3918966 -0.32147428 -0.18128891 0.04486189 0.12291642 -0.0507186
0.066186786 0.36532864 0.41127053 0.33018234 -0.18075919 0.15703973 -0.46998602 -0.816711
0.00014598887 -0.07744813 -0.071809344 0.13269378 -0.057215538 -0.1826492 0.6220235 -0.2210408
-0.10235593 0.21125191 0.065286286 0.11065158 1.3227115 -0.021816675 0.75450546 -0.51380855
0.35432565 -0.13401932 0.074972905 0.71079344 0.057937298 0.149158 -0.75671333 -0.7165972
-0.07628724 -0.11042613 -0.5353738 -0.54856694 0.3887918 -0.23364796 -0.36530384 -0.32262442
-0.2570469 -0.08634193 0.32409665 -0.33822104 0.05848599 -0.49971983 -0.42871895 -0.5091892
0.34249145 -0.3429799 0.4525381 -0.33480626 0.6859408 0.57283604 -0.22029355 0.5649998
0.17379633 -0.21754943 -0.25079438 -0.089750096 -0.2138168 0.3505855 0.16199344 0.44699484
-0.120257504 0.13777776 -0.16962224 -0.22125793 -0.12095626 0.45572245 0.07083315 0.117795676
0.30596977 -0.7591411 0.117128015 -0.22162431 -0.0297741 0.33188662 0.30128393 0.30082598
0.17141505 0.5199515 -0.6863406 0.14212546 0.03666347 0.08735682 -0.76770484 -0.17770812
-0.26261345 0.49354637 -0.21540499 -0.13114862 -0.16386634 -0.31599432 0.7097445 0.16077057
0.12341065 0.23107332 -0.34439346 -0.016376143 0.20368758 0.20774135 -0.28000247 0.26995116
-0.11966877 -0.12130451 -0.009738639 -0.056545034 -0.56701064 0.12063626 -0.23146303 -0.056708544
0.32843933 0.19103244 -0.17623472 0.15181233 -0.6841463 0.01816856 -0.16250607 -0.09877985
0.071282305 0.11179735 0.37791508 -0.058745667 -0.45793447 -0.48763764 0.74827933 -0.13821195
-0.24741507 0.11870334 0.34557164 -0.27580398 -0.18317792 -0.3763955 -0.0972114 0.091027655
0.12254611 -0.07007478 0.6494609 0.08412553 0.30173486 0.017837621 0.010416498 0.3630301
0.1124334 -0.081298724 0.39498326 0.24244888 0.015627896 0.24549697 -0.20338905 0.026596252
0.6564824 -0.0059277792 0.18576367 -0.059195988 0.2453264 0.14112367 -0.020426346 -0.5391597
-0.5695218 0.069350384 -0.16610254 0.5316608 -0.25006765 0.07360761 -0.15654394 -0.24603628
-0.20374791 -0.5052805 -0.16825555 -0.4471567 0.21479861 -0.006807037 -0.079656735 -0.36982858
-0.44931462 0.19606507 0.037942875 0.027088622 0.010437772 0.114603244 0.4872572 -0.018675603
0.54991144 -0.6402044 0.79649574 0.16577323 -0.121263355 -0.8491492 -0.21006304 -0.111086056
-0.04178268 0.10229032 -0.17785951 0.066783704 -0.15576193 0.26196614 -0.18586393 0.27969047
0.027066136 -0.5736225 -0.39134577 0.62517554 -0.3864616 -0.26156005 0.13854058 0.028202578
0.37133923 -0.23903231 -0.30513245 0.16443263 -0.09264505 -0.04445203 0.77947336 0.09029397
0.09438556 0.23503295 0.35783866 0.036668215 0.7817478 -0.6610132 -0.30023295 0.17353474
0.36444768 -0.46840498 0.5201105 0.121196724 0.64568096 -0.08787917 0.5331732 -0.12796539
0.33245704 -0.3357976 0.15957986 0.18247072 0.51420134 -0.0985536 0.16021815 0.5706243
-0.053713385 0.011773049 -0.34077564 -0.020318098 -0.77858174 -0.06542023 0.33487338 -0.24024485
00000000: 4162 ba3d 7e3e 293e aca6 c8be 4798 a4be
00000010: cda3 39be 1ac1 373d 9bbb fb3d 4fbe 4fbd
00000020: f08c 873d 5b0c bb3e 0d92 d23e a90d a93e
00000030: f018 39be 06cf 203e 02a2 f0be f913 51bf
00000040: 9714 1939 209d 9ebd c710 93bd e1e0 073e
00000050: d75a 6abd 6408 3bbe ef3c 1f3f 8558 62be
00000060: fc9f d1bd 6c52 583e d1b4 853d 4c9d e23d
00000070: 9c4e a93f e2b8 b2bc 4527 413f f588 03bf
00000080: 2c6a b53e 5c3c 09be 658b 993d 8ff6 353f
00000090: a94f 6d3d e0bc 183e f7b7 41bf ea72 37bf
000000a0: 7c3c 9cbd 1827 e2bd 420e 09bf e26e 0cbf
000000b0: b80f c73e 6941 6fbe 1b09 bbbe 072f a5be
000000c0: a79b 83be 0ad4 b0bd ffef a53e 4f2b adbe
000000d0: 018f 6f3d 47db ffbe 0d81 dbbe 395a 02bf
000000e0: 0a5b af3e 109b afbe 13b3 e73e ba6b abbe
000000f0: d199 2f3f 62a5 123f a294 61be d4a3 103f
00000100: aaf7 313e 47c5 5ebe 1f68 80be e6ce b7bd
00000110: cbf2 5abe f17f b33e 9ce1 253e 82dc e43e
00000120: 9149 f6bd 9d15 0d3e 74b1 2dbe 7091 62be
00000130: eab7 f7bd 7454 e93e f810 913d dc3e f13d
00000140: 12a8 9c3e 1257 42bf d0e0 ef3d 7cf1 62be
00000150: d0e8 f3bc 0bed a93e e341 9a3e dd05 9a3e
00000160: 6d87 2f3e 8b1b 053f 04b4 2fbf 5689 113e
00000170: 6f2c 163d 22e8 b23d 4e88 44bf 1ef9 35be
00000180: 4575 86be 1cb2 fc3e 2093 5cbe d34b 06be
00000190: 94cc 27be 02ca a1be d1b1 353f 0aa1 243e
000001a0: b9be fc3d 7c9e 6c3e 5754 b0be 4327 86bc
000001b0: 7a93 503e 26ba 543e 7c5c 8fbe 0a37 8a3e
000001c0: e614 f5bd 806e f8bd d08e 1fbc c49b 67bd
000001d0: 9c27 11bf 2510 f73d a504 6dbe 3847 68bd
000001e0: 3329 a83e 029e 433e e076 34be b174 1b3e
000001f0: 3624 2fbf 3bd6 943c fe67 26be 174d cabd
00000200: 75fc 913d 02f6 e43d 167e c13e 4c9f 70bd
00000210: 6376 eabe a4ab f9be 3c8f 3f3f 6f87 0dbe
00000220: 605a 7dbe bd1a f33d c4ee b03e 2e36 8dbe
00000230: fe92 3bbe e9b6 c0be c516 c7bd b56c ba3d
00000240: 74f9 fa3d 5e83 8fbd 1243 263f 024a ac3d
00000250: fe7c 9a3e 3420 923c f6a9 2a3c 15df b93e
00000260: 7b43 e63d f27f a6bd 3f3b ca3e 8544 783e
00000270: 1306 803c 8f63 7b3e 3845 50be 62e0 d93c
00000280: 3b0f 283f d13d c2bb d538 3e3e 7e77 72bd
00000290: d836 7b3e b982 103e 2755 a7bc 5f06 0abf
000002a0: 2ecc 11bf 9307 8e3d c916 2abe ec1a 083f
000002b0: de08 80be 96bf 963d 0e4d 20be eff0 7bbe
000002c0: 4ba3 50be 105a 01bf 2f4b 2cbe b9f1 e4be
000002d0: 2bf4 5b3e 910d dfbb 1223 a3bd 2c5a bdbe
000002e0: 910c e6be 48c5 483e fd69 1b3d f5e8 dd3c
000002f0: 3003 2b3c 1bb5 ea3d c779 f93e 94fd 98bc
00000300: ffc6 0c3f 70e4 23bf 25e7 4b3f 75c0 293e
00000310: ec58 f8bd d861 59bf c41a 57be 1681 e3bd
00000320: 5124 2bbd 967d d13d ce20 36be e5c5 883d
00000330: 0e80 1fbe 6d20 863e 1d53 3ebe 9733 8f3e
00000340: cdb9 dd3c edd8 12bf 795e c8be 810b 203f
00000350: 4bde c5be 33eb 85be 95dd 0d3e 1809 e73c
00000360: 2d20 be3e e3c4 74be 523a 9cbe 0761 283e
00000370: b0bc bdbd 5513 36bd 918b 473f 0cec b83d
00000380: 374d c13d 7aac 703e a136 b73e 6931 163d
00000390: a020 483f 2938 29bf 22b8 99be 17b3 313e
000003a0: e398 ba3e c7d2 efbe f625 053f fd35 f83d
000003b0: 594b 253f fff9 b3bd 0a7e 083f 5c09 03be
000003c0: cf37 aa3e aaed abbe e768 233e 9bd9 3a3e
000003d0: b3a2 033f 78d6 c9bd 3a10 243e 6f14 123f
000003e0: 9102 5cbd bfe3 403c 257a aebe 2472 a6bc
000003f0: 2251 47bf 0bfb 85bd 8674 ab3e bf02 76be

network_body.linear_encoder.seq_layers.0.bias f4 [128]
-0.0035014905 0.0028194478 -0.0027003472 0.006023235 -0.0010171131 -0.003601447 -0.0077091223 0.0011671621
-0.0041469173 -0.0033733707 -0.0018705521 -0.0021062226 -0.0014645915 -0.0011901263 -0.0059687756 -0.0003914385
-0.002717668 -0.0069527077 -0.0037201839 -0.0058687115 0.0021174941 0.0065455167 -0.014769652 0.0008981326
0.0007731857 -5.453223e-05 -0.0022865727 -0.003067659 -0.004522349 0.0024122656 -0.004068553 -0.0048917322
-0.004654266 -0.00039727226 -0.0041313237 0.007766707 0.00330908 -0.002417418 -0.0020495509 0.013240683
-0.0061066267 0.0015109372 -0.005524677 0.0054099564 -0.0016425287 0.006228978 0.0071473275 0.002807106
-0.001240071 -0.0020118128 0.00699059 0.00023421331 0.008779407 0.00095195224 -0.006687854 -0.0030065842
0.0071496763 -0.01281307 0.005924122 -0.009319265 0.0013905904 -0.0015478191 0.007392894 0.0036506443
-0.009678463 -0.008497802 0.0044286735 0.00019948094 -0.0024450293 -0.0003523611 0.005691499 0.0035365666
-0.004639466 -0.002504264 -0.008338468 -0.004104888 0.0008891278 0.0007888862 -0.0036746904 0.0049646054
-0.0070145065 -0.00048744044 -0.00060404214 0.0014107561 -0.000255182 -0.0031103592 0.00026237604 -0.005397818
0.0014986626 -0.008979293 0.0018423528 -0.004473293 -0.0007050648 0.0036094382 -0.0008022114 0.0022995993
-0.0007247562 0.002731092 -0.004188664 0.0013619516 3.4862994e-06 -0.001201331 0.003543094 -0.0031709292
-0.007866133 -0.0080348905 0.0064294212 0.0065510287 -0.0011451928 -0.0011230095 0.0027056301 0.0019951428
-0.0005650234 0.0049540238 -0.002808229 0.003459965 -0.0032035802 -0.005236944 -0.00022970054 -0.0016157725
-0.006188237 0.0012111415 0.0018524894 -0.0036376568 -0.005495391 -0.0077294484 -0.0025951138 -0.0009898897
00000000: 4379 65bb 7cc6 383b 4ff8 30bb 8f5e c53b
00000010: a750 85ba 4106 6cbb ce9c fcbb 76fb 983a
00000020: dde2 87bb c513 5dbb 502d f5ba 8d08 0abb
00000030: 89f7 bfba 03fe 9bba b895 c3bb fc39 cdb9
00000040: e71a 32bb 8ad3 e3bb 54ce 73bb 524e c0bb
00000050: a8c5 0a3b c67b d63b 69fc 71bc a970 6b3a
00000060: 9daf 4a3a 89b9 64b8 53da 15bb c70a 49bb
00000070: 3730 94bb 1a17 1e3b 7f51 85bb d34a a0bb
00000080: d082 98bb fb48 d0b9 0e60 87bb dc7f fe3b
00000090: 26dd 583b 8b6d 1ebb c251 06bb 73ef 583c
000000a0: 191a c8bb a40a c63a 5a08 b5bb 0146 b13b
000000b0: 1e4a d7ba 741c cc3b 2134 ea3b 6cf7 373b
000000c0: e189 a2ba 9ed8 03bb 5211 e53b 2897 7539
000000d0: 80d7 0f3c 6f8c 793a c925 dbbb 1d0a 45bb
000000e0: d547 ea3b e9ed 51bc 231f c23b d5af 18bc
000000f0: 7944 b63a 31e0 caba 1740 f23b a63f 6f3b
00000100: 6b92 1ebc 5d3a 0bbc 681e 913b c22b 5139
00000110: c93c 20bb 1bbd b8b9 c17f ba3b bec5 673b
00000120: a906 98bb 941e 24bb 129e 08bc 4c82 86bb
00000130: 5b14 693a 42cd 4e3a 13d3 70bb 21ae a23b
00000140: f2d9 e5bb 268f ffb9 9558 1eba 1fe9 b83a
00000150: f3c9 85b9 2bd7 4bbb 848f 8939 2ee0 b0bb
00000160: c66e c43a e21d 13bc 1a7b f13a b494 92bb
00000170: 19d4 38ba 538c 6c3b 7f4b 52ba e0b4 163b
00000180: 91fd 3dba 1ffc 323b 0f41 89bb 8383 b23a
00000190: 2bf6 6936 fb75 9dba 4133 683b 5dcf 4fbb
000001a0: f4e0 00bc c6a4 03bc e5ad d23b 03aa d63b
000001b0: 4b1a 96ba f231 93ba f150 313b f1c0 023b
000001c0: 141e 14ba 5d55 a23b 440a 38bb 95c0 623b
000001d0: 28f3 51bb ac9a abbb c5db 70b9 54c8 d3ba
000001e0: b2c6 cabb 2abf 9e3a 3bcf f23a c165 6ebb
000001f0: ae12 b4bb 5047 fdbb c912 2abb 30bf 81ba

network_body.linear_encoder.seq_layers.2.weight f4 [128, 128]
-0.013011884 -0.053876933 -0.030382814 -0.16212025 -0.10352882 0.08257522 -0.06790369 -0.16831484
0.015875634 -0.028207961 0.15628238 -0.18685497 0.080754176 -0.0050173793 -0.038985774 -0.017854547
-0.030550849 -0.060522128 -0.040384926 -0.019992827 -0.08478411 0.009583471 -0.052151084 0.028295308
0.076926045 -0.029936956 0.07152823 0.20126061 0.046343725 -0.07371802 -0.023695262 0.008729681
0.13937232 -0.049532957 0.11773023 0.193223 -0.056335937 0.01751229 -0.14416957 -0.050481368
-0.13057339 -0.07628879 0.013250273 0.1264444 -0.027965387 0.04595536 0.035089996 0.08032705
-0.022371696 0.08081082 -0.024725558 0.05498906 0.022572272 0.0034557541 -0.095889665 -0.053537946
-0.0761372 -0.1254994 -0.12168391 0.15989928 -0.022015477 0.041807678 0.12125689 0.16497499
0.096514545 0.033176992 -0.018233543 0.00690184 -0.23668516 0.12074769 0.08781825 -0.16365953
-0.0146568855 -0.058838926 -0.11021315 -0.06992801 0.08210349 0.022310298 0.1525678 -0.12954658
-0.11235486 -0.05603666 -0.041268256 0.0825855 -0.110500716 -0.030914314 0.044397525 0.011222751
0.101993695 0.0481407 0.019149713 0.08598323 0.18333751 -0.08331357 0.036353208 0.04015286
0.07444377 0.0012601572 0.23123676 0.105810985 -0.105324864 0.090832055 0.03823507 -0.08727049
-0.12304298 -0.071820535 0.09560649 0.027261347 0.12791081 0.13358536 0.108724125 -0.010180176
-0.06211751 0.034022983 0.06698425 0.19596446 0.211251 0.052392494 -0.084095076 -0.16481233
-0.029590124 -0.034899153 0.026983425 0.13823344 -0.03262759 0.07338631 0.04333378 0.076763175
-0.026098136 0.030051202 -0.07330289 0.111934096 -0.0428452 0.09521227 0.025978487 0.0759006
0.061778463 -0.037750695 -0.025089758 -0.04444258 -0.028297221 -0.059027903 0.07739833 0.000897968
0.15536685 -0.03373947 -0.1866562 -0.08702458 0.019973824 -3.3468394e-05 0.089666866 -0.06357064
-0.065773234 0.088272825 0.03781743 -0.004649868 0.07627447 0.12249456 0.031235572 -0.10730068
-0.029846253 -0.009919537 0.018073553 0.055668678 0.02321116 -0.08781959 0.06539978 -0.015931873
0.08937356 0.20862342 -0.19715719 -0.112605974 -0.016408028 0.1312053 0.014700952 0.09102627
0.022099275 -0.038466096 0.044185057 0.010191651 0.13522184 0.1035701 -0.17857474 -0.089516
0.030749876 0.12513913 -0.08151797 0.0029530618 -0.13140239 -0.04024497 -0.04102404 -0.093458585
-0.04649175 0.1740254 -0.034293927 -0.115543544 -0.030507192 0.026746716 -0.040253308 0.14847657
-0.12708893 -0.0023299097 0.0091870865 0.028739812 -0.12950456 0.03547778 -0.07842664 0.06711801
-0.15177664 -0.0022061903 -0.033835165 0.1541649 -0.07449753 -0.10635689 0.03805804 0.054872517
-0.1350993 0.030873546 0.052057173 0.0139552485 -0.0747708 -0.061946873 -0.007989983 -0.13104339
-0.020974107 -0.071128994 0.0849584 0.14245318 -0.12580262 0.02190119 0.11491954 0.12236112
-0.047852017 0.021140367 0.15965234 -0.1649686 -0.048222516 0.004669959 0.02385491 0.079750754
-0.019555172 -0.040599216 0.12584451 0.0548012 -0.041389212 0.016286496 0.0264072 -0.076861665
0.057956163 0.041522674 0.04456267 -0.028938236 0.006223209 0.02395839 0.11446497 0.08703218
00000000: cc2f 55bc 0fae 5cbd 61e5 f8bc da02 26be
00000010: eb06 d4bd 321d a93d 1711 8bbd ba5a 2cbe
00000020: 9e0d 823c 6214 e7bc 7d08 203e e956 3fbe
00000030: 7262 a53d d468 a4bb 8caf 1fbd b343 92bc
00000040: c645 fabc 0de6 77bd aa6a 25bd ffc7 a3bc
00000050: 4ba3 adbd fe03 1d3c 609c 55bd 90cb e73c
00000060: 678b 9d3d 593e f5bc 657d 923d 4317 4e3e
00000070: ebd2 3d3d 79f9 96bd 911c c2bc f006 0f3c
00000080: 9eb7 0e3e 12e3 4abd 8c1c f13d 40dc 453e
00000090: 83c0 66bd ef75 8f3c 30a1 13be 8dc5 4ebd
000000a0: 08b5 05be 4c3d 9cbd ac17 593c a47a 013e
000000b0: ab17 e5bc b03b 3c3d 87ba 0f3d 8282 a43d
000000c0: d944 b7bc 2580 a53d 418d cabc 353c 613d
000000d0: 7ce9 b83c ef79 623b cd61 c4bd 9b4a 5bbd
000000e0: d2ed 9bbd ea82 00be 6a35 f9bd a3bc 233e
000000f0: cd59 b4bc 873e 2b3d 8855 f83d 34ef 283e
00000100: 6ba9 c53d 99e4 073d 835e 95bc d528 e23b
00000110: 985d 72be 914a f73d 0eda b33d 5d96 27be
00000120: 6f23 70bc 1601 71bd 6fb7 e1bd 6b36 8fbd
00000130: e025 a83d 16c4 b63c bc3a 1c3e dca7 04be
00000140: 4e1a e6bd b286 65bd e708 29bd 9622 a93d
00000150: 334e e2bd 0440 fdbc 2eda 353d a1df 373c
00000160: 12e2 d03d 2f2f 453d dcdf 9c3c fa17 b03d
00000170: d4bc 3b3e 4ea0 aabd 1ae7 143d 5377 243d
00000180: fa75 983d dc2b a53a 54c9 6c3e 6eb3 d83d
00000190: 90b4 d7bd 2806 ba3d 609c 1c3d dfba b2bd
000001a0: f5fd fbbd a516 93bd 56cd c33d 3053 df3c
000001b0: 0dfb 023e 9aca 083e c1aa de3d c1ca 26bc
000001c0: ee6e 7ebd af5b 0b3d 0a2f 893d e8aa 483e
000001d0: 2f52 583e 8399 563d 0a3a acbd 90c4 28be
000001e0: fd66 f2bc 6af2 0ebd 580c dd3c 118d 0d3e
000001f0: 82a4 05bd 904b 963d c37e 313d 0336 9d3d
00000200: c2cb d5bc f02d f63c d31f 96bd b43d e53d
00000210: 737e 2fbd a7fe c23d d6d0 d43c c671 9b3d
00000220: 6a0b 7d3d 79a0 1abd 0989 cdbc 6c09 36bd
00000230: 93cf e7bc 3ec7 71bd 0483 9e3d 9d65 6b3a
00000240: 7d18 1f3e 6632 0abd ce22 3fbe f139 b2bd
00000250: 25a0 a33c 6a60 0cb8 43a3 b73d 5331 82bd
00000260: 1eb4 86bd 62c8 b43d 73e6 1a3d eb5d 98bb
00000270: ca35 9c3d 6ede fa3d bee1 ff3c 75c0 dbbd
00000280: 2180 f4bc 8e85 22bc fd0e 943c d704 643d
00000290: 5525 be3c c2da b3bd 52f0 853d 8f83 82bc
000002a0: 7c09 b73d 61a1 553e 93e3 49be f69d e6bd
000002b0: 216a 86bc af5a 063e 43dc 703c fb6b ba3d
000002c0: 8a09 b53c a08e 1dbd 64fb 343d e2fa 263c
000002d0: 9877 0a3e 901c d43d 4cdc 36be 2a54 b7bd
000002e0: 2ae7 fb3c 7924 003e e5f2 a6bd 2888 413b
000002f0: 598e 06be e9d7 24bd d308 28bd 3767 bfbd
00000300: 226e 3ebd b733 323e ca77 0cbd 18a2 ecbd
00000310: 38ea f9bc ee1b db3c a7e0 24bd 3e0a 183e
00000320: 9a23 02be 66b1 18bb 6f85 163c c16f eb3c
00000330: d89c 04be 2651 113d 259e a0bd 2b75 893d
00000340: 566b 1bbe bb95 10bb be96 0abd 67dd 1d3e
00000350: 2992 98bd a4d1 d9bd bfe2 1b3d 01c2 603d
00000360: 7957 0abe 85ea fc3c e739 553d 8ea4 643c
00000370: 6f21 99bd 01bc 7dbd 6be8 02bc 3d30 06be
00000380: e4d1 abbc 14ac 91bd abfe ad3d 3fdf 113e
00000390: 67d2 00be 206a b33c f05a eb3d 7898 fa3d
000003a0: 7a00 44bd 902e ad3c e77b 233e 87ed 28be
000003b0: f984 45bd 7506 993b 5f6b c33c 5d54 a33d
000003c0: 2b32 a0bc 5d4b 26bd 62dd 003e 3977 603d
000003d0: bc87 29bd 426b 853c ea53 d83c a669 9dbd
000003e0: 7163 6d3d ae13 2a3d 5987 363d e10f edbc
000003f0: 10ec cb3b 6344 c43c 9c6c ea3d ed3d b23d

network_body.linear_encoder.seq_layers.2.bias f4 [128]
0.0017297299 -0.0056727557 -0.0034777778 0.00015781903 -0.004619619 0.0136579815 -0.0008117104 0.0016937056
0.0050310395 0.00077938766 -0.0027834645 0.003817577 -0.00087226264 -0.0036084217 0.003927551 -0.0020857165
0.0031848412 0.00012571497 0.0033883636 0.0038704711 -0.0067584612 0.0037681405 -0.0007225347 0.0026534416
0.001432568 -0.00012456036 0.00028100816 0.0032194292 0.0036139493 -0.0076283165 0.0006945712 -0.0007864322
0.006167222 0.0053778216 0.0039458517 0.0067895497 -0.0072667217 -0.003309616 -0.0028680589 -3.1452444e-06
0.0057972213 -0.0036288735 0.0012852411 0.0054764985 -0.0046033333 0.0055942745 -0.005260853 -0.0067690876
0.0013651799 -0.0003817573 0.0008734217 -0.0074217226 -0.00056207547 -0.0037360091 -0.0024365524 0.00016030848
0.00027273525 -0.005571771 -0.003375173 0.0028254944 -0.0069506704 -0.00035296974 0.004482217 0.0046857726
0.0035924695 0.0030164318 -0.0065421 0.0026797925 0.004348517 0.00433063 -0.004152106 -0.0047469395
-0.00043979628 -0.00644648 -0.0083465725 -0.0064834096 -0.0049392823 -0.0011318849 0.0060700793 0.0027496933
0.0003103385 -0.0007281351 0.00046146123 -0.0009582599 -0.00070534874 -0.0047050556 -0.003451765 0.0036953057
-0.0024887442 0.009213472 0.001416684 0.0034308461 -0.004353066 -0.0029802225 -0.0024385 -0.0018910787
-0.005646648 -0.0010733719 -0.004370091 -0.002206958 -0.00039204877 -0.003658096 0.002958092 0.0016205235
-0.0041759904 0.0054586176 0.004334578 0.0063825743 -0.0065083127 -0.0017651627 -0.00016493267 0.0045181396
-0.004819106 0.0030736113 0.0010742466 0.0039768363 0.0041316845 0.0008806752 -0.000923725 0.004270188
-0.0017880275 -0.00047539274 0.005177362 -0.0033515042 0.0033751167 -0.002723285 0.0056173033 -0.0014121594
00000000: 1bb8 e23a 86e2 b9bb 6eeb 63bb 397c 2539
00000010: 2c60 97bb bac5 5f3c f6c8 54ba 54ff dd3a
00000020: 6bdb a43b d24f 4c3a c96a 36bb 5030 7a3b
00000030: 8ea8 64ba 457b 6cbb b0b2 803b 84b0 08bb
00000040: c5b8 503b 5bd2 0339 4f0f 5e3b bba7 7d3b
00000050: 1576 ddbb e8f2 763b 7c68 3dba 5de5 2d3b
00000060: 01c5 bb3a 6b9c 02b9 4754 9339 0ffd 523b
00000070: 02d8 6c3b f5f6 f9bb e213 363a 9228 4eba
00000080: 6816 ca3b 7038 b03b 344c 813b df7a de3b
00000090: ae1d eebb 24e6 58bb 0bf6 3bbb e312 53b6
000000a0: 9ef6 bd3b 65d2 6dbb 8975 a83a 3374 b33b
000000b0: 8fd7 96bb 2d50 b73b 3c63 acbb 39cf ddbb
000000c0: d6ef b23a 9926 c8b9 57f6 643a ec31 f3bb
000000d0: 3f58 13ba d5d7 74bb 91ae 1fbb 7b18 2839
000000e0: e8fd 8e39 6793 b6bb 0232 5dbb ee2b 393b
000000f0: 73c2 e3bb cc0e b9b9 90df 923b 1c8b 993b
00000100: a36f 6b3b 54af 453b 1d5f d6bb 759f 2f3b
00000110: 017e 8e3b f5e7 8d3b 640e 88bb 378c 9bbb
00000120: 7594 e6b9 fe3c d3bb 10c0 08bc c872 d4bb
00000130: b4d9 a1bb c15b 94ba 84e7 c63b 3334 343b
00000140: eeb4 a239 52e0 3eba 47f0 f139 bc33 7bba
00000150: 27e7 38ba de2c 9abb 0237 62bb f12c 723b
00000160: 331a 23bb 1af4 163c 07b0 b93a 0cd8 603b
00000170: 2aa4 8ebb d64f 43bb 3ecf 1fbb 12de f7ba
00000180: 8407 b9bb 62b0 8cba fb32 8fbb 9ca2 10bb
00000190: e58b cdb9 abbc 6fbb 8cdc 413b bf67 d43a
000001a0: bfd6 88bb 34de b23b 1309 8e3b ea24 d13b
000001b0: af43 d5bb 085d e7ba c7f1 2cb9 e70c 943b
000001c0: 97e9 9dbb a46e 493b bccd 8c3a 1f50 823b
000001d0: 1563 873b 1ddd 663a 2326 72ba efec 8b3b
000001e0: 3f5c eaba 223e f9b9 dca6 a93b e9a4 5bbb
000001f0: 1031 5d3b 2479 32bb 5b11 b83b 3518 b9ba

action_model._continuous_distribution.log_sigma f4 [1, 2]
-0.003895306 -0.002057496
00000000: 6448 7fbb 0ed7 06bb

action_model._continuous_distribution.mu.weight f4 [2, 128]
-0.0039331764 0.008697921 0.025607394 -0.0058549796 0.010268383 0.056437608 -0.014939272 -0.002276706
-0.02642515 -0.02442083 0.04511502 -0.009171842 0.004440431 -0.020365087 -0.04666784 0.009394575
-0.004630973 0.0040530213 -0.016010944 -0.013559244 -0.003789166 0.029376883 0.017124815 -0.0017050073
-0.006543196 0.012984841 -0.011494502 0.019906942 -0.010120313 -0.0014781975 0.004746662 0.03716951
-0.012954007 -0.0042725545 -0.013719787 0.018682985 0.011760864 0.024735626 0.0051042223 0.013087479
-0.0112078255 0.009099672 0.0054700035 -0.010317773 0.0017949423 -0.024486914 0.016379664 0.008438354
0.005753521 -0.013593411 -0.03210547 0.00019242318 0.007244871 0.03842322 0.014049953 0.023161402
-0.009848151 0.03185186 -0.025529526 0.0074773896 0.00041336872 -0.0058781975 -0.0071432656 -0.0013280397
0.02873709 -0.0017838974 0.0015939169 -0.01545797 -0.036018685 -0.0035453087 -0.010784436 0.028865581
0.024856295 0.032383934 -0.0008286329 0.016039671 0.048379317 -0.0066534104 0.01475247 -0.0031778477
-0.020495052 -0.008543551 -0.022126256 0.0060570813 0.009531051 0.0016269962 5.8697893e-05 0.010888886
0.0009260839 0.02792774 -0.015852602 -0.007983165 0.020934818 -0.016266048 -0.0048450823 0.015453673
0.031497627 -0.011207763 -0.0065013124 -0.008707982 -0.013603833 0.0023092185 0.0025498504 0.017166052
0.0016483199 -0.010289097 -0.009509287 -0.019333687 -0.0029813165 -0.0043181577 0.002970078 -0.02707673
0.0058899163 -0.0049435864 0.032967884 -0.015468571 -0.055408202 0.014150357 0.011785795 -0.010556605
0.0018584295 -0.010780419 -0.012198471 0.0057259914 -0.0018479512 -0.002914958 -0.0074749915 0.014825078
0.013611256 -0.0004434641 0.013222791 0.023395484 0.004937258 -0.024902575 -0.024563003 -0.039305285
0.001223857 -0.029284338 -0.0029549925 -0.0037351944 -0.003645235 -0.017625581 -0.026879165 0.019268427
0.0014464642 -0.007420927 -0.0078085563 -0.0006441774 0.0012246692 -0.0015097795 -0.00725211 -0.034727175
-0.005444762 0.020384395 -0.0107365195 -0.034766853 0.007974581 0.0014799725 0.016284702 -0.021104833
0.0042064437 0.017935328 -0.004020343 -0.008891742 -0.0070443307 0.00766221 0.01419 0.0025956724
0.0008515428 0.007846456 -0.0022765542 0.0011437372 -0.0084488075 -0.0018006709 -0.016541472 -0.03637671
-0.026878407 -0.012103232 -0.03629948 -0.00078158575 0.013665357 0.011410265 -0.03791998 0.0005459472
-0.010072662 -0.017606376 0.0064244815 -0.040424176 -0.0016771675 -0.01432243 0.02301097 0.015805509
-0.0052427324 0.0053158468 0.0011101345 -0.008083228 -0.0006602464 0.0029403 0.0074974145 0.0007316353
-0.010686774 -0.0091624325 0.006319203 -0.013908941 0.0049664695 -0.014350054 -0.016886843 0.00015432795
0.021310221 -0.004282922 -0.026747236 0.0017041996 0.011737765 -0.004397812 -0.0035891377 -0.036094137
0.0056856927 -0.01875842 0.00095077744 -0.0010056263 0.011649354 -0.0036305594 0.008470233 0.0213969
0.0014773837 0.008995395 -0.0026598503 0.0025425383 0.022627957 -0.023903094 -0.009059093 0.022355027
-0.009670851 0.024401736 0.008494788 0.0036874632 0.006277748 -0.016461661 -0.01674845 -0.00019297704
0.002735262 0.023127042 8.615599e-06 0.00815227 -0.01610418 -0.0023203935 0.032866962 0.0021663741
-0.030214796 0.010285103 0.00388451 0.0048093228 0.004701469 -0.031446014 0.0047346316 -0.006391358
00000000: e0e1 80bb ba81 0e3c 99c6 d13c 21db bfbb
00000010: b83c 283c 1f2b 673d d9c3 74bc ca34 15bb
00000020: 8e79 d8bc 310e c8bc 87ca 383d 7e45 16bc
00000030: 0981 913b afd4 a6bc c726 3fbd b4eb 193c
00000040: 6bbf 97bb 35cf 843b 6229 83bc 9727 5ebc
00000050: a853 78bb caa7 f03c 5749 8c3c 8d7a dfba
00000060: 4e68 d6bb 5fbe 543c 7053 3cbc e213 a33c
00000070: abcf 25bc 14c0 c1ba e389 9b3b 0e3f 183d
00000080: 0b3d 54bc c900 8cbb f5c8 60bc 0f0d 993c
00000090: a4b0 403c 5ea2 ca3c 5241 a73b de6c 563c
000000a0: 07a1 37bc ca16 153c b73d b33b e00b 29bc
000000b0: 4544 eb3a c898 c8bc a52e 863c 0641 0a3c
000000c0: 0888 bc3b e6b6 5ebc 0681 03bd 34c5 4939
000000d0: 6266 ed3b ab61 1d3d c631 663c fbbc bd3c
000000e0: 245a 21bc 1977 023d 4c23 d1bc e404 f53b
000000f0: 69b9 d839 e59d c0bb 0e12 eabb 9e11 aeba
00000100: 0c6a eb3c aad1 e9ba faea d03a 6d43 7dbc
00000110: 5488 13bd 6958 68bb 34b1 30bc 8377 ec3c
00000120: 6e9f cb3c 04a5 043d 9d38 59ba a165 833c
00000130: 6429 463d da04 dabb 58b4 713c 7043 50bb
00000140: 3de5 a7bc 40fa 0bbc 1f42 b5bc 7b7a c63b
00000150: 2028 1c3c ef40 d53a 6232 7638 4c67 323c
00000160: 70c4 723a b7c8 e43c 51dd 81bc d2cb 02bc
00000170: 7f7f ab3c 6040 85bc 7fc3 9ebb 6731 7d3c
00000180: a803 013d c4a0 37bc f608 d5bb ecab 0ebc
00000190: 9ce2 5ebc 4256 173b 641b 273b d29f 8c3c
000001a0: 700c d83a 9a93 28bc d7cc 1bbc ae61 9ebc
000001b0: 3162 43bb 557f 8dbb a4a5 423b 05d0 ddbc
000001c0: 3300 c13b cffd a1bb 5509 073d e46f 7dbc
000001d0: b6f3 62bd e6d6 673c 3519 413c 9cf5 2cbc
000001e0: 8c96 f33a 5ba0 30bc 19dc 47bc 19a1 bb3b
000001f0: f436 f2ba e108 3fbb c6f0 f4bb e2e4 723c
00000200: bf01 5f3c be80 e8b9 68a4 583c e3a7 bf3c
00000210: b9c8 a13b 7c00 ccbc 5a38 c9bc 94fe 20bd
00000220: d469 a03a b5e5 efbc 8ca8 41bb 2aca 74bb
00000230: e5e4 6ebb 8663 90bc b231 dcbc d2d8 9d3c
00000240: 4997 bd3a 3f2b f3bb ebde ffbb 03de 28ba
00000250: 1485 a03a cbe3 c5ba 1ca3 edbb 153e 0ebd
00000260: f969 b2bb 2dfd a63c 3ae8 2fbc b067 0ebd
00000270: d1a7 023c a3fb c13a 7f67 853c 0be4 acbc
00000280: 35d6 893b 1ced 923c 15bd 83bb abae 11bc
00000290: 21d4 e6bb 4713 fb3b 2c7d 683c 281c 2a3b
000002a0: 123a 5f3a 6c8e 003c 3e32 15bb 74e9 953a
000002b0: de6c 0abc 7d04 ecba fb81 87bc bfff 14bd
000002c0: 1b30 dcbc a24c 46bc c3ae 14bd 55e3 4cba
000002d0: a9e4 5f3c 1ff2 3a3c fb51 1bbd e51d 0f3a
000002e0: ce07 25bc 3f3b 90bc 7584 d23b d293 25bd
000002f0: 67d4 dbba a0a8 6abc 8081 bc3c 8e7a 813c
00000300: 3acb abbb 8e30 ae3b ef81 913a 846f 04bc
00000310: 6314 2dba 0cb2 403b dfac f53b 37cb 3f3a
00000320: 9417 2fbc 071e 16bc 5111 cf3b 54e2 63bc
00000330: c4bd a23b 7d1c 6bbc 4756 8abc 18d3 2139
00000340: c692 ae3c c157 8cbb 051d dbbc 735f df3a
00000350: c14f 403c 851b 90bb bd37 6bbb 72d7 13bd
00000360: 0c4f ba3b 42ab 99bc 983d 793a 38cf 83ba
00000370: efdc 3e3c aeee 6dbb bbc6 0a3c 8d48 af3c
00000380: c5a4 c13a 6c61 133c e250 2ebb b7a0 263b
00000390: 445e b93c 6cd0 c3bc 976c 14bc e421 b73c
000003a0: 7d72 1ebc 26e6 c73c b92d 0b3c 5ea9 713b
000003b0: 91b5 cd3b 9bda 86bc 0c34 89bc e159 4ab9
000003c0: 1542 333b ec74 bd3c b78b 1037 1991 053c
000003d0: eaec 83bc be11 18bb 829f 063d baf9 0d3b
000003e0: 0585 f7bc d982 283c 4393 7e3b 8697 9d3b
000003f0: c80e 9a3b 89cd 00bd f824 9b3b 996e d1bb

action_model._continuous_distribution.mu.bias f4 [2]
-0.004453241 0.0025452813
00000000: 7eec 91bb bcce 263b

exp_avg f4 [128, 9]
-1.6407916e-05 -6.610868e-06 -4.0941843e-05 -3.2668208e-09 -3.4276713e-06 3.736623e-09 -5.867775e-06 -1.4331457e-05
-6.6716293e-06 0.0020649964 8.000977e-05 -0.009063665 6.2337523e-07 3.4102086e-05 -5.3729957e-07 -6.1762044e-08
0.0018711619 2.5706382e-05 0.0001400131 -1.16687925e-05 -0.00042786988 7.2688545e-07 2.0912134e-05 -1.2540626e-07
-8.074051e-06 0.00022839083 -1.1468986e-05 -2.2714755e-06 -1.2213956e-06 -0.00033672008 3.3424604e-07 7.817461e-06
4.145618e-07 -4.3437576e-06 1.12832495e-05 -1.7351208e-06 -0.0003076777 -7.768728e-06 0.00016039674 -1.2699544e-06
2.7908002e-06 -7.713134e-06 9.705017e-07 -0.00032141453 -8.996375e-06 0.0001761593 6.158598e-06 -9.2086906e-05
1.8311357e-06 -3.1195962e-06 3.818837e-06 -2.8401055e-06 0.00017248155 6.9790576e-06 0.0009175443 1.42604395e-05
-0.00021927798 -7.773116e-06 -8.388704e-06 1.21171115e-05 -2.6315101e-05 0.00087842497 2.5648678e-05 -4.2356547e-05
2.712076e-06 -0.00013666418 -4.907142e-09 2.8075406e-06 2.4241258e-09 -5.6754907e-06 -2.1214451e-05 2.6923178e-06
-1.48132485e-05 -2.0056898e-06 3.2067055e-05 -3.865167e-07 3.251073e-06 2.7061927e-07 -1.1932536e-06 -1.1342999e-05
-2.0911698e-06 0.0002986673 6.3684333e-06 -0.0004863064 -4.1252724e-06 -2.960301e-06 -7.048494e-08 1.43205e-06
0.00031041927 7.3933293e-06 0.0009876201 5.5870078e-05 -0.0043171 -1.9925264e-05 3.0106698e-05 3.3565237e-05
-1.4211114e-05 0.0008520914 6.43752e-05 0.00013824062 2.149128e-06 -9.219289e-05 -1.4548756e-06 9.963833e-08
5.850306e-06 2.8773664e-07 0.00015923317 1.8923982e-06 2.2100538e-05 5.7467855e-06 4.6200115e-05 -4.561575e-09
2.5941927e-06 7.465003e-10 1.4347611e-07 2.7371545e-05 5.7731545e-06 6.6152505e-05 -2.1812672e-05 0.002515454
-1.4170939e-05 -8.2963595e-07 2.4251038e-05 -4.662351e-05 2.4260746e-05 2.039022e-05 -0.002889394 -0.000103569546
0.012148322 -3.3884753e-06 -4.885451e-05 5.846471e-06 -1.9859795e-05 -0.0027191073 -4.1310283e-05 0.0008429906
2.9762537e-05 -0.003451849 -6.791649e-06 2.8291775e-05 1.2246093e-05 -8.424679e-06 0.00075288303 1.5407923e-05
-0.00081267854 -2.1545446e-05 0.0024278604 6.0584466e-06 -5.508585e-06 -1.1138825e-05 6.2048925e-06 -0.0007108861
-2.2434806e-05 -0.00054235576 -1.3579439e-06 0.0024607382 2.9132061e-06 -4.2234433e-06 9.05797e-06 -7.312212e-05
-0.0007330105 1.4825981e-05 0.0016654625 4.837313e-05 -0.0024550273 -1.3091417e-05 6.6412936e-06 2.578957e-05
-4.696529e-05 0.0014587453 4.451557e-05 -0.00025324387 2.6297728e-05 -0.0016795138 -2.5860226e-07 1.7520497e-06
-3.2286403e-07 -7.6265496e-06 -0.00025769867 2.6481135e-05 -0.00014829384 1.2516119e-05 2.5563255e-05 5.807002e-08
-7.503703e-06 9.7484424e-08 -3.887496e-06 -0.00017333223 1.2537899e-05 -0.00015699834 -1.4062244e-06 0.00024032682
-2.0372075e-07 3.7870832e-06 3.3792808e-06 -1.6996673e-06 -9.922948e-05 -8.026565e-06 -3.681053e-05 -5.030216e-06
4.1559924e-05 -1.269822e-07 4.6467303e-06 -4.8121854e-07 3.3117576e-06 -2.1112535e-05 -5.630233e-06 -5.7145222e-05
-2.7996339e-06 -1.966593e-05 -9.517505e-10 -1.9580182e-06 1.9254182e-11 -6.7704957e-07 -6.1292965e-05 -2.8209697e-06
1.7426715e-05 -3.9221886e-06 -0.00031412684 -1.2373784e-08 1.3182316e-05 4.9593485e-09 -8.27725e-06 8.124446e-05
-3.95916e-06 -0.000103179445 -1.3676751e-05 0.0032104594 4.4759194e-08 -2.5474754e-05 8.231077e-08 -1.0518305e-05
-0.00010968169 -1.15371995e-05 -0.0008327335 -1.9782861e-05 0.0018664375 -5.752051e-06 1.9948995e-06 4.2349234e-06
-7.544779e-06 -0.00080315484 2.2871832e-06 0.00025647727 -2.5145e-06 -2.4160918e-05 4.0187415e-06 -6.066231e-08
4.2857205e-06 -1.0186795e-05 0.00024119494 -1.2756446e-06 -2.885854e-05 2.0024672e-05 -0.003336043 -1.7794835e-06
00000000: bba3 89b7 ecd2 ddb6 f8b8 2bb8 857e 60b1
00000010: f206 66b6 af63 8031 cee3 c4b6 2471 70b7
00000020: dcdc dfb6 e454 073b ebca a738 c47f 14bc
00000030: 0556 2735 d608 0f38 f23a 10b5 0ba2 84b3
00000040: c641 f53a 09a4 d737 7bd0 1239 15c5 43b7
00000050: b953 e0b9 301f 4335 776c af37 69a7 06b4
00000060: c975 07b7 327c 6f39 eb6a 40b7 a76f 18b6
00000070: d5ee a3b5 ce89 b0b9 6d72 b334 bd27 0337
00000080: f190 de34 98c0 91b6 304d 3d37 4ce2 e8b5
00000090: cd4f a1b9 6f56 02b7 2c30 2839 4d73 aab5
000000a0: 9549 3b36 a967 01b7 2f42 8235 8783 a8b9
000000b0: 23ef 16b7 67b7 3839 f4a5 ce36 c81e c1b8
000000c0: 58c5 f535 415a 51b6 8f23 8036 a498 3eb6
000000d0: 2adc 3439 a62d ea36 5b87 703a 1f40 6f37
000000e0: fced 65b9 4769 02b7 36bd 0cb7 994a 4b37
000000f0: 40bf dcb7 1a46 663a 1e28 d737 ffa7 31b8
00000100: 1c01 3636 834d 0fb9 ad9b a8b1 2e69 3c36
00000110: ac95 2631 1870 beb6 b0f5 b1b7 abad 3436
00000120: 6b86 78b7 7d99 06b6 bd7f 0638 7382 cfb4
00000130: 022d 5a36 a149 9134 e227 a0b5 cf4d 3eb7
00000140: 0656 0cb6 7296 9c39 6db0 d536 f1f6 feb9
00000150: d26b 8ab6 95a9 46b6 815d 97b3 dd34 c035
00000160: c5bf a239 3714 f836 0873 813a 0a56 6a38
00000170: 7676 8dbb 2e25 a7b7 a48d fc37 66c8 0c38
00000180: 456c 6eb7 e35e 5f3a 2c01 8738 aff4 1039
00000190: bd39 1036 ae57 c1b8 2545 c3b5 c0f8 d533
000001a0: bf4d c436 397a 9a34 d4f7 2639 4ffe fd35
000001b0: 8b64 b937 83d4 c036 ffc6 4138 0abc 9cb1
000001c0: e417 2e36 4a32 4d30 6a0e 1a34 f29b e537
000001d0: 05b7 c136 5bbb 8a38 5bfa b6b7 51da 243b
000001e0: b8bf 6db7 26b4 5eb5 b56e cb37 9d8d 43b8
000001f0: 8e83 cb37 aa0b ab37 fd5b 3dbb 7a33 d9b8
00000200: c109 473c 9065 63b6 21e9 4cb8 ce2c c436
00000210: 9698 a6b7 0d33 32bb 9444 2db8 24fc 5c3a
00000220: 90aa f937 6b38 62bb d2e3 e3b6 2054 ed37
00000230: 9274 4d37 b957 0db7 205d 453a 4340 8137
00000240: ef09 55ba 7ebc b4b7 bd1c 1f3b a949 cb36
00000250: 63d6 b8b6 e4e0 3ab7 9f33 d036 c25a 3aba
00000260: 6132 bcb7 e12c 0eba 9942 b6b5 5644 213b
00000270: 8080 4336 1ab7 8db6 aff7 1737 2459 99b8
00000280: 8127 40ba 1bbd 7837 a64b da3a 41e4 4a38
00000290: 86e4 20bb 35a3 5bb7 47d8 de36 ae56 d837
000002a0: 99fc 44b8 5f33 bf3a 3bb6 3a38 d1c5 84b9
000002b0: f199 dc37 2223 dcba 06d6 8ab4 f827 eb35
000002c0: 1856 adb4 90e7 ffb6 bb1b 87b9 ce23 de37
000002d0: 537f 1bb9 52fc 5137 ac70 d637 aa68 7933
000002e0: 51c8 fbb6 a158 d133 5671 82b6 84c0 35b9
000002f0: de59 5237 ec9f 24b9 81bd bcb5 3d00 7c39
00000300: 55be 5ab4 9825 7e36 9ac7 6236 2020 e4b5
00000310: 6c19 d0b8 d6a9 06b7 0165 1ab8 3ac9 a8b6
00000320: a150 2e38 9a58 08b4 1ceb 9b36 162d 01b5
00000330: 903f 5e36 d31a b1b7 55eb bcb6 37af 6fb8
00000340: 58e1 3bb6 43f8 a4b7 bece 82b0 7f66 03b6
00000350: 905c a92d 7ebe 35b5 698a 80b8 e44f 3db6
00000360: 962f 9237 589b 83b6 64b1 a4b9 7a94 54b2
00000370: 9e29 5d37 e466 aa31 85de 0ab7 ca61 aa38
00000380: edd8 84b6 0b62 d8b8 3375 65b7 9266 523b
00000390: 413d 4033 9eb2 d5b7 d3c2 b033 c777 30b7
000003a0: e904 e6b8 e58f 41b7 cd4b 5aba 5ff3 a5b7
000003b0: 40a3 f43a be01 c1b6 1de0 0536 b719 8e36
000003c0: 2829 fdb6 cf8a 52ba 827d 1936 cc77 8639
000003d0: c8be 28b6 2dad cab7 bad8 8636 7545 82b3
000003e0: 0fce 8f36 f4e7 2ab7 46e9 7c39 d136 abb5
000003f0: 3e15 f2b7 a8fa a737 84a1 5abb 96d6 eeb5

exp_avg_sq f4 [128, 9]
8.099359e-06 1.18087655e-08 6.3697706e-07 8.460303e-15 4.3950217e-09 9.130016e-15 4.2570782e-09 8.925446e-06
1.0867287e-08 4.9190538e-05 7.277676e-08 0.0007018432 2.8500842e-09 1.24041515e-08 2.3318378e-09 1.2423852e-08
5.1482195e-05 7.1509396e-07 7.344258e-07 6.264895e-09 1.380335e-06 1.863419e-12 4.220268e-09 2.1425312e-12
1.1061402e-09 1.0460057e-06 6.256704e-09 4.7906077e-08 4.6646564e-10 1.1740085e-06 5.977453e-13 2.1905094e-10
4.2697952e-13 1.6556236e-10 4.932683e-08 4.6705395e-10 1.671155e-05 2.2181656e-08 1.5322095e-06 3.64794e-10
6.814393e-09 4.0710993e-10 7.4261677e-09 1.8226649e-05 2.088766e-08 4.110055e-06 4.7363473e-09 3.7468126e-07
1.2673654e-10 1.5737022e-09 1.4098622e-10 1.6021756e-09 4.2827687e-06 7.0015163e-09 1.0439548e-05 2.3922482e-08
0.00022452282 5.395598e-10 3.8415418e-09 5.020736e-10 3.7277164e-09 1.0532305e-05 2.120296e-07 4.2271502e-08
3.0913544e-10 9.091179e-08 1.1245973e-16 1.909436e-10 1.0512302e-16 1.0003003e-10 4.700553e-08 3.0672986e-10
1.3858195e-06 2.172763e-09 1.3123285e-07 1.4466188e-12 6.8820116e-10 1.4066465e-12 6.138465e-10 1.5810685e-06
1.8449187e-09 8.491079e-06 6.9259007e-09 2.9150737e-05 5.3041643e-10 1.8406406e-09 5.253931e-10 1.8086944e-09
9.452796e-06 7.999232e-09 5.980148e-05 8.5592504e-08 0.0006901419 2.9081704e-09 1.3591378e-08 2.6142315e-09
1.38323e-08 6.3925894e-05 8.830975e-07 4.595949e-06 4.6219424e-09 1.2450464e-06 2.8734706e-10 1.2808961e-09
2.8629646e-10 1.4468398e-09 4.6934906e-06 5.0658935e-09 1.4787572e-07 7.1060385e-10 4.077123e-08 7.1499687e-16
3.7331796e-10 7.104185e-16 2.8840702e-10 1.9136799e-07 3.8727737e-09 4.0923256e-05 3.9239293e-08 0.00034581384
1.7880409e-09 6.542013e-09 1.7191997e-09 7.126055e-09 4.2291806e-05 2.2471997e-07 9.451815e-05 1.5962124e-07
0.0013611327 4.6950244e-09 3.1719836e-08 4.253027e-09 3.2961633e-08 9.842856e-05 2.3395486e-07 1.0147692e-05
1.6043924e-08 0.00014509658 5.3388344e-10 3.0719431e-09 4.517148e-10 2.995635e-09 1.0611089e-05 1.4395503e-07
8.073947e-06 1.0034996e-08 7.7887904e-05 5.4097293e-10 2.661791e-09 5.3797106e-10 1.9458337e-09 9.020416e-06
2.5376021e-08 2.4183046e-05 8.570106e-08 0.00090113183 1.3631589e-09 1.48710635e-08 1.0071093e-09 1.4744378e-08
2.1305079e-05 2.9089142e-06 3.2307715e-05 3.2689133e-08 0.00034024188 1.7065964e-09 5.1965023e-09 1.5676188e-09
4.914813e-09 3.4218174e-05 1.0608255e-07 1.0621125e-06 1.549348e-08 0.00011866392 2.4220317e-11 4.1957864e-09
4.5230486e-12 4.0683243e-09 9.823291e-07 1.5416377e-07 1.16476826e-07 1.0513558e-09 1.1266242e-07 5.3827372e-14
7.7139634e-10 2.901618e-14 1.259474e-10 1.7997363e-07 1.0548743e-09 3.291715e-06 4.109379e-09 4.0716154e-06
1.7248948e-10 1.085344e-09 1.11516824e-10 1.2266016e-09 3.4967188e-06 4.3822698e-07 3.1311072e-07 5.88976e-10
3.666088e-06 6.8981945e-11 2.2172808e-10 2.0833156e-11 1.7224855e-10 1.8143868e-07 4.350076e-07 3.2168128e-08
3.2727734e-10 2.1599442e-08 1.3312948e-16 2.3568394e-10 1.6133047e-16 5.2778375e-11 4.9633492e-08 3.2650593e-10
2.2085833e-07 1.9588322e-09 1.7922761e-07 7.367644e-16 1.4626462e-09 8.1244055e-16 2.6512822e-10 3.3394045e-07
1.9566733e-09 4.4971944e-07 8.300448e-09 5.8170262e-05 1.3403492e-11 2.8800538e-09 2.5280104e-12 2.474762e-09
4.7721943e-07 1.304514e-07 2.4081575e-05 1.955983e-08 0.00016419734 1.6839392e-09 3.6573053e-09 1.5491973e-09
3.408379e-09 2.5656811e-05 3.4059084e-07 2.2534574e-05 2.7285518e-08 3.413999e-06 6.366242e-10 8.225315e-09
6.221549e-10 8.502907e-09 2.4071482e-05 2.686454e-08 9.710373e-06 2.4751213e-08 0.00021846141 5.587468e-10
00000000: 7be2 0737 80df 4a32 bbfc 2a35 4368 1828
00000010: 0503 9731 c478 2428 a845 9231 80be 1537
00000020: d5b2 3a32 f051 4e38 7249 9c33 e6fb 373a
00000030: 36db 4331 091a 5532 203e 2031 ae70 5532
00000040: 96ee 5738 e2f4 3f35 5b25 4535 9942 d731
00000050: f343 b935 5f20 032c df01 9131 69c4 162c
00000060: d906 9830 7b64 8c35 8dfa d631 4ac1 4d33
00000070: 9a38 0030 a092 9d35 1740 282b 5cd9 702f
00000080: 3c5e f02a a909 362f 6cdb 5333 0062 0030
00000090: c82f 8c37 fa89 be32 51a6 cd35 318c c82f
000000a0: 0924 ea31 a1cf df2f 4329 ff31 6ee5 9837
000000b0: 736c b332 1be9 8936 5abd a231 cd27 c934
000000c0: 2a59 0b2f b949 d830 1804 1b2f 8b33 dc30
000000d0: b4b4 8f36 fd91 f031 8425 2f37 187e cd32
000000e0: e36d 6b39 2550 1430 8ffe 8331 4a02 0a30
000000f0: 5715 8031 e8b3 3037 41aa 6334 028e 3533
00000100: f2f2 a92f 493b c333 41a8 0125 d8f1 512f
00000110: ae65 f224 e7f7 db2e 20e3 4933 64a0 a82f
00000120: 6500 ba35 a74f 1531 03e9 0c34 ef97 cb2b
00000130: da2b 3d30 c8f7 c52b 9bbb 2830 1a35 d435
00000140: 4e90 fd30 e874 0e37 def8 ed31 bb88 f437
00000150: bdcc 1130 c9f9 fc30 416b 1030 c795 f830
00000160: 7397 1e37 ff6c 0932 5ad3 7a38 face b733
00000170: a4ea 343a 13d9 4731 837f 6932 0ca6 3331
00000180: 19a3 6d32 f40f 8638 000e 6d35 e736 9a36
00000190: 09cf 9e31 781b a735 81f8 9d2f 860b b030
000001a0: a564 9d2f 26da c630 c77c 9d36 1210 ae31
000001b0: c5c7 1e34 4d54 4330 711c 2f33 7515 4e26
000001c0: d53b cd2f a2c3 4c26 ae8d 9e2f d57a 4d34
000001d0: 4711 8531 03a5 2b38 0f88 2833 594e b539
000001e0: 19bf f530 28c8 e031 f648 ec30 71d9 f431
000001f0: 7b62 3138 8e4a 7134 0c38 c638 5a64 2b34
00000200: 0968 b23a df51 a131 543c 0833 0522 9231
00000210: b391 0d33 6e6b ce38 0635 7b34 0140 2a37
00000220: f6d0 8932 1125 1839 b5c0 1230 321a 5331
00000230: 3555 f82f c5db 4d31 4806 3237 0f92 1a34
00000240: 5775 0737 6166 2c32 c057 a338 96b3 1430
00000250: b9ea 3631 59e0 1330 78b7 0531 6456 1737
00000260: 76fa d932 b2dc ca37 a80a b833 ef39 6c3a
00000270: e459 bb30 a17b 7f32 826a 8a30 764e 7d32
00000280: 4fb8 b237 c436 4336 2582 0738 1566 0c33
00000290: 7e62 b239 868d ea30 eb8c b231 af73 d730
000002a0: 27df a831 7c85 0f38 80cf e333 e88d 8e35
000002b0: 8616 8532 35db f838 4e0b d52d 872a 9031
000002c0: 0024 9f2c 5cc9 8b31 92d8 8335 3788 2534
000002d0: d021 fa33 4b7f 9030 d2f0 f133 bc6a 7229
000002e0: 310a 5430 61ad 0229 0b7b 0a2f c63e 4134
000002f0: 17fb 9030 3ce7 5c36 7b32 8d31 e99e 8836
00000300: 79a7 3d2f 262b 9530 643a f52e 3595 a830
00000310: 2ca9 6a36 7545 eb34 9c19 a834 80e5 2130
00000320: ea06 7636 62b1 972e e8ca 732f 1940 b72d
00000330: a863 3d2f 7cd1 4234 fd8a e934 3b29 0a33
00000340: 31ec b32f ad89 b932 e37c 1925 9191 812f
00000350: 5a00 3a25 2b1f 682e 9a2c 5533 a07f b32f
00000360: 1325 6d34 249c 0631 b671 4034 9e5b 5426
00000370: 4a06 c930 882b 6a26 7bc1 912f 6d48 b334
00000380: 2976 0631 f870 f134 c299 0e32 d8fb 7338
00000390: f6cb 6b2d 71ea 4531 96e4 312c 7910 2a31
000003a0: 451a 0035 3512 0c34 ca02 ca37 8504 a832
000003b0: 632c 2c39 5870 e730 ff53 7b31 89eb d430
000003c0: d638 6a31 9539 d737 73da b634 a108 bd37
000003d0: 7d61 ea32 0e1c 6536 72fe 2e30 514f 0d32
000003e0: 4204 2b30 2e14 1232 1ded c937 c0c3 e632
000003f0: bce9 2237 7e9c d432 ca12 6539 5096 1930

exp_avg f4 [128]
6.1226283e-06 -7.7641314e-05 1.0754752e-05 1.1262497e-06 8.387183e-06 -6.489107e-06 -1.3780135e-05 -2.5088016e-06
1.9824731e-06 -6.370788e-06 -5.0137805e-05 -1.5936158e-06 -5.3232684e-06 2.3195338e-05 0.00010151338 -2.7788092e-05
2.036718e-05 6.339765e-06 -4.5159188e-05 -2.4436958e-05 -1.1588455e-05 1.8540916e-06 4.701443e-06 2.5919767e-06
3.6373128e-06 1.26784835e-05 2.071484e-05 1.0926191e-06 -1.8598628e-05 1.8094672e-06 5.5320208e-05 -4.6393907e-05
-9.083624e-05 -4.0430354e-05 8.931651e-06 2.5695476e-06 2.1795593e-05 3.2335927e-05 -3.119623e-06 8.712962e-06
1.2254535e-05 -1.657696e-05 2.0100246e-05 6.793569e-07 0.00010840995 -2.7190595e-06 2.4575982e-05 -6.172422e-05
9.65752e-05 -6.521264e-05 2.2573977e-05 1.7365803e-05 -1.5386699e-05 3.749442e-06 4.6492187e-05 5.9397276e-05
-9.346956e-06 5.1541524e-06 3.142201e-06 -6.9583452e-06 5.0048286e-05 -2.3577806e-05 -5.677129e-06 4.0068653e-06
3.909199e-06 5.1561483e-06 3.5531728e-05 -5.4645902e-06 9.069173e-06 5.350026e-06 3.9585764e-05 -5.737252e-06
2.8991233e-05 -2.8098682e-05 2.4693475e-06 6.386858e-07 1.7065324e-05 3.8944613e-06 -7.130894e-05 -3.803613e-05
3.9176207e-06 -1.7150513e-06 4.8462725e-06 7.632465e-06 4.9041522e-05 8.457872e-06 4.7476005e-05 -6.9853313e-06
-6.206615e-06 1.0927545e-05 3.5537978e-05 -5.450326e-06 2.1683314e-05 -7.470152e-06 -1.2237733e-05 -3.076971e-05
6.244051e-05 9.7985896e-05 -0.0001656216 2.9826276e-06 -3.283746e-06 3.2126492e-05 2.4349345e-06 -5.3805884e-06
2.0389962e-05 4.2522165e-06 4.2773103e-05 -2.1500748e-05 1.7094002e-05 1.0557621e-05 -7.5697285e-06 -2.3206652e-05
5.435279e-06 4.260292e-05 -9.8490345e-06 2.3492737e-06 -1.8460158e-06 -3.1403547e-06 -2.8502043e-06 1.0481411e-05
2.8350416e-05 3.8962394e-06 -3.797413e-05 -3.370421e-05 -2.0643436e-05 -1.1190416e-06 -1.7949254e-05 1.0255844e-05
00000000: fa70 cd36 5dd3 a2b8 4f6f 3437 a529 9735
00000010: adb6 0c37 01bd d9b6 3b31 67b7 e25c 28b6
00000020: a10a 0536 a7c4 d5b6 0f4b 52b8 39e4 d5b5
00000030: 879e b2b6 9c93 c237 95e3 d438 791a e9b7
00000040: 30da aa37 2bba d436 4f69 3db8 f8fd ccb7
00000050: 096c 42b7 1ada f835 16c1 9d36 d2f1 2d36
00000060: 8f18 7436 acb5 5437 c8c4 ad37 1ba6 9235
00000070: 4004 9cb7 d2dc f235 9f07 6838 1497 42b8
00000080: 567f beb8 c393 29b8 26d9 1537 7e70 2c36
00000090: aed5 b637 70a0 0738 b75a 51b6 e32d 1237
000000a0: d498 4d37 c00e 8bb7 f39c a837 0d5d 3635
000000b0: 265a e338 1679 36b6 8528 ce37 f071 81b8
000000c0: 6a88 ca38 c5c2 88b8 3f5d bd37 c7ac 9137
000000d0: af12 81b7 ec9e 7b36 9b00 4338 5721 7938
000000e0: dfd0 1cb7 d5f1 ac36 9ade 5236 bb7b e9b6
000000f0: f0ea 5138 f4c8 c5b7 2b7e beb6 b672 8636
00000100: c42b 8336 fa02 ad36 e707 1538 795c b7b6
00000110: cd27 1837 6084 b336 e408 2638 9f82 c0b6
00000120: 3332 f337 76b5 ebb7 11b7 2536 2772 2b35
00000130: 8127 8f37 2bad 8236 b28b 95b8 fc88 1fb8
00000140: 1b74 8336 b730 e6b5 2a9d a236 300d 0037
00000150: efb1 4d38 49e6 0d37 f920 4738 8a63 eab6
00000160: 6b42 d0b6 7355 3737 9d0e 1538 f2e1 b6b6
00000170: 90e4 b537 1ea8 fab6 aa50 4db7 b90e 01b8
00000180: 7ef2 8238 c77d cd38 b6aa 2db9 2729 4836
00000190: 545e 5cb6 8fbf 0638 db67 2336 e78a b4b6
000001a0: 1c0b ab37 43ae 8e36 4567 3338 815c b4b7
000001b0: 1765 8f37 a320 3137 79ff fdb6 e8ab c2b7
000001c0: b160 b636 89b0 3238 483d 25b7 37a8 1d36
000001d0: 9fc4 f7b5 e2be 52b6 2346 3fb6 51d9 2f37
000001e0: 0ed2 ed37 71bc 8236 6946 1fb8 9f5d 0db8
000001f0: 712b adb7 fa31 96b5 bb91 96b7 8410 2c37

exp_avg_sq f4 [128]
1.013263e-08 6.897655e-08 5.3739138e-09 4.0035691e-10 1.9547574e-08 4.251077e-09 2.1910452e-08 2.6520128e-10
1.8629327e-09 6.800838e-09 8.129246e-08 4.3315804e-09 6.099859e-10 3.790503e-08 1.4791776e-07 1.5113915e-08
9.767223e-09 7.623829e-08 3.2172206e-08 1.33220945e-08 9.0137625e-10 3.721342e-09 5.4920696e-10 2.8069094e-10
1.679779e-09 7.1372153e-09 1.9744213e-08 2.439684e-08 2.229546e-08 1.7374232e-09 3.901955e-08 1.0396392e-07
1.71972e-07 7.048851e-08 7.2342066e-10 1.0262671e-09 1.4494865e-08 1.7048114e-08 1.2851197e-09 1.2702387e-08
2.309393e-08 2.9513624e-08 7.1081175e-08 3.409931e-08 1.0841154e-07 4.9571565e-08 4.8101626e-08 4.7906276e-08
8.296016e-08 4.652522e-08 1.3155496e-07 6.1335306e-09 7.673159e-08 2.1498198e-10 7.0539166e-08 2.8192678e-08
2.3087574e-09 4.3325873e-10 3.782291e-09 1.7392692e-09 4.8063534e-08 1.4356866e-08 5.3073684e-08 7.549545e-09
2.7452463e-10 7.766e-10 3.588446e-08 1.6442318e-09 4.1803974e-09 2.3012814e-09 8.7108376e-08 2.0196543e-08
1.6035264e-08 1.2424724e-08 1.7038809e-10 7.842945e-11 2.526236e-08 2.6291798e-09 1.2853053e-07 1.4358434e-08
5.0954974e-10 4.49638e-10 3.3002065e-10 6.7203136e-09 2.7636197e-08 6.023343e-10 1.8643448e-08 1.3996089e-09
1.0677063e-09 5.367489e-09 3.6417344e-08 9.4324895e-09 1.0819976e-08 8.743596e-08 2.6553657e-09 2.1915694e-08
4.2677968e-08 1.2412576e-07 5.014354e-07 1.3887907e-08 7.8992357e-10 2.5986154e-08 5.2003264e-09 4.0722178e-10
1.04988416e-07 3.4166828e-08 1.5178915e-07 1.694183e-08 2.7865998e-08 9.0457286e-10 5.3088955e-10 1.7528537e-08
5.746726e-09 2.2639368e-07 1.5932625e-09 7.757258e-08 3.4361731e-09 7.485261e-09 1.3688117e-08 1.2471247e-09
2.7022311e-08 3.525638e-09 3.584375e-08 3.7440177e-08 4.8939835e-08 2.0031475e-08 7.277498e-09 5.8806027e-09
00000000: c713 2e32 4220 9433 72a5 b831 3a19 dc2f
00000010: 92e9 a732 de10 9231 9835 bc32 c3cb 912f
00000020: 0f05 0031 ceac e931 0193 ae33 fcd4 9431
00000030: f1ab 2730 05cd 2233 53d3 1e34 dad3 8132
00000040: b3cc 2732 71b8 a333 b72d 0a33 31df 6432
00000050: b7c4 7730 8aba 7f31 01f7 1630 bd4f 9a2f
00000060: f8dd e630 9c3b f531 fc99 a932 3891 d132
00000070: 3c84 bf32 25ca ee30 7396 2733 c542 df33
00000080: 4ea7 3834 785f 9733 34da 4630 900c 8d30
00000090: 1705 7932 3371 9232 21a0 b030 b039 5a32
000000a0: 1760 c632 2585 fd32 4aa5 9833 9674 1233
000000b0: e0cf e833 83e8 5433 4c98 4e33 82c1 4d33
000000c0: d527 b233 05d3 4733 8d41 0d34 1bbf d231
000000d0: a3c7 a433 0c60 6c2f 517b 9733 5b2c f232
000000e0: 17a8 1e31 bf2f ee2f 62f5 8131 180b ef30
000000f0: 6a6e 4e33 2aa6 7632 22f3 6333 40b3 0132
00000100: e8eb 962f 5e78 5530 621f 1a33 43fb e130
00000110: 2aa3 8f31 9224 1e31 5610 bb33 ab7c ad32
00000120: ebbd 8932 8474 5532 fc57 3b2f db77 ac2e
00000130: 8400 d932 05ad 3431 3402 0a34 10ad 7632
00000140: 6010 0c30 ec30 f72f 476e b52f 81e8 e631
00000150: a464 ed32 8291 2530 6025 a032 5c5c c030
00000160: 93be 9230 ef6c b831 4b69 1c33 870c 2232
00000170: c2e2 3932 6dc4 bb33 b079 3631 1f41 bc32
00000180: ec4c 3733 6e47 0534 619a 0635 a997 6e32
00000190: ee21 5930 2838 df32 8eae b231 5fdf df2f
000001a0: fe75 e133 d3be 1233 7cfb 2234 7a87 9132
000001b0: fa5d ef32 a8a5 7830 08ee 1130 a991 9632
000001c0: bd74 c531 9f16 7334 f1f9 da30 fa95 a633
000001d0: cc21 6c31 8798 0032 fa28 6b32 4d67 ab30
000001e0: b11e e832 ae47 7231 9ff2 1933 e9cd 2033
000001f0: eb31 5233 ae11 ac32 8d0d fa31 540e ca31
