results/ppo/My Behavior/My Behavior-1600.pt (torch, 149583 bytes, 12 tensors)

network_body.linear_encoder.seq_layers.0.weight f4 [128, 6]
000000 91 ec 2c bf 1b de 18 be 80 6e bf be ee 3d 32 bf
       -0.6754847 -0.14928477 -0.37388992 -0.6962575
000010 fc 02 5b 3f 07 24 fb 3e d0 90 c8 3d db 8c ca 3e
       0.8555143 0.49050924 0.09793246 0.3956059
000020 63 57 16 3f a6 1d d4 3e 55 48 dd 3e 9c 89 de 3e
       0.5872709 0.4142887 0.43219247 0.43464363
000030 e5 ad 68 be 6d 6f a1 3d 1d 8b 75 3e 62 3d 90 3e
       -0.22722585 0.07882581 0.23978849 0.2817183
000040 53 02 c0 bd 3d 86 b8 3e ef d3 cb 3e 56 da 17 bf
       -0.09375443 0.36039916 0.3981013 -0.5931753
000050 d9 98 10 3f da 19 e7 3e a0 e8 86 3d 97 34 d6 3d
       0.56483227 0.4513691 0.065873384 0.104592495
000060 d5 d4 df bd e8 c1 aa be 61 82 ea 3e b5 95 c3 bc
       -0.10929266 -0.33351064 0.45802596 -0.023875097
000070 d3 62 f8 3c 20 46 28 3d 9e 34 d9 3e 82 f7 aa bd
       0.03032056 0.0410825 0.42422956 -0.083479896
000080 da 7c 09 bf 62 e9 05 bf 8b 68 b4 3d 0f 56 82 be
       -0.53706133 -0.5230924 0.088090025 -0.25456282
000090 27 18 df 3e 40 2f df 3e 52 e5 67 bc 63 e2 33 bd
       0.43573114 0.43590736 -0.014153795 -0.04391707
0000a0 e5 2f f3 3e 33 3a e2 3d af 41 3a bf 27 19 88 be
       0.47497478 0.11046257 -0.72756475 -0.2658169
0000b0 0b 4f b3 bd db e7 15 3c 9c 9d 4f bf ae 46 3b bf
       -0.087553106 0.009149517 -0.8109987 -0.73154724
0000c0 7d ba 2d bd d8 56 29 bf 83 33 ef 3e c0 1b 1d 3f
       -0.042414177 -0.6614814 0.46718988 0.6137047
0000d0 bb 75 8d 3e da f8 fb 3e 41 e3 26 bf 50 28 b1 bd
       0.27628884 0.49213296 -0.6519051 -0.08650267
0000e0 28 2f 10 3f a0 34 c9 be 14 01 96 3e 95 b4 7d be
       0.56321955 -0.39297962 0.29297698 -0.24775918
0000f0 7f 84 70 3d d3 bd cc be 66 3a 54 3c a5 f2 17 3d
       0.058720108 -0.39988574 0.012953376 0.03709664
000100 4b 08 af 3f 2a 40 e7 be 90 b5 f6 bd cf 2e 87 3d
       1.3674406 -0.4516614 -0.12046349 0.06600725
000110 d8 35 88 3f 61 6e 4d be f4 89 e8 be 1b 09 05 bf
       1.0641432 -0.20061637 -0.4541775 -0.5196702
000120 18 4c 3b 3e 4e 2d 78 3f 0e 81 ce be 1a ac 5b 3e
       0.18290746 0.9694413 -0.40332836 0.2145237
000130 24 a1 98 be f7 b2 83 be 4e 2f ab 3d a6 ad 51 3e
       -0.2981044 -0.25722477 0.08358632 0.20476398
000140 2b 70 a3 be 92 47 a8 be 3a be 0e 3f 26 5b ac 3d
       -0.31921515 -0.32867104 0.5575901 0.08415823
000150 69 df f1 be 7b b4 a1 3e 82 cc f6 bd 99 e0 d7 be
       -0.4724076 0.31583008 -0.120507255 -0.42163542
000160 d1 a5 08 bf e3 f6 ce 3e 37 28 1a bf d4 58 9a 3e
       -0.53378016 0.40422735 -0.60217613 0.30145895
000170 92 91 13 3f a8 37 95 3c 95 d6 8e 3e 5b a9 fe be
       0.57644 0.018215016 0.27898088 -0.49738583
000180 73 b3 13 bf 11 f3 60 3c d0 51 ee 3c 45 71 3f be
       -0.5769569 0.013729827 0.029091746 -0.18695553
000190 fb 9b b5 3e a2 57 a2 be 53 38 85 bd 2a 7a 37 be
       0.35470566 -0.31707484 -0.065048836 -0.17917696
0001a0 40 d3 22 3f 8b 5d 5e be 99 63 85 be ef 05 02 3e
       0.6360359 -0.21715371 -0.2605255 0.12697576
0001b0 6a 61 35 be 2d 9f 77 3d 1b 4e e3 3e 00 54 26 bf
       -0.17712942 0.060454536 0.44395527 -0.64971924
0001c0 55 b9 54 bf 2c 83 9e be 0e da fb bc 69 c0 23 3e
       -0.83095294 -0.3095945 -0.030743625 0.15991367
0001d0 c8 ec 4e 3a f3 81 1e bf 58 5e e9 be 19 15 ff be
       0.00078935595 -0.61917037 -0.4557979 -0.49820784
0001e0 69 d3 8d 3d ec 9a be 3d cc 24 3e be 5a fb cc 3e
       0.06925089 0.09306893 -0.18568724 0.40035516
0001f0 54 44 bb 3e f6 92 3a 3e 62 90 b4 bc dc 5d 13 bf
       0.36575568 0.18220124 -0.022041503 -0.57565093
000200 f0 18 83 bd 59 08 08 3e 32 d6 55 3f 0a 33 5a 3e
       -0.06401241 0.13284434 0.8352996 0.21308532
000210 f6 a6 1f be 9f a1 0f 3f a7 8d 55 be 29 b3 86 3d
       -0.15591034 0.5610599 -0.20854817 0.06577141
000220 41 74 b3 bd 83 8c fc 3e da 79 2e 3d 09 16 c0 be
       -0.08762408 0.49325952 0.042596675 -0.3751681
000230 10 ed eb 3d fa 5e 5a be 95 19 bc be a2 72 50 be
       0.115198255 -0.21325293 -0.36738268 -0.20356229
000240 b5 71 28 3e 78 5e 73 3d 3b cf 0a bf 26 07 d1 3d
       0.16449626 0.059416264 -0.5422246 0.102064416
000250 70 76 11 bf 48 11 6f 3e 49 19 8c bc 39 b8 78 be
       -0.56821346 0.23346436 -0.0171019 -0.24289025
000260 7d d7 38 3f 64 54 bc 3e 01 08 34 bf 67 16 85 3e
       0.7220381 0.36783135 -0.70324713 0.25993654
000270 21 f4 ae 3e a3 4c 39 3f 2b 4b f0 3e 34 6d 58 3f
       0.3417063 0.72382563 0.4693235 0.8454163
000280 3a 7f bd be 10 6a 99 3d a6 87 92 be fa 76 32 be
       -0.3701113 0.07490933 -0.28619117 -0.17428198
000290 1f 3c c1 3e 74 89 20 3e 1e 8f f1 3d 2f 52 c1 be
       0.3774118 0.15677434 0.117948756 -0.37758014
0002a0 e2 ae 56 3e c8 02 2f bf 36 be dd 3e 31 e9 1a 3e
       0.2096515 -0.6836362 0.43309182 0.15128018
0002b0 25 19 99 3e b8 37 16 3d 5e 1f 8b be 8c 13 5f be
       0.29901996 0.03667423 -0.2717237 -0.217848
0002c0 cb 03 75 3b bb 7a 04 be 23 0f 29 3f f8 91 4c be
       0.0037386294 -0.12937443 0.6603872 -0.19977558
0002d0 a3 dc 98 be 3f b5 f0 3d 27 45 13 3f 61 75 9b be
       -0.29855832 0.1175332 0.57527393 -0.3036299
0002e0 61 b0 38 3f 73 74 7a be 40 cb 8f be 7b 25 24 3e
       0.7214413 -0.24458484 -0.28084755 0.16029923
0002f0 1f a1 55 3e de 97 bc be c0 85 ca 3d 05 4e 1f be
       0.20862244 -0.36834615 0.09888792 -0.15557106
000300 87 1b 0f be 47 e7 53 bf 73 29 4e bf a3 a2 8f bf
       -0.13975345 -0.82774776 -0.80531996 -1.1221508
000310 e4 35 ed 3e dd c5 89 be c4 c2 b2 3d 6c 6e 93 be
       0.46330178 -0.2690877 0.08728555 -0.28795183
000320 90 f9 86 3e 6e 9f df be 69 4f 54 3e ca e4 28 bf
       0.26362276 -0.43676323 0.20733418 -0.65974104
000330 da 8d 02 3f c9 a6 de 3e 19 29 17 3e 72 ff 13 bf
       0.509977 0.43486622 0.14761771 -0.57811654
000340 2d 9f a4 be 94 48 60 bd a8 a4 2a 3e bf 1b 97 bb
       -0.3215269 -0.054756716 0.16664374 -0.004611462
000350 1e c8 70 3d 0a 7e e9 3d 6a 03 22 3e 18 4f 3e 3e
       0.058784597 0.11400993 0.15821615 0.1858486
000360 22 c3 03 3f b6 57 d3 3d 2a bf cf 3b 41 64 61 be
       0.51469624 0.10319464 0.006339927 -0.220109
000370 7f a4 29 be 4f fc 3b 3e 15 63 70 bc 0d fa 8f 3e
       -0.16566657 0.18357967 -0.0146720605 0.2812046
000380 fb 06 01 3e 11 78 c9 be 10 86 40 bf b0 d2 ed bd
       0.12600319 -0.39349416 -0.75204563 -0.11612451
000390 83 9e dc be c6 37 b7 be 00 58 48 bf 5b f2 d8 be
       -0.43089685 -0.3578474 -0.7825928 -0.42372403
0003a0 77 3a 46 3f bc f8 47 3c 53 79 97 3e f2 58 4b 3e
       0.7743296 0.012205299 0.2958475 0.19858149
0003b0 ff 31 60 be 5e c6 a6 be f6 f3 41 bd 84 ac b6 be
       -0.21894072 -0.32573217 -0.0473518 -0.35678494
0003c0 91 ec a1 3e 75 e5 66 bf fa 3f 8e 3e 76 e4 1a 3f
       0.31625798 -0.90193874 0.27783185 0.60504854
0003d0 5b 13 e3 3e c1 dd a2 be 1a c8 53 bd e4 75 d1 be
       0.44350705 -0.3180981 -0.051704504 -0.40910256
0003e0 20 0d c0 3e e0 a6 f3 3e a9 c1 48 3e 0b 44 4e 3f
       0.37510014 0.47588253 0.19605125 0.80572575
0003f0 84 19 2c bd 55 fc bd 3e e4 fc fd bd 7c 92 e0 3e
       -0.04201652 0.37106577 -0.12401751 0.4386176

network_body.linear_encoder.seq_layers.0.bias f4 [128]
000000 00 00 00 00 00 00 00 00 00 00 00 00 00 00 00 00
       0.0 0.0 0.0 0.0
000010 00 00 00 00 00 00 00 00 00 00 00 00 00 00 00 00
       0.0 0.0 0.0 0.0
000020 00 00 00 00 00 00 00 00 00 00 00 00 00 00 00 00
       0.0 0.0 0.0 0.0
000030 00 00 00 00 00 00 00 00 00 00 00 00 00 00 00 00
       0.0 0.0 0.0 0.0
000040 00 00 00 00 00 00 00 00 00 00 00 00 00 00 00 00
       0.0 0.0 0.0 0.0
000050 00 00 00 00 00 00 00 00 00 00 00 00 00 00 00 00
       0.0 0.0 0.0 0.0
000060 00 00 00 00 00 00 00 00 00 00 00 00 00 00 00 00
       0.0 0.0 0.0 0.0
000070 00 00 00 00 00 00 00 00 00 00 00 00 00 00 00 00
       0.0 0.0 0.0 0.0
000080 00 00 00 00 00 00 00 00 00 00 00 00 00 00 00 00
       0.0 0.0 0.0 0.0
000090 00 00 00 00 00 00 00 00 00 00 00 00 00 00 00 00
       0.0 0.0 0.0 0.0
0000a0 00 00 00 00 00 00 00 00 00 00 00 00 00 00 00 00
       0.0 0.0 0.0 0.0
0000b0 00 00 00 00 00 00 00 00 00 00 00 00 00 00 00 00
       0.0 0.0 0.0 0.0
0000c0 00 00 00 00 00 00 00 00 00 00 00 00 00 00 00 00
       0.0 0.0 0.0 0.0
0000d0 00 00 00 00 00 00 00 00 00 00 00 00 00 00 00 00
       0.0 0.0 0.0 0.0
0000e0 00 00 00 00 00 00 00 00 00 00 00 00 00 00 00 00
       0.0 0.0 0.0 0.0
0000f0 00 00 00 00 00 00 00 00 00 00 00 00 00 00 00 00
       0.0 0.0 0.0 0.0
000100 00 00 00 00 00 00 00 00 00 00 00 00 00 00 00 00
       0.0 0.0 0.0 0.0
000110 00 00 00 00 00 00 00 00 00 00 00 00 00 00 00 00
       0.0 0.0 0.0 0.0
000120 00 00 00 00 00 00 00 00 00 00 00 00 00 00 00 00
       0.0 0.0 0.0 0.0
000130 00 00 00 00 00 00 00 00 00 00 00 00 00 00 00 00
       0.0 0.0 0.0 0.0
000140 00 00 00 00 00 00 00 00 00 00 00 00 00 00 00 00
       0.0 0.0 0.0 0.0
000150 00 00 00 00 00 00 00 00 00 00 00 00 00 00 00 00
       0.0 0.0 0.0 0.0
000160 00 00 00 00 00 00 00 00 00 00 00 00 00 00 00 00
       0.0 0.0 0.0 0.0
000170 00 00 00 00 00 00 00 00 00 00 00 00 00 00 00 00
       0.0 0.0 0.0 0.0
000180 00 00 00 00 00 00 00 00 00 00 00 00 00 00 00 00
       0.0 0.0 0.0 0.0
000190 00 00 00 00 00 00 00 00 00 00 00 00 00 00 00 00
       0.0 0.0 0.0 0.0
0001a0 00 00 00 00 00 00 00 00 00 00 00 00 00 00 00 00
       0.0 0.0 0.0 0.0
0001b0 00 00 00 00 00 00 00 00 00 00 00 00 00 00 00 00
       0.0 0.0 0.0 0.0
0001c0 00 00 00 00 00 00 00 00 00 00 00 00 00 00 00 00
       0.0 0.0 0.0 0.0
0001d0 00 00 00 00 00 00 00 00 00 00 00 00 00 00 00 00
       0.0 0.0 0.0 0.0
0001e0 00 00 00 00 00 00 00 00 00 00 00 00 00 00 00 00
       0.0 0.0 0.0 0.0
0001f0 00 00 00 00 00 00 00 00 00 00 00 00 00 00 00 00
       0.0 0.0 0.0 0.0

network_body.linear_encoder.seq_layers.2.weight f4 [128, 128]
000000 fc 5f 72 bd e3 94 e8 bd 61 ef 96 bc 73 ab 40 bd
       -0.05917357 -0.11356523 -0.018424692 -0.047038507
000010 71 9d 2c 3e f9 2d e1 3d 0e 24 6f bc c3 82 d1 3c
       0.16856934 0.10995097 -0.014595998 0.025575047
000020 9c 48 df bd 28 1a 5d bd 74 cf a5 bd 09 3f b4 3d
       -0.10902521 -0.053980023 -0.08096209 0.088010855
000030 06 52 cb 3c 7f eb 56 bd f3 9b 36 3b 2b 18 96 3c
       0.024819385 -0.05247068 0.002786395 0.018322071
000040 b6 12 0c bd f5 4d fe 3d 48 99 85 3d 9a 7f b8 bd
       -0.03419753 0.12417213 0.06523377 -0.09008713
000050 60 60 b7 bc 06 75 b3 3d 65 26 37 bd 49 4a c6 bd
       -0.022384822 0.08762555 -0.04471435 -0.096821375
000060 af 9c b6 3d ea f9 a7 bd 57 5c fe bc 83 1a a2 3d
       0.08916604 -0.08201964 -0.03104989 0.07915213
000070 15 11 4c 3b a9 52 0a 3d 5c 59 6f 3d d1 68 cc 3d
       0.0031138111 0.033770237 0.05843483 0.0998093
000080 be cc e0 3b 5a b5 fb 3d 2e 4b 8a 3c 0d 9c f7 3b
       0.0068603447 0.122904494 0.016881552 0.0075564445
000090 66 00 ce 3d c4 c6 c3 3d c4 87 39 3d 10 06 ba 3d
       0.1005867 0.09559396 0.04529549 0.090831876
0000a0 f9 0b df 3c 84 aa 33 bd 88 ee 39 bd fd 8a 18 be
       0.027227389 -0.04386379 -0.045393497 -0.1489677
0000b0 cd fb 24 3c 04 4b 78 bc 69 29 90 bd 3f 76 84 bd
       0.0100698 -0.015154604 -0.07039148 -0.06467866
0000c0 e1 0d fe bd c2 9e 14 3d 53 4d 98 3d 62 55 bc 3c
       -0.12404991 0.036284216 0.074366234 0.022989932
0000d0 7d 07 5b bd 5b f6 f1 3c 13 a8 47 bd 18 0a b2 bd
       -0.05347394 0.029536417 -0.048744272 -0.086933315
0000e0 bb a7 ce 3d 00 a1 16 bc c7 0c f6 3d a3 e5 dd bb
       0.10090586 -0.009193659 0.12014156 -0.0067717596
0000f0 48 c2 20 3e 60 56 d6 bc 12 8c bb 3d 43 bc 06 be
       0.15699112 -0.026164234 0.09157576 -0.13157754
000100 72 fa ef bb f9 9e 16 bd bf 89 c4 3c 4d 0d 84 bc
       -0.0073235566 -0.036772702 0.023991464 -0.016119624
000110 e3 84 bc bd 01 1a 49 3e ef ab 74 bd ce 0b cf 3d
       -0.09205034 0.19638826 -0.05973428 0.101096734
000120 54 08 e4 bd 19 ab ed 3c 12 0e 52 3d 2a 1f 61 3d
       -0.11134401 0.02901225 0.05128295 0.05496136
000130 7a a6 a7 bb 16 c2 90 bd 71 e2 6c 3e 80 ae df bd
       -0.005116281 -0.07068269 0.23133256 -0.10921955
000140 ac 30 d5 3d 2d 72 80 be 28 36 ea 3b ab 1d ef bd
       0.10409674 -0.2508711 0.007147569 -0.116755806
000150 5a f8 bc 3d 7c c6 90 bd 73 71 bc 3d 71 0c 4e be
       0.09227057 -0.07069108 0.09201326 -0.20121934
000160 a7 0b 78 3d 16 f8 ad 3d e0 de 9e bd 7e 80 c0 bd
       0.060557988 0.08494584 -0.07757354 -0.09399508
000170 dd 1a de 3d f6 a7 92 bd 4e 20 75 3d 90 85 38 3d
       0.108449675 -0.07160942 0.05984526 0.04504925
000180 79 d0 8b 3d 7a bb 9e 3d 35 b7 c8 3c 1b b3 d5 3c
       0.068268724 0.07750602 0.024501422 0.02608638
000190 b4 bf 1c bd e3 55 bd 3c 10 fe cc 3d 65 47 37 3e
       -0.03826876 0.023112243 0.10009396 0.17898329
0001a0 73 e4 ab 3d 55 0f 27 be 66 52 e9 3c f0 19 1a 3e
       0.083931826 -0.16314442 0.028481673 0.15048957
0001b0 f7 86 ac bc 84 3a 99 3d 0b 74 48 3e 91 60 4f 3c
       -0.02106045 0.07481864 0.19575517 0.012657301
0001c0 6c f9 de bc a1 64 c4 bc 3f b9 49 3c fd e0 b2 3d
       -0.027218543 -0.023973765 0.0123122325 0.08734319
0001d0 b0 73 4b 3c 92 16 88 3d 22 fe 91 3d 52 18 b1 3d
       0.012417719 0.0664493 0.0712855 0.08647217
0001e0 7b a2 be 3d 33 67 09 bc a5 81 16 be 93 1f e6 3d
       0.093083344 -0.008386421 -0.14697893 0.11236491
0001f0 52 04 e3 3b 6e 46 8e bd c2 b0 0e bd 40 ac 81 3d
       0.0069280053 -0.06947027 -0.034836538 0.06331682
000200 e6 b6 ba ba 84 38 55 3c f7 34 c8 3d 79 7b 27 bd
       -0.0014245182 0.013013963 0.09775727 -0.040889237
000210 73 e2 37 3d 63 11 38 be 92 d2 43 be a4 bb 09 bd
       0.044893693 -0.17975383 -0.19123295 -0.033626214
000220 c3 1a 85 bd 82 2d 91 3d 0b 6e 76 bd 5f a4 43 bd
       -0.06499245 0.07088758 -0.06016354 -0.04776418
000230 11 08 65 3d d2 93 40 be 7f 35 62 3b f2 4f 99 bd
       0.055915896 -0.18806389 0.003451675 -0.074859515
000240 7d e0 ef 3d f9 08 77 3d ab 16 84 bd b4 48 f1 bc
       0.117127396 0.06031129 -0.06449636 -0.029453613
000250 cd 66 0d be 61 ed 8d 3c a8 b0 f4 bd 8c e9 28 3d
       -0.13808747 0.017325105 -0.11947757 0.041238353
000260 92 3b ed 3b 92 12 0d 3d d3 9e 10 be 89 45 d4 bd
       0.0072397674 0.03444154 -0.14123087 -0.10364825
000270 dc 93 99 3d 03 7d 70 3d f4 4e 0a 3d 72 21 92 bc
       0.07498905 0.05871297 0.0337667 -0.017838214
000280 09 d9 81 be 82 57 53 3e 7a af a2 3d de 04 e3 bc
       -0.25360897 0.2063885 0.07943626 -0.027712282
000290 2f 8a af bd e1 82 e7 bc 62 69 bd 3d 6c 93 e3 3d
       -0.08571278 -0.02826065 0.09248616 0.11112103
0002a0 4f 0f 62 bd 51 f4 a5 bd 71 39 5b bb fe 6d c4 3c
       -0.05519038 -0.0810324 -0.0033450986 0.02397823
0002b0 b7 6d 9e bc 2b 8d 0b 3d ce 91 83 bd 29 1a 09 bd
       -0.019339425 0.034070175 -0.064242944 -0.033472214
0002c0 33 17 e8 bd e9 0f 78 3d a3 af 96 bd ba 11 dd bd
       -0.1133255 0.060562048 -0.07357719 -0.10794397
0002d0 15 cb b1 bd f9 ae 8e bd 1d e5 97 3d 25 17 66 bd
       -0.08681313 -0.06966967 0.07416747 -0.056174416
0002e0 2a 7f 41 be de 7d 57 3d f4 f2 95 bd ff bc 9d bd
       -0.18896165 0.05261027 -0.0732173 -0.07702064
0002f0 6f ab de 3d 85 9c 9c 3d 04 89 a5 bd 82 4b 6e bd
       0.10872542 0.07647041 -0.08082774 -0.05817748
000300 78 97 19 3e 31 f6 ef 3b 16 56 52 bd e0 7c 62 3c
       0.14999187 0.0073230495 -0.05135163 0.013823718
000310 e1 ba 90 3d 74 df f8 3c 6f 84 2f bd d1 a8 31 be
       0.07066894 0.030379988 -0.042850908 -0.17349555
000320 55 94 8a 3d 8e e8 cf bd f5 59 09 3e a5 64 d6 3c
       0.06766573 -0.10151778 0.13413222 0.026171038
000330 cd ff 38 3d 40 4e e0 bc 35 5a d6 3d 27 ce 0a bd
       0.045165826 -0.027381063 0.104664244 -0.03388801
000340 2a be e7 3b 8e 37 d1 bc 9a 5f 49 3b eb 01 a2 3c
       0.00707223 -0.025539186 0.003072715 0.019776305
000350 ff 52 74 bd 2b f5 34 3d 1b ce 33 3d f9 8a 61 3c
       -0.059649464 0.044179123 0.04389773 0.013766044
000360 26 b3 e3 3c c0 dd 4b bd 84 05 da bd 95 e2 a7 3d
       0.027795386 -0.049772024 -0.10645583 0.08197514
000370 c0 cf ec bd 57 99 7a bc 09 90 98 bd d5 9b f0 bd
       -0.11563063 -0.015295348 -0.074493475 -0.117484726
000380 45 85 9b bd ff 71 7b 3d b6 61 e8 3d 96 66 b7 bd
       -0.075937785 0.061388012 0.11346762 -0.089551136
000390 ca 56 fd bd 3e db 65 3a 8d 4c 20 bd ff 0c b1 bc
       -0.12370069 0.00087683264 -0.039135505 -0.021612642
0003a0 d0 da 0e 3e 98 79 c5 3d 0b 91 29 be 9a 44 81 3e
       0.13950658 0.09642333 -0.16559236 0.2524765
0003b0 e8 63 10 bd 21 50 64 3c f6 14 81 bd 87 65 10 3d
       -0.035251528 0.01393512 -0.06302826 0.035253074
0003c0 79 85 3d 3c e6 7c 0c bc 66 5d 46 3d 32 17 b4 bd
       0.011567467 -0.0085747 0.048428915 -0.08793487
0003d0 06 4d e8 3b 68 0d 97 3d 3e ba 7b be d8 b0 36 3e
       0.00708926 0.07375604 -0.24582765 0.17840898
0003e0 fc 82 36 bd 59 b3 0c 3d 3a ba da 3c 3d 1b e8 bb
       -0.04455851 0.034350727 0.026700128 -0.007083325
0003f0 e6 10 bb bc 10 ac 69 bc 23 8c 30 be 01 7c 4f bd
       -0.022835206 -0.014262214 -0.17240958 -0.05065537

network_body.linear_encoder.seq_layers.2.bias f4 [128]
000000 00 00 00 00 00 00 00 00 00 00 00 00 00 00 00 00
       0.0 0.0 0.0 0.0
000010 00 00 00 00 00 00 00 00 00 00 00 00 00 00 00 00
       0.0 0.0 0.0 0.0
000020 00 00 00 00 00 00 00 00 00 00 00 00 00 00 00 00
       0.0 0.0 0.0 0.0
000030 00 00 00 00 00 00 00 00 00 00 00 00 00 00 00 00
       0.0 0.0 0.0 0.0
000040 00 00 00 00 00 00 00 00 00 00 00 00 00 00 00 00
       0.0 0.0 0.0 0.0
000050 00 00 00 00 00 00 00 00 00 00 00 00 00 00 00 00
       0.0 0.0 0.0 0.0
000060 00 00 00 00 00 00 00 00 00 00 00 00 00 00 00 00
       0.0 0.0 0.0 0.0
000070 00 00 00 00 00 00 00 00 00 00 00 00 00 00 00 00
       0.0 0.0 0.0 0.0
000080 00 00 00 00 00 00 00 00 00 00 00 00 00 00 00 00
       0.0 0.0 0.0 0.0
000090 00 00 00 00 00 00 00 00 00 00 00 00 00 00 00 00
       0.0 0.0 0.0 0.0
0000a0 00 00 00 00 00 00 00 00 00 00 00 00 00 00 00 00
       0.0 0.0 0.0 0.0
0000b0 00 00 00 00 00 00 00 00 00 00 00 00 00 00 00 00
       0.0 0.0 0.0 0.0
0000c0 00 00 00 00 00 00 00 00 00 00 00 00 00 00 00 00
       0.0 0.0 0.0 0.0
0000d0 00 00 00 00 00 00 00 00 00 00 00 00 00 00 00 00
       0.0 0.0 0.0 0.0
0000e0 00 00 00 00 00 00 00 00 00 00 00 00 00 00 00 00
       0.0 0.0 0.0 0.0
0000f0 00 00 00 00 00 00 00 00 00 00 00 00 00 00 00 00
       0.0 0.0 0.0 0.0
000100 00 00 00 00 00 00 00 00 00 00 00 00 00 00 00 00
       0.0 0.0 0.0 0.0
000110 00 00 00 00 00 00 00 00 00 00 00 00 00 00 00 00
       0.0 0.0 0.0 0.0
000120 00 00 00 00 00 00 00 00 00 00 00 00 00 00 00 00
       0.0 0.0 0.0 0.0
000130 00 00 00 00 00 00 00 00 00 00 00 00 00 00 00 00
       0.0 0.0 0.0 0.0
000140 00 00 00 00 00 00 00 00 00 00 00 00 00 00 00 00
       0.0 0.0 0.0 0.0
000150 00 00 00 00 00 00 00 00 00 00 00 00 00 00 00 00
       0.0 0.0 0.0 0.0
000160 00 00 00 00 00 00 00 00 00 00 00 00 00 00 00 00
       0.0 0.0 0.0 0.0
000170 00 00 00 00 00 00 00 00 00 00 00 00 00 00 00 00
       0.0 0.0 0.0 0.0
000180 00 00 00 00 00 00 00 00 00 00 00 00 00 00 00 00
       0.0 0.0 0.0 0.0
000190 00 00 00 00 00 00 00 00 00 00 00 00 00 00 00 00
       0.0 0.0 0.0 0.0
0001a0 00 00 00 00 00 00 00 00 00 00 00 00 00 00 00 00
       0.0 0.0 0.0 0.0
0001b0 00 00 00 00 00 00 00 00 00 00 00 00 00 00 00 00
       0.0 0.0 0.0 0.0
0001c0 00 00 00 00 00 00 00 00 00 00 00 00 00 00 00 00
       0.0 0.0 0.0 0.0
0001d0 00 00 00 00 00 00 00 00 00 00 00 00 00 00 00 00
       0.0 0.0 0.0 0.0
0001e0 00 00 00 00 00 00 00 00 00 00 00 00 00 00 00 00
       0.0 0.0 0.0 0.0
0001f0 00 00 00 00 00 00 00 00 00 00 00 00 00 00 00 00
       0.0 0.0 0.0 0.0

action_model._continuous_distribution.log_sigma f4 [1, 2]
000000 00 00 00 00 00 00 00 00
       0.0 0.0

action_model._continuous_distribution.mu.weight f4 [2, 128]
000000 7f 94 76 bc 35 9e d1 bb ed ac 6d 3c 8a db ed bc
       -0.015050053 -0.0063970336 0.014506561 -0.029035348
000010 05 63 f4 ba 49 b7 a7 3c 80 a3 d0 3b d7 b9 1a 3c
       -0.0018645233 0.02047314 0.006367147 0.009443722
000020 ed c7 4b 3a 98 ab 2f 3c 6b a5 2d bc 5f 10 83 bc
       0.0007773627 0.0107220635 -0.010598521 -0.015999017
000030 d3 31 19 bd 83 12 33 ba a0 cd 95 bc b0 5b 66 3c
       -0.03740103 -0.00068310666 -0.018286526 0.014059946
000040 09 36 8e 3c 90 07 62 bc e5 dc 90 3c 6f af 02 3c
       0.01735975 -0.013795748 0.017683456 0.007976397
000050 c0 43 96 3c cd 57 be bb 4a a8 3a 3c e4 46 80 3c
       0.018342853 -0.0058088065 0.011392662 0.015658803
000060 a4 18 31 bb a3 29 ba bb 59 23 c9 bb 62 d1 83 bc
       -0.0027022744 -0.005681233 -0.006138247 -0.016091052
000070 ba a2 eb 3b 4d 48 8f bb 62 f4 e1 b9 69 40 a7 3b
       0.0071910294 -0.0043726326 -0.00043097424 0.005104114
000080 5c 66 93 3a cf 81 12 3c 59 5f c1 bb 4b 18 1e 3c
       0.0011245715 0.008942082 -0.005901259 0.009649347
000090 c1 dd a3 bc 47 7f d3 bb 76 16 16 bd d7 ff 46 3c
       -0.020003201 -0.0064543816 -0.036642514 0.012145958
0000a0 aa e6 21 3a 90 6c e8 3c 4f 66 a3 3b 8b 15 bc bb
       0.0006176034 0.02837208 0.0049865614 -0.005739873
0000b0 fc c2 2c 3b 7d 61 6b bc c0 13 c4 bc 61 87 03 3d
       0.0026361337 -0.014366505 -0.023935199 0.03211153
0000c0 af a0 85 bc 92 ad 9a 3c 73 4e 22 3c d1 67 3a 3c
       -0.016311971 0.018881593 0.009906399 0.011377291
0000d0 c2 28 93 3c aa 7e 62 bc 2d 9e 89 3c f7 6a 63 bc
       0.01796377 -0.013824144 0.016799057 -0.013880483
0000e0 ba ec cf 3c e4 9f 44 3c fb 6b b9 3b 4f 0c 89 3b
       0.025381435 0.0120010115 0.005658624 0.0041823755
0000f0 ef 3d 76 ba d5 19 0a 3c d9 77 42 3c ec 04 03 3c
       -0.0009393384 0.00842901 0.011869394 0.007996779
000100 37 7d 02 3c 3b 53 c4 3b 07 bf a2 bc 31 f7 95 3a
       0.007964424 0.005991367 -0.01986648 0.0011441467
000110 f2 59 35 bc e2 09 d8 bc f7 c4 ca bc fb 29 35 3c
       -0.011068808 -0.0263719 -0.024752123 0.011057372
000120 8f f6 7b 3b eb 05 b7 3c 54 8e 8d bb 82 c9 08 bc
       0.003844652 0.02234169 -0.0043199454 -0.008348824
000130 c7 46 0f 3a 1e 21 c9 3c 4f 69 d2 bb 4f d3 2a bc
       0.0005465564 0.024551924 -0.006421245 -0.010426356
000140 73 e7 f5 bb b6 2b af 3c 3b e9 b0 bc ef 00 27 3c
       -0.0075043975 0.021383148 -0.021595588 0.010193094
000150 d4 b1 45 3c fb e3 9d 3a 2a e4 7f bc 5c 1f 14 3d
       0.012066323 0.0012046093 -0.015618363 0.03616272
000160 86 96 a8 3c 6a 16 17 3b 11 c6 24 bc 83 ed 38 3c
       0.020579588 0.0023054131 -0.010056988 0.011287096
000170 87 ef 48 bc ca 28 86 bb 36 c8 a8 bb 3a 6a b1 bc
       -0.012264139 -0.004094218 -0.00515082 -0.021657098
000180 27 67 0c bc 8b 74 df ba 2f 6c a3 bc 5f a0 b5 bc
       -0.008569515 -0.0017048282 -0.019949047 -0.022171197
000190 05 3f c2 3c 6c e1 a2 3b 57 d3 39 bd b7 99 15 bc
       0.02371169 0.00497072 -0.045367565 -0.009130887
0001a0 51 b5 16 3d f7 3b 5d 3c 9e 71 bd 3c fd 9b fa bc
       0.03679401 0.013503066 0.023125466 -0.03059196
0001b0 ae 0e 07 bd 7a 99 46 3b 40 2f f1 3c 64 e1 2b 3c
       -0.032972984 0.0030303882 0.029441476 0.010490749
0001c0 87 20 8f 3c c2 51 d9 bb 20 2f 9f 3b 80 95 9f 3c
       0.017471565 -0.0066320607 0.0048579127 0.019480467
0001d0 89 04 81 3b 4a 24 db 3a 74 68 06 3d 5a a4 10 ba
       0.003937308 0.0016719189 0.032814458 -0.00055176544
0001e0 1c 07 cc bb 8c 4e a8 3c 53 29 8f bb 08 9d 3a 3c
       -0.0062264334 0.020545267 -0.00436894 0.011389978
0001f0 ed 00 83 b9 c5 4c 17 3b cc 55 1c bd c3 b0 d0 bc
       -0.00024986957 0.002308653 -0.03816776 -0.025474912
000200 d3 f2 d7 bc 5d 32 eb bb 9b 9c ac bb 3a 62 cc bb
       -0.026360905 -0.0071776346 -0.0052676923 -0.0062372955
000210 4f 53 33 bd 76 24 36 3c 07 c4 c8 3c ff 5a 04 3c
       -0.04378062 0.011117091 0.024507536 0.008078336
000220 43 5c 13 3c 9b a8 a8 bb 23 c4 16 3d 4f 7b 76 3b
       0.008994165 -0.0051470525 0.036808144 0.0037610119
000230 41 58 04 3b 57 36 4f bc 15 76 85 3b 33 3d 4b 3c
       0.0020194205 -0.012647233 0.0040729144 0.012404728
000240 60 e4 48 3b b1 4d c7 3b 3b 50 8b 3c 78 db 88 bb
       0.00306537 0.0060822596 0.01700603 -0.0041765533
000250 f3 25 0a bc 90 f3 5c 3b d7 c7 2b 3c 67 2c bc bc
       -0.008431899 0.003371451 0.010484657 -0.022970391
000260 7e ac 81 3c 0b 44 c9 bb e3 21 20 bc 53 e6 f9 bc
       0.015829321 -0.0061421446 -0.009773704 -0.030505335
000270 83 bb e5 3b 53 ed 0c 3b 0a 8e 27 3c 58 ed f7 bb
       0.0070108785 0.002150376 0.010226736 -0.0075661354
000280 de 1e 99 3c b8 cf 6c 3b 8f 70 e0 3b a3 6a b2 3b
       0.018691476 0.0036134552 0.0068493555 0.005444841
000290 71 d6 46 bb 84 5b ba bc c0 ba a0 bb 89 32 3d bc
       -0.003034022 -0.022748716 -0.004905075 -0.011547693
0002a0 6f 8c 04 bc 4a 70 e9 3b 99 cc aa 3c 7e 85 8b 3c
       -0.008090123 0.0071239816 0.020849513 0.017031427
0002b0 b3 d2 5f 3a 87 86 ff 3b 07 1b 5d 3b 36 09 a4 3c
       0.00085381715 0.0077980193 0.0033738033 0.020023923
0002c0 ac 66 34 3b f8 51 51 3c 84 fb 81 3b 55 0a 4e 3c
       0.0027527018 0.0127758905 0.0039667506 0.012575706
0002d0 70 38 29 3c 95 3e 16 bc f2 63 3a 3c 96 8c 8d 3a
       0.010328397 -0.009170194 0.011376368 0.0010799344
0002e0 07 d4 48 3c 0e 34 c9 3c c5 cf 9b 3c 0a f9 9b bb
       0.0122575825 0.024560954 0.01901997 -0.0047599124
0002f0 72 38 e9 3c b3 df ed 3c 1d 3f 5d 3b 7c cb 48 bb
       0.028469298 0.029037332 0.0033759542 -0.0030638864
000300 95 59 1f 3c 24 a7 b3 3c 64 7b ad bc 23 25 5d 39
       0.009725948 0.021930285 -0.021177001 0.00021090037
000310 f5 f9 00 3b 61 24 81 3b 1f c5 95 bc e6 14 c6 ba
       0.0019680236 0.0039411043 -0.018282471 -0.0015112429
000320 63 d1 9f 3c 62 57 fc 3c 32 cc ac ba 15 b7 8e bc
       0.019509023 0.030803386 -0.0013183414 -0.017421285
000330 07 d1 6f bb 9f 2c 03 3c ff cc 90 3c 3f 73 0c 3d
       -0.0036593096 0.008006244 0.017675875 0.034289595
000340 8a 01 66 bc f5 0c ea 39 88 4b 96 3c 8a 2c dc bc
       -0.014038453 0.00044641612 0.018346563 -0.026876707
000350 d8 73 1e 3d 54 4c 25 3b 6b 7f 26 bd 7b 1f a9 bc
       0.038684696 0.0025222497 -0.04064886 -0.020644894
000360 53 88 98 bb f5 92 5b bc 2b a7 ca bb 8f 44 cc 3c
       -0.004654923 -0.0134017365 -0.0061844788 0.024935035
000370 a2 e3 5a 3c 5b e1 6d bc ce e7 13 bb 26 60 90 bc
       0.013359936 -0.014519061 -0.0022568586 -0.017623972
000380 80 32 3c 3d 67 e3 cc bc fb c7 5d 3a 1f 8b a8 3b
       0.045946598 -0.025010778 0.00084602804 0.0051435377
000390 d0 08 9b 3b 3f 8b 97 3b 58 94 fb 3b e5 11 4a 3c
       0.004731275 0.0046247537 0.007677596 0.012333368
0003a0 9f f2 5a bc 99 b5 88 3c 1f 98 17 3c 42 16 11 3c
       -0.013363509 0.016688155 0.009252577 0.008855404
0003b0 e5 02 30 3b cf 1f 85 bb 16 cd 2e bc ca b8 d3 bb
       0.0026857194 -0.00406263 -0.0106690135 -0.0064612376
0003c0 ad 17 b5 bb 6a af 7a bb 06 1c a7 bb a2 72 e7 bc
       -0.005526504 -0.0038251528 -0.005099776 -0.028252903
0003d0 7b 22 9c bc 45 17 00 bd 66 5a c0 bc 95 63 97 bc
       -0.01905941 -0.03127219 -0.023480605 -0.018480102
0003e0 73 1a e7 bc 5b a0 ac 3c 5b b5 7b ba d9 d5 10 bc
       -0.028210854 0.021072557 -0.0009601914 -0.008840048
0003f0 cb 05 44 bc cf b8 6d 3c 8b 87 24 3c f9 15 8d bc
       -0.011964272 0.014509394 0.010042082 -0.017222391

action_model._continuous_distribution.mu.bias f4 [2]
000000 00 00 00 00 00 00 00 00
       0.0 0.0

network_body.linear_encoder.seq_layers.0.weight f4 [128, 6]
000000 68 e9 6a 3f 91 43 ad 3e cf 70 ad 3e 36 2a 86 3e
       0.917624 0.33840612 0.3387513 0.2620408
000010 b6 f6 46 be a6 5d 87 be 09 c2 11 3f 59 70 4b bf
       -0.1943005 -0.26438636 0.569367 -0.79468304
000020 10 45 c2 ba 23 9f 86 be 6f 25 4f 3e 89 cd d3 3e
       -0.0014821608 -0.26293287 0.20229124 0.41367748
000030 08 19 e2 be 7d 43 3d bd a4 8b 45 bf 8b 9d d8 3e
       -0.44159722 -0.04620694 -0.771662 0.42307696
000040 28 da 20 3f 85 23 03 be 65 39 48 3e cd 87 40 bd
       0.6283288 -0.12806518 0.19553144 -0.04700451
000050 35 52 88 be 48 a6 bf bd 10 7b 4a 3e 3f 97 8c 3e
       -0.2662522 -0.093578875 0.19773507 0.27459142
000060 50 47 12 3f 79 41 9e bd 49 79 0b bf 94 08 db be
       0.57140064 -0.07727332 -0.5448194 -0.42779982
000070 cc 19 2f be ef 37 bf be 83 9c 9a 3e 90 01 8b be
       -0.17099684 -0.3734736 0.30197534 -0.2714963
000080 95 4f 06 be 6c b0 0a bf 68 6f 94 3e 15 00 b5 3e
       -0.13116296 -0.5417545 0.28991246 0.35351625
000090 f6 68 15 be 89 11 9a be d4 2c 27 3e f0 1f d9 be
       -0.1459082 -0.30091503 0.16325694 -0.4240718
0000a0 b4 aa 11 3f 40 2d d7 3d 0f df 15 3f 6e f3 eb be
       0.569011 0.10506678 0.58543485 -0.4608416
0000b0 6a f7 6a bd 95 40 f8 be 83 12 b1 3e a0 f6 54 3f
       -0.05736486 -0.48486772 0.34584436 0.8318882
0000c0 cc e5 1a bf a6 c7 78 3e 29 df a9 be b6 93 df 3e
       -0.6050689 0.2429491 -0.3317807 0.43667382
0000d0 b0 96 0d be de 51 78 be a1 d6 3b 3f a0 f0 ea 3d
       -0.13827014 -0.2424998 0.7337437 0.11471677
0000e0 09 1c 28 bf ec 02 56 bf 76 0b f7 be 6c c0 26 bf
       -0.6566778 -0.8359821 -0.48250932 -0.6513736
0000f0 3c 13 ed bb 6b d6 1e bf a6 fc 97 be e6 93 70 3e
       -0.007234959 -0.62045926 -0.29684943 0.23493919
000100 a3 97 1d 3f 82 d9 b0 3d 5d 21 39 be f2 4e af be
       0.61559504 0.08635236 -0.18079133 -0.34239918
000110 c6 0d 47 bf 53 25 17 3f 3a 5c f6 be ac c9 60 be
       -0.7775539 0.5904133 -0.48117238 -0.21951932
000120 45 08 ac 3e 72 8d 84 3e 7a 34 55 bd c4 05 b4 bd
       0.3360006 0.25889164 -0.052052 -0.08790162
000130 82 4e 98 3d ed e8 27 bf 59 f4 4d be 83 4e f2 be
       0.07436849 -0.6558979 -0.20112742 -0.47325525
000140 8c 24 23 bc 72 f0 e0 bd e7 a4 18 bf cb 39 81 3f
       -0.009957444 -0.10983361 -0.5962662 1.0095762
000150 8a cf 96 3e 79 42 43 bf c1 29 86 3d 7b 10 1a 3f
       0.29455215 -0.76273304 0.06550933 0.601814
000160 51 16 e7 3e ae 08 0f 3f 3d 2d 47 3e 02 d1 af bd
       0.45134214 0.5587262 0.19450851 -0.08584787
000170 ec 7f 8e 3e 43 6d 0d bf 80 ac 65 3e 1e 0e 8e 3e
       0.27831972 -0.55244845 0.22429085 0.27745146
000180 5e 23 f6 be f3 c9 0f bf 2a 91 90 3d da 67 55 3e
       -0.48073858 -0.56167525 0.07058938 0.20840397
000190 40 ac f6 3e 59 38 06 bf 91 a1 d4 3d ef 92 53 3f
       0.4817829 -0.5242973 0.10382379 0.8264608
0001a0 9c 76 91 bb 1a dd f1 3e c4 95 c5 be 48 9a d4 be
       -0.004439188 0.47239 -0.38590825 -0.41523957
0001b0 47 d9 0b 3e 7f 31 bd 3e d6 66 21 3e 3f 00 3b 3e
       0.13657103 0.36951825 0.15761885 0.18261813
0001c0 f8 b3 d3 bc 71 2a a7 bd f2 76 89 bd f8 92 2e be
       -0.025842652 -0.08162392 -0.0671214 -0.17048252
0001d0 f8 f4 c1 3e 74 94 88 3e 24 6e b6 3e b2 39 94 3e
       0.3788221 0.2667576 0.35630906 0.28950268
0001e0 85 c9 8f 3e 39 ca 8d 3f e6 df 54 3f 30 bd 20 bf
       0.28083435 1.1077338 0.8315414 -0.6278868
0001f0 53 b0 57 be f1 30 e5 be 71 4d 6c 3e 4e ef 1c bf
       -0.21063356 -0.44763902 0.23076417 -0.6130265
000200 8d d3 54 3d 28 e4 a5 be 6c ad b9 3e 29 a3 03 3d
       0.051959563 -0.32400632 0.36265123 0.032138024
000210 1f 49 2a bd c1 c3 29 be d2 aa d9 be 9f 6a f7 3d
       -0.04157364 -0.1657858 -0.42513138 0.12080883
000220 d0 97 e1 3e 57 39 f2 3d 9c b5 71 3e dc 0b 32 bf
       0.44061136 0.11827343 0.23604435 -0.69549346
000230 0e 76 07 3e 58 4f a6 3e c8 94 48 be 3c 32 9b 3e
       0.13228628 0.3248241 -0.19588006 0.30311763
000240 8f d3 5a bf 3f 0c f4 be 4b a8 af bc e6 d2 80 3e
       -0.8547906 -0.47665593 -0.021442553 0.25160903
000250 f7 f5 24 bf a1 84 f2 3d dc 96 42 be 6a fe 10 bf
       -0.6443781 0.11841703 -0.19002861 -0.56638205
000260 dd 4c 20 3f eb a1 5a be 8d d0 ac bc 15 66 54 3e
       0.62617284 -0.2135083 -0.021095539 0.20742066
000270 24 9b 2b 3f fe f6 90 3e 7f df 7e be c5 75 41 3f
       0.670336 0.2831344 -0.24889944 0.7557033
000280 78 7f 6b be 06 19 ac be c3 b1 6b be 7a 39 fa 3d
       -0.22997844 -0.3361284 -0.2301703 0.12217994
000290 a7 5b 15 be d7 37 30 be 83 68 35 be d6 a9 1c 3f
       -0.14585744 -0.17208801 -0.1771565 0.6119665
0002a0 d3 3c 73 bf 3c 02 31 3d a7 83 43 bd 0a 39 4f bd
       -0.95014685 0.04321502 -0.047732975 -0.050591506
0002b0 17 3c cf 3d 72 67 a4 3d 8d b9 3a 3f c2 e7 34 bf
       0.10118883 0.08027543 0.7293938 -0.70666134
0002c0 9a 5f 5b 3e 82 4d b7 3d dd d5 0f 3e bf c4 e5 3d
       0.21423188 0.0895033 0.14046426 0.11219167
0002d0 a6 fe 14 3f 94 00 c7 be a3 fa de bd d5 b5 07 3e
       0.5820106 -0.3886763 -0.10887649 0.13252957
0002e0 e3 f1 90 3e 97 cc 0f bf 61 38 1d 3e c8 9f 5a bf
       0.28309545 -0.56171554 0.15353538 -0.85400057
0002f0 7e 60 de be d1 d0 70 3d 90 43 05 3e e0 c4 00 bf
       -0.43432993 0.058792893 0.13014054 -0.5030041
000300 0a e2 60 3d f1 8d 23 3e e2 f7 0d 3e 7f cf 00 be
       0.054903068 0.15972115 0.13864091 -0.12579153
000310 03 68 33 3e 96 7c 96 3d 15 ae 09 3d f0 45 98 be
       0.17520146 0.07347982 0.033613283 -0.29740858
000320 6d 0a a0 3e 93 84 68 be 40 ca 39 3c 30 f9 07 be
       0.31257954 -0.22706823 0.011339724 -0.13278651
000330 5c 2c bb be ec af 94 3c 62 1d 25 3f 12 40 84 3f
       -0.3655728 0.018150292 0.6449796 1.0332053
000340 9c 6d b2 be a3 07 97 3e 5a 06 6e be d2 90 ff 3e
       -0.3484925 0.29498014 -0.2324461 0.49915177
000350 18 74 ae 3e a3 30 e3 bd 02 f1 01 bf f0 11 0e be
       0.34072948 -0.11093261 -0.50758374 -0.1387403
000360 01 d4 1b 3e cc c2 6c be e2 e6 be bd 21 0d 56 3e
       0.15217592 -0.23121184 -0.09321381 0.20903446
000370 02 4c a2 3e 83 db 10 bf 23 71 01 3f c4 ac 09 3f
       0.31698614 -0.5658495 0.5056326 0.53779244
000380 f0 20 88 3f 11 60 ca 3e a8 b4 7d bf 3d 6e 2b bd
       1.0635052 0.39526418 -0.99103785 -0.04185318
000390 cb 29 b3 be 87 13 1c 3f c6 5b 8f be a5 77 1c 3e
       -0.34992823 0.60967296 -0.27999705 0.15280016
0003a0 47 51 87 be e2 ce ec be 42 69 96 be 54 d7 9b 3e
       -0.26429197 -0.4625159 -0.2937718 0.3043772
0003b0 bf 16 a3 bd ab 57 fc bc b7 64 22 3f cf 04 40 bf
       -0.07963323 -0.030803522 0.6343493 -0.7500734
0003c0 4d b2 8d bf df d1 9d 3d ec 71 33 be fa 89 6f 3d
       -1.1070038 0.07706045 -0.17523926 0.058481194
0003d0 db 12 66 be a8 82 93 be 15 11 a1 3e d6 27 3f bf
       -0.2246813 -0.2881062 0.31458345 -0.7467016
0003e0 53 c0 d6 3e 73 f1 08 3e b9 bd 4c 3e ba c8 30 3d
       0.41943607 0.13373356 0.19994248 0.043160178
0003f0 4a 6a cf be ef c9 d9 be 56 44 7d 3e a6 76 74 3e
       -0.4051078 -0.42536876 0.247331 0.23873386

network_body.linear_encoder.seq_layers.0.bias f4 [128]
000000 00 00 00 00 00 00 00 00 00 00 00 00 00 00 00 00
       0.0 0.0 0.0 0.0
000010 00 00 00 00 00 00 00 00 00 00 00 00 00 00 00 00
       0.0 0.0 0.0 0.0
000020 00 00 00 00 00 00 00 00 00 00 00 00 00 00 00 00
       0.0 0.0 0.0 0.0
000030 00 00 00 00 00 00 00 00 00 00 00 00 00 00 00 00
       0.0 0.0 0.0 0.0
000040 00 00 00 00 00 00 00 00 00 00 00 00 00 00 00 00
       0.0 0.0 0.0 0.0
000050 00 00 00 00 00 00 00 00 00 00 00 00 00 00 00 00
       0.0 0.0 0.0 0.0
000060 00 00 00 00 00 00 00 00 00 00 00 00 00 00 00 00
       0.0 0.0 0.0 0.0
000070 00 00 00 00 00 00 00 00 00 00 00 00 00 00 00 00
       0.0 0.0 0.0 0.0
000080 00 00 00 00 00 00 00 00 00 00 00 00 00 00 00 00
       0.0 0.0 0.0 0.0
000090 00 00 00 00 00 00 00 00 00 00 00 00 00 00 00 00
       0.0 0.0 0.0 0.0
0000a0 00 00 00 00 00 00 00 00 00 00 00 00 00 00 00 00
       0.0 0.0 0.0 0.0
0000b0 00 00 00 00 00 00 00 00 00 00 00 00 00 00 00 00
       0.0 0.0 0.0 0.0
0000c0 00 00 00 00 00 00 00 00 00 00 00 00 00 00 00 00
       0.0 0.0 0.0 0.0
0000d0 00 00 00 00 00 00 00 00 00 00 00 00 00 00 00 00
       0.0 0.0 0.0 0.0
0000e0 00 00 00 00 00 00 00 00 00 00 00 00 00 00 00 00
       0.0 0.0 0.0 0.0
0000f0 00 00 00 00 00 00 00 00 00 00 00 00 00 00 00 00
       0.0 0.0 0.0 0.0
000100 00 00 00 00 00 00 00 00 00 00 00 00 00 00 00 00
       0.0 0.0 0.0 0.0
000110 00 00 00 00 00 00 00 00 00 00 00 00 00 00 00 00
       0.0 0.0 0.0 0.0
000120 00 00 00 00 00 00 00 00 00 00 00 00 00 00 00 00
       0.0 0.0 0.0 0.0
000130 00 00 00 00 00 00 00 00 00 00 00 00 00 00 00 00
       0.0 0.0 0.0 0.0
000140 00 00 00 00 00 00 00 00 00 00 00 00 00 00 00 00
       0.0 0.0 0.0 0.0
000150 00 00 00 00 00 00 00 00 00 00 00 00 00 00 00 00
       0.0 0.0 0.0 0.0
000160 00 00 00 00 00 00 00 00 00 00 00 00 00 00 00 00
       0.0 0.0 0.0 0.0
000170 00 00 00 00 00 00 00 00 00 00 00 00 00 00 00 00
       0.0 0.0 0.0 0.0
000180 00 00 00 00 00 00 00 00 00 00 00 00 00 00 00 00
       0.0 0.0 0.0 0.0
000190 00 00 00 00 00 00 00 00 00 00 00 00 00 00 00 00
       0.0 0.0 0.0 0.0
0001a0 00 00 00 00 00 00 00 00 00 00 00 00 00 00 00 00
       0.0 0.0 0.0 0.0
0001b0 00 00 00 00 00 00 00 00 00 00 00 00 00 00 00 00
       0.0 0.0 0.0 0.0
0001c0 00 00 00 00 00 00 00 00 00 00 00 00 00 00 00 00
       0.0 0.0 0.0 0.0
0001d0 00 00 00 00 00 00 00 00 00 00 00 00 00 00 00 00
       0.0 0.0 0.0 0.0
0001e0 00 00 00 00 00 00 00 00 00 00 00 00 00 00 00 00
       0.0 0.0 0.0 0.0
0001f0 00 00 00 00 00 00 00 00 00 00 00 00 00 00 00 00
       0.0 0.0 0.0 0.0

network_body.linear_encoder.seq_layers.2.weight f4 [128, 128]
000000 a1 16 cf 3c da 6a 4b 3e 69 94 94 bd a8 dd f7 bd
       0.025279345 0.1986498 -0.072548695 -0.121028244
000010 db 09 51 bd 56 92 c5 bd 00 a1 df 3b e9 b2 f9 3d
       -0.05103479 -0.09647052 0.0068246126 0.121923275
000020 4b 0e 81 3d 39 12 c7 bd f9 f9 a1 3d 99 e9 6f bc
       0.06301554 -0.097202726 0.079090066 -0.014643096
000030 e9 d9 26 3d e3 2e ed 3a f4 7c 92 3c a0 1c 35 3c
       0.04073516 0.0018095638 0.017881848 0.011054188
000040 91 3f fc bd f1 a4 70 bd 60 d4 b3 bd bc d6 38 bd
       -0.12316812 -0.05875105 -0.08780742 -0.04512666
000050 61 4b 53 bd f1 1c 24 be 1d 55 bb bd 9b 51 97 bb
       -0.05158556 -0.16026665 -0.091470934 -0.0046178824
000060 ee c0 5d bd d3 f3 9c bb 67 52 55 bc b5 d8 2c 3e
       -0.05413907 -0.0047898083 -0.0130201345 0.16879542
000070 00 17 1c 3d 95 33 e1 3d 45 e5 f8 bd 18 19 92 bd
       0.038107872 0.109961666 -0.12153105 -0.071336925
000080 f8 f0 79 bd ec bc fa 3c aa 05 ea bd 8b e3 15 be
       -0.06102082 0.030607663 -0.114268616 -0.14637582
000090 fb bb cd bd 59 37 14 3e fa ba 41 3c f0 e0 f8 bc
       -0.1004562 0.14474238 0.011824364 -0.030380696
0000a0 5f 32 1e be ff 56 88 3c 93 fe 19 be e1 c6 36 3e
       -0.15448903 0.016643045 -0.15038519 0.17849304
0000b0 ae 05 38 3d 17 f8 7a bd 40 a9 98 bc 99 9b be bd
       0.04492729 -0.061271753 -0.018635392 -0.09307022
0000c0 96 82 c3 bd c6 12 29 be e9 0a e3 3d 60 98 46 be
       -0.09546392 -0.16511068 0.11086065 -0.19394064
0000d0 9f ec 80 3d 23 6a 55 3c 76 61 fc bc 5c cb 0a bd
       0.06295132 0.013025793 -0.030808192 -0.033885345
0000e0 86 28 69 3d b9 a1 4c be b0 46 57 3d 15 d6 4b 3e
       0.05692341 -0.19983567 0.052557647 0.19905885
0000f0 74 57 4a be 2c fe a7 3d e0 5b a5 bd b9 c2 42 bd
       -0.19759923 0.08202776 -0.080741644 -0.047548983
000100 84 32 8f 3b c1 f3 f6 3d d9 7c cd bc 4b 28 1b 3d
       0.0043700356 0.12058211 -0.025083946 0.037880223
000110 ee 07 6c 3e 2e 8b 19 be 4a 9a c4 bc 74 07 06 be
       0.230499 -0.14994499 -0.023999352 -0.1308878
000120 d1 ba a2 bb 07 b8 a8 3c 21 ce 7d 3c fe 28 8e 3d
       -0.004966118 0.020595564 0.0154910395 0.069414124
000130 4d 24 27 3e 35 72 97 bd 4f 59 41 be 40 7f fc 3d
       0.16322441 -0.0739483 -0.18881725 0.123289585
000140 a5 8d 65 3d e5 d8 08 bc 72 b6 3e 3d c9 ad 42 bd
       0.056043286 -0.008352493 0.046560712 -0.047529016
000150 83 6a 70 3e 82 09 fa 3d 34 08 43 3d bd 95 1e b9
       0.23478131 0.12208845 0.047615245 -0.00015123836
000160 e9 d9 da bd e1 ea 05 bd 87 d7 72 3d 2d 96 31 3d
       -0.10686094 -0.0326947 0.059287574 0.04335611
000170 15 0d b8 bd 33 6b 83 3c 06 75 f8 3c 9c 21 75 bc
       -0.0898687 0.016042328 0.030329239 -0.014961626
000180 4a 56 f4 3d 86 86 a5 bc 9c c2 83 bd 86 3e 94 bd
       0.11930521 -0.020205747 -0.06433603 -0.07238488
000190 de ec d2 3c d0 55 a2 bd 8d 95 d1 3c 02 1a 10 3d
       0.025747713 -0.07926524 0.025584007 0.035181053
0001a0 7d a6 a1 3d 25 5f 65 ba de a9 52 3d 2a 68 d9 bc
       0.07893083 -0.00087498344 0.05143153 -0.026538927
0001b0 ec 30 8f 3d 00 73 19 3d f0 f6 63 bd 25 9f 17 3d
       0.06991753 0.03746319 -0.05565542 0.037017006
0001c0 b8 b4 51 3c 2d 17 e9 3d 23 0d 52 3c 01 8a 76 bd
       0.012799434 0.113813736 0.012820515 -0.060190205
0001d0 a1 ed 1b bd 57 41 57 3d a6 4c 05 3e 29 5b 42 3c
       -0.038068417 0.052552547 0.1301752 0.011862555
0001e0 5c 15 44 3d 3e 68 62 bc 1f 1d 12 3d 5a cd 6a 3c
       0.047871932 -0.013818799 0.035672303 0.014331186
0001f0 7b f1 b4 3c 57 ea b5 3d 7c a6 ee 3d e6 bd 60 bc
       0.022087803 0.088825874 0.11652848 -0.01371715
000200 17 52 29 3b 1b 2a 4e 3d 54 14 0d 3e ab 26 81 3b
       0.0025836283 0.050333124 0.13777286 0.003941377
000210 c5 91 65 3c 49 78 82 bd 0d bc 55 bc db 29 81 3d
       0.014011805 -0.06370599 -0.013045323 0.063068114
000220 d2 33 59 3c 11 bd 57 bc 14 7b ff 3d 58 e9 27 3d
       0.013256984 -0.013167636 0.12474647 0.04099402
000230 d1 c6 c2 3d 89 9f aa 3d 00 a2 e5 3d 10 fd 66 bd
       0.095105775 0.0833121 0.1121254 -0.056393683
000240 9d 5e 85 3d 28 1a 0b 3d 28 02 69 bd 9f 32 79 bd
       0.06512187 0.03396049 -0.056886822 -0.06083929
000250 d9 f9 77 3c 11 4c 13 bc a6 1a 73 3d 08 ec bf bb
       0.015135252 -0.008990304 0.059351586 -0.0058569945
000260 22 e9 1c 3d c2 ad 52 3d c1 0c 22 3e 10 4a 0d 3e
       0.03830827 0.05143524 0.15825178 0.13797784
000270 14 0d 80 bb 22 90 ad bd 95 af 1e bc bb aa ff 3d
       -0.003907809 -0.08474757 -0.009685417 0.12483736
000280 b3 14 0a 3e 25 22 20 3e a4 18 c3 bd d4 89 8e bd
       0.13484459 0.15638025 -0.09526184 -0.069598824
000290 24 ba 39 3e 83 a2 2d 3e 15 c2 ff 3c e0 8f 2d 3d
       0.18137413 0.16956525 0.031220475 0.042373538
0002a0 17 a5 d8 bd 34 b5 55 3d 03 be 8b 3d e0 58 97 bc
       -0.105783634 0.052174762 0.06823351 -0.018474996
0002b0 46 c9 13 be b4 46 e8 bc f8 5c 9e 3c 0f 0e 27 3e
       -0.14432248 -0.028354026 0.01933144 0.16313957
0002c0 3a 6f 82 3d d9 68 22 bd 05 29 7f bd 79 96 0d 3d
       0.06368871 -0.03965077 -0.06229498 0.03456733
0002d0 6b 0e c6 bd c8 36 59 bd 6e 6b 6e 3d 9d 05 bb bd
       -0.09670719 -0.05303076 0.05820792 -0.0913193
0002e0 ec c4 49 be 21 94 5e 3d 01 c7 90 bd bd fe 17 3d
       -0.19704026 0.054340485 -0.07069207 0.03710817
0002f0 46 cc ed 3c d8 d4 c1 3c 7f 24 19 be 55 dd 05 3e
       0.02902807 0.023661062 -0.14955328 0.13072713
000300 35 a5 2e 3c e6 18 f7 bc b0 08 ff 3d db 07 3a bd
       0.010659506 -0.03016324 0.12452829 -0.045417648
000310 a1 ed 89 3d a2 8c 08 bd 68 6f b6 bc 94 43 31 3b
       0.06734777 -0.033337243 -0.02226992 0.0027048336
000320 95 2a de bd 23 38 cb ba 81 13 66 bd 94 8e 15 bc
       -0.10847966 -0.0015504401 -0.056170944 -0.009128232
000330 eb 32 54 3d b7 66 9d bc 1d c6 b7 bd fa 2a 35 bd
       0.05180637 -0.019214017 -0.08973334 -0.04423044
000340 33 23 4d ba 12 14 79 3d f4 8f 2b be 3c 32 01 3e
       -0.00078253745 0.060810156 -0.16754133 0.12616819
000350 7b a6 e2 3b c4 0e 83 be 95 d1 56 3d c5 2c 99 bc
       0.0069168187 -0.25597203 0.052445967 -0.018698106
000360 d9 c3 01 be 2c d4 4d bd 4d ef 97 3d 8c a5 76 3c
       -0.12672366 -0.05025117 0.0741869 0.015054118
000370 e5 ac 36 be 06 64 b5 bd 96 81 dd bd 5a 25 cc bb
       -0.17839392 -0.088569686 -0.10815732 -0.0062300386
000380 83 ee 81 bd 9d d1 66 3d 83 6b 83 bd b6 af 68 bd
       -0.063443206 0.056352247 -0.064169906 -0.056808196
000390 2f c6 49 3d 20 33 83 3d 7f 41 b9 3c d9 20 db bc
       0.04926127 0.06406236 0.022614239 -0.026749061
0003a0 e1 f8 1e 3e 15 86 bc 3d a4 80 32 bd 3f 50 d1 3c
       0.15524627 0.092052616 -0.043579713 0.02555096
0003b0 c4 9c 86 3c b7 92 af 3d d5 a9 cc bc 39 9a b9 3d
       0.016432174 0.085729055 -0.024983326 0.09062619
0003c0 8b f8 d3 bb fc a6 ae 3d 5d 74 5f 3d 6f 54 85 bd
       -0.0064688376 0.085279435 0.054554332 -0.06510245
0003d0 89 4a 6a bc 15 bc d7 3d 15 ee 54 b9 6b 36 02 3d
       -0.014299997 0.10533921 -0.00020306588 0.03179018
0003e0 67 b8 a2 bd d4 0a 83 3c 37 78 06 3e 21 15 29 bd
       -0.07945328 0.015996374 0.13131796 -0.041279916
0003f0 72 db e3 3c ad 13 b5 bb b0 c4 d3 3b bf 98 b3 bd
       0.0278146 -0.005526027 0.006462656 -0.087693684

network_body.linear_encoder.seq_layers.2.bias f4 [128]
000000 00 00 00 00 00 00 00 00 00 00 00 00 00 00 00 00
       0.0 0.0 0.0 0.0
000010 00 00 00 00 00 00 00 00 00 00 00 00 00 00 00 00
       0.0 0.0 0.0 0.0
000020 00 00 00 00 00 00 00 00 00 00 00 00 00 00 00 00
       0.0 0.0 0.0 0.0
000030 00 00 00 00 00 00 00 00 00 00 00 00 00 00 00 00
       0.0 0.0 0.0 0.0
000040 00 00 00 00 00 00 00 00 00 00 00 00 00 00 00 00
       0.0 0.0 0.0 0.0
000050 00 00 00 00 00 00 00 00 00 00 00 00 00 00 00 00
       0.0 0.0 0.0 0.0
000060 00 00 00 00 00 00 00 00 00 00 00 00 00 00 00 00
       0.0 0.0 0.0 0.0
000070 00 00 00 00 00 00 00 00 00 00 00 00 00 00 00 00
       0.0 0.0 0.0 0.0
000080 00 00 00 00 00 00 00 00 00 00 00 00 00 00 00 00
       0.0 0.0 0.0 0.0
000090 00 00 00 00 00 00 00 00 00 00 00 00 00 00 00 00
       0.0 0.0 0.0 0.0
0000a0 00 00 00 00 00 00 00 00 00 00 00 00 00 00 00 00
       0.0 0.0 0.0 0.0
0000b0 00 00 00 00 00 00 00 00 00 00 00 00 00 00 00 00
       0.0 0.0 0.0 0.0
0000c0 00 00 00 00 00 00 00 00 00 00 00 00 00 00 00 00
       0.0 0.0 0.0 0.0
0000d0 00 00 00 00 00 00 00 00 00 00 00 00 00 00 00 00
       0.0 0.0 0.0 0.0
0000e0 00 00 00 00 00 00 00 00 00 00 00 00 00 00 00 00
       0.0 0.0 0.0 0.0
0000f0 00 00 00 00 00 00 00 00 00 00 00 00 00 00 00 00
       0.0 0.0 0.0 0.0
000100 00 00 00 00 00 00 00 00 00 00 00 00 00 00 00 00
       0.0 0.0 0.0 0.0
000110 00 00 00 00 00 00 00 00 00 00 00 00 00 00 00 00
       0.0 0.0 0.0 0.0
000120 00 00 00 00 00 00 00 00 00 00 00 00 00 00 00 00
       0.0 0.0 0.0 0.0
000130 00 00 00 00 00 00 00 00 00 00 00 00 00 00 00 00
       0.0 0.0 0.0 0.0
000140 00 00 00 00 00 00 00 00 00 00 00 00 00 00 00 00
       0.0 0.0 0.0 0.0
000150 00 00 00 00 00 00 00 00 00 00 00 00 00 00 00 00
       0.0 0.0 0.0 0.0
000160 00 00 00 00 00 00 00 00 00 00 00 00 00 00 00 00
       0.0 0.0 0.0 0.0
000170 00 00 00 00 00 00 00 00 00 00 00 00 00 00 00 00
       0.0 0.0 0.0 0.0
000180 00 00 00 00 00 00 00 00 00 00 00 00 00 00 00 00
       0.0 0.0 0.0 0.0
000190 00 00 00 00 00 00 00 00 00 00 00 00 00 00 00 00
       0.0 0.0 0.0 0.0
0001a0 00 00 00 00 00 00 00 00 00 00 00 00 00 00 00 00
       0.0 0.0 0.0 0.0
0001b0 00 00 00 00 00 00 00 00 00 00 00 00 00 00 00 00
       0.0 0.0 0.0 0.0
0001c0 00 00 00 00 00 00 00 00 00 00 00 00 00 00 00 00
       0.0 0.0 0.0 0.0
0001d0 00 00 00 00 00 00 00 00 00 00 00 00 00 00 00 00
       0.0 0.0 0.0 0.0
0001e0 00 00 00 00 00 00 00 00 00 00 00 00 00 00 00 00
       0.0 0.0 0.0 0.0
0001f0 00 00 00 00 00 00 00 00 00 00 00 00 00 00 00 00
       0.0 0.0 0.0 0.0

value_heads.value_heads.extrinsic.weight f4 [1, 128]
000000 92 47 08 bc af d8 0e 3c 36 26 d7 bd 65 dc 19 3e
       -0.008317845 0.008718654 -0.10505335 0.1502548
000010 ad a4 4a be a5 7e 33 3d ed c6 c2 bc fb 74 45 be
       -0.19789381 0.04382195 -0.023776496 -0.19282906
000020 aa ba 7a bd 84 95 00 be da 14 4e be 17 1a 59 3c
       -0.061213173 -0.12557036 -0.20125142 0.013250849
000030 6f d9 a4 b9 8b 6d f9 3d d5 58 25 3e 61 99 dd 3d
       -0.00031442518 0.12179097 0.16147168 0.1082027
000040 0a 40 db 3c 04 ce 2c be d6 ff 42 be 6b 60 27 bd
       0.026763935 -0.16875464 -0.19042906 -0.040863436
000050 ec 7d db bd a3 cb 39 be b4 1c c1 3d 0c f5 ce bb
       -0.10717377 -0.18144087 0.09429303 -0.006315833
000060 45 ab 50 3e 0e 3b da 3d 46 61 4f be f2 23 3b ba
       0.20377834 0.10655795 -0.2025195 -0.000713884
000070 b9 00 a6 3d e0 60 7b bc d1 71 e2 bd d6 c0 3f 3e
       0.081056066 -0.015342921 -0.11056865 0.18725905
000080 db 23 01 3e f5 ee 3d 3e b3 cf 22 3e 96 7c 66 3d
       0.12611334 0.18548186 0.15899543 0.05627116
000090 b8 d1 33 3e 98 63 a3 bd 7f 37 21 be e7 56 65 bc
       0.1756047 -0.079779804 -0.15743826 -0.01399777
0000a0 bd 1e 5b be 3f ce a3 bd f5 2b bf 3d 5c 10 01 be
       -0.21398444 -0.07998323 0.09334556 -0.12603897
0000b0 8f dc e0 bc 7e c1 82 3d 14 a5 0b 3e 5f 11 d6 3d
       -0.02744892 0.06384562 0.13637191 0.10452532
0000c0 8a c2 3f 3e f1 58 96 3d a9 84 0e 3e b6 c4 a1 bd
       0.18726555 0.07341183 0.13917793 -0.07898848
0000d0 f2 b1 08 be ac 91 cf bc 07 d1 7a 3c 6a c5 45 3e
       -0.13349131 -0.025338016 0.015308625 0.19313589
0000e0 b1 cb 04 3e 90 c1 8d bd b8 74 52 3e 4f 0d 09 3e
       0.12968327 -0.06921685 0.20552337 0.13383983
0000f0 b5 89 9e bd 01 a5 e4 3d 1a 35 5c bd 8e 37 00 3e
       -0.07741109 0.111642845 -0.05376158 0.12521192
000100 2c ca 30 bc ca 58 23 3e c2 3b f3 bd 47 47 12 bd
       -0.010790389 0.15951839 -0.11876632 -0.035712507
000110 f0 56 1f be 22 20 0c be 32 f1 84 3d 76 a2 ce bd
       -0.15560508 -0.13684133 0.06491317 -0.10089581
000120 dc bf 53 3d 9d 83 11 be 62 a7 fe 3b 82 17 4f be
       0.051696643 -0.14210363 0.0077714184 -0.20223811
000130 2f 66 29 3e fc f7 5a 3e 84 a7 59 be 2a 58 00 be
       0.16542886 0.21383661 -0.21255308 -0.12533632
000140 be bf 9c bd 7a ae a1 3d 05 ae fa 3d b5 82 a5 bc
       -0.076537594 0.07894607 0.12240223 -0.020203928
000150 37 62 39 bd 56 a2 03 3d b4 77 23 bd 4b 31 cc bd
       -0.04525968 0.032137237 -0.03990908 -0.099703394
000160 45 00 d0 3d 41 aa 50 bd fa cd cb bd 1f 53 c6 3c
       0.101563014 -0.050943617 -0.09951396 0.024209557
000170 1d 36 02 be 60 d2 c8 bd ac fd 13 3d 5f 2a 32 be
       -0.12715955 -0.09805751 0.036130592 -0.17398976
000180 db 6d b6 bd 8b c0 56 be 9d ba c6 bc 75 98 24 be
       -0.08907672 -0.20971887 -0.024258906 -0.16073783
000190 3a 01 32 be e5 e5 c9 bc f5 a1 91 bd 7f 69 1c 3e
       -0.1738328 -0.024645755 -0.07110969 0.15274619
0001a0 9d c8 31 3e 66 85 0b be ae 9d 4d 3d 22 0c 3d be
       0.17361684 -0.13625106 0.050199203 -0.1846166
0001b0 a6 1b ac 3d 20 74 f5 bc 5b 7e 1a be 16 2f a0 bd
       0.08403711 -0.0299626 -0.15087263 -0.07821481
0001c0 d2 36 7b 3d bf 9c 19 3e a9 e6 96 3d c6 e8 58 be
       0.061331578 0.150012 0.07368214 -0.21182546
0001d0 96 d2 1f 3d 28 f9 56 3d 29 aa e8 bd 99 a7 6b bd
       0.03901919 0.052483708 -0.113605805 -0.05753288
0001e0 76 b4 d2 bc 3e e5 15 3e 1f 98 08 3d 6c 4e 9e bd
       -0.025720816 0.1463823 0.0333482 -0.077298015
0001f0 35 52 1b be 7f b2 ec 3d 4f 43 1e bd 98 1b 0f 3d
       -0.15168078 0.11557483 -0.03863841 0.034938425
