results/ppo/My Behavior/My Behavior-3820.onnx (onnx, 72951 bytes, 7 tensors)

action_model._continuous_distribution.log_sigma f4 [1, 2]
0	0x00000000	0.0
1	0x00000000	0.0

action_model._continuous_distribution.mu.bias f4 [2]
0	0x00000000	0.0
1	0x00000000	0.0

action_model._continuous_distribution.mu.weight f4 [2, 128]
0	0xbc2c03a7	-0.010498918
1	0xbc03b63d	-0.008039054
2	0xbcbc3287	-0.022973312
3	0xbc5ac065	-0.0133515345
4	0x3ce38c4b	0.027776858
5	0xbcac4184	-0.021027334
6	0xbb930de6	-0.004487741
7	0x3c7df44f	0.015500142
8	0xbcd6a0aa	-0.026199657
9	0xbb4a41e3	-0.0030862025
10	0x3c8fff51	0.017577799
11	0x3c3c50af	0.011493846
12	0x3be410d2	0.006960013
13	0x3c48ec27	0.012263334
14	0xbc521bef	-0.012824043
15	0xbc65e052	-0.014030533
16	0x3c0fc71e	0.008775501
17	0xbc560fb8	-0.013065271
18	0x3bd67af2	0.006545418
19	0xbba11cb7	-0.004916753
20	0xbb349cca	-0.0027559274
21	0x3b027268	0.0019904617
22	0x3d1d5018	0.03840646
23	0xbb3d9c72	-0.002893236
24	0xbc40ecc3	-0.011775198
25	0xbc120f31	-0.008914755
26	0x3b6d5a60	0.0036217198
27	0xbca820ab	-0.02052339
28	0x3c318fc1	0.010837496
29	0xbbe0965d	-0.006853862
30	0xbd41fb0b	-0.047358554
31	0x3bcaca30	0.0061886534
32	0x3ae8b570	0.0017754268
33	0xbcc87b11	-0.024472745
34	0x3bb45d02	0.0055042515
35	0xbc0f65eb	-0.0087523265
36	0x3b2f7eda	0.002677849
37	0xbcd795c2	-0.026316527
38	0x3c6737b2	0.0141124
39	0x3bd3165b	0.006441874
40	0xbb95eb4f	-0.00457517
41	0xbb196bdd	-0.0023410239
42	0x3bf92332	0.0076030726
43	0x3bda2e6f	0.0066583673
44	0xbc1f690e	-0.009729637
45	0x3cb20dd8	0.021735117
46	0xbc3caf30	-0.011516377
47	0xbc623978	-0.013807647
48	0xbc1cade0	-0.009562939
49	0xbcfaeac3	-0.030629521
50	0x3a523e18	0.0008020117
51	0xbd272d89	-0.04081491
52	0xbca13c04	-0.019681938
53	0x3bccd382	0.0062507996
54	0xbbd5e7ea	-0.0065278905
55	0x3a6e438d	0.00090890453
56	0x3c47b90b	0.012190114
57	0x3b4a7375	0.0030891572
58	0x3c9f26a0	0.019427598
59	0x3c241de3	0.010016891
60	0xbbb8fb45	-0.005645188
61	0xbb87b19a	-0.004141045
62	0xbc4466f1	-0.011987434
63	0xbc2bd0d5	-0.010486801
64	0xbc7acf63	-0.015308234
65	0x3c6c9855	0.014440616
66	0x3cac392c	0.021023355
67	0x3b3ce7d8	0.0028824713
68	0x3b07204a	0.002061861
69	0xbc80cdc1	-0.015723111
70	0xbc76ba43	-0.015059057
71	0xbc27189d	-0.010198739
72	0x3be030d5	0.0068417587
73	0xbb409873	-0.0029387742
74	0xbcc2d357	-0.023782415
75	0x3d08f443	0.03343607
76	0xbc580e8f	-0.013187065
77	0x3b21dddb	0.0024698887
78	0x3c7002a0	0.014649063
79	0x3c3647c4	0.011125509
80	0x3bad6020	0.005291
81	0xbca46428	-0.02006729
82	0xbc9f8b24	-0.019475527
83	0xbbef34ca	-0.007299994
84	0xba48104c	-0.0007631823
85	0xbbcf0022	-0.0063171545
86	0x3d0a883b	0.033821326
87	0xbbf52baf	-0.007482014
88	0x3bd38f75	0.0064563104
89	0xbbed4e7d	-0.0072420225
90	0xbcd1963f	-0.025584338
91	0x3c068266	0.0082098
92	0xbd188352	-0.03723461
93	0xbc87bf29	-0.016570644
94	0x3c85a387	0.016313327
95	0x3c4a3edf	0.012344091
96	0xbc94005a	-0.018066574
97	0xbc6b74cf	-0.014371111
98	0x3d0f2004	0.03494264
99	0x3c57a075	0.0131608145
100	0xbbec5b2f	-0.0072130184
101	0x3c3fbcfe	0.011702774
102	0x3b133f71	0.0022468234
103	0xbc8ec592	-0.017428193
104	0x3b9cf46b	0.004789879
105	0x3cc9c073	0.0246279
106	0xbc049bc0	-0.008093774
107	0xbc50d255	-0.01274546
108	0xbc766637	-0.015039018
109	0x3cb31f7b	0.021865597
110	0x3d01bb5b	0.031672817
111	0x3d0551bc	0.03254865
112	0x3bac0862	0.0052500227
113	0xbb5772f0	-0.0032874905
114	0xbc28875f	-0.010286181
115	0xbc66298a	-0.01404799
116	0xbd1d33dd	-0.03837954
117	0xbca19b1b	-0.01972728
118	0xbbe7dc88	-0.00707585
119	0xbc296048	-0.010337897
120	0x3b30133a	0.0026866929
121	0xbc65bba3	-0.014021787
122	0x3c96d423	0.018411702
123	0xbcdeaef0	-0.027183026
124	0x3cbe2f4e	0.023215916
125	0xbb4982c4	-0.0030748108
126	0xbb992aad	-0.004674277
127	0xbc9a6e94	-0.018851556
128	0x3c91548f	0.017740516
129	0x3c59610b	0.013267766
130	0xbd046c0b	-0.0323296
131	0x3c8b0073	0.016967988
132	0x3c35bd6a	0.011092523
133	0xbc4ec3ca	-0.012619922
134	0x3b0c9c74	0.0021455558
135	0x3c3a9d81	0.011390091
136	0xbccbfe1b	-0.02490144
137	0x3c33c87f	0.010973095
138	0xbcceb43a	-0.025232423
139	0xbc88117b	-0.016609898
140	0x3c87d507	0.016581072
141	0x3c66775a	0.014066542
142	0x3d05b5cf	0.03264409
143	0xbc105561	-0.008809418
144	0xbbf89350	-0.0075859204
145	0x3cb0012f	0.02148494
146	0x3bc3a2fb	0.0059703565
147	0x3b10a7f5	0.0022072766
148	0xbc595e08	-0.013267048
149	0x3c324993	0.010881799
150	0x3b8da2a1	0.0043223654
151	0xbc54a148	-0.012977906
152	0x3ca100d9	0.019653725
153	0x3c2b1a83	0.010443333
154	0x3ce8f5e8	0.02843757
155	0x3cd55c10	0.026044875
156	0xbbc9ec6a	-0.006162216
157	0x3c5ec4d8	0.013596736
158	0xbc9d5593	-0.019205844
159	0x3cd1428f	0.025544433
160	0x3c8471c5	0.01616753
161	0xbd217b5b	-0.03942428
162	0x3c81351b	0.015772393
163	0xbcdafb95	-0.026731292
164	0xbb301472	-0.0026867655
165	0xbc5901d5	-0.013245066
166	0x3b948253	0.0045321374
167	0x3c0318fa	0.00800156
168	0x3b9e5dd3	0.004832962
169	0x3b83ee02	0.0040261755
170	0x3c9ef3cc	0.01940336
171	0x3b27f802	0.0025630002
172	0xbcf7bce3	-0.030241435
173	0xba90377c	-0.0011002864
174	0xbcc99ee3	-0.024611896
175	0x3cdb9dcf	0.026808647
176	0xbc5b711b	-0.013393666
177	0xb91ff55e	-0.00015254828
178	0x3c99403b	0.018707385
179	0xbb59af6a	-0.0033216127
180	0xbbc5bf0c	-0.0060347375
181	0xbc8f3f2f	-0.017486183
182	0x3bffd217	0.007807027
183	0xbc1afe7a	-0.009460086
184	0x3be61a4d	0.0070221783
185	0xbce2913a	-0.02765714
186	0xbc868cbb	-0.016424527
187	0xbbdce8a8	-0.006741602
188	0x3c778092	0.015106337
189	0xbc786525	-0.0151608335
190	0xbbbfbccc	-0.0058513638
191	0xbc83e225	-0.016099045
192	0x3be84a12	0.007088908
193	0xbbce4c65	-0.006295728
194	0x3bc4d527	0.006006855
195	0xbc42ec3d	-0.011897144
196	0x3cacbbc9	0.021085637
197	0x3cda800b	0.026672384
198	0x3b947707	0.0045307907
199	0x3b6c0233	0.0036012053
200	0xbc0ee16d	-0.008720738
201	0xbbe20b15	-0.0068982937
202	0xbcf8dbbd	-0.030378217
203	0xbc10d1a3	-0.008839044
204	0x3c241e97	0.010017059
205	0x3c2b6d11	0.010463015
206	0x3c3a2de3	0.011363479
207	0x3c99c8b6	0.018772464
208	0x3bd72593	0.0065657585
209	0xbbc0257f	-0.005863845
210	0x3b7aaaf0	0.003824886
211	0x3ceac708	0.028659359
212	0x3c8a2b07	0.01686622
213	0x3b287fc7	0.0025710927
214	0xbc1dda68	-0.009634592
215	0xbb4c330f	-0.0031158363
216	0x3ca784d7	0.020449085
217	0xbc1c0bc4	-0.0095242895
218	0xb9231668	-0.00015553238
219	0xbbcda1ea	-0.006275405
220	0xbb775f9a	-0.0037746192
221	0xbc48a6e9	-0.012246826
222	0xbc9af31d	-0.018914754
223	0x3cd10f68	0.025520042
224	0x3a96d012	0.0011506102
225	0x3ae2762a	0.0017277647
226	0x3bc6b35b	0.0060638613
227	0x3d27bee5	0.040953536
228	0xbb600b73	-0.0034186512
229	0x3c03409b	0.008011009
230	0x3b2661cf	0.0025387888
231	0xbcc2f5c3	-0.023798829
232	0x3bab138f	0.0052208374
233	0xbc835e26	-0.016036104
234	0xbd07ea23	-0.033182275
235	0xbba0e474	-0.0049100462
236	0xbba8fc07	-0.005156997
237	0x3cbd951d	0.023142392
238	0x3c5c11a3	0.013431939
239	0x3c970fb3	0.018440103
240	0xbcb62388	-0.02223374
241	0x3c24dd69	0.010062554
242	0x3baa5791	0.005198427
243	0x3be9dada	0.007136685
244	0xbc2bba8c	-0.010481488
245	0xbbed58e5	-0.007243263
246	0x3c1a3583	0.009412172
247	0xbc0521d3	-0.00812574
248	0xbcbb9f4f	-0.022903113
249	0xbc2bb137	-0.010479263
250	0xbc4635f3	-0.012097823
251	0x3c802b67	0.015645696
252	0xbce741dd	-0.028229648
253	0xbc436a7e	-0.011927245
254	0xbc2eab4e	-0.010660959
255	0xbc792d3f	-0.015208541

network_body.linear_encoder.seq_layers.0.bias f4 [128]
0	0x00000000	0.0
1	0x00000000	0.0
2	0x00000000	0.0
3	0x00000000	0.0
4	0x00000000	0.0
5	0x00000000	0.0
6	0x00000000	0.0
7	0x00000000	0.0
8	0x00000000	0.0
9	0x00000000	0.0
10	0x00000000	0.0
11	0x00000000	0.0
12	0x00000000	0.0
13	0x00000000	0.0
14	0x00000000	0.0
15	0x00000000	0.0
16	0x00000000	0.0
17	0x00000000	0.0
18	0x00000000	0.0
19	0x00000000	0.0
20	0x00000000	0.0
21	0x00000000	0.0
22	0x00000000	0.0
23	0x00000000	0.0
24	0x00000000	0.0
25	0x00000000	0.0
26	0x00000000	0.0
27	0x00000000	0.0
28	0x00000000	0.0
29	0x00000000	0.0
30	0x00000000	0.0
31	0x00000000	0.0
32	0x00000000	0.0
33	0x00000000	0.0
34	0x00000000	0.0
35	0x00000000	0.0
36	0x00000000	0.0
37	0x00000000	0.0
38	0x00000000	0.0
39	0x00000000	0.0
40	0x00000000	0.0
41	0x00000000	0.0
42	0x00000000	0.0
43	0x00000000	0.0
44	0x00000000	0.0
45	0x00000000	0.0
46	0x00000000	0.0
47	0x00000000	0.0
48	0x00000000	0.0
49	0x00000000	0.0
50	0x00000000	0.0
51	0x00000000	0.0
52	0x00000000	0.0
53	0x00000000	0.0
54	0x00000000	0.0
55	0x00000000	0.0
56	0x00000000	0.0
57	0x00000000	0.0
58	0x00000000	0.0
59	0x00000000	0.0
60	0x00000000	0.0
61	0x00000000	0.0
62	0x00000000	0.0
63	0x00000000	0.0
64	0x00000000	0.0
65	0x00000000	0.0
66	0x00000000	0.0
67	0x00000000	0.0
68	0x00000000	0.0
69	0x00000000	0.0
70	0x00000000	0.0
71	0x00000000	0.0
72	0x00000000	0.0
73	0x00000000	0.0
74	0x00000000	0.0
75	0x00000000	0.0
76	0x00000000	0.0
77	0x00000000	0.0
78	0x00000000	0.0
79	0x00000000	0.0
80	0x00000000	0.0
81	0x00000000	0.0
82	0x00000000	0.0
83	0x00000000	0.0
84	0x00000000	0.0
85	0x00000000	0.0
86	0x00000000	0.0
87	0x00000000	0.0
88	0x00000000	0.0
89	0x00000000	0.0
90	0x00000000	0.0
91	0x00000000	0.0
92	0x00000000	0.0
93	0x00000000	0.0
94	0x00000000	0.0
95	0x00000000	0.0
96	0x00000000	0.0
97	0x00000000	0.0
98	0x00000000	0.0
99	0x00000000	0.0
100	0x00000000	0.0
101	0x00000000	0.0
102	0x00000000	0.0
103	0x00000000	0.0
104	0x00000000	0.0
105	0x00000000	0.0
106	0x00000000	0.0
107	0x00000000	0.0
108	0x00000000	0.0
109	0x00000000	0.0
110	0x00000000	0.0
111	0x00000000	0.0
112	0x00000000	0.0
113	0x00000000	0.0
114	0x00000000	0.0
115	0x00000000	0.0
116	0x00000000	0.0
117	0x00000000	0.0
118	0x00000000	0.0
119	0x00000000	0.0
120	0x00000000	0.0
121	0x00000000	0.0
122	0x00000000	0.0
123	0x00000000	0.0
124	0x00000000	0.0
125	0x00000000	0.0
126	0x00000000	0.0
127	0x00000000	0.0

network_body.linear_encoder.seq_layers.0.weight f4 [128, 6]
0	0x3f2e6d9a	0.6813599
1	0x3ed9d268	0.4254334
2	0xbeee6628	-0.46562314
3	0x3daafa47	0.08348518
4	0xbf6286ef	-0.8848714
5	0xbedc86de	-0.43071645
6	0xbe0fc524	-0.14040047
7	0x3eafd890	0.34344912
8	0xbdad96a3	-0.08475997
9	0xbdda3289	-0.1065417
10	0x3ea72ac3	0.32649812
11	0x3dd827ea	0.10554488
12	0x3dc59aca	0.09648664
13	0x3f9a7ff5	1.2070299
14	0x3f050714	0.51963925
15	0x3d76f23f	0.060289618
16	0x3df47c18	0.119377315
17	0xbef035ac	-0.46915948
18	0xbeaed1b3	-0.34144363
19	0x3e6d5ff4	0.23181134
20	0xbe525bd6	-0.20542845
21	0xbeb6b6d8	-0.35686374
22	0x3dd0cf2e	0.101957664
23	0xbedec00a	-0.4350589
24	0x3ea62fdb	0.32458386
25	0xbe113bb3	-0.1418293
26	0xbd60b820	-0.054863095
27	0x3f058be5	0.5216659
28	0x3e9cfad1	0.30660108
29	0x3e69ac41	0.22819616
30	0x3d526697	0.05136737
31	0xbf59d44f	-0.8508958
32	0x3f860bfd	1.0472409
33	0x3e8a6726	0.2703182
34	0x3d72ea86	0.05930569
35	0x3c276b4f	0.010218455
36	0x3d155f59	0.036467884
37	0x3e3f00f5	0.18652709
38	0xbd537bf0	-0.051631868
39	0xbe9f40f7	-0.31104252
40	0xbea6b21d	-0.32557765
41	0xbb53ed1b	-0.003233737
42	0x3eb07521	0.34464362
43	0x3d1ddffe	0.038543694
44	0x3ef07a08	0.46968102
45	0x3ec6de86	0.38841647
46	0x3ee94e03	0.4556733
47	0x3e30f8b4	0.17282373
48	0xbd296f2e	-0.041365795
49	0xbe760eb3	-0.24029045
50	0x3d0dc1f6	0.034608804
51	0xbf0f5ff4	-0.5600579
52	0xbef9fe29	-0.4882672
53	0xbd506645	-0.05087878
54	0xbdd99fed	-0.106262065
55	0xbec56407	-0.38552877
56	0xbf226c77	-0.63446754
57	0xbe9e0864	-0.30865777
58	0x3d794aa8	0.060862213
59	0x3da8fb43	0.08251049
60	0x3ec3100e	0.38098186
61	0x3ec769f4	0.38948023
62	0xbe7b169b	-0.24520342
63	0x3e8610ce	0.26184696
64	0x3e6cc29c	0.23121113
65	0x3e4b90d3	0.19879465
66	0xbf8ba1af	-1.0908717
67	0xbeaa5dbd	-0.33274642
68	0x3c9207d3	0.017825997
69	0xbea6b81b	-0.32562336
70	0xbe52791f	-0.20554017
71	0x3e90def8	0.28295112
72	0xbeed0396	-0.46291798
73	0x3e9ec03f	0.31006047
74	0x3de5fd28	0.11229926
75	0x3dba6e5f	0.09103083
76	0xbe83e71e	-0.25762266
77	0x3ec281bf	0.37989613
78	0xbd5ff18d	-0.05467372
79	0x3e3349a1	0.17508556
80	0xbf1a40f2	-0.6025535
81	0x3f219540	0.6311836
82	0xbda03630	-0.078228354
83	0xbf20ba80	-0.62784576
84	0xbe959223	-0.29213056
85	0x3e4e2db4	0.20134622
86	0x3ececec7	0.40392134
87	0x3dc8bf33	0.09802093
88	0xbe4b731a	-0.19868127
89	0xbeb9b02b	-0.36267218
90	0xbee1136b	-0.43960127
91	0xbf1e0ba3	-0.61736506
92	0xbeba47f0	-0.3638301
93	0x3f2fe028	0.6870141
94	0x3ea118e4	0.31464303
95	0xbeb4b428	-0.35293698
96	0x3dbdab4d	0.09261189
97	0x3d8a3e1b	0.06750127
98	0xbf0c091f	-0.5470142
99	0x3cde7b61	0.027158441
100	0x3e5d9451	0.2163861
101	0x3e088755	0.13332875
102	0x3e99d554	0.3004557
103	0x3ceedb22	0.029157225
104	0x3ea37602	0.3192597
105	0xbd6b3862	-0.057426818
106	0xbe9efd2d	-0.31052533
107	0xbe0bb3eb	-0.13642852
108	0xbd335dd8	-0.04379067
109	0x3f03b568	0.5144868
110	0x3dd3857b	0.10328194
111	0xbf29c49e	-0.6631564
112	0x3ea0cb18	0.31404948
113	0xbf0f99e1	-0.56094176
114	0x3cab612a	0.020920355
115	0x3ea29335	0.31752935
116	0xbeca513f	-0.3951511
117	0xbf2f1ce1	-0.6840344
118	0x3f172aeb	0.5904986
119	0xbf42babc	-0.76066184
120	0x3c27d6dc	0.010244098
121	0x3e0c53e4	0.13703877
122	0xbc4740bf	-0.012161433
123	0x3f4437ce	0.7664765
124	0x3e1ef84c	0.15524405
125	0xbd105445	-0.035236616
126	0xbf8b37fc	-1.087646
127	0xbeb31265	-0.3497497
128	0xbf459f93	-0.77196616
129	0xbe43288a	-0.19058433
130	0x3ec827af	0.39092776
131	0x3ebc4dde	0.36778158
132	0x3e322350	0.17396283
133	0xbf4d2b87	-0.8014454
134	0x3e9d5540	0.30729103
135	0xbed53783	-0.41643915
136	0xbcfba682	-0.030719046
137	0x3ec2a3ee	0.38015693
138	0x3e443db9	0.1916417
139	0xbda4be40	-0.080441
140	0x3d7cb18c	0.06169276
141	0x3e9be5ea	0.30448848
142	0x3f35a90f	0.7096109
143	0xbde6583d	-0.11247299
144	0x3f0109c3	0.5040552
145	0xbf33dd26	-0.7025932
146	0xbe115561	-0.14192726
147	0xbdc6df25	-0.0971053
148	0xbe772453	-0.2413495
149	0x3d76ac81	0.060223106
150	0xbe2f1403	-0.17097478
151	0xbe5868c6	-0.21133718
152	0x3f07b97b	0.53017396
153	0xbdbfa3a9	-0.093573876
154	0xbe4dbc53	-0.20091371
155	0x3f1fa64f	0.6236314
156	0x3e87b963	0.26508626
157	0x3f63a52a	0.88923895
158	0xbf420ee6	-0.75803983
159	0x3f25ea41	0.6481057
160	0x3f06e442	0.52692044
161	0x3e801ced	0.2502207
162	0xbe12371a	-0.14278832
163	0xbea4c4cd	-0.32181397
164	0xbe945c87	-0.28976843
165	0xbef0e32a	-0.47048312
166	0x3db57037	0.08859294
167	0xbecd9690	-0.40153933
168	0x3d845a72	0.064625636
169	0xbe82b4c0	-0.25528526
170	0xbe62ba6f	-0.22141431
171	0x3ea10f0f	0.314568
172	0x3f0fefd4	0.56225324
173	0x3f43c7d6	0.764768
174	0xbebbd734	-0.36687624
175	0x3eb4e7ec	0.35333192
176	0xbe206b93	-0.15666036
177	0xbf22136d	-0.6331089
178	0x3e4e47d3	0.20144586
179	0x3cd921e1	0.026505413
180	0xbdf357a1	-0.11881948
181	0x3eb74e8b	0.3580211
182	0xbe78a0f2	-0.24280146
183	0x3e977ce6	0.29587477
184	0x3d043e8a	0.032286204
185	0x3e0413f7	0.12898241
186	0xbf540126	-0.8281425
187	0xbf1d0baa	-0.6134592
188	0x3e8204b6	0.2539422
189	0x3ebac6bc	0.36479747
190	0x3d748204	0.059694305
191	0xbe0eae00	-0.13933563
192	0xbc1153a6	-0.008870041
193	0x3e9b06ea	0.30278713
194	0x3e42d01b	0.19024698
195	0xbf369a0b	-0.713288
196	0x3db9912b	0.09060892
197	0xbef51feb	-0.47875914
198	0xbd76c3a4	-0.06024517
199	0x3f140aaa	0.5782877
200	0xbea9eb1c	-0.33187187
201	0xbf8d97c2	-1.1061938
202	0x3e9687df	0.29400536
203	0xbd88fb0b	-0.06688508
204	0xbd5e3d55	-0.05425771
205	0xbe598a02	-0.21244052
206	0x3e7fc8cf	0.24978946
207	0x3f557ace	0.8339051
208	0x3e965406	0.2936098
209	0xbf068485	-0.5254596
210	0x3e8abf0d	0.27098885
211	0x3ec8690f	0.39142653
212	0xbf31c901	-0.6944733
213	0x3e758336	0.23975834
214	0xbe16040b	-0.1464998
215	0xbe2404e3	-0.16017489
216	0xbede7d1f	-0.43454835
217	0x3f7fb1c9	0.99880654
218	0xbf009cf5	-0.502395
219	0xbe8a1d23	-0.26975355
220	0xbebc142f	-0.3673415
221	0x3e9add34	0.3024689
222	0x3cc0c3d1	0.023530873
223	0x3f146166	0.5796112
224	0x3ebd2c0d	0.3694767
225	0x3ced913e	0.028999921
226	0x3ed0a864	0.40753472
227	0x3eebd7eb	0.4606317
228	0x3d72166f	0.059103426
229	0x3d248752	0.040168114
230	0xbea6a8f4	-0.32550776
231	0x3e2b2962	0.16715005
232	0x3ef19aa7	0.47188303
233	0xbf29d6dd	-0.6634348
234	0xbf1ad143	-0.6047556
235	0xbf870183	-1.0547336
236	0xbd7cf811	-0.061760012
237	0x3d9e3fc9	0.0772701
238	0xbe38df50	-0.18053937
239	0x3f22384f	0.6336717
240	0xbeed3a8d	-0.46333733
241	0x3df99911	0.12187398
242	0x3e9bf72d	0.30462018
243	0x3e4d1718	0.20028341
244	0xbf1cc187	-0.612328
245	0xbecaa73a	-0.3958071
246	0xbebd34c9	-0.36954334
247	0x3eebdef1	0.46068528
248	0x3e254a85	0.16141708
249	0xbf3a7675	-0.72837
250	0xbda04c36	-0.07827036
251	0xbeacf91a	-0.337838
252	0x3c842721	0.01613194
253	0xbe482a8e	-0.19547483
254	0xbdccd12a	-0.100008324
255	0xbe8284e6	-0.25492018

network_body.linear_encoder.seq_layers.2.bias f4 [128]
0	0x00000000	0.0
1	0x00000000	0.0
2	0x00000000	0.0
3	0x00000000	0.0
4	0x00000000	0.0
5	0x00000000	0.0
6	0x00000000	0.0
7	0x00000000	0.0
8	0x00000000	0.0
9	0x00000000	0.0
10	0x00000000	0.0
11	0x00000000	0.0
12	0x00000000	0.0
13	0x00000000	0.0
14	0x00000000	0.0
15	0x00000000	0.0
16	0x00000000	0.0
17	0x00000000	0.0
18	0x00000000	0.0
19	0x00000000	0.0
20	0x00000000	0.0
21	0x00000000	0.0
22	0x00000000	0.0
23	0x00000000	0.0
24	0x00000000	0.0
25	0x00000000	0.0
26	0x00000000	0.0
27	0x00000000	0.0
28	0x00000000	0.0
29	0x00000000	0.0
30	0x00000000	0.0
31	0x00000000	0.0
32	0x00000000	0.0
33	0x00000000	0.0
34	0x00000000	0.0
35	0x00000000	0.0
36	0x00000000	0.0
37	0x00000000	0.0
38	0x00000000	0.0
39	0x00000000	0.0
40	0x00000000	0.0
41	0x00000000	0.0
42	0x00000000	0.0
43	0x00000000	0.0
44	0x00000000	0.0
45	0x00000000	0.0
46	0x00000000	0.0
47	0x00000000	0.0
48	0x00000000	0.0
49	0x00000000	0.0
50	0x00000000	0.0
51	0x00000000	0.0
52	0x00000000	0.0
53	0x00000000	0.0
54	0x00000000	0.0
55	0x00000000	0.0
56	0x00000000	0.0
57	0x00000000	0.0
58	0x00000000	0.0
59	0x00000000	0.0
60	0x00000000	0.0
61	0x00000000	0.0
62	0x00000000	0.0
63	0x00000000	0.0
64	0x00000000	0.0
65	0x00000000	0.0
66	0x00000000	0.0
67	0x00000000	0.0
68	0x00000000	0.0
69	0x00000000	0.0
70	0x00000000	0.0
71	0x00000000	0.0
72	0x00000000	0.0
73	0x00000000	0.0
74	0x00000000	0.0
75	0x00000000	0.0
76	0x00000000	0.0
77	0x00000000	0.0
78	0x00000000	0.0
79	0x00000000	0.0
80	0x00000000	0.0
81	0x00000000	0.0
82	0x00000000	0.0
83	0x00000000	0.0
84	0x00000000	0.0
85	0x00000000	0.0
86	0x00000000	0.0
87	0x00000000	0.0
88	0x00000000	0.0
89	0x00000000	0.0
90	0x00000000	0.0
91	0x00000000	0.0
92	0x00000000	0.0
93	0x00000000	0.0
94	0x00000000	0.0
95	0x00000000	0.0
96	0x00000000	0.0
97	0x00000000	0.0
98	0x00000000	0.0
99	0x00000000	0.0
100	0x00000000	0.0
101	0x00000000	0.0
102	0x00000000	0.0
103	0x00000000	0.0
104	0x00000000	0.0
105	0x00000000	0.0
106	0x00000000	0.0
107	0x00000000	0.0
108	0x00000000	0.0
109	0x00000000	0.0
110	0x00000000	0.0
111	0x00000000	0.0
112	0x00000000	0.0
113	0x00000000	0.0
114	0x00000000	0.0
115	0x00000000	0.0
116	0x00000000	0.0
117	0x00000000	0.0
118	0x00000000	0.0
119	0x00000000	0.0
120	0x00000000	0.0
121	0x00000000	0.0
122	0x00000000	0.0
123	0x00000000	0.0
124	0x00000000	0.0
125	0x00000000	0.0
126	0x00000000	0.0
127	0x00000000	0.0

network_body.linear_encoder.seq_layers.2.weight f4 [128, 128]
0	0x3c988000	0.018615723
1	0xbdbf5520	-0.09342408
2	0x3d237cea	0.03991405
3	0x3e2b618b	0.16736428
4	0xbbf17686	-0.0073688654
5	0xbd81b2cc	-0.06332931
6	0x3be5bf19	0.007011306
7	0x3de1d6dd	0.1102731
8	0xbd026a4b	-0.03183965
9	0xbe4e1378	-0.20124614
10	0x3d625adf	0.055262443
11	0xbd084110	-0.033265173
12	0x3d83a5e9	0.06428129
13	0x3e17a34e	0.1480839
14	0x3c9f33e0	0.019433916
15	0x3e0191c7	0.12653266
16	0x3d9fd972	0.07805146
17	0x3dad744c	0.084694475
18	0xbca1c7c8	-0.019748583
19	0xbd8c01af	-0.068362586
20	0x3d5c6073	0.05380292
21	0xbbb77dac	-0.005599698
22	0x3cca0b98	0.024663731
23	0xbd008d3c	-0.03138469
24	0x3d5446c3	0.051825296
25	0x3dcda30d	0.10040865
26	0x3d502351	0.05081493
27	0xbd7b7659	-0.061392162
28	0xbcbfc153	-0.023407614
29	0xbe054287	-0.1301366
30	0x3e18999c	0.14902347
31	0xbe5db4b4	-0.21650964
32	0xbd2f8de0	-0.042859912
33	0x3da29b5a	0.07939787
34	0x3d244c04	0.040111557
35	0x3ddf64b8	0.109078825
36	0x3d55752b	0.052113693
37	0xbcb61598	-0.022227094
38	0xbb724f09	-0.0036973378
39	0xbc4f1841	-0.01264006
40	0x3d1ceed6	0.03831371
41	0xbd2b71f0	-0.041856706
42	0xbd4c8c74	-0.049938634
43	0xbd2f12ee	-0.042742662
44	0x3b24d3bd	0.002515062
45	0x3e07db12	0.13267162
46	0x3c7db68f	0.01548542
47	0x3c0ecd5c	0.008715954
48	0xbde48a9f	-0.111592524
49	0xbdf01d93	-0.11724391
50	0x3ba24d9d	0.0049531
51	0xbe237abe	-0.15964791
52	0xbdb532e4	-0.08847597
53	0xbdb3e851	-0.08784545
54	0x3a8cf6a6	0.0010754659
55	0x3aadf7d4	0.0013272711
56	0x3c584eef	0.013202413
57	0xbd681b7f	-0.056666847
58	0xbcf3c27e	-0.029755827
59	0xbd0ff7e1	-0.035148505
60	0xbd1953e8	-0.037433535
61	0x3d63eaa6	0.0556437
62	0xbe041805	-0.12899788
63	0xbdb4326e	-0.08798681
64	0x3d806142	0.062685505
65	0xbe53bcc8	-0.20677483
66	0x3d803627	0.06260329
67	0xbcbb1e94	-0.02284173
68	0xbdfe3040	-0.12411547
69	0x3d4465cb	0.04794864
70	0x3e1088d5	0.14114697
71	0xbda6eef2	-0.08151044
72	0x3d60dcf4	0.054898217
73	0x3d02c65f	0.031927463
74	0xbe1e693b	-0.1546983
75	0xbd6a1556	-0.057149254
76	0x3d9f2fc9	0.07772786
77	0xbdb555b8	-0.0885424
78	0x3d9e44e6	0.07727985
79	0xbe5ea460	-0.21742392
80	0xbd9ac288	-0.07556635
81	0xbe1a7f0b	-0.15087526
82	0x3e05ed75	0.13078864
83	0x3d862f6c	0.06552014
84	0x3d4ddf8d	0.050262023
85	0xbd5910ed	-0.052994657
86	0x3e2ef0bb	0.17084019
87	0x3daaf6e7	0.08347874
88	0xbda78562	-0.08179738
89	0xbcbd424f	-0.023102907
90	0xbdf3772e	-0.11887966
91	0x3d1927a2	0.037391312
92	0xbd9693fc	-0.073524445
93	0xbc18e06c	-0.00933085
94	0x3e1ebea9	0.15502419
95	0x3cbd8742	0.023135785
96	0xbc80bdae	-0.015715446
97	0x3dfbcd3f	0.12295007
98	0x3d0cc9da	0.03437219
99	0x3e27c928	0.16385329
100	0xbd736163	-0.059419047
101	0x3d32a3ac	0.04361312
102	0xbb3dbbcd	-0.002895105
103	0x3c1ba972	0.009500848
104	0xbdfcf5ac	-0.12351546
105	0xbdd84995	-0.1056091
106	0x3d9fd059	0.07803411
107	0xbd5f9b0b	-0.05459122
108	0x3d68cfe3	0.05683888
109	0x3d1a165e	0.037618987
110	0x3d6e9d04	0.05825521
111	0xbcb97c0b	-0.022642156
112	0x3d654fb2	0.055984206
113	0xbd15bfe7	-0.036559965
114	0x3ced0473	0.028932786
115	0x3d2344ae	0.03986042
116	0xbe20c835	-0.15701373
117	0x3d3c13e9	0.045917425
118	0xbe4b7b91	-0.19871356
119	0xbddbed0c	-0.107385725
120	0x3dd6397c	0.10460183
121	0xbd6a75ff	-0.057241436
122	0x3daf0946	0.08546691
123	0xbe895f34	-0.26830447
124	0xbe0df167	-0.13861619
125	0xbcf87f1c	-0.030334048
126	0xbe286b98	-0.16447294
127	0x3b72bb63	0.003703796
128	0xbce8c94d	-0.0284163
129	0xbc6f9fbd	-0.014625487
130	0xbcc75205	-0.024331102
131	0xbd89ba84	-0.06725028
132	0xbd3ddbb4	-0.046352103
133	0xbdbbc766	-0.091688916
134	0xbe026d79	-0.12737073
135	0xbd8cf239	-0.06882138
136	0x3da3a050	0.079895616
137	0xbd986852	-0.074417725
138	0x3d1c52a6	0.038164757
139	0x3e111781	0.14169122
140	0x3d843b3a	0.06456609
141	0x3e1f398d	0.15549298
142	0x3ae17c08	0.0017203102
143	0x3d81d4e3	0.06339433
144	0xbd9edca1	-0.077569254
145	0x3da89135	0.08230821
146	0x3d439ff4	0.047759965
147	0x3df96c0c	0.121788114
148	0xbc0e3d2c	-0.008681577
149	0x3bcf82fd	0.0063327537
150	0xbae69ef6	-0.0017594981
151	0x3ca885a7	0.020571543
152	0xbd004389	-0.031314407
153	0x3db92836	0.09040873
154	0xbe038ac1	-0.12845899
155	0x3c2f914b	0.010715793
156	0x3d294451	0.041324917
157	0x3d8a2694	0.067456394
158	0xbdbcfd77	-0.09228032
159	0x3d0a72d6	0.033800922
160	0x3cf099bf	0.029370187
161	0x3ddff91b	0.10936185
162	0xbd410b16	-0.047129713
163	0xbdb719ed	-0.08940492
164	0x3bf694ea	0.007525076
165	0x3e061e32	0.13097456
166	0x3d57a922	0.052651532
167	0x3db1b7a8	0.08677608
168	0xbe400cb1	-0.18754841
169	0xbd631163	-0.055436503
170	0x3db4af45	0.088224925
171	0x3c959726	0.01826055
172	0x3d666738	0.05625078
173	0x3e167427	0.14692746
174	0xbc1c8b2d	-0.0095546665
175	0x3df4bd91	0.119502194
176	0xbe34daee	-0.1766164
177	0xbd76ede6	-0.06028547
178	0xbdc65e1c	-0.09685919
179	0x3d4da33e	0.050204508
180	0xbdb51234	-0.088413626
181	0xbcde5a1e	-0.02714258
182	0xbde702fe	-0.112798676
183	0xbe503044	-0.20330912
184	0xbd92a0a3	-0.07159545
185	0x3d806782	0.062697425
186	0xbd199b84	-0.037501827
187	0x3d0e2165	0.034699816
188	0xbce5face	-0.028073695
189	0x3dfc29e3	0.12312677
190	0xbb6cd975	-0.0036140357
191	0xbd54d9da	-0.051965572
192	0x3cea7627	0.028620793
193	0x3da97d64	0.082758695
194	0x3d839fc7	0.064269595
195	0x3d9d0f2a	0.07668908
196	0xbd543981	-0.051812652
197	0xbd634152	-0.055482216
198	0x3dbcd729	0.09220726
199	0xbe10ffd0	-0.14160085
200	0x3d5d57bc	0.05403875
201	0x3cc10470	0.023561686
202	0x3d5c46cf	0.053778466
203	0xbd65bc5a	-0.05608783
204	0xbe06ef39	-0.13177194
205	0xbcef3b65	-0.029203126
206	0x3d2d7541	0.04234815
207	0x3d3b75d1	0.045766655
208	0x3d3a063e	0.04541611
209	0xbd94a9b8	-0.07258934
210	0xbe58f53e	-0.21187302
211	0xbcbef2b2	-0.023309086
212	0xbd94656d	-0.07245908
213	0xbdd3e67c	-0.10346696
214	0xbdb5ca21	-0.08876444
215	0x3dd09e62	0.10186459
216	0x3d47763c	0.04869674
217	0xbd1b066e	-0.03784793
218	0x3cc9c05e	0.02462786
219	0x3cf56044	0.02995313
220	0xbdeda17f	-0.116030686
221	0xbcbe1e68	-0.023207858
222	0xbe2a4d65	-0.16631086
223	0xbe2df229	-0.16986908
224	0xbd14accf	-0.036297616
225	0x3d48b435	0.048999984
226	0x3c9d7113	0.019218957
227	0x3cddcb6a	0.027074534
228	0x3d2b6903	0.041848194
229	0x3d1b945a	0.037983276
230	0xbd393d9b	-0.045224767
231	0xbd449576	-0.0479941
232	0xbd12b3c6	-0.035815977
233	0xbdbcf32e	-0.0922607
234	0xbd4d290a	-0.050087966
235	0x3d369000	0.044570923
236	0xbd545c76	-0.05184599
237	0xbe0c42fa	-0.13697425
238	0xbc61b0ed	-0.013775093
239	0xbc90cc59	-0.017675566
240	0x3c09ddb2	0.008414673
241	0x3ce3d1a4	0.027809925
242	0x3d9c61fe	0.07635878
243	0xbd255fae	-0.04037445
244	0xbd731e36	-0.059354983
245	0x3b139136	0.0022516972
246	0x3dae591e	0.085130915
247	0x3dc10e69	0.09426577
248	0x3ca19d06	0.019728195
249	0x3cfd345f	0.030908762
250	0x3e0a0cfc	0.13481516
251	0x3e038844	0.1284495
252	0x3d6a152f	0.05714911
253	0x3c6ecf37	0.014575771
254	0x3d20eaaa	0.039286293
255	0xbdf1bb0c	-0.118032545
