results/ppo/My Behavior/My Behavior-83634.pt (torch, 476127 bytes, 36 tensors)

network_body.linear_encoder.seq_layers.0.weight f4 [128, 18]
0.12022965 0.27826402 0.2876853 -0.10860707 0.18729267 0.14712954 -0.24243915 0.08775157
-0.042269632 -0.036805578 -0.16117004 0.13430671 -0.25692502 -0.31106785 0.4039009 -0.088168
-0.11712044 -0.14346944 -0.27941808 0.2368703 0.32729533 0.14180781 0.1513518 0.23597345
-0.01037261 -0.5681516 0.051543895 0.026969811 -0.050916884 -0.20133244 0.0983703 0.09720291
0.38729325 -0.31693238 -0.15214483 -0.059786372 0.1892567 0.34290054 0.11344084 0.061507452
-0.23650725 -0.19432828 -0.042965528 0.035160713 0.2176726 -0.18513712 0.111486435 0.1743825
-0.26804322 -0.056173444 -0.42118135 0.075680576 0.24415456 -0.12356668 -0.38787967 0.21030432
-0.03916641 0.06871377 0.0021942628 -0.35366797 -0.26760757 0.18021972 -0.19876277 0.30884194
-0.019765848 0.05271281 -0.3181847 -0.41143036 -0.29647827 0.20485105 0.06466522 0.2671625
-0.029880514 0.104680866 0.33799037 -0.033157878 0.13341121 0.024926314 -0.47284815 0.049639963
0.18976045 0.032774657 -0.30315128 -0.09017403 0.2958833 0.1551339 0.23741616 -0.13334617
0.43103623 0.118339956 0.28857118 -0.12620272 -0.13229124 0.3273452 0.029184561 -0.24461797
-0.55175364 -0.18754537 -0.106755614 -0.076857775 0.2765787 0.0865546 0.23709713 -0.40189514
-0.52607596 -0.12281515 -0.37344047 0.1535331 -0.054262824 0.40008977 -0.092343 0.04411921
0.22659494 -0.03575975 -0.15984286 0.26202217 0.20448135 -0.17402169 0.13227043 0.0006134548
0.43067637 -0.13672896 0.41268253 -0.07025202 0.14306 -0.082662776 -0.40277162 -0.009410496
-0.24953738 -0.05842968 0.22469303 0.18153179 -0.43200618 0.3033034 -0.3811987 -0.0847312
0.48914504 0.1867469 -0.01293995 -0.030250255 -0.03488913 -0.30702883 0.4539235 -0.31074488
0.6497225 0.30741596 -0.17564441 0.44281036 -0.14313596 -0.1810608 -0.11847401 -0.315395
0.032581016 -0.3536069 -0.06584365 -0.25308365 0.08614725 -0.047035582 -0.09739015 -0.001841972
0.047386937 0.29850438 -0.15294 -0.018068131 0.19284227 0.28277186 -0.025091518 -0.13875012
0.14867914 -0.054795507 0.012651994 -0.5501283 -0.3184577 0.03125064 -0.5645362 0.17531022
0.14451025 -0.061479334 0.079913124 -0.18644884 0.67463183 0.13589987 -0.24484685 0.20399205
0.09382571 0.299422 0.28842267 -0.036892578 -0.22348593 0.10425642 0.37068796 -0.21199206
0.08634317 0.5019678 0.13044885 0.077545576 -0.34336254 -0.18374516 0.08653775 -0.24920747
0.13554914 0.1498974 -0.22516896 0.14977951 0.22735108 0.15907323 0.09419381 -0.039150726
0.3256994 -0.066933885 0.102896675 0.04690398 0.0021487568 0.08437437 0.26458725 -0.23872839
0.15395676 0.25331247 0.1641994 -0.20651436 0.22654545 0.12152913 -0.019418735 -0.22137412
-0.325698 0.37759385 -0.5667414 0.008120865 0.061364282 -0.14928506 -0.15897354 0.71591586
0.4844669 -0.26099586 -0.08097351 -0.22759192 0.26696718 0.35244507 -0.28638554 0.04862122
-0.20298092 -0.04466853 -0.25236785 0.21848013 0.36036927 0.059697893 -0.00029613837 0.0257909
0.05796589 0.052849993 -0.037612524 0.0806721 -0.013364592 0.20005128 -0.21619685 -0.279824
00000000: f63a f63d 9f78 8e3e 7d4b 933e 626d debd
00000010: a6c9 3f3e 20a9 163e f841 78be 18b7 b33d
00000020: ec22 2dbd 72c1 16bd c209 25be b387 093e
00000030: ad8b 83be 4944 9fbe 19cc ce3e 6d91 b4bd
00000040: d7dc efbd a7e9 12be e30f 8fbe 218e 723e
00000050: 4193 a73e 1136 113e f7fb 1a3e 06a3 713e
00000060: e1f1 29bc 6272 11bf b11f 533d cbef dc3c
00000070: 398e 50bd 172a 4ebe 5e76 c93d 5212 c73d
00000080: 4d4b c63e f644 a2be dbcb 1bbe 8ee2 74bd
00000090: 82cc 413e a990 af3e ac53 e83d 3def 7b3d
000000a0: f52e 72be fefd 46be 9ffc 2fbd ae04 103d
000000b0: 91e5 5e3e 9694 3dbe 0053 e43d 5391 323e
000000c0: f63c 89be 2016 66bd 15a5 d7be 6bfe 9a3d
000000d0: a703 7a3e 8710 fdbd 2a98 c6be 045a 573e
000000e0: f56c 20bd ceb9 8c3d 9fcd 0f3b f813 b5be
000000f0: dc03 89be 858b 383e 7888 4bbe 8820 9e3e
00000100: fdeb a1bc 63e9 573d 1be9 a2be 00a7 d2be
00000110: 00cc 97be 79c4 513e 336f 843d 86c9 883e
00000120: fbc7 f4bc ec62 d63d 130d ad3e 8ed0 07bd
00000130: f39c 083e 4532 cc3c 2719 f2be 4653 4b3d
00000140: 9050 423e b83e 063d a536 9bbe 29ad b8bd
00000150: 047e 973e 6cdb 1e3e 391d 733e e68b 08be
00000160: c8b0 dc3e 385c f23d 9abf 933e 493b 01be
00000170: 5b77 07be ca99 a73e 7614 ef3c 227d 7abe
00000180: ba3f 0dbf e50b 40be b0a2 dabd 9c67 9dbd
00000190: b99b 8d3e 8a43 b13d 97c9 723e 33c5 cdbe
000001a0: eaac 06bf 8286 fbbd 9733 bfbe c837 1d3e
000001b0: b242 5ebd 91d8 cc3e 541e bdbd 58b6 343d
000001c0: 8108 683e d178 12bd d9ad 23be c527 863e
000001d0: 8f63 513e be32 32be e671 073e 41d0 203a
000001e0: 9d81 dc3e ad02 0cbe 204b d33e 4be0 8fbd
000001f0: 527e 123e 1a4b a9bd 1538 cebe 7b2e 1abc
00000200: ba86 7fbe f653 6fbd ee15 663e 78e3 393e
00000210: ea2f ddbe 954a 9b3e 7a2c c3be 8d87 adbd
00000220: 3871 fa3e 943a 3f3e 1602 54bc 62cf f7bc
00000230: e8e7 0ebd e232 9dbe a968 e83e f419 9fbe
00000240: 3754 263f a065 9d3e 21dc 33be 0ab8 e23e
00000250: 3c92 12be 0168 39be 80a2 f2bd 747b a1be
00000260: ac73 053d f70b b5be 09d9 86bd 2e94 81be
00000270: f86d b03d 62a8 40bd 7d74 c7bd 536e f1ba
00000280: ce18 423d 91d5 983e 4e9c 1cbe 9e03 94bc
00000290: 7278 453e 79c7 903e ba8c cdbc 8314 0ebe
000002a0: 583f 183e 4171 60bd 4f4a 4f3c 35d5 0cbf
000002b0: e30c a3be ac00 003d 7285 10bf 8684 333e
000002c0: 7ffa 133e c1d1 7bbd 7ea9 a33d 72ec 3ebe
000002d0: acb4 2c3f 5629 0b3e 22b9 7abe 4be3 503e
000002e0: b227 c03d d74d 993e 23ac 933e ac1c 17bd
000002f0: 7fd9 64be 6484 d53d d0ca bd3e 7214 59be
00000300: b0d4 b03d f680 003f 6294 053e 37d0 9e3d
00000310: 37cd afbe b127 3cbe b43a b13d 3e30 7fbe
00000320: 65cd 0a3e b47e 193e b192 66be cd5f 193e
00000330: b9ce 683e 18e4 223e afe8 c03d 835c 20bd
00000340: 12c2 a63e a214 89bd 7ebb d23d 631e 403d
00000350: 28d2 0c3b 78cc ac3d fb77 873e 3775 74be
00000360: d7a6 1d3e 2cb2 813e e323 283e 8078 53be
00000370: 88fb 673e 44e4 f83d 0a14 9fbc e6af 62be
00000380: e3c1 a6be fb53 c13e f715 11bf 600d 053c
00000390: 1d59 7b3d 2fde 18be f6c9 22be 4346 373f
000003a0: 0c0c f83e 40a1 85be 71d5 a5bd db0d 69be
000003b0: ecaf 883e ae73 b43e 20a1 92be 0b27 473d
000003c0: 3bda 4fbe 59f6 36bd 5c36 81be 41b9 5f3e
000003d0: 5282 b83e c785 743d 0543 9bb9 7047 d33c
000003e0: a46d 6d3d 3c79 583d 970f 1abd 6a37 a53d
000003f0: 29f7 5abc 3eda 4c3e b562 5dbe 1745 8fbe

network_body.linear_encoder.seq_layers.0.bias f4 [128]
-0.001132151 0.0011822174 0.0012209284 0.00042669044 -0.00010074373 0.0018776739 0.003449478 -0.002413161
-0.0029472692 -0.00027001844 0.0036225645 -0.00014918055 0.00025810412 -0.0005285673 0.0046887924 -0.0012706501
-0.0006564953 0.0021042367 -0.0022395293 0.0006943405 -0.00032228735 -0.00048033847 0.006399542 -0.0040103286
0.00017280449 -0.0009399977 -0.002493972 -0.004534386 -0.0012030981 0.00091480825 -0.0021062067 0.0010061993
-0.0007322623 1.993031e-05 -0.0025862104 -0.0008884992 -0.0049240505 -0.00055946346 0.00024991817 -0.000116373165
0.00025553632 -0.012141676 0.0012753558 0.0007839934 0.0019577462 -0.00035418614 -0.006648182 0.0022189992
-0.0041281553 -0.0012972758 4.2458323e-05 -0.0007466033 0.0021062016 -0.0016643812 0.009077359 -0.0015175047
-0.0021806997 -0.0022533797 -0.005970436 -0.003292235 -0.0012024379 -0.004160194 -0.0023472563 -0.00020699322
-0.0040170955 0.0004921442 -0.0007742267 0.0012968708 -0.0006936773 0.0013572695 -0.0029067309 0.0012884325
0.0027015111 -0.0009997338 -0.0017598586 -0.001092615 -0.0024866993 -0.00011802144 -0.0008693684 -0.004886022
0.0022427002 0.0032070817 -0.0010086289 0.001122527 -0.00039520615 5.8162263e-05 -0.0018808987 0.00061394105
0.00021091662 0.0007610702 -0.0005088568 -0.002530748 -0.001772053 0.001944294 0.001042756 0.001769705
-0.0072991056 -0.0021883878 -0.0009366965 -0.0005312885 -0.00064739416 0.0022714636 0.010147627 -0.011903707
-0.0036793672 -0.0017004631 -0.00029352517 -0.0008386013 -0.005040303 -0.00246498 -0.0015942598 -0.0024033003
-0.0029902414 0.0010731133 0.0014610704 -0.0016438933 -0.0010177306 0.0013552166 -0.0020849467 -0.00036217552
0.0004151009 -0.0010355614 0.003271343 0.0019291107 -0.00092573435 -0.0016367709 0.00057036313 0.0006117967
00000000: af64 94ba a2f4 9a3a 8f07 a03a 6cb5 df39
00000010: 6146 d3b8 481c f63a a310 623b 2026 1ebb
00000020: f926 41bb 4391 8db9 8c68 6d3b 596d 1cb9
00000030: 2652 8739 8d8f 0aba 71a4 993b f18b a6ba
00000040: a718 2cba 3ce7 093b 11c5 12bb 6704 363a
00000050: adf8 a8b9 f0d5 fbb9 40b3 d13b 1369 83bb
00000060: da32 3539 2e6a 76ba e871 23bb 3095 94bb
00000070: 46b1 9dba becf 6f3a 4908 0abb 72e2 833a
00000080: 4bf5 3fba 0430 a737 697d 29bb 2cea 68ba
00000090: ee59 a1bb f5a8 12ba 7307 8339 5e0d f4b8
000000a0: 81f9 8539 e1ed 46bc d729 a73a e884 4d3a
000000b0: 884d 003b 0fb2 b9b9 fed8 d9bb a16c 113b
000000c0: 7a45 87bb 5a09 aaba 4715 3238 b3b7 43ba
000000d0: 3308 0a3b 5e27 daba 34b9 143c 02e7 c6ba
000000e0: 12ea 0ebb 70ad 13bb a6a3 c3bb 8ac2 57bb
000000f0: 1f9b 9dba 3d52 88bb 6dd4 19bb 520c 59b9
00000100: d7a1 83bb 3d03 013a 79f5 4aba c3fb a93a
00000110: e5d7 35ba 68e6 b13a da7e 3ebb 9fe0 a83a
00000120: d60b 313b 8009 83ba 0eab e6ba 1336 8fba
00000130: e4f7 22bb 4782 f7b8 53e6 63ba ec1a a0bb
00000140: 44fa 123b e72d 523b f833 84ba c221 933a
00000150: ac33 cfb9 41f3 7338 7d88 f6ba e3f0 203a
00000160: 8029 5d39 8e82 473a cd64 05ba e8da 25bb
00000170: 3b44 e8ba aed7 fe3a 16ad 883a 72f5 e73a
00000180: 562d efbb 0e6b 0fbb a38c 75ba 2b46 0bba
00000190: e3b5 29ba d6dc 143b 3c42 263c c407 43bc
000001a0: 8a21 71bb 13e2 deba 48e4 99b9 95d5 5bba
000001b0: 2029 a5bb 808b 21bb 7bf6 d0ba b080 1dbb
000001c0: edf7 43bb b5a7 8c3a 6381 bf3a e877 d7ba
000001d0: 5f65 85ba 86a1 b13a 9aa3 08bb 60e2 bdb9
000001e0: e6a1 d939 adbb 87ba 0764 563b 37da fc3a
000001f0: fbac 72ba eb88 d6ba 6c84 153a fb60 203a

network_body.linear_encoder.seq_layers.2.weight f4 [128, 128]
0.047876135 0.24498317 0.016561547 0.03051993 -0.0050518173 0.039098978 -0.051923335 0.02774527
-0.09006995 0.08505613 0.14176142 0.04028106 -0.08189265 0.118568614 0.12766923 -0.05608189
0.036510445 -0.14228961 -0.055736557 0.14939283 0.057858944 -0.13341688 0.0038277966 -0.20719308
-0.1218451 0.04872083 -0.02171678 0.01614468 -0.038604937 -0.064513564 -0.035091348 -0.003674577
-0.016843216 -0.018892007 -0.06643819 0.13598925 0.18653665 0.0462393 -0.16304773 0.13278
0.0710525 -0.06317435 -0.019987088 0.024600651 -0.060211375 -0.057334974 0.08644054 0.024034673
0.08411301 -0.01882774 -0.07488979 -0.07118978 0.048252545 -0.10179399 -0.025366122 0.06483599
0.011508111 -0.10627997 -0.0061487164 -0.015520492 -0.09493735 0.11748142 0.00813986 -0.05416375
-0.032641493 0.12662955 -0.024451101 0.0341885 0.07086065 -0.132677 -0.015516987 0.05426024
0.051969524 -0.012225976 -0.016248856 0.165644 -0.11514089 -0.019108796 0.047590524 -0.09294126
-0.14027697 0.06558254 0.13279074 -0.19121702 -0.18795612 -0.043062303 0.020683479 -0.07154704
0.048931085 0.10614921 -0.06401644 -0.08874739 0.1418962 -0.07501849 -0.083213344 0.017544806
-0.00060076575 0.09271606 -0.11243153 -0.021061957 -0.0005626966 0.0011349622 0.093772575 -0.020919064
-0.15618134 0.05990501 0.016936027 -0.07546056 -0.12593962 -0.022172503 0.17603154 0.011208928
0.009161205 -0.065761216 0.0033251026 0.06907931 -0.07371247 -0.08275403 0.023758426 -0.072260074
-0.00850333 0.052733235 -0.116438195 -0.10985671 0.122883275 -0.049246628 0.06949841 -0.14818895
0.10623575 0.10017329 0.024270145 -0.15560266 0.07578042 0.15760316 0.131029 -0.042922836
-0.022170065 -0.12572008 0.10657748 -0.03994171 0.23439452 0.04743353 -0.05718096 -0.10859078
0.081850074 0.079823256 -0.029875964 -0.039044254 0.20604502 0.088772304 0.02888473 0.08098128
0.0031394733 0.034191716 0.09371109 -0.04666037 0.06409299 -0.01701063 0.013283577 0.023175618
-0.17993629 0.0040862206 -0.05951755 0.013842352 0.21241571 -0.12016939 0.08585664 -0.20443621
0.034003526 -0.00091256644 -0.118752845 -0.15605079 -0.038163006 -0.03194402 0.045433827 0.13786408
0.02185784 -0.010898041 -0.0053956197 0.079907894 0.05099032 0.015347119 -0.08794928 0.1184147
-0.15835413 0.100701824 0.12197969 -0.10770551 -0.051750824 -0.09601368 -0.06419093 -0.038146354
-0.17554039 0.10774225 -0.06668107 -0.10630713 -0.077604815 0.04550084 -0.020156415 0.07262996
-0.046788637 0.06713494 -0.11273226 0.055825207 0.028518876 -0.042943545 0.055563346 0.085090116
-0.09477517 -0.023550555 -0.08221472 0.0076942416 -0.025975192 -0.08137618 -0.032754086 0.08832162
-0.045341723 0.024741843 0.16770369 -0.15784399 0.16837837 -0.021424266 0.103535056 -0.033002734
-0.07041608 -0.25166616 -0.045038667 0.097871356 -0.063078314 -0.0012466573 0.093903586 -0.027661901
-0.04272366 -0.017547753 -0.1025948 0.0807598 -0.049280576 -0.0075550894 -0.1007005 -0.0009239133
0.013092057 -0.05139143 -0.07050284 -0.1117268 -0.13916539 -0.069871455 0.051067673 -0.038197983
-0.04670401 0.14157148 0.04652921 -0.011168488 -0.08987029 0.018514754 0.0007539578 -0.008905298
00000000: c419 443d dedc 7a3e 15ac 873c ef04 fa3c
00000010: b789 a5bb 4026 203d 90ad 54bd 0c4a e33c
00000020: 9876 b8bd e931 ae3d e829 113e c1fd 243d
00000030: 55b7 a7bd 1ad4 f23d b9bb 023e 20b6 65bd
00000040: fa8b 153d 5eb4 11be 044c 64bd 6ffa 183e
00000050: 80fd 6c3d 6f9e 08be c5db 7a3b 6c2a 54be
00000060: ec89 f9bd 7e8f 473d 63e7 b1bc d941 843c
00000070: 3620 1ebd b01f 84bd f2bb 0fbd 2cd1 70bb
00000080: c9fa 89bc 69c3 9abc bf10 88bd c440 0b3e
00000090: 7703 3f3e 6c65 3d3d fcf5 26be 7bf7 073e
000000a0: f983 913d 8e61 81bd f6bb a3bc 4e87 c93c
000000b0: 34a0 76bd 14d8 6abd bd07 b13d 5de4 c43c
000000c0: 7143 ac3d a23c 9abc d15f 99bd f3cb 91bd
000000d0: 76a4 453d 5e79 d0bd 9dcc cfbc bbc8 843d
000000e0: 848c 3c3c 50a9 d9bd 2c7b c9bb a949 7ebc
000000f0: 836e c2bd 199a f03d 0c5d 053c cfda 5dbd
00000100: 16b3 05bd 2dab 013e ad4d c8bc 3e09 0c3d
00000110: 631f 913d 7bdc 07be f63a 7ebc fc3f 5e3d
00000120: ffdd 543d 764f 48bc 521c 85bc 959e 293e
00000130: fdce ebbd 0d8a 9cbc 48ee 423d fd57 bebd
00000140: c4a4 0fbe 2450 863d 4cfa 073e 65ce 43be
00000150: 9277 40be 1962 30bd 6670 a93c 4187 92bd
00000160: f66b 483d c264 d93d 0d1b 83bd 31c1 b5bd
00000170: 3d4d 113e 4ba3 99bd c26b aabd 20ba 8f3c
00000180: b57c 1dba ebe1 bd3d 8142 e6bd 208a acbc
00000190: ee81 13ba 03c3 943a d60b c03d 755e abbc
000001a0: 00ee 1fbe f55e 753d 6cbd 8a3c 118b 9abd
000001b0: 51f6 00be 1ca3 b5bc 9d41 343e a7a5 373c
000001c0: e118 163c d1ad 86bd f7e9 593b 7479 8d3d
000001d0: 90f6 96bd f27a a9bd 08a1 c23c 17fd 93bd
000001e0: 8d51 0bbc cefe 573d 2677 eebd 8efc e0bd
000001f0: 3aaa fb3d d5b6 49bd 2f55 8e3d d8be 17be
00000200: 2192 d93d a727 cd3d 2fd2 c63c 4e56 1fbe
00000210: c432 9b3d b962 213e 772c 063e dbcf 2fbd
00000220: ff9d b5bc c4bc 00be 4b45 da3d eb99 23bd
00000230: 1e05 703e a949 423d 9536 6abd d864 debd
00000240: 03a1 a73d 607a a33d 70be f4bc deec 1fbd
00000250: 77fd 523e 41ce b53d ab9f ec3c 83d9 a53d
00000260: 9fbf 4d3b 9d0c 0c3d 9aeb bf3d f21e 3fbd
00000270: 2f43 833d e059 8bbc 5ca3 593c cbda bd3c
00000280: 3841 38be b4e5 853b adc8 73bd 08cb 623c
00000290: 8183 593e 5f1b f6bd 9bd5 af3d ba57 51be
000002a0: 4847 0b3d 4c39 6fba b134 f3bd c7cb 1fbe
000002b0: d050 1cbd bcd7 02bd d218 3a3d 3e2c 0d3e
000002c0: 360f b33c b28d 32bc bdcd b0bb c0a6 a33d
000002d0: 3adb 503d 7c72 7b3c c11e b4bd 6883 f23d
000002e0: 9627 22be c23c ce3d 7dd0 f93d b594 dcbd
000002f0: acf8 53bd d2a2 c4bd 8976 83bd 5a3f 1cbd
00000300: dcc0 33be f8a7 dc3d 1690 88bd 8db7 d9bd
00000310: 46ef 9ebd 175f 3a3d 111f a5bc 04bf 943d
00000320: 71a5 3fbd 0b7e 893d 2ce0 e6bd f9a8 643d
00000330: 6ba0 e93c 92e5 2fbd 6496 633d ba43 ae3d
00000340: 7c19 c2bd 18ed c0bc 3160 a8bd fa1f fc3b
00000350: edc9 d4bc 8ea8 a6bd 2629 06bd f7e1 b43d
00000360: 3eb8 39bd 68af ca3c 84ba 2b3e dba1 21be
00000370: 616b 2c3e f181 afbc 300a d43d e02d 07bd
00000380: 4e36 90bd 63da 80be 777a 38bd c770 c83d
00000390: 342f 81bd e166 a3ba 8650 c03d 369b e2bc
000003a0: 01ff 2ebd 4ec0 8fbc 391d d2bd 6565 a53d
000003b0: 6eda 49bd af90 f7bb 103c cebd c632 72ba
000003c0: 1180 563c d27f 52bd cb63 90bd 05d1 e4bd
000003d0: 5f81 0ebe c418 8fbd 562c 513d 7d75 1cbd
000003e0: b44c 3fbd 1df8 103e 6a95 3e3d 09fc 36bc
000003f0: ea0d b8bd 41ac 973c 40a5 453a 87e7 11bc

network_body.linear_encoder.seq_layers.2.bias f4 [128]
0.007498179 0.000650026 0.00019147071 -0.005780251 0.00050499325 -0.0017899272 -0.00065665354 -0.0011489205
-0.0013935731 -0.001976061 -0.003995323 -0.0012943533 -2.268359e-06 -0.0004595589 -0.00037555213 -0.0031793222
-0.0009429976 -0.0003329571 0.0010647109 -0.00072395196 0.00076787855 0.0018443343 0.0038696816 0.003041361
-0.002654733 0.00090630306 -0.0011854137 0.0009012637 0.005061278 -0.0023653556 0.0004461969 -0.0007410648
0.0009209051 -0.0008440582 -0.00036189056 0.0015481063 0.005439247 -0.0022139587 -0.0037786528 0.0007483123
0.00075707026 0.0007347537 0.0004551794 -0.00021988599 -0.00019128877 -0.0040911655 -0.0032889105 -0.001269733
0.0003802227 0.0007773788 -0.0023136914 -0.00090102473 0.006868684 -0.0013720797 5.030978e-05 0.0006258826
-4.4717144e-05 -0.003344976 0.0005761586 0.0034448272 -0.0021098687 -0.001666875 -0.0033032089 -0.0023564924
0.00019127123 -0.00092878 -0.0015744565 -0.0031065121 -0.00096533366 -0.00065440254 -0.0008826601 -0.0016568288
-0.00013179325 -0.00024749147 0.00048365747 -0.008463222 -0.0033829887 0.0016746024 -0.00024192776 -0.0021028118
-0.0018462585 -0.00038610812 0.008597429 0.008117407 -0.0024649776 -0.0012782175 0.0065616434 -0.0013166069
-0.0006770439 -0.0010629375 -0.0030250144 -0.0017395464 -0.0013530958 -0.0067451815 -0.0001537227 -0.0002271511
0.0012001174 -0.0027711831 0.00090506487 9.6968644e-05 0.00073151273 -0.0008336916 -0.00067562057 -0.0016023053
0.0004691113 -0.0021056281 -0.0038787692 0.0003492183 -0.00010979363 -0.001731495 -0.000428728 -0.0064800126
-0.00028000856 -0.0014448575 -0.0042951023 0.000927032 4.6774432e-05 0.0051799626 -0.0012088125 -0.00038790354
-0.0003281904 -0.0023617253 -0.0017869152 -0.00080484664 0.00051098055 0.00095661107 -0.0018129781 -0.00015867339
00000000: 49b3 f53b 8266 2a3a 87c5 4839 4368 bdbb
00000010: 8661 043a fe9b eaba 4623 2cba 6097 96ba
00000020: 8ea8 b6ba cd80 01bb 33eb 82bb 4aa7 a9ba
00000030: 1c3a 18b6 f4f0 f0b9 c1e5 c4b9 2d5c 50bb
00000040: 7f33 77ba bf90 aeb9 c58d 8b3a 98c7 3dba
00000050: 754b 493a 97bd f13a 7c9a 7d3b 9251 473b
00000060: 07fb 2dbb f894 6d3a e25f 9bba c842 6c3a
00000070: 14d9 a53b 1504 1bbb 89ef e939 0444 42ba
00000080: e568 713a c943 5dba 21bc bdb9 d4e9 ca3a
00000090: b63b b23b 1018 11bb 46a3 77bb 632a 443a
000000a0: 2076 463a 7c9c 403a 25a5 ee39 3291 66b9
000000b0: b094 48b9 2f0f 86bb c38a 57bb 2b6d a6ba
000000c0: a058 c739 02c9 4b3a 4da1 17bb bf32 6cba
000000d0: b312 e13b 5bd7 b3ba b703 5338 4512 243a
000000e0: ab8e 3bb8 6337 5bbb 5909 173a 9cc2 613b
000000f0: b945 0abb 0b7b daba a67a 58bb 626f 1abb
00000100: fb8f 4839 5f79 73ba fe5d ceba a096 4bbb
00000110: 720e 7dba 368c 2bba 5162 67ba f329 d9ba
00000120: fb31 0ab9 bec1 81b9 6893 fd39 53a9 0abc
00000130: 22b5 5dbb 557e db3a fdad 7db9 54cf 09bb
00000140: 28fe f1ba 8e6e cab9 3bdc 0c3c dffe 043c
00000150: 768b 21bb dd89 a7ba 0e03 d73b ff91 acba
00000160: a67b 31ba 4452 8bba 523f 46bb 7e01 e4ba
00000170: 5c5a b1ba af06 ddbb a030 21b9 692f 6eb9
00000180: 424d 9d3a bd9c 35bb e041 6d3a a55b cb38
00000190: fdc2 3f3a 198c 5aba 211c 31ba 7204 d2ba
000001a0: 0ef3 f539 94fe 09bb f332 7ebb 4917 b739
000001b0: 0241 e6b8 55f3 e2ba e6c6 e0b9 4956 d4bb
000001c0: 1dce 92b9 5f61 bdba eebd 8cbb 1004 733a
000001d0: aa2f 4438 adbc a93b 0471 9eba 885f cbb9
000001e0: f810 acb9 2dc7 1abb ed36 eaba 58fc 52ba
000001f0: 53f3 053a 15c5 7a3a 73a1 edba 9061 26b9

action_model._continuous_distribution.log_sigma f4 [1, 2]
-0.0025913697 -0.0102777155
00000000: f8d3 29bb dd63 28bc

action_model._continuous_distribution.mu.weight f4 [2, 128]
0.025685733 -0.024669368 -0.0043439814 -0.015223886 -0.02190443 -0.0047308207 -0.0035794822 0.018966094
0.002594755 -0.0012009252 -0.039519496 -0.011318662 0.012938028 0.04176818 -0.010226072 -0.0015845053
0.0011406272 0.018019423 -0.01629962 0.026164085 -0.039479483 -0.005949211 -0.019445093 -0.017674234
0.024298979 -0.003490412 0.014147884 0.028762484 0.025710657 0.007811141 0.03897124 -0.027675472
0.0022080624 -0.0161702 0.010442496 -0.024487533 0.017808404 -0.0049693054 0.007854244 0.0126325665
0.0029734587 0.011242867 0.015768623 0.008854 -0.0055823284 -0.001874417 -0.001488438 -0.01326451
0.017593544 -0.025206016 0.018247817 -0.0019223981 0.003632491 0.00936894 -0.030153222 -0.01687521
-0.038201313 -0.018226966 -0.008298093 -0.0125875445 -0.00072995486 0.012083989 -0.010455847 0.010185447
0.03468082 0.014621723 0.027777249 0.019672895 -0.029649353 -0.015452111 -0.0072860606 0.0067280573
-0.013665339 -0.00075692905 -0.009832834 -0.004121027 0.013362566 -0.02590618 0.020158239 -0.01655836
0.0016054517 0.0152344825 -0.019451188 -0.0028932148 -0.009929858 -0.0018309957 -0.046670515 0.0016651537
0.0076479246 -0.01286073 -0.013021511 0.0028191959 0.003192889 -0.014218676 0.030402528 0.0022870533
0.017067922 -0.0059170607 -0.0024761972 0.011129765 0.029326249 -0.024047894 -0.016514014 -0.018880656
0.00093698216 0.006949068 -0.00068625 0.020442517 -0.013755285 -0.021186493 0.0040049185 0.004311711
-0.014404756 -0.008649364 0.012916189 0.010798988 0.030398235 -0.010325566 0.011499573 0.021928178
0.009822004 -0.004260194 0.021010762 0.015542517 -0.004637002 0.008176507 0.0030700418 0.015850477
0.0006210043 -0.0056003523 0.023870662 -0.02759471 -0.0059073837 -0.0046981736 0.0021018828 -0.003215949
-5.432112e-06 -0.046544205 -0.00633132 -0.0174106 0.028909283 -0.017751668 -0.0051429486 -0.00021731797
0.0030384602 -0.0038403205 0.026994415 -0.020801285 0.049207125 0.02393239 0.008703744 0.008924547
-0.011647866 0.01738202 -0.0003647331 -0.019118676 0.0068941414 -0.010911677 0.010223659 0.011853238
0.01588915 -0.013669936 -0.014836351 0.0041126483 0.02309771 -0.039781574 -0.017007183 0.030408263
0.0346021 0.023167025 -0.019481745 -0.0059546987 -0.020357437 0.00298921 -0.00390505 -0.012165903
0.005689227 0.014021744 -0.02441384 -0.0056379135 0.030743513 0.0091320295 0.015753193 0.001204765
0.022179896 0.008749423 0.013547587 0.011804517 -0.006596563 -0.033697188 -0.004172693 -0.009897471
-0.0041489955 -0.010497446 -0.012442229 -0.016378252 0.021438215 -0.02160545 -0.010911994 -0.038597822
0.017670805 -0.0071059368 0.013313501 -0.0013899135 -0.004136647 -0.021263761 -0.010929704 -0.0069569442
-0.010762229 -0.006874788 0.023417663 0.008318629 -0.008479756 0.0014964304 0.0021066822 0.007105738
-0.016559267 -0.003033101 -0.0016323517 -0.006559379 0.008274187 0.004021683 -0.0068676616 0.0038966725
0.008060477 -0.0062032444 -0.03814933 0.0013791384 0.0020154093 -0.017528385 -0.00030259808 -0.0008757063
0.006647934 0.0029627804 0.0027321493 0.0037858228 0.008920772 -0.030624345 0.0014929576 -0.011960387
0.0027017 -0.015381887 -0.027872184 0.010465055 -0.004591684 0.01588573 -0.02966523 -0.023925453
-0.022464085 -0.009945556 -0.00030093655 -0.005652067 0.018336117 0.015653595 -0.017817201 0.008252931
00000000: e36a d23c 6a17 cabc f557 8ebb 9b6d 79bc
00000010: eb70 b3bc 0005 9bbb bf95 6abb c85e 9b3c
00000020: c40c 2a3b 5d68 9dba 32df 21bd e971 39bc
00000030: 06fa 533c 1c15 2b3d 418b 27bc 2daf cfba
00000040: 1981 953a 789d 933c c886 85bc 1056 d63c
00000050: 3db5 21bd 99f1 c2bb 514b 9fbc 8ec9 90bc
00000060: a70e c73c 65bf 64bb 87cc 673c 4d9f eb3c
00000070: 289f d23c 9af4 ff3b 4fa0 1f3d acb7 e2bc
00000080: 24b5 103b 5e77 84bc 0117 2b3c 149a c8bc
00000090: eee2 913c 8ed5 a2bb 16af 003c d3f8 4e3c
000000a0: 5cde 423b 0134 383c 332d 813c 5e10 113c
000000b0: f7eb b6bb ffae f5ba b117 c3ba 6353 59bc
000000c0: 5620 903c d97c cebc 727c 953c faf8 fbba
000000d0: 160f 6e3b 2f80 193c e403 f7bc e13d 8abc
000000e0: fb78 1cbd b850 95bc baf4 07bc fd3b 4ebc
000000f0: 715a 3fba ecfb 453c 004f 2bbc dce0 263c
00000100: 7a0d 0e3d f48f 6f3c 1d8d e33c 0d29 a13c
00000110: 33e3 f2bc da2a 7dbc e8bf eebb 0977 dc3b
00000120: 96e4 5fbc a66c 46ba e519 21bc ae09 87bb
00000130: aaee 5a3c 3239 d4bc e422 a53c 66a5 87bc
00000140: 056e d23a 0d9a 793c 1958 9fbc 179c 3dbb
00000150: d8b0 22bc 05fe efba 9529 3fbd 4941 da3a
00000160: 719b fa3b d0b5 52bc 2d58 55bc 42c2 383b
00000170: ca3f 513b 73f5 68bc b90e f93c 63e2 153b
00000180: 07d2 8b3c e7e3 c1bb b247 22bb 9e59 363c
00000190: 9a3d f03c 1700 c5bc 6648 87bc 9bab 9abc
000001a0: cf9f 753a 02b5 e33b 75e5 33ba 1177 a73c
000001b0: d95d 61bc 4c8f adbc b13b 833b 4149 8d3b
000001c0: ed01 6cbc 10b6 0dbc 6c9e 533c 3dee 303c
000001d0: b805 f93c 902c 29bc b468 3c3c b9a2 b33c
000001e0: 78ec 203c 1999 8bbb c31e ac3c 0ba6 7e3c
000001f0: fef1 97bb c2f6 053c c132 493b dcd8 813c
00000200: e5ca 223a 2983 b7bb 688c c33c 4d0e e2bc
00000210: ba92 c1bb 23f3 99bb bebf 093b acc2 52bb
00000220: 7d45 b6b6 23a5 3ebd f676 cfbb ada0 8ebc
00000230: 29d3 ec3c f26b 91bc 2e86 a8bb d9df 63b9
00000240: e720 473b e3ad 7bbb 6423 dd3c 7567 aabc
00000250: 698d 493d dc0d c43c 269a 0e3c 4338 123c
00000260: b1d6 3ebc bd64 8e3c a639 bfb9 c59e 9cbc
00000270: 40e8 e13b e4c6 32bc 2281 273c 1534 423c
00000280: f629 823c def7 5fbc 2b14 73bc 65c3 863b
00000290: 6937 bd3c 01f2 22bd a652 8bbc c01a f93c
000002a0: eeba 0d3d c6c8 bd3c 2e98 9fbc a21f c3bb
000002b0: a4c4 a6bc 9fe6 433b deeb 7fbb 7f53 47bc
000002c0: b26c ba3b 75bb 653c 89ff c7bc 3fbe b8bb
000002d0: d2d9 fb3c 829e 153c d70c 813c 35e9 9d3a
000002e0: 9db2 b53c bd59 0f3c b3f6 5d3c bc67 413c
000002f0: fb27 d8bb 1006 0abd 16bb 88bb 0129 22bc
00000300: 4cf4 87bb 7bfd 2bbc 7eda 4bbc af2b 86bc
00000310: 329f af3c eafd b0bc 38c8 32bc c018 1ebd
00000320: 5dc2 903c ebd8 e8bb df20 5a3c c22d b6ba
00000330: b68c 87bb 5731 aebc 8012 33bc 14f7 e3bb
00000340: 0f54 30bc e745 e1bb 66d6 bf3c dc4a 083c
00000350: adee 0abc df23 c43a 4310 0a3b 40d7 e83b
00000360: 4da7 87bc fec6 46bb a2f4 d5ba 0ff0 d6bb
00000370: 7590 073c 52c8 833b 1f0a e1bb 515f 7f3b
00000380: 1710 043c 9644 cbbb 7942 1cbd 35c4 b43a
00000390: f514 043b b097 8fbc 07a6 9eb9 a88f 65ba
000003a0: ead6 d93b 352b 423b dc0d 333b 911b 783b
000003b0: 6e28 123c e8df fabc 58af c33a 80f5 43bc
000003c0: 010f 313b 4f04 7cbc 3554 e4bc 9f75 2b3c
000003d0: d675 96bb ca22 823c 7f04 f3bc 50ff c3bc
000003e0: 9a06 b8bc aff2 22bc 05c7 9db9 f934 b9bb
000003f0: a035 963c f83b 803c 61f5 91bc 4d37 073c

action_model._continuous_distribution.mu.bias f4 [2]
0.0002844831 0.0014939927
00000000: ad26 9539 14d2 c33a

exp_avg f4 [128, 18]
0.00068266504 0.0008639583 -0.006961841 1.5717407e-06 -4.7289108e-05 -1.5600608e-06 -9.286759e-06 0.0005617353
7.1656956e-05 0.000711927 0.0008653314 -0.0068096924 2.6306013e-06 -4.4733944e-05 -1.5036734e-06 -1.2823002e-05
0.00058683235 7.193993e-05 -0.0010364791 -0.0023973656 0.005594835 1.7134978e-05 -1.5425127e-05 -4.636835e-06
6.301772e-05 -0.0011224224 -7.378258e-05 -0.0010570331 -0.0023992604 0.005589288 1.7349557e-05 -2.0311816e-05
-5.2115647e-06 6.0335828e-05 -0.0011454407 -7.5003925e-05 -0.00013296246 -0.0042666206 0.008424869 7.3538504e-06
4.428896e-05 -5.9572685e-08 -4.872171e-06 -0.00016286109 -8.560314e-05 -0.000117293144 -0.0043278025 0.008428376
8.8600345e-06 4.6044184e-05 6.4750316e-07 -4.985895e-06 -0.00014907368 -8.481809e-05 -0.00057263445 0.0024518766
0.00031780623 1.6657137e-05 4.452509e-06 7.7720415e-06 -1.9469484e-05 -0.00060987304 3.5314517e-06 -0.00055872917
0.0024524655 0.00042727383 1.5293128e-05 6.441058e-06 7.600539e-06 -2.0493797e-05 -0.00059981586 2.4812875e-06
0.0011213196 7.947606e-05 -0.0063626124 -3.2233063e-05 -4.6465502e-05 -8.293263e-06 9.641406e-05 0.0010400716
6.386037e-05 0.0011233377 8.0507634e-05 -0.006378547 -3.1967895e-05 -4.9185615e-05 -9.359869e-06 9.43738e-05
0.0010389383 6.4584056e-05 0.0007974046 0.0025328738 -0.0037327139 -1.855618e-05 -9.349591e-06 2.7555448e-05
7.276608e-05 0.0006214616 5.084343e-05 0.0008474129 0.0025658354 -0.0035183802 -1.9106958e-05 -7.915157e-06
2.6269126e-05 7.150354e-05 0.00068054575 4.949676e-05 6.1124614e-05 -0.00036509326 -0.0001245743 2.3664481e-07
-7.2957164e-06 -4.5985075e-06 4.2603183e-06 2.9229388e-05 4.7810527e-06 6.8015914e-05 -0.00028754232 -9.2903436e-05
4.6117805e-07 -6.3641874e-06 -5.8458054e-06 3.889338e-06 3.4895973e-05 5.5859646e-06 -0.00014281047 0.00089069677
0.0004311439 7.840336e-06 7.012491e-06 -1.866959e-07 -1.8820798e-05 -0.000102589445 -6.650391e-06 -0.00017827643
0.00096548424 0.00019582303 7.4169097e-06 5.7290704e-06 2.7651225e-07 -1.6842241e-05 -0.00014266197 -5.679813e-06
-0.0001958445 0.0011942895 0.0003351396 -2.1204545e-05 -9.8617475e-06 5.85427e-06 2.2471031e-05 -0.00016221432
-9.332006e-06 -0.00025915657 0.001191289 0.0003197047 -2.120819e-05 -1.3680985e-05 4.9275427e-06 2.1194155e-05
-0.00022310099 -1.1925151e-05 0.00036452222 0.00018540004 0.0016521905 4.4001863e-06 4.443713e-05 1.2037441e-05
-5.3975105e-05 0.00036987485 -4.425306e-06 0.0003060446 0.00018006023 0.001718077 4.056226e-06 4.7758436e-05
1.2319252e-05 -5.1879902e-05 0.0003164375 -7.819139e-06 0.00026734854 -0.0016296695 -0.0005913097 9.482628e-06
5.558982e-06 -7.2565686e-06 -1.4267485e-05 0.00027193423 4.0364785e-06 0.0002178414 -0.001545735 -0.0005737266
1.0301625e-05 6.5192803e-06 -6.8862305e-06 -1.6481237e-05 0.00021966388 2.203097e-06 0.0012692347 -0.0070927297
-0.0035277796 5.444023e-06 1.4215174e-05 -3.838137e-06 -4.011586e-05 0.0010016623 3.4032295e-05 0.0012705659
-0.007057022 -0.0035082782 6.1875703e-06 1.84043e-05 -3.7228397e-06 -3.8916456e-05 0.0010133145 3.3986726e-05
0.0004882016 0.00013408593 -0.00820452 2.056754e-05 5.515244e-06 1.7906625e-05 -6.141004e-05 0.00018149827
7.1182694e-05 0.0004825536 0.00013570678 -0.00836362 1.8517418e-05 8.21924e-06 1.9446135e-05 -5.9598944e-05
0.0001882678 7.314206e-05 0.0015904678 -0.0057421518 -0.004499538 3.0442357e-05 5.196624e-05 -1.4032284e-05
-0.000101742546 0.00139329 4.632343e-05 0.0015069025 -0.0057238294 -0.0044509447 2.9009403e-05 5.4330758e-05
-1.2775599e-05 -9.7954406e-05 0.0013158886 4.8363323e-05 -0.00028077213 0.0021075937 0.0007697849 -1.06497155e-05
00000000: e0f4 323a 437b 623a 2820 e4bb 99f4 d235
00000010: 4b58 46b8 4863 d1b5 54ce 1bb7 6b41 133a
00000020: 8946 9638 9da0 3a3a 68d7 623a d723 dfbb
00000030: 6389 3036 b5a0 3bb8 d3d1 c9b5 6022 57b7
00000040: a7d5 193a 75de 9638 78da 87ba 1f1d 1dbb
00000050: e154 b73b 16bd 8f37 3565 81b7 1c96 9bb6
00000060: 6128 8438 3f1e 93ba b9bb 9ab8 258c 8aba
00000070: e93c 1dbb 5926 b73b e489 9137 4b63 aab7
00000080: 00df aeb6 1a11 7d38 9d22 96ba 6d4b 9db8
00000090: d76b 0bb9 02cf 8bbb 7608 0a3c 18c1 f636
000000a0: e9c2 3938 dcdc 7fb3 a17b a3b6 b1c5 2ab9
000000b0: d685 b3b8 47fb f5b8 3dd0 8dbb 2c17 0a3c
000000c0: 8fa5 1437 911f 4138 14d0 2d35 834c a7b6
000000d0: a950 1cb9 5ee0 b1b8 d91c 16ba aaaf 203b
000000e0: 3b9f a639 eeba 8b37 c366 9536 aa64 0237
000000f0: 6652 a3b7 e3df 1fba e1fd 6c36 ae77 12ba
00000100: 8bb9 203b b903 e039 be49 8037 4420 d836
00000110: 2208 ff36 18ea abb7 f63c 1dba 3284 2636
00000120: 3ef9 923a 63ac a638 767d d0bb fd31 07b8
00000130: f4e3 42b8 4b23 0bb7 e831 ca38 0353 883a
00000140: c6ec 8538 f53c 933a 35d6 a838 2103 d1bb
00000150: 4415 06b8 a74c 4eb8 5508 1db7 8cea c538
00000160: fc2c 883a 4d71 8738 eb08 513a 92fe 253b
00000170: 8ca0 74bb 18a9 9bb7 30dc 1cb7 e026 e737
00000180: fe99 9838 95e9 223a b840 5538 eb24 5e3a
00000190: 9327 283b a094 66bb e147 a0b7 57cb 04b7
000001a0: 855c dc37 2cf4 9538 a766 323a be9a 4f38
000001b0: 0730 8038 fd69 bfb9 29a0 02b9 6e18 7e34
000001c0: bacd f4b6 e14c 9ab6 dbf3 8e36 a231 f537
000001d0: ee6c a036 c4a3 8e38 47c1 96b9 27d5 c2b8
000001e0: d497 f734 f48b d5b6 1627 c4b6 2981 8236
000001f0: 445d 1238 126f bb36 65bf 15b9 a67d 693a
00000200: 280b e239 fd89 0337 d74c eb36 9476 48b4
00000210: 5be1 9db7 4a25 d7b8 6c26 dfb6 b7ef 3ab9
00000220: 8d18 7d3a d855 4d39 c5de f836 573c c036
00000230: 8e73 9434 7048 8db7 8897 15b9 3995 beb6
00000240: 9c5b 4db9 b589 9c3a adb5 af39 6ae0 b1b7
00000250: e273 25b7 cc6f c436 2c80 bc37 1318 2ab9
00000260: a990 1cb7 68df 87b9 0725 9c3a 0a9e a739
00000270: 3ee8 b1b7 6287 65b7 4557 a536 1aca b137
00000280: 37f0 69b9 2212 48b7 581d bf39 f267 4239
00000290: 508e d83a 50a5 9336 0162 3a38 6af4 4937
000002a0: 5463 62b8 c3eb c139 177d 94b6 9c74 a039
000002b0: 8dce 3c39 1931 e13a b71a 8836 3b50 4838
000002c0: c9ae 4e37 9f99 59b8 86e7 a539 f22e 03b7
000002d0: ea2a 8c39 a29a d5ba 1f02 1bba 9417 1f37
000002e0: 4b87 ba36 737d f3b6 625e 6fb7 6592 8e39
000002f0: 1671 8736 5b6c 6439 439a caba 2466 16ba
00000300: 24d5 2c37 31c0 da36 4510 e7b6 3041 8ab7
00000310: 9355 6639 ebd8 1336 735c a63a 216a e8bb
00000320: 5232 67bb cdab b636 b57d 6e37 59c9 80b6
00000330: 1442 28b8 364a 833a e6bd 0e38 1e89 a63a
00000340: 973e e7bb 24eb 65bb d39e cf36 ef62 9a37
00000350: e6d5 79b6 3a3a 23b8 31d1 843a f88c 0e38
00000360: 4ff5 ff39 6b99 0c39 406c 06bc 7588 ac37
00000370: 960f b936 2f36 9637 44c9 80b8 9250 3e39
00000380: eb47 9538 3fff fc39 834c 0e39 9107 09bc
00000390: da55 9b37 5ee5 0937 4220 a337 e1f9 79b8
000003a0: c169 4539 d863 9938 3e77 d03a a928 bcbb
000003b0: dc70 93bb 775e ff37 53f6 5938 336c 6bb7
000003c0: 9d5e d5b8 0e9f b63a 674b 4238 4283 c53a
000003d0: f68e bbbb 3bd9 91bb 3859 f337 35e1 6338
000003e0: c856 56b7 df6c cdb8 e579 ac3a b9d9 4a38
000003f0: 9934 93b9 8e1f 0a3b 64cb 493a 2eac 32b7

exp_avg_sq f4 [128, 18]
1.0011312e-05 1.2649758e-05 0.00029832337 5.132138e-10 4.5889665e-09 4.3129106e-10 3.0531244e-09 1.0313595e-05
7.467311e-08 1.0110264e-05 1.2666558e-05 0.0003008191 5.1521526e-10 4.6726187e-09 4.4470638e-10 3.099639e-09
1.0436997e-05 7.878474e-08 4.9447335e-05 6.0785427e-05 0.0006559609 1.6833123e-09 2.0061606e-08 1.350953e-09
8.577947e-09 5.092982e-05 1.0547217e-07 4.969363e-05 6.085589e-05 0.0006561284 1.6679071e-09 2.0110395e-08
1.3628241e-09 8.6167615e-09 5.1150175e-05 1.0802513e-07 2.3817378e-05 0.0001071672 0.00064467214 1.0173833e-09
6.9601738e-09 7.172411e-10 5.8073826e-09 2.1663258e-05 1.03563224e-07 2.3810728e-05 0.000109071836 0.00064431626
1.0069224e-09 6.944626e-09 7.352206e-10 5.811347e-09 2.1619218e-05 1.06363316e-07 4.9504165e-06 5.5540502e-05
3.0551037e-05 1.7999692e-10 3.6767064e-10 9.379597e-11 3.7072986e-10 3.770895e-06 3.6452292e-09 4.9409414e-06
5.5603872e-05 3.183509e-05 1.8246188e-10 4.0161705e-10 1.02013856e-10 3.8501669e-10 3.7652705e-06 3.769237e-09
1.2722605e-05 3.9714624e-07 0.00049664004 5.497939e-10 5.8938716e-09 5.762092e-10 5.321139e-09 1.2860138e-05
5.681152e-08 1.2758353e-05 4.0085234e-07 0.0004966293 5.5030464e-10 5.886262e-09 5.759566e-10 5.3765827e-09
1.2895989e-05 5.7456866e-08 3.3068816e-05 4.199051e-05 0.00021237151 5.4887345e-10 5.575043e-09 4.2170864e-10
3.0148013e-09 3.2386873e-05 3.6525304e-08 3.3260065e-05 4.2395168e-05 0.0002171943 5.5790067e-10 5.6409615e-09
4.395701e-10 3.0520715e-09 3.2638527e-05 3.8097582e-08 4.2613788e-06 2.5861931e-05 1.9566285e-05 1.7670493e-10
2.4766159e-10 5.9592276e-11 2.74566e-10 3.1886984e-06 2.2600595e-09 4.3592872e-06 2.5965206e-05 2.0191439e-05
1.780573e-10 2.9416622e-10 6.3868695e-11 2.8961747e-10 3.2840817e-06 2.3473212e-09 1.7845831e-06 2.2759064e-05
8.0557165e-06 2.6087445e-11 4.2736117e-10 2.1810966e-11 3.842002e-10 1.3878642e-06 2.3390715e-08 1.851473e-06
2.3448432e-05 8.860037e-06 3.3043946e-11 4.599483e-10 3.1955123e-11 4.108581e-10 1.4394817e-06 2.5653247e-08
2.6988123e-06 6.951288e-05 1.3155385e-05 4.3107323e-11 4.936289e-10 3.5141594e-11 2.2733089e-10 2.2363408e-06
2.0928168e-09 2.7281658e-06 6.9573114e-05 1.3144496e-05 4.28718e-11 5.1254784e-10 3.422715e-11 2.3039169e-10
2.2660004e-06 2.1112405e-09 2.3003808e-05 2.2730488e-05 0.00051618495 1.1465349e-09 1.06148415e-08 9.412005e-10
5.6794898e-09 2.2272496e-05 8.476772e-08 2.323789e-05 2.2770575e-05 0.0005175787 1.147382e-09 1.0713274e-08
9.431055e-10 5.8199148e-09 2.251375e-05 8.738293e-08 9.469102e-07 1.7498449e-05 4.2197426e-06 1.5853702e-11
3.182056e-10 1.3842337e-11 2.4923674e-10 7.927395e-07 9.572156e-09 9.918425e-07 1.7891303e-05 4.3721916e-06
2.0885724e-11 3.41121e-10 1.588356e-11 2.6516617e-10 8.3010525e-07 1.0415654e-08 4.4945077e-06 0.00010342626
0.00020607571 4.6270504e-10 2.8011873e-09 4.4449686e-10 3.0417215e-09 3.4342913e-06 1.1858198e-07 4.51902e-06
0.0001037922 0.0002060338 4.6653764e-10 2.7977642e-09 4.4162424e-10 3.1227156e-09 3.4527916e-06 1.2913462e-07
1.9864747e-06 5.763907e-08 0.0003922919 1.0692792e-09 5.2737343e-09 8.635518e-10 4.9406466e-09 1.5021428e-06
1.0272647e-07 1.9936922e-06 5.8146476e-08 0.00039812239 1.0708137e-09 5.257522e-09 8.675672e-10 4.920288e-09
1.504643e-06 1.0935168e-07 4.3135442e-05 0.00014701932 0.0011141497 2.1951039e-09 1.6518117e-08 1.7560928e-09
1.3008693e-08 4.2072777e-05 3.6054038e-07 4.3304663e-05 0.00014719497 0.0011275703 2.1983737e-09 1.6553825e-08
1.7799371e-09 1.3117463e-08 4.2256655e-05 3.845853e-07 2.0049688e-06 3.165475e-05 1.0002132e-05 4.92903e-11
00000000: 42f6 2737 4c3a 5437 4968 9c39 3612 0d30
00000010: faac 9d31 d21a ed2f 22cf 5131 8e08 2d37
00000020: fa5b a033 419f 2937 7482 5437 42b7 9d39
00000030: 0d9f 0d30 ca8c a031 dc7a f42f 6d01 5531
00000040: 901a 2f37 5e30 a933 ac65 4f38 dbf3 7e38
00000050: caf4 2b3a 495a e730 f053 ac32 6fac b930
00000060: 365e 1332 7a9d 5538 f07f e233 216e 5038
00000070: 843f 7f38 0800 2c3a 443c e530 3abf ac32
00000080: 1c4e bb30 eb08 1432 158a 5638 71fb e733
00000090: 6ecb c737 f4be e038 37ff 283a fed3 8b30
000000a0: 5626 ef31 5b27 4530 478a c731 7eb9 b537
000000b0: 7c66 de33 26bd c737 7fbd e438 55e7 283a
000000c0: ef63 8a30 949d ee31 8d18 4a30 26ad c731
000000d0: eb5a b537 da69 e433 c11b a636 29f4 6838
000000e0: ed23 0038 a1e8 452f 0b21 ca2f 7042 ce2e
000000f0: 97cf cb2f 7c0f 7d36 8d7f 7a31 5dca a536
00000100: 3438 6938 ab86 0538 749e 482f 93ca dc2f
00000110: b254 e02e 48aa d32f dbae 7c36 8f82 8131
00000120: 2c73 5537 5d37 d534 f330 023a 4e20 1730
00000130: 0b83 ca31 1e63 1e30 3cd5 b631 dfc1 5737
00000140: ed00 7433 b50c 5637 ba34 d734 3a30 023a
00000150: 3f44 1730 1c40 ca31 5851 1e30 ecbc b831
00000160: da5b 5837 7ec6 7633 5fb3 0a38 f81e 3038
00000170: 0bb0 5e39 89df 1630 998e bf31 37d6 e72f
00000180: f22c 4f31 24d7 0738 ffdf 1c33 b980 0b38
00000190: 77d1 3138 a7be 6339 c55a 1930 6cd2 c131
000001a0: fea7 f12f 9cbc 5131 5ae5 0838 bca0 2333
000001b0: f7fc 8e36 13f2 d837 4722 a437 044a 422f
000001c0: 4527 882f 780b 832e bbf1 962f 6cfd 5536
000001d0: 634f 1b31 fe45 9236 dbcf d937 c960 a937
000001e0: adc6 432f 37b8 a12f e172 8c2e 0938 9f2f
000001f0: 1864 5c36 834e 2131 cf85 ef35 b8ea be37
00000200: 0a27 0737 b477 e52d bdf1 ea2f eed9 bf2d
00000210: 5f37 d32f a746 ba35 baec c832 2180 f835
00000220: 20b3 c437 92a5 1437 2d54 112e f8db fc2f
00000230: 458a 0c2e 23df e12f 3734 c135 165c dc32
00000240: 3e1d 3536 71c7 9138 f3b5 5c37 8896 3d2e
00000250: 0cb0 0730 eb8d 1a2e f5f3 792f 0b14 1636
00000260: 39d1 0f31 8815 3736 c8e7 9138 2e87 5c37
00000270: 5b8d 3c2e 59e3 0c30 5888 162e 7f51 7d2f
00000280: 9711 1836 5615 1131 4df8 c037 5aad be37
00000290: 9650 073a 1c94 9d30 915c 3632 8c5b 8130
000002a0: 5225 c331 d2d5 ba37 8c09 b633 fdee c237
000002b0: 7003 bf37 1eae 073a eab1 9d30 7a0d 3832
000002c0: 939e 8130 83f8 c731 e9db bc37 46a7 bb33
000002d0: 2c2f 7e35 a2c9 9237 5097 8d36 5d73 8b2d
000002e0: 75ef ae2f 5884 732d f404 892f a5cc 5435
000002f0: ca72 2432 731f 8535 4815 9637 d7b4 9236
00000300: 78b6 b72d 8388 bb2f 99b6 8b2d d2c6 912f
00000310: 66d4 5e35 88f0 3232 87cf 9636 8de6 d838
00000320: 0716 5839 f25f fe2f 027f 4031 5f5d f42f
00000330: 8806 5131 ad78 6636 22a7 fe33 16a2 9736
00000340: 03ab d938 c70a 5839 ab3d 0030 ca42 4031
00000350: 16c9 f22f 6597 5631 82b6 6736 41a8 0a34
00000360: 604f 0536 d48e 7733 87ac cd39 ebf5 9230
00000370: 4234 b531 0e5f 6d30 63c2 a931 3c9d c935
00000380: 799a dc33 5fcb 0536 babc 7933 15bb d039
00000390: e82b 9330 a7a5 b431 9d79 6e30 500f a931
000003a0: 24f3 c935 b9d4 ea33 54ec 3438 3329 1a39
000003b0: a908 923a add8 1631 b9e3 8d32 065b f130
000003c0: d67c 5f32 4d77 3038 4b90 c134 07a2 3538
000003d0: 5958 1a39 fbca 933a 3312 1731 3f32 8e32
000003e0: f8a1 f430 365b 6132 bd3c 3138 0079 ce34
000003f0: 1a8d 0636 07c5 0438 d4ce 2737 f2c7 582e

exp_avg f4 [128]
-6.748276e-05 6.855816e-05 7.93343e-05 -1.637943e-06 -5.9862763e-05 -4.5395114e-05 -5.3100093e-06 3.9366155e-06
1.10411165e-05 9.2354785e-06 -2.1947897e-06 -3.065708e-05 -6.8399306e-05 -4.29302e-05 6.7000824e-06 -1.9078228e-05
2.8094677e-05 8.932392e-06 4.0035106e-06 0.00011238723 6.540837e-05 3.1606887e-05 7.81318e-06 -3.4330023e-05
2.7809454e-05 -0.00017303663 -1.6528758e-05 6.3115544e-06 -5.8741484e-06 2.0081712e-05 -2.4391458e-05 -1.00435755e-05
-2.4860668e-05 3.391706e-05 -8.963919e-06 2.2660246e-05 1.0584645e-05 9.443177e-05 8.289717e-05 6.11792e-05
1.276255e-05 1.7943274e-05 3.0351048e-05 9.2118804e-05 0.00011223852 -3.3319113e-05 1.6129927e-05 -2.0281133e-05
-5.2636147e-05 1.9881507e-05 4.011181e-05 -2.0967847e-05 -2.1354173e-05 -0.0001553866 -7.34938e-06 -2.3836932e-05
-3.9818647e-06 -4.216283e-05 -8.24045e-06 -4.040627e-06 -1.2639766e-05 -2.3462018e-05 2.4178484e-05 -4.289202e-05
6.3972125e-06 1.9556896e-06 3.6204467e-06 -2.2053386e-05 -7.233567e-05 0.00011990849 -2.110178e-05 -1.6558075e-05
-3.9606373e-05 -1.5421098e-06 -0.00014971894 -1.4185752e-06 -1.803388e-05 -8.2542516e-05 -0.00016263408 3.2713974e-06
2.1473938e-06 -1.0982562e-06 3.418685e-05 1.6976877e-05 1.0917514e-05 0.00012404955 -7.652743e-06 -1.1645477e-05
2.6497504e-05 1.7244054e-05 1.3286043e-05 -6.364996e-05 1.1082895e-05 3.260721e-05 4.539812e-05 -5.271668e-06
1.7513561e-05 -4.595854e-05 2.3364651e-05 -2.1277941e-05 4.459967e-05 7.683533e-06 -1.4361304e-07 -1.30599165e-05
-1.558666e-05 -4.178431e-05 -5.0518178e-05 -0.00013010677 6.4546366e-06 -1.9173596e-05 -6.930431e-05 1.8461149e-05
-1.0420656e-06 1.0764099e-05 6.3208805e-05 -1.6222386e-05 -9.60851e-05 0.00018467988 6.838696e-06 4.779553e-05
1.5106299e-05 -5.1546726e-06 -1.0146338e-05 4.413904e-06 -2.4640742e-05 -2.8621624e-05 7.2106072e-06 0.00010804557
00000000: 8885 8db8 e2c6 8f38 4760 a638 4bd7 dbb5
00000010: 2715 7bb8 a266 3eb8 a22c b2b6 4517 8436
00000020: 3c3d 3937 14f2 1a37 334a 13b6 ca95 00b8
00000030: 9971 8fb8 f40f 34b8 45d1 e036 2f0a a0b7
00000040: dcac eb37 55dc 1537 e555 8636 6fb1 eb38
00000050: da2b 8938 a391 0438 5a15 0337 95fd 0fb8
00000060: 5948 e937 2b71 35b9 3da7 8ab7 d7c7 d336
00000070: 8d1a c5b6 2675 a837 429c ccb7 d480 28b7
00000080: e18b d0b7 2a42 0e38 bd63 16b7 8216 be37
00000090: b494 3137 ac09 c638 14d9 ad38 554d 8038
000000a0: bc1e 5637 e384 9637 619a fe37 e82f c138
000000b0: 9961 eb38 20c0 0bb8 c14e 8737 6721 aab7
000000c0: a2c5 5cb8 36c7 a637 ba3d 2838 1ce4 afb7
000000d0: bd21 b3b7 46ef 22b9 b29a f6b6 6cf5 c7b7
000000e0: f59b 85b6 fed7 30b8 7740 0ab7 b994 87b6
000000f0: 620f 54b7 4dd0 c4b7 e6d2 ca37 f5e6 33b8
00000100: a3a7 d636 7e3e 0336 cdf6 7236 49ff b8b7
00000110: ebb2 97b8 6177 fb38 ba03 b1b7 32e6 8ab7
00000120: 051f 26b8 7dfa ceb5 dffd 1cb9 df65 beb5
00000130: 7647 97b7 ad1a adb8 c188 2ab9 2e8a 5b36
00000140: f21b 1036 cc67 93b5 da63 0f38 9169 8e37
00000150: 5e2a 3737 4c13 0239 4864 00b7 f160 43b7
00000160: f546 de37 53a7 9037 1fe7 5e37 d07b 85b8
00000170: acf0 3937 bac3 0838 dc69 3e38 49e3 b0b6
00000180: 16ea 9237 9bc3 40b8 35ff c337 087e b2b7
00000190: 8810 3b38 86e8 0037 0d34 1ab4 ea1b 5bb7
000001a0: 19c0 82b7 9041 2fb8 7be3 53b8 456d 08b9
000001b0: e894 d836 fcd6 a0b7 7857 91b8 04dd 9a37
000001c0: 1add 8bb5 7497 3437 f88e 8438 4f15 88b7
000001d0: 4c81 c9b8 a1a6 4139 f477 e536 0f78 4838
000001e0: 0f71 7d37 4df6 acb6 313a 2ab7 261b 9436
000001f0: 97b3 ceb7 7818 f0b7 a5f2 f136 8696 e238

exp_avg_sq f4 [128]
3.4680596e-08 8.341403e-08 6.782599e-08 3.1745422e-09 4.8250477e-08 2.853179e-08 2.0260906e-09 1.5918862e-09
1.8193456e-09 6.2067656e-08 7.969217e-10 1.9146958e-08 3.418775e-08 1.2086696e-07 1.4466385e-09 1.9067639e-07
7.3130475e-09 8.9657565e-10 9.321943e-10 5.4495192e-08 1.2465485e-07 1.0066904e-08 2.9074338e-09 1.943955e-08
3.2332416e-08 1.5044196e-07 1.9062679e-08 2.4968974e-10 8.3236394e-08 2.1821365e-09 4.7355213e-09 1.9591344e-09
1.9432406e-08 2.42629e-09 9.398786e-10 1.4629913e-07 1.1841347e-09 1.9938282e-07 7.498581e-08 3.1433807e-08
5.315092e-10 2.1503062e-09 4.7212218e-08 7.6750666e-08 7.584273e-08 2.7773925e-08 1.2505944e-09 8.855097e-09
6.089899e-09 1.0821112e-09 2.6634202e-08 2.0615618e-09 1.3649907e-09 1.3725015e-07 1.0270133e-09 1.10550744e-07
1.3684594e-08 1.6830448e-08 2.350846e-10 6.0840923e-09 2.209154e-09 7.454194e-09 1.3748191e-08 3.054025e-08
4.0238333e-09 5.7258287e-09 2.7798015e-09 1.502817e-08 6.0218156e-08 9.364102e-08 1.411527e-08 1.7690363e-08
6.389014e-09 2.9547584e-09 1.7931049e-07 4.353565e-10 2.9026907e-08 2.6603038e-07 1.6428368e-07 7.3580325e-10
9.930504e-10 3.3098566e-10 7.444148e-09 6.8518737e-09 3.880366e-09 1.08554985e-07 5.6677067e-09 2.9101768e-09
6.206625e-08 3.1095198e-08 5.9018884e-08 5.3359464e-08 1.1475868e-09 6.332087e-09 7.045274e-08 1.5968272e-09
9.195079e-10 1.3210786e-08 3.6277555e-08 4.7069094e-08 6.677009e-08 2.0420703e-09 5.4181054e-10 9.587715e-10
1.5266854e-08 9.287788e-08 4.8030513e-09 1.06928674e-07 1.2152657e-09 1.2891692e-08 3.088772e-08 7.477353e-08
8.65012e-09 5.369795e-09 1.2844705e-08 1.6354775e-08 9.2379324e-08 1.9153508e-07 1.6560502e-09 3.073547e-08
5.591417e-08 5.7297105e-09 8.1814744e-10 1.483701e-09 4.523653e-08 4.588557e-09 9.01671e-10 6.0434665e-08
00000000: b8f3 1433 5921 b333 bba7 9133 2327 5a31
00000010: f63b 4f33 1216 f532 5d3b 0b31 84c9 da30
00000020: 880c fa30 0e4a 8533 610e 5b30 9b78 a432
00000030: d4d5 1233 a8c7 0134 11d3 c630 babc 4c34
00000040: 3f46 fb31 e772 7630 ac1e 8030 190e 6a33
00000050: ddd8 0534 b6f2 2c32 1ecc 4731 06fc a632
00000060: dedd 0a33 2c89 2134 46bf a332 b544 892f
00000070: b1bf b233 8df4 1531 16b6 a231 75a1 0631
00000080: 50ec a632 bfbb 2631 0a2d 8130 6616 1d34
00000090: 09bf a230 ef15 5634 e307 a133 d601 0733
000000a0: a319 1230 96c4 1331 62c6 4a33 20d2 a433
000000b0: fbde a233 8293 ee32 61e1 ab30 2121 1832
000000c0: 513f d131 67b9 9430 3bc9 e432 61ab 0d31
000000d0: 579a bb30 095f 1334 d126 8d30 ea67 ed33
000000e0: 7b19 6b32 8c92 9032 373d 812f 3e0c d131
000000f0: d9cf 1731 e40f 0032 2f31 6c32 5c2b 0333
00000100: 0342 8a31 ecbc c431 c906 3f31 4c17 8132
00000110: 4851 8133 b217 c933 9d7f 7232 85f5 9732
00000120: 5d86 db31 a90c 4b31 7e88 4034 fb56 ef2f
00000130: d856 f932 f0d2 8e34 f465 3034 8d41 4a30
00000140: db7b 8830 17f6 b52f 6bc7 ff31 b86d eb31
00000150: 0f54 8531 bc1e e933 adbd c231 5ffc 4731
00000160: 4849 8533 888d 0533 f37b 7d33 5a2d 6533
00000170: 1fb9 9d30 a091 d931 ce4b 9733 5d77 db30
00000180: 9ec0 7c30 a7f5 6232 98cf 1b33 0429 4a33
00000190: 3f63 8f33 7b54 0c31 87ee 1430 c6c5 8330
000001a0: 2b24 8332 2874 c733 1608 a531 a9a0 e533
000001b0: 5c06 a730 437a 5d32 68a9 0433 2f93 a033
000001c0: a19b 1432 3781 b831 9cab 5c32 887c 8c32
000001d0: 1262 c633 c3a8 4d34 169b e330 0202 0433
000001e0: 4826 7033 11df c431 02e4 6030 17eb cb30
000001f0: 174a 4233 60a9 9d31 75d9 7730 4fc8 8133
