results/ppo/My Behavior/My Behavior-2560.pt (torch, 149583 bytes, 12 tensors)

network_body.linear_encoder.seq_layers.0.weight f4 [128, 6]
0.32351488 0.7024401 -0.29436576 -0.41187584 0.3483896 0.17388523 -0.031567477 -0.1501739
1.1856309 -0.18128797 0.05353697 0.35179102 0.2830584 0.24736927 -0.1721892 0.29953894
-0.16271055 -0.4065314 0.16961344 0.27119696 0.15277112 0.050994094 -0.0017595807 0.48616663
-0.12753318 -0.29387245 0.4908101 -0.29640552 0.12892517 -0.017398112 -0.11438996 -0.32074556
-0.08581521 -0.26030818 -0.1939649 -0.2087551 -0.099832475 0.3602307 -0.4372022 0.10091038
-0.15578404 0.64170176 -0.553082 -0.12884942 -0.41496304 0.038346358 0.008814571 0.18477477
-0.1449359 -0.55921537 0.5450338 -0.027241321 0.1952613 0.17617992 -0.08621933 0.070200026
0.2085239 -0.7880465 -0.2138369 0.8457671 0.54179454 0.5979316 -0.0064035417 0.40360215
0.6916325 -0.029972032 -0.33722907 -0.18956105 -0.46264866 0.012338824 0.30385602 -0.3994696
0.23498842 -0.056862067 0.05474948 0.3508124 0.26777676 -0.123812184 -0.11744255 0.26225808
0.26595503 0.1934421 -0.06934416 0.4680516 0.2924449 -0.20482114 0.5676123 0.20009053
-0.5761372 -0.13135475 -0.121960305 0.50478435 -0.3203968 -0.06448981 0.20213182 0.5373719
-0.21834044 0.17306316 0.22518857 0.3263315 0.29344475 0.18627459 -0.41715208 -0.66585803
-0.438748 0.25513503 -0.7666689 0.055481173 -0.085838616 -0.17573924 -0.08031987 -0.114900246
0.44959125 -0.15963987 -0.9162787 -0.036471654 0.4671905 -0.563657 -0.4281952 0.010214764
-0.81916726 -0.34078118 -0.6579912 -0.018945955 0.957674 -0.031969983 0.2259777 -0.39761546
-0.3601579 -0.047722023 -0.04918839 0.015311977 0.17086203 0.81949097 0.32191214 -0.04985044
0.5270612 0.8074609 -0.50006586 -0.3712905 -0.2731348 0.6664934 0.61561465 0.17479959
0.5069559 0.17829855 0.09310996 0.016777365 0.053980343 -0.13246948 -0.42698345 0.554303
-0.034142848 0.36295405 -0.35248944 0.29496184 -0.58608335 0.14437728 0.59011436 0.3416027
-0.06421187 0.32574585 -0.54532254 -0.18977937 -0.18897077 -0.10544145 0.42853066 -0.6219304
-0.18173109 -0.109699085 -0.2204721 0.13857812 0.5393643 -0.85712636 -0.011159267 0.35816318
0.02060005 -0.24041674 0.06208065 -0.026217684 -0.020064227 0.14852007 0.11393289 -0.027626593
0.27334446 0.48430645 -0.03551035 0.32693303 -0.09037162 0.56408775 0.039455593 -0.09946019
-0.098936 -0.83879787 -0.16076164 0.11179418 -0.00095587294 -0.46208924 -0.31742162 0.14411208
-0.74222404 -0.19874555 0.120768525 -0.30572775 0.30266288 -0.33005524 -0.07353377 0.48973542
0.25221005 -0.1325366 -0.49050915 0.36093155 -0.0014366134 0.5739471 0.71194744 0.065732695
-0.038934596 -0.057274595 -0.48496535 -0.41557533 0.06774956 -0.44583723 0.44254407 0.09115187
-0.24687025 0.027855806 -0.14299531 -0.18278559 0.23894791 0.33070868 0.34854037 0.48865664
0.13143189 -0.026198326 0.2636035 0.308727 -0.64911854 0.13758795 0.5281246 0.10249195
0.33322486 0.90727484 0.26501247 -0.71215796 0.13326403 -0.08504392 0.5856899 -0.32704288
-0.06125197 -0.35471237 0.56724656 0.2800729 -0.6504531 -0.4151241 -0.2339921 -0.3343045
00000000: bea3 a53e 1dd3 333f 1cb7 96be 64e1 d2be
00000010: 1f60 b23e f80e 323e e64c 01bd 30c7 19be
00000020: c1c2 973f 8ea3 39be 9549 5b3d f41d b43e
00000030: 08ed 903e 5f4e 7d3e 5e52 30be 2b5d 993e
00000040: 989d 26be e224 d0be 25af 2d3e 54da 8a3e
00000050: 0870 1c3e 2fdf 503d bba1 e6ba d5ea f83e
00000060: 0f98 02be 7376 96be 764b fb3e 77c2 97be
00000070: f604 043e 7c86 8ebc 4945 eabd c338 a4be
00000080: e3bf afbd 1d47 85be bc9e 46be e6c3 55be
00000090: f874 ccbd 2970 b83e f7d8 dfbe 1aaa ce3d
000000a0: da85 1fbe 9146 243f c896 0dbf 1af1 03be
000000b0: 0976 d4be 1211 1d3d fe6a 103c 9935 3d3e
000000c0: 146a 14be bd28 0fbf 5687 0b3f 3129 dfbc
000000d0: 94f2 473e 8268 343e c393 b0bd 08c5 8f3d
000000e0: 4a87 553e 6abd 49bf 0ff8 5abe 3184 583f
000000f0: 0cb3 0a3f 0c12 193f cdd4 d1bb f1a4 ce3e
00000100: d40e 313f e887 f5bc 4aa9 acbe 4b1c 42be
00000110: 49e0 ecbe c728 4a3c 0493 9b3e 4887 ccbe
00000120: cea0 703e 33e8 68bd fe40 603d af9d b33e
00000130: 091a 893e 3e91 fdbd b885 f0bd b146 863e
00000140: 422b 883e b015 463e 5004 8ebd 76a4 ef3e
00000150: 57bb 953e a2bc 51be 0a4f 113f 88e4 4c3e
00000160: ba7d 13bf dc81 06be 53c6 f9bd 8c39 013f
00000170: 0d0b a4be 3c13 84bd a5fb 4e3e 3491 093f
00000180: a394 5fbe 7837 313e d597 663e ec14 a73e
00000190: 643e 963e c4be 3e3e f594 d5be ac75 2abf
000001a0: 94a3 e0be 0fa1 823e 6a44 44bf 3a40 633d
000001b0: 28cc afbd fdf4 33be be7e a4bd d250 ebbd
000001c0: d330 e63e a278 23be 3e91 6abf 4d63 15bd
000001d0: 9833 ef3e d34b 10bf 673c dbbe d35b 273c
000001e0: f2b4 51bf df7a aebe 1c72 28bf 8c34 9bbc
000001f0: 202a 753f f5f2 02bd b366 673e 4194 cbbe
00000200: 9e66 b8be 2b78 43bd c479 49bd 16df 7a3c
00000210: 75f6 2e3e 29ca 513f abd1 a43e fa2f 4cbd
00000220: 7ced 063f c2b5 4e3f 5104 00bf ca19 bebe
00000230: 53d8 8bbe 509f 2a3f ec98 1d3f aafe 323e
00000240: ddc7 013f e593 363e 6fb0 be3d af70 893c
00000250: 7e1a 5d3d 14a6 07be 939d dabe cde6 0d3f
00000260: 5fd9 0bbd 1dd5 b93e 7f79 b4be 3d05 973e
00000270: 8f09 16bf a3d7 133e bc11 173f 8de6 ae3e
00000280: 8381 83bd 29c8 a63e 429a 0bbf 8655 42be
00000290: 8e81 41be b0f1 d7bd 5f68 db3e d536 1fbf
000002a0: b717 3abe eaa9 e0bd 70c3 61be 6ce7 0d3e
000002b0: c713 0a3f a26c 5bbf 5cd5 36bc 2a61 b73e
000002c0: 70c1 a83c ce2f 76be 4848 7e3d 78c6 d6bc
000002d0: bc5d a4bc a515 183e a655 e93d 2a51 e2bc
000002e0: cef3 8b3e 04f7 f73e 4d73 11bd c463 a73e
000002f0: c214 b9bd 0e68 103f 309c 213d c9b1 cbbd
00000300: f59e cabd 75bb 56bf b39e 24be 59f4 e43d
00000310: 8c93 7aba f696 ecbe 1685 a2be 1e92 133e
00000320: 6502 3ebf f483 4bbe 7d55 f73d 5988 9cbe
00000330: a1f6 9a3e 00fd a8be e098 96bd 9abe fa3e
00000340: ad21 813e adb7 07be 0424 fbbe 05cc b83e
00000350: bf4c bcba 32ee 123f 3042 363f dd9e 863d
00000360: e279 1fbd c498 6abd 614d f8be 4ac6 d4be
00000370: 48c0 8a3d c744 e4be 2395 e23e d5ad ba3d
00000380: 8ecb 7cbe dc31 e43c 5d6d 12be 252c 3bbe
00000390: c3ae 743e a652 a93e e273 b23e 3431 fa3e
000003a0: 1596 063e df9d d6bc 0af7 863e 7711 9e3e
000003b0: a22c 26bf dbe3 0c3e 2c33 073f 4de7 d13d
000003c0: 739c aa3e 2a43 683f b7af 873e fc4f 36bf
000003d0: 5e76 083e 822b aebd c6ef 153f 2a72 a7be
000003e0: 58e3 7abd dc9c b5be 1237 113f b765 8f3e
000003f0: 1884 26bf 258b d4be a09b 6fbe f629 abbe

network_body.linear_encoder.seq_layers.0.bias f4 [128]
0.0 0.0 0.0 0.0 0.0 0.0 0.0 0.0
0.0 0.0 0.0 0.0 0.0 0.0 0.0 0.0
0.0 0.0 0.0 0.0 0.0 0.0 0.0 0.0
0.0 0.0 0.0 0.0 0.0 0.0 0.0 0.0
0.0 0.0 0.0 0.0 0.0 0.0 0.0 0.0
0.0 0.0 0.0 0.0 0.0 0.0 0.0 0.0
0.0 0.0 0.0 0.0 0.0 0.0 0.0 0.0
0.0 0.0 0.0 0.0 0.0 0.0 0.0 0.0
0.0 0.0 0.0 0.0 0.0 0.0 0.0 0.0
0.0 0.0 0.0 0.0 0.0 0.0 0.0 0.0
0.0 0.0 0.0 0.0 0.0 0.0 0.0 0.0
0.0 0.0 0.0 0.0 0.0 0.0 0.0 0.0
0.0 0.0 0.0 0.0 0.0 0.0 0.0 0.0
0.0 0.0 0.0 0.0 0.0 0.0 0.0 0.0
0.0 0.0 0.0 0.0 0.0 0.0 0.0 0.0
0.0 0.0 0.0 0.0 0.0 0.0 0.0 0.0
00000000: 0000 0000 0000 0000 0000 0000 0000 0000
00000010: 0000 0000 0000 0000 0000 0000 0000 0000
00000020: 0000 0000 0000 0000 0000 0000 0000 0000
00000030: 0000 0000 0000 0000 0000 0000 0000 0000
00000040: 0000 0000 0000 0000 0000 0000 0000 0000
00000050: 0000 0000 0000 0000 0000 0000 0000 0000
00000060: 0000 0000 0000 0000 0000 0000 0000 0000
00000070: 0000 0000 0000 0000 0000 0000 0000 0000
00000080: 0000 0000 0000 0000 0000 0000 0000 0000
00000090: 0000 0000 0000 0000 0000 0000 0000 0000
000000a0: 0000 0000 0000 0000 0000 0000 0000 0000
000000b0: 0000 0000 0000 0000 0000 0000 0000 0000
000000c0: 0000 0000 0000 0000 0000 0000 0000 0000
000000d0: 0000 0000 0000 0000 0000 0000 0000 0000
000000e0: 0000 0000 0000 0000 0000 0000 0000 0000
000000f0: 0000 0000 0000 0000 0000 0000 0000 0000
00000100: 0000 0000 0000 0000 0000 0000 0000 0000
00000110: 0000 0000 0000 0000 0000 0000 0000 0000
00000120: 0000 0000 0000 0000 0000 0000 0000 0000
00000130: 0000 0000 0000 0000 0000 0000 0000 0000
00000140: 0000 0000 0000 0000 0000 0000 0000 0000
00000150: 0000 0000 0000 0000 0000 0000 0000 0000
00000160: 0000 0000 0000 0000 0000 0000 0000 0000
00000170: 0000 0000 0000 0000 0000 0000 0000 0000
00000180: 0000 0000 0000 0000 0000 0000 0000 0000
00000190: 0000 0000 0000 0000 0000 0000 0000 0000
000001a0: 0000 0000 0000 0000 0000 0000 0000 0000
000001b0: 0000 0000 0000 0000 0000 0000 0000 0000
000001c0: 0000 0000 0000 0000 0000 0000 0000 0000
000001d0: 0000 0000 0000 0000 0000 0000 0000 0000
000001e0: 0000 0000 0000 0000 0000 0000 0000 0000
000001f0: 0000 0000 0000 0000 0000 0000 0000 0000

network_body.linear_encoder.seq_layers.2.weight f4 [128, 128]
0.030418113 0.15382461 -0.06716258 0.09146262 -0.047346015 0.012519995 -0.0045457175 -0.049282473
-0.110159725 -0.045019884 -0.0819677 0.021460759 -0.05298633 0.035833675 -0.1615325 -0.038292017
0.08752738 0.037951026 -0.022150785 -0.082700044 0.04102557 -0.029966852 0.100011654 0.18136066
-0.14142726 -0.00020323317 -0.09946939 -0.008027662 -0.09935049 -0.12468899 0.11699336 -0.030888353
0.15534253 -0.08861888 -0.09218787 0.014244126 -0.046205316 -0.05395906 0.104388766 -0.029325835
-0.050625782 0.1414242 -0.01949332 -0.049815446 -0.21975842 0.034031924 0.066137075 0.00911756
-0.054956395 0.011736046 0.14305735 0.0496064 0.009402975 -0.04964705 -0.11590309 -0.024574757
0.11071926 -0.035034202 -0.15784624 -0.17586668 0.049475305 -0.062036566 -0.05760671 -0.044544183
0.07285169 -0.014545212 0.08114103 -0.06318021 -0.13504778 0.016527694 -0.22933754 -0.058944896
0.04866473 -0.09398661 -0.023334576 -0.03530994 0.14568992 -0.0014345241 -0.043329936 -0.09462108
-0.071670964 0.06732947 0.06336069 0.06268516 -0.06300514 0.03631225 0.21584058 -0.06338312
-0.12241053 -0.06788059 0.002703601 -0.056807738 -0.03530879 0.027940126 0.17380936 -0.07745498
-0.086053334 0.118902095 0.078718655 -0.08693543 -0.027645392 -0.13098456 0.04872596 -0.040187594
-0.01963544 -0.11782692 -0.15482384 0.015733423 -0.080628626 0.016908824 0.028753193 0.053320877
-0.102341995 0.046159465 -0.07590803 -0.23719926 -0.029179182 -0.013556858 0.028939575 0.016859513
0.0065738307 -0.09281553 0.023803987 0.025175134 0.023631774 0.036652606 -0.0069237915 -0.066535726
-0.007861851 0.065948434 0.013072405 -0.076983914 -0.12596641 0.058838367 -0.06680621 -0.02544784
0.027890226 -0.06472048 0.03883826 0.047424134 0.020126713 0.06589496 -0.023907362 0.046897948
-0.14018622 -0.034378007 0.004186149 -0.11902791 -0.10340983 -0.01282302 0.1483539 0.048451867
-0.0031124663 -0.15966834 -0.18753016 0.029155169 0.06018995 -0.038958132 0.069935456 -0.041868802
-0.033985175 0.07498347 0.09283056 -0.022763597 -0.049416807 -0.004252128 0.11522533 0.17268604
0.009340757 -0.10291113 -0.12591286 0.07392682 0.1179018 -0.060604386 0.23860443 -0.014735007
-0.07663213 -0.030634953 0.028341457 0.039068267 -0.024817986 0.1240077 0.15509371 0.03146997
-0.033169955 0.07156888 0.07438545 -0.1809838 -0.117011294 -0.17439163 -0.110606626 -0.0020508736
-0.052457947 0.060335774 0.011917273 -0.009102306 -0.038568337 -0.0031835884 -0.12272083 -0.10096941
0.14513066 -0.088937394 0.09030983 0.020637505 -0.30036807 0.0008143057 -0.027081067 0.07739032
0.03690794 0.036301248 -0.06238638 0.19828868 0.03851731 0.035195448 -0.04502141 -0.1740681
-0.051319294 0.06796429 -0.054383073 -0.10502122 0.03090039 -0.13659728 -0.0016496459 0.11771649
0.028839333 -0.007813783 -0.049150944 -0.06786724 -0.044771943 -0.08837354 0.12831266 -0.02066946
0.029144356 0.03895853 0.070802115 -0.11720196 0.014920576 -0.0133538665 0.084268965 -0.0042513283
0.29384485 0.10725137 -0.04820772 0.15071599 -0.009855246 -0.04475082 -0.06836479 -0.108641975
0.028670061 -0.0053339987 -0.10193684 0.09149841 -0.07238288 -0.14980234 -0.055965535 -0.040559143
00000000: 682f f93c 3384 1d3e 898c 89bd c150 bb3d
00000010: e5ed 41bd aa20 4d3c 3ef4 94bb 6bdc 49bd
00000020: 6c9b e1bd c566 38bd aede a7bd 79ce af3c
00000030: 3208 59bd 55c6 123d c768 25be 17d8 1cbd
00000040: 8e41 b33d 8972 1b3d 9075 b5bc a45e a9bd
00000050: 6e0a 283d 0b7d f5bc e9d2 cc3d 9cb6 393e
00000060: 4fd2 10be fd1a 55b9 9cb6 cbbd 7486 03bc
00000070: 4578 cbbd f15c ffbd 379a ef3d 9209 fdbc
00000080: 1d12 1f3e d17d b5bd fecc bcbd 3260 693c
00000090: c941 3dbd 2d04 5dbd c7c9 d53d bc3c f0bc
000000a0: fb5c 4fbd 81d1 103e 74b0 9fbc 480b 4cbd
000000b0: 5a08 61be 0f65 0b3d e072 873d d261 153c
000000c0: f519 61bd 8b48 403c a07d 123e 1530 4b3d
000000d0: f00e 1a3c b55a 4bbd 995e edbd 0051 c9bc
000000e0: c8c0 e23d 0680 0fbd 72a2 21be 6516 34be
000000f0: 9ea6 4a3d 0e1a 7ebd 03f5 6bbd f673 36bd
00000100: 4433 953d 0a4f 6ebc 452d a63d a064 81bd
00000110: f749 0abe 1665 873c 76d7 6abe 3470 71bd
00000120: ab54 473d 0d7c c0bd 2728 bfbc 28a1 10bd
00000130: bd2f 153e a406 bcba bb7a 31bd b2c8 c1bd
00000140: 3ac8 92bd 08e4 893d 40c3 813d 1461 803d
00000150: d708 81bd 27bc 143d 5005 5d3e 02cf 81bd
00000160: 5fb2 fabd fb04 8bbd e62e 313b 3baf 68bd
00000170: f39f 10bd b1e2 e43c 15fb 313e b7a0 9ebd
00000180: bb3c b0bd f182 f33d 3f37 a13d 340b b2bd
00000190: 9778 e2bc d120 06be df94 473d bf9b 24bd
000001a0: 81da a0bc 3d4f f1bd 248a 1ebe 61e3 803c
000001b0: 9f20 a5bd 6084 8a3c d18b eb3c fe66 5a3d
000001c0: ae98 d1bd b511 3d3d ab75 9bbd 5de4 72be
000001d0: 2e09 efbc 951d 5ebc b012 ed3c f61c 8a3c
000001e0: 4a69 d73b 1216 bebd 9400 c33c 153c ce3c
000001f0: 6c97 c13c 0b21 163d f9e0 e2bb e243 88bd
00000200: fece 00bc f90f 873d a42d 563c bea9 9dbd
00000210: 57fd 00be 8000 713d b2d1 88bd fd77 d0bc
00000220: 0b7a e43c 2c8c 84bd de14 1f3d cf3f 423d
00000230: c7e0 a43c f0f3 863d 5fd9 c3bc 1018 403d
00000240: fa8c 0fbe f4cf 0cbd f72b 893b e8c4 f3bd
00000250: 88c8 d3bd a517 52bc 16ea 173e 7775 463d
00000260: 85fa 4bbb 1980 23be e807 40be d2d6 ee3c
00000270: bd89 763d 9092 1fbd 523a 8f3d 9f7e 2bbd
00000280: 0a34 0bbd ef90 993d f31d be3d b97a babc
00000290: 4769 4abd 6f55 8bbb 42fb eb3d 9cd4 303e
000002a0: f909 193c 12c3 d2bd 4def 00be f266 973d
000002b0: 8076 f13d 4e3c 78bd b854 743e 196b 71bc
000002c0: 4ef1 9cbd 27f6 fabc 582c e83c 0c06 203d
000002d0: 174f cbbc c0f7 fd3d e3d0 1e3e a8e6 003d
000002e0: 38dd 07bd b492 923d 6657 983d d153 39be
000002f0: 9ea3 efbd b893 32be ba85 e2bd f367 06bb
00000300: 25de 56bd a522 773d aa40 433c d721 15bc
00000310: d5f9 1dbd c0a3 50bb 0f55 fbbd 0dc9 cebd
00000320: 229d 143e cf24 b6bd 5cf4 b83d fc0f a93c
00000330: d8c9 99be 2177 553a 1dd9 ddbc d17e 9e3d
00000340: c82c 173d 9eb0 143d dc88 7fbd 300c 4b3e
00000350: 54c4 1d3d 1a29 103d 5f68 38bd e83e 32be
00000360: 2e34 52bd dd30 8b3d c9c0 5ebd 5e15 d7bd
00000370: d122 fd3c 28e0 0bbe ee38 d8ba 5815 f13d
00000380: 7740 ec3c 6205 00bc 8052 49bd fbfd 8abd
00000390: c962 37bd 30fd b4bd 6564 033e 0053 a9bc
000003a0: 25c0 ee3c fb92 1f3d b300 913d 9507 f0bd
000003b0: 6e75 743c 2dca 5abc 3595 ac3d ba4e 8bbb
000003c0: d572 963e 9ba6 db3d 7575 45bd 4b55 1a3e
000003d0: e677 21bc a34c 37bd d702 8cbd af7f debd
000003e0: 7add ea3c d3c8 aebb 43c4 d0bd 8563 bb3d
000003f0: 7a3d 94bd c965 19be 1e3c 65bd 5821 26bd

network_body.linear_encoder.seq_layers.2.bias f4 [128]
0.0 0.0 0.0 0.0 0.0 0.0 0.0 0.0
0.0 0.0 0.0 0.0 0.0 0.0 0.0 0.0
0.0 0.0 0.0 0.0 0.0 0.0 0.0 0.0
0.0 0.0 0.0 0.0 0.0 0.0 0.0 0.0
0.0 0.0 0.0 0.0 0.0 0.0 0.0 0.0
0.0 0.0 0.0 0.0 0.0 0.0 0.0 0.0
0.0 0.0 0.0 0.0 0.0 0.0 0.0 0.0
0.0 0.0 0.0 0.0 0.0 0.0 0.0 0.0
0.0 0.0 0.0 0.0 0.0 0.0 0.0 0.0
0.0 0.0 0.0 0.0 0.0 0.0 0.0 0.0
0.0 0.0 0.0 0.0 0.0 0.0 0.0 0.0
0.0 0.0 0.0 0.0 0.0 0.0 0.0 0.0
0.0 0.0 0.0 0.0 0.0 0.0 0.0 0.0
0.0 0.0 0.0 0.0 0.0 0.0 0.0 0.0
0.0 0.0 0.0 0.0 0.0 0.0 0.0 0.0
0.0 0.0 0.0 0.0 0.0 0.0 0.0 0.0
00000000: 0000 0000 0000 0000 0000 0000 0000 0000
00000010: 0000 0000 0000 0000 0000 0000 0000 0000
00000020: 0000 0000 0000 0000 0000 0000 0000 0000
00000030: 0000 0000 0000 0000 0000 0000 0000 0000
00000040: 0000 0000 0000 0000 0000 0000 0000 0000
00000050: 0000 0000 0000 0000 0000 0000 0000 0000
00000060: 0000 0000 0000 0000 0000 0000 0000 0000
00000070: 0000 0000 0000 0000 0000 0000 0000 0000
00000080: 0000 0000 0000 0000 0000 0000 0000 0000
00000090: 0000 0000 0000 0000 0000 0000 0000 0000
000000a0: 0000 0000 0000 0000 0000 0000 0000 0000
000000b0: 0000 0000 0000 0000 0000 0000 0000 0000
000000c0: 0000 0000 0000 0000 0000 0000 0000 0000
000000d0: 0000 0000 0000 0000 0000 0000 0000 0000
000000e0: 0000 0000 0000 0000 0000 0000 0000 0000
000000f0: 0000 0000 0000 0000 0000 0000 0000 0000
00000100: 0000 0000 0000 0000 0000 0000 0000 0000
00000110: 0000 0000 0000 0000 0000 0000 0000 0000
00000120: 0000 0000 0000 0000 0000 0000 0000 0000
00000130: 0000 0000 0000 0000 0000 0000 0000 0000
00000140: 0000 0000 0000 0000 0000 0000 0000 0000
00000150: 0000 0000 0000 0000 0000 0000 0000 0000
00000160: 0000 0000 0000 0000 0000 0000 0000 0000
00000170: 0000 0000 0000 0000 0000 0000 0000 0000
00000180: 0000 0000 0000 0000 0000 0000 0000 0000
00000190: 0000 0000 0000 0000 0000 0000 0000 0000
000001a0: 0000 0000 0000 0000 0000 0000 0000 0000
000001b0: 0000 0000 0000 0000 0000 0000 0000 0000
000001c0: 0000 0000 0000 0000 0000 0000 0000 0000
000001d0: 0000 0000 0000 0000 0000 0000 0000 0000
000001e0: 0000 0000 0000 0000 0000 0000 0000 0000
000001f0: 0000 0000 0000 0000 0000 0000 0000 0000

action_model._continuous_distribution.log_sigma f4 [1, 2]
0.0 0.0
00000000: 0000 0000 0000 0000

action_model._continuous_distribution.mu.weight f4 [2, 128]
0.0010766836 0.010747685 0.022750407 0.026834032 -0.010863747 -0.0014585798 0.0041717994 -0.03341089
0.019881593 -0.008246908 0.0105032595 -0.020976415 0.02368925 0.012967912 0.019836366 0.039065078
0.013395535 0.02771475 -0.029356724 -0.02305571 0.0075953826 -0.017180687 0.023656415 0.00313362
-0.051611066 0.02707133 0.015316497 -0.002186648 -0.01104416 -0.027061105 -0.004442234 0.014607395
-0.013290285 0.026413897 0.011067267 -0.012523675 0.005906208 0.047066074 0.031048829 -0.006740001
-0.020890482 0.0119158765 0.013411467 -0.020891465 0.045921236 -0.027902225 -0.0076120086 -0.015352908
0.0013898666 -0.022706924 0.0003884555 -0.009025093 0.021663448 0.0035573896 -0.009428938 0.01487755
-0.011931315 0.0014870953 -0.0066924295 -0.022978831 -0.027231405 -0.006796357 0.0031787385 -0.006764985
-0.015104375 -0.005425569 -0.011493738 0.018561227 -0.03645263 -0.050165486 0.006595208 -0.023585033
-0.0025940414 0.018398235 0.020140728 -0.009379472 0.046280134 -0.0341456 0.0046245665 0.015894163
0.005166482 -0.010125403 -0.0076437145 0.0035897864 -0.011648558 -0.00443157 0.003087325 -0.03690051
-0.024331639 0.001275366 -0.011475857 -0.013065978 -0.008285489 0.00824265 -0.008420567 0.0027906024
-0.019332124 -0.013624014 0.007141532 -0.019874556 0.02092023 -0.009162485 -0.022513894 -0.01209561
-0.025468716 -0.024274208 -0.020638673 -0.0017448803 -0.0072551332 -0.012636023 -0.009318952 -0.0013885399
-0.023983346 0.0105168875 -0.0068973573 0.00583352 -0.028618528 -0.00724357 -0.011205821 -0.0057232697
-0.024866639 0.0020507826 -0.00793438 0.009131755 0.004546079 -0.03569531 -0.0039019042 -0.011956095
0.008681843 -0.020416742 0.005741417 0.0077704624 0.0009474622 0.0012860623 0.01956612 0.003874559
0.008272077 0.011928452 -0.007819693 0.00069527514 0.006687118 0.027116543 -0.019106459 0.008734488
0.0057528126 0.040201794 -0.016286481 0.016269874 -0.029976849 0.012586203 0.009505447 -0.004991491
0.01666145 -0.012741627 0.0041636843 -0.0027918578 -0.028455243 0.011763402 0.015399138 -0.014023783
0.007925323 -0.014196724 -0.00016579655 0.012765459 -0.046417814 -0.021392403 0.02691331 -0.010781664
-0.025920603 -0.02409898 -0.032019146 0.0043479367 -0.009446326 0.005121724 -0.0023183387 -0.0067206095
0.02789476 0.015605486 -0.02129616 0.010534903 -0.010228525 0.017375791 0.023161812 0.007438862
-0.023202328 -0.0015883213 0.025204374 -0.0024703264 -0.009347457 0.011863662 -0.015971152 -0.00090439216
-0.020527804 0.012505084 0.01591328 0.0020713925 0.015235352 -0.02455446 0.0040740017 0.009729506
-0.019393124 -0.009395487 -0.006333993 -0.011047596 -0.019544307 0.010512342 -0.031699516 0.0074242144
0.004118398 -0.012682023 -0.036900412 -0.014773673 0.0070183887 -0.021871123 -0.007246216 -0.009446547
0.0017754531 -0.006381396 0.0045551527 0.0066788257 0.009800024 0.009468575 0.001449134 -0.0038182845
0.009160459 0.011588928 -0.018383509 -0.018167837 0.006714539 0.0069555724 -0.010771363 -0.014356084
0.00811275 0.01635876 -0.017016577 -0.02431033 0.024006145 0.02174945 -0.0029592079 0.021806283
-0.010703421 0.021437949 -0.0014018501 0.027427385 0.0020183728 -0.018770827 0.03101993 0.0053630695
-0.017529292 0.016501812 0.0018717515 0.020076593 -0.0060502957 -0.01801227 -0.022322299 -0.004985611
00000000: 821f 8d3a 0f17 303c 105f ba3c 0bd3 db3c
00000010: dcfd 31bc d12d bfba 97b3 883b dbd9 08bd
00000020: b9de a23c 0a1e 07bc dd15 2c3c bbd6 abbc
00000030: f50f c23c 5d77 543c e07f a23c b402 203d
00000040: f278 5b3c 0b0a e33c 837d f0bc 54df bcbc
00000050: b0e2 f83b 83be 8cbc 19cb c13c 6b5d 4d3b
00000060: 2066 53bd b2c4 dd3c 0bf2 7a3c de4d 0fbb
00000070: 91f2 34bc 40af ddbc 2990 91bb db53 6f3c
00000080: 7fbf 59bc f561 d83c 7b53 353c 1a30 4dbc
00000090: dd88 c13b 5bc8 403d 1d5a fe3c 3adb dcbb
000000a0: 8422 abbc cf3a 433c c5bb 5b3c 9424 abbc
000000b0: e817 3c3d 3593 e4bc 286e f9bb c38a 7bbc
000000c0: 2f2c b63a df03 babc 9da9 cb39 fcdd 13bc
000000d0: 8b77 b13c 1823 693b d57b 1abc f8c0 733c
000000e0: 907b 43bc a3ea c23a 2b4c dbbb 1a3e bcbc
000000f0: 6514 dfbc fab3 debb 6252 503b cfac ddbb
00000100: 5778 77bc f9c8 b1bb 3b50 3cbc b70d 983c
00000110: 5a4f 15bd 537a 4dbd 9d1c d83b 6635 c1bc
00000120: cb00 2abb e5b7 963c 2bfe a43c 5bac 19bc
00000130: 3d90 3d3d 42dc 0bbd ad89 973b 7a34 823c
00000140: 984b a93b 05e5 25bc 2078 fabb 9f42 6b3b
00000150: 98d9 3ebc b436 91bb b854 4a3b fd24 17bd
00000160: 2553 c7bc 2f2a a73a 3c05 3cbc af12 56bc
00000170: dcbf 07bc 2e0c 073c 6bf6 09bc 8ae2 363b
00000180: 675e 9ebc 4237 5fbc 8303 ea3b f7cf a2bc
00000190: e760 ab3c 3f1e 16bc 0f6f b8bc aa2c 46bc
000001a0: c5a3 d0bc b4da c6bc 6f12 a9bc 78b4 e4ba
000001b0: 78bc edbb 5207 4fbc 85ae 18bc abff b5ba
000001c0: b978 c4bc 064f 2c3c 3a03 e2bb 1d27 bf3b
000001d0: 6771 eabc 785b edbb 9f98 37bc 448a bbbb
000001e0: 1fb5 cbbc 6c66 063b 34ff 01bc 5b9d 153c
000001f0: 46f7 943b 3f35 12bd 17b7 7fbb 7fe3 43bc
00000200: 4a3e 0e3c 0341 a7bc 7f22 bc3b 5d9f fe3b
00000210: 1d5f 783a 1791 a83a 2149 a03c 50ec 7d3b
00000220: 9b87 073c 8e6f 433c 2b1e 00bc 2043 363a
00000230: 9d1f db3b 8323 de3c 2685 9cbc 191b 0f3c
00000240: 1782 bc3b a3aa 243d 3a6b 85bc 6648 853c
00000250: 0292 f5bc 5d36 4e3c bcbc 1b3c a98f a3bb
00000260: 987d 883c 42c2 50bc 846f 883b 9af7 36bb
00000270: f81a e9bc 49bb 403c ab4c 7c3c 02c4 65bc
00000280: 37d9 013c 6099 68bc acd9 2db9 3726 513c
00000290: 9b20 3ebd 1f3f afbc 4d79 dc3c 94a5 30bc
000002a0: 7257 d4bc 396b c5bc 8226 03bd 2379 8e3b
000002b0: c3c4 1abc 23d4 a73b 45ef 17bb 8f38 dcbb
000002c0: 8d83 e43c 27ae 7f3c 4975 aebc 969a 2c3c
000002d0: 8b95 27bc ad57 8e3c d7bd bd3c b3c1 f33b
000002e0: cf12 bebc 382f d0ba 6779 ce3c 33e5 21bb
000002f0: 1426 19bc ce5f 423c efd5 82bc bb14 6dba
00000300: ed29 a8bc 20e2 4c3c 915c 823c 33c0 073b
00000310: b39d 793c 6f26 c9bc 347f 853b 8268 1f3c
00000320: 54de 9ebc 87ef 19bc 628d cfbb fa00 35bc
00000330: 621b a0bc f53b 2c3c 5ad7 01bd d346 f33b
00000340: a0f3 863b 43c8 4fbc e324 17bd 470d 72bc
00000350: 83fa e53b 122b b3bc aa71 edbb b1c5 1abc
00000360: 52b6 e83a 081b d1bb 6443 953b 0dda da3b
00000370: 4890 203c 1522 1b3c def0 bd3a 2f3c 7abb
00000380: c015 163c 7ddf 3d3c 0399 96bc b7d4 94bc
00000390: a305 dc3b 92eb e33b 5f7a 30bc c835 6bbc
000003a0: 57eb 043c ce02 863c 5966 8bbc 7526 c7bc
000003b0: 89a8 c43c e72b b23c 45ef 41bb 17a3 b23c
000003c0: 675d 2fbc a39e af3c 49be b7ba 65af e03c
000003d0: ad46 043b 47c5 99bc 821d fe3c b0bc af3b
000003e0: 9799 8fbc cf2e 873c 8f55 f53a ab77 a43c
000003f0: 8f41 c6bb 788e 93bc 41dd b6bc 565e a3bb

action_model._continuous_distribution.mu.bias f4 [2]
0.0 0.0
00000000: 0000 0000 0000 0000

network_body.linear_encoder.seq_layers.0.weight f4 [128, 6]
-0.17770393 -0.28513905 -0.6043645 -0.69318 0.3317914 0.12713574 0.3392956 -0.7614261
0.679461 0.15191078 0.22966586 0.48023987 -0.5039821 -0.1084996 0.29193336 0.14284608
0.062436566 0.2637928 -0.33702016 0.0039106165 -0.20756732 -1.0008188 0.48208207 -0.18345489
-0.61561006 0.09599978 0.1387251 -0.4734425 -0.121988155 -0.21407959 0.72124827 0.7754568
-0.30130383 -0.21549448 -0.33942437 0.08135532 0.16882043 0.5382754 0.83440137 0.10436681
-0.23712765 0.20129651 0.91780347 -0.7738502 0.36538938 0.44196388 0.74511564 0.09060251
-0.3187846 0.18194498 0.3227742 -0.11119752 -0.2663944 0.31024557 0.50584656 -0.97438496
-0.59948975 0.45019522 -0.34005663 -0.04456061 0.3213687 -0.18308452 0.22651048 0.19582817
0.26248774 -0.519599 -0.30958048 -0.8295318 -0.5112247 0.4123789 -0.39966056 0.010146751
0.24341635 -0.32437176 0.17938903 -0.15831533 0.0011001223 -0.7737132 0.4339232 -0.797526
-0.05891824 -0.28736347 -0.3543521 0.04406046 -0.13407299 0.31237417 -0.31969202 0.05473128
-0.19030571 0.45096794 -0.04816242 0.06674604 -0.35696003 0.15861075 -0.4714512 0.11130911
-0.10823735 0.54370356 0.30594343 0.22572334 -0.13995564 0.2540576 0.32929313 0.23349205
0.4749871 0.5722637 -0.35087496 -0.66945124 -0.44420406 -0.28885853 -0.38236374 0.009786261
0.5411432 0.6518587 0.15692589 0.35867563 0.55860865 0.40767348 0.3624321 -0.5171642
-0.18562159 0.66891026 -0.19297202 -0.17631176 -0.5671576 -0.23425968 -0.39504904 0.45328382
0.3965288 -0.21453242 0.37454054 0.91144043 -0.12588266 0.02726667 -0.005021487 -0.22037613
-0.11258226 -0.028237455 0.874871 0.19262563 -0.0842824 0.16494209 -0.23969288 0.28924677
-0.9191578 0.19574128 0.18972382 -0.8566737 0.18835774 -0.0862052 -0.6405384 -0.54451007
0.06672094 0.4535093 -0.13088104 -0.20150673 0.42288455 0.20826009 -0.09372144 0.40897027
0.4074429 -0.45294055 -0.071810454 0.33134666 0.2579424 -0.1401332 0.9387908 -0.69386256
-0.15327474 -0.6815815 -0.13693577 0.34892747 0.24151571 -0.58720297 0.1426706 -0.69560546
-0.2818665 0.42122895 -0.06975984 0.048000097 0.08661402 0.486896 0.22293618 0.38758102
0.019868702 0.1681438 0.5854246 0.648563 -0.22130518 -0.023123985 0.15182488 -1.2252337
0.21295395 -0.0063759224 0.0015899463 -0.48340338 -0.2577073 0.21023339 -0.24915472 -0.23832072
0.42883503 0.08491657 0.052348 -0.101022586 -0.11951622 0.051736988 -0.11265443 0.002700403
1.4117553 0.23142621 0.021091737 0.64636815 -0.37828338 -0.69548005 0.2268008 1.1002477
-0.9461921 -0.3737818 -0.35354176 -0.4164757 -0.0011553408 0.0056179734 0.2425678 -0.35893258
1.0020801 0.10595348 -0.6132817 0.3710821 -0.19306922 0.041390833 0.07980361 -0.20280991
-0.15359654 0.0059269858 0.42646432 0.3131203 0.50792295 -0.19047222 -0.4285332 -0.10912959
0.1979138 -0.21948682 0.1669869 0.7151103 -0.7326329 -0.06889714 -0.15654895 0.34998953
-0.2476946 -0.6100882 -0.04749591 -0.16836946 -0.2562776 0.07172619 0.5111664 0.6218652
00000000: 05f8 35be bffd 91be a2b7 1abf 3f74 31bf
00000010: 90e0 a93e df2f 023e 27b8 ad3e d2ec 42bf
00000020: 28f1 2d3f 808e 1b3e 872d 6b3e 00e2 f53e
00000030: f904 01bf 0a35 debd 4a78 953e 3e46 123e
00000040: 7cbd 7f3d da0f 873e e88d acbe a124 803b
00000050: 878c 54be d51a 80bf 76d3 f63e 99db 3bbe
00000060: 9f98 1dbf 889b c43d f40d 0e3e 0e67 f2be
00000070: edd4 f9bd ae37 5bbe baa3 383f 5684 463f
00000080: 7f44 9abe 96aa 5cbe 08c9 adbe 9e9d a63d
00000090: 43df 2c3e 6bcc 093f 549b 553f 44be d53d
000000a0: 97d1 72be ac20 4e3e 2bf5 6a3f 0c1b 46bf
000000b0: 5114 bb3e 1749 e23e e6bf 3e3f cf8d b93d
000000c0: bc37 a3be c94f 3a3e a942 a53e 86bb e3bd
000000d0: d964 88be 82d8 9e3e 297f 013f 4b71 79bf
000000e0: 2978 19bf fd7f e63e e71b aebe 3085 36bd
000000f0: 708a a43e 827a 3bbe 5df2 673e 2e87 483e
00000100: cb64 863e 7104 05bf 5581 9ebe 325c 54bf
00000110: 9fdf 02bf 5423 d33e 4fa0 ccbe 8f3e 263c
00000120: 2342 793e 0e14 a6be c2b1 373e 6a1d 22be
00000130: fb31 903a 1112 46bf 2f2b de3e aa2a 4cbf
00000140: 4154 71bd 4e21 93be a36d b5be be78 343d
00000150: 6e4a 09be 82ef 9f3e acae a3be e82d 603d
00000160: 80df 42be 45e5 e63e f545 45bd 26b2 883d
00000170: 77c3 b6be db6a 223e 0d62 f1be 08f6 e33d
00000180: 8bab ddbd 2830 0b3f 9ea4 9c3e 0524 673e
00000190: 8850 0fbe d613 823e 1c99 a83e 8a18 6f3e
000001a0: 8231 f33e e07f 123f e2a5 b3be 2861 2bbf
000001b0: b76e e3be 44e5 93be 2ec5 c3be 8e56 203c
000001c0: 5c88 0a3f 36e0 263f 2eb1 203e 55a4 b73e
000001d0: fa00 0f3f 94ba d03e b390 b93e df64 04bf
000001e0: 9613 3ebe b43d 2b3f 759a 45be 128b 34be
000001f0: 3e31 11bf c5e1 6fbe de43 cabe d114 e83e
00000200: d305 cb3e 63ae 5bbe c7c3 bf3e 2954 693f
00000210: 62e7 00be 5a5e df3c 498b a4bb 48aa 61be
00000220: 8791 e6bd 3c52 e7bc 8cf7 5f3f a73f 453e
00000230: 409c acbd 94e6 283e 0d72 75be 2718 943e
00000240: ed4d 6bbf 6770 483e f646 423e f84e 5bbf
00000250: dae0 403e 5a8c b0bd 53fa 23bf 0365 0bbf
00000260: fda4 883d 5f32 e83e ae05 06be c857 4ebe
00000270: 5384 d83e 2242 553e 07f1 bfbd 8d64 d13e
00000280: 5b9c d03e d3e7 e7be 5c11 93bd 45a6 a93e
00000290: 0711 843e 147f 0fbe 9854 703f faa0 31bf
000002a0: 0ef4 1cbe 207c 2ebf e438 0cbe 9fa6 b23e
000002b0: e54f 773e ef52 16bf 3e18 123e 3313 32bf
000002c0: ce50 90be 52ab d73e 3fde 8ebd c09b 443d
000002d0: b162 b13d 6f4a f93e 6249 643e 0571 c63e
000002e0: b0c3 a23c e32d 2c3e 63de 153f 3a08 263f
000002f0: d39d 62be 836e bdbc fb77 1b3e 75d4 9cbf
00000300: 9a10 5a3e 1ded d0bb bf65 d03a a680 f7be
00000310: 36f2 83be 6c47 573e 6a22 7fbe 590a 74be
00000320: 4490 db3e bde8 ad3d db6a 563d eee4 cebd
00000330: ecc4 f4bd 2aea 533d 5eb7 e6bd 3ff9 303b
00000340: 66b4 b43f fefa 6c3e 94c8 ac3c 6278 253f
00000350: 5cae c1be fb0a 32bf 783e 683e ebd4 8c3f
00000360: a539 72bf 5460 bfbe 6d03 b5be 4e3c d5be
00000370: ce6e 97ba fa16 b83b b263 783e 03c6 b7be
00000380: 2944 803f 23fe d83d 0800 1dbf 79fe bd3e
00000390: f0b3 45be 6f89 293d 1370 a33d 67ad 4fbe
000003a0: 6948 1dbe 2937 c23b 8859 da3e 4e51 a03e
000003b0: 3d07 023f 260b 43be b468 dbbe 567f dfbd
000003c0: eaa9 4a3e 27c1 60be 9dfe 2a3e 7811 373f
000003d0: d48d 3bbf f219 8dbd 5e4e 20be d431 b33e
000003e0: a7a3 7dbe be2e 1cbf 128b 42bd 0b69 2cbe
000003f0: d136 83be 2ee5 923d cddb 023f 8f32 1f3f

network_body.linear_encoder.seq_layers.0.bias f4 [128]
0.0 0.0 0.0 0.0 0.0 0.0 0.0 0.0
0.0 0.0 0.0 0.0 0.0 0.0 0.0 0.0
0.0 0.0 0.0 0.0 0.0 0.0 0.0 0.0
0.0 0.0 0.0 0.0 0.0 0.0 0.0 0.0
0.0 0.0 0.0 0.0 0.0 0.0 0.0 0.0
0.0 0.0 0.0 0.0 0.0 0.0 0.0 0.0
0.0 0.0 0.0 0.0 0.0 0.0 0.0 0.0
0.0 0.0 0.0 0.0 0.0 0.0 0.0 0.0
0.0 0.0 0.0 0.0 0.0 0.0 0.0 0.0
0.0 0.0 0.0 0.0 0.0 0.0 0.0 0.0
0.0 0.0 0.0 0.0 0.0 0.0 0.0 0.0
0.0 0.0 0.0 0.0 0.0 0.0 0.0 0.0
0.0 0.0 0.0 0.0 0.0 0.0 0.0 0.0
0.0 0.0 0.0 0.0 0.0 0.0 0.0 0.0
0.0 0.0 0.0 0.0 0.0 0.0 0.0 0.0
0.0 0.0 0.0 0.0 0.0 0.0 0.0 0.0
00000000: 0000 0000 0000 0000 0000 0000 0000 0000
00000010: 0000 0000 0000 0000 0000 0000 0000 0000
00000020: 0000 0000 0000 0000 0000 0000 0000 0000
00000030: 0000 0000 0000 0000 0000 0000 0000 0000
00000040: 0000 0000 0000 0000 0000 0000 0000 0000
00000050: 0000 0000 0000 0000 0000 0000 0000 0000
00000060: 0000 0000 0000 0000 0000 0000 0000 0000
00000070: 0000 0000 0000 0000 0000 0000 0000 0000
00000080: 0000 0000 0000 0000 0000 0000 0000 0000
00000090: 0000 0000 0000 0000 0000 0000 0000 0000
000000a0: 0000 0000 0000 0000 0000 0000 0000 0000
000000b0: 0000 0000 0000 0000 0000 0000 0000 0000
000000c0: 0000 0000 0000 0000 0000 0000 0000 0000
000000d0: 0000 0000 0000 0000 0000 0000 0000 0000
000000e0: 0000 0000 0000 0000 0000 0000 0000 0000
000000f0: 0000 0000 0000 0000 0000 0000 0000 0000
00000100: 0000 0000 0000 0000 0000 0000 0000 0000
00000110: 0000 0000 0000 0000 0000 0000 0000 0000
00000120: 0000 0000 0000 0000 0000 0000 0000 0000
00000130: 0000 0000 0000 0000 0000 0000 0000 0000
00000140: 0000 0000 0000 0000 0000 0000 0000 0000
00000150: 0000 0000 0000 0000 0000 0000 0000 0000
00000160: 0000 0000 0000 0000 0000 0000 0000 0000
00000170: 0000 0000 0000 0000 0000 0000 0000 0000
00000180: 0000 0000 0000 0000 0000 0000 0000 0000
00000190: 0000 0000 0000 0000 0000 0000 0000 0000
000001a0: 0000 0000 0000 0000 0000 0000 0000 0000
000001b0: 0000 0000 0000 0000 0000 0000 0000 0000
000001c0: 0000 0000 0000 0000 0000 0000 0000 0000
000001d0: 0000 0000 0000 0000 0000 0000 0000 0000
000001e0: 0000 0000 0000 0000 0000 0000 0000 0000
000001f0: 0000 0000 0000 0000 0000 0000 0000 0000

network_body.linear_encoder.seq_layers.2.weight f4 [128, 128]
-0.0027485879 0.09503336 -0.15778206 -0.22839135 0.025948303 0.118734635 0.0567544 -0.0040687947
0.021152476 -0.048386604 -0.11099124 -0.037841413 -0.24455082 -0.030110132 -0.0013193445 -0.107868336
-0.101441965 0.046527676 -0.14351006 -0.023346981 0.051460188 0.031892195 0.12973927 0.07695516
-0.1655044 -0.061803557 0.027210811 0.11957454 0.01423174 -0.18255307 0.06332073 -0.097038314
-0.017576257 -0.014737072 0.05621165 0.044205572 0.08391432 -0.04804722 0.05079893 -0.20032696
-0.13028958 -0.3315611 0.09835249 -0.0101979915 -0.09908296 -0.0012415957 -0.14045209 -0.027760644
0.08971982 -0.0855982 -0.0153034255 0.14919534 -0.07746883 0.030995088 -0.10454064 0.055441402
-0.14480002 -0.03802406 -0.05387465 0.10046744 0.078232326 -0.13323987 -0.0704916 -0.008766199
0.066069745 -0.039948534 -0.09392837 -0.062092707 -0.043125167 0.16364354 -0.089395575 -0.01534534
-0.061339263 -0.11460007 -0.13617569 0.11193812 -0.01761837 0.06382663 0.17944191 0.009800069
-0.00071264687 0.016379882 0.08329288 0.019369591 0.1038207 -0.08417079 0.06423376 0.11428878
0.01981747 0.06500545 0.12828104 -0.049624942 -0.045673296 0.035308044 0.059453454 -0.009498436
-0.059528533 0.07471409 -0.007955518 0.08288489 -0.10979956 0.032875266 0.14209887 -0.025695337
-0.046589445 0.024513487 -0.10820681 0.072742805 -0.04528584 -0.09194883 -0.13399506 -0.19245303
0.06475397 -0.08386064 0.17849882 -0.03770443 0.116472706 -0.19595385 -0.1297595 0.13159113
0.0912647 -0.047262214 0.09856301 -0.08128105 -0.017242013 0.009362822 0.0730207 -0.104313836
-0.017982513 0.10057316 -0.012221849 0.086379334 -0.0841074 0.00556575 0.022618353 -0.2186955
-0.05147365 -0.05536706 -0.13996248 0.03448239 -0.04052767 -0.035596345 -0.056707386 0.084736556
0.030204011 0.0042221355 0.023377541 0.025256952 0.058796484 0.035522074 -0.032918807 -0.11820289
-0.0287882 -0.120368615 -0.056796797 0.12536435 0.19575852 -0.08684168 0.01087373 0.11992894
-0.025279498 -0.050532058 0.15807018 -0.021075381 0.17888924 -0.093118064 0.012176289 -0.006067664
0.011482023 0.035514884 -0.06422943 -0.049437914 -0.049897127 0.09031864 -0.042552955 0.06515664
0.014886882 0.15501831 0.12816897 -0.060296066 0.022401012 -0.11333712 -0.028083635 0.070023544
0.0005551935 0.10512373 -0.08375132 -0.18641646 -0.040610895 -0.045654982 0.049850732 -0.16449773
0.14271325 -0.1004291 0.13625348 0.029319683 0.025932996 -0.020773396 -0.19313557 0.06579919
0.13824895 0.037233207 -0.028631212 0.104755126 -0.1659347 -0.03349712 -0.061846558 0.019124303
-0.07179211 -0.036123954 0.014000729 -0.036054764 -0.328561 0.1553954 -0.05057479 -0.09341545
-0.04293617 -0.042553294 -0.043947704 -0.020391049 0.029998835 -0.08117223 -0.055003956 -0.08927099
-0.05770574 -0.11202169 0.0715582 0.026349735 0.120646946 0.09886937 0.037276886 -0.052977353
-0.0044599525 0.1327608 0.13121554 -0.019992253 -0.06585124 0.054072477 -0.05766219 -0.0508582
0.19682172 0.05561499 -0.051432747 0.02107555 0.06494538 0.1364402 -0.11861867 0.026031695
0.11400031 0.0959819 -0.0030508388 0.2221723 0.14272618 -0.010008074 0.001342349 -0.11261617
00000000: a721 34bb daa0 c23d 9f91 21be 6cdf 69be
00000010: 8991 d43c 252b f33d 4d77 683d 8653 85bb
00000020: f547 ad3c 0831 46bd 604f e3bd 99ff 1abd
00000030: 886b 7abe 86a9 f6bc dbed acba 13ea dcbd
00000040: cec0 cfbd ce93 3e3d 4df4 12be 2b42 bfbc
00000050: ebc7 523d 64a1 023d 5fda 043e ab9a 9d3d
00000060: fc79 29be ba25 7dbd 35e9 de3c 7fe3 f43d
00000070: 3e2c 693c 31ef 3abe 4dae 813d 06bc c6bd
00000080: 15fc 8fbc c373 71bc 303e 663d e710 353d
00000090: 45db ab3d 29cd 44bd 8a12 503d 8322 4dbe
000000a0: a26a 05be 60c2 a9be 086d c93d 7a15 27bc
000000b0: 02ec cabd 0abd a2ba acd2 0fbe 4a6a e3bc
000000c0: 06bf b73d 1c4e afbd 38bb 7abc aac6 183e
000000d0: faa7 9ebd 69e9 fd3c 6719 d6bd 8616 633d
000000e0: 7546 14be 1ebf 1bbd aaab 5cbd e0c1 cd3d
000000f0: 4538 a03d 0870 08be e65d 90bd 1ba0 0fbc
00000100: 934f 873d 13a1 23bd 845d c0bd ec54 7ebd
00000110: 04a4 30bd 2c92 273e 0715 b7bd 056b 7bbc
00000120: e13e 7bbd 71b3 eabd a471 0bbe d03f e53d
00000130: 6654 90bc 89b7 823d 9fbf 373e 7890 203c
00000140: ecd0 3aba 1a2f 863c 7595 aa3d faac 9e3c
00000150: f29f d43d bc61 acbd fd8c 833d 3c10 ea3d
00000160: 3f58 a23c 9421 853d 1b5c 033e 8643 4bbd
00000170: ec13 3bbd 2b9f 103d 7785 733d 549f 1bbc
00000180: 31d4 73bd b303 993d dc57 02bc 8ebf a93d
00000190: 97de e0bd 37a8 063d 5e82 113e 077f d2bc
000001a0: 93d4 3ebd 82d0 c83c 889b ddbd 2efa 943d
000001b0: a57d 39bd ab4f bcbd 0036 09be 6812 45be
000001c0: bb9d 843d 21bf abbd 65c8 363e f66f 1abd
000001d0: 3e89 ee3d 20a8 48be addf 04be d3bf 063e
000001e0: fde8 ba3d 0696 41bd 67db c93d ae76 a6bd
000001f0: 1f3f 8dbc 8666 193c e08b 953d 7ea2 d5bd
00000200: 1050 93bc 4df9 cd3d 263e 48bc a6e7 b03d
00000210: 8040 acbd e560 b63b 204a b93c b7f1 5fbe
00000220: 09d6 52bd 92c8 62bd 5352 0fbe 683d 0d3d
00000230: 5800 26bd 79cd 11bd 0146 68bd 5c8a ad3d
00000240: 676e f73c d759 8a3b 4282 bf3c abe7 ce3c
00000250: 95d4 703d 987f 113d dfd5 06bd 5b14 f2bd
00000260: 3bd5 ebbc d283 f6bd c2a3 68bd 835f 003e
00000270: ec74 483e 0dda b1bd bb27 323c 4e9d f53d
00000280: f316 cfbc b4fa 4ebd 26dd 213e 47a6 acbc
00000290: be2e 373e afb4 bebd 0f7f 473c 41d3 c6bb
000002a0: 181f 3c3c 0e78 113d b88a 83bd 697f 4abd
000002b0: ee60 4cbd fbf8 b83d 024c 2ebd d870 853d
000002c0: 1ce8 733c 1fbd 1e3e ba3e 033e 02f9 76bd
000002d0: 5482 b73c 4b1d e8bd a70f e6bc 8168 8f3d
000002e0: 688a 113a 1c4b d73d d085 abbd f5e3 3ebe
000002f0: 9c57 26bd b800 3bbd 4830 4c3d 1872 28be
00000300: 6c23 123e c6ad cdbd 0886 0b3e d52f f03c
00000310: 6f71 d43c f82c aabc 55c5 45be bac1 863d
00000320: 2291 0d3e d981 183d 018c eabc db89 d63d
00000330: c9ea 29be 4734 09bd d152 7dbd 92aa 9c3c
00000340: be07 93bd b6f6 13bd 5063 653c 29ae 13bd
00000350: 2639 a8be f91f 1f3e 8327 4fbd 9950 bfbd
00000360: d6dd 2fbd 5d4c 2ebd 8202 34bd 210b a7bc
00000370: 1ec0 f53c a03d a6bd d44b 61bd b5d3 b6bd
00000380: db5c 6cbd a16b e5bd 1b8d 923d 66db d73c
00000390: bf15 f73d 067c ca3d a6af 183d c8fe 58bd
000003a0: cb24 92bb 72f2 073e 5e5d 063e cbc6 a3bc
000003b0: 04dd 86bd 1a7b 5d3d 302f 6cbd b050 50bd
000003c0: a28b 493e 8bcc 633d 25ab 52bd a2a6 ac3c
000003d0: 1502 853d fbb6 0b3e 58ee f2bd 6c40 d53c
000003e0: ff78 e93d 2992 c43d 95f0 47bb 2381 633e
000003f0: d026 123e e8f8 23bc c2f1 af3a 4ea3 e6bd

network_body.linear_encoder.seq_layers.2.bias f4 [128]
0.0 0.0 0.0 0.0 0.0 0.0 0.0 0.0
0.0 0.0 0.0 0.0 0.0 0.0 0.0 0.0
0.0 0.0 0.0 0.0 0.0 0.0 0.0 0.0
0.0 0.0 0.0 0.0 0.0 0.0 0.0 0.0
0.0 0.0 0.0 0.0 0.0 0.0 0.0 0.0
0.0 0.0 0.0 0.0 0.0 0.0 0.0 0.0
0.0 0.0 0.0 0.0 0.0 0.0 0.0 0.0
0.0 0.0 0.0 0.0 0.0 0.0 0.0 0.0
0.0 0.0 0.0 0.0 0.0 0.0 0.0 0.0
0.0 0.0 0.0 0.0 0.0 0.0 0.0 0.0
0.0 0.0 0.0 0.0 0.0 0.0 0.0 0.0
0.0 0.0 0.0 0.0 0.0 0.0 0.0 0.0
0.0 0.0 0.0 0.0 0.0 0.0 0.0 0.0
0.0 0.0 0.0 0.0 0.0 0.0 0.0 0.0
0.0 0.0 0.0 0.0 0.0 0.0 0.0 0.0
0.0 0.0 0.0 0.0 0.0 0.0 0.0 0.0
00000000: 0000 0000 0000 0000 0000 0000 0000 0000
00000010: 0000 0000 0000 0000 0000 0000 0000 0000
00000020: 0000 0000 0000 0000 0000 0000 0000 0000
00000030: 0000 0000 0000 0000 0000 0000 0000 0000
00000040: 0000 0000 0000 0000 0000 0000 0000 0000
00000050: 0000 0000 0000 0000 0000 0000 0000 0000
00000060: 0000 0000 0000 0000 0000 0000 0000 0000
00000070: 0000 0000 0000 0000 0000 0000 0000 0000
00000080: 0000 0000 0000 0000 0000 0000 0000 0000
00000090: 0000 0000 0000 0000 0000 0000 0000 0000
000000a0: 0000 0000 0000 0000 0000 0000 0000 0000
000000b0: 0000 0000 0000 0000 0000 0000 0000 0000
000000c0: 0000 0000 0000 0000 0000 0000 0000 0000
000000d0: 0000 0000 0000 0000 0000 0000 0000 0000
000000e0: 0000 0000 0000 0000 0000 0000 0000 0000
000000f0: 0000 0000 0000 0000 0000 0000 0000 0000
00000100: 0000 0000 0000 0000 0000 0000 0000 0000
00000110: 0000 0000 0000 0000 0000 0000 0000 0000
00000120: 0000 0000 0000 0000 0000 0000 0000 0000
00000130: 0000 0000 0000 0000 0000 0000 0000 0000
00000140: 0000 0000 0000 0000 0000 0000 0000 0000
00000150: 0000 0000 0000 0000 0000 0000 0000 0000
00000160: 0000 0000 0000 0000 0000 0000 0000 0000
00000170: 0000 0000 0000 0000 0000 0000 0000 0000
00000180: 0000 0000 0000 0000 0000 0000 0000 0000
00000190: 0000 0000 0000 0000 0000 0000 0000 0000
000001a0: 0000 0000 0000 0000 0000 0000 0000 0000
000001b0: 0000 0000 0000 0000 0000 0000 0000 0000
000001c0: 0000 0000 0000 0000 0000 0000 0000 0000
000001d0: 0000 0000 0000 0000 0000 0000 0000 0000
000001e0: 0000 0000 0000 0000 0000 0000 0000 0000
000001f0: 0000 0000 0000 0000 0000 0000 0000 0000

value_heads.value_heads.extrinsic.weight f4 [1, 128]
0.14430661 -0.10587593 -0.19476862 -0.06597215 0.12252322 -0.064884044 -0.18946108 -0.1344649
-0.08836117 0.11629251 -0.14514814 -0.2122813 0.0043774517 -0.11749289 0.061571367 -0.06360671
-0.12405685 -0.03367706 -0.018193481 0.17960334 -0.18640684 0.07021441 -0.021484984 -0.16985773
0.15328136 -0.17948183 -0.02661428 -0.09384688 0.08202379 -0.046359975 0.15568644 0.0150026325
0.13498783 -0.07072586 -0.083045326 0.14246461 -0.19927223 0.07900497 -0.03786938 -0.11495721
0.17111082 -0.12513198 0.110572465 0.0069346568 0.124259524 0.06007349 -0.19416112 -0.05165921
0.055272195 0.18228555 -0.19023241 0.17040347 0.17783497 0.17201968 -0.108062215 -0.052250884
-0.12749247 -0.17620362 -0.1822947 -0.21025905 -0.20496362 -0.003146013 0.072931215 -0.12084168
0.026111329 -0.08852105 -0.036098093 -0.12824826 0.12040598 0.15049136 0.046992864 -0.09019725
0.12551841 -0.01583037 0.14197575 -0.16861713 0.20932285 -0.020890623 -0.1816489 -0.021737989
-0.09888612 0.17558476 0.1651491 0.0109038185 -0.14693241 0.11722378 0.18036392 -0.07193603
-0.13233893 0.19329064 -0.04367556 0.00021179352 -0.10252877 -0.12564456 -0.13456653 -0.20959882
0.16171828 -0.0704732 -0.14746673 0.20319621 -0.0012733449 0.15837322 0.027068486 0.034227766
-0.04723543 -0.019407233 0.011213076 0.19633323 0.11866296 0.20614253 0.07489446 -0.029178863
-0.1681914 -0.07821098 0.088791646 -0.11150632 -0.10734719 -0.14601573 -0.16082944 -0.13614418
-0.11764793 -0.2123014 -0.07957788 0.1527622 0.09634471 -0.20642383 0.13333279 -0.20516674
00000000: 1dc5 133e 7bd5 d8bd 6d71 47be 681c 87bd
00000010: 74ed fa3d ede1 84bd 1602 42be 2bb1 09be
00000020: b3f6 b4bd c42a ee3d b7a1 14be 4560 59be
00000030: ba70 8f3b 1da0 f0bd 4232 7c3d 3c44 82bd
00000040: 8511 febd f5f0 09bd 7f0a 95bc f0e9 373e
00000050: 6fe1 3ebe 93cc 8f3d 4701 b0bc 2fef 2dbe
00000060: caf5 1c3e 16ca 37be 3106 dabc cb32 c0bd
00000070: 17fc a73d f5e3 3dbd 446c 1f3e 9acd 753c
00000080: 403a 0a3e b8d8 90bd ab13 aabd 3ee2 113e
00000090: 050e 4cbe 5ccd a13d ec1c 1bbd b06e ebbd
000000a0: ad37 2f3e 9922 00be d173 e23d 1e3c e33b
000000b0: c77b fe3d 9f0f 763d 2cd2 46be 9c98 53bd
000000c0: 1965 623d 10a9 3a3e 49cc 42be 3f7e 2e3e
000000d0: 5f1a 363e ed25 303e b94f ddbd 0605 56bd
000000e0: 638d 02be b96e 34be 76ab 3abe 264e 57be
000000f0: fce1 51be 572d 4ebb f65c 953d d87b f7bd
00000100: 6de7 d53c 864a b5bd 98db 13bd 8353 03be
00000110: 6997 f63d 681a 1a3e 977b 403d 56b9 b8bd
00000120: e687 003e b1ae 81bc 1762 113e f8a9 2cbe
00000130: bb58 563e d022 abbc 2b02 3abe de13 b2bc
00000140: ce84 cabd 7ecc 333e d81c 293e eea5 323c
00000150: 7375 16be 0513 f03d 52b1 383e 3353 93bd
00000160: db83 07be fbed 453e 25e5 32bd e414 5e39
00000170: 9bfa d1bd f8a8 00be cfcb 09be 13a1 56be
00000180: 7a99 253e 4154 90bd 8501 17be ab12 503e
00000190: 5de6 a6ba 972c 223e bbbe dd3c 6a32 0c3d
000001a0: f079 41bd ebfb 9ebc 0db7 373c 940b 493e
000001b0: 9105 f33d 0717 533e 4462 993d 8308 efbc
000001c0: 5e3a 2cbe 142d a0bd 65d8 b53d 6d5d e4bd
000001d0: d8d8 dbbd 2685 15be 79b0 24be 6169 0bbe
000001e0: 66f1 f0bd 8a65 59be baf9 a2bd b26d 1c3e
000001f0: 6050 c53d c560 53be 6488 083e 3b17 52be
