results/ppo/My Behavior/My Behavior-43470.pt (torch, 448479 bytes, 36 tensors)

network_body.linear_encoder.seq_layers.0.weight f4 [128, 9]
0	0xbd38cc5e	-0.045116775
1	0xbc1b4089	-0.009475836
2	0xbe8fca9c	-0.28084266
3	0x3eceb8fc	0.40375507
4	0xbe500a32	-0.20316389
5	0xbe20e50b	-0.15712373
6	0x3d996211	0.07489408
7	0xbda62378	-0.08112234
8	0xbe5910dc	-0.21197838
9	0x3f2b7712	0.6697856
10	0x3d9a89e9	0.075458355
11	0x3e2893f1	0.16462685
12	0x3e165ff6	0.14685044
13	0x3dec33bb	0.11533304
14	0xbda8b1f4	-0.08237067
15	0x3ec3f0b4	0.3826958
16	0xbf0ff215	-0.5622876
17	0xbd427bff	-0.047481533
18	0x3dbf42fa	0.09338947
19	0x3f135615	0.57553226
20	0xbe80777b	-0.25091156
21	0x3e22b07a	0.15887633
22	0xbe93db3e	-0.28878206
23	0xbdc4caf1	-0.096090205
24	0xbe916ecb	-0.2840484
25	0xbeb18993	-0.34675273
26	0xbe7bacb3	-0.24577598
27	0x3ecededb	0.404044
28	0x3e663028	0.22479308
29	0xbe40a03c	-0.18811125
30	0xbe127ca1	-0.14305355
31	0x3eacba91	0.3373609
32	0x3e8aa812	0.27081352
33	0xbdbe501c	-0.092926234
34	0x3df8a304	0.12140468
35	0xbe132451	-0.14369322
36	0x3ef6af3b	0.48180565
37	0xbd41e4ec	-0.047337458
38	0xbf108f3a	-0.56468546
39	0xbd468fc5	-0.048476953
40	0x3f5d3b53	0.86418647
41	0x3e8d67ec	0.2761835
42	0x3ea803a4	0.32815278
43	0x3ee3dab6	0.445028
44	0xbdeae071	-0.1146859
45	0x3e3dbc57	0.18528877
46	0xbd8a2e44	-0.06747106
47	0x3c8b184a	0.016979355
48	0xbe32576c	-0.17416161
49	0xbd88b92b	-0.06675943
50	0x3dc1cca4	0.0946286
51	0x3e93f19b	0.28895268
52	0xbdd60b92	-0.104514256
53	0x3e26d88a	0.1629354
54	0x3dfecbd0	0.12441218
55	0xbdfff97a	-0.12498756
56	0x3edf0d84	0.43565
57	0xbb76d75c	-0.0037664985
58	0x3ef705ac	0.48246515
59	0x3daa7318	0.08322734
60	0xbe764d35	-0.2405289
61	0x3ed58ffa	0.41711408
62	0xbe29d381	-0.16584589
63	0x3f30f28f	0.69120115
64	0x3e4ec2b9	0.20191468
65	0x3ce3fd47	0.027830733
66	0xbe1ba65f	-0.15200184
67	0x3d78eaf3	0.06077094
68	0x3efeb426	0.49746817
69	0xbd9696b5	-0.07352964
70	0x3e344f15	0.17608292
71	0xbeddc55a	-0.4331463
72	0x3cf3ed37	0.029776199
73	0x3de2d649	0.11076028
74	0x3ea540a0	0.32275867
75	0xbe8b054c	-0.2715248
76	0xbededfc9	-0.4353011
77	0xbc350d76	-0.011050573
78	0x3f0d9c77	0.5531687
79	0xbdbc67d0	-0.09199488
80	0x3e99ee09	0.3006442
81	0xbd826d93	-0.06368556
82	0x3e993d57	0.2992961
83	0xbd5ffe08	-0.054685622
84	0xbd8ab867	-0.06773453
85	0xbe3bee14	-0.18352538
86	0x3f20228c	0.62552714
87	0xbe25e13f	-0.16199206
88	0xbe48b698	-0.19600904
89	0xbda67a6a	-0.081288174
90	0xbd961f23	-0.073301576
91	0x3ea9271b	0.33037648
92	0xbdb89033	-0.09011879
93	0xbe4da187	-0.20081149
94	0xbec76a13	-0.38948116
95	0xbefda791	-0.49541906
96	0x3e7a43a0	0.2443986
97	0xbeca0cf2	-0.39463
98	0xbcfe9516	-0.03107695
99	0xbec6cc8c	-0.38827932
100	0x3e86a419	0.26297072
101	0xbe02c268	-0.12769473
102	0x3e04b96e	0.12961361
103	0x3e93a0b4	0.28833544
104	0x3e204e52	0.15654877
105	0xbf3851a4	-0.71999574
106	0xbee4cc5f	-0.44687173
107	0xbe0cd91b	-0.13754694
108	0xbe3bb933	-0.18332367
109	0xbe0cecb8	-0.13762176
110	0x3dc321de	0.09527944
111	0x3c156a1f	0.0091195395
112	0x3e89d310	0.2691884
113	0x3eb5022b	0.35353217
114	0xbe900539	-0.28128985
115	0xbe987dbf	-0.29783437
116	0xbe2f7862	-0.17135766
117	0xbda23364	-0.07919958
118	0x3e5237f3	0.20529155
119	0x3ef77842	0.48333937
120	0x3ec3c758	0.38238025
121	0x3e19b224	0.15009362
122	0xbe6eaaf3	-0.233074
123	0x3e10740f	0.14106773
124	0xbf21efb5	-0.6325639
125	0x3e7044d3	0.23463754
126	0x3ef07d53	0.46970615
127	0x3ec6dbcb	0.38839564
128	0xbeb47db8	-0.35252166
129	0xbec30207	-0.38087484
130	0x3f31ab5a	0.69402087
131	0xbec32793	-0.3811613
132	0xbdc26ba0	-0.09493184
133	0xbe8790b5	-0.2647759
134	0x3eb65895	0.35614458
135	0xbeb89465	-0.36050716
136	0xbd10c95d	-0.035348285
137	0x3e8d0c8a	0.2754863
138	0x3e851946	0.25995845
139	0x3e1fe805	0.15615852
140	0x3e3b5b57	0.18296562
141	0xbe80300c	-0.25036657
142	0x3e9aba5a	0.302203
143	0xbecbf99a	-0.39838868
144	0x3e32b52f	0.17451929
145	0x3ed8e728	0.42363858
146	0xbf151b61	-0.582449
147	0xbf4ee70f	-0.8082132
148	0x3d6162c4	0.05502583
149	0xbdadbc33	-0.08483162
150	0x3e0f5ae0	0.1399951
151	0x3f226d95	0.6344846
152	0xbea6d616	-0.3258521
153	0x3f36417f	0.7119369
154	0x3de7f6d6	0.11326377
155	0xbf2912bd	-0.6604422
156	0xbeed6e33	-0.46373138
157	0x3ec75d61	0.3893843
158	0xbe6ab1b0	-0.22919345
159	0xbcfa4ff6	-0.030555706
160	0x3f0e9b46	0.5570568
161	0xbcb420c9	-0.02198829
162	0xbece6374	-0.40310252
163	0x3e0ed554	0.13948566
164	0x3e290237	0.16504751
165	0xbea0e680	-0.31425858
166	0x3f1f9c0f	0.623475
167	0xbd859f15	-0.06524483
168	0xbe36f95a	-0.17868558
169	0x3e29f1f0	0.16596198
170	0x3cfc623c	0.03080856
171	0xbe725d4e	-0.23668405
172	0xbdf17dc2	-0.117915645
173	0x3ebe8f28	0.37218595
174	0xbe3bda3e	-0.18344972
175	0x3ed7801e	0.42089933
176	0x3eed64a2	0.4636584
177	0xbb30f7b9	-0.0027003123
178	0xbe8a9a5f	-0.270709
179	0x3c1b79fa	0.009489531
180	0x3ea710a8	0.32629895
181	0x3cbec686	0.023288023
182	0x3d6b25e3	0.05740918
183	0x3def2ca5	0.11678437
184	0x3f087e13	0.53317374
185	0xbe8f3b36	-0.27974862
186	0x3eee5c21	0.46554664
187	0x3f144ba8	0.5792794
188	0x3e0dd622	0.13851216
189	0x3d465bd3	0.048427414
190	0x3e0d7957	0.13815819
191	0xbf0724ba	-0.52790415
192	0xbdd20156	-0.10254161
193	0x3e3ea596	0.18617854
194	0x3d72405b	0.059143405
195	0x3e6fc0aa	0.2341334
196	0xbf09230d	-0.5356911
197	0x3e3dc9dd	0.18534036
198	0xbdf8fd26	-0.12157659
199	0x3e7e8dae	0.24858734
200	0xbe07b66f	-0.13253187
201	0xbd6529c7	-0.055948045
202	0x3ecc712a	0.39930087
203	0x3e80d2fd	0.2516097
204	0xbef09126	-0.4698574
205	0x3e950f2c	0.29113138
206	0x3e080ccb	0.1328613
207	0xbe2f924f	-0.17145656
208	0x3f12b3bb	0.57305497
209	0x3f0b5509	0.5442663
210	0xbde926ac	-0.11384329
211	0xbebc91ee	-0.36830086
212	0xbe9979ee	-0.29975837
213	0x3f3de50c	0.7417762
214	0xbdd9fbe0	-0.106437445
215	0x3de33f82	0.110960975
216	0x3e8320c0	0.25610924
217	0x3ef08823	0.46978864
218	0x3d083b33	0.03325958
219	0xbd2263ed	-0.039646078
220	0x3f0aa17b	0.5415265
221	0xbc307cf8	-0.010771982
222	0x3cafb044	0.021446355
223	0xbea17f31	-0.31542352
224	0xbe98934d	-0.29799882
225	0x3d4d4806	0.050117515
226	0xbf7d25b6	-0.9888567
227	0xbe8fe41b	-0.28103718
228	0xbbedd605	-0.007258179
229	0x3eb1e229	0.3474286
230	0xbead202a	-0.33813602
231	0x3f14ba83	0.58097094
232	0x3daf173b	0.08549353
233	0x3cfe5dd0	0.031050593
234	0x3ebb836f	0.36623713
235	0xbe05688a	-0.1302816
236	0xbf1c4386	-0.6104053
237	0xbb8fb5c0	-0.00438568
238	0x3f8de82f	1.1086482
239	0xbdffe521	-0.12494875
240	0x3ed67ec3	0.41893587
241	0xbe8b2d87	-0.27183172
242	0xbdd72092	-0.10504259
243	0xbe9878f6	-0.29779786
244	0xbdd20093	-0.10254016
245	0x3ed6635d	0.41872683
246	0x3d397b76	0.045283757
247	0x3ee797d6	0.4523303
248	0x3ec35335	0.3814942
249	0xbf6364c5	-0.8882564
250	0xbe6b54c3	-0.22981553
251	0xbf0af4f9	-0.5428005
252	0x3e3ba368	0.18324053
253	0x3e3070f0	0.17230582
254	0xbe923d4a	-0.28562385
255	0x3e941970	0.28925657

network_body.linear_encoder.seq_layers.0.bias f4 [128]
0	0x3b27b2dc	0.0025588786
1	0xb87040d0	-5.728082e-05
2	0xbb27e63f	-0.0025619415
3	0xbb201703	-0.0024427779
4	0x3a1190a5	0.0005552865
5	0xb8d1d05f	-0.00010004709
6	0xb9c1072f	-0.0003681718
7	0x3a2dcd55	0.0006630023
8	0xba26cd4a	-0.0006362988
9	0xb9f13c80	-0.00046012178
10	0xb9f73917	-0.00047154046
11	0xbac13212	-0.0014739654
12	0xba7aec34	-0.000957194
13	0x3a03de08	0.00050303387
14	0x3a806c89	0.0009797971
15	0xb98442b6	-0.00025226705
16	0xbb1380b2	-0.0022507128
17	0xbaf4d065	-0.0018677829
18	0xba7872fc	-0.0009477583
19	0x3972283f	0.00023093911
20	0x3a8127e2	0.0009853805
21	0xbb5f2761	-0.0034050571
22	0xb9b12e68	-0.00033794646
23	0xb981c325	-0.0002475019
24	0xba97a458	-0.0011569364
25	0xb9ed464a	-0.00045256532
26	0x39d1fa72	0.00040050183
27	0x39474f38	0.0001900763
28	0x3b1b6c89	0.0023715815
29	0x3a15dea3	0.00057170744
30	0xb8c0a06a	-9.185153e-05
31	0xba6f0e13	-0.00091192237
32	0x3a65cf39	0.00087665353
33	0xba262338	-0.00063376455
34	0xbb4a85b4	-0.0030902447
35	0xb953a860	-0.00020185253
36	0xba66bd7f	-0.0008802041
37	0x3a4c40c1	0.00077916315
38	0xbb839a24	-0.0040161777
39	0xb9a56189	-0.00031543922
40	0x39289e01	0.0001608059
41	0x3b090298	0.0020906087
42	0x3a019b0b	0.00049440627
43	0xbb0d1316	-0.0021526269
44	0x3a602ba3	0.0008551424
45	0xbb902831	-0.0043993224
46	0xba77ece0	-0.00094575994
47	0x3a680b2d	0.0008851763
48	0xba566a59	-0.0008179299
49	0xba06d16c	-0.00051429006
50	0xbae00429	-0.0017091084
51	0x388e107d	6.774159e-05
52	0xbafe1b74	-0.0019386844
53	0x39f9611b	0.0004756533
54	0xba1863d5	-0.0005813216
55	0xb9f8c3b3	-0.00047448053
56	0xbb2e2579	-0.0026572628
57	0x39cdec50	0.00039276714
58	0xbaba474a	-0.001421192
59	0x3a28769a	0.00064263644
60	0xbb02c456	-0.001995345
61	0x3a3f803f	0.0007305182
62	0x3972a5a5	0.00023140626
63	0xbab71a28	-0.0013969587
64	0xba18088c	-0.00057996134
65	0xba4fd701	-0.00079284614
66	0xba24ec8e	-0.0006291353
67	0xba988b99	-0.0011638283
68	0xbb244054	-0.0025062757
69	0xb7c40cf6	-2.3371056e-05
70	0x393d6aea	0.00018064273
71	0xbb5d08ce	-0.0033727172
72	0x3a06f4d0	0.0005148174
73	0xbab7345b	-0.0013977395
74	0xbbb5aadd	-0.00554405
75	0xbb8d787b	-0.004317341
76	0xb9f13d68	-0.00046012853
77	0xba62ba15	-0.0008648944
78	0x3a131fa1	0.0005612318
79	0xbb74cb15	-0.0037352492
80	0x3946fe72	0.0001897754
81	0xbb26b05d	-0.002543471
82	0xbb956fda	-0.004560453
83	0x3901af2f	0.0001236766
84	0xb92293ed	-0.0001550463
85	0xba77e999	-0.0009457111
86	0xb9c1e050	-0.00036978954
87	0x3a5e6fbd	0.0008485278
88	0xbb00d669	-0.0019659048
89	0xb96a91cf	-0.00022370297
90	0xb9f16793	-0.0004604427
91	0x3b629aec	0.0034577204
92	0xbaceccb8	-0.0015777564
93	0xb8b3f895	-8.581687e-05
94	0x39a26167	0.00030971618
95	0xbbc8ab22	-0.0061239162
96	0xb9f56b7f	-0.00046810132
97	0x3a32ac26	0.0006815813
98	0xbb40f194	-0.0029440867
99	0xba84bf89	-0.0010127883
100	0xba175f81	-0.0005774424
101	0xbab7cb78	-0.001402243
102	0xb8bd3022	-9.021188e-05
103	0xbb5b3607	-0.003344895
104	0x3896f87a	7.19884e-05
105	0x3a7477e2	0.0009325725
106	0x39436016	0.00018632444
107	0xbb4fcad4	-0.0031706588
108	0xbac7663c	-0.0015212963
109	0xb94c51a7	-0.00019485374
110	0xbacbc62c	-0.0015546731
111	0xba1b90c1	-0.0005934351
112	0xb9055d92	-0.00012718726
113	0xb9423f41	-0.00018524846
114	0xba28c188	-0.000643753
115	0x39cc042d	0.00038913023
116	0xbaf2d6a3	-0.0018527101
117	0xba4bf0ea	-0.00077797344
118	0xb993efcc	-0.00028216687
119	0x38393cf0	4.416419e-05
120	0xbb8559b1	-0.00406953
121	0xbacc6888	-0.0015595118
122	0xb9b50a6d	-0.00034530778
123	0xb921c6e4	-0.00015428249
124	0xba694ea3	-0.00088999624
125	0x3b2d25c9	0.0026420227
126	0x3b267519	0.0025399385
127	0xbad59eb5	-0.0016297909

network_body.linear_encoder.seq_layers.2.weight f4 [128, 128]
0	0x3dd13eca	0.10217054
1	0x3d7aaf4e	0.06120234
2	0x3e2e6b07	0.17033015
3	0x3d92409b	0.07141229
4	0x3e2ce00e	0.16882345
5	0x3e8bda45	0.27314964
6	0xbc9f2c9a	-0.019430447
7	0x3d4b1c60	0.049587607
8	0xbd416cca	-0.04722289
9	0x3d800fbb	0.06253
10	0x3d7662bd	0.060152758
11	0xbd258890	-0.04041344
12	0xbdc79eee	-0.0974711
13	0x3e449bab	0.19200008
14	0x3d8beede	0.0683267
15	0x3e2f9b44	0.17149073
16	0xbda19957	-0.078905754
17	0xbe08df9f	-0.13366555
18	0x3dea2193	0.11432185
19	0xbc1410d2	-0.009037213
20	0x3c117b02	0.008879425
21	0x3e4d9f2a	0.20080248
22	0x3d7bb1c9	0.061448846
23	0xbc84079a	-0.016116906
24	0x3d7f5975	0.062341172
25	0x3e1f9be2	0.15586808
26	0xbc843e05	-0.016142854
27	0xbaa883ea	-0.0012856696
28	0xbddef376	-0.1088628
29	0x3d3f5afd	0.046717633
30	0xbc8bd7a0	-0.017070591
31	0x3e12e315	0.14344437
32	0xbccc0d07	-0.024908556
33	0xbdb7426a	-0.08948214
34	0x3ba719f2	0.0050995285
35	0xbda293e7	-0.079383664
36	0xbd473fa8	-0.04864469
37	0xbbd93dee	-0.006629697
38	0xbc89ddf3	-0.016829466
39	0xbc84cf4b	-0.016212126
40	0xbd19a383	-0.037509453
41	0xbdf47882	-0.119370475
42	0xbde9a811	-0.11409009
43	0xbddc5894	-0.107590824
44	0x3c6ba280	0.014382005
45	0xbdb7eb6c	-0.0898045
46	0xbdf51806	-0.11967473
47	0xbdec035b	-0.115240775
48	0xb906f061	-0.00012868784
49	0xbd4692cf	-0.04847985
50	0x3c73dab2	0.014883684
51	0xbdf563bf	-0.11981916
52	0x3d024a10	0.031808913
53	0xbd08e1d6	-0.0334185
54	0x3d3569dc	0.04429041
55	0x3d371f8d	0.044707824
56	0x3dfde212	0.12396635
57	0x3cf007a0	0.02930051
58	0xbe0148a0	-0.1262536
59	0x3cb11f3d	0.02162134
60	0x3bb5d335	0.0055488595
61	0xbe30e22d	-0.17273779
62	0xbe2e4404	-0.17018133
63	0x3d91d489	0.07120616
64	0xbcc735cd	-0.024317646
65	0xbc72d300	-0.014820814
66	0xbd11ef99	-0.03562889
67	0xbd4536cd	-0.048147965
68	0x3cdb57de	0.026775297
69	0xbe8230dc	-0.25427902
70	0x3db6ce0c	0.08926019
71	0x3d096f33	0.033553313
72	0x3cc4186a	0.023937423
73	0x3b6cf862	0.003615879
74	0x3e04ec1a	0.1298069
75	0xbd8a16c4	-0.067426234
76	0x3bf5634b	0.0074886433
77	0x3e098ab2	0.13431814
78	0x3c29dc1a	0.010367418
79	0x3b83a4e4	0.004017459
80	0x3d7f4976	0.062325917
81	0xbe195634	-0.1497429
82	0x3b089f08	0.0020846743
83	0xbd0da21c	-0.034578428
84	0x3d947bb5	0.07250158
85	0x3d0568bf	0.032570597
86	0x3db1e84c	0.08686885
87	0x3c678889	0.014131674
88	0xbcce4357	-0.025178595
89	0xbe1748ff	-0.1477394
90	0x3df81236	0.121128485
91	0xbcc67a9e	-0.02422839
92	0x3deb1904	0.11479381
93	0xbd100bbd	-0.035167444
94	0x3e2c3321	0.16816379
95	0xbd71349d	-0.058888067
96	0xbd171a7a	-0.036890484
97	0xbd3bd1d5	-0.04585441
98	0x3cf8d98d	0.030377174
99	0xbda2b294	-0.07944217
100	0xbdb9d2a0	-0.09073377
101	0x3e1d39d6	0.15354094
102	0x3d78b24e	0.06071692
103	0x3d963095	0.07333485
104	0x3da3ea0a	0.08003624
105	0xbe27e186	-0.16394624
106	0x3db55893	0.08854785
107	0xbd05c105	-0.03265478
108	0xbc857d5d	-0.01629513
109	0x3cb76337	0.022386177
110	0xba99724d	-0.0011707038
111	0xbd51e56b	-0.05124418
112	0x3c300deb	0.010745506
113	0xbd2c13ad	-0.04201095
114	0xbdca5c4d	-0.09880886
115	0xbda9581e	-0.0826876
116	0xbc9f167b	-0.0194199
117	0xbd6d33a4	-0.057910576
118	0xbd9e3e7f	-0.07726764
119	0x3d84b1ea	0.06479247
120	0xbdd9fb10	-0.106435895
121	0x3daf2e93	0.08553805
122	0xbd9c4bf0	-0.076316714
123	0x3d371942	0.044701822
124	0xbd90ba3c	-0.070667714
125	0xbd21097b	-0.039315682
126	0x3c57eaea	0.0131785665
127	0xbdffc4d7	-0.12488716
128	0xba3c1ea0	-0.00071761943
129	0xbe843343	-0.2582036
130	0x3ddae45f	0.106880896
131	0xbd4ff207	-0.050767925
132	0xbdead160	-0.11465716
133	0xbd96f02c	-0.07370028
134	0xbd5ea807	-0.054359462
135	0xbe3f90a9	-0.18707527
136	0xbdb8b4f7	-0.09018891
137	0x3e1e240e	0.15443441
138	0x3ce3333f	0.027734397
139	0x3c909fc8	0.017654315
140	0xbd7edcfd	-0.06222247
141	0x3d42c295	0.04754885
142	0xbe2472cc	-0.16059417
143	0xbd423225	-0.047411103
144	0x3d33c976	0.0438933
145	0x3d9583fa	0.07300563
146	0x3d729fc2	0.05923439
147	0xbcb0dd23	-0.021589821
148	0x3d1f924c	0.03895788
149	0x3e1f4703	0.15554433
150	0xbe0151d4	-0.12628871
151	0x3d4e139a	0.050311662
152	0xbd28629e	-0.041109674
153	0x3d20ff61	0.03930605
154	0x3c89526e	0.016762938
155	0xbddd8db9	-0.10818047
156	0xbe005c12	-0.12535122
157	0x3df08630	0.11744344
158	0xbdd28c4e	-0.10280667
159	0xbde0e93f	-0.10981988
160	0xbda4f1c9	-0.08053929
161	0x3e29ccd1	0.16582038
162	0xbe083e91	-0.13305117
163	0xbc186150	-0.009300545
164	0xbc482547	-0.012215919
165	0xbd0cd7fa	-0.03438566
166	0xbd99f36a	-0.07517131
167	0xbda4e359	-0.080511756
168	0xbc2818ad	-0.010259789
169	0xbdf24b81	-0.118308075
170	0x3d02c71a	0.03192816
171	0x3ca98366	0.020692538
172	0xbcbd5cbf	-0.023115514
173	0xbe001e9d	-0.12511678
174	0xbdd7ef77	-0.10543721
175	0xbd957a6d	-0.072987415
176	0xbe195ac6	-0.14976034
177	0x3e2da1e1	0.16956283
178	0xbdd3df14	-0.10345283
179	0x3d865270	0.065586925
180	0xbd85e0ec	-0.06537041
181	0xbdc63e74	-0.09679881
182	0x3d0ab554	0.033864334
183	0xbdfb6b94	-0.12276378
184	0xbdc914f6	-0.09818451
185	0x3c7d60c7	0.015464968
186	0xbcdedbf6	-0.027204495
187	0xbbebbaaf	-0.0071938853
188	0xbd12620a	-0.03573803
189	0xbdba280e	-0.09089671
190	0xbe1a2242	-0.15052131
191	0x3d6f5187	0.05842736
192	0xbcfdf60d	-0.031001115
193	0x3d858b6a	0.06520732
194	0x3d8df5e1	0.06931663
195	0x3e1c0820	0.15237474
196	0x3e0614ff	0.13093947
197	0xbce48f0a	-0.027900238
198	0x3d73a4cb	0.05948333
199	0x3cdd4558	0.027010605
200	0xbdbca8ca	-0.092118815
201	0xbd8a7940	-0.06761408
202	0xbe4f33c9	-0.20234598
203	0xbd86a332	-0.06574096
204	0x3d2bbb5e	0.041926734
205	0x3d15744e	0.03648787
206	0xbd58a414	-0.052890852
207	0xbd978b56	-0.07399623
208	0x3db39d5c	0.08770248
209	0x3b854d0a	0.0040680217
210	0x3c787c12	0.015166299
211	0xbd14af71	-0.036300126
212	0x3dfc1a85	0.12309746
213	0xbe035787	-0.12826358
214	0xbd962a33	-0.073322676
215	0x3d8130ef	0.063081615
216	0x3e15ddbd	0.14635368
217	0xbdaa27d2	-0.08308376
218	0xbd7e24c6	-0.06204679
219	0xbc07ea0c	-0.008295547
220	0xbd080674	-0.03320928
221	0xbc9657e7	-0.018352462
222	0x3db51bb1	0.08843172
223	0xbc5e28d4	-0.013559539
224	0xbc0ac260	-0.008469194
225	0x3e4d864c	0.20070761
226	0x3e1b0942	0.1514025
227	0xbc84f82d	-0.01623162
228	0xbd97ce1e	-0.074123606
229	0x3da10583	0.078623794
230	0x3d76618b	0.060151618
231	0xbd226a4d	-0.039652158
232	0x3cf56e8b	0.029959938
233	0xbd38bf96	-0.045104586
234	0xbdab8590	-0.083750844
235	0xbd12b739	-0.035819266
236	0xbe325487	-0.17415057
237	0xbc485ed9	-0.012229645
238	0x3d43292b	0.047646683
239	0xbcba426c	-0.02273675
240	0xbc443b50	-0.011977032
241	0xbdce3dd5	-0.10070387
242	0xbcf6c7a0	-0.030124485
243	0xbd1bf8d5	-0.0380791
244	0x3ab34c18	0.0013679294
245	0xbcc3c65e	-0.0238983
246	0xbd57fd91	-0.052732054
247	0xbd3ec3f0	-0.04657358
248	0xbdafa62f	-0.08576619
249	0x3c60abf7	0.013712875
250	0xbca2da89	-0.019879596
251	0x3d94999e	0.07255863
252	0x3e0ea70a	0.13930908
253	0x3d8f7f25	0.07006673
254	0x3dffe2a9	0.12494404
255	0x3db187e8	0.086685

network_body.linear_encoder.seq_layers.2.bias f4 [128]
0	0xb953f4fd	-0.00020213793
1	0x3b003404	0.0019562254
2	0xb7b3f153	-2.1450838e-05
3	0xb9be691c	-0.00036317937
4	0xb90cb045	-0.00013417106
5	0xbba0af26	-0.004903692
6	0xb99f8401	-0.00030425194
7	0xb97ada49	-0.00023923175
8	0xb9b44450	-0.00034383172
9	0xbb08f7f8	-0.0020899754
10	0xba201371	-0.00061064126
11	0xba4f6830	-0.00079119485
12	0xba87a280	-0.0010348111
13	0xba09b9ce	-0.00052538223
14	0x39d6d181	0.00040973353
15	0xb92773d4	-0.0001596951
16	0xb98855d1	-0.0002600388
17	0xbb1a6942	-0.0023561274
18	0xba23509f	-0.000622997
19	0xba50edac	-0.0007969986
20	0xb9005110	-0.0001223723
21	0xb6e5926c	-6.8417776e-06
22	0xba8d3d15	-0.001077565
23	0x3b08024b	0.002075332
24	0xb9557e3c	-0.00020360289
25	0xb9162d9b	-0.00014322104
26	0xba083499	-0.0005195826
27	0x395a4550	0.00020815921
28	0x3a1ee6db	0.0006061622
29	0x3a3d4d37	0.0007221284
30	0xb9df9955	-0.00042648116
31	0x3a2131df	0.0006149094
32	0x39981076	0.00029003964
33	0xba4edbdb	-0.00078910374
34	0xb855bf82	-5.0961513e-05
35	0xb83fbd73	-4.5714387e-05
36	0xbb390070	-0.002822902
37	0xba8be1ad	-0.0010672115
38	0x3acdc3c1	0.0015698598
39	0xb991ec42	-0.0002783258
40	0xb9a26a24	-0.0003097813
41	0xba6d8465	-0.0009060561
42	0xb99695f2	-0.00028721947
43	0x3a76cf04	0.0009415003
44	0xb974c8c5	-0.00023344446
45	0xb9f02791	-0.00045805846
46	0x3b41c689	0.00295678
47	0xbba682e2	-0.0050815204
48	0x3b486220	0.0030576065
49	0xba202ee7	-0.00061105046
50	0x39a012ed	0.0003053168
51	0xb8c96b88	-9.604456e-05
52	0x3973412a	0.00023198561
53	0x39a1ed3e	0.00030885072
54	0xb8260a70	-3.9587205e-05
55	0xb9822143	-0.00024820314
56	0xb790c775	-1.7259017e-05
57	0xba284873	-0.0006419487
58	0x3b932e21	0.004491583
59	0xbafeb86a	-0.0019433622
60	0x38c7808c	9.513003e-05
61	0xb990f800	-0.00027650595
62	0xba30b446	-0.000674073
63	0xba9b43d7	-0.0011845779
64	0x39025827	0.00012430605
65	0x39b8d7a5	0.00035255883
66	0xbc10334d	-0.008801294
67	0xba43639d	-0.0007453503
68	0x38df8357	0.000106579326
69	0xbab1f3c3	-0.0013576675
70	0x39b6e2c2	0.00034882693
71	0x39eb0550	0.0004482665
72	0xbb1a82b0	-0.002357643
73	0xba0a18bf	-0.00052679697
74	0xbb297a98	-0.0025860425
75	0xb954d871	-0.00020298526
76	0xba7aede2	-0.00095721905
77	0xb9d20999	-0.00040061472
78	0xbaab06ea	-0.0013048325
79	0xba59bce8	-0.00083060423
80	0xba48fbbb	-0.00076669053
81	0x3afb39c1	0.0019166992
82	0x3a41583a	0.00073755125
83	0x39a345ea	0.00031141873
84	0xb9c2f2b4	-0.0003718339
85	0xbb41d6c4	-0.0029577473
86	0xbb5a032c	-0.003326605
87	0xba2c2b46	-0.00065677275
88	0xba097578	-0.00052436395
89	0xba8e37b0	-0.0010850336
90	0x37def1e1	2.6577096e-05
91	0xb9e963cb	-0.00044515575
92	0x39c7bd95	0.00038097487
93	0xba5bc863	-0.0008384047
94	0xb8a67837	-7.9378886e-05
95	0x3a0c4e0f	0.0005352208
96	0xb73d33c5	-1.1277331e-05
97	0xb87254a3	-5.777612e-05
98	0x3a95d309	0.0011430691
99	0x38add121	8.288236e-05
100	0xb97cc6f8	-0.00024106714
101	0xb7862a2a	-1.5993679e-05
102	0x3ab7137f	0.0013967602
103	0x39f2ae8a	0.0004628788
104	0xb9772235	-0.00023568499
105	0xba653a4d	-0.0008744344
106	0x3a5847b3	0.000825043
107	0xbb1a15fe	-0.0023511644
108	0x3946e448	0.00018967793
109	0xba13214d	-0.0005612567
110	0x399baa25	0.0002969067
111	0xba6eae0a	-0.00091049133
112	0x3af386d8	0.0018579615
113	0xba3df723	-0.0007246604
114	0x39674adb	0.00022057763
115	0x3a1c406a	0.0005960526
116	0x3a10cf52	0.0005524057
117	0xb707ffe3	-8.106205e-06
118	0x3956b3af	0.00020475568
119	0xbb149a9d	-0.0022675165
120	0x3888c2af	6.521248e-05
121	0xba0f5b6d	-0.00054686406
122	0xb7cc4bbb	-2.435396e-05
123	0x39b11c05	0.00033780947
124	0xba25a6dc	-0.00063191145
125	0xb9bd256a	-0.00036076765
126	0xb8bb6249	-8.935162e-05
127	0xb97ee8c1	-0.00024310035

action_model._continuous_distribution.log_sigma f4 [1, 2]
0	0xbbd6b353	-0.006552139
1	0xbb9c1ba0	-0.0047640353

action_model._continuous_distribution.mu.weight f4 [2, 128]
0	0xbc1b6a1d	-0.009485749
1	0x3cd0a8c1	0.025471093
2	0x3cb73b37	0.022367103
3	0x37992140	1.8254505e-05
4	0x3c1574ff	0.009122132
5	0xbc44b239	-0.012005382
6	0x3bc04ba1	0.0058683907
7	0x3c2a94db	0.0104114665
8	0x3bc32100	0.0059548616
9	0xbc174fa5	-0.009235297
10	0xbc9571cc	-0.01824274
11	0xbc525090	-0.01283659
12	0x3ca347e9	0.01993175
13	0x3c565ec6	0.013084119
14	0xbbe6f491	-0.0070481976
15	0xba2d684e	-0.0006614969
16	0xbcfe3fc2	-0.031036261
17	0xbd756dca	-0.059919156
18	0xbc8866d0	-0.016650587
19	0xbce7e98e	-0.02830961
20	0x3b9b0ff5	0.004732127
21	0xbc14d737	-0.009084514
22	0xbc213bae	-0.009840889
23	0xbb8cd1a6	-0.004297453
24	0xbc8d2765	-0.017230699
25	0x3c85e17f	0.016342876
26	0xbb6c6105	-0.003606857
27	0xbc155729	-0.009115019
28	0xbcb192e9	-0.021676498
29	0xbcbd34ac	-0.023096405
30	0x3c9fbced	0.019499267
31	0xbce22371	-0.02760479
32	0xbc7af241	-0.015316547
33	0x3cc571af	0.02410206
34	0xbbd02515	-0.006352077
35	0xbcde27cc	-0.027118586
36	0xbbf023ef	-0.0073285024
37	0x3cb4a06d	0.022049153
38	0x3ccae95c	0.024769478
39	0x3b754b9d	0.0037429102
40	0x3c51024f	0.012756898
41	0xbb2274b1	-0.0024788792
42	0xbc609712	-0.013707893
43	0x3cd8b208	0.02645208
44	0x3c6fee72	0.014644252
45	0xb9dd9954	-0.00042266643
46	0x3ad077c9	0.0015904839
47	0xbc983df8	-0.018584237
48	0x3c155d00	0.009116411
49	0x3c87a8d5	0.016559998
50	0xbca506aa	-0.02014478
51	0xbc45b4e1	-0.012067051
52	0xbc27eec6	-0.010249799
53	0xbc2d6fae	-0.010585709
54	0xbbc393c6	-0.0059685437
55	0xbcc4f5ed	-0.024043048
56	0xbb8589c2	-0.00407526
57	0x3c54a090	0.012977734
58	0xbadc789f	-0.0016820616
59	0xbb0795e6	-0.0020688712
60	0xbd0319fa	-0.032007195
61	0x3c01ee85	0.007930403
62	0x3cbf16f2	0.02332637
63	0x3ae99a7a	0.0017822527
64	0xbb93dc0b	-0.004512315
65	0x3bbaf651	0.0057056327
66	0x3c9466f2	0.018115494
67	0x3b48400f	0.003055576
68	0xbc75f0ac	-0.015010994
69	0x3d0c2771	0.0342173
70	0x3cce5c30	0.025190443
71	0xbc385ea9	-0.0112530375
72	0xbb4858e7	-0.0030570568
73	0x3b3fc531	0.0029261822
74	0x3c749055	0.01492699
75	0x38b56ac1	8.650637e-05
76	0xbce2cf70	-0.027686805
77	0x3b9d6785	0.0048036003
78	0x3c6a4526	0.014298713
79	0x3c4e36ba	0.01258629
80	0x39e6a929	0.00043995053
81	0x3bd659ff	0.00654149
82	0xbc218d18	-0.0098602995
83	0x3b204726	0.002445647
84	0xba3d8e6b	-0.0007231
85	0xbd00c8c9	-0.031441484
86	0xbbcdc273	-0.0062792837
87	0x3bffedec	0.007810345
88	0x3c9e5e08	0.019331947
89	0x3bda1abb	0.0066560186
90	0xbbb80279	-0.005615529
91	0xbc062d09	-0.008189448
92	0x3ca30d8e	0.019903924
93	0xbb3174c3	-0.0027077652
94	0xbbe098ad	-0.006854138
95	0xbd2b2c98	-0.041790575
96	0x3c73dfd1	0.014884905
97	0xbb35a920	-0.0027719215
98	0xbcfd3f83	-0.030914074
99	0xbca7dbd3	-0.020490563
100	0xbbb1ba97	-0.0054238546
101	0x3c8b4360	0.0169999
102	0xbb208eae	-0.0024499106
103	0x3c9d1917	0.019177003
104	0x3ab770ee	0.0013995448
105	0x3c95a2e1	0.018266143
106	0xbc5b2c71	-0.013377295
107	0xbba4e6a0	-0.0050323755
108	0xbbd7f6df	-0.0065907086
109	0x3d0056a8	0.03133264
110	0xbcd2f46d	-0.025751317
111	0xbd12c10d	-0.03582864
112	0xbcd499cd	-0.025952244
113	0x3b2f879a	0.0026783706
114	0x3b6f03f5	0.0036470864
115	0xbc386e02	-0.011256697
116	0x3d11d7b2	0.035606094
117	0x3cb46f4d	0.022025729
118	0xbbb322c2	-0.00546679
119	0x3bcf8507	0.0063329968
120	0x3c6e1743	0.014531913
121	0x3b665f9c	0.0035152202
122	0xbbbca3c6	-0.005756828
123	0xbc9363be	-0.017991897
124	0x3cc3eb96	0.023916047
125	0xbc414db9	-0.011798316
126	0x3c914a37	0.017735584
127	0xba23c8ca	-0.00062478764
128	0xbb2538a7	-0.002521077
129	0xbc83a749	-0.016070979
130	0x3cc3e344	0.02391208
131	0xbbde5de2	-0.006786094
132	0x3cd5d1bf	0.026100991
133	0xbcadbdb5	-0.021208623
134	0x3c9b460a	0.018954296
135	0xbc2f61d0	-0.010704473
136	0x3ac26ed1	0.0014834051
137	0x3c3b7941	0.011442483
138	0x3c6babfe	0.014384268
139	0x3cdb4ec5	0.026770959
140	0xb9978638	-0.00028900965
141	0xbbe5b79b	-0.007010413
142	0x3ca98237	0.020691974
143	0x3c84b251	0.01619831
144	0xbc575a2d	-0.013144058
145	0xbd13b3ea	-0.03606025
146	0x3ac7f254	0.0015254715
147	0xbbd4e79d	-0.006497337
148	0x3c2256ae	0.009908361
149	0xbcded19a	-0.027199555
150	0x3b1ba5a1	0.0023749846
151	0xbcde089f	-0.02710372
152	0x3c50c0c7	0.012741274
153	0xbc6e61d2	-0.014549689
154	0xbc53e8a1	-0.012933881
155	0xbc8cd9af	-0.017193643
156	0xbce0e07d	-0.027450794
157	0x3ca72089	0.020401256
158	0xbc09f25b	-0.008419598
159	0xb94d486d	-0.00019577304
160	0x3c1ee40a	0.009697923
161	0x3c01dd36	0.007926276
162	0x3cb7acd2	0.022421274
163	0xbd0e2e26	-0.03471198
164	0x3bc53f3e	0.006019502
165	0xbbdaac39	-0.0066733626
166	0xbc728b62	-0.014803739
167	0x3ccfd1a3	0.025368517
168	0xbc44904c	-0.011997294
169	0xbbce35f7	-0.006293054
170	0xbc8a97d2	-0.016918097
171	0xbba8aa69	-0.0051472676
172	0x3c09bf3b	0.008407409
173	0xbccd111e	-0.025032576
174	0x3c8e1246	0.017342698
175	0x3c12219e	0.008919148
176	0xbcdec971	-0.027195664
177	0xbb2298ae	-0.0024810242
178	0x3bfbaaac	0.007680258
179	0xbbe48770	-0.006974153
180	0x3c9dd923	0.019268578
181	0x3d195828	0.037437588
182	0x3c184bd8	0.009295426
183	0x3b5885ed	0.003303881
184	0x3c57c6f6	0.013169995
185	0x3aadd199	0.0013261318
186	0xbb7fd03e	-0.0039034034
187	0x3cf1ee29	0.029532509
188	0xbcb35ad4	-0.021893896
189	0xbcb8e9f1	-0.02257249
190	0xbbd33433	-0.0064454316
191	0xba89e242	-0.0010519701
192	0xbc8b12e2	-0.016976777
193	0x3d02e3cd	0.03195553
194	0x3a307cb8	0.0006732452
195	0x3d45bf6c	0.048278257
196	0x3b54fa04	0.0032497654
197	0xbb6c8231	-0.0036088342
198	0x3c8776ff	0.016536234
199	0x3bce3956	0.006293456
200	0x3c8956e6	0.01676507
201	0xbc989a0a	-0.018628139
202	0x3cb5ccd5	0.022192398
203	0xbc1962e6	-0.009361958
204	0xbd1f5a1e	-0.0389043
205	0x3b080f2f	0.0020761003
206	0x3c270cd8	0.010195933
207	0xbbb33d15	-0.005469928
208	0xbb5b7fa2	-0.0033492823
209	0xbc5473ec	-0.012967091
210	0x3c267334	0.0101593025
211	0x3c52eaa4	0.0128733255
212	0xbc9871e3	-0.018608993
213	0xbcbc21bd	-0.022965306
214	0xbc55fe62	-0.013061138
215	0x3c68ebcf	0.014216377
216	0x3c11785b	0.008878793
217	0x3b550bfc	0.0032508364
218	0xbc729777	-0.01480662
219	0x3c2668df	0.010156839
220	0xb9d204ff	-0.00040058044
221	0xbb57214d	-0.0032826245
222	0xbc697fb2	-0.014251636
223	0x3cb3608a	0.02189662
224	0x3bdbc52d	0.006706855
225	0x39052b62	0.0001270003
226	0x3b56a485	0.003275187
227	0x3d1ac3db	0.03778444
228	0x3d006e62	0.03135527
229	0x3b9fe508	0.0048795976
230	0x3cff015d	0.03112858
231	0xbb8a981e	-0.0042295596
232	0xbc9140bf	-0.017731069
233	0x3ad27103	0.0016055409
234	0xbc00c188	-0.007858641
235	0x3ca6dbb0	0.020368427
236	0xba0300df	-0.0004997383
237	0x3ba12cc4	0.0049186666
238	0x3b077922	0.0020671566
239	0x3c067f0e	0.008209003
240	0xbbee5ef2	-0.007274502
241	0x3c8aefba	0.016960014
242	0x3c3e75fe	0.011624811
243	0x3ba6bd65	0.0050884956
244	0x3cf113e3	0.029428428
245	0x3c7f0379	0.015564793
246	0xbc920023	-0.01782233
247	0x3c5b7bcb	0.013396214
248	0x3c64e83e	0.0139713865
249	0xbb753259	-0.0037414043
250	0xbc98141a	-0.018564273
251	0xbbefd168	-0.0073186643
252	0x3ba8031d	0.0051273243
253	0xbb607d14	-0.003425424
254	0xbcc532dc	-0.024072103
255	0x3c0986c6	0.008393949

action_model._continuous_distribution.mu.bias f4 [2]
0	0xb9e05376	-0.00042786793
1	0xb7c651de	-2.3641562e-05

exp_avg f4 [128, 9]
0	0xb97b71d8	-0.00023979635
1	0x37c67520	2.365798e-05
2	0x38420c86	4.6264868e-05
3	0xb1b082ae	-5.1371307e-09
4	0x373a37eb	1.1099483e-05
5	0xaf6fed5c	-2.182125e-10
6	0xb80c0ab3	-3.3388565e-05
7	0xb99ac718	-0.00029521505
8	0x37cae906	2.4188786e-05
9	0x3a9f1cd3	0.0012139328
10	0x38e92352	0.00011116885
11	0xba7fc154	-0.0009756286
12	0xb826d33c	-3.977421e-05
13	0x38752ded	5.8455324e-05
14	0xb84c4163	-4.8698286e-05
15	0xb90ed3ed	-0.00013621124
16	0x39227859	0.00015494357
17	0x38ed3181	0.000113102615
18	0xb92055e8	-0.00015290792
19	0xb6e8f72c	-6.9429134e-06
20	0x399cb88c	0.00029892137
21	0xb3c49b1a	-9.155174e-08
22	0xb7e78dc2	-2.7603357e-05
23	0x332af407	3.980315e-08
24	0xb80b24b9	-3.3174383e-05
25	0xb996e7bd	-0.00028782888
26	0xb6fb7d8c	-7.4949985e-06
27	0xb8dbfe7b	-0.000104901344
28	0x3722a3ee	9.69412e-06
29	0xb8aa84a6	-8.1309394e-05
30	0x332add9c	3.9782762e-08
31	0x383fb638	4.5707653e-05
32	0x3327d3e8	3.9075445e-08
33	0xb7b61e90	-2.1710322e-05
34	0xb91ac639	-0.00014760428
35	0x371e8ab7	9.449831e-06
36	0x384ce9e2	4.885521e-05
37	0xb6acfa46	-5.155135e-06
38	0x35067d42	5.0101164e-07
39	0xb1cb06ba	-5.9088423e-09
40	0xb75a8a54	-1.302602e-05
41	0xb2336548	-1.04422e-08
42	0x36c85b4d	5.9710933e-06
43	0x3894e061	7.098984e-05
44	0xb6acde02	-5.1518446e-06
45	0x33c80fc5	9.316094e-08
46	0xb867adc3	-5.523652e-05
47	0x3b4b966d	0.0031065003
48	0x373039a9	1.05038425e-05
49	0xb7fb14b9	-2.9931181e-05
50	0xb762ff41	-1.3530081e-05
51	0xb72b2cf4	-1.0202861e-05
52	0xb81f6e38	-3.8011203e-05
53	0xb861641b	-5.373741e-05
54	0xbabc7fdc	-0.0014381367
55	0xb8a34902	-7.7860444e-05
56	0xb930d8b1	-0.00016865392
57	0x37a59d88	1.9742889e-05
58	0xb784b7cb	-1.5821211e-05
59	0x3851e2b6	5.0040624e-05
60	0x38dc617e	0.00010508577
61	0xba07a240	-0.00051740184
62	0xb8a9a5c2	-8.089423e-05
63	0x3745b46e	1.1784125e-05
64	0x3791474d	1.7318549e-05
65	0xb91558f7	-0.0001424289
66	0x34a702f7	3.110833e-07
67	0x36946e26	4.4235667e-06
68	0xb4e2051b	-4.2099495e-07
69	0x37b76ff6	2.1867436e-05
70	0xb8c5af3c	-9.426332e-05
71	0x3790ccc7	1.7261495e-05
72	0xbaee322e	-0.0018172914
73	0xb882b90b	-6.23335e-05
74	0x39d5e33b	0.00040795826
75	0x36a62a4a	4.9521086e-06
76	0xb75998ba	-1.2969767e-05
77	0x382c652b	4.1102216e-05
78	0x3883c322	6.282913e-05
79	0xbaa91463	-0.0012899752
80	0xb897346b	-7.210005e-05
81	0xba8ca60d	-0.0010730639
82	0xb7cda5b9	-2.4515075e-05
83	0x3aabb7cb	0.0013101039
84	0x378a133e	1.6459842e-05
85	0x380740c8	3.224684e-05
86	0x37b0ded9	2.1084606e-05
87	0x3752cd8c	1.2564833e-05
88	0xba36bbaa	-0.0006970713
89	0xb7daf449	-2.610138e-05
90	0x3a9730e3	0.0011534955
91	0x37a86eed	2.0078814e-05
92	0xbb09d43a	-0.0021031038
93	0xb7d9255c	-2.5885813e-05
94	0xb7ff89c4	-3.0462521e-05
95	0xb80deddf	-3.3838554e-05
96	0xb75be2bd	-1.3106209e-05
97	0x3a4754ba	0.0007603873
98	0x37c54d53	2.3520237e-05
99	0xba5b97c0	-0.00083767995
100	0xb829b33a	-4.0459658e-05
101	0x3ad0ea88	0.0015939036
102	0xb6732e00	-3.6236597e-06
103	0xb71864af	-9.083348e-06
104	0x35ad266e	1.2900689e-06
105	0xb790cb8d	-1.7260923e-05
106	0xba6b8e61	-0.00089857547
107	0xb83af3bd	-4.4572855e-05
108	0x3a1752b0	0.0005772514
109	0x3810b2d7	3.4498833e-05
110	0xbb284868	-0.0025677923
111	0xb73f5ff2	-1.1406826e-05
112	0xb51178bf	-5.419242e-07
113	0x375440e0	1.265129e-05
114	0x374add2a	1.2091632e-05
115	0x3a359f9e	0.0006928387
116	0x380d2458	3.3650867e-05
117	0x3a18ca4f	0.0005828486
118	0xb80a6f18	-3.3005228e-05
119	0x3b5de4fe	0.0033858414
120	0x37ba5092	2.2210446e-05
121	0x36fc7bf2	7.5246144e-06
122	0xb78a57a3	-1.6491691e-05
123	0x37958348	1.7823317e-05
124	0x3a705278	0.0009167562
125	0xb7c1593e	-2.304895e-05
126	0xb8abbf7d	-8.189583e-05
127	0x369dd21c	4.7034246e-06
128	0x3742757d	1.1590656e-05
129	0x303626ee	6.6266537e-10
130	0xb54431ac	-7.308797e-07
131	0x30e5b4af	1.6713296e-09
132	0x35306ef5	6.5726573e-07
133	0xb8c7722c	-9.5103256e-05
134	0x36a012ff	4.770583e-06
135	0xbaab060d	-0.0013048068
136	0xb89b9690	-7.4190204e-05
137	0x3a6bb49e	0.00089914526
138	0x37a768fe	1.9956842e-05
139	0xb8805fde	-6.121372e-05
140	0x387179c8	5.7572295e-05
141	0x3897e32b	7.2425544e-05
142	0xb9dc024a	-0.00041963375
143	0xb8a15bf3	-7.694205e-05
144	0xb8908455	-6.891104e-05
145	0x36f551ed	7.3111064e-06
146	0x38265a81	3.9661772e-05
147	0x328c9ff0	1.6370876e-08
148	0x378aec84	1.6561018e-05
149	0x32bf808f	2.2293788e-08
150	0xb7760560	-1.4663994e-05
151	0xb8de3c08	-0.000105969666
152	0x36fbc8ac	7.503744e-06
153	0xb8faf819	-0.00011967141
154	0x3741ff20	1.1563097e-05
155	0xb8b647ba	-8.6917964e-05
156	0x32e9a1c4	2.7198332e-08
157	0x3806765e	3.2058328e-05
158	0x32d1f61b	2.4442718e-08
159	0xb7503c83	-1.2411855e-05
160	0xb9218e64	-0.00015407201
161	0x3740c982	1.1491009e-05
162	0x399bb8ba	0.00029701536
163	0xb80c4c6c	-3.3449774e-05
164	0x3b1dfd4d	0.0024107278
165	0x372d600d	1.0333967e-05
166	0x37cf0e13	2.4682877e-05
167	0xb75b6986	-1.3077986e-05
168	0x37d5c60a	2.5483798e-05
169	0x39b7cdf8	0.0003505794
170	0xb7fee9c9	-3.0388024e-05
171	0x3b37ae10	0.0028027333
172	0x384bb0de	4.8563692e-05
173	0x3b2dc778	0.0026516598
174	0xb7d17559	-2.4969386e-05
175	0x37fd3c6e	3.018809e-05
176	0xb8f5384f	-0.00011692999
177	0xb8e0bb9d	-0.00010716098
178	0x3aa06819	0.0012238055
179	0x38742114	5.820494e-05
180	0x3a202723	0.00061093475
181	0x37f829e5	2.9583412e-05
182	0x3ada3267	0.0016647101
183	0x34066e9c	1.2519962e-07
184	0x383dc94f	4.5248595e-05
185	0xb4c74e07	-3.712341e-07
186	0xb794b42d	-1.7726876e-05
187	0x39b2c49c	0.0003409729
188	0x37ef6a57	2.8540539e-05
189	0xb9a3a123	-0.0003120984
190	0xb83c2584	-4.4857632e-05
191	0x39d4dfa1	0.00040602408
192	0xb338c51f	-4.302012e-08
193	0xb81c039e	-3.7196667e-05
194	0xb2034ffd	-7.643391e-09
195	0x365fb6c9	3.3335984e-06
196	0xb9b5d9ca	-0.00034685276
197	0xb843b85f	-4.6663332e-05
198	0xb8deac46	-0.00010617873
199	0x37338b4d	1.0701665e-05
200	0xb7ba529e	-2.22114e-05
201	0x30708f29	8.7514934e-10
202	0xb5f49cf8	-1.8225101e-06
203	0x30c502ff	1.4334488e-09
204	0xb5bac62c	-1.3915756e-06
205	0xb90b6aac	-0.00013295811
206	0x37388437	1.0998038e-05
207	0xb9861155	-0.00025571385
208	0xb7aac7d8	-2.0358639e-05
209	0xbac89feb	-0.0015306448
210	0x37520a03	1.2519306e-05
211	0xb82d11ed	-4.126311e-05
212	0x380c1c0c	3.340472e-05
213	0x36fe3430	7.5758653e-06
214	0x39842a63	0.00025208583
215	0xb79f2d1d	-1.8975285e-05
216	0xb78a0b73	-1.6456213e-05
217	0xb52e964c	-6.503876e-07
218	0x3a6c7419	0.00090199854
219	0x36ea63b3	6.98535e-06
220	0xb6fafffb	-7.4803806e-06
221	0x36d333f4	6.294338e-06
222	0xb76e8e27	-1.4219003e-05
223	0x3700b067	7.670466e-06
224	0xb605c811	-1.9934998e-06
225	0x38f79cb3	0.00011807065
226	0x34845a8d	2.46528e-07
227	0x37980779	1.8123292e-05
228	0x32c52585	2.295088e-08
229	0x38376d0a	4.373215e-05
230	0x32ccee39	2.3857057e-08
231	0xb7606f19	-1.3377307e-05
232	0x38e19a96	0.0001075763
233	0x34040047	1.2293559e-07
234	0xb967dbb4	-0.00022111723
235	0x35925625	1.0902919e-06
236	0x3781be35	1.546657e-05
237	0x330c429e	3.2656878e-08
238	0x38318b27	4.2329684e-05
239	0x32f827db	2.8889124e-08
240	0x35ac63de	1.2844064e-06
241	0xb946d93a	-0.00018963675
242	0x35831060	9.765026e-07
243	0x3a3c5845	0.0007184784
244	0xb809cf39	-3.2856336e-05
245	0x3b8cda4b	0.0042984835
246	0x3712383b	8.71537e-06
247	0x385b837f	5.2336134e-05
248	0xb809ada4	-3.282506e-05
249	0x375d8f44	1.3205983e-05
250	0x3a2815e9	0.0006411956
251	0xb7e0b322	-2.6786296e-05
252	0x38344124	4.297601e-05
253	0x381e464f	3.7735615e-05
254	0x38aa7a7b	8.1290455e-05
255	0xb25f18e3	-1.2985967e-08

exp_avg_sq f4 [128, 9]
0	0x352feaf1	6.5534465e-07
1	0x3061b806	8.2116036e-10
2	0x3335ccdc	4.2328665e-08
3	0x25b44a4c	3.1275368e-16
4	0x2fe0fb30	4.0923842e-10
5	0x25b69e2e	3.1679154e-16
6	0x2fcb6d80	3.700329e-10
7	0x3512f336	5.4743157e-07
8	0x3060bea4	8.176164e-10
9	0x3875b82d	5.858408e-05
10	0x341fcc20	1.4882289e-07
11	0x3aeb58bf	0.0017955526
12	0x31bf6142	5.5698886e-09
13	0x32f17a63	2.8111748e-08
14	0x3167ec68	3.3749306e-09
15	0x3318233d	3.5422307e-08
16	0x3841b134	4.617982e-05
17	0x34376c04	1.7082499e-07
18	0x35278e6f	6.2419616e-07
19	0x309fc460	1.1624586e-09
20	0x340ae860	1.2936789e-07
21	0x279be258	4.3266545e-15
22	0x304c636c	7.4356055e-10
23	0x27d45f40	5.894509e-15
24	0x30153f6b	5.4296007e-10
25	0x350bff26	5.2152825e-07
26	0x309f9cec	1.1613372e-09
27	0x34849753	2.469702e-07
28	0x312cc9e1	2.514405e-09
29	0x348c23ae	2.6102992e-07
30	0x268eaa73	9.89943e-16
31	0x309c8afc	1.1389996e-09
32	0x2664382f	7.9179533e-16
33	0x305cf9ac	8.039034e-10
34	0x34edb99c	4.427974e-07
35	0x312cba2f	2.5135127e-09
36	0x335e6680	5.1781626e-08
37	0x30254744	6.0127925e-10
38	0x32f56bc5	2.8570762e-08
39	0x259fb151	2.7702258e-16
40	0x2f87911b	2.465946e-10
41	0x25734b0a	2.1102314e-16
42	0x2f681adc	2.110982e-10
43	0x33e24397	1.05362396e-07
44	0x30251737	6.005964e-10
45	0x34493571	1.8739026e-07
46	0x3113be41	2.1499462e-09
47	0x377528b0	1.4612611e-05
48	0x2ed2b779	9.582286e-11
49	0x304880f1	7.2942813e-10
50	0x2e615d22	5.1241796e-11
51	0x3000678a	4.6713267e-10
52	0x34a4076d	3.0552783e-07
53	0x3114c565	2.164904e-09
54	0x37c71cb7	2.373602e-05
55	0x33944a5a	6.9053115e-08
56	0x3a4995fb	0.00076898903
57	0x311878d0	2.2187585e-09
58	0x3254c0e5	1.2383883e-08
59	0x30bdfe2f	1.3823803e-09
60	0x328e2ec0	1.6552235e-08
61	0x379a8e63	1.8424535e-05
62	0x33a95c08	7.886416e-08
63	0x34f956b5	4.6442952e-07
64	0x324970d3	1.1725393e-08
65	0x38b1b23c	8.4732164e-05
66	0x2a34571b	1.6017432e-13
67	0x3116d8e1	2.1951154e-09
68	0x29c41cab	8.7091216e-14
69	0x3113cec8	2.1508857e-09
70	0x3563848e	8.475698e-07
71	0x3248ac44	1.1680701e-08
72	0x373352c8	1.0688505e-05
73	0x32d592b6	2.486318e-08
74	0x398f8536	0.00027374335
75	0x30a64c39	1.2099753e-09
76	0x31b18d6d	5.1674562e-09
77	0x3081321d	9.400228e-10
78	0x31fb4d6a	7.3138624e-09
79	0x370f17b2	8.528981e-06
80	0x32f16331	2.81012e-08
81	0x36f8da25	7.4163713e-06
82	0x31aa49c8	4.956039e-09
83	0x37ad216c	2.063877e-05
84	0x2f1872c2	1.386509e-10
85	0x30d5a20d	1.5543847e-09
86	0x2ec333f1	8.8768e-11
87	0x3107ec3a	1.9779365e-09
88	0x36d0d0c1	6.223185e-06
89	0x31c95304	5.8593077e-09
90	0x372f28d9	1.0440323e-05
91	0x31f94e4e	7.255756e-09
92	0x382f673b	4.1819392e-05
93	0x2f803a5a	2.3324526e-10
94	0x3102fcd9	1.9061217e-09
95	0x2f418e0f	1.7603717e-10
96	0x316b6534	3.4254528e-09
97	0x3712c84b	8.7489125e-06
98	0x321704fb	8.790489e-09
99	0x365bcf46	3.2754192e-06
100	0x31545f70	3.090431e-09
101	0x374d2f4f	1.2229967e-05
102	0x2ecedf58	9.407469e-11
103	0x30be2332	1.3834323e-09
104	0x2eb362c4	8.157522e-11
105	0x30c684c2	1.4444128e-09
106	0x363b48cd	2.7907547e-06
107	0x3168b6fc	3.3864458e-09
108	0x35881cc3	1.014116e-06
109	0x30bf1ea7	1.3905791e-09
110	0x373659ae	1.08689255e-05
111	0x2e593293	4.9385007e-11
112	0x2fa8ae5d	3.0682915e-10
113	0x2e4a7641	4.6034513e-11
114	0x30528da8	7.659886e-10
115	0x357a8f64	9.334092e-07
116	0x30c31f82	1.4197072e-09
117	0x37be3211	2.2673079e-05
118	0x338a2fb6	6.434804e-08
119	0x3a2890a8	0.0006430247
120	0x3124b355	2.396708e-09
121	0x3258d2d2	1.262079e-08
122	0x30a692cd	1.2119813e-09
123	0x325620ad	1.2463869e-08
124	0x37986486	1.8166622e-05
125	0x3396c19c	7.020137e-08
126	0x328f57a1	1.668724e-08
127	0x2f5c0c8d	2.0013342e-10
128	0x31de32be	6.466819e-09
129	0x249ec792	6.885966e-17
130	0x2ea11e9d	7.3268704e-11
131	0x24a38dda	7.093029e-17
132	0x2e8d84b3	6.43551e-11
133	0x3310d059	3.3717104e-08
134	0x2f5bf888	2.000623e-10
135	0x38049b4d	3.1615888e-05
136	0x339671e9	7.0056394e-08
137	0x3a5433b4	0.00080948626
138	0x31308c88	2.5691254e-09
139	0x326ea040	1.388986e-08
140	0x30d70514	1.5644752e-09
141	0x32a0eee5	1.8735088e-08
142	0x37d065c3	2.4842919e-05
143	0x33acc97d	8.046025e-08
144	0x33367b50	4.248733e-08
145	0x3008bc0e	4.9743754e-10
146	0x32c71ed2	2.3180664e-08
147	0x253721b3	1.5884138e-16
148	0x2f7056b0	2.185867e-10
149	0x253f2aa7	1.658106e-16
150	0x2f37721b	1.6684291e-10
151	0x33b8dc17	8.608202e-08
152	0x3008b6cf	4.97363e-10
153	0x33fe5f03	1.1845079e-07
154	0x309d0f74	1.1427645e-09
155	0x34357be5	1.6902011e-07
156	0x25e5ee55	3.9886668e-16
157	0x301450e8	5.395706e-10
158	0x25d2aed7	3.654767e-16
159	0x2fd6fb26	3.9104825e-10
160	0x345a6847	2.0340768e-07
161	0x309cfc89	1.1422269e-09
162	0x3625755d	2.465523e-06
163	0x3200994c	7.485436e-09
164	0x38904401	6.879122e-05
165	0x2f479a26	1.8153709e-10
166	0x30cbfb8d	1.4841689e-09
167	0x2ee45789	1.0383789e-10
168	0x30fe6eb3	1.8512395e-09
169	0x360ad04c	2.0684847e-06
170	0x320b630e	8.113387e-09
171	0x38a82795	8.018237e-05
172	0x3407a9ee	1.2634675e-07
173	0x3aa2ec7d	0.0012430098
174	0x318de926	4.130146e-09
175	0x32e1c5fe	2.6283484e-08
176	0x3154fb53	3.0992922e-09
177	0x3336bc81	4.254662e-08
178	0x38872bc4	6.4454536e-05
179	0x341d64b9	1.4658407e-07
180	0x35e1afb3	1.6814942e-06
181	0x3319f9e2	3.5850356e-08
182	0x394899fb	0.00019130849
183	0x2cdaaad9	6.2149006e-12
184	0x31f0e3be	7.0108106e-09
185	0x2c4df8e9	2.9270425e-12
186	0x3202abc2	7.606049e-09
187	0x364e74d9	3.0764406e-06
188	0x33198e08	3.5752265e-08
189	0x363e8316	2.8388508e-06
190	0x31781512	3.6100727e-09
191	0x35199554	5.721424e-07
192	0x2813aa0f	8.197015e-15
193	0x31188605	2.2195092e-09
194	0x27ac6baf	4.785634e-15
195	0x30e26ce6	1.6474615e-09
196	0x36213bbc	2.402564e-06
197	0x317a7fd0	3.645244e-09
198	0x341a8e5c	1.4394158e-07
199	0x30e7a480	1.6854216e-09
200	0x33a5fb0c	7.7290764e-08
201	0x26355cce	6.2922764e-16
202	0x3022c4ca	5.921491e-10
203	0x26375b5d	6.36147e-16
204	0x3018e9ec	5.56297e-10
205	0x349f0359	2.9618494e-07
206	0x30e7f9ea	1.6878492e-09
207	0x376da5f6	1.4164942e-05
208	0x32afba41	2.045738e-08
209	0x3953be0d	0.00020193328
210	0x3030fc65	6.43871e-10
211	0x31974012	4.4019624e-09
212	0x2fdff684	4.0738624e-10
213	0x31c22187	5.6499547e-09
214	0x373ff570	1.14416325e-05
215	0x32cc68c6	2.3796371e-08
216	0x3501cf4e	4.8357913e-07
217	0x3085b768	9.729151e-10
218	0x37160a4c	8.943094e-06
219	0x2e47a667	4.5395156e-11
220	0x2f7d29b2	2.3025029e-10
221	0x2e258b59	3.7640422e-11
222	0x2fa44c86	2.98858e-10
223	0x34fee289	4.7476013e-07
224	0x30836336	9.559702e-10
225	0x348effc8	2.6635666e-07
226	0x31299e0f	2.4682583e-09
227	0x33bb8732	8.732458e-08
228	0x26a4f0fc	1.1445105e-15
229	0x30a68fde	1.2118979e-09
230	0x268c0528	9.715849e-16
231	0x30897f56	1.0004253e-09
232	0x34c1145d	3.5963868e-07
233	0x3129f3ec	2.473139e-09
234	0x346b04d0	2.1887831e-07
235	0x30d8bd77	1.5769918e-09
236	0x337dcb91	5.9091295e-08
237	0x26303783	6.11375e-16
238	0x307fb301	9.302284e-10
239	0x262be9c7	5.964437e-16
240	0x3021b121	5.8823174e-10
241	0x346360c7	2.117623e-07
242	0x30d7e009	1.5706983e-09
243	0x369f6a84	4.7509693e-06
244	0x325b3485	1.2759419e-08
245	0x38e575f3	0.00010941541
246	0x2fdf7031	4.064318e-10
247	0x313c5868	2.7407854e-09
248	0x2faa5f0f	3.0990363e-10
249	0x318782e5	3.943898e-09
250	0x36856439	3.9753763e-06
251	0x326bdf64	1.37295935e-08
252	0x35a1b06d	1.2046781e-06
253	0x31043cb9	1.9243045e-09
254	0x33c4501c	9.141533e-08
255	0x264792ea	6.92411e-16

exp_avg f4 [128]
0	0xb7b756b6	-2.1855678e-05
1	0xb8dea7ec	-0.00010617063
2	0x36f82692	7.395466e-06
3	0xb71696c8	-8.975803e-06
4	0x36a052b7	4.778001e-06
5	0x3856f729	5.125176e-05
6	0x389d06e2	7.4876254e-05
7	0xb7867740	-1.6029575e-05
8	0x3887535e	6.45283e-05
9	0x37c8b5c7	2.3926505e-05
10	0xb7b2a9e8	-2.1298372e-05
11	0x382ee610	4.1699095e-05
12	0xb8082b72	-3.246539e-05
13	0x37d62655	2.5528638e-05
14	0xb6921871	-4.3539844e-06
15	0x3896b860	7.1869e-05
16	0xb6e305f7	-6.7658216e-06
17	0xb733ade6	-1.070972e-05
18	0x37f636ad	2.9350946e-05
19	0xb856ea15	-5.123958e-05
20	0xb7e57a8e	-2.7355996e-05
21	0x38353f4a	4.3212705e-05
22	0xb72638b6	-9.907575e-06
23	0x3794efc6	1.7754628e-05
24	0x3589d7d4	1.027011e-06
25	0xb478eb5a	-2.318242e-07
26	0xb58727b8	-1.0069843e-06
27	0x37df23a7	2.6600273e-05
28	0xb8127e00	-3.492646e-05
29	0xb8b1c910	-8.4774685e-05
30	0x36f43858	7.278326e-06
31	0x378fbc46	1.71346e-05
32	0xb7297b2e	-1.0101865e-05
33	0x382e7e12	4.1602245e-05
34	0x369a6fe4	4.6025834e-06
35	0xb7c2de59	-2.323014e-05
36	0xb73f19a8	-1.1390461e-05
37	0xb7fb4f1c	-2.995837e-05
38	0x3723e915	9.769826e-06
39	0xb70d756c	-8.431594e-06
40	0xb88a1bcf	-6.5855325e-05
41	0xb6021626	-1.9384402e-06
42	0xb838e40a	-4.4081396e-05
43	0x37f1726f	2.8782726e-05
44	0x36d38d76	6.3047582e-06
45	0x3593103f	1.0957082e-06
46	0x380b1d8f	3.316771e-05
47	0xb7d4bcde	-2.5360318e-05
48	0x38a91f66	8.0643964e-05
49	0xb6c450e1	-5.8506707e-06
50	0xb7092ca1	-8.176227e-06
51	0xb8780ccc	-5.9139726e-05
52	0x382a17b7	4.0553245e-05
53	0xb8d10da7	-9.9684396e-05
54	0xb5332d64	-6.674875e-07
55	0x3655d796	3.186496e-06
56	0x37dc7d70	2.6284455e-05
57	0xb84219f1	-4.6277364e-05
58	0x37dafa10	2.610407e-05
59	0x371f6e79	9.50286e-06
60	0x37b42b25	2.1477763e-05
61	0x36e585bd	6.840301e-06
62	0xb7cc2978	-2.4338005e-05
63	0x36c1e35d	5.778317e-06
64	0xb83decd6	-4.5281682e-05
65	0x368d2f26	4.2076163e-06
66	0x383befe5	4.4807693e-05
67	0xb65f98df	-3.3318572e-06
68	0x3731ab37	1.0589886e-05
69	0xb8d40579	-0.00010109967
70	0x36408b25	2.8691222e-06
71	0xb7327a5b	-1.0638115e-05
72	0x371a9869	9.214601e-06
73	0x3683103d	3.9059946e-06
74	0x3731642b	1.0573344e-05
75	0x375838fa	1.2887869e-05
76	0xb40bfd70	-1.3037584e-07
77	0xb7bd0035	-2.2530652e-05
78	0xb74b6783	-1.2123844e-05
79	0x3814b5b4	3.5455174e-05
80	0x38066131	3.2038606e-05
81	0xb7420f0b	-1.1566804e-05
82	0x37a8102f	2.0034697e-05
83	0x38b17fea	8.4638436e-05
84	0xb85336fd	-5.0357532e-05
85	0x37ac562f	2.054413e-05
86	0xb7f24cbd	-2.8884382e-05
87	0xb6ad7394	-5.169257e-06
88	0xb43475c6	-1.6806652e-07
89	0xb84eb770	-4.9285067e-05
90	0x3590fdb1	1.080267e-06
91	0xb3a798a0	-7.804306e-08
92	0x384100b9	4.601546e-05
93	0xb6650854	-3.4128507e-06
94	0x36dc677f	6.5685595e-06
95	0x38142809	3.5323235e-05
96	0x372b7ccb	1.022145e-05
97	0x36ab45a8	5.104306e-06
98	0x3823c394	3.9044375e-05
99	0xb7c7c583	-2.3814622e-05
100	0xb835ff79	-4.339169e-05
101	0xb68bb0d6	-4.163109e-06
102	0x37a7fe83	2.0026468e-05
103	0x37db6ce6	2.6157544e-05
104	0x37a27b09	1.9369198e-05
105	0x37f23fa3	2.8878281e-05
106	0x38413bd2	4.6070498e-05
107	0x37438320	1.1653436e-05
108	0x37b9bbf5	2.2141243e-05
109	0xb7920986	-1.7408991e-05
110	0xb645b2c2	-2.9459338e-06
111	0x386f7c3b	5.709774e-05
112	0xb7f3439e	-2.8999344e-05
113	0xb74bf862	-1.2157574e-05
114	0x36ee8aee	7.1091263e-06
115	0x374d5c4f	1.2240444e-05
116	0x37fc8ee4	3.010728e-05
117	0xb7a7f330	-2.0021194e-05
118	0x3824a5d2	3.925508e-05
119	0xb7aa88c1	-2.032926e-05
120	0x38044176	3.1532218e-05
121	0x36c06d8a	5.734798e-06
122	0xb6772471	-3.682708e-06
123	0x369809f8	4.5311135e-06
124	0x374c25af	1.2168121e-05
125	0xb79ac8c2	-1.8451716e-05
126	0xb7839f0a	-1.5690475e-05
127	0x37cf9a98	2.4748311e-05

exp_avg_sq f4 [128]
0	0x30419e44	7.04379e-10
1	0x341f3de3	1.4830543e-07
2	0x308a629a	1.0068846e-09
3	0x31144b8f	2.1579785e-09
4	0x300de1d5	5.161643e-10
5	0x310223f7	1.8937933e-09
6	0x3392a99b	6.829506e-08
7	0x322d0c79	1.0072761e-08
8	0x32d098ab	2.4283812e-08
9	0x31ae35c6	5.07018e-09
10	0x32025fc4	7.5887705e-09
11	0x314879b8	2.917302e-09
12	0x30a8a33f	1.2270006e-09
13	0x3383d732	6.139307e-08
14	0x2f3d2cdf	1.7205391e-10
15	0x3395d0be	6.976323e-08
16	0x2fea9e16	4.267668e-10
17	0x3086d13c	9.809251e-10
18	0x31f26db5	7.055599e-09
19	0x340864e9	1.2702698e-07
20	0x330409b2	3.0742463e-08
21	0x3158b6f7	3.153614e-09
22	0x30c724c0	1.4489601e-09
23	0x32b1b931	2.0689727e-08
24	0x30642df6	8.301123e-10
25	0x31118bbe	2.1179711e-09
26	0x30b9e9c5	1.3526963e-09
27	0x324c584e	1.1894441e-08
28	0x30e2b16d	1.6494092e-09
29	0x33119a06	3.3900527e-08
30	0x31a7ee3d	4.8874242e-09
31	0x307de387	9.23642e-10
32	0x31b69bfb	5.31463e-09
33	0x32a01153	1.863433e-08
34	0x308467b7	9.633742e-10
35	0x307053ce	8.7430585e-10
36	0x31265946	2.4206925e-09
37	0x331d3d64	3.6610246e-08
38	0x2fc9c019	3.669818e-10
39	0x3002a6e6	4.75309e-10
40	0x3246d291	1.1572994e-08
41	0x304d0f84	7.4600615e-10
42	0x33f906c8	1.15961996e-07
43	0x314dada7	2.9930136e-09
44	0x32198741	8.936525e-09
45	0x2faf30d8	3.186702e-10
46	0x323d85dc	1.1031684e-08
47	0x32796d94	1.4518623e-08
48	0x330b0059	3.2363776e-08
49	0x2f48f25f	1.8276002e-10
50	0x2ebb2707	8.510708e-11
51	0x3305949f	3.1101646e-08
52	0x3158615a	3.1487475e-09
53	0x33e9086f	1.0851442e-07
54	0x2ef34c1e	1.1063882e-10
55	0x2fa1a931	2.9405947e-10
56	0x30db3d91	1.5951845e-09
57	0x321fcc75	9.301506e-09
58	0x310ec7e5	2.0777347e-09
59	0x3179a428	3.632758e-09
60	0x30ae9ff3	1.2705627e-09
61	0x30577ead	7.839656e-10
62	0x334317e0	4.542369e-08
63	0x3088f511	9.964954e-10
64	0x3261c563	1.3141604e-08
65	0x31b5ae6b	5.2876223e-09
66	0x332e2b87	4.055212e-08
67	0x3014d6dd	5.4147425e-10
68	0x2f9be9b7	2.83604e-10
69	0x33e653c4	1.07254465e-07
70	0x301f7541	5.801049e-10
71	0x3096f4e9	1.0983544e-09
72	0x2f894fa5	2.4976746e-10
73	0x32e637ce	2.6800901e-08
74	0x2fd1a61b	3.8134904e-10
75	0x2f3e0bcf	1.7284595e-10
76	0x3110d0cb	2.1073443e-09
77	0x32243c0f	9.559712e-09
78	0x3376e37d	5.7483238e-08
79	0x30eaea46	1.7092325e-09
80	0x3168c0da	3.3870067e-09
81	0x31baf7f3	5.441501e-09
82	0x300aceb9	5.049788e-10
83	0x3369ad1b	5.440698e-08
84	0x335cd403	5.1415565e-08
85	0x305cda71	8.034596e-10
86	0x3209cbdf	8.0208045e-09
87	0x3027ea7e	6.108748e-10
88	0x3009731e	5.00039e-10
89	0x336637cc	5.3601795e-08
90	0x30f027b1	1.7473579e-09
91	0x2f89f694	2.509536e-10
92	0x322a4783	9.911562e-09
93	0x30ea5316	1.7049355e-09
94	0x31e114d9	6.550732e-09
95	0x2ff9414e	4.5339238e-10
96	0x311b676c	2.2614257e-09
97	0x3095b96f	1.089388e-09
98	0x3136b3d7	2.6586713e-09
99	0x314c1d1b	2.9702452e-09
100	0x3306e12e	3.1404106e-08
101	0x2fd222d4	3.8223524e-10
102	0x31e8510e	6.7613035e-09
103	0x309b6e9e	1.1309174e-09
104	0x3117e6a5	2.2104498e-09
105	0x333c13ce	4.3790173e-08
106	0x33019f0f	3.0179816e-08
107	0x31475181	2.900464e-09
108	0x301bc319	5.666592e-10
109	0x303fb700	6.9745454e-10
110	0x2e70d406	5.4757997e-11
111	0x331d9fc8	3.669973e-08
112	0x32c0bd12	2.2437721e-08
113	0x328c316a	1.6320616e-08
114	0x3019c801	5.59453e-10
115	0x329eee03	1.8501856e-08
116	0x31bd07f7	5.5015295e-09
117	0x31036e6a	1.9125772e-09
118	0x31beb614	5.5504277e-09
119	0x33940838	6.893282e-08
120	0x30867536	9.783097e-10
121	0x326a93fe	1.3654242e-08
122	0x320e9013	8.2982465e-09
123	0x2f97ee92	2.7636254e-10
124	0x32205bc3	9.33409e-09
125	0x310cb0b8	2.0473134e-09
126	0x30d820e3	1.5725415e-09
127	0x3191a91a	4.23928e-09
