results/ppo/My Behavior/My Behavior-9216.pt (torch, 152655 bytes, 12 tensors)

network_body.linear_encoder.seq_layers.0.weight f4 [128, 9]
00000000: 8c30 913e a05b 76be 4b47 a7bd 4052 1a3e
00000010: 0299 3fbf 8664 3e3e 4dfb 0e3d c344 ff3e
00000020: fbaf 64be fae4 233e c1af 10bf cecd 9dbe
00000030: b615 d23e fa6c b13e 531e 7dbe 7000 243e
00000040: 0f0a d93d 3290 7dbe 8ca4 05bf 78b4 143f
00000050: 4446 abbe 06d8 bb3d 730f 2fbe c8a7 f1be
00000060: ba49 803d 587c a33c def3 11bf 8299 46be
00000070: 461b c4be 1078 9dbe aad2 3d3f caac 163f
00000080: 7ea2 adbd d74a 33be 79c9 1e3f 4105 013f
00000090: 0c0b acbe 5978 a13e e688 3d3e 8311 c1bd
000000a0: 0203 243e 1b96 4c3e c616 eabd 40d7 11be
000000b0: 985c 623e 477d d4be 427a fbbd cfe6 24be
000000c0: c777 d8bd 7f5f d9bc 5843 17bf 18f2 8ebd
000000d0: e7a1 d3bb 6ba0 27bd 05f9 a53d 57e9 cdbe
000000e0: 7a31 27bf 9481 d0be da3c 123e 4471 713e
000000f0: 7706 bfbe f3e7 983a e756 bdbd 420e 2abf
00000100: 9f05 cc3e 0031 eb3e ce58 d5be 5f04 803e
00000110: 3ea6 6b3e 35b5 073f 9a9f 20bf eb0d 64be
00000120: 8f88 093f ec8e 203e cfaf 4a3e 5e58 79be
00000130: 287c 733e 478c 5c3e 649e 103e 4491 e9bd
00000140: f035 e7bd e6d4 873e a81c 3fbe 032d 78bd
00000150: 9974 293e 821c dcba abaf 023f 84d5 fc3d
00000160: c307 e33e 4841 213f 5b9c dd3e 5ea2 3bbe
00000170: 9bd4 963c fffe 423d b017 453d 1b6c 3ebf
00000180: afab 3e3e 9eb2 7d3e 428b 70be d822 60be
00000190: 6344 05bf f4d2 2abe aef0 9e3d e438 a3be
000001a0: b494 8ebd 3cd3 453e a615 d33c bc05 743c
000001b0: 8608 1abe 3f25 41be 8a03 dc3c 5cb0 e7bd
000001c0: d61d 96be fe8b 14be 670b d1bd aec8 923e
000001d0: 77a1 f83d 2979 8dbd 2c61 02bf ee8a 273e
000001e0: 9ecc c43e 1c9b ddbd dcfe 01bf a07c 933e
000001f0: 5cb9 553e c0d8 06be e2f8 9abe ed22 84be
00000200: fe58 1dbe c7cd 953e 9348 7cbe 0674 1dbf
00000210: 12a4 41be ac16 113e 900a 493f af94 b3bd
00000220: 1e0c 093f 8370 d6be 5787 c13e b77c e43d
00000230: b629 f83e 0033 97be 4331 e63e c6bc cfbd
00000240: 5492 6e3e 8df8 193e d4c0 6c3e de4f 01be
00000250: 10f7 05bf 3491 983e d6c3 8b3e 0831 5b3f
00000260: b7d0 f73e beba 04bb 9206 f73e d0bc d53c
00000270: 0fc5 e53e 868a 17bf 423d 0fbc 0a3f febe
00000280: 04e0 a83e 2e16 e13e 76ba f9be 8884 cbbe
00000290: f28b 5dbd 2c48 533e 4684 9cbe 14a9 273f
000002a0: 3c06 87be b0b1 c33e bb78 ce3e 9f31 8a3d
000002b0: ed1c 0cbe 8260 263c 9749 b7be 5816 3a3b
000002c0: 3e25 e03e ee7d 1cbe 84ac 01bf 1702 f23e
000002d0: 78ed 8fbd 776b 963e 7272 903a 185f 0f3d
000002e0: 1bd9 b13e febf ad3e 2860 253b 6116 a9be
000002f0: cee4 c5be 72e6 d1bd 9b66 b03e f88c 9ebe
00000300: 2447 a93e 9b5e c63b e66e abbe dab6 27bf
00000310: bdcf 823e a413 833e d43f 70be 7032 64be
00000320: 6c8a 523e 044e 733e c5d7 0bbf 8e07 033d
00000330: 7396 633e 275d 7c3e a240 bc3e ff50 0ebf
00000340: c61e d9be 3e0d f2be 66be 09bc 366c dabd
00000350: 8cf3 043f aad2 bdbc 888d dfbe dabe d23e
00000360: b041 96be 103b c5be 5049 463e 743a 2b3e
00000370: 7f85 8c3e 56f2 083f e9b7 12be 1865 463e
00000380: 8a59 c53c 7716 7e3e eae5 c7be c893 7bbe
00000390: 1041 af3e 3c28 37bf 8498 a43e 0f07 91be
000003a0: d4f8 9fbd 5ca7 dabe ff5e 8b3e 1055 c8bb
000003b0: 8c16 f6bc 0d99 8ebe da96 a73d 5f45 dd3e
000003c0: 5b45 b3be 1787 ac3e d4eb 273f 55a9 153e
000003d0: ac8a 0abf fb31 ddbd 0f83 33be b887 883e
000003e0: 66ca cf3e cadd 6ebd be7e 35bd 04c2 023e
000003f0: 9198 a7be 92eb b2be 4eeb b13e 32c5 753d
0.2835735 -0.2405839 -0.08167895 0.15070438 -0.74842846 0.18593034 0.034907628 0.4985715
-0.22332756 0.16005316 -0.5651818 -0.3082108 0.4103219 0.34653455 -0.24718599 0.16015792
0.10597622 -0.24762037 -0.52204204 0.58087873 -0.33452046 0.091720626 -0.17095737 -0.4719832
0.06264062 0.019956753 -0.57012737 -0.19394496 -0.38302058 -0.30755663 0.7414957 0.58857405
-0.084782586 -0.17509018 0.6202617 0.5039864 -0.33602178 0.3153713 0.18509254 -0.09427168
0.16016772 0.19979136 -0.11430125 -0.14242268 0.22105634 -0.4150183 -0.12279178 -0.16103671
-0.10569721 -0.026534794 -0.59087133 -0.069797695 -0.0064585092 -0.04092447 0.08104137 -0.40217087
-0.6530987 -0.4072386 0.14281026 0.23578364 -0.3730962 0.0011665806 -0.09245091 -0.66428006
0.3984804 0.45935822 -0.41669315 0.25003335 0.23012635 0.53010875 -0.6274353 -0.22270934
0.53723997 0.1567952 0.19793628 -0.24350116 0.2377783 0.21537887 0.14122921 -0.1140466
-0.11289585 0.26529616 -0.18663275 -0.0605898 0.16548385 -0.0016793164 0.510493 0.123454124
0.4434186 0.62990236 0.43283352 -0.18323657 0.018411925 0.047606464 0.048118293 -0.74383706
0.1862018 0.24775168 -0.23490623 -0.21888292 -0.52057475 -0.16682035 0.0776075 -0.31879342
-0.069619566 0.19318861 0.025767159 0.014893945 -0.15042314 -0.18861865 0.026857156 -0.11312935
-0.29319638 -0.14506528 -0.10207253 0.2866873 0.12140172 -0.06907875 -0.5092952 0.16361591
0.3843736 -0.108206004 -0.5077951 0.2880602 0.2087149 -0.13168621 -0.30268008 -0.25807896
-0.15365979 0.29258558 -0.2463706 -0.6150516 -0.18910244 0.14168805 0.7853174 -0.087685935
0.53534114 -0.41882715 0.3779857 0.111566 0.48469323 -0.29531097 0.4495946 -0.101434276
0.23298007 0.15036221 0.23120433 -0.12628123 -0.5233011 0.2979828 0.27297848 0.8562169
0.48401424 -0.0020252909 0.482472 0.02609101 0.44876906 -0.59195745 -0.008742632 -0.4965747
0.3298341 0.43962234 -0.4877507 -0.3974955 -0.05408854 0.20633 -0.30569667 0.6549237
-0.26371944 0.38221502 0.40326485 0.06747746 -0.1368291 0.010154845 -0.35798332 0.0028394666
0.43778414 -0.15282413 -0.5065386 0.4726722 -0.070277154 0.29378864 0.0011020435 0.035002798
0.3473595 0.3393554 0.0025234316 -0.33024886 -0.38651127 -0.10249032 0.34453282 -0.30966926
0.33062088 0.0060537583 -0.33483046 -0.65513384 0.25549117 0.25600922 -0.23461848 -0.22284865
0.20560616 0.2376023 -0.54626113 0.031989627 0.2222536 0.2464491 0.3676806 -0.5559234
-0.4240629 -0.47275728 -0.008407211 -0.10665171 0.51934123 -0.023171742 -0.43662667 0.41161233
-0.2934699 -0.38521624 0.19363904 0.16721517 0.274456 0.53494775 -0.14327969 0.19374502
0.024090547 0.24813257 -0.39042598 -0.24568093 0.34229326 -0.7154577 0.3214761 -0.28325698
-0.07811132 -0.4270581 0.27220914 -0.006113656 -0.030040048 -0.27851143 0.081830695 0.43216988
-0.35013852 0.33696815 0.6559422 0.14615376 -0.54117846 -0.10800549 -0.17530464 0.26666045
0.40584105 -0.058316983 -0.044310324 0.12769324 -0.32733586 -0.3494535 0.34749836 0.060002513

network_body.linear_encoder.seq_layers.0.bias f4 [128]
00000000: 0000 0000 0000 0000 0000 0000 0000 0000
00000010: 0000 0000 0000 0000 0000 0000 0000 0000
00000020: 0000 0000 0000 0000 0000 0000 0000 0000
00000030: 0000 0000 0000 0000 0000 0000 0000 0000
00000040: 0000 0000 0000 0000 0000 0000 0000 0000
00000050: 0000 0000 0000 0000 0000 0000 0000 0000
00000060: 0000 0000 0000 0000 0000 0000 0000 0000
00000070: 0000 0000 0000 0000 0000 0000 0000 0000
00000080: 0000 0000 0000 0000 0000 0000 0000 0000
00000090: 0000 0000 0000 0000 0000 0000 0000 0000
000000a0: 0000 0000 0000 0000 0000 0000 0000 0000
000000b0: 0000 0000 0000 0000 0000 0000 0000 0000
000000c0: 0000 0000 0000 0000 0000 0000 0000 0000
000000d0: 0000 0000 0000 0000 0000 0000 0000 0000
000000e0: 0000 0000 0000 0000 0000 0000 0000 0000
000000f0: 0000 0000 0000 0000 0000 0000 0000 0000
00000100: 0000 0000 0000 0000 0000 0000 0000 0000
00000110: 0000 0000 0000 0000 0000 0000 0000 0000
00000120: 0000 0000 0000 0000 0000 0000 0000 0000
00000130: 0000 0000 0000 0000 0000 0000 0000 0000
00000140: 0000 0000 0000 0000 0000 0000 0000 0000
00000150: 0000 0000 0000 0000 0000 0000 0000 0000
00000160: 0000 0000 0000 0000 0000 0000 0000 0000
00000170: 0000 0000 0000 0000 0000 0000 0000 0000
00000180: 0000 0000 0000 0000 0000 0000 0000 0000
00000190: 0000 0000 0000 0000 0000 0000 0000 0000
000001a0: 0000 0000 0000 0000 0000 0000 0000 0000
000001b0: 0000 0000 0000 0000 0000 0000 0000 0000
000001c0: 0000 0000 0000 0000 0000 0000 0000 0000
000001d0: 0000 0000 0000 0000 0000 0000 0000 0000
000001e0: 0000 0000 0000 0000 0000 0000 0000 0000
000001f0: 0000 0000 0000 0000 0000 0000 0000 0000
0.0 0.0 0.0 0.0 0.0 0.0 0.0 0.0
0.0 0.0 0.0 0.0 0.0 0.0 0.0 0.0
0.0 0.0 0.0 0.0 0.0 0.0 0.0 0.0
0.0 0.0 0.0 0.0 0.0 0.0 0.0 0.0
0.0 0.0 0.0 0.0 0.0 0.0 0.0 0.0
0.0 0.0 0.0 0.0 0.0 0.0 0.0 0.0
0.0 0.0 0.0 0.0 0.0 0.0 0.0 0.0
0.0 0.0 0.0 0.0 0.0 0.0 0.0 0.0
0.0 0.0 0.0 0.0 0.0 0.0 0.0 0.0
0.0 0.0 0.0 0.0 0.0 0.0 0.0 0.0
0.0 0.0 0.0 0.0 0.0 0.0 0.0 0.0
0.0 0.0 0.0 0.0 0.0 0.0 0.0 0.0
0.0 0.0 0.0 0.0 0.0 0.0 0.0 0.0
0.0 0.0 0.0 0.0 0.0 0.0 0.0 0.0
0.0 0.0 0.0 0.0 0.0 0.0 0.0 0.0
0.0 0.0 0.0 0.0 0.0 0.0 0.0 0.0

network_body.linear_encoder.seq_layers.2.weight f4 [128, 128]
00000000: 9a52 1ebe 8f42 8fbd 89ab 993b c418 783d
00000010: e036 0bbe 1698 dc3c 700a 50be 33e9 2bbd
00000020: cba6 acbd 3411 0d3e c7ed 25bc e633 013e
00000030: 84ba 873d 4a36 babd 5ede 033e e314 ba3b
00000040: 6abf b4bc f701 d43d e1d1 e7bd 47e1 3c3d
00000050: 4378 d93c 2896 80bd 3300 91bc c65b 0e3e
00000060: f34a 4e3d c77b a23d 4cc2 1ebe 8711 c0bc
00000070: c433 e73d 3e37 6bbd 2c83 f03c 02ac 9d3b
00000080: c2db 2bbd 7305 3bbd 72b1 0cbd 6c09 1b3d
00000090: 19f2 f5bd e598 cabd 3bb4 343d 02df 87bd
000000a0: 37d3 483e 903e 333e 848b b93c 35ee e03c
000000b0: f6d5 efbd 1e5f 01bc 14d1 00be 1ee8 9d3d
000000c0: 0ae1 a73d ed74 213e ff93 b33c 4f27 a4bc
000000d0: ddfd 11be 819a b6bd 2240 38be 37fd b0bb
000000e0: a430 09bd d308 a73d eb9c e3bd 0f7e f33c
000000f0: e780 57be 5c11 9bbc 2aec 523c 7777 163e
00000100: 0732 433d 687f c93d df8d 11be 16a0 80bc
00000110: 223c 9abc b7eb 483e 0c82 343d eb43 2d3e
00000120: 9186 8cbd a65a 2cbd bcef c93d 999f 003e
00000130: 1065 fb3c a23c 6dbc 4e55 84bc 982e 383d
00000140: 4be4 073d 9837 adbd 83f2 06bb 666b 77bd
00000150: 7d88 493d ed84 013c f0d5 29be 660e f7bc
00000160: e342 983c 23f0 273e 17cf ce3d 2816 2cbe
00000170: af69 ebbc fd37 293e ea08 12be 2e44 173e
00000180: 2a68 dcbd 310c 92bd a398 3cbd d6bf debd
00000190: 1abd 3b3d 7308 1c3c 8b5a aa3d da90 dcbd
000001a0: 8432 c03c e4a2 abbb f88f a0bd 18d0 663d
000001b0: a59b 4bbc c41e 2f3d b2f8 15be d9dd da3d
000001c0: 7523 783c 897a 983b bda5 213e 66d9 213d
000001d0: 59e1 e53c ccb7 743c cddc 8d3c ed18 3dbc
000001e0: de0b 2abd 3853 20bd ba4a f4bd ce20 673d
000001f0: 32dc 81bc f7ea 95bd 5e78 48bd 88f5 cd3c
00000200: f47c 873e 6316 c63b df79 a8b9 348a ebbc
00000210: 5e1b 5dbd 926c 24be 174d d5bd 6c50 16bd
00000220: e820 01bd 52fc ae3c 76f1 e5bd 5d3f dbbd
00000230: e7e3 b83d 12be 4ebd 07e7 da3d df95 103e
00000240: fc99 0cbe 8d6a 023e 0b0a f73c 7f1b 2e3d
00000250: 5d1d a2bd 8966 42bd aa41 0abe 4c96 453d
00000260: 66d6 b2bc 2bea 51bd 4711 6c3d c233 2c3c
00000270: eeaa 053d 0c21 2bbe b42b 4a3d 6f4d b33d
00000280: 4ad2 f83c ee5c cfbb e7c3 7c3d 9272 27bd
00000290: 07d7 1ebe 1cde e03b cbe3 4ebb 88cf 843d
000002a0: 7381 743d 60c1 81bd 64f0 37bd bbda 8fbc
000002b0: ad6d a93d 75e8 e63d 8fa5 673a d6d8 0b3d
000002c0: 8de2 093d 2b8d 8f3d b285 c2bd be8e 013e
000002d0: 192e c43d 65b5 b8bd d2f4 c93c 3bc8 98bd
000002e0: a1a6 16bc 497c c5bd 69db 2a3e aba1 cf3b
000002f0: fba5 4bbc 52fb 863d 71cb 063c 4ec1 ca3d
00000300: 1d5a 4dbc 59ba 00be 8100 c13d 315d 15be
00000310: 14ea 353e 18be 8cbd a140 c9bd a1a9 03bc
00000320: d78a 423b 4740 08be ea60 16be 5dc1 3d3e
00000330: 2a44 9b3d 74ea fd3c 0db4 023e 1e15 a0be
00000340: e546 ea3c 848c 4dbd 4ecc d4bc 687d 6ebd
00000350: 6de3 943d 52ea 483d 91c4 b3bd 7028 e33d
00000360: f1c8 6cb9 34bd 803e 13e9 23bc 75ba 4ebc
00000370: 652a ae3c 921f af3d 7d36 c3bd 898a 1d3e
00000380: dfe9 2c3c ec8e 17be 1255 f53c 8676 bbbb
00000390: 8ff4 d83d a24a b9bd dd66 90bd 3e4a a2bd
000003a0: af30 adbd 838a 923d c858 77bd ef2a 4abd
000003b0: fc9c b43d b12d cabd 159c 1fbe d2cf 84bd
000003c0: 9050 ae3d 80b8 ad3c c49b 6fbd fb1f aebd
000003d0: 5f1a 35be 861a 9ebd 736a e03c 8447 b53b
000003e0: 6019 103d 2afc 883e f7c7 afbd c3ce 123e
000003f0: 86e2 5bbd c9c1 0f3e 660e 113d d19c a03c
-0.15461197 -0.06995117 0.004689638 0.060570493 -0.13595152 0.026927989 -0.20316482 -0.041970443
-0.08430251 0.13776094 -0.010127491 0.12617454 0.06627372 -0.09092386 0.12877795 0.0056787594
-0.02206393 0.10351937 -0.11319328 0.04611328 0.026546603 -0.0627864 -0.01770029 0.13902196
0.050364446 0.07933765 -0.15503806 -0.023445858 0.112891704 -0.05742573 0.029359423 0.0048117647
-0.041957624 -0.045659494 -0.034348913 0.037850782 -0.12009067 -0.098924436 0.044117194 -0.06634332
0.19611822 0.17504334 0.022649534 0.027457336 -0.11710732 -0.007896213 -0.12579757 0.077102885
0.0819722 0.1576726 0.021921156 -0.020038275 -0.14256997 -0.08916188 -0.17993215 -0.0054012793
-0.033493653 0.0815598 -0.11113914 0.029723195 -0.21045266 -0.018929176 0.012873689 0.1469401
0.04765513 0.09838754 -0.14214276 -0.015701335 -0.018827502 0.19621168 0.044069335 0.1692044
-0.06861604 -0.042078637 0.09860179 0.12560882 0.030687839 -0.014479788 -0.016153958 0.04496631
0.0331767 -0.08457869 -0.0020591326 -0.060405158 0.04920243 0.007905227 -0.16585517 -0.030158233
0.018586582 0.16400199 0.10098093 -0.16805327 -0.028736917 0.16525264 -0.14261213 0.14772102
-0.10762055 -0.071312316 -0.046044003 -0.108764336 0.04583464 0.009523499 0.08318051 -0.10769816
0.023461588 -0.005237924 -0.0783996 0.056350797 -0.012427245 0.04275395 -0.14645651 0.10686845
0.015145172 0.004653279 0.1578588 0.039513968 0.028061556 0.014936399 0.0173172 -0.011541587
-0.041515224 -0.039141864 -0.119283155 0.05642777 -0.015852068 -0.073202066 -0.048942916 0.025141492
0.2646252 0.006045149 -0.00032134258 -0.028752424 -0.053981178 -0.16057041 -0.10415094 -0.03669779
-0.031525522 0.02136055 -0.11227696 -0.10705445 0.09027844 -0.050474234 0.10688596 0.14119671
-0.13730615 0.12735958 0.030156156 0.04250669 -0.07915757 -0.047461066 -0.13501611 0.048239037
-0.021830749 -0.05124871 0.057633664 0.010510387 0.032633714 -0.16711825 0.049358085 0.08755004
0.030373711 -0.0063282168 0.061710265 -0.040880747 -0.15511714 0.006862415 -0.003156888 0.06484896
0.059693765 -0.063357115 -0.04490699 -0.017560354 0.08272872 0.112748064 0.0008836621 0.034142338
0.03366332 0.070093475 -0.094981566 0.12652108 0.09579105 -0.09018973 0.024652872 -0.07460066
-0.009195001 -0.09642846 0.16685261 0.006336411 -0.01242971 0.06590904 0.008227215 0.09900151
-0.012533692 -0.12571086 0.09423924 -0.14586331 0.17765075 -0.06872195 -0.0982678 -0.008036048
0.0029684806 -0.1330577 -0.14685407 0.18530793 0.07581361 0.030995585 0.12763996 -0.3126611
0.028598258 -0.050182834 -0.025976326 -0.058225065 0.072699405 0.04905159 -0.087777264 0.11091697
-0.0002258157 0.2514435 -0.0100043 -0.012617697 0.02126045 0.085509434 -0.09531877 0.15384878
0.010553806 -0.14800614 0.029947791 -0.005720916 0.10593521 -0.09047438 -0.070508696 -0.07924317
-0.08456551 0.07155325 -0.060387403 -0.04935735 0.08819005 -0.09871996 -0.15586884 -0.06484951
0.0851146 0.02120614 -0.05849816 -0.085021935 -0.17685841 -0.07719903 0.027394509 0.005532207
0.03518045 0.26754886 -0.08583062 0.14336686 -0.053682826 0.14038767 0.035414122 0.019606026

network_body.linear_encoder.seq_layers.2.bias f4 [128]
00000000: 0000 0000 0000 0000 0000 0000 0000 0000
00000010: 0000 0000 0000 0000 0000 0000 0000 0000
00000020: 0000 0000 0000 0000 0000 0000 0000 0000
00000030: 0000 0000 0000 0000 0000 0000 0000 0000
00000040: 0000 0000 0000 0000 0000 0000 0000 0000
00000050: 0000 0000 0000 0000 0000 0000 0000 0000
00000060: 0000 0000 0000 0000 0000 0000 0000 0000
00000070: 0000 0000 0000 0000 0000 0000 0000 0000
00000080: 0000 0000 0000 0000 0000 0000 0000 0000
00000090: 0000 0000 0000 0000 0000 0000 0000 0000
000000a0: 0000 0000 0000 0000 0000 0000 0000 0000
000000b0: 0000 0000 0000 0000 0000 0000 0000 0000
000000c0: 0000 0000 0000 0000 0000 0000 0000 0000
000000d0: 0000 0000 0000 0000 0000 0000 0000 0000
000000e0: 0000 0000 0000 0000 0000 0000 0000 0000
000000f0: 0000 0000 0000 0000 0000 0000 0000 0000
00000100: 0000 0000 0000 0000 0000 0000 0000 0000
00000110: 0000 0000 0000 0000 0000 0000 0000 0000
00000120: 0000 0000 0000 0000 0000 0000 0000 0000
00000130: 0000 0000 0000 0000 0000 0000 0000 0000
00000140: 0000 0000 0000 0000 0000 0000 0000 0000
00000150: 0000 0000 0000 0000 0000 0000 0000 0000
00000160: 0000 0000 0000 0000 0000 0000 0000 0000
00000170: 0000 0000 0000 0000 0000 0000 0000 0000
00000180: 0000 0000 0000 0000 0000 0000 0000 0000
00000190: 0000 0000 0000 0000 0000 0000 0000 0000
000001a0: 0000 0000 0000 0000 0000 0000 0000 0000
000001b0: 0000 0000 0000 0000 0000 0000 0000 0000
000001c0: 0000 0000 0000 0000 0000 0000 0000 0000
000001d0: 0000 0000 0000 0000 0000 0000 0000 0000
000001e0: 0000 0000 0000 0000 0000 0000 0000 0000
000001f0: 0000 0000 0000 0000 0000 0000 0000 0000
0.0 0.0 0.0 0.0 0.0 0.0 0.0 0.0
0.0 0.0 0.0 0.0 0.0 0.0 0.0 0.0
0.0 0.0 0.0 0.0 0.0 0.0 0.0 0.0
0.0 0.0 0.0 0.0 0.0 0.0 0.0 0.0
0.0 0.0 0.0 0.0 0.0 0.0 0.0 0.0
0.0 0.0 0.0 0.0 0.0 0.0 0.0 0.0
0.0 0.0 0.0 0.0 0.0 0.0 0.0 0.0
0.0 0.0 0.0 0.0 0.0 0.0 0.0 0.0
0.0 0.0 0.0 0.0 0.0 0.0 0.0 0.0
0.0 0.0 0.0 0.0 0.0 0.0 0.0 0.0
0.0 0.0 0.0 0.0 0.0 0.0 0.0 0.0
0.0 0.0 0.0 0.0 0.0 0.0 0.0 0.0
0.0 0.0 0.0 0.0 0.0 0.0 0.0 0.0
0.0 0.0 0.0 0.0 0.0 0.0 0.0 0.0
0.0 0.0 0.0 0.0 0.0 0.0 0.0 0.0
0.0 0.0 0.0 0.0 0.0 0.0 0.0 0.0

action_model._continuous_distribution.log_sigma f4 [1, 2]
00000000: 0000 0000 0000 0000
0.0 0.0

action_model._continuous_distribution.mu.weight f4 [2, 128]
00000000: 7a34 073d 9b76 c33a 4bee 1e3b 25c3 debb
00000010: fe5b 10bb ad1a a63b c8fc f7ba b52e fa3c
00000020: 3204 c3bc 70fe d8bc b067 3cbc 0cbc 9abc
00000030: 2739 873a bb63 cdbc 05ef 723b 5f33 a2bb
00000040: 8392 243c 53d8 d33b 02ad d6bb c379 603c
00000050: 7fe6 f8bb b0fa 2ebb 1b9a 28bb 7224 62bc
00000060: ec04 acbb d810 2c3c 208e 50bc 1005 e639
00000070: 4eae a8bc 5fa8 063b b353 8d3c 1b2a 0ebd
00000080: e53c f8bb b732 ac3c 138d 2b3c 6577 3b3c
00000090: ba8c eebc ca52 053c 219f a03b 5170 ae3b
000000a0: a87b f13b 63f8 ad3c 4bde e6bb d3b0 8bbb
000000b0: 23f7 0e3c 47b5 373c df77 b9bb c32e ee3c
000000c0: 1263 bb3b b81a b43c fe62 13bd aaae bd3b
000000d0: 4f89 c7bc 8b3f 553c 67d1 bcbb f003 773b
000000e0: f348 623c 66b2 8abc 2002 993c 0f3d e9bc
000000f0: e411 80bb 62b8 cebc 8d47 e23c 435e 3e3c
00000100: 1ff5 02bb b7c9 823b 8bab 16bc ba9d a0bc
00000110: d867 d13c 84ba 02bc 4ffc 293c 36bd c43b
00000120: 0cdf 1d3b a8d1 77bc 3655 9dbc 07a9 06bd
00000130: 4d47 68bc e490 113b 1358 9dba 4430 aabc
00000140: a7ca 133c 820e c13b ee31 adbc 7d09 e73b
00000150: c35d 42bb 117b 903b 97a1 f33c 2df9 e3bc
00000160: a55f 54bc 4087 f33c 5eb2 3639 d045 abbc
00000170: bf61 8a3c dc80 36bd 6f14 913b 98e2 9c3b
00000180: 8812 f1b9 c006 47bc 9cb7 403c e046 25bc
00000190: 5f40 fa3b cd85 8bbc 7d64 1f38 83d4 cc3b
000001a0: a811 563b f095 61bc 8ae6 e4bc 8a68 683c
000001b0: 577f d3bb 43da f8bb 4b4f f23c c9d9 b039
000001c0: 90cd 173c 9100 3b3b ed58 fc3a f92a 9c3b
000001d0: 5407 b9bc e781 a2bc c8dc e03c 5204 ecbc
000001e0: 1be2 f13c 67b5 a439 6a2c adb9 0fc0 b5bc
000001f0: c0cc cfbc aaae 2dbc 9d12 273c f726 5abb
00000200: c002 063c 1bc6 b7bb f3f2 65bc 9fe7 ae3c
00000210: f9a7 3f3c 8bfc b03c dde3 ebbc 2bff 04bd
00000220: a79e 5b3d 88a1 48bc 151b 243a 4a94 c63c
00000230: 52f0 95bb e75d b23c 82ef 573c f246 abbb
00000240: 925a 09bc d01a 033d 30c8 99bc d827 fc3a
00000250: b6ff 083c 2088 5a3b 6a3e 56bb 60cb e93a
00000260: fa8c f8bc ce6f 233d 7b99 0c3c 38e2 cebb
00000270: 68d4 ec3c a607 233d c7c9 283c 5b6d 64bc
00000280: a8d0 4fbc 55fe 5f3c 633a 013d 5701 a13c
00000290: a3da 71ba dbe6 e23b c456 8ebc 4304 c63c
000002a0: 73b8 d1bb ff51 0a3c 6bb0 b93c 1f6d 453a
000002b0: 18bd 053c 4f2f 8b3c 7bf8 e2bb 7d1b b23c
000002c0: 8bc2 97bc 6f63 623c 9a2b efba 87d5 03bc
000002d0: 796a 9abc c0e5 29bc 3d3d a73c aa5b 8ebc
000002e0: 37c2 b43a ea72 30bc 66b0 1bbb d088 98b9
000002f0: d101 0a3a 8725 14bd 887c 9d3c eec6 c4bc
00000300: eecb c0ba 3bc9 963c db28 6c3c cab5 6cbc
00000310: 7f1a b2bc 673f 633c a784 ebbc ac91 393c
00000320: 855b 563c 953c ce3c 878f 613c 2bed 7dbb
00000330: 10c7 aabc 3f8b 153b 7f24 0fbc 6287 5fbc
00000340: 60ab 05bd 6237 b3bb c45d 3cbb 875d 38bc
00000350: 6261 e93b 845a 3cbd 747d 8a3b 37af e2bc
00000360: 5b88 a23c bd24 153c 8625 3a3d 0556 d33a
00000370: 902a 59bc 678c 69bc 344e 8c3c bb8a 043c
00000380: dd4a f63b fb38 1c3c 0092 6ebc 0f9c 09bc
00000390: 7660 9dbc 3f07 a23c ab25 163d ece1 993c
000003a0: 423e 95bc 04c5 84bc b89f 0abc 96b0 1e3d
000003b0: 5f28 cc3b f51a efbb 7b36 2b3b c3ad 533c
000003c0: 2afc 1b3a 8294 6c3c 58b5 e0bc b3e0 e3bb
000003d0: 6b31 3abc 0ffc 0f3c 4277 25ba 6a66 063a
000003e0: 673d 51bc 4365 bcbc cfc1 073c a491 cc3c
000003f0: 7f3d 30bc 53c3 7dbc 94b3 9e3c 406b 99bb
0.03300903 0.0014912667 0.002425092 -0.0067981654 -0.0022027488 0.005069098 -0.0018919939 0.03053985
-0.023805711 -0.026488513 -0.01149933 -0.018888496 0.0010316715 -0.02507197 0.0037068736 -0.0049499716
0.010044697 0.006464997 -0.006551386 0.013700905 -0.0075958367 -0.0026699714 -0.002572662 -0.013802635
-0.00524961 0.010502063 -0.012729198 0.0004387279 -0.020590927 0.0020547134 0.017251825 -0.034708124
-0.0075756186 0.021020276 0.010470646 0.01144204 -0.029119838 0.008137414 0.004901782 0.0053234478
0.0073694773 0.021236604 -0.0070455424 -0.0042630224 0.008725914 0.0112126535 -0.0056600417 0.029075032
0.005718597 0.021985397 -0.03598308 0.005788644 -0.024357466 0.013015638 -0.0057622674 0.0037691556
0.013811338 -0.01693077 0.018677771 -0.028471498 -0.0039083827 -0.025234405 0.027622009 0.011619153
-0.001998253 0.0039913314 -0.0091961725 -0.01960646 0.025562212 -0.007979039 0.010375096 0.006004001
0.0024089245 -0.01512567 -0.01920567 -0.03287604 -0.014177156 0.0022211606 -0.0012004398 -0.020774968
0.009020484 0.005891622 -0.021141972 0.0070506916 -0.0029657937 0.004409202 0.029740138 -0.027828777
-0.012962257 0.029727578 0.0001742332 -0.020907313 0.016892312 -0.044556484 0.0044274847 0.0047877543
-0.0004598091 -0.012147605 0.011762526 -0.010087699 0.007637068 -0.017031575 3.800214e-05 0.0062509193
0.0032664333 -0.013768658 -0.02794196 0.01418508 -0.006454389 -0.007594378 0.029578825 0.00033731599
0.0092653185 0.0028534273 0.0019252576 0.004765865 -0.022586502 -0.019837333 0.027449027 -0.028810654
0.02952676 0.00031415673 -0.00033030222 -0.022186307 -0.025366187 -0.010600725 0.010197309 -0.0033287385
0.008179367 -0.005608333 -0.014034974 0.02135068 0.011697763 0.021604797 -0.028795177 -0.03246991
0.0536181 -0.012245543 0.0006260139 0.024240632 -0.0045757676 0.021773292 0.013179662 -0.005226963
-0.00838341 0.032007992 -0.018772215 0.0019237949 0.0083617475 0.0033345297 -0.003269101 0.00178371
-0.03034066 0.039901547 0.0085815145 -0.0063135885 0.028909877 0.039802216 0.010302014 -0.013942088
-0.012684025 0.013671477 0.031549823 0.01965396 -0.0009226 0.006924493 -0.017375357 0.024171954
-0.006400162 0.008442401 0.02266713 0.0007531214 0.008162759 0.016990332 -0.006926594 0.021741623
-0.018525383 0.013817652 -0.0018247247 -0.008046514 -0.018849598 -0.010369718 0.020414943 -0.017377693
0.0013790791 -0.010769585 -0.0023756265 -0.00029093632 0.0005264553 -0.0361686 0.01922442 -0.024020638
-0.0014709213 0.018406501 0.014414038 -0.014447639 -0.02174115 0.013870097 -0.028749777 0.011326235
0.013083343 0.025175372 0.01376713 -0.00387461 -0.020846874 0.0022818593 -0.008736729 -0.013643118
-0.03263414 -0.0054692486 -0.0028742412 -0.011252767 0.0071222046 -0.04598476 0.004226381 -0.02767144
0.01984041 0.009102997 0.04544594 0.0016123658 -0.013254777 -0.014254666 0.017127134 0.008089717
0.0075162486 0.00953507 -0.014561176 -0.008399024 -0.019211035 0.019778846 0.036657017 0.018784486
-0.018218163 -0.016207226 -0.0084609315 0.038742624 0.0062303985 -0.0072969147 0.0026125002 0.012919846
0.0005950356 0.014439704 -0.027430221 -0.0069542765 -0.011364321 0.008788123 -0.0006312021 0.0005126955
-0.012770987 -0.022997504 0.008285954 0.02497179 -0.010756849 -0.015488463 0.019372739 -0.0046819746

action_model._continuous_distribution.mu.bias f4 [2]
00000000: 0000 0000 0000 0000
0.0 0.0

network_body.linear_encoder.seq_layers.0.weight f4 [128, 9]
00000000: 075b 3ebc a6c6 0abf 8b91 66bd 2853 c53e
00000010: 46be b63e ea83 923d 40b4 943d 1c5a 593e
00000020: fad8 983b c26f 273d eef8 a4be 9f56 133f
00000030: 0e2d ec3d 3a98 2a3d e30f 45be a6fd 1fbf
00000040: 43f1 6b3e fb7c d83e 4abb a83d e850 4e3e
00000050: fe9b 303f 7ec0 043f 7ee8 11be 8b91 ddbb
00000060: 0213 243e d2f6 b43d 426e 7b3d ebe9 12bf
00000070: 8c66 d03e 4e4c b1be dc39 7dbf ff4b 8e3e
00000080: e2b8 27be 4358 bc3e b3dd e83d ba91 383e
00000090: 0224 36bf cac3 f73e 799d 873d 1c80 bb3d
000000a0: a2b5 95bd f0d8 8cbe 8759 1abe 4f1b 303c
000000b0: f362 6ebe b32f d33e 9681 3cbe 83a6 7dbe
000000c0: 628e 783b b9a9 0b3f 2f61 e63e e2e8 bf3d
000000d0: 5f87 c93d f080 25bf 04ed e5be ae1c a4bb
000000e0: 2ebe fb3e 3426 163e 3950 9b3e 7e2e 203e
000000f0: 74ec 49bf b2f5 1c3e 2eeb 4abd a69b 69be
00000100: 94d0 4a3e 417c a33d 2f78 cbbe 980a 893e
00000110: b7ee 1f3e 0259 1fbf 8b6b d8be 560c 613e
00000120: f7a4 b8be 4a04 313e 60da 6abd c7ab 23be
00000130: a39c b2be b438 01be 25ba a03e b3f7 2e3e
00000140: d74a 5f3e 5b44 d7be 523b ba3e 34f4 ddbd
00000150: 2067 a6bd 84f4 b53e 55bf 9f3e 3e00 f13e
00000160: 7449 cabd 6cb8 3e3e d232 f73a d4d2 a6be
00000170: b839 e13e 5c53 c33e 643d a03e 3ec3 ffbe
00000180: abd3 9dbd d7dc b3be 660b 9b3e ce7c 933e
00000190: 609e b33e 2bc2 34be 57b9 a7be bef2 8c3e
000001a0: a244 d6be 7cad 8abe f7bc 613d b6d3 ccbe
000001b0: f050 aabd 0fa2 003d 4a98 debe 9d7b 9dbe
000001c0: 5fe9 3dbe b63b e4bc 07db b23e 9ae5 28be
000001d0: 59e6 88bd 02ab 15bf 0aa3 ad3d 89c5 1dbf
000001e0: 7050 d2bb ba76 c3be fbcd c83e fe5b 793e
000001f0: 1ab0 55be 3bb1 40be fa21 1a3f e6af edbb
00000200: ba03 f6bd 9216 b83e c2d9 903e db8b 083e
00000210: ec33 293e cc67 3b3e 23a4 a43e a92e 93be
00000220: 7353 30be f661 50bf 65ef 9dbe 6f1b 2c3e
00000230: 5b98 4abe 242b ccbe 2774 683d 93ea 113f
00000240: e2bf 23bf 6a91 a53e 4b8b 923e 821e 943d
00000250: 7364 a1be d803 933d a71e 93be 1ade f23d
00000260: ba2b 9d3d fe49 f53c 3c1b c2be 0c2b 423e
00000270: ec59 1abf 7ae9 38be bb42 00bf 5307 1c3f
00000280: 008d 883d 0c88 14bf 5cca df3e aabe 3d3f
00000290: 6299 b7be 15de 0abe f10b 03bf d513 203e
000002a0: be54 95bc a477 9f3e 8afb 8bbe 87ae 2f3f
000002b0: 5f1a 28bf 9fa3 c6be 1221 193f 9f5a d73e
000002c0: 43d1 533c 46ba de3e 5b56 033e 3d60 253e
000002d0: ab68 cebe ecc8 e9be ec85 f1ba 0cb0 043f
000002e0: 33c0 2b3d 329a bb3e 1ee6 823f 0ca3 713f
000002f0: f00e 683e a0d6 cf3e 5285 cd3e 0084 f7bc
00000300: 2c46 673c b8ec b43e d783 e93b 34b6 a4be
00000310: c92a 89be fb1e 69be 1f68 843e 703f d2b9
00000320: 167d 40be 8b0f e8ba 822e abbe c610 783e
00000330: b47f f73e f046 1fbe 8b47 d93e fb41 37be
00000340: 1e28 bc39 b8ff a8be c87f 683e 4aa0 153e
00000350: 1a3b 5dbe b06b 153e ce90 aebe 21c8 203e
00000360: 57d2 71be b486 933e 7102 9b3d 940e 87be
00000370: 635c ae3e f342 aa3c fe97 dc3e 0126 11be
00000380: 280a 42be 3566 04bd 6c3d d43e 5838 4f3d
00000390: d653 b23d 942c 70bd fa04 32bf 9e8e 043f
000003a0: ce9b 4ebe 378a b9be 10a8 bcbc 5e46 a1be
000003b0: 30d2 9f3e 2802 bc3c fc2c b2bd a617 953d
000003c0: 6416 cb3e 30bb 77be 96e8 0d3f 2221 3dbe
000003d0: b51f 853e a97b 983e e6c9 353f 0234 40bf
000003e0: 83db d43e 100b 403e 0f90 98be c779 363f
000003f0: 8c2f 8fbe ad26 883d f1e6 10bf 481d 3e3b
-0.011618382 -0.54209363 -0.056291144 0.38540006 0.35692042 0.07154067 0.072609425 0.2122578
0.0046645375 0.040878065 -0.32221168 0.5755405 0.11532031 0.04164908 -0.19244342 -0.6249641
0.23041253 0.42282853 0.082388476 0.20148051 0.68988025 0.5185622 -0.14248845 -0.006761735
0.16022876 0.0883614 0.061384447 -0.5738818 0.40703237 -0.34628528 -0.9891641 0.27792355
-0.16379121 0.36786088 0.11370411 0.1802434 -0.71148694 0.48391563 0.066218324 0.09155294
-0.07310034 -0.2750926 -0.15073214 0.010748698 -0.23279934 0.4124733 -0.18408808 -0.2477055
0.0037926664 0.5455585 0.4499602 0.09370591 0.09840273 -0.6464987 -0.4490739 -0.0050083017
0.49168533 0.14663011 0.30334643 0.15642735 -0.78876424 0.153281 -0.04954069 -0.22813281
0.19806129 0.07982684 -0.3974013 0.26765895 0.15618406 -0.6224519 -0.4226955 0.21977362
-0.36063358 0.17286792 -0.057337165 -0.15983497 -0.3488513 -0.12619287 0.31392017 0.17086677
0.21805893 -0.4204434 0.36373383 -0.10837594 -0.08125138 0.35538113 0.31200662 0.47070497
-0.09877291 0.18625039 0.001885975 -0.32582724 0.43989348 0.38149536 0.31296837 -0.49953645
-0.07706388 -0.35129425 0.30282134 0.28806156 0.35081768 -0.17652194 -0.3275859 0.27528948
-0.41849238 -0.27085483 0.05511185 -0.40005273 -0.08316219 0.03140455 -0.43475562 -0.30758372
-0.18546055 -0.027860504 0.3493273 -0.16493836 -0.0668456 -0.5846406 0.08478363 -0.6162954
-0.0064182803 -0.3817652 0.3921965 0.24351498 -0.20867959 -0.18817608 0.60208094 -0.0072536347
-0.120124295 0.3595472 0.28291136 0.133346 0.16523713 0.18301314 0.32156476 -0.28746536
-0.17219333 -0.81399477 -0.30846706 0.1680734 -0.19784681 -0.39876664 0.056751397 0.56998557
-0.63964665 0.32337505 0.28621897 0.072323814 -0.3152195 0.071784675 -0.28734323 0.11858769
0.07674356 0.029942509 -0.37911403 0.18961734 -0.6029346 -0.18057814 -0.5010182 0.60948676
0.066675186 -0.5802009 0.43709075 0.74119055 -0.3585921 -0.1356128 -0.51190096 0.15632565
-0.018228885 0.31145966 -0.27340347 0.6862568 -0.6566524 -0.38796708 0.59816086 0.42061326
0.01292831 0.4350149 0.12825911 0.16149993 -0.4031423 -0.45661104 -0.0018426753 0.51831126
0.041931342 0.3664108 1.0226476 0.94389415 0.22661948 0.40593433 0.40140778 -0.03021431
0.014115851 0.35336852 0.0071263122 -0.3217026 -0.26790455 -0.22765724 0.25860688 -0.00040101586
-0.18797716 -0.0017704827 -0.3343392 0.24225149 0.48339617 -0.15554404 0.42437395 -0.17896263
0.00035888044 -0.33007598 0.22704995 0.14611927 -0.21604577 0.14591861 -0.34094852 0.15701343
-0.23615395 0.28813708 0.07568825 -0.2637831 0.3405486 0.020783877 0.4308471 -0.14174654
-0.18949187 -0.032324035 0.4145311 0.050590843 0.08707397 -0.058636263 -0.69538844 0.51780117
-0.20176622 -0.36238262 -0.023029357 -0.31498998 0.31215048 0.022950247 -0.08699986 0.07279901
0.3966552 -0.241925 0.5543302 -0.1846967 0.26000753 0.29781845 0.710112 -0.7507936
0.41573724 0.1875422 -0.29797408 0.7127957 -0.27965963 0.06648002 -0.5660239 0.0029009152

network_body.linear_encoder.seq_layers.0.bias f4 [128]
00000000: 0000 0000 0000 0000 0000 0000 0000 0000
00000010: 0000 0000 0000 0000 0000 0000 0000 0000
00000020: 0000 0000 0000 0000 0000 0000 0000 0000
00000030: 0000 0000 0000 0000 0000 0000 0000 0000
00000040: 0000 0000 0000 0000 0000 0000 0000 0000
00000050: 0000 0000 0000 0000 0000 0000 0000 0000
00000060: 0000 0000 0000 0000 0000 0000 0000 0000
00000070: 0000 0000 0000 0000 0000 0000 0000 0000
00000080: 0000 0000 0000 0000 0000 0000 0000 0000
00000090: 0000 0000 0000 0000 0000 0000 0000 0000
000000a0: 0000 0000 0000 0000 0000 0000 0000 0000
000000b0: 0000 0000 0000 0000 0000 0000 0000 0000
000000c0: 0000 0000 0000 0000 0000 0000 0000 0000
000000d0: 0000 0000 0000 0000 0000 0000 0000 0000
000000e0: 0000 0000 0000 0000 0000 0000 0000 0000
000000f0: 0000 0000 0000 0000 0000 0000 0000 0000
00000100: 0000 0000 0000 0000 0000 0000 0000 0000
00000110: 0000 0000 0000 0000 0000 0000 0000 0000
00000120: 0000 0000 0000 0000 0000 0000 0000 0000
00000130: 0000 0000 0000 0000 0000 0000 0000 0000
00000140: 0000 0000 0000 0000 0000 0000 0000 0000
00000150: 0000 0000 0000 0000 0000 0000 0000 0000
00000160: 0000 0000 0000 0000 0000 0000 0000 0000
00000170: 0000 0000 0000 0000 0000 0000 0000 0000
00000180: 0000 0000 0000 0000 0000 0000 0000 0000
00000190: 0000 0000 0000 0000 0000 0000 0000 0000
000001a0: 0000 0000 0000 0000 0000 0000 0000 0000
000001b0: 0000 0000 0000 0000 0000 0000 0000 0000
000001c0: 0000 0000 0000 0000 0000 0000 0000 0000
000001d0: 0000 0000 0000 0000 0000 0000 0000 0000
000001e0: 0000 0000 0000 0000 0000 0000 0000 0000
000001f0: 0000 0000 0000 0000 0000 0000 0000 0000
0.0 0.0 0.0 0.0 0.0 0.0 0.0 0.0
0.0 0.0 0.0 0.0 0.0 0.0 0.0 0.0
0.0 0.0 0.0 0.0 0.0 0.0 0.0 0.0
0.0 0.0 0.0 0.0 0.0 0.0 0.0 0.0
0.0 0.0 0.0 0.0 0.0 0.0 0.0 0.0
0.0 0.0 0.0 0.0 0.0 0.0 0.0 0.0
0.0 0.0 0.0 0.0 0.0 0.0 0.0 0.0
0.0 0.0 0.0 0.0 0.0 0.0 0.0 0.0
0.0 0.0 0.0 0.0 0.0 0.0 0.0 0.0
0.0 0.0 0.0 0.0 0.0 0.0 0.0 0.0
0.0 0.0 0.0 0.0 0.0 0.0 0.0 0.0
0.0 0.0 0.0 0.0 0.0 0.0 0.0 0.0
0.0 0.0 0.0 0.0 0.0 0.0 0.0 0.0
0.0 0.0 0.0 0.0 0.0 0.0 0.0 0.0
0.0 0.0 0.0 0.0 0.0 0.0 0.0 0.0
0.0 0.0 0.0 0.0 0.0 0.0 0.0 0.0

network_body.linear_encoder.seq_layers.2.weight f4 [128, 128]
00000000: 0e20 af3c 497b 1d3d 6333 443d 51c8 5c3d
00000010: df07 77bc 71e7 ff3c ae90 4bbe 77f2 c7bc
00000020: 6aa6 0d3e 8439 93bd 1766 bb3b 791c 71be
00000030: 7dce 19be 7c27 a43c 6402 9e3d 2969 b5bd
00000040: 3a08 183e 6f7d 033d 72ec 7dbc 6e93 473e
00000050: 1804 48be 046b 6b3d 336b 743d f744 463d
00000060: 3901 1a3e 6ae3 7cbd b019 a4bd 7fc1 a33d
00000070: 78bc 8bbd d680 863e f373 1e3e 8b49 7f3c
00000080: 1def 4c3d 7cd1 d53d 1106 603d 031b d8bc
00000090: 0906 3cbd 1db5 88bd 86d0 403e 353c 72bc
000000a0: a7dc c23d 8c62 10be dba4 843d ff05 213d
000000b0: 459f f73c 1158 033d ec7c 083e 897b 92bd
000000c0: 49cc 69bc 1a6b fcbc ec98 a13d b68e 50be
000000d0: 03df 7f3c 6876 22bd c577 dcbd b2e8 3fbd
000000e0: 5505 01bd db52 8dbd f540 43bd 4dc0 c8bd
000000f0: c51b dcbd 904a 26be 10f8 b3bc 7357 463d
00000100: 2f52 0ebc 3da6 b23c a8cd de3b addb 08be
00000110: 0dce 04bd b3a8 2e3d 4d2a 643d eaaa 2e3d
00000120: 92ad c5bd 0948 de3d 6c58 9d3c 06c4 363e
00000130: 58e6 bfbd b016 97bd 237d be3c c098 ecbc
00000140: d42a f0bc 5a67 28bd 1d84 28be 6658 b63b
00000150: e5ce 1b3d 2a22 93bd ab93 4cbd 6a77 2ebe
00000160: 3494 d23d 2a4c 17bc 9b54 043d b1d2 fabc
00000170: 6f05 2ebd b4e2 6d3d f976 c13d 2da2 08be
00000180: 2535 2a3c 89f2 6b3d 80a2 c6bc 168a 073e
00000190: 40f7 f73d a601 18bd a0ce 16be 3640 173e
000001a0: f46f b5bb 2dd4 09be 6cb2 99bd c161 523d
000001b0: 33e4 103e fdf6 c23c ae5f 443e 1420 b4bd
000001c0: fd06 293d 8548 efbd 3596 06bd 7ae9 253d
000001d0: 7828 e73c 69db db3d ab39 2f3e 1176 13be
000001e0: 9445 e3bd dd9b 203c 52d3 ca3c cc9b 763d
000001f0: 4e9e 093d 865c b23c 0309 2a3d 47ba 1b3e
00000200: 08b5 03be ec62 1abc 44a0 16be 30dd cc3d
00000210: 32b2 d7bd d19b 4dbd 1d66 0ebd 826b 593c
00000220: a8a9 5c3d 5a62 f0bc 89a4 e43d cb2e 2fbd
00000230: 34e2 813d 685a 4bbd 047c a43c 7b4e ffbd
00000240: db1e 6a3d c723 c43b 2130 4c3d f402 6e3d
00000250: dc84 1a3b d87d 953d ee2c f13d 6015 13be
00000260: 36be 873c 3151 61bd 2596 943d 6a67 d83c
00000270: 04fd 31bd cc0a 7fbc 96b4 893d ebaf 80bd
00000280: 9e4b fe3b 8bcd c2bd 7beb 703d 6d02 63bc
00000290: 9d18 ef3b 9f05 90bd a8e2 bbbd 0c56 cfbd
000002a0: d850 d83d 4063 2d3e b8c1 383d d37c 14bd
000002b0: 78d1 c33d 31ce c33d a8db 273d 60ee 13bd
000002c0: c956 a73d 999c d2bc fa09 b23d a2f8 3f3e
000002d0: f435 433d c795 7b3d 2d74 01bd b44e 12bd
000002e0: 1238 953d 65a2 443e 374d 523c 7f6c cb3d
000002f0: 2818 0e3d 56de bf3c 6337 a7bd 5ec8 d33d
00000300: c4a7 b7bd 4c45 a9bc 8ae8 943d 0765 35bd
00000310: 3ad6 f9bc 919b fdb9 262b 47bd 33eb 72bd
00000320: 6d8d 9b3c ade7 073e 7ab3 b23d 8190 05be
00000330: db43 16be bc5b f4bd a4b9 943d 133e 00be
00000340: 0f1a 4c3d 5103 c0bd a313 3d3d 6d38 003e
00000350: 5fd5 66bd 5147 26bd 1117 a2bd 3c6c 133d
00000360: 2d0e 293d cc51 99bd 5396 793d 10c4 cbbd
00000370: 8f76 24be aad7 b0bd 4e45 e8bc 8107 423e
00000380: 14d1 85bd 1717 b73d a4a4 813e c87d 71bd
00000390: 201f 843d a939 b53d d3b1 b13d 3376 b0bb
000003a0: ea65 a53d d539 eb3d 3373 ec3d 19a9 93bc
000003b0: 1b06 553d 05e6 1f3e 0672 bc3c 06b6 ad3c
000003c0: 1985 123e 2165 103e ff26 b73d ce8d 4ebd
000003d0: a490 f4bd f947 853d 2c2f 703e 3b2d 32bd
000003e0: afba 03be 8b59 0aba 0184 f9bd 4eb3 b23d
000003f0: bd5e 43bd bbc5 373d b148 32bd 6a93 c83c
0.02137759 0.038447652 0.04790057 0.053901974 -0.01507756 0.03123829 -0.1987941 -0.024407608
0.13833013 -0.071887046 0.005718957 -0.23546018 -0.15020175 0.020038359 0.077153 -0.08857948
0.14846888 0.032102045 -0.0154982675 0.19489834 -0.19532812 0.057475105 0.059672546 0.048405614
0.15039529 -0.061740316 -0.08012712 0.07995891 -0.06823057 0.2627017 0.15473919 0.015581499
0.050032724 0.104403466 0.054693285 -0.026380068 -0.045904193 -0.066751696 0.18829545 -0.014784862
0.09514742 -0.14100093 0.06476756 0.03931236 0.030227313 0.03206641 0.13328904 -0.07152469
-0.014269897 -0.030812789 0.07890496 -0.2036694 0.015617135 -0.039663702 -0.10765032 -0.046852775
-0.031499226 -0.06900569 -0.04766937 -0.098023035 -0.10747484 -0.16239381 -0.021968871 0.04842324
-0.008686586 0.021807784 0.0067994185 -0.1336505 -0.032423068 0.042641353 0.055704404 0.042643465
-0.096522465 0.10853583 0.019207202 0.17848215 -0.093701065 -0.07377374 0.02325303 -0.02888143
-0.029317297 -0.04111419 -0.16456647 0.005564737 0.038039107 -0.07184251 -0.049945515 -0.1703774
0.10282174 -0.0092344675 0.03230725 -0.030618044 -0.04248565 0.05807753 0.0944652 -0.13343115
0.010388647 0.057604346 -0.024247408 0.1323627 0.12107706 -0.037110947 -0.14727259 0.14770588
-0.0055370275 -0.13459845 -0.075047344 0.051362757 0.14149551 0.023799414 0.19177124 -0.08795181
0.04126643 -0.11683754 -0.032858092 0.040505864 0.02821754 0.107352085 0.17111842 -0.14400508
-0.11097255 0.009802786 0.024758969 0.060207173 0.033598237 0.021772634 0.0415125 0.15207778
-0.12862027 -0.009422999 -0.14709574 0.10003126 -0.10532035 -0.050197426 -0.03476535 0.013270261
0.053872734 -0.029343773 0.11164195 -0.042769235 0.06341973 -0.049646765 0.020078667 -0.12466141
0.057158332 0.0059857103 0.049850587 0.058108285 0.0023577726 0.072993934 0.11776148 -0.14363623
0.016570192 -0.05500907 0.072552 0.0264165 -0.043454185 -0.015566539 0.06723897 -0.06283554
0.007760479 -0.095118605 0.05881832 -0.013855559 0.0072966353 -0.07032322 -0.091740906 -0.10123834
0.10562295 0.16932392 0.04510662 -0.036251854 0.09561437 0.09560812 0.040980965 -0.036116004
0.0817085 -0.025709437 0.08693309 0.1874719 0.047658876 0.061422136 -0.031604934 -0.03571959
0.07286085 0.19202574 0.012835792 0.09932803 0.034691006 0.023421448 -0.08164861 0.103409514
-0.08967546 -0.020662926 0.07270916 -0.0442858 -0.030497659 -0.00048371826 -0.048625134 -0.059306335
0.018988336 0.13271971 0.08725639 -0.13043405 -0.14674322 -0.119315594 0.07261971 -0.1252368
0.04982954 -0.093756326 0.046161305 0.12521525 -0.05635583 -0.040595356 -0.07914556 0.035991892
0.041273285 -0.07486305 0.060934376 -0.09949505 -0.16060852 -0.08634885 -0.02835336 0.18948175
-0.06534019 0.08939951 0.25320923 -0.058957845 0.06451249 0.088488884 0.086764954 -0.005385184
0.08076079 0.1148564 0.1154541 -0.018024968 0.052007776 0.15615089 0.02300359 0.02120496
0.14308585 0.14101078 0.08942985 -0.050428204 -0.119416505 0.06507868 0.23455495 -0.043500166
-0.12864183 -0.0005277625 -0.12183381 0.08725606 -0.04769777 0.044866305 -0.043526355 0.024484355

network_body.linear_encoder.seq_layers.2.bias f4 [128]
00000000: 0000 0000 0000 0000 0000 0000 0000 0000
00000010: 0000 0000 0000 0000 0000 0000 0000 0000
00000020: 0000 0000 0000 0000 0000 0000 0000 0000
00000030: 0000 0000 0000 0000 0000 0000 0000 0000
00000040: 0000 0000 0000 0000 0000 0000 0000 0000
00000050: 0000 0000 0000 0000 0000 0000 0000 0000
00000060: 0000 0000 0000 0000 0000 0000 0000 0000
00000070: 0000 0000 0000 0000 0000 0000 0000 0000
00000080: 0000 0000 0000 0000 0000 0000 0000 0000
00000090: 0000 0000 0000 0000 0000 0000 0000 0000
000000a0: 0000 0000 0000 0000 0000 0000 0000 0000
000000b0: 0000 0000 0000 0000 0000 0000 0000 0000
000000c0: 0000 0000 0000 0000 0000 0000 0000 0000
000000d0: 0000 0000 0000 0000 0000 0000 0000 0000
000000e0: 0000 0000 0000 0000 0000 0000 0000 0000
000000f0: 0000 0000 0000 0000 0000 0000 0000 0000
00000100: 0000 0000 0000 0000 0000 0000 0000 0000
00000110: 0000 0000 0000 0000 0000 0000 0000 0000
00000120: 0000 0000 0000 0000 0000 0000 0000 0000
00000130: 0000 0000 0000 0000 0000 0000 0000 0000
00000140: 0000 0000 0000 0000 0000 0000 0000 0000
00000150: 0000 0000 0000 0000 0000 0000 0000 0000
00000160: 0000 0000 0000 0000 0000 0000 0000 0000
00000170: 0000 0000 0000 0000 0000 0000 0000 0000
00000180: 0000 0000 0000 0000 0000 0000 0000 0000
00000190: 0000 0000 0000 0000 0000 0000 0000 0000
000001a0: 0000 0000 0000 0000 0000 0000 0000 0000
000001b0: 0000 0000 0000 0000 0000 0000 0000 0000
000001c0: 0000 0000 0000 0000 0000 0000 0000 0000
000001d0: 0000 0000 0000 0000 0000 0000 0000 0000
000001e0: 0000 0000 0000 0000 0000 0000 0000 0000
000001f0: 0000 0000 0000 0000 0000 0000 0000 0000
0.0 0.0 0.0 0.0 0.0 0.0 0.0 0.0
0.0 0.0 0.0 0.0 0.0 0.0 0.0 0.0
0.0 0.0 0.0 0.0 0.0 0.0 0.0 0.0
0.0 0.0 0.0 0.0 0.0 0.0 0.0 0.0
0.0 0.0 0.0 0.0 0.0 0.0 0.0 0.0
0.0 0.0 0.0 0.0 0.0 0.0 0.0 0.0
0.0 0.0 0.0 0.0 0.0 0.0 0.0 0.0
0.0 0.0 0.0 0.0 0.0 0.0 0.0 0.0
0.0 0.0 0.0 0.0 0.0 0.0 0.0 0.0
0.0 0.0 0.0 0.0 0.0 0.0 0.0 0.0
0.0 0.0 0.0 0.0 0.0 0.0 0.0 0.0
0.0 0.0 0.0 0.0 0.0 0.0 0.0 0.0
0.0 0.0 0.0 0.0 0.0 0.0 0.0 0.0
0.0 0.0 0.0 0.0 0.0 0.0 0.0 0.0
0.0 0.0 0.0 0.0 0.0 0.0 0.0 0.0
0.0 0.0 0.0 0.0 0.0 0.0 0.0 0.0

value_heads.value_heads.extrinsic.weight f4 [1, 128]
00000000: e219 dd3d 37d0 0a3e 5c27 123d d8b8 49be
00000010: 305b e0bb 334e 9b3d d8d5 8dbd 5095 8ebc
00000020: 5617 a73d 430f 62bb 9ee5 04bd 78f2 5c3d
00000030: 5d22 5c3e a686 a93d 86ed 22be 78b9 f93d
00000040: 6693 ef3d 9ebb 89bc dfb5 40bd c4c9 54be
00000050: c8cb 723d 943f 473e f044 193e 376c 95bd
00000060: a677 c6bd 535d 54be 6c22 083d 0f70 61bd
00000070: 5cb5 2d3e dbd6 123e ec67 d03d 79f8 83bd
00000080: 636e ff3c 5b96 533e 5906 823d e823 a03d
00000090: 1e1c 173e 4730 54be 27f7 023c c721 debd
000000a0: 4a42 cbbd 36b0 0cbe 9a7a 593d 9b25 6e3d
000000b0: 0317 703d 7099 4c3e 208c 383e 5515 e5bd
000000c0: de1a 2b3e 9ae9 e6bc 44fd 1e3c 8795 d73d
000000d0: ad01 bcbc 4909 0d3e 6696 1dbc 1968 55be
000000e0: 40b6 d83d 4cd5 423e 0801 3a3e 2749 0bbe
000000f0: 179b 173e 1c98 6ebd 4824 f7bd 6021 f83d
00000100: 16bc 0e3e 588b 0cbe 8edd eb3c 3f4a 013d
00000110: 524d 2c3e 10d6 2cbe a722 0fbe e71f 2dbd
00000120: af02 32be 5b76 3f3e c51d d8bd 3663 77bc
00000130: 3b19 3b3e 4914 57be 7974 043d edba 79bc
00000140: 8ec8 fabd 846a f2bc 9c60 58be a003 0abc
00000150: f678 1a3e 67ba 22be a48d 9fbd b7a2 aebc
00000160: c5ca 89bd e856 29bd e948 363e 994c 883d
00000170: 8d61 a0bd b014 76bd b428 2c3e eacc 243e
00000180: 5894 e7bd c9c1 b63d 6d5b f93d be88 c6bd
00000190: 2742 c63d 56da 783d 695f 263e 1e34 7c3d
000001a0: f303 1f3c 3a53 57be 7dc6 babd c244 4abe
000001b0: 03f6 bbbd 9fe7 743d 52de 5e3c fc82 853d
000001c0: f46a e5bd 83d3 5b3e 24b9 583e 2927 dd3d
000001d0: 0e31 e2bd 2d40 53be 0009 0abe be75 35be
000001e0: a609 25bd 8786 86bc 00fc 0cbe b1a1 bb3d
000001f0: ec1f 2abe 6960 c1bb 7014 e3bd f3ca 0bbe
0.107959524 0.1355599 0.035682067 -0.19699419 -0.006846808 0.07583275 -0.06925553 -0.017405182
0.08158748 -0.003449396 -0.032445543 0.053942174 0.21497484 0.08277635 -0.1591092 0.121935785
0.11698036 -0.016813096 -0.047048446 -0.20780092 0.059276372 0.19457847 0.14967704 -0.07296031
-0.0969079 -0.20738725 0.033235952 -0.055038508 0.16963714 0.14339773 0.101760715 -0.06443877
0.031180566 0.20662825 0.06348867 0.078193486 0.1475682 -0.20721541 0.007993496 -0.10846286
-0.09924753 -0.13739094 0.053095438 0.058141332 0.058615696 0.19980407 0.18022203 -0.111857094
0.16709468 -0.028187562 0.009703938 0.10526567 -0.022950018 0.13773073 -0.009618377 -0.20840491
0.105816364 0.19026679 0.18164456 -0.13602124 0.14805256 -0.05825053 -0.12067467 0.12115741
0.13938937 -0.1372503 0.028792169 0.031564947 0.1682637 -0.16878533 -0.13978063 -0.042266753
-0.17383836 0.18697493 -0.10552553 -0.015099337 0.18271343 -0.21003832 0.03233764 -0.0152423205
-0.12245284 -0.029591806 -0.21130604 -0.008423716 0.15085205 -0.1589142 -0.07790688 -0.021317823
-0.06728128 -0.041342646 0.1780125 0.06655235 -0.07831106 -0.060078323 0.16812402 0.16093794
-0.11307591 0.0892368 0.12175641 -0.0969405 0.09680586 0.060755096 0.16247334 0.06157314
0.009705531 -0.21027842 -0.0911989 -0.19752792 -0.091777824 0.059791204 0.01360281 0.06519124
-0.1120204 0.21467404 0.21164376 0.10798485 -0.11044513 -0.2062995 -0.13479996 -0.17720696
-0.040292405 -0.01642157 -0.13768005 0.091616996 -0.1661374 -0.0059013856 -0.110878825 -0.13651638
