results/ppo/My Behavior/My Behavior-24800.onnx (onnx, 72951 bytes, 7 tensors)

action_model._continuous_distribution.log_sigma f4 [1, 2]
000000 dc 08 5a 3a 55 02 4f 3a
       0.000831736 0.0007896771

action_model._continuous_distribution.mu.bias f4 [2]
000000 0e 69 bd b7 74 47 0b 3a
       -2.2579476e-05 0.00053130765

action_model._continuous_distribution.mu.weight f4 [2, 128]
000000 95 72 7d ba d6 a8 48 3c fb ff f9 3b 10 54 53 3d
       -0.0009668258 0.012247285 0.007629392 0.05159384
000010 e7 8d 2f bd c1 cc 86 3c 5b 21 4f 3a a5 fb 26 bc
       -0.042859938 0.016455056 0.00079013937 -0.010191833
000020 53 b5 4b bd e0 db f0 bb 15 36 e5 3c db 50 08 bd
       -0.04973347 -0.00735043 0.02797989 -0.033280235
000030 eb 5b cf 3b 57 17 58 bb 99 98 4c bc 2b 15 f4 3c
       0.006328096 -0.0032972896 -0.012487554 0.02979525
000040 ca 04 cd b9 b3 9f f1 bc ce 1a d2 3c aa a2 84 bb
       -0.00039104215 -0.029495096 0.025647547 -0.0040477114
000050 e5 8d 7f bb bd 3e 82 3c 73 3d e4 3b a0 64 e9 3c
       -0.0038994488 0.015899057 0.006965333 0.028490365
000060 13 65 c9 3c d8 f5 9e 3c 4c 9a e8 bb 58 5d 85 bc
       0.024584329 0.019404337 -0.0070984717 -0.016279861
000070 cc 03 b5 bb 0d 4a 43 3c 22 66 b3 ba fa 90 e6 3c
       -0.0055241343 0.011919511 -0.0013687054 0.028145302
000080 e7 04 76 bc 65 dd 18 3d 18 d3 97 bb c4 40 a6 3c
       -0.015015817 0.037320513 -0.0046333186 0.020294555
000090 e3 b5 87 3b 0a 3a 94 3a da 13 19 3a 90 2b 46 bc
       0.0041415556 0.0011308801 0.0005839445 -0.012095347
0000a0 30 2d 42 3b 65 1b 98 bc 76 30 00 bb 73 d9 f2 bb
       0.0029628985 -0.01856775 -0.0019560135 -0.007411176
0000b0 ef 3f c8 3c f4 d4 cf bc c7 65 e7 bb 1c 34 bc 3c
       0.024444548 -0.025370099 -0.0070616934 0.022974066
0000c0 af 81 33 3c ee 95 17 bd f5 e8 23 3d 9d 78 62 3c
       0.010956212 -0.03700822 0.040017087 0.013822702
0000d0 8f 2d 31 bb 0b 3e e7 3c 90 e1 ac ba c6 2e 00 3d
       -0.0027035212 0.028227827 -0.0013189781 0.031294607
0000e0 18 70 95 3b 25 a9 f4 3b 4d 2a 9f 3c eb 5e ad b9
       0.0045604818 0.0074664527 0.01942935 -0.0003306785
0000f0 90 69 35 3c 09 81 1b 3b 60 66 67 3c e5 da da bb
       0.011072531 0.0023728034 0.014123529 -0.0066789263
000100 b8 37 26 bb 64 3b 58 bc dd b2 a7 bc aa 06 eb bb
       -0.00253628 -0.013197754 -0.02047103 -0.0071724253
000110 e8 ba 12 3c ea 9e e0 3c 69 c2 69 3c 68 88 22 3d
       0.008955695 0.027419526 0.014267542 0.03968087
000120 8f e2 9b 3c ee c9 2c 3b 2d ed 04 3c 09 df 5e bc
       0.01902893 0.0026365477 0.008113188 -0.01360298
000130 34 06 c5 3b 93 8c de 3a e0 8b b5 3c ff e1 59 3b
       0.0060127024 0.001697915 0.022161424 0.0033246276
000140 3f 2b 6c 3c ea 9a f0 3a 41 c1 2a 3b 1c 17 76 3b
       0.014414608 0.0018356715 0.002605513 0.0037550395
000150 f4 88 9d bb ca 03 df bc 09 f3 aa bb 06 70 ad 3c
       -0.004807586 -0.027223486 -0.0052169603 0.021171581
000160 ee 05 d5 bc 83 ec 09 3c ff 25 06 bc 9a 6e f5 3a
       -0.026003804 0.008418205 -0.00818777 0.0018724978
000170 6a 66 8f bb a8 00 04 3c d9 98 ba bc 39 8f 82 3a
       -0.0043762224 0.008056797 -0.022777962 0.0009960897
000180 8c 37 e7 3a d0 9f e7 3b 50 32 7f 3c 04 b8 d1 bc
       0.0017640456 0.0070686117 0.01557596 -0.02560044
000190 1a b1 5a 3c 0e 77 12 bc ba f5 83 3c 57 5c 20 bd
       0.013347888 -0.008939518 0.016108382 -0.039150562
0001a0 f7 4c 46 bc 63 46 96 39 fc e3 1a 3b 53 67 ea 3a
       -0.012103311 0.00028662672 0.0023634424 0.0017883576
0001b0 69 21 96 3c 51 bc 35 3c 8c e2 f9 3c 2c d5 03 bc
       0.018326478 0.011092261 0.030503534 -0.00804643
0001c0 5a de 15 ba 22 56 28 3c 31 65 02 bc 9c 0a 45 bc
       -0.0005717032 0.010274442 -0.007958696 -0.012026455
0001d0 fc 51 1b bb c3 cb 54 3c d5 f1 90 3b 9f f0 48 bc
       -0.002369999 0.012988034 0.00442336 -0.0122644
0001e0 39 ed 70 3c 9d 4e a3 bc 83 d0 d0 bc e9 9b 9a 3a
       0.014704996 -0.019934947 -0.025490051 0.0011795732
0001f0 c8 8b b3 3c b5 ab a5 3b ff f1 b1 3c 62 23 c3 bc
       0.021917239 0.0050558695 0.021721838 -0.023820583
000200 96 b1 6e bc a2 16 15 bd 73 8a 64 bb c4 e8 05 bc
       -0.014568707 -0.036398537 -0.0034872561 -0.008173171
000210 0a dd d0 bc 05 bd 16 3d ff d5 d2 3c 2a 1b 55 bb
       -0.025496025 0.036801357 0.025736807 -0.0032517412
000220 6d 23 03 bd c5 37 a5 bc 0d 67 ad bc a7 29 d6 bb
       -0.032016207 -0.020168195 -0.021167303 -0.006535727
000230 c0 b5 11 bb 7e a7 61 bc 30 ac 8a bc 2c a6 c1 3c
       -0.0022233576 -0.013772843 -0.016927809 0.023638807
000240 48 81 5f bb 96 c4 33 3c 25 a4 8c bc 6f 4f 8c b9
       -0.0034104157 0.010972163 -0.017168114 -0.00026762063
000250 5e 2d 98 3c a3 b0 2a bc 25 86 c4 3c 15 f3 83 3c
       0.01857632 -0.01041809 0.023989746 0.016107121
000260 69 cc 65 3c 7d d2 17 3c cc cd 83 3c 06 76 44 3c
       0.014025786 0.009266493 0.016089343 0.01199103
000270 aa 14 fc bc de 11 7b bb 86 78 fb bb 93 89 92 3c
       -0.030771572 -0.003831021 -0.0076742796 0.017887866
000280 fb 07 8f 3c e7 60 c3 3c fc 0a 2e 3c 45 ac 83 3c
       0.01745986 0.023849918 0.010622736 0.016073355
000290 f6 6c d0 bc 99 c2 3a 3c 6c f5 5f ba 73 60 37 bb
       -0.025442582 0.011398935 -0.00085433456 -0.0027981072
0002a0 51 b4 e0 bc fd 9f 68 bc a8 07 51 bb 0a 6a 03 3c
       -0.027429732 -0.0141983 -0.0031895433 0.008020887
0002b0 6e 0c 12 bd d7 db 7a bb dc b2 43 3d 53 bb b7 3c
       -0.035656385 -0.0038278007 0.047777995 0.02242819
0002c0 62 a2 bb 3c 1c 9a ae 3c eb a3 ed bb 2a 70 e2 b9
       0.022904579 0.02131372 -0.0072522066 -0.00043189648
0002d0 36 8d a1 bb 02 99 e9 3c 36 0c 8b bb 97 5f 85 3c
       -0.0049301637 0.028515343 -0.004243399 0.016280932
0002e0 ce a4 1b bc 41 34 a5 bb 71 fa b3 3c bf 36 bc bc
       -0.009499742 -0.0050416295 0.021970006 -0.022975324
0002f0 2e e4 27 3c 8e 60 d1 3b f5 f4 7d 3c 58 43 95 3a
       0.010247273 0.006389684 0.015500297 0.0011387868
000300 1a 85 93 bc f8 aa 00 bd be dd b8 3a 86 e7 e6 bc
       -0.018007804 -0.03141305 0.001410417 -0.02818657
000310 07 c6 06 3c 7e ae 3c bc 3f e3 38 3c ec d7 42 bb
       0.008225924 -0.011516212 0.011284648 -0.002973075
000320 9f 2d 10 bc 32 ff 46 bc 22 db 30 bc 3d 7f 29 bc
       -0.008799939 -0.012145804 -0.010794433 -0.010345277
000330 18 19 df bb d4 23 bc bb c0 6a 6b 3c f5 9d 1d bc
       -0.0068084113 -0.0057415757 0.014368713 -0.009620179
000340 c4 ca 54 3b 1b 5f 87 ba d0 ab f4 bc c0 82 25 3c
       0.003246949 -0.0010328026 -0.029867083 0.010101974
000350 7a a0 23 3c 52 34 64 3b 93 0a 5f bc b9 77 5e bc
       0.009986991 0.0034821224 -0.013613361 -0.013578349
000360 6b 53 c7 bc de 44 83 ba 89 2f da bc 6f 3a e8 bc
       -0.024331769 -0.0010015031 -0.026633995 -0.028348176
000370 29 9b 75 bc d1 23 d4 3b fd 84 b4 3c 51 ee 4e ba
       -0.014990606 0.006473996 0.02203607 -0.0007893788
000380 dd d4 3f b9 32 be 3f 3d f9 0a d7 ba 31 80 00 3c
       -0.00018294477 0.046812244 -0.0016406468 0.007843063
000390 41 0e 92 bb f7 57 95 3c b2 39 4b 3c 03 78 a6 bb
       -0.0044572656 0.018230421 0.012403892 -0.0050802245
0003a0 dc 82 97 3b fd 52 f3 bb b9 99 34 bc f8 7a ae bc
       0.004623754 -0.0074256645 -0.011022978 -0.02129887
0003b0 63 e5 ec 3b 35 e0 44 bc c0 09 c3 3c 45 9c 98 3c
       0.0072294935 -0.012016346 0.02380836 0.018629203
0003c0 51 20 8c 3c f1 01 0a bc d7 c0 9b 3c eb 48 b8 bc
       0.017105253 -0.008423314 0.019012852 -0.022495707
0003d0 55 a1 60 3c 66 18 19 bd 22 81 35 3b 91 46 43 3c
       0.01371034 -0.037376784 0.0027695377 0.01191868
0003e0 f3 67 d2 bc 56 fd 06 3c 48 0a 34 bc 96 01 ac bc
       -0.025684332 0.008239111 -0.010988779 -0.02099685
0003f0 37 43 1f 3c ba ce 7f bc 0a 41 84 bc 81 a8 8b bb
       0.009720615 -0.015613252 -0.016144294 -0.0042620306

network_body.linear_encoder.seq_layers.0.bias f4 [128]
000000 54 67 c5 ba 44 3b 21 b9 07 f8 c0 ba 23 e7 b2 39
       -0.0015060701 -0.00015376235 -0.0014722355 0.00034123016
000010 5d 71 ce ba ea bb 11 39 35 92 15 3a fc 47 61 3a
       -0.0015750338 0.00013898281 0.00057056855 0.00085937954
000020 8d 00 0b 3b ca 88 7d 3a 50 3e 00 ba 07 c2 9d ba
       0.0021210045 0.0009671567 -0.0004892098 -0.0012035974
000030 95 65 73 38 8a 67 4a 39 3c b2 a2 ba 9f da 63 3a
       5.803032e-05 0.00019302792 -0.0012412737 0.000869194
000040 b6 30 88 b9 2e ae 23 bb ed 04 9b b9 d6 e1 e7 ba
       -0.00025976234 -0.0024975645 -0.00029567574 -0.0017691206
000050 28 a1 e0 b8 07 2f bc b8 d7 0a 82 39 22 23 29 ba
       -0.0001071117 -8.973298e-05 0.00024803609 -0.00064520736
000060 eb 18 22 ba 5e fe 2e b9 4f 10 f2 b9 c4 c7 83 bb
       -0.00061835226 -0.00016688692 -0.00046169988 -0.0040216167
000070 ab 3d fb b9 e3 a9 d6 ba 3f b5 d6 39 7f ae bc b9
       -0.00047920397 -0.0016377534 0.000409523 -0.00035988164
000080 0a 5a 75 b7 c6 67 98 ba 67 b3 c5 ba 8c bf a0 39
       -1.4624102e-05 -0.0011627607 -0.0015083373 0.00030660292
000090 41 0e bb ba c0 a7 1a ba 0b d5 cd b9 06 ab 43 ba
       -0.0014271216 -0.00058996305 -0.00039259376 -0.0007464144
0000a0 04 8c 93 ba a8 09 00 bb c6 f4 81 3b f9 91 a7 b9
       -0.0011256938 -0.0019537006 0.003965947 -0.0003196148
0000b0 fb e4 47 ba 49 a9 45 3b 02 19 04 3a da 37 fa b9
       -0.00076253683 0.0030160716 0.0005039127 -0.00047725328
0000c0 c0 8d a6 b9 fd b3 48 b9 66 25 a4 b7 2f c2 24 3a
       -0.000317676 -0.00019140537 -1.9567738e-05 0.0006285039
0000d0 d9 33 17 39 14 76 19 b9 8b fb 35 ba 4b a4 14 bb
       0.00014419797 -0.00014635205 -0.0006942085 -0.0022680934
0000e0 cd 59 50 3a 9c 10 48 ba 5a e7 1c ba c8 4d c1 39
       0.00079479517 -0.00076318695 -0.0005985402 0.0003686978
0000f0 34 1b 11 ba ad 08 d9 b9 17 a4 88 b9 d7 d8 95 ba
       -0.00055353646 -0.0004139593 -0.00026062198 -0.0011432421
000100 14 3c 91 3a bf 83 a3 39 e4 5d 66 3a a5 37 04 3a
       0.0011080527 0.0003118794 0.00087877945 0.0005043692
000110 6a 15 b8 ba 84 84 87 39 44 3c 8c b9 4e 4a fa b9
       -0.0014044468 0.00025847938 -0.00026747782 -0.00047739077
000120 51 14 14 bb 63 27 83 39 f9 e3 74 ba 8f 46 81 ba
       -0.0022595117 0.00025015612 -0.0009341832 -0.0009862947
000130 33 e8 37 b9 b6 2a 57 b9 a4 a5 91 ba 24 59 18 b9
       -0.00017538741 -0.00020519909 -0.0011111987 -0.00014529057
000140 54 90 53 ba 94 55 3e b9 20 ff 34 39 65 f8 ed b8
       -0.0008070518 -0.00018151692 0.00017261179 -0.00011347308
000150 0b 60 32 39 ac 86 9e b9 18 cd 20 b9 92 59 64 39
       0.00017011182 -0.00030236447 -0.00015335192 0.00021777142
000160 85 c1 9b 3a a2 7e 1d b9 f6 bb 9d ba 01 ff 85 b9
       0.0011883235 -0.00015019861 -0.0012034166 -0.0002555773
000170 39 9f 0b b9 70 c4 08 3a e6 f5 f2 b9 67 b0 10 ba
       -0.00013315388 0.000521726 -0.00046341046 -0.000551945
000180 68 45 4d ba 7e 40 96 b9 82 80 8f 3a 4f dc 83 ba
       -0.0007830472 -0.0002865828 0.0010948332 -0.0010060164
000190 37 94 54 3b 25 6f 76 37 9f 1d e6 37 5e 1c a9 38
       0.0032436976 1.46886205e-05 2.743193e-05 8.063832e-05
0001a0 0e 50 10 bb 8c 4a 1f b9 9f 68 44 b9 5a e9 74 b9
       -0.0022020373 -0.00015191193 -0.00018730991 -0.00023356584
0001b0 1a ca fe 35 77 b8 0b 3a 81 32 6c b9 ce 65 70 ba
       1.8983294e-06 0.00053299166 -0.00022525528 -0.00091704435
0001c0 7b 04 04 3a 25 84 51 ba 26 56 ea 3a e8 2d bb ba
       0.0005036068 -0.00079924084 0.0017878457 -0.0014280649
0001d0 c4 50 1e 3a cf af 92 b9 e4 b9 5d b9 22 67 64 39
       0.00060392567 -0.00027978278 -0.00021145452 0.00021782194
0001e0 96 e5 85 b9 e8 05 b8 b7 30 b7 69 3a cb 51 d7 b8
       -0.00025538792 -2.193726e-05 0.00089155417 -0.00010267234
0001f0 a3 dc c3 ba 0d f6 89 ba 62 f4 9f b8 e3 4f a5 39
       -0.0014943074 -0.0010525599 -7.627231e-05 0.00031530773

network_body.linear_encoder.seq_layers.0.weight f4 [128, 6]
000000 55 ef 04 be 8b 13 83 be cc 8d 48 bd b8 76 b0 be
       -0.12981923 -0.25600848 -0.048963353 -0.34465575
000010 b7 44 04 be 17 a1 47 3e 6a fc 2a 3f b2 6b 5c 3f
       -0.12916838 0.19495045 0.66791403 0.8610183
000020 30 18 56 3f 89 4f 08 3d 1b 2c 13 bf c4 98 c6 3e
       0.8363066 0.033278976 -0.57489175 0.38788426
000030 88 6d 1e bd 58 d4 e4 be a3 9a b8 be 7e 32 3d bf
       -0.038678676 -0.44693255 -0.36055478 -0.7390517
000040 e3 d3 12 3f 25 40 46 bc 95 39 12 be 0d a1 f6 3d
       0.57354563 -0.012100254 -0.14279778 0.12042437
000050 7c d6 98 3e fe 58 82 3f aa bd 80 be 52 35 f7 bc
       0.2985114 1.0183408 -0.25144702 -0.030176792
000060 60 ce 33 3f 79 5a 47 bf c0 e0 55 bf 84 c3 34 bf
       0.7023678 -0.77872425 -0.83546066 -0.70610833
000070 26 46 24 bd e4 66 2b bf 43 a2 5e 3e ca fd d5 3e
       -0.04010596 -0.66953874 0.21741585 0.41795188
000080 9f 7c e3 be 10 25 c5 bd 70 d5 8a 3e 58 d2 d9 be
       -0.44431016 -0.0962621 0.27115965 -0.42543292
000090 b5 42 3f be 47 20 48 be bc 79 22 3e e6 a4 85 bd
       -0.1867779 -0.19543563 0.1586675 -0.065255925
0000a0 0c 8a 40 3d 59 f3 3f 3f e0 80 61 be 9c fd fd be
       0.04700665 0.74980694 -0.22021818 -0.4960755
0000b0 9e 04 1e bf 0e ee d9 be f0 e0 ae 3e a3 f5 13 be
       -0.61725795 -0.42564434 0.3415599 -0.14449172
0000c0 7c d6 dc be c9 3d c8 3e 23 6d 86 be 25 8b 14 3f
       -0.4313239 0.39109638 -0.2625514 0.5802482
0000d0 ef ef 5b bf bc 96 aa bf 5a 48 6c 3e 1a e8 05 3f
       -0.85912985 -1.332725 0.23074475 0.52307284
0000e0 2f 7e 82 bd 13 72 d4 3c ba a8 70 bf a9 2a 09 bf
       -0.06371724 0.025933301 -0.94007456 -0.5358072
0000f0 b6 8a 07 3f 0c 22 a7 be aa af 46 be 3e 17 9f bd
       0.5294603 -0.32643163 -0.19402948 -0.07768105
000100 69 06 39 bf 2c f2 6b bd 9d c0 aa be 01 90 db 3b
       -0.72275406 -0.057604 -0.33350077 0.006700516
000110 41 e7 4b bf 23 3c bd be dc a9 1e 3e b0 ce 04 3f
       -0.7964974 -0.36959943 0.15494484 0.5187788
000120 6b 46 1d 3d 9d 5a 2c 3f 64 03 61 3e 54 81 2f 3e
       0.038397234 0.67325765 0.2197395 0.17139179
000130 e4 82 03 be e4 2f fd bd 19 3d 1a 3c 92 8c 1d be
       -0.128429 -0.1236265 0.009413981 -0.15385655
000140 9b c9 b0 bd ad 05 37 3f 87 a7 1e 3f 2e 3a c9 be
       -0.08632203 0.71493036 0.61974376 -0.393022
000150 1f a1 0d bf 01 74 81 be a5 78 bd bd df 0b be be
       -0.55323976 -0.25283816 -0.09251527 -0.37118432
000160 e7 46 cd bd ae 65 42 3f dd 54 21 3e d1 bd f7 be
       -0.10023289 0.759364 0.15755029 -0.48387006
000170 82 1e cb be 96 e2 a1 be bc f3 9b 3e de b2 de be
       -0.39671713 -0.31618184 0.30459392 -0.4349584
000180 63 70 9b 3e c5 45 05 3e a3 93 84 be 82 f7 07 3f
       0.30359182 0.13014896 -0.25893888 0.5311204
000190 41 24 12 bf eb 89 cb 3d 6d 99 72 3f 68 22 50 be
       -0.5708657 0.09938415 0.9476536 -0.20325625
0001a0 5e ef 77 bd 64 e5 b9 bd b8 5d e8 3d e5 3a c4 bd
       -0.060531013 -0.09076956 0.113460004 -0.09581546
0001b0 e0 a8 60 be 93 05 4d bd f9 94 94 3e c4 48 9f 3d
       -0.2193942 -0.050054144 0.29019907 0.07777551
0001c0 8f 0c 01 bf ae fe 7b 3c 86 0a e8 bd f5 e0 7a 3e
       -0.5040979 0.015380545 -0.11330132 0.24499877
0001d0 bf cb 21 bf 6e 9e eb bd 58 2d d2 3e db d8 ee be
       -0.63201517 -0.115048274 0.4105022 -0.46649823
0001e0 72 fd 6d 3d 16 a1 87 be 42 74 dc 3c 1d b0 15 3e
       0.058103032 -0.26490086 0.026910905 0.14617963
0001f0 c1 b2 f1 bc 48 b4 03 3f 08 b8 64 bd 2c 03 70 3e
       -0.029504182 0.5144696 -0.05583957 0.2343871
000200 a8 19 ae 3e 8e 41 94 3e 93 65 a4 bd bc 6c 28 bf
       0.3400395 0.28956264 -0.08027186 -0.65790915
000210 c6 5a f0 3d c3 79 53 be 22 71 f1 3e a8 a5 14 bf
       0.11736064 -0.20651917 0.47156626 -0.5806527
000220 97 4b 09 3f f7 cd 7e 3e b4 e7 f7 3e 73 90 a2 be
       0.53630966 0.24883257 0.48418963 -0.3175083
000230 60 f6 2d 3e 83 db 97 bc f5 d7 07 3f cd ff 46 bd
       0.16988516 -0.018537289 0.530639 -0.048583794
000240 3c 09 15 bf f1 65 44 3f d9 b0 8f 3d 1c c9 73 3e
       -0.58217216 0.7671805 0.07016153 0.23807186
000250 8e 30 9e 3e 76 85 26 3f b9 3d 3f bf 5d 30 d0 3e
       0.3089642 0.65047395 -0.74703556 0.40661898
000260 99 8b 82 be 2f bd 79 be c9 d7 11 3f 20 90 67 bf
       -0.2549713 -0.24388574 0.56969887 -0.9045429
000270 86 9d bd 3d d4 17 74 3e 03 7e 9c 3e 6f d3 92 be
       0.09258561 0.23837215 0.3056489 -0.28676936
000280 6c 24 bd 3e 20 0f 12 bf 2a af 56 3d fe 81 8e be
       0.3694185 -0.5705433 0.052413143 -0.2783355
000290 a7 4b 95 be e1 56 f2 3e b1 92 b1 3e 3b c4 b8 bc
       -0.2915928 0.47331908 0.3468223 -0.022554507
0002a0 a7 ad 79 3d f6 27 43 3e 9f 53 20 3f 24 11 94 be
       0.060956623 0.19058213 0.62627596 -0.28919327
0002b0 32 62 a5 3e 73 89 97 be e3 80 91 3e 32 e8 d0 3d
       0.3230148 -0.29597053 0.28418645 0.10200538
0002c0 f7 da e5 bd 1a e4 22 bf 1e 34 67 3f 3f 74 b2 3e
       -0.11223405 -0.63629305 0.903139 0.34854314
0002d0 50 95 91 be 7c d9 33 bd 4f d0 a8 3e a7 41 85 be
       -0.2843423 -0.04390858 0.32971427 -0.2602665
0002e0 b4 3a 07 bf ce ac 45 3e 71 e3 a0 3d 85 2d 85 3f
       -0.5282395 0.19304201 0.07855881 1.0404516
0002f0 e4 9f fe 3d 8e f4 6b 3e 6c c2 e0 be 91 25 9c 3e
       0.124328405 0.23042509 -0.43898332 0.3049741
000300 a9 21 90 be bf f6 6f bf 61 08 22 3e b9 88 e5 bd
       -0.2815068 -0.9373588 0.15823509 -0.112077184
000310 d0 c3 aa be c3 6b 8f be 0e 1a 39 3f 3c 13 7f be
       -0.33352518 -0.28011903 0.7230538 -0.24909681
000320 aa ab 86 bd d3 27 fc be f0 db 42 3d b4 14 99 bd
       -0.06575711 -0.49249133 0.04757303 -0.07474652
000330 c7 1b c9 be 91 38 a0 be d3 02 bf 3b 6a 90 de 3e
       -0.39279005 -0.31293157 0.005829194 0.43469554
000340 3f bf 5b 3c 6b dd 56 3f 5d 33 a6 bd fd 07 05 bd
       0.013412296 0.83931607 -0.081152655 -0.03247832
000350 d4 c6 9d bd 89 54 07 3f 12 53 55 be 25 32 9d 3d
       -0.07703939 0.52863365 -0.2083247 0.0767558
000360 d9 b1 11 3f 7c 52 f2 3e 50 7e 3a be 33 1d cb 3d
       0.56912 0.47328556 -0.18212247 0.09917679
000370 19 71 9e be b4 2c ec be 59 1b e3 bd 88 f5 79 3e
       -0.30945662 -0.46127856 -0.110892005 0.24410069
000380 6c f1 d1 be b9 2d 55 bd 1e 4b 8c be 7c 46 4a 3f
       -0.41004503 -0.052045558 -0.2740106 0.790138
000390 a8 d1 6c 3f 8e 65 42 bf 3a 6f 12 be ca 3d b2 3d
       0.9250741 -0.7593621 -0.14300242 0.087031916
0003a0 63 37 0c 3f a8 5e 42 3f ac f4 17 bf 00 63 ee 3e
       0.54772013 0.75925684 -0.59357715 0.46559906
0003b0 8c 3f d5 3e 9d a0 c5 bd 50 2a 1a 3c 5d bc 2c be
       0.41650045 -0.09649775 0.009409502 -0.1686873
0003c0 6e 6c e3 bc 2a 47 29 3e da 91 2a bf 62 89 8a 3e
       -0.027761664 0.16531053 -0.666288 0.2705794
0003d0 64 61 eb be 0e dc a5 bd 5f c2 dd be 4c a2 c5 3e
       -0.4597274 -0.08098613 -0.43312356 0.38600385
0003e0 77 12 95 be be 8a f2 be 27 53 f3 be ec 25 64 bc
       -0.2911565 -0.47371477 -0.47524378 -0.013925057
0003f0 96 be e7 3d 82 18 cf bd 61 a5 de be 49 03 5b 3b
       0.11315648 -0.10112096 -0.4348555 0.0033418706

network_body.linear_encoder.seq_layers.2.bias f4 [128]
000000 13 1f b1 ba ec df 64 ba a2 f2 ac b9 97 99 23 b9
       -0.0013513289 -0.0008730877 -0.00032987172 -0.00015602108
000010 d7 73 10 b9 00 1f 73 3a 80 a7 b2 b8 f5 94 e3 ba
       -0.00013776064 0.0009274334 -8.518901e-05 -0.0017363118
000020 7f 43 b9 ba 3d 15 a9 ba cd 0e 52 3b c9 33 0a 3a
       -0.0014134495 -0.0012900006 0.003205228 0.0005271999
000030 f9 4c a1 b9 0f a2 16 3b d8 0f 4c bb 2b cf d3 3a
       -0.00030765662 0.0022984778 -0.0031137373 0.0016159763
000040 c2 b9 07 bb ac f1 1a b9 88 03 98 b9 cc 22 3d ba
       -0.0020710086 -0.00014776614 -0.0002899433 -0.0007214963
000050 8a f1 02 3a 4f 03 ce b9 8c e5 e0 39 dc 80 2a 39
       0.00049950986 -0.00039293847 0.00042895635 0.00016260467
000060 14 16 bb 38 b7 65 42 39 7e 55 9b b9 7c e0 aa bb
       8.920967e-05 0.00018539173 -0.000296276 -0.005214749
000070 f0 c6 3f 3a d3 55 b2 b8 c4 8a 3e bb a7 81 c9 36
       0.0007315716 -8.5036874e-05 -0.002907441 6.0053603e-06
000080 0c 08 11 39 ce c8 09 3a a3 4a 5b b8 96 d5 89 39
       0.00013831275 0.00052560575 -5.228318e-05 0.0002628981
000090 32 7c 3a ba 3f 1a 73 3a f8 0d b4 ba a5 32 45 bb
       -0.00071138435 0.00092736253 -0.0013737073 -0.003009
0000a0 7a ac 3e ba a6 0f cc b9 d2 74 e3 ba 9d 0d d7 39
       -0.0007273626 -0.0003892157 -0.0017353541 0.00041018138
0000b0 9b c7 ea b9 28 00 85 b9 02 40 c8 39 6d bf d8 3a
       -0.00044780676 -0.00025367853 0.00038194662 0.0016536542
0000c0 07 1d 51 3a 69 25 99 39 24 76 c1 b9 04 68 db b8
       0.00079770427 0.00029210307 -0.0003689985 -0.00010462108
0000d0 df e7 2b 3a 17 98 d1 39 13 96 b5 b9 99 89 3e bb
       0.0006557684 0.00039976902 -0.00034634824 -0.0029073714
0000e0 ec 45 07 ba be 13 dc b9 f1 85 d7 39 de 71 a0 b9
       -0.00051602605 -0.0004197638 0.0004110779 -0.00030602416
0000f0 2e 04 c7 3a 3f 38 51 3a 22 12 50 bb 46 62 83 b9
       0.0015183741 0.00079810986 -0.003174909 -0.00025059487
000100 95 e4 06 bb 80 97 40 3b b8 54 86 ba 18 63 9f ba
       -0.0020583023 0.0029387176 -0.0010248637 -0.001216027
000110 af c0 43 ba 8d 1c cd 39 8d cc 24 b9 69 1c bd ba
       -0.0007467372 0.0003912192 -0.0001571646 -0.0014428023
000120 a8 65 58 ba dd af 2d 3a 6c 0c 07 ba 60 3d b2 38
       -0.0008254894 0.0006625632 -0.00051516923 8.4991334e-05
000130 5b 5c f5 b9 59 9a 97 3a 86 a9 46 39 fe 1f 3d ba
       -0.00046798852 0.0011566385 0.00018945904 -0.0007214545
000140 9b 1d 85 b9 f6 e5 36 bb e4 e7 4d ba 6b 0b d2 b8
       -0.00025389795 -0.0027908063 -0.0007854684 -0.00010015707
000150 95 99 03 3b 68 8f 15 3a 80 64 ee ba d6 05 b9 b9
       0.0020080556 0.0005705268 -0.001818791 -0.00035290298
000160 39 11 f1 b9 d6 e9 fc b9 30 29 97 ba d0 72 72 ba
       -0.00045979934 -0.00048239407 -0.001153266 -0.0009248676
000170 a6 fc 22 3a c6 2b 4d 39 8b 55 8f b9 15 b7 48 bb
       0.0006217457 0.0001956663 -0.0002733882 -0.0030626704
000180 d4 01 9b ba bf c2 45 b9 78 89 ee 39 b2 8c 40 3a
       -0.0011826106 -0.00018859933 0.0004549732 0.0007345184
000190 97 df a7 b8 f0 67 3b ba 01 24 85 b8 b1 e8 2e b9
       -8.0048274e-05 -0.0007148972 -6.3486405e-05 -0.00016680617
0001a0 b5 9d a6 38 37 18 cc ba dc fe 03 bb 9f 03 6b ba
       7.944872e-05 -0.0015571181 -0.0020140922 -0.0008965078
0001b0 d3 8d 15 b8 fd f9 17 ba 72 14 de b5 53 8d 47 3b
       -3.5656452e-05 -0.0005797444 -1.6546239e-06 0.0030449226
0001c0 e2 3d 26 3a 4e 83 b9 b9 60 c1 6a 3a 22 7a 5b ba
       0.0006341619 -0.0003538378 0.0008955207 -0.0008372386
0001d0 5e 9d 89 b9 0a 52 23 ba ae 28 87 b9 81 6b 33 39
       -0.00026247924 -0.00062301813 -0.00025779515 0.00017110819
0001e0 b6 93 b5 b9 c4 3a ff 3a 55 c7 2b b9 b5 fc 68 bb
       -0.00034633063 0.001947247 -0.00016382088 -0.0035551016
0001f0 80 54 22 bb 47 a7 86 37 9a 6e 9c b9 70 83 03 bb
       -0.0024769604 1.605194e-05 -0.00029837043 -0.0020067357

network_body.linear_encoder.seq_layers.2.weight f4 [128, 128]
000000 1d b5 ae 3a 28 28 fe bb f9 51 97 bd 43 49 b4 bb
       0.0013329122 -0.007756252 -0.07388682 -0.0055018975
000010 1d 38 16 be 48 7d 29 3e c6 b9 0d 3c b0 d8 16 3d
       -0.14669843 0.16551697 0.008650249 0.036827743
000020 c9 cc 00 be 04 d3 34 3e 3a e5 5a 3d dc 26 35 3e
       -0.1257812 0.17658621 0.053441264 0.17690605
000030 f6 9d 59 3d d0 92 48 bb 80 13 0d bd 14 8e 74 3d
       0.05312916 -0.0030605085 -0.034442425 0.05970581
000040 2f 8e 55 bc 04 92 63 3d ab 0d bd 3d c0 b2 f1 ba
       -0.0130343875 0.055559173 0.092311226 -0.0018440112
000050 bd c0 77 3d e5 dd 28 be 9a 96 85 bc 5a 0f aa 3d
       0.060486544 -0.16490896 -0.016307164 0.08303709
000060 e3 58 d2 bd 93 5b 35 3e fb cd 17 3d 59 ba 8a bc
       -0.1027086 0.17710714 0.037061673 -0.01693456
000070 eb ba 4c be ee 3c b9 bc ba c9 d9 bd 95 4e 4e 3d
       -0.19993179 -0.022612061 -0.106341794 0.05036791
000080 f5 79 f5 bd 5f 30 aa 3d 0d d0 9e bd 27 22 33 be
       -0.11986152 0.08310007 -0.07754526 -0.17493497
000090 34 21 e9 bc ff 91 3e 3e ef 4e 08 3d 7e 21 59 bd
       -0.028458215 0.1861038 0.033278402 -0.053010456
0000a0 7e 53 b1 bd 69 c1 47 bd 45 40 1d 3e ff 58 1d be
       -0.08658503 -0.048768435 0.15356548 -0.1536598
0000b0 18 17 99 38 96 99 e7 bc fe e0 09 3e 40 09 12 be
       7.29991e-05 -0.028271478 0.13464734 -0.14261341
0000c0 a2 34 b9 bc 34 e7 82 bd 53 f8 79 3d 42 5b 20 be
       -0.022608105 -0.06391755 0.061027836 -0.15659812
0000d0 3b 92 25 bc 85 fd 7a 3c 38 16 73 3d 5a 5b 00 be
       -0.010105665 0.015319233 0.05934736 -0.12534848
0000e0 d2 6b 4b be d8 52 59 bd e7 81 be 3d c1 87 e6 3d
       -0.19865349 -0.05305752 0.09302121 0.11256362
0000f0 16 5e 1d be d6 e1 e7 3d 73 72 ec 3c cf c2 dc 3d
       -0.15367922 0.11322372 0.028863167 0.10779344
000100 8f 81 5b 3e 32 2e 2d 3e b7 28 60 3d 27 13 cf 3c
       0.21436141 0.16912153 0.05472633 0.025277687
000110 4b e4 ed bc ea d6 71 bb 6b c8 18 3d f9 74 e7 3d
       -0.029039523 -0.003690178 0.03730051 0.11301608
000120 24 dd 14 3a a1 9b 26 be ce 4e a5 3d 63 f4 d4 3d
       0.00056787045 -0.16270305 0.080716714 0.103981756
000130 d1 21 22 be e0 93 0a be 32 48 15 bd 69 95 92 bd
       -0.15833212 -0.13532972 -0.036445804 -0.07157404
000140 d6 8e 68 bd df 4d 10 be 51 a9 4d bd 74 e7 14 3e
       -0.056776844 -0.14092205 -0.0502103 0.14541417
000150 5e e2 19 3d fe 1d 82 bd c6 44 55 bd 19 d7 d0 3d
       0.037569396 -0.06353377 -0.05206754 0.101972766
000160 78 19 53 bd 42 1f bf 3d d8 4d 13 3d ae 70 99 3c
       -0.05153796 0.09332134 0.03596291 0.018730488
000170 1e e4 13 be 84 d8 09 3e 0e cd f3 bd 43 fb 1d b9
       -0.14442489 0.134615 -0.119043455 -0.00015066289
000180 98 2d 81 bd 72 56 eb bd 5f 82 91 3d 6b b9 9c bd
       -0.063075244 -0.114910975 0.071049444 -0.07652553
000190 2f a6 6f bd a5 89 00 bd e6 15 11 3d 59 01 aa 3d
       -0.058508094 -0.031381268 0.035421275 0.08301038
0001a0 b4 9a bc bd 8d bf 6c 3c 56 96 f2 3c 17 a4 62 be
       -0.09209195 0.014449966 0.029612701 -0.22132908
0001b0 fe 8c 09 bd e6 0c 01 bd 56 a4 c0 3d ac a2 b6 bc
       -0.033581726 -0.03150644 0.094063446 -0.022294365
0001c0 22 ca f1 3d d8 e7 a5 bd 59 4d da 3d 7b 0c d4 3c
       0.11806132 -0.08100861 0.10659284 0.025884857
0001d0 99 d4 69 3d 8b ef af bc a9 fc 10 bd cc 6e c4 bc
       0.057087515 -0.021476528 -0.035397206 -0.023978613
0001e0 88 a4 3b 3e 12 8a a2 3b 6a a0 2f be 45 b3 23 3e
       0.18324482 0.004960307 -0.17151037 0.15986355
0001f0 36 8c e9 3d c0 e6 cf 3d 74 96 70 3c 05 0b 8c 3c
       0.11403696 0.10151434 0.014684308 0.017095098
000200 ec 93 e9 3d 57 79 c7 bd 48 06 4c 3d 4c bc 18 bd
       0.11405167 -0.097399406 0.049810678 -0.03728895
000210 09 dc f7 3d 65 86 69 3d 3d d8 2b be 70 fa f7 3c
       0.12102515 0.057012934 -0.16781707 0.030270785
000220 76 7f 95 bd ce e7 01 be 46 04 eb bb 02 57 c6 bc
       -0.07299702 -0.12686083 -0.0071721403 -0.02421141
000230 f8 bf 71 3d 86 10 58 be 5b e7 9f 3d 9c d6 2f 3d
       0.059020966 -0.21100053 0.078077994 0.042929277
000240 42 20 df ba ad b8 80 bc d1 79 75 bd a0 c4 dc 3d
       -0.0017023163 -0.01571306 -0.059930626 0.10779691
000250 bf 20 bb 3c a7 ff c6 3c 5d 01 c4 3c c9 99 9a bd
       0.022842763 0.024291826 0.023926431 -0.075488634
000260 ad 1c 05 be d3 df 3d bd d4 10 ff 3b 0e 18 91 3d
       -0.1299922 -0.046356034 0.0077839885 0.07084666
000270 db 57 2a 3e 8e ef 6e 3d f1 a3 8e bd 33 d2 a2 3c
       0.16635077 0.058333926 -0.06964863 0.019875621
000280 59 98 22 3e 82 bc 98 3a e1 86 11 3e af 39 18 be
       0.15878429 0.0011652859 0.14211608 -0.14865755
000290 c3 f9 f1 bc 89 35 1e 3e 76 5c f3 bd b6 ec 12 3e
       -0.029538041 0.1545011 -0.1188287 0.1434811
0002a0 2f de 02 3c 7e bf 4e bc 5e 05 98 3d b1 41 c0 3d
       0.007987543 -0.0126188975 0.07422899 0.0938753
0002b0 43 e4 c4 bd ae 76 00 3e 01 c2 2a 3e f1 6d 9a bc
       -0.0961385 0.12545273 0.16675569 -0.018851252
0002c0 d0 05 0f 3e 74 22 20 bd 07 59 04 bd 49 f5 b3 3a
       0.13967061 -0.039095357 -0.032311466 0.0013729717
0002d0 d6 0f 55 3d 38 2e 09 3b 37 bb 42 3d c5 f1 1d 3e
       0.052017055 0.002093209 0.047541823 0.15424259
0002e0 62 5d 23 be 05 fe dd 3d cb 18 e1 3d 60 06 4d 3e
       -0.15953591 0.10839466 0.10991057 0.20021963
0002f0 4e fb 80 3d 4f 3c 72 3c 92 77 ee bd fe 05 16 3d
       0.062979326 0.0147848865 -0.116439 0.03662681
000300 2d 31 4f be 7c cd 8f 3d 3e 38 da bd 19 e6 ad 3a
       -0.20233603 0.07021615 -0.106552586 0.0013267427
000310 8d ba 76 3b 79 7b 81 bd 5d 65 d7 bb 33 8d da bd
       0.0037647814 -0.06322379 -0.0065733627 -0.10671463
000320 cd dc d3 3d 94 41 95 bd f4 92 ba 3d f5 21 1f bd
       0.10344849 -0.07287899 0.0911006 -0.038850743
000330 bf bc ac ba 62 ca 4a be a9 d0 76 bc 09 dc ee 3c
       -0.0013178809 -0.19803765 -0.015064397 0.029157655
000340 31 9b 8f 3d c0 e8 8f bc 9c 2a bb bd 51 51 a3 3c
       0.07012022 -0.017567039 -0.091389865 0.019936236
000350 0f 63 0a 3e 55 8c bb 3c d1 cb 73 3d ff ce 82 bc
       0.1351435 0.022894064 0.059520546 -0.015967844
000360 5d f1 10 bd 1c 69 a9 bc 98 1d 85 3d 6d 45 d2 bd
       -0.035386432 -0.020680003 0.06499785 -0.10267148
000370 2c 0e 86 bd b8 c5 29 bd e1 92 af 3d ef 50 70 3d
       -0.06545672 -0.041448325 0.08572937 0.058670934
000380 e6 dd f2 bd 67 7f 36 bd 0a 0c 20 bd 5f 07 db 3d
       -0.1185873 -0.044555094 -0.03907398 0.10694765
000390 5a 15 05 be ae a1 03 be a0 f9 4b 3d 9a 8e aa bd
       -0.12996426 -0.12854645 0.049798608 -0.0832798
0003a0 b2 2f fb 3d d4 ea 1c bd 19 31 3c 3c 35 e1 d7 bb
       0.122649565 -0.038309887 0.011486315 -0.006588126
0003b0 1a 1c de 3c 4c f5 01 3e 22 33 de bd 2a 55 2b 3d
       0.02711301 0.1269123 -0.108495966 0.041829266
0003c0 c9 4e cb bd 8a d4 2d 3c 23 25 16 bd cf b5 73 bd
       -0.099271365 0.010609755 -0.03665651 -0.059499558
0003d0 d9 93 03 be 01 5a d4 3c 79 2a 78 3b 02 dc 11 be
       -0.12849368 0.025921823 0.0037867113 -0.14244083
0003e0 fe da 8a bd 4a bf e9 bd 5b c2 36 3e 74 21 00 3e
       -0.06780051 -0.114134386 0.17847578 0.12512761
0003f0 e3 e7 d3 bc 42 1f 1c be 4c 6f d8 3d 6d d7 f3 3d
       -0.025867408 -0.15246299 0.10568103 0.119063236
