results/ppo/My Behavior/My Behavior-3820.pt (torch, 149583 bytes, 12 tensors)

network_body.linear_encoder.seq_layers.0.weight f4 [128, 6]
0	0x3f2e6d9a	0.6813599
1	0x3ed9d268	0.4254334
2	0xbeee6628	-0.46562314
3	0x3daafa47	0.08348518
4	0xbf6286ef	-0.8848714
5	0xbedc86de	-0.43071645
6	0xbe0fc524	-0.14040047
7	0x3eafd890	0.34344912
8	0xbdad96a3	-0.08475997
9	0xbdda3289	-0.1065417
10	0x3ea72ac3	0.32649812
11	0x3dd827ea	0.10554488
12	0x3dc59aca	0.09648664
13	0x3f9a7ff5	1.2070299
14	0x3f050714	0.51963925
15	0x3d76f23f	0.060289618
16	0x3df47c18	0.119377315
17	0xbef035ac	-0.46915948
18	0xbeaed1b3	-0.34144363
19	0x3e6d5ff4	0.23181134
20	0xbe525bd6	-0.20542845
21	0xbeb6b6d8	-0.35686374
22	0x3dd0cf2e	0.101957664
23	0xbedec00a	-0.4350589
24	0x3ea62fdb	0.32458386
25	0xbe113bb3	-0.1418293
26	0xbd60b820	-0.054863095
27	0x3f058be5	0.5216659
28	0x3e9cfad1	0.30660108
29	0x3e69ac41	0.22819616
30	0x3d526697	0.05136737
31	0xbf59d44f	-0.8508958
32	0x3f860bfd	1.0472409
33	0x3e8a6726	0.2703182
34	0x3d72ea86	0.05930569
35	0x3c276b4f	0.010218455
36	0x3d155f59	0.036467884
37	0x3e3f00f5	0.18652709
38	0xbd537bf0	-0.051631868
39	0xbe9f40f7	-0.31104252
40	0xbea6b21d	-0.32557765
41	0xbb53ed1b	-0.003233737
42	0x3eb07521	0.34464362
43	0x3d1ddffe	0.038543694
44	0x3ef07a08	0.46968102
45	0x3ec6de86	0.38841647
46	0x3ee94e03	0.4556733
47	0x3e30f8b4	0.17282373
48	0xbd296f2e	-0.041365795
49	0xbe760eb3	-0.24029045
50	0x3d0dc1f6	0.034608804
51	0xbf0f5ff4	-0.5600579
52	0xbef9fe29	-0.4882672
53	0xbd506645	-0.05087878
54	0xbdd99fed	-0.106262065
55	0xbec56407	-0.38552877
56	0xbf226c77	-0.63446754
57	0xbe9e0864	-0.30865777
58	0x3d794aa8	0.060862213
59	0x3da8fb43	0.08251049
60	0x3ec3100e	0.38098186
61	0x3ec769f4	0.38948023
62	0xbe7b169b	-0.24520342
63	0x3e8610ce	0.26184696
64	0x3e6cc29c	0.23121113
65	0x3e4b90d3	0.19879465
66	0xbf8ba1af	-1.0908717
67	0xbeaa5dbd	-0.33274642
68	0x3c9207d3	0.017825997
69	0xbea6b81b	-0.32562336
70	0xbe52791f	-0.20554017
71	0x3e90def8	0.28295112
72	0xbeed0396	-0.46291798
73	0x3e9ec03f	0.31006047
74	0x3de5fd28	0.11229926
75	0x3dba6e5f	0.09103083
76	0xbe83e71e	-0.25762266
77	0x3ec281bf	0.37989613
78	0xbd5ff18d	-0.05467372
79	0x3e3349a1	0.17508556
80	0xbf1a40f2	-0.6025535
81	0x3f219540	0.6311836
82	0xbda03630	-0.078228354
83	0xbf20ba80	-0.62784576
84	0xbe959223	-0.29213056
85	0x3e4e2db4	0.20134622
86	0x3ececec7	0.40392134
87	0x3dc8bf33	0.09802093
88	0xbe4b731a	-0.19868127
89	0xbeb9b02b	-0.36267218
90	0xbee1136b	-0.43960127
91	0xbf1e0ba3	-0.61736506
92	0xbeba47f0	-0.3638301
93	0x3f2fe028	0.6870141
94	0x3ea118e4	0.31464303
95	0xbeb4b428	-0.35293698
96	0x3dbdab4d	0.09261189
97	0x3d8a3e1b	0.06750127
98	0xbf0c091f	-0.5470142
99	0x3cde7b61	0.027158441
100	0x3e5d9451	0.2163861
101	0x3e088755	0.13332875
102	0x3e99d554	0.3004557
103	0x3ceedb22	0.029157225
104	0x3ea37602	0.3192597
105	0xbd6b3862	-0.057426818
106	0xbe9efd2d	-0.31052533
107	0xbe0bb3eb	-0.13642852
108	0xbd335dd8	-0.04379067
109	0x3f03b568	0.5144868
110	0x3dd3857b	0.10328194
111	0xbf29c49e	-0.6631564
112	0x3ea0cb18	0.31404948
113	0xbf0f99e1	-0.56094176
114	0x3cab612a	0.020920355
115	0x3ea29335	0.31752935
116	0xbeca513f	-0.3951511
117	0xbf2f1ce1	-0.6840344
118	0x3f172aeb	0.5904986
119	0xbf42babc	-0.76066184
120	0x3c27d6dc	0.010244098
121	0x3e0c53e4	0.13703877
122	0xbc4740bf	-0.012161433
123	0x3f4437ce	0.7664765
124	0x3e1ef84c	0.15524405
125	0xbd105445	-0.035236616
126	0xbf8b37fc	-1.087646
127	0xbeb31265	-0.3497497
128	0xbf459f93	-0.77196616
129	0xbe43288a	-0.19058433
130	0x3ec827af	0.39092776
131	0x3ebc4dde	0.36778158
132	0x3e322350	0.17396283
133	0xbf4d2b87	-0.8014454
134	0x3e9d5540	0.30729103
135	0xbed53783	-0.41643915
136	0xbcfba682	-0.030719046
137	0x3ec2a3ee	0.38015693
138	0x3e443db9	0.1916417
139	0xbda4be40	-0.080441
140	0x3d7cb18c	0.06169276
141	0x3e9be5ea	0.30448848
142	0x3f35a90f	0.7096109
143	0xbde6583d	-0.11247299
144	0x3f0109c3	0.5040552
145	0xbf33dd26	-0.7025932
146	0xbe115561	-0.14192726
147	0xbdc6df25	-0.0971053
148	0xbe772453	-0.2413495
149	0x3d76ac81	0.060223106
150	0xbe2f1403	-0.17097478
151	0xbe5868c6	-0.21133718
152	0x3f07b97b	0.53017396
153	0xbdbfa3a9	-0.093573876
154	0xbe4dbc53	-0.20091371
155	0x3f1fa64f	0.6236314
156	0x3e87b963	0.26508626
157	0x3f63a52a	0.88923895
158	0xbf420ee6	-0.75803983
159	0x3f25ea41	0.6481057
160	0x3f06e442	0.52692044
161	0x3e801ced	0.2502207
162	0xbe12371a	-0.14278832
163	0xbea4c4cd	-0.32181397
164	0xbe945c87	-0.28976843
165	0xbef0e32a	-0.47048312
166	0x3db57037	0.08859294
167	0xbecd9690	-0.40153933
168	0x3d845a72	0.064625636
169	0xbe82b4c0	-0.25528526
170	0xbe62ba6f	-0.22141431
171	0x3ea10f0f	0.314568
172	0x3f0fefd4	0.56225324
173	0x3f43c7d6	0.764768
174	0xbebbd734	-0.36687624
175	0x3eb4e7ec	0.35333192
176	0xbe206b93	-0.15666036
177	0xbf22136d	-0.6331089
178	0x3e4e47d3	0.20144586
179	0x3cd921e1	0.026505413
180	0xbdf357a1	-0.11881948
181	0x3eb74e8b	0.3580211
182	0xbe78a0f2	-0.24280146
183	0x3e977ce6	0.29587477
184	0x3d043e8a	0.032286204
185	0x3e0413f7	0.12898241
186	0xbf540126	-0.8281425
187	0xbf1d0baa	-0.6134592
188	0x3e8204b6	0.2539422
189	0x3ebac6bc	0.36479747
190	0x3d748204	0.059694305
191	0xbe0eae00	-0.13933563
192	0xbc1153a6	-0.008870041
193	0x3e9b06ea	0.30278713
194	0x3e42d01b	0.19024698
195	0xbf369a0b	-0.713288
196	0x3db9912b	0.09060892
197	0xbef51feb	-0.47875914
198	0xbd76c3a4	-0.06024517
199	0x3f140aaa	0.5782877
200	0xbea9eb1c	-0.33187187
201	0xbf8d97c2	-1.1061938
202	0x3e9687df	0.29400536
203	0xbd88fb0b	-0.06688508
204	0xbd5e3d55	-0.05425771
205	0xbe598a02	-0.21244052
206	0x3e7fc8cf	0.24978946
207	0x3f557ace	0.8339051
208	0x3e965406	0.2936098
209	0xbf068485	-0.5254596
210	0x3e8abf0d	0.27098885
211	0x3ec8690f	0.39142653
212	0xbf31c901	-0.6944733
213	0x3e758336	0.23975834
214	0xbe16040b	-0.1464998
215	0xbe2404e3	-0.16017489
216	0xbede7d1f	-0.43454835
217	0x3f7fb1c9	0.99880654
218	0xbf009cf5	-0.502395
219	0xbe8a1d23	-0.26975355
220	0xbebc142f	-0.3673415
221	0x3e9add34	0.3024689
222	0x3cc0c3d1	0.023530873
223	0x3f146166	0.5796112
224	0x3ebd2c0d	0.3694767
225	0x3ced913e	0.028999921
226	0x3ed0a864	0.40753472
227	0x3eebd7eb	0.4606317
228	0x3d72166f	0.059103426
229	0x3d248752	0.040168114
230	0xbea6a8f4	-0.32550776
231	0x3e2b2962	0.16715005
232	0x3ef19aa7	0.47188303
233	0xbf29d6dd	-0.6634348
234	0xbf1ad143	-0.6047556
235	0xbf870183	-1.0547336
236	0xbd7cf811	-0.061760012
237	0x3d9e3fc9	0.0772701
238	0xbe38df50	-0.18053937
239	0x3f22384f	0.6336717
240	0xbeed3a8d	-0.46333733
241	0x3df99911	0.12187398
242	0x3e9bf72d	0.30462018
243	0x3e4d1718	0.20028341
244	0xbf1cc187	-0.612328
245	0xbecaa73a	-0.3958071
246	0xbebd34c9	-0.36954334
247	0x3eebdef1	0.46068528
248	0x3e254a85	0.16141708
249	0xbf3a7675	-0.72837
250	0xbda04c36	-0.07827036
251	0xbeacf91a	-0.337838
252	0x3c842721	0.01613194
253	0xbe482a8e	-0.19547483
254	0xbdccd12a	-0.100008324
255	0xbe8284e6	-0.25492018

network_body.linear_encoder.seq_layers.0.bias f4 [128]
0	0x00000000	0.0
1	0x00000000	0.0
2	0x00000000	0.0
3	0x00000000	0.0
4	0x00000000	0.0
5	0x00000000	0.0
6	0x00000000	0.0
7	0x00000000	0.0
8	0x00000000	0.0
9	0x00000000	0.0
10	0x00000000	0.0
11	0x00000000	0.0
12	0x00000000	0.0
13	0x00000000	0.0
14	0x00000000	0.0
15	0x00000000	0.0
16	0x00000000	0.0
17	0x00000000	0.0
18	0x00000000	0.0
19	0x00000000	0.0
20	0x00000000	0.0
21	0x00000000	0.0
22	0x00000000	0.0
23	0x00000000	0.0
24	0x00000000	0.0
25	0x00000000	0.0
26	0x00000000	0.0
27	0x00000000	0.0
28	0x00000000	0.0
29	0x00000000	0.0
30	0x00000000	0.0
31	0x00000000	0.0
32	0x00000000	0.0
33	0x00000000	0.0
34	0x00000000	0.0
35	0x00000000	0.0
36	0x00000000	0.0
37	0x00000000	0.0
38	0x00000000	0.0
39	0x00000000	0.0
40	0x00000000	0.0
41	0x00000000	0.0
42	0x00000000	0.0
43	0x00000000	0.0
44	0x00000000	0.0
45	0x00000000	0.0
46	0x00000000	0.0
47	0x00000000	0.0
48	0x00000000	0.0
49	0x00000000	0.0
50	0x00000000	0.0
51	0x00000000	0.0
52	0x00000000	0.0
53	0x00000000	0.0
54	0x00000000	0.0
55	0x00000000	0.0
56	0x00000000	0.0
57	0x00000000	0.0
58	0x00000000	0.0
59	0x00000000	0.0
60	0x00000000	0.0
61	0x00000000	0.0
62	0x00000000	0.0
63	0x00000000	0.0
64	0x00000000	0.0
65	0x00000000	0.0
66	0x00000000	0.0
67	0x00000000	0.0
68	0x00000000	0.0
69	0x00000000	0.0
70	0x00000000	0.0
71	0x00000000	0.0
72	0x00000000	0.0
73	0x00000000	0.0
74	0x00000000	0.0
75	0x00000000	0.0
76	0x00000000	0.0
77	0x00000000	0.0
78	0x00000000	0.0
79	0x00000000	0.0
80	0x00000000	0.0
81	0x00000000	0.0
82	0x00000000	0.0
83	0x00000000	0.0
84	0x00000000	0.0
85	0x00000000	0.0
86	0x00000000	0.0
87	0x00000000	0.0
88	0x00000000	0.0
89	0x00000000	0.0
90	0x00000000	0.0
91	0x00000000	0.0
92	0x00000000	0.0
93	0x00000000	0.0
94	0x00000000	0.0
95	0x00000000	0.0
96	0x00000000	0.0
97	0x00000000	0.0
98	0x00000000	0.0
99	0x00000000	0.0
100	0x00000000	0.0
101	0x00000000	0.0
102	0x00000000	0.0
103	0x00000000	0.0
104	0x00000000	0.0
105	0x00000000	0.0
106	0x00000000	0.0
107	0x00000000	0.0
108	0x00000000	0.0
109	0x00000000	0.0
110	0x00000000	0.0
111	0x00000000	0.0
112	0x00000000	0.0
113	0x00000000	0.0
114	0x00000000	0.0
115	0x00000000	0.0
116	0x00000000	0.0
117	0x00000000	0.0
118	0x00000000	0.0
119	0x00000000	0.0
120	0x00000000	0.0
121	0x00000000	0.0
122	0x00000000	0.0
123	0x00000000	0.0
124	0x00000000	0.0
125	0x00000000	0.0
126	0x00000000	0.0
127	0x00000000	0.0

network_body.linear_encoder.seq_layers.2.weight f4 [128, 128]
0	0x3c988000	0.018615723
1	0xbdbf5520	-0.09342408
2	0x3d237cea	0.03991405
3	0x3e2b618b	0.16736428
4	0xbbf17686	-0.0073688654
5	0xbd81b2cc	-0.06332931
6	0x3be5bf19	0.007011306
7	0x3de1d6dd	0.1102731
8	0xbd026a4b	-0.03183965
9	0xbe4e1378	-0.20124614
10	0x3d625adf	0.055262443
11	0xbd084110	-0.033265173
12	0x3d83a5e9	0.06428129
13	0x3e17a34e	0.1480839
14	0x3c9f33e0	0.019433916
15	0x3e0191c7	0.12653266
16	0x3d9fd972	0.07805146
17	0x3dad744c	0.084694475
18	0xbca1c7c8	-0.019748583
19	0xbd8c01af	-0.068362586
20	0x3d5c6073	0.05380292
21	0xbbb77dac	-0.005599698
22	0x3cca0b98	0.024663731
23	0xbd008d3c	-0.03138469
24	0x3d5446c3	0.051825296
25	0x3dcda30d	0.10040865
26	0x3d502351	0.05081493
27	0xbd7b7659	-0.061392162
28	0xbcbfc153	-0.023407614
29	0xbe054287	-0.1301366
30	0x3e18999c	0.14902347
31	0xbe5db4b4	-0.21650964
32	0xbd2f8de0	-0.042859912
33	0x3da29b5a	0.07939787
34	0x3d244c04	0.040111557
35	0x3ddf64b8	0.109078825
36	0x3d55752b	0.052113693
37	0xbcb61598	-0.022227094
38	0xbb724f09	-0.0036973378
39	0xbc4f1841	-0.01264006
40	0x3d1ceed6	0.03831371
41	0xbd2b71f0	-0.041856706
42	0xbd4c8c74	-0.049938634
43	0xbd2f12ee	-0.042742662
44	0x3b24d3bd	0.002515062
45	0x3e07db12	0.13267162
46	0x3c7db68f	0.01548542
47	0x3c0ecd5c	0.008715954
48	0xbde48a9f	-0.111592524
49	0xbdf01d93	-0.11724391
50	0x3ba24d9d	0.0049531
51	0xbe237abe	-0.15964791
52	0xbdb532e4	-0.08847597
53	0xbdb3e851	-0.08784545
54	0x3a8cf6a6	0.0010754659
55	0x3aadf7d4	0.0013272711
56	0x3c584eef	0.013202413
57	0xbd681b7f	-0.056666847
58	0xbcf3c27e	-0.029755827
59	0xbd0ff7e1	-0.035148505
60	0xbd1953e8	-0.037433535
61	0x3d63eaa6	0.0556437
62	0xbe041805	-0.12899788
63	0xbdb4326e	-0.08798681
64	0x3d806142	0.062685505
65	0xbe53bcc8	-0.20677483
66	0x3d803627	0.06260329
67	0xbcbb1e94	-0.02284173
68	0xbdfe3040	-0.12411547
69	0x3d4465cb	0.04794864
70	0x3e1088d5	0.14114697
71	0xbda6eef2	-0.08151044
72	0x3d60dcf4	0.054898217
73	0x3d02c65f	0.031927463
74	0xbe1e693b	-0.1546983
75	0xbd6a1556	-0.057149254
76	0x3d9f2fc9	0.07772786
77	0xbdb555b8	-0.0885424
78	0x3d9e44e6	0.07727985
79	0xbe5ea460	-0.21742392
80	0xbd9ac288	-0.07556635
81	0xbe1a7f0b	-0.15087526
82	0x3e05ed75	0.13078864
83	0x3d862f6c	0.06552014
84	0x3d4ddf8d	0.050262023
85	0xbd5910ed	-0.052994657
86	0x3e2ef0bb	0.17084019
87	0x3daaf6e7	0.08347874
88	0xbda78562	-0.08179738
89	0xbcbd424f	-0.023102907
90	0xbdf3772e	-0.11887966
91	0x3d1927a2	0.037391312
92	0xbd9693fc	-0.073524445
93	0xbc18e06c	-0.00933085
94	0x3e1ebea9	0.15502419
95	0x3cbd8742	0.023135785
96	0xbc80bdae	-0.015715446
97	0x3dfbcd3f	0.12295007
98	0x3d0cc9da	0.03437219
99	0x3e27c928	0.16385329
100	0xbd736163	-0.059419047
101	0x3d32a3ac	0.04361312
102	0xbb3dbbcd	-0.002895105
103	0x3c1ba972	0.009500848
104	0xbdfcf5ac	-0.12351546
105	0xbdd84995	-0.1056091
106	0x3d9fd059	0.07803411
107	0xbd5f9b0b	-0.05459122
108	0x3d68cfe3	0.05683888
109	0x3d1a165e	0.037618987
110	0x3d6e9d04	0.05825521
111	0xbcb97c0b	-0.022642156
112	0x3d654fb2	0.055984206
113	0xbd15bfe7	-0.036559965
114	0x3ced0473	0.028932786
115	0x3d2344ae	0.03986042
116	0xbe20c835	-0.15701373
117	0x3d3c13e9	0.045917425
118	0xbe4b7b91	-0.19871356
119	0xbddbed0c	-0.107385725
120	0x3dd6397c	0.10460183
121	0xbd6a75ff	-0.057241436
122	0x3daf0946	0.08546691
123	0xbe895f34	-0.26830447
124	0xbe0df167	-0.13861619
125	0xbcf87f1c	-0.030334048
126	0xbe286b98	-0.16447294
127	0x3b72bb63	0.003703796
128	0xbce8c94d	-0.0284163
129	0xbc6f9fbd	-0.014625487
130	0xbcc75205	-0.024331102
131	0xbd89ba84	-0.06725028
132	0xbd3ddbb4	-0.046352103
133	0xbdbbc766	-0.091688916
134	0xbe026d79	-0.12737073
135	0xbd8cf239	-0.06882138
136	0x3da3a050	0.079895616
137	0xbd986852	-0.074417725
138	0x3d1c52a6	0.038164757
139	0x3e111781	0.14169122
140	0x3d843b3a	0.06456609
141	0x3e1f398d	0.15549298
142	0x3ae17c08	0.0017203102
143	0x3d81d4e3	0.06339433
144	0xbd9edca1	-0.077569254
145	0x3da89135	0.08230821
146	0x3d439ff4	0.047759965
147	0x3df96c0c	0.121788114
148	0xbc0e3d2c	-0.008681577
149	0x3bcf82fd	0.0063327537
150	0xbae69ef6	-0.0017594981
151	0x3ca885a7	0.020571543
152	0xbd004389	-0.031314407
153	0x3db92836	0.09040873
154	0xbe038ac1	-0.12845899
155	0x3c2f914b	0.010715793
156	0x3d294451	0.041324917
157	0x3d8a2694	0.067456394
158	0xbdbcfd77	-0.09228032
159	0x3d0a72d6	0.033800922
160	0x3cf099bf	0.029370187
161	0x3ddff91b	0.10936185
162	0xbd410b16	-0.047129713
163	0xbdb719ed	-0.08940492
164	0x3bf694ea	0.007525076
165	0x3e061e32	0.13097456
166	0x3d57a922	0.052651532
167	0x3db1b7a8	0.08677608
168	0xbe400cb1	-0.18754841
169	0xbd631163	-0.055436503
170	0x3db4af45	0.088224925
171	0x3c959726	0.01826055
172	0x3d666738	0.05625078
173	0x3e167427	0.14692746
174	0xbc1c8b2d	-0.0095546665
175	0x3df4bd91	0.119502194
176	0xbe34daee	-0.1766164
177	0xbd76ede6	-0.06028547
178	0xbdc65e1c	-0.09685919
179	0x3d4da33e	0.050204508
180	0xbdb51234	-0.088413626
181	0xbcde5a1e	-0.02714258
182	0xbde702fe	-0.112798676
183	0xbe503044	-0.20330912
184	0xbd92a0a3	-0.07159545
185	0x3d806782	0.062697425
186	0xbd199b84	-0.037501827
187	0x3d0e2165	0.034699816
188	0xbce5face	-0.028073695
189	0x3dfc29e3	0.12312677
190	0xbb6cd975	-0.0036140357
191	0xbd54d9da	-0.051965572
192	0x3cea7627	0.028620793
193	0x3da97d64	0.082758695
194	0x3d839fc7	0.064269595
195	0x3d9d0f2a	0.07668908
196	0xbd543981	-0.051812652
197	0xbd634152	-0.055482216
198	0x3dbcd729	0.09220726
199	0xbe10ffd0	-0.14160085
200	0x3d5d57bc	0.05403875
201	0x3cc10470	0.023561686
202	0x3d5c46cf	0.053778466
203	0xbd65bc5a	-0.05608783
204	0xbe06ef39	-0.13177194
205	0xbcef3b65	-0.029203126
206	0x3d2d7541	0.04234815
207	0x3d3b75d1	0.045766655
208	0x3d3a063e	0.04541611
209	0xbd94a9b8	-0.07258934
210	0xbe58f53e	-0.21187302
211	0xbcbef2b2	-0.023309086
212	0xbd94656d	-0.07245908
213	0xbdd3e67c	-0.10346696
214	0xbdb5ca21	-0.08876444
215	0x3dd09e62	0.10186459
216	0x3d47763c	0.04869674
217	0xbd1b066e	-0.03784793
218	0x3cc9c05e	0.02462786
219	0x3cf56044	0.02995313
220	0xbdeda17f	-0.116030686
221	0xbcbe1e68	-0.023207858
222	0xbe2a4d65	-0.16631086
223	0xbe2df229	-0.16986908
224	0xbd14accf	-0.036297616
225	0x3d48b435	0.048999984
226	0x3c9d7113	0.019218957
227	0x3cddcb6a	0.027074534
228	0x3d2b6903	0.041848194
229	0x3d1b945a	0.037983276
230	0xbd393d9b	-0.045224767
231	0xbd449576	-0.0479941
232	0xbd12b3c6	-0.035815977
233	0xbdbcf32e	-0.0922607
234	0xbd4d290a	-0.050087966
235	0x3d369000	0.044570923
236	0xbd545c76	-0.05184599
237	0xbe0c42fa	-0.13697425
238	0xbc61b0ed	-0.013775093
239	0xbc90cc59	-0.017675566
240	0x3c09ddb2	0.008414673
241	0x3ce3d1a4	0.027809925
242	0x3d9c61fe	0.07635878
243	0xbd255fae	-0.04037445
244	0xbd731e36	-0.059354983
245	0x3b139136	0.0022516972
246	0x3dae591e	0.085130915
247	0x3dc10e69	0.09426577
248	0x3ca19d06	0.019728195
249	0x3cfd345f	0.030908762
250	0x3e0a0cfc	0.13481516
251	0x3e038844	0.1284495
252	0x3d6a152f	0.05714911
253	0x3c6ecf37	0.014575771
254	0x3d20eaaa	0.039286293
255	0xbdf1bb0c	-0.118032545

network_body.linear_encoder.seq_layers.2.bias f4 [128]
0	0x00000000	0.0
1	0x00000000	0.0
2	0x00000000	0.0
3	0x00000000	0.0
4	0x00000000	0.0
5	0x00000000	0.0
6	0x00000000	0.0
7	0x00000000	0.0
8	0x00000000	0.0
9	0x00000000	0.0
10	0x00000000	0.0
11	0x00000000	0.0
12	0x00000000	0.0
13	0x00000000	0.0
14	0x00000000	0.0
15	0x00000000	0.0
16	0x00000000	0.0
17	0x00000000	0.0
18	0x00000000	0.0
19	0x00000000	0.0
20	0x00000000	0.0
21	0x00000000	0.0
22	0x00000000	0.0
23	0x00000000	0.0
24	0x00000000	0.0
25	0x00000000	0.0
26	0x00000000	0.0
27	0x00000000	0.0
28	0x00000000	0.0
29	0x00000000	0.0
30	0x00000000	0.0
31	0x00000000	0.0
32	0x00000000	0.0
33	0x00000000	0.0
34	0x00000000	0.0
35	0x00000000	0.0
36	0x00000000	0.0
37	0x00000000	0.0
38	0x00000000	0.0
39	0x00000000	0.0
40	0x00000000	0.0
41	0x00000000	0.0
42	0x00000000	0.0
43	0x00000000	0.0
44	0x00000000	0.0
45	0x00000000	0.0
46	0x00000000	0.0
47	0x00000000	0.0
48	0x00000000	0.0
49	0x00000000	0.0
50	0x00000000	0.0
51	0x00000000	0.0
52	0x00000000	0.0
53	0x00000000	0.0
54	0x00000000	0.0
55	0x00000000	0.0
56	0x00000000	0.0
57	0x00000000	0.0
58	0x00000000	0.0
59	0x00000000	0.0
60	0x00000000	0.0
61	0x00000000	0.0
62	0x00000000	0.0
63	0x00000000	0.0
64	0x00000000	0.0
65	0x00000000	0.0
66	0x00000000	0.0
67	0x00000000	0.0
68	0x00000000	0.0
69	0x00000000	0.0
70	0x00000000	0.0
71	0x00000000	0.0
72	0x00000000	0.0
73	0x00000000	0.0
74	0x00000000	0.0
75	0x00000000	0.0
76	0x00000000	0.0
77	0x00000000	0.0
78	0x00000000	0.0
79	0x00000000	0.0
80	0x00000000	0.0
81	0x00000000	0.0
82	0x00000000	0.0
83	0x00000000	0.0
84	0x00000000	0.0
85	0x00000000	0.0
86	0x00000000	0.0
87	0x00000000	0.0
88	0x00000000	0.0
89	0x00000000	0.0
90	0x00000000	0.0
91	0x00000000	0.0
92	0x00000000	0.0
93	0x00000000	0.0
94	0x00000000	0.0
95	0x00000000	0.0
96	0x00000000	0.0
97	0x00000000	0.0
98	0x00000000	0.0
99	0x00000000	0.0
100	0x00000000	0.0
101	0x00000000	0.0
102	0x00000000	0.0
103	0x00000000	0.0
104	0x00000000	0.0
105	0x00000000	0.0
106	0x00000000	0.0
107	0x00000000	0.0
108	0x00000000	0.0
109	0x00000000	0.0
110	0x00000000	0.0
111	0x00000000	0.0
112	0x00000000	0.0
113	0x00000000	0.0
114	0x00000000	0.0
115	0x00000000	0.0
116	0x00000000	0.0
117	0x00000000	0.0
118	0x00000000	0.0
119	0x00000000	0.0
120	0x00000000	0.0
121	0x00000000	0.0
122	0x00000000	0.0
123	0x00000000	0.0
124	0x00000000	0.0
125	0x00000000	0.0
126	0x00000000	0.0
127	0x00000000	0.0

action_model._continuous_distribution.log_sigma f4 [1, 2]
0	0x00000000	0.0
1	0x00000000	0.0

action_model._continuous_distribution.mu.weight f4 [2, 128]
0	0xbc2c03a7	-0.010498918
1	0xbc03b63d	-0.008039054
2	0xbcbc3287	-0.022973312
3	0xbc5ac065	-0.0133515345
4	0x3ce38c4b	0.027776858
5	0xbcac4184	-0.021027334
6	0xbb930de6	-0.004487741
7	0x3c7df44f	0.015500142
8	0xbcd6a0aa	-0.026199657
9	0xbb4a41e3	-0.0030862025
10	0x3c8fff51	0.017577799
11	0x3c3c50af	0.011493846
12	0x3be410d2	0.006960013
13	0x3c48ec27	0.012263334
14	0xbc521bef	-0.012824043
15	0xbc65e052	-0.014030533
16	0x3c0fc71e	0.008775501
17	0xbc560fb8	-0.013065271
18	0x3bd67af2	0.006545418
19	0xbba11cb7	-0.004916753
20	0xbb349cca	-0.0027559274
21	0x3b027268	0.0019904617
22	0x3d1d5018	0.03840646
23	0xbb3d9c72	-0.002893236
24	0xbc40ecc3	-0.011775198
25	0xbc120f31	-0.008914755
26	0x3b6d5a60	0.0036217198
27	0xbca820ab	-0.02052339
28	0x3c318fc1	0.010837496
29	0xbbe0965d	-0.006853862
30	0xbd41fb0b	-0.047358554
31	0x3bcaca30	0.0061886534
32	0x3ae8b570	0.0017754268
33	0xbcc87b11	-0.024472745
34	0x3bb45d02	0.0055042515
35	0xbc0f65eb	-0.0087523265
36	0x3b2f7eda	0.002677849
37	0xbcd795c2	-0.026316527
38	0x3c6737b2	0.0141124
39	0x3bd3165b	0.006441874
40	0xbb95eb4f	-0.00457517
41	0xbb196bdd	-0.0023410239
42	0x3bf92332	0.0076030726
43	0x3bda2e6f	0.0066583673
44	0xbc1f690e	-0.009729637
45	0x3cb20dd8	0.021735117
46	0xbc3caf30	-0.011516377
47	0xbc623978	-0.013807647
48	0xbc1cade0	-0.009562939
49	0xbcfaeac3	-0.030629521
50	0x3a523e18	0.0008020117
51	0xbd272d89	-0.04081491
52	0xbca13c04	-0.019681938
53	0x3bccd382	0.0062507996
54	0xbbd5e7ea	-0.0065278905
55	0x3a6e438d	0.00090890453
56	0x3c47b90b	0.012190114
57	0x3b4a7375	0.0030891572
58	0x3c9f26a0	0.019427598
59	0x3c241de3	0.010016891
60	0xbbb8fb45	-0.005645188
61	0xbb87b19a	-0.004141045
62	0xbc4466f1	-0.011987434
63	0xbc2bd0d5	-0.010486801
64	0xbc7acf63	-0.015308234
65	0x3c6c9855	0.014440616
66	0x3cac392c	0.021023355
67	0x3b3ce7d8	0.0028824713
68	0x3b07204a	0.002061861
69	0xbc80cdc1	-0.015723111
70	0xbc76ba43	-0.015059057
71	0xbc27189d	-0.010198739
72	0x3be030d5	0.0068417587
73	0xbb409873	-0.0029387742
74	0xbcc2d357	-0.023782415
75	0x3d08f443	0.03343607
76	0xbc580e8f	-0.013187065
77	0x3b21dddb	0.0024698887
78	0x3c7002a0	0.014649063
79	0x3c3647c4	0.011125509
80	0x3bad6020	0.005291
81	0xbca46428	-0.02006729
82	0xbc9f8b24	-0.019475527
83	0xbbef34ca	-0.007299994
84	0xba48104c	-0.0007631823
85	0xbbcf0022	-0.0063171545
86	0x3d0a883b	0.033821326
87	0xbbf52baf	-0.007482014
88	0x3bd38f75	0.0064563104
89	0xbbed4e7d	-0.0072420225
90	0xbcd1963f	-0.025584338
91	0x3c068266	0.0082098
92	0xbd188352	-0.03723461
93	0xbc87bf29	-0.016570644
94	0x3c85a387	0.016313327
95	0x3c4a3edf	0.012344091
96	0xbc94005a	-0.018066574
97	0xbc6b74cf	-0.014371111
98	0x3d0f2004	0.03494264
99	0x3c57a075	0.0131608145
100	0xbbec5b2f	-0.0072130184
101	0x3c3fbcfe	0.011702774
102	0x3b133f71	0.0022468234
103	0xbc8ec592	-0.017428193
104	0x3b9cf46b	0.004789879
105	0x3cc9c073	0.0246279
106	0xbc049bc0	-0.008093774
107	0xbc50d255	-0.01274546
108	0xbc766637	-0.015039018
109	0x3cb31f7b	0.021865597
110	0x3d01bb5b	0.031672817
111	0x3d0551bc	0.03254865
112	0x3bac0862	0.0052500227
113	0xbb5772f0	-0.0032874905
114	0xbc28875f	-0.010286181
115	0xbc66298a	-0.01404799
116	0xbd1d33dd	-0.03837954
117	0xbca19b1b	-0.01972728
118	0xbbe7dc88	-0.00707585
119	0xbc296048	-0.010337897
120	0x3b30133a	0.0026866929
121	0xbc65bba3	-0.014021787
122	0x3c96d423	0.018411702
123	0xbcdeaef0	-0.027183026
124	0x3cbe2f4e	0.023215916
125	0xbb4982c4	-0.0030748108
126	0xbb992aad	-0.004674277
127	0xbc9a6e94	-0.018851556
128	0x3c91548f	0.017740516
129	0x3c59610b	0.013267766
130	0xbd046c0b	-0.0323296
131	0x3c8b0073	0.016967988
132	0x3c35bd6a	0.011092523
133	0xbc4ec3ca	-0.012619922
134	0x3b0c9c74	0.0021455558
135	0x3c3a9d81	0.011390091
136	0xbccbfe1b	-0.02490144
137	0x3c33c87f	0.010973095
138	0xbcceb43a	-0.025232423
139	0xbc88117b	-0.016609898
140	0x3c87d507	0.016581072
141	0x3c66775a	0.014066542
142	0x3d05b5cf	0.03264409
143	0xbc105561	-0.008809418
144	0xbbf89350	-0.0075859204
145	0x3cb0012f	0.02148494
146	0x3bc3a2fb	0.0059703565
147	0x3b10a7f5	0.0022072766
148	0xbc595e08	-0.013267048
149	0x3c324993	0.010881799
150	0x3b8da2a1	0.0043223654
151	0xbc54a148	-0.012977906
152	0x3ca100d9	0.019653725
153	0x3c2b1a83	0.010443333
154	0x3ce8f5e8	0.02843757
155	0x3cd55c10	0.026044875
156	0xbbc9ec6a	-0.006162216
157	0x3c5ec4d8	0.013596736
158	0xbc9d5593	-0.019205844
159	0x3cd1428f	0.025544433
160	0x3c8471c5	0.01616753
161	0xbd217b5b	-0.03942428
162	0x3c81351b	0.015772393
163	0xbcdafb95	-0.026731292
164	0xbb301472	-0.0026867655
165	0xbc5901d5	-0.013245066
166	0x3b948253	0.0045321374
167	0x3c0318fa	0.00800156
168	0x3b9e5dd3	0.004832962
169	0x3b83ee02	0.0040261755
170	0x3c9ef3cc	0.01940336
171	0x3b27f802	0.0025630002
172	0xbcf7bce3	-0.030241435
173	0xba90377c	-0.0011002864
174	0xbcc99ee3	-0.024611896
175	0x3cdb9dcf	0.026808647
176	0xbc5b711b	-0.013393666
177	0xb91ff55e	-0.00015254828
178	0x3c99403b	0.018707385
179	0xbb59af6a	-0.0033216127
180	0xbbc5bf0c	-0.0060347375
181	0xbc8f3f2f	-0.017486183
182	0x3bffd217	0.007807027
183	0xbc1afe7a	-0.009460086
184	0x3be61a4d	0.0070221783
185	0xbce2913a	-0.02765714
186	0xbc868cbb	-0.016424527
187	0xbbdce8a8	-0.006741602
188	0x3c778092	0.015106337
189	0xbc786525	-0.0151608335
190	0xbbbfbccc	-0.0058513638
191	0xbc83e225	-0.016099045
192	0x3be84a12	0.007088908
193	0xbbce4c65	-0.006295728
194	0x3bc4d527	0.006006855
195	0xbc42ec3d	-0.011897144
196	0x3cacbbc9	0.021085637
197	0x3cda800b	0.026672384
198	0x3b947707	0.0045307907
199	0x3b6c0233	0.0036012053
200	0xbc0ee16d	-0.008720738
201	0xbbe20b15	-0.0068982937
202	0xbcf8dbbd	-0.030378217
203	0xbc10d1a3	-0.008839044
204	0x3c241e97	0.010017059
205	0x3c2b6d11	0.010463015
206	0x3c3a2de3	0.011363479
207	0x3c99c8b6	0.018772464
208	0x3bd72593	0.0065657585
209	0xbbc0257f	-0.005863845
210	0x3b7aaaf0	0.003824886
211	0x3ceac708	0.028659359
212	0x3c8a2b07	0.01686622
213	0x3b287fc7	0.0025710927
214	0xbc1dda68	-0.009634592
215	0xbb4c330f	-0.0031158363
216	0x3ca784d7	0.020449085
217	0xbc1c0bc4	-0.0095242895
218	0xb9231668	-0.00015553238
219	0xbbcda1ea	-0.006275405
220	0xbb775f9a	-0.0037746192
221	0xbc48a6e9	-0.012246826
222	0xbc9af31d	-0.018914754
223	0x3cd10f68	0.025520042
224	0x3a96d012	0.0011506102
225	0x3ae2762a	0.0017277647
226	0x3bc6b35b	0.0060638613
227	0x3d27bee5	0.040953536
228	0xbb600b73	-0.0034186512
229	0x3c03409b	0.008011009
230	0x3b2661cf	0.0025387888
231	0xbcc2f5c3	-0.023798829
232	0x3bab138f	0.0052208374
233	0xbc835e26	-0.016036104
234	0xbd07ea23	-0.033182275
235	0xbba0e474	-0.0049100462
236	0xbba8fc07	-0.005156997
237	0x3cbd951d	0.023142392
238	0x3c5c11a3	0.013431939
239	0x3c970fb3	0.018440103
240	0xbcb62388	-0.02223374
241	0x3c24dd69	0.010062554
242	0x3baa5791	0.005198427
243	0x3be9dada	0.007136685
244	0xbc2bba8c	-0.010481488
245	0xbbed58e5	-0.007243263
246	0x3c1a3583	0.009412172
247	0xbc0521d3	-0.00812574
248	0xbcbb9f4f	-0.022903113
249	0xbc2bb137	-0.010479263
250	0xbc4635f3	-0.012097823
251	0x3c802b67	0.015645696
252	0xbce741dd	-0.028229648
253	0xbc436a7e	-0.011927245
254	0xbc2eab4e	-0.010660959
255	0xbc792d3f	-0.015208541

action_model._continuous_distribution.mu.bias f4 [2]
0	0x00000000	0.0
1	0x00000000	0.0

network_body.linear_encoder.seq_layers.0.weight f4 [128, 6]
0	0xbc731046	-0.014835423
1	0xbe9ef243	-0.31044206
2	0xbea80823	-0.32818708
3	0x3f162db6	0.586635
4	0xbf4932a9	-0.78592926
5	0x3f6ce598	0.9253783
6	0x3eb17960	0.34662914
7	0xbde11c1d	-0.1099169
8	0x3f03c047	0.51465267
9	0xbf0664e1	-0.5249768
10	0xbd8db700	-0.0691967
11	0x3f2b5e49	0.6694074
12	0x3ef2498f	0.47321746
13	0xbdeebd46	-0.11657195
14	0x3dc48a6f	0.095967166
15	0x3f549f40	0.83055496
16	0x3eb6863b	0.35649285
17	0x3e912673	0.28349647
18	0x3dd4cf80	0.1039114
19	0xbe6f5d55	-0.23375447
20	0xbebc0a64	-0.36726677
21	0x3d6b2497	0.05740794
22	0x3e043eb5	0.12914546
23	0x3ebe2201	0.37135318
24	0xbe14a579	-0.14516248
25	0xbe2b91df	-0.16754864
26	0x3f888e25	1.0668379
27	0xbd90135b	-0.07034942
28	0x3c0b99a3	0.008520517
29	0xbe94c710	-0.29058123
30	0x3f447f54	0.7675679
31	0xbe89a8ce	-0.268866
32	0xbd9454d2	-0.07242741
33	0x3d22f1d2	0.0397814
34	0xbeb647d6	-0.3560168
35	0xbf0d18df	-0.55116075
36	0xbeb100a1	-0.34570792
37	0x3e0f80a3	0.14013915
38	0xbd3a8a8c	-0.045542285
39	0xbed2c4ee	-0.4116587
40	0xbe2815d8	-0.16414583
41	0xbf48cc08	-0.78436327
42	0x3edf6664	0.43632805
43	0xbe1037f0	-0.14083838
44	0x3cdc6ec9	0.026908295
45	0x3ee7a3a4	0.45242035
46	0x3d0c1982	0.034204014
47	0x3f0dc790	0.55382633
48	0xbed9ffd6	-0.42578
49	0xbe556d17	-0.20842396
50	0x3f208450	0.6270189
51	0x3f0cf703	0.5506441
52	0x3ddfb344	0.10922864
53	0xbe6785c3	-0.2260962
54	0x3e854fa3	0.2603732
55	0xbf820455	-1.0157572
56	0x3e61af34	0.22039491
57	0x3f2dec6c	0.67938876
58	0x3ea49f6c	0.3215288
59	0xbf5f3748	-0.8719373
60	0x3e0cacba	0.13737765
61	0xbe897237	-0.26844952
62	0x3eecf513	0.46280727
63	0x3d899301	0.06717492
64	0x3e879871	0.2648349
65	0xbed4aefc	-0.41539752
66	0xbeeb348d	-0.4593853
67	0x3e9657df	0.29363915
68	0x3f30ab08	0.6901097
69	0xbcbd6aa9	-0.023122149
70	0x3d4abe97	0.049498167
71	0x3f060307	0.5234837
72	0xbf0197e3	-0.50622386
73	0xbd85a794	-0.065261036
74	0xbebca48e	-0.36844295
75	0x3f8c0d84	1.0941625
76	0xbf3172e9	-0.69315964
77	0xbe8145fa	-0.252487
78	0x3efcbb6c	0.49361742
79	0x3f07822e	0.52933013
80	0x3e2a7208	0.16645062
81	0x3e071b16	0.13193926
82	0x3e6e9814	0.233002
83	0xbeaff3e8	-0.34365773
84	0x3efeb4cd	0.49747315
85	0xbdf96fb1	-0.121795066
86	0x3f7ff257	0.99979156
87	0xbe235abe	-0.15952584
88	0xbd9009de	-0.07033132
89	0xbeb103ea	-0.345733
90	0x3d947150	0.07248175
91	0x3ef43c34	0.4770218
92	0x3e8c3e35	0.2739121
93	0x3f176fd4	0.5915501
94	0x3e5ab5a6	0.21358356
95	0xbf60b6e6	-0.8777908
96	0x3f72b884	0.948128
97	0xbe07b3e5	-0.13252218
98	0x3f0170e6	0.50562894
99	0x3f0ba99b	0.5455567
100	0x3e5e461d	0.21706434
101	0xbf177f98	-0.5917907
102	0xbd8cd142	-0.0687585
103	0x3d714e4e	0.058912568
104	0x3f0af32f	0.5427732
105	0xbf31d79d	-0.69469625
106	0x3b793bef	0.0038030108
107	0xbe54a021	-0.2076421
108	0xbf3faada	-0.74870074
109	0x3f5579a3	0.8338873
110	0xbca15d77	-0.019697888
111	0x3d005651	0.031332318
112	0x3e766b55	0.24064381
113	0x3eecfaca	0.46285087
114	0x3f3ababe	0.72941196
115	0x3e54b417	0.20771824
116	0x3dbddfb4	0.092711836
117	0xbed0f520	-0.40812016
118	0x3dc27cfe	0.094964966
119	0x3ec3d296	0.38246602
120	0xbf51d0ec	-0.81959414
121	0x3ee08ae0	0.43855953
122	0x3f02cbac	0.5109203
123	0x3e245b63	0.16050486
124	0x3e45c278	0.19312465
125	0x3f3bddce	0.7338532
126	0xbf010de8	-0.50411844
127	0x3f1b434f	0.6064958
128	0xbf04c640	-0.51865005
129	0xbf215ee7	-0.63035434
130	0x3e24ca8f	0.16092895
131	0x3e94693c	0.28986537
132	0x3e384d6e	0.17998287
133	0x3d096efb	0.033553105
134	0x3f061b82	0.52385724
135	0xbfa67934	-1.3005738
136	0x3d8babc1	0.06819869
137	0x3e86d214	0.26332152
138	0xbdc32dbd	-0.09530208
139	0xbe0337d5	-0.12814267
140	0xbd9fd28d	-0.07803831
141	0x3ed4daca	0.41573173
142	0x3f519aff	0.8187713
143	0xbf0fd568	-0.5618501
144	0xbe7ddb48	-0.2479068
145	0x3ebf662b	0.37382635
146	0x3eab5743	0.33465013
147	0x3cea5ed5	0.028609673
148	0xbf4296ee	-0.7601155
149	0xbeb99ce7	-0.3625252
150	0x3ebecb56	0.37264508
151	0xbe66c782	-0.22537044
152	0xbf2a98be	-0.66639316
153	0xbc66c8e1	-0.014085979
154	0x3dfd8e00	0.123806
155	0xbe8bb3b8	-0.27285552
156	0xbc83f2a2	-0.016106907
157	0xbd35f3b4	-0.044421867
158	0x3f16b1f9	0.58865315
159	0x3ecdc5ff	0.40190122
160	0x3d019a2b	0.031641167
161	0x3f4a65ce	0.7906159
162	0xbf47550b	-0.7786414
163	0xbf0f640c	-0.56012034
164	0x3dc3299e	0.09529422
165	0xbf0723d6	-0.52789056
166	0x3eeb4616	0.4595191
167	0xbe356d6c	-0.17717522
168	0xbd446f83	-0.04795791
169	0xbf2df739	-0.67955357
170	0x3e4f1ccd	0.2022583
171	0x3baddeaf	0.005306087
172	0xbf961fd8	-1.1728468
173	0x3e4df18e	0.20111677
174	0x3e86b51c	0.2631005
175	0x3e83b0f4	0.25720942
176	0xbe5f680a	-0.21817032
177	0x3e78f384	0.24311644
178	0x3e1cd511	0.15315653
179	0x3eccd1c9	0.40003803
180	0xbf6e3de1	-0.9306317
181	0x3def8cca	0.11696775
182	0x3e889ce0	0.26682186
183	0xbf4bb90a	-0.7957922
184	0x3f86eae3	1.0540432
185	0x3f5c2a79	0.8600231
186	0x3efdcb47	0.4956915
187	0xbd83768c	-0.064190954
188	0xbdc77587	-0.097392134
189	0x3edafbb8	0.4277017
190	0xbf24d203	-0.6438295
191	0xbeaaa878	-0.33331656
192	0xbed44c32	-0.41464382
193	0xbf2ee565	-0.6831878
194	0xbe83ab48	-0.25716615
195	0x3f03adfe	0.51437366
196	0x3dbd90ab	0.09256109
197	0x3eff960d	0.49919167
198	0x3efd7794	0.49505293
199	0x3e991838	0.2990129
200	0x3d74e6d5	0.05979045
201	0xbf2cd571	-0.67513186
202	0x3ca4b279	0.020104634
203	0xbce8ce71	-0.028418751
204	0x3eefc97c	0.46833408
205	0xbf0d805a	-0.55273974
206	0x3e147d0d	0.14500828
207	0xbf3d48f9	-0.7393947
208	0x3d1d7279	0.038439248
209	0xbe38727e	-0.18012425
210	0xbe37673e	-0.17910478
211	0x3ea3454c	0.31888807
212	0x3f0a8a5c	0.5411737
213	0x3e0e7f6d	0.13915797
214	0xbd81dfb9	-0.063415
215	0xbe4310a1	-0.19049312
216	0x3dad810a	0.08471878
217	0x3de818e4	0.113328725
218	0x3ebe95b3	0.37223586
219	0xbee7e0c2	-0.45288664
220	0xbdfe599d	-0.12419436
221	0xbd8d5ed9	-0.069028564
222	0xbd625563	-0.055257212
223	0x3e349b26	0.1763731
224	0xbcf1c0db	-0.029510906
225	0x3d15bd0a	0.036557235
226	0xbdde1db4	-0.10845509
227	0x3ea98484	0.33108914
228	0x3ebc4fce	0.36779636
229	0xbec346d1	-0.38139966
230	0x3df123a6	0.117743775
231	0xbf4ecccc	-0.80781245
232	0xbeaa641f	-0.3327951
233	0xbf5b86ce	-0.8575257
234	0xbd8c9576	-0.06864445
235	0x3e6e956e	0.2329919
236	0x3e9ba9ce	0.30402988
237	0xbf076858	-0.5289359
238	0x3e1abef9	0.15111913
239	0xbf390ac8	-0.72282076
240	0x3ea7b869	0.3275788
241	0xbee9b8cd	-0.45648804
242	0xbeeb0573	-0.45902595
243	0xbebefde7	-0.37303087
244	0x3c8bd74a	0.017070431
245	0x3dce5247	0.10074287
246	0x3ee44e93	0.44591197
247	0xbf03dd9e	-0.51510036
248	0x3eb53262	0.35390002
249	0xbe7ad8fb	-0.24496834
250	0xbd832105	-0.06402782
251	0xbeddb902	-0.43305212
252	0x3f612934	0.87953496
253	0xbc9960b3	-0.018722868
254	0x3ee77aff	0.45211026
255	0xbd81138b	-0.06302556

network_body.linear_encoder.seq_layers.0.bias f4 [128]
0	0x00000000	0.0
1	0x00000000	0.0
2	0x00000000	0.0
3	0x00000000	0.0
4	0x00000000	0.0
5	0x00000000	0.0
6	0x00000000	0.0
7	0x00000000	0.0
8	0x00000000	0.0
9	0x00000000	0.0
10	0x00000000	0.0
11	0x00000000	0.0
12	0x00000000	0.0
13	0x00000000	0.0
14	0x00000000	0.0
15	0x00000000	0.0
16	0x00000000	0.0
17	0x00000000	0.0
18	0x00000000	0.0
19	0x00000000	0.0
20	0x00000000	0.0
21	0x00000000	0.0
22	0x00000000	0.0
23	0x00000000	0.0
24	0x00000000	0.0
25	0x00000000	0.0
26	0x00000000	0.0
27	0x00000000	0.0
28	0x00000000	0.0
29	0x00000000	0.0
30	0x00000000	0.0
31	0x00000000	0.0
32	0x00000000	0.0
33	0x00000000	0.0
34	0x00000000	0.0
35	0x00000000	0.0
36	0x00000000	0.0
37	0x00000000	0.0
38	0x00000000	0.0
39	0x00000000	0.0
40	0x00000000	0.0
41	0x00000000	0.0
42	0x00000000	0.0
43	0x00000000	0.0
44	0x00000000	0.0
45	0x00000000	0.0
46	0x00000000	0.0
47	0x00000000	0.0
48	0x00000000	0.0
49	0x00000000	0.0
50	0x00000000	0.0
51	0x00000000	0.0
52	0x00000000	0.0
53	0x00000000	0.0
54	0x00000000	0.0
55	0x00000000	0.0
56	0x00000000	0.0
57	0x00000000	0.0
58	0x00000000	0.0
59	0x00000000	0.0
60	0x00000000	0.0
61	0x00000000	0.0
62	0x00000000	0.0
63	0x00000000	0.0
64	0x00000000	0.0
65	0x00000000	0.0
66	0x00000000	0.0
67	0x00000000	0.0
68	0x00000000	0.0
69	0x00000000	0.0
70	0x00000000	0.0
71	0x00000000	0.0
72	0x00000000	0.0
73	0x00000000	0.0
74	0x00000000	0.0
75	0x00000000	0.0
76	0x00000000	0.0
77	0x00000000	0.0
78	0x00000000	0.0
79	0x00000000	0.0
80	0x00000000	0.0
81	0x00000000	0.0
82	0x00000000	0.0
83	0x00000000	0.0
84	0x00000000	0.0
85	0x00000000	0.0
86	0x00000000	0.0
87	0x00000000	0.0
88	0x00000000	0.0
89	0x00000000	0.0
90	0x00000000	0.0
91	0x00000000	0.0
92	0x00000000	0.0
93	0x00000000	0.0
94	0x00000000	0.0
95	0x00000000	0.0
96	0x00000000	0.0
97	0x00000000	0.0
98	0x00000000	0.0
99	0x00000000	0.0
100	0x00000000	0.0
101	0x00000000	0.0
102	0x00000000	0.0
103	0x00000000	0.0
104	0x00000000	0.0
105	0x00000000	0.0
106	0x00000000	0.0
107	0x00000000	0.0
108	0x00000000	0.0
109	0x00000000	0.0
110	0x00000000	0.0
111	0x00000000	0.0
112	0x00000000	0.0
113	0x00000000	0.0
114	0x00000000	0.0
115	0x00000000	0.0
116	0x00000000	0.0
117	0x00000000	0.0
118	0x00000000	0.0
119	0x00000000	0.0
120	0x00000000	0.0
121	0x00000000	0.0
122	0x00000000	0.0
123	0x00000000	0.0
124	0x00000000	0.0
125	0x00000000	0.0
126	0x00000000	0.0
127	0x00000000	0.0

network_body.linear_encoder.seq_layers.2.weight f4 [128, 128]
0	0x3e12789f	0.14303826
1	0xbe55b004	-0.20867926
2	0xbd956bee	-0.072959766
3	0x3e1fd81c	0.15609783
4	0x3d2801a3	0.041017186
5	0xbd8d05a3	-0.06885841
6	0xbd4d6da1	-0.05015338
7	0x3dc674af	0.096902244
8	0x3e001b9f	0.12510537
9	0x3d21b2fc	0.039477333
10	0x3df4be35	0.119503416
11	0x3d452ed5	0.048140366
12	0x3db32450	0.087471604
13	0x3dcfcc8e	0.101464376
14	0xbdaf8f1c	-0.08572218
15	0x3dff121b	0.12454625
16	0xbdcce149	-0.10003907
17	0x3d7385f0	0.059453905
18	0xbd340964	-0.043954268
19	0x3e26fb3a	0.16306773
20	0xbd64d104	-0.055863395
21	0xbcd48afb	-0.025945177
22	0x3e2e82fc	0.17042154
23	0x3e2dc759	0.16970576
24	0xbce15e82	-0.027510885
25	0xbe379a8c	-0.17930049
26	0x3cce5cfc	0.025190823
27	0x3e499e96	0.19689402
28	0x3de0cc7f	0.109765045
29	0x3d84c975	0.064837374
30	0x3d909285	0.070591964
31	0x3c7474d0	0.014920428
32	0xbcb0481d	-0.021518761
33	0x3d90544c	0.07047328
34	0xbddefe53	-0.10888352
35	0xbbf82dfb	-0.0075738407
36	0x3d4dbbfc	0.050228104
37	0xbd55abb5	-0.052165706
38	0xbd7293c2	-0.059222944
39	0x3cff8bde	0.031194624
40	0xbe05c91f	-0.13065003
41	0x3e02202e	0.12707588
42	0xbe4e1ce2	-0.20128205
43	0x3dbcdc73	0.09221735
44	0x3d85891b	0.065202914
45	0xbd81376a	-0.063093975
46	0xbcff9e27	-0.031203343
47	0xbd0d94ca	-0.034565724
48	0xbbe765b6	-0.0070616854
49	0xbc0a465f	-0.008439629
50	0xbbbfe09c	-0.005855633
51	0x3da979c6	0.082751796
52	0x3e09fea9	0.13476051
53	0xbdfb7dda	-0.12279864
54	0x3df60bcb	0.12013968
55	0x3c01fa52	0.007933216
56	0x3e03d94d	0.12875862
57	0x3d24a1d3	0.04019339
58	0x3e0af35b	0.13569395
59	0xbdddb10c	-0.10824785
60	0xbd331c4d	-0.04372816
61	0x3e2ba8ef	0.16763662
62	0xbd7ab69a	-0.0612093
63	0x3ddfdeb7	0.10931151
64	0xbd503ab8	-0.05083725
65	0x3d712160	0.05886972
66	0xbdfd20a4	-0.12359741
67	0xbd04aacc	-0.032389447
68	0x3de22db7	0.11043876
69	0x3c7d5c45	0.015463893
70	0xbdfcc65d	-0.12342522
71	0xbdcff224	-0.101536065
72	0x3cf5f568	0.030024245
73	0xbdd16195	-0.102236904
74	0x3d2fe45c	0.04294239
75	0x3d061409	0.03273395
76	0xbdd61e2d	-0.10454974
77	0xbd89bb82	-0.067252174
78	0x3d610455	0.054935772
79	0xbde7b2b8	-0.11313385
80	0xba6751fa	-0.0008824166
81	0xbc219d7b	-0.009864206
82	0x3de4b052	0.11166443
83	0xbd206ebe	-0.039168112
84	0x3dec23e2	0.115302816
85	0xbc9b6449	-0.018968718
86	0xbdb54ab0	-0.08852136
87	0xbdfcef53	-0.12350335
88	0x3d3f6850	0.04673034
89	0xbc87fe16	-0.01660065
90	0x3a4db4b6	0.00078470574
91	0x3d841e9a	0.06451149
92	0x3e683a7d	0.22678562
93	0x3d7232f7	0.059130635
94	0x3e2e2da9	0.17009605
95	0xbc8e5a33	-0.017376995
96	0xbe0abfe3	-0.13549761
97	0xbc927393	-0.017877376
98	0x3ce566c6	0.028003108
99	0x3d8b8d28	0.06814033
100	0xbd66c320	-0.05633843
101	0xbe05ee1e	-0.13079116
102	0xbce9148e	-0.028452184
103	0xbd14a26e	-0.036287718
104	0xbcd8c408	-0.026460662
105	0xbdc68fa8	-0.09695369
106	0xbdb63629	-0.08897049
107	0xbd242e29	-0.040083084
108	0x3dba79a4	0.09105232
109	0xbcf6f1dc	-0.030144624
110	0x3d83b7fa	0.06431575
111	0x3e2ba84b	0.16763417
112	0x3c98cf4f	0.01865354
113	0x3d21a8b6	0.039467536
114	0x3cc891af	0.02448353
115	0x3e1983e1	0.14991714
116	0xbd2d882f	-0.042366203
117	0x3ca2b9a6	0.019863915
118	0xbd5a6ad8	-0.05332455
119	0xbd98fffe	-0.07470702
120	0xbded9b09	-0.11601836
121	0x3e304cee	0.17216846
122	0xbd8b91db	-0.06814929
123	0x3d776810	0.060401976
124	0x3e3ee7df	0.1864314
125	0xbd043a8b	-0.032282393
126	0xbc2f4be2	-0.010699244
127	0x3d0470ee	0.03233426
128	0x3da7123a	0.08157773
129	0x3d7366a0	0.059424043
130	0x3d581a35	0.052759368
131	0x3b95b5a8	0.0045687743
132	0xbdfe67b7	-0.12422126
133	0x3d33824b	0.04382543
134	0xbdae70f2	-0.08517636
135	0xbd9546ca	-0.072888926
136	0x3e345cde	0.17613551
137	0xbcafa15a	-0.021439243
138	0xbd8331ca	-0.06405981
139	0xbbb6b55f	-0.0055758203
140	0x3d8842d9	0.06653375
141	0x3d01ee7e	0.031721584
142	0xbc41d1bd	-0.011829791
143	0xbce7f9fd	-0.028317446
144	0xbe0e556d	-0.13899775
145	0x3d592382	0.05301238
146	0xbc8c0729	-0.017093258
147	0x3e364f38	0.17803657
148	0xbdc09e3c	-0.09405181
149	0xbda7ad67	-0.08187371
150	0xbdaa4a23	-0.08314922
151	0xbdbdff21	-0.092771776
152	0x3dd59f3d	0.10430763
153	0x3e92a33e	0.2864017
154	0xbbf92b1b	-0.0076040155
155	0xbe360f30	-0.17779231
156	0x3dc4e23f	0.096134655
157	0x3dfe445c	0.12415382
158	0xbce739e5	-0.028225848
159	0xbdcad241	-0.09903384
160	0xbd98b80a	-0.07456978
161	0x3daa3cc1	0.08312369
162	0x3e1fec36	0.15617451
163	0xbd757a15	-0.05993088
164	0xbdfd528a	-0.12369259
165	0xbd58830a	-0.052859344
166	0x3d869373	0.065710925
167	0xbd4fb56f	-0.050710138
168	0x3cf7681e	0.030201014
169	0xbc9849ce	-0.01858988
170	0xbd933248	-0.07187325
171	0x3e042705	0.1290551
172	0xbe087474	-0.13325673
173	0x3bd256fe	0.0064190617
174	0x3d403a70	0.04693073
175	0x3be138d6	0.0068732304
176	0xbd8cf7c1	-0.06883193
177	0xbdb13ae6	-0.08653812
178	0xbd6ece2d	-0.058302093
179	0xbc962c34	-0.018331625
180	0x3c25c17b	0.01011693
181	0x3d91e4b6	0.07123701
182	0xbce4cc1a	-0.027929354
183	0x3d9e39db	0.07725879
184	0x3dea5ea9	0.11443836
185	0xbd58cd54	-0.05293019
186	0x3c166a92	0.009180682
187	0xbd8347f1	-0.06410206
188	0x3dad7980	0.0847044
189	0xbb392f0d	-0.0028256804
190	0xbe236faf	-0.15960573
191	0x3d506970	0.050881803
192	0xbcaf755d	-0.021418268
193	0x3ccc3ff6	0.024932843
194	0xbcc25459	-0.02372186
195	0xbdd95633	-0.10612144
196	0x3dd4af6d	0.10385022
197	0x3d63aede	0.05558669
198	0x3d94cda9	0.07265789
199	0xbdb3fee2	-0.087888494
200	0xbc2241e7	-0.009903408
201	0x3c26f6c6	0.010190671
202	0xbc882ab7	-0.01662193
203	0xbe637f5d	-0.22216554
204	0xbd36010f	-0.044434603
205	0xbc960a1f	-0.018315373
206	0x3d6daea0	0.058027864
207	0x3cc00413	0.023439443
208	0xbda182de	-0.07886289
209	0xbcc31b2f	-0.023816673
210	0x3b819e14	0.003955612
211	0x3e5445e5	0.20729788
212	0xbbe4a315	-0.0069774487
213	0x3c117c4a	0.0088797305
214	0x3d76c4cb	0.06024627
215	0xbd2babe3	-0.04191197
216	0x3c414325	0.011795794
217	0xbd3eb2f5	-0.046557385
218	0xbe3dd9f1	-0.1854017
219	0xbd8a6e72	-0.06759347
220	0x3de1a91b	0.110185824
221	0x3e43a305	0.19105156
222	0xbe1dca2e	-0.15409157
223	0xbc552e75	-0.0130115645
224	0xbdec93a9	-0.115516014
225	0xbd01ecbc	-0.031719908
226	0xbd9c4a00	-0.07631302
227	0x3d284664	0.041082755
228	0x3d7779cb	0.060418885
229	0xbce7c159	-0.028290438
230	0xbd94f5c1	-0.07273436
231	0xbdc1727e	-0.09445666
232	0x3d9aa440	0.075508595
233	0xbda43209	-0.08017356
234	0xbc2ff785	-0.010740166
235	0x3da221c8	0.079165995
236	0xbdbadfc2	-0.0912471
237	0x3da2611a	0.07928677
238	0x3d6c38dd	0.057671417
239	0xbb20eef5	-0.0024556492
240	0xbda0c107	-0.07849317
241	0xbe2f506c	-0.17120522
242	0x3da469bf	0.08027982
243	0x3d031a9b	0.032007795
244	0x3de67ddb	0.11254474
245	0x3e16be1a	0.14720955
246	0x3cdcdd9f	0.026961146
247	0xbd0365a2	-0.032079346
248	0xbcd3ab4f	-0.025838522
249	0xbddeab05	-0.10872463
250	0xbda55874	-0.08073512
251	0xbd571ebb	-0.05251954
252	0x3dc274ae	0.09494911
253	0x3c441892	0.011968749
254	0x3d5ede76	0.054411374
255	0x3dbd1bbd	0.09233806

network_body.linear_encoder.seq_layers.2.bias f4 [128]
0	0x00000000	0.0
1	0x00000000	0.0
2	0x00000000	0.0
3	0x00000000	0.0
4	0x00000000	0.0
5	0x00000000	0.0
6	0x00000000	0.0
7	0x00000000	0.0
8	0x00000000	0.0
9	0x00000000	0.0
10	0x00000000	0.0
11	0x00000000	0.0
12	0x00000000	0.0
13	0x00000000	0.0
14	0x00000000	0.0
15	0x00000000	0.0
16	0x00000000	0.0
17	0x00000000	0.0
18	0x00000000	0.0
19	0x00000000	0.0
20	0x00000000	0.0
21	0x00000000	0.0
22	0x00000000	0.0
23	0x00000000	0.0
24	0x00000000	0.0
25	0x00000000	0.0
26	0x00000000	0.0
27	0x00000000	0.0
28	0x00000000	0.0
29	0x00000000	0.0
30	0x00000000	0.0
31	0x00000000	0.0
32	0x00000000	0.0
33	0x00000000	0.0
34	0x00000000	0.0
35	0x00000000	0.0
36	0x00000000	0.0
37	0x00000000	0.0
38	0x00000000	0.0
39	0x00000000	0.0
40	0x00000000	0.0
41	0x00000000	0.0
42	0x00000000	0.0
43	0x00000000	0.0
44	0x00000000	0.0
45	0x00000000	0.0
46	0x00000000	0.0
47	0x00000000	0.0
48	0x00000000	0.0
49	0x00000000	0.0
50	0x00000000	0.0
51	0x00000000	0.0
52	0x00000000	0.0
53	0x00000000	0.0
54	0x00000000	0.0
55	0x00000000	0.0
56	0x00000000	0.0
57	0x00000000	0.0
58	0x00000000	0.0
59	0x00000000	0.0
60	0x00000000	0.0
61	0x00000000	0.0
62	0x00000000	0.0
63	0x00000000	0.0
64	0x00000000	0.0
65	0x00000000	0.0
66	0x00000000	0.0
67	0x00000000	0.0
68	0x00000000	0.0
69	0x00000000	0.0
70	0x00000000	0.0
71	0x00000000	0.0
72	0x00000000	0.0
73	0x00000000	0.0
74	0x00000000	0.0
75	0x00000000	0.0
76	0x00000000	0.0
77	0x00000000	0.0
78	0x00000000	0.0
79	0x00000000	0.0
80	0x00000000	0.0
81	0x00000000	0.0
82	0x00000000	0.0
83	0x00000000	0.0
84	0x00000000	0.0
85	0x00000000	0.0
86	0x00000000	0.0
87	0x00000000	0.0
88	0x00000000	0.0
89	0x00000000	0.0
90	0x00000000	0.0
91	0x00000000	0.0
92	0x00000000	0.0
93	0x00000000	0.0
94	0x00000000	0.0
95	0x00000000	0.0
96	0x00000000	0.0
97	0x00000000	0.0
98	0x00000000	0.0
99	0x00000000	0.0
100	0x00000000	0.0
101	0x00000000	0.0
102	0x00000000	0.0
103	0x00000000	0.0
104	0x00000000	0.0
105	0x00000000	0.0
106	0x00000000	0.0
107	0x00000000	0.0
108	0x00000000	0.0
109	0x00000000	0.0
110	0x00000000	0.0
111	0x00000000	0.0
112	0x00000000	0.0
113	0x00000000	0.0
114	0x00000000	0.0
115	0x00000000	0.0
116	0x00000000	0.0
117	0x00000000	0.0
118	0x00000000	0.0
119	0x00000000	0.0
120	0x00000000	0.0
121	0x00000000	0.0
122	0x00000000	0.0
123	0x00000000	0.0
124	0x00000000	0.0
125	0x00000000	0.0
126	0x00000000	0.0
127	0x00000000	0.0

value_heads.value_heads.extrinsic.weight f4 [1, 128]
0	0xbe5180e0	-0.20459318
1	0xbdf57d13	-0.11986747
2	0xbd591b88	-0.05300477
3	0x3d1feb3a	0.03904269
4	0xbe41af4f	-0.18914531
5	0xbc482e3b	-0.012218053
6	0x3db9eb04	0.09078029
7	0xbd9b3816	-0.07579057
8	0x3e2ceb3c	0.1688661
9	0x3cf6e215	0.030137101
10	0x3e5cb3e1	0.21552993
11	0xbc4d288c	-0.012521874
12	0xbe3da183	-0.18518643
13	0x3e23b87a	0.15988341
14	0x3e0bf60a	0.13668075
15	0x3c861e8c	0.016371988
16	0xbe213b7f	-0.15745352
17	0x3e105ae9	0.1409718
18	0xbd95fa55	-0.07323138
19	0xbde9186a	-0.1138161
20	0x3e2b04e2	0.16701081
21	0xbde5d600	-0.11222458
22	0xbdcf4269	-0.101200886
23	0x3dd96ce8	0.10616475
24	0xbe099348	-0.1343509
25	0x3dd1a02b	0.10235628
26	0xbe090049	-0.13379015
27	0xbdece37e	-0.11566828
28	0x3dfe48e8	0.124162495
29	0x3dc30b59	0.09523649
30	0xbdff2b12	-0.12459387
31	0xbdabe81e	-0.08393882
32	0x3e067a8d	0.13132687
33	0xbe1c6b97	-0.15275417
34	0xbe010cbb	-0.12602513
35	0xbe562fcb	-0.20916669
36	0xbe5cd23a	-0.2156457
37	0x3dcbb0fa	0.09945865
38	0x3bcb9135	0.0062123784
39	0xbe0b6838	-0.13613975
40	0x3dc09f6a	0.09405406
41	0x3e2ce381	0.16883661
42	0xbe09f3ab	-0.13471858
43	0xbe1b4b9e	-0.15165564
44	0xbda85d21	-0.08220888
45	0x3e5b8685	0.21438034
46	0x3e178ff3	0.14801006
47	0xbe0408ed	-0.1289403
48	0x3d54f9e5	0.05199613
49	0xbe3d2bae	-0.18473694
50	0x3d9dac4d	0.076988794
51	0x3dd6dfe2	0.10491921
52	0xbda2e162	-0.079531446
53	0x3e3b49ae	0.18289825
54	0xbe444638	-0.19167411
55	0xbe2a4aba	-0.16630068
56	0xbd939f11	-0.07208074
57	0xbe3a8e9b	-0.18218462
58	0xbd8d2680	-0.06892109
59	0x3e1f36bc	0.15548223
60	0xbdab5834	-0.08366433
61	0x3df172be	0.117894635
62	0xbdff0c87	-0.12453561
63	0xbe00c4cf	-0.12575077
64	0x3e1e83ad	0.15479918
65	0x3e4bab58	0.19889581
66	0xbd46c570	-0.048528135
67	0x3d96f0eb	0.0737017
68	0x3e3463e6	0.17616233
69	0x3e26c6b5	0.16286738
70	0x3dd78878	0.10524076
71	0xbe23df9d	-0.1600327
72	0xbd73b85a	-0.059501983
73	0xbb94a1c4	-0.0045358855
74	0x3d929d35	0.07158891
75	0xbcc23f23	-0.023711747
76	0x3e31ad17	0.17351185
77	0xbd5bb4d2	-0.05363924
78	0xbd58b690	-0.05290848
79	0x3db1ad17	0.086755924
80	0x3dc0c364	0.09412268
81	0xbdf15546	-0.11783843
82	0xbe21a1ed	-0.15784426
83	0x3d90d6eb	0.07072242
84	0xbdbd6559	-0.09247846
85	0x3e12d880	0.143404
86	0xbd11d8b2	-0.035607047
87	0xbe46f414	-0.19429046
88	0x3e34fdf2	0.17674997
89	0xbe1fc8f9	-0.15604009
90	0x3d96947a	0.073525384
91	0x3c379186	0.011204129
92	0x3d8eea19	0.06978244
93	0xbb91fed7	-0.004455428
94	0xbded13ec	-0.115760654
95	0x3d94a5f2	0.07258214
96	0xbe55b7f4	-0.20870954
97	0xbdfab243	-0.12241032
98	0x3e3ee4c3	0.18641953
99	0x3e1c36a2	0.15255216
100	0xbe4e4990	-0.2014525
101	0x3bc99779	0.00615209
102	0xbe0056f7	-0.12533174
103	0x3e19a43a	0.15004054
104	0x3d871079	0.06594939
105	0x3be30824	0.0069284607
106	0x3dee5c13	0.116386555
107	0xbe17eed2	-0.14837196
108	0xbd8cc10e	-0.0687276
109	0xbdefc313	-0.11707129
110	0xbcb11e94	-0.021621026
111	0xbdfd610e	-0.12372027
112	0x3e30caa3	0.172648
113	0x3e11e76d	0.14248438
114	0xbd9620ff	-0.07330512
115	0xbc4d3fe4	-0.01252744
116	0x3daf8ed7	0.085721664
117	0x3dba0079	0.090821214
118	0xbdb98d4a	-0.09060152
119	0x3b493444	0.0030701319
120	0xbe44323c	-0.19159788
121	0xbe18c3d2	-0.1491845
122	0xbdbd9a94	-0.09257999
123	0x3e526ed2	0.20550087
124	0xbe0d6c2b	-0.13810794
125	0xbe1376b7	-0.14400755
126	0x3e422bfa	0.18962088
127	0xbe14b428	-0.14521849
