results/ppo/My Behavior/My Behavior-81542.pt (torch, 448479 bytes, 36 tensors)

network_body.linear_encoder.seq_layers.0.weight f4 [128, 9]
-0.28616458 0.43116364 -0.22475944 0.36536258 -0.086086184 -0.22162777 -0.34838793 -0.1993843
-0.05630756 0.078726135 0.7055565 -0.31177607 -0.33745548 0.12407369 -0.42404288 -0.1742345
-0.27380952 -0.1884116 0.20938067 -0.3981002 0.41707286 -0.1614161 -0.08319564 0.41208872
-0.16706325 0.56956863 0.3780493 -0.007844685 0.06624686 -0.20666146 0.27226052 0.33760688
0.41497952 -0.15795036 -0.20026842 -0.0734525 0.36520696 0.6891316 -0.04980886 -0.51168436
0.73001057 0.23534994 0.20591748 0.4539641 -0.9098364 0.42716604 0.1983303 -0.53522563
0.04983009 0.2120723 0.5464648 -0.03271605 0.7217956 -0.36687925 0.0065271407 0.23219928
-0.06913346 0.0057535623 -0.22179721 0.24324027 -0.046512462 0.6189406 0.4580568 0.47523648
0.20430534 -0.15972134 0.9184189 -0.26188105 0.18883613 0.009213241 -0.2989364 -0.01099158
-0.07329692 0.3673761 -0.047269955 0.107627034 -0.053608835 -0.284313 0.058782022 0.095598586
0.31957623 -0.72975826 0.39260742 -0.6559898 0.5713602 -0.5472828 0.13231146 0.017513596
0.28728288 0.22868198 -0.6528579 0.18462276 0.0025898134 0.26832572 -0.2949513 -0.21968801
-0.9299773 -0.543454 -0.40923885 -0.8980879 -0.62180376 -0.3272681 0.047263663 0.20698369
-0.15386981 0.14317964 0.34127787 -0.079584755 -0.12225454 0.35732278 -0.55816627 0.19823058
0.2887899 0.10650001 -0.18639086 -0.276162 -0.5980837 0.7292268 0.4182516 -0.08969257
-0.33466083 0.08045222 0.42714664 -0.23235276 -0.04099236 0.22110802 0.17106165 0.033335205
-0.27381468 -0.9467438 -0.63497895 0.109351136 0.013199841 -0.276143 -0.38872975 -0.89341813
0.040757373 -0.09978946 0.011701583 -0.6002386 0.54692006 -0.15535317 -0.6822487 0.032048658
0.28436387 0.10189905 0.00451602 -0.19500929 0.31186718 -0.37834457 -0.18619286 0.0997911
-0.18626189 0.28367737 0.35108903 -0.78302383 0.005170845 0.26244918 -0.29724208 -0.4890846
0.6174271 0.80765593 0.6382999 -0.58325124 0.023689745 0.8668319 0.38690737 0.18571742
0.01170365 -0.13520223 0.5413271 -0.018214425 0.8016291 -0.107921384 0.90191466 -0.41769814
-0.03777244 0.19592334 0.08426546 0.19543095 0.051942572 0.40036842 0.4816847 0.002106658
0.43795377 0.5629858 -0.20503712 -0.20264955 0.12180698 -0.24579729 0.30001253 -0.54855543
-0.22475417 0.54736644 -0.075919256 0.4849853 0.08535106 -0.2811239 0.5322067 0.22224304
0.15314278 -0.22817162 0.46088776 -0.062841736 0.012842119 0.124962255 -0.18121633 0.026585102
-0.11430883 0.19750655 0.023907587 -0.31226602 -0.18377388 0.043529753 0.017193956 -0.16513377
0.33331874 -0.59447104 0.3071044 0.72659284 -0.28881335 -0.055651616 0.34030977 -0.34863016
0.5027846 -0.034919526 0.10465908 -0.1791903 0.12501685 -0.24133378 0.16763021 0.11195986
-0.2104147 -0.43134677 -0.11811158 0.104210325 0.056858245 0.17517976 0.13726588 0.24726303
0.26054686 0.93115306 0.04259068 0.33560953 0.50789756 0.839885 0.35439584 -0.22968537
0.08758755 -0.062419157 -0.37226638 0.04449486 -0.2779099 -0.07256826 0.1332436 0.36141264
00000000: 2a84 92be 7bc1 dc3e 5727 66be ce10 bb3e
00000010: f44d b0bd 64f2 62be e75f b2be 662b 4cbe
00000020: c2a2 66bd 2b3b a13d 5a9f 343f 1da1 9fbe
00000030: f7c6 acbe 591a fe3d 261c d9be 876a 32be
00000040: c330 8cbe f8ee 40be e367 563e cad3 cbbe
00000050: 938a d53e 434a 25be 7a62 aabd 4bfd d23e
00000060: a112 2bbe 40cf 113f ae8f c13e fe86 00bc
00000070: 6fac 873d 109f 53be bb65 8b3e cfda ac3e
00000080: 3278 d43e bdbd 21be 2a13 4dbe 446e 96bd
00000090: 68fc ba3e ee6a 303f 6004 4cbd bffd 02bf
000000a0: f9e1 3a3f 93ff 703e 08dc 523e fc6d e83e
000000b0: 0aeb 68bf 82b5 da3e 1917 4b3e 8c04 09bf
000000c0: a31a 4c3d 7b29 593e 1ee5 0b3f 4401 06bd
000000d0: 99c7 383f 99d7 bbbe a0e1 d53b a6c5 6d3e
000000e0: d895 8dbd 6188 bc3b cf1e 63be fa13 793e
000000f0: da83 3ebd e472 1e3f 6c86 ea3e 3252 f33e
00000100: 6b35 513e fe8d 23be 801d 6b3f 4615 86be
00000110: 425e 413e 22f3 163c 310e 99be 0716 34bc
00000120: b21c 96bd b818 bc3e 249e 41bd 906b dc3d
00000130: f094 5bbd 7991 91be 6bc5 703d 31c9 c33d
00000140: 7f9f a33e 70d1 3abf d703 c93e f3ee 27bf
00000150: a944 123f ba1a 0cbf a87c 073e ac78 8f3c
00000160: be16 933e 9c2b 6a3e b221 27bf c00d 3d3e
00000170: dcb9 293b fd61 893e db03 97be e5f5 60be
00000180: fe12 6ebf cd1f 0bbf c187 d1be 17e9 65bf
00000190: 882e 1fbf af8f a7be 8b97 413d 88f3 533e
000001a0: 0c90 1dbe af9d 123e f9bb ae3e 55fd a2bd
000001b0: 9760 fabd 03f3 b63e fce3 0ebf f5fc 4a3e
000001c0: 45dc 933e ad1c da3d 3fdd 3ebe 1b65 8dbe
000001d0: 031c 19bf 9cae 3a3f 1325 d63e bdb0 b7bd
000001e0: aa58 abbe 22c4 a43d f7b2 da3e e2ed 6dbe
000001f0: 9be7 27bd 246a 623e c92a 2f3e 7f8a 083d
00000200: 7031 8cbe cd5d 72bf fb8d 22bf 7df3 df3d
00000210: 2544 583c 9e62 8dbe 9607 c7be 0db7 64bf
00000220: 34f1 263d 6b5e ccbd ffb7 3f3c 3da9 19bf
00000230: f402 0c3f e714 1fbe daa7 2ebf 7445 033d
00000240: 2498 913e 73b0 d03d 1ffb 933b 84b0 47be
00000250: 0ead 9f3e 61b6 c1be 57a9 3ebe 475f cc3d
00000260: 70bb 3ebe 293e 913e f1c1 b33e 4074 48bf
00000270: 3170 a93b bd5f 863e 1d30 98be 4c69 fabe
00000280: b40f 1e3f 8ac2 4e3f 9f67 233f f44f 15bf
00000290: ff10 c23c b2e8 5d3f b918 c63e b52c 3e3e
000002a0: aac0 3f3c 7472 0abe 6a94 0a3f 6b36 95bc
000002b0: 9137 4d3f e305 ddbd e1e3 663f 88dc d5be
000002c0: 46b7 1abd 21a0 483e 5f93 ac3d 0d1f 483e
000002d0: bcc1 543d 17fd cc3e 619f f63e db0f 0a3b
000002e0: 7a3b e03e d61f 103f 40f5 51be 5d83 4fbe
000002f0: f075 f93d 49b2 7bbe 3e9b 993e 216e 0cbf
00000300: f525 66be 3520 0c3f 8e7b 9bbd fe4f f83e
00000310: 89cc ae3d 79ef 8fbe b33e 083f ae93 633e
00000320: 76d1 1c3e d2a5 69be 7bf9 eb3e 2bb3 80bd
00000330: c067 523c 36ec ff3d c690 39be 00c9 d93c
00000340: bf1a eabd 283f 4a3e d8d9 c33c 55e1 9fbe
00000350: 382f 3cbe 414c 323d 57da 8c3c d418 29be
00000360: c1a8 aa3e 412f 18bf ca3c 9d3e fd01 3a3f
00000370: 58df 93be f3f2 63bd 153d ae3e a77f b2be
00000380: 7eb6 003f c707 0fbd 8057 d63d a97d 37be
00000390: 6b04 003e 3420 77be 41a7 2b3e 364b e53d
000003a0: f376 57be 7cd9 dcbe 7ce4 f1bd 396c d53d
000003b0: 31e4 683d 5362 333e 6d8f 0c3e 8532 7d3e
000003c0: 6666 853e 0c60 6e3f 9173 2e3d 03d5 ab3e
000003d0: 9305 023f b402 573f 5f73 b53e a432 6bbe
000003e0: 1a61 b33d 3bab 7fbd b399 bebe 3e40 363d
000003f0: 354a 8ebe ab9e 94bd 0371 083e 140b b93e

network_body.linear_encoder.seq_layers.0.bias f4 [128]
-0.0011394924 -0.0009877324 -9.502683e-05 -0.0026963106 -0.0047865473 -0.009230612 -0.0018012961 -0.0031664383
-0.0023116255 0.001114018 -0.0011454587 -0.00066465064 -0.010446122 -0.002131903 0.0031170566 -0.00014721621
-0.0008148537 -0.0015238988 -0.0007670811 -0.0045581874 0.0006114333 0.0039761253 -0.0024237612 -0.00032278124
0.001079885 -0.0011786976 -3.685178e-05 -0.001208969 -0.0006846419 7.059772e-05 -0.00030690388 -0.004213208
-0.001538936 0.0013131056 -0.0041054813 0.0003452162 -0.00014175741 -0.00061701704 -0.0007327916 -0.0042727157
-0.0032792063 0.0005261867 0.0010472215 0.00018941845 0.00092440663 0.0016920249 -0.0006268243 -0.001251386
5.5581517e-05 -0.0013343736 -0.00047179527 0.0030147817 0.0006676552 -0.0011373843 -0.0003462409 -9.6032025e-05
-0.004088843 0.0001265529 0.00023829652 -0.00061087304 -0.00048776608 -0.00042758413 0.000478793 -0.0014105428
0.002099507 -0.0016934784 -0.0019483987 -0.005142697 0.00025258207 0.00019010357 -0.0049048495 -0.0020794077
-0.000534988 -0.00025990515 2.1045025e-05 -0.0007992729 -0.0026304706 -0.008005526 0.00015108113 -0.0009333764
-9.3765186e-05 -7.498145e-05 -0.00031408382 -0.00097025436 -0.005222602 0.0023077969 0.0028092023 -0.00050865463
-0.0010141861 -0.00212675 -0.00037785716 -0.00027888807 -0.00053380954 0.0002294501 0.0031181176 -0.002828423
-0.0010389055 0.00016855498 -0.00050706096 -0.0036896826 -0.0069996165 -0.0012985924 -0.0027172733 -0.010200241
-0.00018081247 -0.00033625535 0.008740971 0.0030354692 -0.0024099275 -0.0028913082 -6.772048e-05 1.2418836e-05
-0.002167442 -0.0023241632 0.0016320151 0.003992724 -0.000110257664 -0.0026200723 0.0010972578 0.00045865506
-0.0032959182 -0.0014473919 0.00037736955 -0.012412971 0.0024453623 0.0029092173 -0.001475047 0.0017818465
00000000: 055b 95ba cd76 81ba 2449 c7b8 96b4 30bb
00000010: 78d8 9cbb fe3b 17bc 7819 ecba 0584 4fbb
00000020: a47e 17bb 3e04 923a 3723 96ba f33b 2eba
00000030: 3626 2bbc 66b7 0bbb 8847 4c3b 0d5e 1ab9
00000040: e89b 55ba 8fbd c7ba f115 49ba d95c 95bb
00000050: 9848 203a 284a 823b f7d7 1ebb f73a a9b9
00000060: ee8a 8d3a 877e 9aba 4c91 1ab8 4576 9eba
00000070: 8a79 33ba dd0d 9438 f1e7 a0b9 f30e 8abb
00000080: 20b6 c9ba 831c ac3a 4687 86bb 22fe b439
00000090: b7a4 14b9 50bf 21ba d018 40ba 2302 8cbb
000000a0: f4e7 56bb cbef 093a ec42 893a a19e 4639
000000b0: e153 723a efc6 dd3a 7751 24ba 8c05 a4ba
000000c0: 3320 6938 26e6 aeba 4a5b f7b9 a593 453b
000000d0: 9505 2f3a 4914 95ba ab87 b5b9 cd64 c9b8
000000e0: b3fb 85bb 49b3 0439 3cdf 7939 ff22 20ba
000000f0: dbba ffb9 5f2d e0b9 8206 fb39 f6e1 b8ba
00000100: e297 093b b5f7 ddba 6961 ffba 1284 a8bb
00000110: fe6c 8439 8a56 4739 dcb8 a0bb ac46 08bb
00000120: 703e 0cba e143 88b9 d989 b037 4c86 51ba
00000130: f963 2cbb 9c29 03bc 886b 1e39 d4ad 74ba
00000140: cda3 c4b8 5c3f 9db8 9eab a4b9 ab58 7eba
00000150: 5c22 abbb 683e 173b 981a 383b 3c57 05ba
00000160: 70ee 84ba f260 0bbb 211b c6b9 b937 92b9
00000170: 5aef 0bba 8b98 7039 5559 4c3b 105d 39bb
00000180: e22b 88ba 22be 3039 49ec 04ba 9ace 71bb
00000190: 0a5d e5bb 8835 aaba 4814 32bb e91e 27bc
000001a0: 7a98 3db9 6e4b b0b9 4a36 0f3c b9ee 463b
000001b0: e0ef 1dbb 1a7c 3dbb 2805 8eb8 7f5a 5037
000001c0: a50b 0ebb fd50 18bb 57e9 d53a 66d5 823b
000001d0: 223a e7b8 85b5 2bbb ddd1 8f3a a477 f039
000001e0: 5500 58bb 6ab6 bdba afd9 c539 c65f 4bbc
000001f0: 5f42 203b 91a8 3e3b 5d56 c1ba d98c e93a

network_body.linear_encoder.seq_layers.2.weight f4 [128, 128]
0.079688124 -0.05862207 -0.12994152 0.07885216 0.07065314 0.12933569 -0.022920977 -0.16905805
-0.08229039 0.090048194 -0.045858778 0.017833626 0.02101013 -0.08541526 0.020082366 0.007802544
-0.07055812 -0.008469677 0.104766384 -0.028724553 0.07489359 -0.021907771 -0.084652744 -0.115087256
-0.0590943 -0.09153366 -0.028113458 -0.09525911 -0.11659815 -0.03730068 -0.026860079 -0.066803984
-0.15938306 0.08114094 -0.08779059 0.050035767 -0.11216519 0.14211893 -0.07813661 -0.074337065
-0.015667032 0.061180953 0.0023132977 -0.069416724 0.04918018 0.0037620717 -0.022125361 -0.021933045
-0.03851561 0.06940748 0.12541753 -0.020908963 0.06836815 -0.26088405 0.13311198 0.01904316
0.10288951 0.0478924 -0.043328762 -0.02505897 -0.06662932 -0.08476838 0.0456951 0.03747756
-0.12559164 -0.025866142 0.1251993 0.07558837 -0.12661815 -0.10403491 -0.06132771 -0.0721559
0.0403648 0.14103623 0.05306538 -0.047057636 0.06951659 0.044834554 0.02193171 -0.0016207445
0.020270044 0.082798645 -0.01137063 0.08035424 0.19846994 -0.09060175 0.037465923 -0.0018884516
0.10222047 0.09895764 -0.12148442 -0.2659913 -0.058563087 0.017054105 -0.07432914 0.122436605
0.123781204 0.09406306 0.09751803 0.085087456 0.21823853 0.13384074 0.008598751 -0.08590093
-0.16885872 -0.04552189 -0.046019576 -0.05710023 0.07951915 -0.018274715 -0.03892811 -0.054205194
-0.07946143 0.052483007 -0.04567258 -0.023127217 -0.13794279 0.025655232 0.08173182 -0.043254115
0.08715521 0.15478212 -0.124990344 -0.059358478 -0.04286435 -0.011047692 0.12944484 -0.060224786
0.022591956 -0.15541692 0.27872244 0.04005723 0.080686755 -0.061298106 0.10713 -0.17569907
-0.053664025 0.15051176 -0.06469458 0.03767163 0.028516496 -0.14210482 -0.2747832 0.16068283
-0.08127467 -0.04900934 0.009569143 0.043056305 -0.047692407 -0.14277145 -0.022421926 -0.004236768
-0.07707467 -0.052790802 -0.16515404 0.0014318273 -0.12933473 0.04180735 0.029414115 -0.00501556
0.091836356 -0.103136495 0.012694712 -0.010620757 0.048597 0.09405695 -0.018605314 -0.017585104
0.0768895 -0.024836864 0.15671113 0.037167598 -0.042481836 0.0003219793 -0.040452838 -0.06888295
0.14367868 -0.1522125 0.056335814 -0.039876007 0.03635812 0.013120958 -0.041216046 0.092075676
-0.037738614 -0.0023634748 -0.044982474 0.011433592 -0.010015721 -0.017447652 0.04193334 0.0072827735
-0.032749 0.15778665 0.13225116 -0.1318267 0.13579352 0.04207854 -0.01076571 0.021110388
0.14831732 0.08673402 -0.06284867 -0.038244575 0.12966107 0.01285336 0.021854114 -0.072958276
-0.08952327 0.018356038 -0.0376894 0.18537986 0.1514153 -0.07328751 0.05661684 0.037099797
0.0025104238 -0.07929975 0.112909876 0.07607927 0.013092224 -0.10247674 -0.04063778 0.05649485
-0.061728004 0.102813825 5.9347378e-05 -0.0138313845 0.04207651 0.15664436 0.022042645 0.038444676
0.084605135 0.004765434 0.093068466 0.0050801923 0.007165207 -0.01920593 0.029487731 0.07206382
-0.020281484 0.12123776 -0.0619292 0.1066822 -0.052991834 0.085567355 -0.054652553 0.0739436
-0.024135092 -0.0011585809 -0.15560403 -0.15415768 0.033417094 0.009932912 0.005116122 0.044387937
00000000: 8733 a33d b21d 70bd 640f 05be 3e7d a13d
00000010: 98b2 903d 9370 043e c6c4 bbbc 8e1d 2dbe
00000020: dd87 a8bd 306b b83d 6ad6 3bbd d317 923c
00000030: 701d ac3c 32ee aebd c683 a43c 7cac ff3b
00000040: c780 90bd 66c4 0abc c28f d63d c14f ebbc
00000050: cf61 993d ed77 b3bc 6b5e adbd deb2 ebbd
00000060: dd0c 72bd 0076 bbbd 324e e6bc 3517 c3bd
00000070: 03cb eebd 99c8 18bd ab09 dcbc 87d0 88bd
00000080: 5035 23be 392d a63d 8ecb b3bd 4ef2 4c3d
00000090: ddb6 e5bd a087 113e 1606 a0bd 083e 98bd
000000a0: 2658 80bc e198 7a3d b29a 173b 5b2a 8ebd
000000b0: 2871 493d 178d 763b 3f40 b5bc eeac b3bc
000000c0: 8bc2 1dbd 8225 8e3d 746d 003e 4649 abbc
000000d0: 9a04 8c3d 9892 85be 824e 083e 6700 9c3c
000000e0: bcb7 d23d d22a 443d 8079 31bd 7848 cdbc
000000f0: f474 88bd 0b9b adbd c92a 3b3d 1282 193d
00000100: 189b 00be 3be5 d3bc 3f34 003e 13ce 9a3d
00000110: 30a8 01be 4110 d5bd c432 7bbd 79c6 93bd
00000120: 8f55 253d cd6b 103e 155b 593d 82bf 40bd
00000130: b75e 8e3d 70a4 373d 21aa b33c 296f d4ba
00000140: 5d0d a63c 5692 a93d e14b 3abc c490 a43d
00000150: b43b 4b3e 698d b9bd de75 193d ec85 f7ba
00000160: f758 d13d 4eaa ca3d d3cc f8bd 0330 88be
00000170: d9df 6fbd 0db5 8b3c e039 98bd 0bc0 fa3d
00000180: 0081 fd3d 22a4 c03d 88b7 c73d 5542 ae3d
00000190: ec79 5f3e 8c0d 093e c7e1 0c3c d4ec afbd
000001a0: 4de9 2cbe 2975 3abd 067f 3cbd eee1 69bd
000001b0: f0da a23d dbb4 95bc 1573 1fbd 4406 5ebd
000001c0: adbc a2bd 6cf8 563d 2c13 3bbd 4a75 bdbc
000001d0: e040 0dbe ec2a d23c 0363 a73d 3a2b 31bd
000001e0: 6e7e b23d 347f 1e3e f0fa ffbd e021 73bd
000001f0: 8792 2fbd 6101 35bc 308d 043e 44ae 76bd
00000200: c412 b93c 9d25 1fbe b5b4 8e3e 0d13 243d
00000210: 193f a53d b913 7bbd f966 db3d 75ea 33be
00000220: cfce 5bbd c11f 1a3e 987e 84bd 914d 1a3d
00000230: 6d9b e93c ed83 11be 62b0 8cbe 0a8a 243e
00000240: 5673 a6bd 05be 48bd e5c7 1c3c cf5b 303d
00000250: 1d59 43bd ae32 12be 30ae b7bc 96d4 8abb
00000260: 53d9 9dbd 2b3b 58bd 241e 29be 27ac bb3a
00000270: 5370 04be 2f3e 2b3d dff5 f03c 9159 a4bb
00000280: b314 bc3d 3a39 d3bd 7bfd 4f3c af02 2ebc
00000290: a60d 473d eea0 c03d 2c6a 98bc a30e 90bc
000002a0: 3e78 9d3d ae76 cbbc e278 203e 0d3d 183d
000002b0: 6f01 2ebd 55cf a839 e0b1 25bd 8112 8dbd
000002c0: 8120 133e 98dd 1bbe 62c0 663d 0655 23bd
000002d0: 41ec 143d 49f9 563c 28d2 28bd 2c92 bc3d
000002e0: ce93 1abd 87e4 1abb 8b3f 38bd f653 3b3c
000002f0: fb18 24bc 61ee 8ebc 4bc2 2b3d 55a4 ee3b
00000300: d123 06bd d392 213e d96c 073e 94fd 06be
00000310: 750d 0b3e 8c5a 2c3d a962 30bc b1ef ac3c
00000320: 7fe0 173e 9ba1 b13d ceb6 80bd 58a6 1cbd
00000330: dfc5 043e e696 523c 6607 b33c 266b 95bd
00000340: fa57 b7bd 675f 963c 3360 1abd 38d4 3d3e
00000350: 9d0c 1b3e c317 96bd 0fe7 673d f5f5 173d
00000360: ec85 243b e867 a2bd 4b3d e73d 73cf 9b3d
00000370: c480 563c 53df d1bd cd73 26bd 2567 673d
00000380: 81d6 7cbd 0e90 d23d c3eb 7838 089d 62bc
00000390: 6b58 2c3d 6167 203e c792 b43c 2a78 1d3d
000003a0: 7545 ad3d 5c27 9c3b ae9a be3d be77 a63b
000003b0: 1dca ea3b c155 9dbc 4190 f13c 3296 933d
000003c0: 5b25 a6bc 814b f83d 79a9 7dbd 337c da3d
000003d0: f70d 59bd f03d af3d 5bdb 5fbd be6f 973d
000003e0: f5b6 c5bc 86db 97ba aa56 1fbe 83db 1dbe
000003f0: 5de0 083d a7bd 223c 24a5 a73b 20d0 353d

network_body.linear_encoder.seq_layers.2.bias f4 [128]
0.002880259 -0.00013358562 -0.0010937405 -0.00010265523 0.00047464977 0.0010557796 -0.00064772373 -0.00082972675
-0.0037089225 0.00056919863 0.0008068211 -0.0009653531 -0.00013398284 -0.00088840915 0.001381316 -9.965728e-05
-0.00067732984 0.00017993401 0.000635663 -0.0003325833 -0.0014548245 0.0004101046 -0.0006474558 -0.0004784669
0.0010551972 -0.00018757956 0.00023939575 -0.002309714 0.002728331 -0.00029146872 0.0007320088 0.00020986651
-0.0006155443 -0.0020169758 0.00040736658 0.00012449555 0.00011175979 -0.001060664 0.011709038 0.0001756139
-0.0007071104 -0.00012631381 0.0017825017 -0.008866027 -0.001533622 -0.0071613486 -0.0009540109 0.0025988058
-0.00090099307 -0.0027357065 -0.0012827049 0.0001438845 0.0015312829 0.013661102 -0.00033608437 0.0022934056
0.00029947044 0.002864745 -6.456607e-05 0.0042574005 -0.0009941485 0.0017332021 2.741519e-05 6.920047e-05
2.125583e-05 -0.0015013374 -0.0019089747 -0.0015941896 -0.0006867666 -0.0010998389 -0.006787398 -0.0006463686
3.90714e-05 0.0040383525 0.0042930357 -0.0009223797 -0.003131206 -0.00022116626 -0.0027491432 -0.00065755897
-8.879917e-05 0.0005792995 0.0015151968 -0.00075883773 0.0011897698 -0.0005069824 -0.0074181603 0.0012896672
-0.00026677526 -0.002851559 -0.0011887026 0.00035631785 -6.3757856e-05 0.0005384045 -0.00024061037 -0.0011276427
-0.0014249786 -0.0011115592 2.1704667e-05 -0.0010329875 -0.0011184552 0.00013831323 -0.00044459067 -0.00059576816
0.00044787783 -0.0013014444 -8.480767e-05 -0.0042827977 0.00419413 -0.007115799 -0.00034201585 -0.0009108377
-0.00027778736 0.00016761711 -0.0009366938 0.0012999626 -0.0008892676 -0.00012116254 -0.0024062651 9.664726e-05
0.0053870776 0.00092018064 -0.00038069024 0.003558056 -0.0011800032 -0.004918084 -0.00286519 -0.00019179651
00000000: bac2 3c3b 1e13 0cb9 d75b 8fba 9b48 d7b8
00000010: 6ada f839 1662 8a3a 01cc 29ba 0582 59ba
00000020: 6511 73bb 4636 153a d980 533a c00f 7dba
00000030: bf7d 0cb9 21e4 68ba 460d b53a 18ff d0b8
00000040: d68e 31ba abac 3c39 9fa2 263a 935e aeb9
00000050: cfaf beba 4f03 d739 06ba 29ba beda fab9
00000060: 8b4e 8a3a 01b1 44b9 4f06 7b39 925e 17bb
00000070: cccd 323b 45d0 98b9 47e4 3f3a 9d0f 5c39
00000080: 7b5c 21ba 3d2f 04bb d193 d539 058b 0239
00000090: 9560 ea38 fa05 8bba 44d7 3f3c ff24 3839
000000a0: 605d 39ba 1b73 04b9 d5a2 e93a d042 11bc
000000b0: d103 c9ba bfa9 eabb 9616 7aba ba50 2a3b
000000c0: 9f30 6cba 8a49 33bb 6f20 a8ba b4df 1639
000000d0: 54b5 c83a d1d2 5f3c 7b34 b0b9 f64c 163b
000000e0: 3e02 9d39 72be 3b3b a567 87b8 aa81 8b3b
000000f0: 174e 82ba 9d2c e33a acf9 e537 b81f 9138
00000100: 8c4e b237 86c8 c4ba 9036 faba 20f4 d0ba
00000110: 2008 34ba 7828 90ba d268 debb 1071 29ba
00000120: 99e0 2338 2854 843b 98ac 8c3b dbcb 71ba
00000130: eb34 4dbb dee8 67b9 f82a 34bb 0960 2cba
00000140: b139 bab8 22dc 173a 9199 c63a bdec 46ba
00000150: 0df2 9b3a 03e7 04ba 0a14 f3bb 0d0a a93a
00000160: f8dd 8bb9 39e1 3abb 3ece 9bba 2cd0 ba39
00000170: bdb5 85b8 b723 0d3a 5b4c 7cb9 69cd 93ba
00000180: 59c6 baba bdb1 91ba 6b12 b637 4f65 87ba
00000190: 2199 92ba 2d08 1139 f317 e9b9 532d 1cba
000001a0: 25d1 ea39 3a95 aaba c5da b1b8 b656 8cbb
000001b0: ea6e 893b a62b e9bb 9750 b3b9 49c5 6eba
000001c0: fda3 91b9 60c2 2f39 758c 75ba 8263 aa3a
000001d0: bd1d 69ba a518 feb8 6eb2 1dbb 1aaf ca38
000001e0: 1586 b03b 4738 713a 6197 c7b9 462e 693b
000001f0: 56aa 9aba e127 a1bb e9c5 3bbb fc1c 49b9

action_model._continuous_distribution.log_sigma f4 [1, 2]
-0.012729949 0.0002725487
00000000: 4791 50bc dee4 8e39

action_model._continuous_distribution.mu.weight f4 [2, 128]
0.012453569 0.00681955 0.0027261132 -0.005984487 -0.0010885753 0.012410183 0.0016194663 -0.020305416
-0.05105043 0.0075799185 0.032534305 -0.0058047245 0.019349452 -0.030061867 -0.018698782 0.0037605753
-0.0054386044 -0.0038935617 0.009947056 0.00048593315 -0.012359995 0.03409205 0.003976437 0.00692177
-0.015050602 0.025815748 0.012700962 -0.0014435377 -0.0016210704 0.003789457 0.006627236 0.021485679
-0.036058735 6.341885e-05 0.026832245 0.005243506 0.012366916 0.0037496106 0.054879136 0.022235628
-0.010164131 0.029899405 0.004635728 -0.001971831 -0.004950763 0.0047268285 0.00845077 0.00738664
-0.0030556575 -0.0107899085 0.0036190553 0.0054316362 -0.031427607 0.04499786 -0.011631746 -0.029279917
0.006705399 -0.00033411285 0.020431707 -0.04157555 0.01486854 0.012747493 -0.018411122 -0.008386892
0.012132736 -0.0007071461 0.009255433 -0.004539886 -0.057357397 -0.005843569 -0.035650134 0.0016337801
-0.0014760192 -0.0063612587 0.023682484 -0.026228739 -0.029508682 -0.013896648 0.012139116 0.01070153
-0.004339697 -0.020295097 0.0039520347 0.033238545 0.010869763 0.0049929065 -0.005369369 -0.004620081
-0.03742784 -0.0073894383 0.000909103 0.034011487 0.016867768 0.032812256 0.0134760225 -0.0061210804
0.0005110024 -0.012768505 -0.021132013 -0.008550892 0.0015264957 0.011206732 -0.022472272 -0.006431004
0.036885962 -0.032682564 0.010617236 -0.022780498 -0.0053613554 -0.010307713 0.014846432 -0.032088127
-0.014270692 0.010964675 -0.0077380207 -0.0038835593 -0.0041180733 -0.01819028 -0.00084429304 0.009925124
0.0050389627 0.009843799 -0.0070700063 0.027443912 -0.009219902 -0.028810639 -0.0034520794 -0.01504288
-0.0040963194 -0.00012642021 -0.012793714 0.029368287 0.00874879 0.02887932 -0.007343526 -0.012435887
-0.001971708 0.011885424 0.022298256 -0.02205405 -0.023451244 -0.014561215 -0.029052984 -0.012217215
0.0029123747 0.015213104 0.01965762 0.011862665 -0.022933759 -0.01772794 -0.012374737 0.011694121
0.040044688 0.0059287036 0.024610726 -0.017377315 0.029969705 0.0011803232 0.008645398 -0.031774014
-0.028524952 -0.015816798 -0.00515157 0.025044048 -0.001077037 0.02126187 0.021261364 -0.009338401
0.015291164 0.0009148524 0.029465046 0.0029135484 -0.025451373 0.0014638605 -0.023544813 0.017890343
0.017109863 -0.019216085 0.0012067886 0.016713897 -0.009608496 -0.0038895046 0.017139304 -0.017935297
0.0071026315 0.016674202 -0.009063773 0.0017773646 0.005395052 -0.03300674 0.008699382 -0.00073950406
0.008126395 -0.0064343596 -0.02380448 0.024311453 -0.007998222 0.018530205 -0.004180906 -0.00053002883
0.011313448 -0.021319129 0.0003803569 -0.01927333 0.005832617 0.02341993 -0.02447076 -0.020440726
0.02256213 0.017304981 -0.035448182 -0.024894685 -0.014525919 -0.026450176 -0.0038516547 0.022530045
0.018547285 0.0021717455 0.00075121265 0.009864424 0.027353209 0.005842554 -0.0027875379 0.0017038486
-0.002603821 -0.0031040267 0.016908184 0.00020514321 -0.0010254092 0.014037321 -0.011719491 0.0041944906
-0.0040314216 0.019135209 -0.01597891 0.022800224 -0.004123685 0.002186123 0.002021426 -0.020775063
-0.00036153453 0.014546011 -0.01996111 -0.017814837 -0.0041822204 0.016859999 -0.00025584624 -0.015494246
-0.0414105 0.019070232 0.010560253 0.0016007258 -0.016807891 0.021381652 -0.009766556 -0.02646512
00000000: 0e0a 4c3c 8876 df3b 97a8 323b 8419 c4bb
00000010: 87ae 8eba 1554 4b3c 4644 d43a 8b57 a6bc
00000020: 411a 51bd f760 f83b b142 053d 8f35 bebb
00000030: be82 9e3c 4e44 f6bc 302e 99bc fc73 763b
00000040: 5236 b2bb 202b 7fbb faf8 223c d8c4 fe39
00000050: 9481 4abc 1ba4 0b3d c54c 823b 04d0 e23b
00000060: cd96 76bc 8c7b d33c b217 503c 1635 bdba
00000070: 197a d4ba 8a58 783b 4929 d93b bc02 b03c
00000080: 53b2 13bd bcff 8438 4ccf db3c b7d1 ab3b
00000090: 9b9e 4a3c 07bc 753b f2c8 603d 7e27 b63c
000000a0: 7587 26bc 99ef f43c 4ee7 973b d639 01bb
000000b0: 033a a2bb 83e3 9a3b 1975 0a3c a10b f23b
000000c0: 6d41 48bb 28c8 30bc ac2d 6d3b defb b13b
000000d0: 3cba 00bd ad4f 383d 1493 3ebc 70dc efbc
000000e0: f7b8 db3b de2b afb9 6560 a73c 204b 2abd
000000f0: 2d9b 733c dcda 503c ecd2 96bc 2d69 09bc
00000100: 62c8 463c c55f 39ba 1aa4 173c 53c3 94bb
00000110: 97ef 6abd 697b bfbb e005 12bd 9024 d63a
00000120: fc76 c1ba 1b72 d0bb c501 c23c a7dd d6bc
00000130: 31bc f1bc c4ae 63bc 25e3 463c 7855 2f3c
00000140: 0434 8ebb e741 a6bc 1280 813b 2425 083d
00000150: 1717 323c 899b a33b 88f1 afbb 0c64 97bb
00000160: ef4d 19bd 1a23 f2bb df50 6e3a a14f 0b3d
00000170: 462e 8a3c 2566 063d 89ca 5c3c 5893 c8bb
00000180: caf4 053a fe32 51bc 0b1d adbc 0a19 0cbc
00000190: b214 c83a 719c 373c c517 b8bc 2cbb d2bb
000001a0: bc15 173d 27de 05bd eaf3 2d3c 2b9e babc
000001b0: 4fae afbb afe1 28bc 733e 733c d76e 03bd
000001c0: 9fcf 69bc 2ea5 333c 398f fdbb 5083 7ebb
000001d0: e7f0 86bb c803 95bc 8c53 5dba fd9c 223c
000001e0: e21d a53b e347 213c 83ab e7bb 0ed2 e03c
000001f0: 120f 17bc 4a04 ecbc 483c 62bb 6976 76bc
00000200: 6b3a 86bb ab8f 04b9 ba9c 51bc c395 f03c
00000210: 1657 0f3c 5394 ec3c f6a1 f0bb e4bf 4bbc
00000220: c537 01bb 15bb 423c d5aa b63c b2aa b4bc
00000230: d31c c0bc 2a92 6ebc 8600 eebc b72a 48bc
00000240: 8add 3e3b 6240 793c 0409 a13c a05b 423c
00000250: 94df bbbc 2f3a 91bc 69bf 4abc b398 3f3c
00000260: e605 243d 9245 c23b 6f9c c93c df5a 8ebc
00000270: 0783 f53c 13b5 9a3a 6da5 0d3c 7825 02bd
00000280: 29ad e9bc 3b92 81bc 80ce a8bb 2d29 cd3c
00000290: 5d2b 8dba 602d ae3c 502c ae3c 1800 19bc
000002a0: ca87 7a3c b5d2 6f3a ae60 f13c 3bf1 3e3b
000002b0: 667f d0bc 02df bf3a 0de1 c0bc c58e 923c
000002c0: fc29 8c3c 0d6b 9dbc 1b2d 9e3a 95eb 883c
000002d0: f46c 1dbc 0fe7 7ebb ba67 8c3c 0bed 92bc
000002e0: 31bd e83b 5698 883c 3880 14bc 76f6 e83a
000002f0: fac8 b03b 1332 07bd da87 0e3c 47db 41ba
00000300: 9224 053c 52d7 d2bb 9d01 c3bc d028 c73c
00000310: f90a 03bc a8cc 973c fbff 88bb a2f1 0aba
00000320: 0a5c 393c 74a5 aebc a46a c739 1ae3 9dbc
00000330: 8a1f bf3b 27db bf3c e776 c8bc 4f73 a7bc
00000340: 37d4 b83c 2dc3 8d3c 1d32 11bd f0ef cbbc
00000350: 1ffe 6dbc 0aae d8bc 0b6c 7cbb ee90 b83c
00000360: 7af0 973c d853 0e3b 07ed 443a 659e 213c
00000370: d613 e03c e572 bf3b 20af 36bb ac53 df3a
00000380: dea4 2abb ed6c 4bbb 0883 8a3c b61b 5739
00000390: 0667 86ba cbfc 653c 1c03 40bc f071 893b
000003a0: 041a 84bb 71c1 9c3c 34e6 82bc 89c7 ba3c
000003b0: fa1f 87bb 0f45 0f3b e779 043b 7730 aabc
000003c0: 588c bdb9 6452 6e3c 7b85 a3bc 6cf0 91bc
000003d0: 020b 89bb fb1d 8a3c 1a23 86b9 94db 7dbc
000003e0: 0e9e 29bd 2d39 9c3c e904 2d3c 72cf d13a
000003f0: b4b0 89bc 9328 af3c e803 20bc 61cd d8bc

action_model._continuous_distribution.mu.bias f4 [2]
0.0005209602 0.00097302534
00000000: 0c91 083a a012 7f3a

exp_avg f4 [128, 9]
0.00063319225 5.9096095e-05 -0.0021607669 4.0262166e-06 1.4436746e-05 -1.1011341e-05 -3.0973086e-05 -0.00024559657
6.3176936e-05 -0.00072629837 -1.6728985e-05 -0.00015631411 3.538354e-08 -2.0373207e-05 -2.4903136e-08 1.2102352e-05
-0.0007539162 -2.1212587e-05 0.00012658571 0.0009857806 -0.0017924828 -8.1209504e-07 -5.660986e-06 5.1965145e-07
-2.779512e-05 3.972555e-05 3.4851488e-05 0.001147125 -1.65231e-05 -0.00014442966 -2.8679457e-07 1.1552438e-05
-4.7304585e-08 1.9625975e-06 0.0011612708 -1.8594148e-05 0.00011419368 -1.0271947e-05 0.00012672556 -6.782141e-07
1.1205799e-05 -2.8572347e-06 8.549202e-06 7.736944e-05 -1.442645e-05 2.0569381e-05 -7.652291e-06 -3.4337463e-05
-1.6960099e-08 5.757681e-06 -3.828544e-09 1.8137296e-06 7.6349925e-06 -5.475087e-06 0.0005889594 -6.244012e-05
0.0049008 1.7423044e-07 2.702297e-05 1.2779692e-06 4.3452917e-05 0.00084187696 -6.28966e-05 4.8619422e-05
-1.4316654e-05 -5.4256572e-05 -5.5024422e-08 1.1355154e-05 -2.323247e-08 3.0493463e-06 -1.3496413e-05 -1.3544799e-05
-6.099271e-05 -3.6799513e-06 -0.000108620465 5.6339927e-06 6.1054475e-06 -1.256739e-05 -7.3233064e-06 -7.019684e-05
-4.312053e-06 0.0002451172 2.9555897e-05 0.00012474807 -1.7693488e-06 2.0842355e-05 -7.0955664e-08 -2.201596e-05
0.00022756319 2.9700055e-05 0.0010543825 -0.00040302353 -0.0006149599 -6.734648e-06 2.302833e-05 -1.0773125e-05
-2.3342362e-05 0.00092376774 -1.014777e-06 0.00055756693 -0.0009372563 0.0019495361 -4.2689076e-06 1.3623657e-05
-2.096315e-05 -4.6247194e-05 0.0010569644 2.0198102e-05 -0.00016958111 -2.4590508e-06 -2.4833013e-05 3.4133798e-08
-1.5635795e-06 -4.6845688e-08 1.3254021e-06 -0.00017667981 -4.5686575e-06 0.00014220177 -2.4326107e-05 0.00021707156
9.609411e-09 7.564565e-06 -1.6159929e-08 8.668449e-06 5.545285e-05 -1.5587651e-05 0.00036925834 2.7972494e-05
0.00010816798 9.087381e-09 -4.7868775e-06 1.3252032e-08 -1.8474171e-05 0.00044535342 1.415927e-05 -0.0024221658
-0.0019423384 0.0027133727 -8.481573e-07 -4.5549357e-05 1.5067801e-05 5.0709146e-05 -0.0016918059 -3.3194374e-05
-4.4697776e-05 8.590308e-08 0.0002146464 1.6163655e-07 -2.4820285e-05 3.2489816e-06 -1.8871404e-05 -9.961179e-05
1.0819707e-05 -3.6582165e-05 7.1657682e-06 6.69008e-06 9.461424e-09 -3.7906411e-06 5.1157167e-09 -2.1436747e-06
-2.7655554e-07 4.1768226e-06 -0.0002849176 -0.0005671187 0.00096050074 -1.3996879e-06 -7.8158666e-07 -2.0369216e-06
2.0352375e-06 -0.0001593056 -9.892009e-06 -6.731871e-05 -3.9440893e-06 -8.159621e-06 -3.8329574e-08 -2.5379798e-06
1.7707626e-07 2.3897212e-06 -7.085107e-05 -4.0905315e-06 -0.0002308962 -0.00089429546 0.0004036907 1.210878e-05
-8.9526575e-06 -1.3363695e-07 4.6988775e-05 -0.00022370345 2.411623e-06 -0.0001950461 2.6809032e-05 9.332837e-05
6.824701e-08 9.317286e-07 5.8286126e-08 -1.2149672e-05 -0.00017384999 2.7796723e-05 7.773629e-05 -5.729878e-05
0.0030127254 1.5088639e-06 -1.002346e-05 -3.1430814e-06 -1.5594354e-06 0.00018266616 -3.5624445e-05 0.0008878991
0.0008365773 -0.005425602 -1.1001842e-05 6.10483e-06 -8.432272e-06 -6.375321e-05 0.00022281309 3.7955324e-05
-0.0005542641 -5.52228e-05 -0.0030672704 -2.7161757e-06 2.1562714e-06 -2.1456019e-05 -3.7554182e-05 -0.0003416708
4.3666187e-05 0.00013341426 1.2865134e-05 -2.0051331e-05 3.8616808e-08 8.095612e-06 -2.2912236e-07 -1.0038041e-05
0.00013317059 9.022952e-06 -0.0006345459 -1.7073196e-05 0.0023328345 1.0375495e-05 2.9807403e-05 -2.5869651e-05
2.6346344e-05 0.0002572539 -1.6056392e-05 0.00096992333 0.0017078347 -0.0013556338 -6.885526e-06 -1.8848292e-05
1.315624e-05 -5.0285533e-05 0.0004963574 2.207587e-05 -0.0014233394 -0.002171884 0.007388028 1.7892267e-05
00000000: d0fc 253a f3dd 7738 a79b 0dbb f018 8736
00000010: 5a35 7237 59bd 38b7 19e9 01b8 6ac3 80b9
00000020: dc7d 8438 0f65 3eba 3955 8cb7 40e8 23b9
00000030: 9df8 1733 21e7 aab7 93ea d5b2 350b 4b37
00000040: 76a2 45ba aff1 b1b7 18bc 0439 4f35 813a
00000050: bef1 eaba bffe 59b5 80f3 bdb6 2d7e 0b35
00000060: 9129 e9b7 fc9e 2638 802d 1238 215b 963a
00000070: 169b 8ab7 0b72 17b9 bff8 99b4 58d1 4137
00000080: f12b 4bb3 2bb5 0336 c835 983a a1fa 9bb7
00000090: 447b ef38 ad55 2cb7 a2e1 0439 850e 36b5
000000a0: 8a00 3c37 ebbe 3fb6 8b6e 0f37 6741 a238
000000b0: 2209 72b7 698c ac37 5762 00b7 9205 10b8
000000c0: a7af 91b2 1a32 c136 3b8c 83b1 466f f335
000000d0: 0b18 0037 a4b6 b7b6 6564 1a3a 49f2 82b8
000000e0: e496 a03b 1914 3b34 63af e237 b086 ab35
000000f0: 3741 3638 68b1 5c3a 5be7 83b8 b5ec 4b38
00000100: 9031 70b7 8d91 63b8 fe53 6cb3 0482 3e37
00000110: be90 c7b2 5fa3 4c36 a76e 62b7 783e 63b7
00000120: 6cd2 7fb8 15f5 76b6 2bcb e3b8 a10b bd36
00000130: 65dd cc36 87d8 52b7 b9ba f5b6 a436 93b8
00000140: 41b0 90b6 1383 8039 ceee f737 cece 0239
00000150: 5d7a edb5 9ed6 ae37 4a60 98b3 eaae b8b7
00000160: 079e 6e39 6224 f937 3533 8a3a e74c d3b9
00000170: 4335 21ba 30fa e1b6 f62c c137 38be 34b7
00000180: 57cf c3b7 0129 723a 7933 88b5 af29 123a
00000190: 35b2 75ba 9487 ff3a a33d 8fb6 2991 6437
000001a0: 06da afb7 8cf9 41b8 d789 8a3a 186f a937
000001b0: 95d1 31b9 2c06 25b6 7d50 d0b7 829a 1233
000001c0: 2fdc d1b5 6133 49b3 78e4 b135 2043 39b9
000001d0: 784c 99b6 ff1b 1539 eb0f ccb7 b49d 6339
000001e0: a316 2532 1ed3 fd36 0fd0 8ab2 b46e 1137
000001f0: 0b96 6838 3ac2 82b7 0499 c139 79a6 ea37
00000200: 3ed8 e238 b91e 1c32 f79e a0b6 0eab 6332
00000210: fbf8 9ab7 537e e939 9a8d 6d37 33bd 1ebb
00000220: 1096 feba d7d2 313b edac 63b5 400c 3fb8
00000230: b6cb 7c37 88b0 5438 96bf ddba 303a 0bb8
00000240: df79 3bb8 b879 b833 b412 6139 518e 2d34
00000250: 2835 d0b7 1409 5a36 084e 9eb7 ace6 d0b8
00000260: 4a86 3537 cd6f 19b8 7b71 f036 5a7b e036
00000270: c88b 2232 b862 7eb6 52c6 af31 0ddc 0fb6
00000280: 8179 94b4 a226 8c36 fe60 95b9 b1aa 14ba
00000290: 1dca 7b3a e9dc bbb5 3ace 51b5 0cb2 08b6
000002a0: 1d95 0836 450b 27b9 dbf5 25b7 752d 8db8
000002b0: 7857 84b6 4ee5 08b7 d09f 24b3 2952 2ab6
000002c0: 5a22 3e34 195f 2036 e195 94b8 6641 89b6
000002d0: ba1c 72b9 276f 6aba 73a6 d339 d026 4b37
000002e0: 5f33 16b7 d87d 0fb4 d015 4538 f091 6ab9
000002f0: 5ed7 2136 4a85 4cb9 f5e3 e037 4ab9 c338
00000300: 318f 9233 e71b 7a35 4656 7a33 72d6 4bb7
00000310: 804b 36b9 022d e937 5a06 a338 1954 70b8
00000320: 2571 453b 2b84 ca35 6f2a 28b7 baed 52b6
00000330: cb4d d1b5 138a 3f39 756b 15b8 e6c1 683a
00000340: c14d 5b3a 40c9 b1bb 8d94 38b7 17d8 cc36
00000350: 5578 0db7 3eb3 85b8 efa2 6939 3832 1f38
00000360: 094c 11ba 089f 67b8 4204 49bb 8b47 36b6
00000370: 76b4 1036 73fc b3b7 7f83 1db8 4722 b3b9
00000380: 3626 3738 1ee5 0b39 54d7 5737 e833 a8b7
00000390: a1db 2533 64d2 0737 ad04 76b4 0f69 28b7
000003a0: b5a3 0b39 4961 1737 a857 26ba 6938 8fb7
000003b0: 78e2 183b 6912 2e37 e90a fa37 a702 d9b7
000003c0: 5802 dd37 09e0 8639 d7b0 86b7 7442 7e3a
000003d0: 6cd9 df3a 86af b1ba 380a e7b6 661c 9eb7
000003e0: 9fb9 5c37 aee9 52b8 fb1d 023a 922f b937
000003f0: 588f baba 2b56 0ebb 4517 f23b 5a17 9637

exp_avg_sq f4 [128, 9]
3.8953673e-05 3.1744392e-08 2.1257363e-05 3.40631e-10 1.064962e-08 3.9902165e-10 1.5500182e-08 3.5671666e-05
3.9377248e-08 3.671791e-06 3.7044432e-09 2.51161e-07 5.836984e-15 1.70933e-09 3.8626197e-15 1.6362924e-09
4.01974e-06 3.7193193e-09 3.0682593e-06 1.0263034e-06 0.00012442585 7.442112e-11 8.3372453e-10 8.6418366e-11
6.7959345e-09 2.1508317e-06 1.4271376e-08 1.254193e-05 1.2846304e-08 1.3973685e-06 1.7934812e-12 5.418541e-09
1.7206344e-12 5.537853e-09 1.3253349e-05 1.3005431e-08 1.8020789e-07 1.9968276e-09 3.8287317e-06 1.0465788e-12
5.9406363e-10 1.5106765e-12 7.9695495e-10 1.6341055e-07 4.0285406e-09 1.0010838e-07 7.4360146e-10 2.4595295e-07
3.416869e-16 2.895444e-10 4.0832745e-16 2.5227884e-10 1.0089402e-07 7.434822e-10 3.5586036e-06 1.9455625e-08
8.314969e-05 3.6339305e-13 6.1584657e-09 3.973638e-13 8.483511e-09 3.1087748e-06 1.9270813e-08 1.4388004e-07
1.7061093e-09 6.7573424e-08 1.333908e-15 5.4591537e-10 7.2828936e-16 6.616819e-10 1.6160136e-07 1.6861109e-09
2.5712268e-07 2.3651572e-10 3.1874126e-07 1.3136205e-11 7.039929e-11 1.7479771e-11 8.677241e-11 3.164029e-08
1.758575e-10 1.3232828e-05 1.2543869e-08 8.4136633e-07 1.2665578e-12 4.8599085e-09 6.042145e-13 5.18058e-09
1.4183419e-05 1.2683198e-08 2.568797e-05 5.058963e-07 0.00012125368 2.1593932e-10 3.7192311e-09 2.563863e-10
7.720133e-09 1.5700585e-05 1.8822279e-08 1.6967506e-05 1.1705396e-06 1.4171967e-05 1.3308665e-10 4.739132e-09
2.2098443e-10 5.8863114e-09 1.3884485e-05 1.5811361e-08 4.3520424e-07 4.7846044e-10 5.6905755e-08 7.8144244e-14
2.2558196e-10 7.281373e-14 1.855161e-10 4.350531e-07 4.8827287e-10 2.7092472e-07 1.7776854e-09 3.7485047e-06
8.8551625e-16 6.9793005e-10 9.970133e-16 9.2352187e-10 2.5242798e-07 1.7385898e-09 1.5500405e-06 3.5210328e-09
1.6876324e-07 2.2756233e-15 1.1808332e-09 2.216645e-15 1.3594933e-09 1.7115854e-06 3.432265e-09 6.636312e-05
6.6457305e-06 0.0004785165 4.1663867e-10 6.2576944e-09 4.9183146e-10 2.660564e-08 4.343787e-05 5.3853924e-08
5.528633e-07 5.45544e-09 2.1775355e-05 2.2397782e-11 1.3142554e-09 1.1143963e-11 2.0042188e-09 5.491541e-07
1.0332611e-08 8.508886e-09 1.1398733e-10 2.443314e-09 5.415337e-17 4.249701e-11 2.851645e-17 3.514093e-11
7.7826625e-09 1.0809886e-10 1.18267465e-07 1.7232512e-07 2.863257e-06 5.730452e-12 1.7688094e-10 3.9551153e-12
2.4540056e-10 8.04366e-08 6.129536e-10 9.590013e-08 3.0367683e-10 2.0710958e-08 4.0708403e-14 8.5129875e-11
4.6933227e-15 1.5659811e-10 1.12821496e-07 3.0167369e-10 3.2777843e-05 2.6584266e-06 0.00046492592 5.740828e-10
4.523148e-09 5.469909e-10 2.7612348e-08 2.3907898e-05 6.73429e-08 2.7223298e-06 4.0434873e-09 2.2563145e-07
2.2191528e-15 1.496952e-09 2.534035e-15 1.5536655e-09 2.9933171e-06 4.0577826e-09 8.6488495e-07 2.3500188e-08
5.3829037e-05 8.623991e-11 1.148357e-09 8.709277e-11 2.563139e-09 8.1770617e-07 6.276314e-09 3.5117326e-05
4.9413807e-06 0.00086244085 7.1414785e-10 4.6712345e-09 7.306924e-10 3.022721e-08 1.7962395e-05 7.745406e-08
8.970804e-06 2.851253e-06 0.0003392008 5.039818e-10 4.3913295e-09 5.334538e-10 1.2219114e-08 5.711142e-06
3.5535095e-08 6.68901e-07 8.129271e-10 3.9299036e-07 3.1242346e-12 2.8841163e-10 1.7180864e-12 3.912152e-10
5.745381e-07 2.9428262e-09 1.8601803e-06 2.0082576e-08 0.00012127916 2.4829383e-10 2.2647655e-09 2.1072274e-10
4.286089e-09 1.048447e-06 1.24879165e-08 8.473581e-06 2.0762961e-06 0.00036930395 4.1216186e-10 3.5954744e-09
3.5304795e-10 1.8975369e-08 5.1951697e-06 4.6793634e-08 6.325804e-05 1.1461564e-05 0.001211015 1.203542e-09
00000000: 3062 2338 5457 0833 d751 b237 8d43 bb2f
00000010: 86f5 3632 4e5d db2f 4325 8532 299e 1538
00000020: be1f 2933 e468 7636 4191 7e31 4ed7 8634
00000030: ad4c d227 b4ed ea30 612a 8b27 ece3 e030
00000040: 4ee1 8636 f596 7f31 4be8 4d36 84bf 8935
00000050: 4f78 0239 5ea7 a32e 262c 6530 3709 be2e
00000060: ac81 e931 0257 1036 2d2e 7532 2e6b 5237
00000070: a4b2 5c32 378d bb35 f868 fc2b fe2d ba31
00000080: 6328 f22b 7847 be31 b35a 5e37 7e6e 5f32
00000090: 2b7f 4134 9038 0931 8e78 8036 fa4a 932b
000000a0: 834b 2330 db9b d42b b810 5b30 f375 2f34
000000b0: 6b6b 8a31 2afb d633 4d66 4c30 840b 8434
000000c0: 16f8 c425 c02d 9f2f 7f62 eb25 17b1 8a2f
000000d0: 13ab d833 e95d 4c30 58d0 6e36 5f1f a732
000000e0: a660 ae38 7592 cc2a 709a d331 29b2 df2a
000000f0: e0be 1132 58a0 5036 f788 a532 727d 1a34
00000100: 627c ea30 e21c 9133 853c c026 610f 1630
00000110: 45ea 5126 b9e1 3530 a584 2d34 c1bc e730
00000120: ac0a 8a34 a106 822f 771f ab34 3518 672d
00000130: 47cf 9a2e f2c0 992d 86d0 be2e dee4 0733
00000140: 7c5b 412f 9002 5e37 8580 5732 41da 6135
00000150: 8e40 b22b 35fc a631 3e12 2a2b dd00 b231
00000160: 52f5 6d37 4be5 5932 7f7c d737 eecc 0735
00000170: 9349 fe38 846d 6d2f 6895 7f31 2af3 8c2f
00000180: 81a1 0432 c0b4 8337 a1ae a132 7155 8e37
00000190: 6f1b 9d35 23c4 6d37 9054 122f d9d5 a231
000001a0: 96f9 722f 8b40 ca31 69f1 6837 8dd1 8732
000001b0: 04a6 e934 a984 0330 8a68 7433 17f7 af29
000001c0: ad07 782f 42f6 a329 24fa 4b2f 3e91 e934
000001d0: 2637 0630 9c73 9134 bf52 f430 d28e 7b36
000001e0: 913b 7f26 76d8 3f30 4caf 8f26 13db 7d30
000001f0: 7085 8734 31f3 ee30 fc0a d035 aaf6 7131
00000200: 4935 3534 d7f9 2327 e04a a230 e2b9 1f27
00000210: ebd8 ba30 a0b9 e535 0bdd 6b31 6e2c 8b38
00000220: 64fe de36 66e1 fa39 ae0c e52f 4303 d731
00000230: 9031 0730 6c8a e432 0f31 3638 044d 6733
00000240: 7a68 1435 8f72 bb31 38aa b637 5203 c52d
00000250: 40a1 b430 f30b 442d 97ba 0931 9569 1335
00000260: 4e83 3132 7a2e 1232 2aa9 fa2e 3ce7 2731
00000270: 04bd 7924 61e7 3a2e 4882 0324 2b8d 1a2e
00000280: 83b4 0532 40b6 ed2e 3afa fd33 5e08 3934
00000290: 6126 4036 539f c92c 8f7b 422f 8328 8b2c
000002a0: 0fe9 862f 7dbc ac33 c67c 2830 a7f1 cd33
000002b0: b7f2 a62f e1e7 b132 9855 3729 dc33 bb2e
000002c0: 4318 a927 732e 2c2f 4648 f233 ccd8 a52f
000002d0: f17a 0938 6c67 3236 4dc1 f339 7ccd 1d30
000002e0: 086a 9b31 105b 1630 3230 ed32 d28d c837
000002f0: 279e 9033 45b1 3636 e4ee 8a31 1a45 7234
00000300: 25e8 1f27 51bd cd30 b298 3627 bf88 d530
00000310: cce0 4836 a26c 8b31 712a 6835 76dd c932
00000320: 7dc6 6138 c1a4 bd2e 38d4 9d30 df84 bf2e
00000330: 3823 3031 5780 5b35 0ba7 d731 f14a 1338
00000340: 23ce a536 6d15 623a b04d 4430 9d80 a031
00000350: e8d9 4830 2bd3 0133 f3ad 9637 d254 a633
00000360: 4f81 1637 2758 3f36 c3d6 b139 9188 0a30
00000370: 8be2 9631 79a2 1230 3bec 5132 56a2 bf36
00000380: 409f 1833 878e 3335 a974 5f30 2ffc d234
00000390: 35d9 5b2c 548e 9e2f 96cc f12b a512 d72f
000003a0: f539 1a35 bf3a 4a31 4fab f935 0d82 ac32
000003b0: 4157 fe38 4080 882f 2da2 1b31 2eb1 672f
000003c0: d644 9331 5db8 8c35 708a 5632 c129 0e37
000003d0: 7f56 0b36 239f c139 a096 e22f 4114 7731
000003e0: 1517 c22f 47ff a232 2b52 ae36 25fa 4833
000003f0: 67a9 8438 0b4b 4037 ecba 9e3a df69 a530

exp_avg f4 [128]
-6.200496e-05 1.5575963e-05 -3.450129e-05 1.3606396e-05 1.3698671e-05 7.093262e-06 5.6924455e-05 1.3275687e-05
2.4635235e-06 -2.7703063e-05 -1.4063677e-05 -1.0651802e-05 2.3933358e-06 2.2546335e-05 -2.5920519e-05 5.222018e-05
-1.2093139e-05 -6.640932e-06 5.8907654e-06 3.638382e-06 -6.0934017e-06 -2.475243e-05 3.8715207e-05 -5.9879112e-05
-6.360051e-05 -1.0545272e-05 2.5167363e-05 -1.7533794e-05 8.362562e-05 4.371177e-05 1.8108547e-05 1.5159632e-05
-6.870643e-06 -2.6793648e-05 2.5415067e-05 -2.3194034e-05 8.6883465e-06 4.3651016e-05 -2.6389442e-05 7.125824e-05
-4.456054e-07 -1.8293684e-05 -9.369778e-06 6.1196864e-05 1.4155393e-05 -1.5073715e-05 -1.6634081e-05 8.241657e-05
-7.931725e-05 -1.7299928e-05 -5.8508638e-05 1.2661881e-06 8.762371e-06 6.773936e-05 3.425719e-05 4.6175122e-05
-1.6297774e-06 -1.1736812e-05 1.2476978e-05 6.901413e-05 1.3012092e-05 2.752709e-05 6.740456e-05 -9.6830045e-06
-2.0690431e-05 3.1603658e-06 8.552592e-06 5.56273e-07 1.5237166e-05 5.174955e-05 4.5770316e-06 -2.1274547e-05
-3.829899e-06 -3.6230434e-05 -4.789538e-06 -1.7983899e-05 2.336198e-05 2.48841e-05 -1.2512759e-05 2.2772351e-06
5.268852e-06 -8.7987144e-07 -3.761227e-05 1.6993317e-05 2.0347281e-05 -4.2365173e-06 -1.1413983e-05 -8.635687e-06
1.5831818e-05 -5.4553922e-05 -4.7008958e-05 9.080891e-05 8.1838705e-05 1.0694576e-05 -3.9576258e-05 5.0892824e-05
9.252453e-05 -3.963538e-05 -1.1238167e-05 4.3303367e-05 1.6035741e-05 -6.3970115e-06 5.4328066e-05 4.303286e-05
9.4684214e-07 -1.6771466e-05 -1.8247272e-05 -3.4607427e-05 2.0121724e-05 2.1939764e-05 6.15402e-06 1.8868081e-06
3.539767e-05 3.091014e-05 -1.15819985e-05 -1.7113029e-05 2.7176324e-05 8.197384e-06 1.7587112e-05 1.5335556e-05
1.297959e-06 -2.3691161e-06 9.097862e-06 1.2102483e-05 9.065054e-06 -2.1411558e-06 6.403558e-05 -6.706038e-06
00000000: a908 82b8 20a9 8237 7ab5 10b8 0747 6437
00000010: 58d3 6537 a802 ee36 2bc2 6e38 a4ba 5e37
00000020: 0353 2536 e063 e8b7 08f3 6bb7 24b5 32b7
00000030: 329d 2036 e321 bd37 e46f d9b7 fe06 5b38
00000040: a3e3 4ab7 2cd5 deb6 4aa9 c536 ed2a 7436
00000050: ec75 ccb6 70a3 cfb7 2362 2238 b526 7bb8
00000060: 4461 85b8 99eb 30b7 801e d337 8915 93b7
00000070: 2a60 af38 2857 3738 cfe7 9737 2056 7e37
00000080: 608a e6b6 ecc2 e0b7 7132 d537 cf90 c2b7
00000090: 2ac4 1137 ec15 3738 e55e ddb7 7a70 9538
000000a0: 8a3b efb4 6375 99b7 e432 1db7 d156 8038
000000b0: f37c 6d37 1de5 7cb7 6b89 8bb7 0fd7 ac38
000000c0: 2057 a6b8 501f 91b7 2c67 75b8 e4f1 a935
000000d0: 1902 1337 4b0f 8e38 61af 0f38 29ac 4138
000000e0: babe dab5 39e9 44b7 3654 5137 aebb 9038
000000f0: 824e 5a37 fae9 e637 8c5b 8d38 3074 22b7
00000100: 5d90 adb7 ac16 5436 1a7d 0f37 ca52 1535
00000110: 21a3 7f37 a80d 5938 6794 9936 be76 b2b7
00000120: 9582 80b6 22f6 17b8 d1b5 a0b6 21dc 96b7
00000130: 78f9 c337 33be d037 e4ed 51b7 9ad2 1836
00000140: 18cb b036 4e30 6cb5 dec1 1db8 df8c 8e37
00000150: 74af aa37 6827 8eb6 af7e 3fb7 fee1 10b7
00000160: 92ce 8437 d4d0 64b8 7c2b 45b8 aa70 be38
00000170: d2a0 ab38 db6c 3337 affe 25b8 c175 5538
00000180: bb09 c238 2a3e 26b8 8f8b 3cb7 a3a0 3538
00000190: 7e84 8637 e9a5 d6b6 51de 6338 2e7e 3438
000001a0: 7f2a 7e35 73b0 8cb7 b811 99b7 7127 11b8
000001b0: 13cb a837 490b b837 a17e ce36 3c3e fd35
000001c0: f577 1438 83a5 0138 4e50 42b7 f38d 8fb7
000001d0: b6f8 e337 7f87 0937 0988 9337 dba4 8037
000001e0: 8835 ae35 1bfd 1eb6 05a3 1837 c50b 4b37
000001f0: 1c16 1837 c7b0 0fb6 d74a 8638 6e04 e1b6

exp_avg_sq f4 [128]
2.8668582e-08 3.1841734e-09 1.2191087e-08 1.1135867e-08 1.6866281e-09 6.378217e-10 1.6683462e-08 1.4640464e-09
2.0789441e-10 1.090188e-08 2.02346e-08 1.27728566e-08 4.2248255e-10 1.5244528e-09 3.02331e-09 5.5284616e-08
4.476612e-09 9.780143e-11 5.359426e-10 2.5928878e-10 5.0594743e-08 3.4703012e-09 5.374773e-09 7.84899e-08
2.987538e-08 7.1663714e-10 1.3858072e-08 3.7061174e-08 1.0807876e-07 8.4119165e-08 2.166294e-08 2.5824465e-09
1.7727714e-09 3.556951e-09 8.62565e-09 1.8237719e-08 3.2191008e-09 3.8193914e-08 1.3149034e-08 1.0631469e-08
5.076641e-10 3.1382443e-09 1.8004593e-09 2.9085689e-08 7.4364594e-09 2.0458764e-09 1.2751525e-08 9.4022965e-08
1.8263725e-07 1.9928555e-08 5.5694738e-08 2.1908717e-10 5.848722e-10 3.0449993e-08 1.1119196e-08 9.731812e-09
2.5103336e-10 1.3430236e-08 2.4066569e-09 7.515728e-08 1.1506224e-09 1.1432171e-08 8.726326e-08 3.3174226e-09
8.360993e-09 7.831541e-09 4.535601e-09 2.0638142e-09 3.1923765e-08 1.2442452e-07 1.837765e-09 7.352969e-09
9.2772684e-10 8.751921e-09 2.2340734e-08 4.2022386e-08 2.857624e-09 4.0074353e-09 2.5222386e-08 3.8416426e-09
6.864273e-08 1.052108e-08 8.630528e-08 5.139165e-08 1.4259487e-09 1.1346161e-09 3.4514012e-09 9.865812e-09
2.3377725e-08 1.6121058e-08 4.1498865e-08 2.0052904e-07 1.058563e-07 3.2718216e-08 1.7254692e-08 1.216317e-08
2.7256531e-08 4.195121e-08 2.659252e-08 7.2956365e-09 1.6124782e-09 3.3468364e-08 9.975659e-09 3.7273082e-09
3.6508876e-08 2.7596561e-08 8.977311e-10 4.9852864e-09 9.60321e-09 4.799939e-09 1.7019829e-08 3.9743675e-08
4.71769e-09 1.1924493e-08 2.4261095e-09 1.6652009e-09 1.5353848e-07 5.800925e-09 3.1823795e-08 2.623336e-08
2.0741742e-09 2.49625e-10 7.3577224e-09 5.435411e-10 5.726132e-10 3.9986792e-10 1.7338458e-08 7.169948e-10
00000000: e142 f632 92d0 5a31 f870 5132 1050 3f32
00000010: f3ce e730 b652 2f30 524f 8f32 8e37 c930
00000020: 1395 642f fa4a 3b32 5bd0 ad32 9e6f 5b32
00000030: 2243 e82f ea84 d130 a2c2 4f31 1472 6d33
00000040: b2d0 9931 4f11 d72e 9c51 1330 a78b 8e2f
00000050: 824d 5933 2f7a 6e31 01ad b831 478e a833
00000060: 5450 0033 dbfc 4430 7214 6e32 312d 1f33
00000070: ed18 e833 00a5 b433 4f15 ba32 e176 3131
00000080: d9a5 f330 8b6e 7431 0330 1432 2ba9 9c32
00000090: 0537 5d31 a70a 2433 10e6 6132 b2a5 3632
000000a0: af8b 0b30 94a8 5731 0874 f730 1bd8 f932
000000b0: ca83 ff31 7097 0c31 cd11 5b32 ace9 c933
000000c0: f21a 4434 5b2f ab32 0335 6f33 8ee3 702f
000000d0: b9c4 2030 1fc8 0233 be06 3f32 f630 2732
000000e0: ce01 8a2f cdba 6632 5b62 2531 2766 a133
000000f0: ed23 9e30 3867 4432 7c65 bb33 b7f8 6331
00000100: 09a4 0f32 7b8b 0632 91d7 9b31 01d3 0d31
00000110: 8d1c 0933 8d99 0534 9c94 fc30 66a5 fc31
00000120: f902 7f30 5b5b 1632 cbe7 bf32 1a7c 3433
00000130: da5f 4431 c6b1 8931 9da8 d832 72ff 8331
00000140: bd68 9333 33c0 3432 d456 b933 b7b9 5c33
00000150: 1cfb c330 c1f0 9b30 b12d 6d31 4d7e 2932
00000160: 29d0 c832 957a 8a32 7c3c 3233 0151 5734
00000170: 1e53 e333 0f86 0c33 7837 9432 30f6 5032
00000180: bf21 ea32 d82d 3433 926d e432 19ad fa31
00000190: 089e dd30 dbbe 0f33 6a61 2b32 c011 8031
000001a0: efcd 1c33 7b0d ed32 36c4 7630 0b4b ab31
000001b0: 5dfb 2432 b6ec a431 0033 9232 a2b2 2a33
000001c0: 3d19 a231 7adc 4c32 92b8 2631 0cdd e430
000001d0: 56dc 2434 7a51 c731 a2ae 0833 c557 e132
000001e0: 4289 0e31 983b 892f 36cf fc31 4e68 1530
000001f0: 1266 1d30 68d4 db2f acef 9432 0616 4530
