results/ppo/My Behavior/My Behavior-10.pt (torch, 161871 bytes, 12 tensors)

network_body.linear_encoder.seq_layers.0.weight f4 [128, 18]
00000000: 5282 a0be 50c7 8dbd 8f3c 9ebd 055a 613e
00000010: 88b1 53be cdba 833e 5006 2d3e 07a0 d7be
00000020: b457 a9bb 6229 9c3e 0ee6 033e f3a6 efbe
00000030: cdfb 22be 3445 44bc 3b0b d73e 4d2a 14bf
00000040: f02c ee3d 8303 9d3e a8e1 1c3b b31a 7a3c
00000050: 8ea6 cd3e 653b 58be c24a 81bd 3df9 6a3e
00000060: 8d46 15be 8210 3ebd e0da b6be 65e1 16be
00000070: 39e5 983e 03b3 36bd 9641 323c 12ee 4fbe
00000080: ea71 70be 80cf 2dbd a9b5 fe3d 9e43 773e
00000090: 93e2 0dbf be01 3b3e 2a17 d5bd adc7 24be
000000a0: f565 b0bd 8327 463e 7396 b83e ee12 febd
000000b0: 8f65 9bbe 84ce 813e 7590 563e adf0 57be
000000c0: 4253 60be bc93 13be d754 ffbe 35a4 cbbc
000000d0: e48e 5cbd 7430 593d a14d 533e 1f47 b23c
000000e0: 533f 243e 40df ab3d db67 2a3e d5cf 0abe
000000f0: bb48 2c3d 1fc8 a9be 5a6a 3d3e 7941 1d3e
00000100: c852 483e 8856 a3bd 13fb f0be 15b5 da3e
00000110: 2939 44be e774 d33d 6f03 16bf 5520 0b3e
00000120: 3099 ab3e 440a b33e 2f56 cf3c 26a0 cf3d
00000130: 67ca d7be bd9f 733e d293 c3be 193a d9bd
00000140: 9c8e 2bbe 4e4f a4bd b483 8f3e 25f5 25bc
00000150: 7cc8 01be 401c 89be 223a 88bc 73fc d1be
00000160: fb28 f23a 0203 8c3e 0c87 513f c336 b43d
00000170: 3e9a 963e 78a4 a73e 40c8 ac3e 0def 87be
00000180: 58c6 263e 81bd 0dbc 5857 91be 1391 9fbe
00000190: f5f4 18be 65ba babd 5979 7abe c6de 8a3d
000001a0: 9163 f23d c4cf bcbc 71ac a03e 7925 bdbd
000001b0: 5157 163d 212d 423e 8810 873e 0503 24be
000001c0: eeb0 9ebc 231c 913d 3a4b 103e dd2c a6be
000001d0: e348 24be 66c6 f53e 93e4 59be 86ae d1bd
000001e0: ec26 5e3e 034a af3c 0351 7d3d ee4d aa3e
000001f0: 78d1 94bd 2ab9 1ebd c453 f43e 91e6 5f3d
00000200: 16a7 eb3d b31f cabe 5367 a43e 7705 2abf
00000210: 872a eebd 071e 50be c407 fc3c 63fe 873d
00000220: e91b a0bd 81ea c9bd 4045 b3bd 7f08 3dbd
00000230: 3d7c 713c b807 bcbd f9dc b03e bd25 163e
00000240: 53ec 78be 41de 043e 84a7 e63e 65dd 393e
00000250: 7c02 48be 5226 863e b84a 51be c274 f23c
00000260: 15b7 d43d 8e78 423d 6a01 c63e b9c3 7fbe
00000270: e2a2 cb3d 7878 963e 91f4 be3c 40dd b5bd
00000280: ad8b 0a3e a974 71be 2fef 723e 12df eb3d
00000290: 8a00 40be 5a1e 4dbe 568f ab3e 02dc 563e
000002a0: 1196 a0bd 6639 f6bc 9b23 c3be 8351 c33c
000002b0: bd3d b23e 5fb6 9cbe 996c 3dbe 448a d5bd
000002c0: 424c 3f3e 9269 2c3f a54f dbbd bd26 453e
000002d0: 7ef8 bd3d d4a4 863c a034 85be 1361 58be
000002e0: 530b 3b3b d644 8f3e e64b 3d3e be37 2cbe
000002f0: 5ae2 b53d 1145 be3e 7252 31be ac9a 52be
00000300: 2996 a8be 0c27 b83d c6ad 253c c111 383e
00000310: b884 683d 1ba3 09bf 6627 4fbe 5577 1abe
00000320: 0b5b 3fbe cf51 db3e dbd7 b53d 7fa2 89be
00000330: c3d6 913e 147a 0f3d 0123 88be d126 febd
00000340: d180 1ebe a588 b53c a42d b33d 7fd9 74be
00000350: e70f 2cbe e660 a3be 67c9 db3e f8f1 72be
00000360: 57e5 563d 302a d13d 3522 10be c525 fa3e
00000370: 18f1 7dbe 16e1 bebd 9de3 f63e 8075 993c
00000380: 6b8a 5bbe 20bf bbbb 74ce 463e 540f 18bd
00000390: d5fe 51be 5d7f 40ba 245d 1d3e 9eeb adbe
000003a0: 92df 3e3d e59e c4be 41ce 31be 3167 09bd
000003b0: abbf 7dbd fcfc 053e d8a8 15be 8905 8e3e
000003c0: e632 153d 4b82 d9be 9cc2 65be 8d56 4abb
000003d0: d4e0 113e 914a 163d 4b18 acbe 70d6 a73e
000003e0: 1a88 703e 0f01 72be f405 043e 26ff 1d3f
000003f0: 85e2 073f 2107 be3d 616f 003e 5eea ce3e
-0.31349427 -0.069227815 -0.077263944 0.22006996 -0.20673192 0.25728455 0.1689694 -0.4211428
-0.0051679257 0.30500323 0.12880728 -0.4680706 -0.15916367 -0.01197939 0.42000756 -0.57877046
0.11629665 0.30666742 0.0023938213 0.015265155 0.40166134 -0.21116407 -0.06313087 0.2294664
-0.14577694 -0.04640246 -0.35713863 -0.14734419 0.29862383 -0.044604313 0.010879895 -0.2030566
-0.23480955 -0.042434216 0.12436993 0.24146888 -0.5542385 0.18262383 -0.10404809 -0.16091795
-0.08613197 0.1935101 0.36052284 -0.12405954 -0.3035092 0.2535287 0.20953543 -0.21087904
-0.2190676 -0.14411825 -0.49869415 -0.024858573 -0.05384721 0.053024724 0.20635082 0.021762429
0.16039781 0.08392191 0.1664118 -0.13555844 0.04206155 -0.33160493 0.18497601 0.15357007
0.19562829 -0.07975489 -0.47066554 0.4271628 -0.1916243 0.10325032 -0.5859899 0.13586552
0.3351531 0.3496877 0.02530965 0.10137968 -0.42146608 0.23791404 -0.38198715 -0.106067844
-0.1675362 -0.08022939 0.2803017 -0.010129248 -0.12674135 -0.26779366 -0.016629282 -0.41012916
0.0018475348 0.27346045 0.8184669 0.087995075 0.29414552 0.32742667 0.3374653 -0.2654957
0.162866 -0.008651138 -0.2838695 -0.3116537 -0.14937194 -0.09117583 -0.24460353 0.06780772
0.11835397 -0.02304829 0.31381562 -0.09235663 0.036704365 0.18962528 0.263798 -0.16016777
-0.019371476 0.07085445 0.14091197 -0.32456103 -0.16043429 0.48002928 -0.212786 -0.10238366
0.21694535 0.021397596 0.061844837 0.3326258 -0.072665155 -0.038750805 0.47720158 0.054663245
0.115064785 -0.3947731 0.3211008 -0.6641459 -0.11629205 -0.20323955 0.030765422 0.06640317
-0.078178234 -0.09859181 -0.08753443 -0.04615068 0.014739093 -0.0918116 0.3454359 0.14662834
-0.243089 0.12975408 0.4504968 0.18150862 -0.19532198 0.2620111 -0.20438659 0.02959669
0.103864826 0.04747825 0.38672954 -0.24977006 0.09943177 0.29388785 0.023309978 -0.08880091
0.13529845 -0.23579659 0.23724054 0.11517157 -0.18750206 -0.2003111 0.33507794 0.20982364
-0.07841123 -0.030056667 -0.38113102 0.023842579 0.34812728 -0.30607888 -0.18498458 -0.10426763
0.18681434 0.6734859 -0.1070855 0.19253059 0.09275912 0.016436018 -0.26016712 -0.21130781
0.0028540685 0.27982205 0.18485984 -0.16818139 0.08881064 0.37162068 -0.17316607 -0.20566815
-0.32927063 0.089918226 0.010112232 0.17975523 0.056767195 -0.53764504 -0.20229873 -0.15084584
-0.18687074 0.42835853 0.08879062 -0.26881787 0.28484163 0.035028532 -0.26589206 -0.124097474
-0.15478827 0.022159884 0.0874894 -0.23911093 -0.16802941 -0.31909865 0.42927095 -0.23725116
0.05246481 0.10213125 -0.14075549 0.4885694 -0.24799001 -0.093202755 0.4822053 0.018732786
-0.21439521 -0.005729571 0.19414693 -0.037123993 -0.20507367 -0.00073431974 0.15367562 -0.33968824
0.046599932 -0.38402477 -0.17363836 -0.033545677 -0.061950367 0.13084787 -0.1461519 0.27738598
0.036425494 -0.42482218 -0.22437519 -0.0030874342 0.14245921 0.036692206 -0.33612284 0.3278079
0.23489419 -0.23633216 0.12892896 0.6171745 0.53080016 0.092787035 0.12542488 0.40413183

network_body.linear_encoder.seq_layers.0.bias f4 [128]
00000000: 0000 0000 0000 0000 0000 0000 0000 0000
00000010: 0000 0000 0000 0000 0000 0000 0000 0000
00000020: 0000 0000 0000 0000 0000 0000 0000 0000
00000030: 0000 0000 0000 0000 0000 0000 0000 0000
00000040: 0000 0000 0000 0000 0000 0000 0000 0000
00000050: 0000 0000 0000 0000 0000 0000 0000 0000
00000060: 0000 0000 0000 0000 0000 0000 0000 0000
00000070: 0000 0000 0000 0000 0000 0000 0000 0000
00000080: 0000 0000 0000 0000 0000 0000 0000 0000
00000090: 0000 0000 0000 0000 0000 0000 0000 0000
000000a0: 0000 0000 0000 0000 0000 0000 0000 0000
000000b0: 0000 0000 0000 0000 0000 0000 0000 0000
000000c0: 0000 0000 0000 0000 0000 0000 0000 0000
000000d0: 0000 0000 0000 0000 0000 0000 0000 0000
000000e0: 0000 0000 0000 0000 0000 0000 0000 0000
000000f0: 0000 0000 0000 0000 0000 0000 0000 0000
00000100: 0000 0000 0000 0000 0000 0000 0000 0000
00000110: 0000 0000 0000 0000 0000 0000 0000 0000
00000120: 0000 0000 0000 0000 0000 0000 0000 0000
00000130: 0000 0000 0000 0000 0000 0000 0000 0000
00000140: 0000 0000 0000 0000 0000 0000 0000 0000
00000150: 0000 0000 0000 0000 0000 0000 0000 0000
00000160: 0000 0000 0000 0000 0000 0000 0000 0000
00000170: 0000 0000 0000 0000 0000 0000 0000 0000
00000180: 0000 0000 0000 0000 0000 0000 0000 0000
00000190: 0000 0000 0000 0000 0000 0000 0000 0000
000001a0: 0000 0000 0000 0000 0000 0000 0000 0000
000001b0: 0000 0000 0000 0000 0000 0000 0000 0000
000001c0: 0000 0000 0000 0000 0000 0000 0000 0000
000001d0: 0000 0000 0000 0000 0000 0000 0000 0000
000001e0: 0000 0000 0000 0000 0000 0000 0000 0000
000001f0: 0000 0000 0000 0000 0000 0000 0000 0000
0.0 0.0 0.0 0.0 0.0 0.0 0.0 0.0
0.0 0.0 0.0 0.0 0.0 0.0 0.0 0.0
0.0 0.0 0.0 0.0 0.0 0.0 0.0 0.0
0.0 0.0 0.0 0.0 0.0 0.0 0.0 0.0
0.0 0.0 0.0 0.0 0.0 0.0 0.0 0.0
0.0 0.0 0.0 0.0 0.0 0.0 0.0 0.0
0.0 0.0 0.0 0.0 0.0 0.0 0.0 0.0
0.0 0.0 0.0 0.0 0.0 0.0 0.0 0.0
0.0 0.0 0.0 0.0 0.0 0.0 0.0 0.0
0.0 0.0 0.0 0.0 0.0 0.0 0.0 0.0
0.0 0.0 0.0 0.0 0.0 0.0 0.0 0.0
0.0 0.0 0.0 0.0 0.0 0.0 0.0 0.0
0.0 0.0 0.0 0.0 0.0 0.0 0.0 0.0
0.0 0.0 0.0 0.0 0.0 0.0 0.0 0.0
0.0 0.0 0.0 0.0 0.0 0.0 0.0 0.0
0.0 0.0 0.0 0.0 0.0 0.0 0.0 0.0

network_body.linear_encoder.seq_layers.2.weight f4 [128, 128]
00000000: cf59 943d d7f4 2c3e 3cec cdbd 3fee d43d
00000010: 00f7 1ebb bc54 0d3e 7a6a 403e 7a7b 033d
00000020: 136a 28bd 9323 7cbc d409 36bd 9c4c 893d
00000030: 7bed 093e e7e2 c0bd 459d 1a39 0f9d ae3d
00000040: 4c2c b5bd 7f0e 1abe 9440 893c b102 ab3d
00000050: c2f9 dd3c 6790 c1bd 1769 ebbd af75 fabc
00000060: 8e20 2dbd a0d5 d1bc 81ce dd3d 8ad4 603c
00000070: 891e 28bd 62f9 193d 493b 063e 2b97 593d
00000080: 8190 813d efd6 bcbc 92c1 0c3e 9011 cc3d
00000090: f1b4 aabd 230e 293d c745 733d edec 343e
000000a0: 9fce 39bc f299 01bb b378 2ebc f532 ab3c
000000b0: 14c4 cbbd 22b3 503e 2d98 f1bd c1f6 653e
000000c0: b849 13be 02e9 b53d bfb1 1b3d 1f33 1bbc
000000d0: 882f 15be 0c4f ca3d beb9 133d d77b 68bd
000000e0: 80cf bc3d 1760 f8bd f6ce 17bd 18e7 933d
000000f0: 63d1 09bd 918b b03c df4c 29bd 60ec b0bd
00000100: 1661 393d cc9a 05bd 8f10 1e3c 274e b23d
00000110: b800 8fbd 9aef 153d abe6 02bd f492 883d
00000120: 1db0 103e 30f5 c9bd 3073 c03c fa61 f2bd
00000130: 90df 773c d93a 933d 6308 d4bc 8c6e 10bd
00000140: f9b5 1dbe b3a7 6c3c 0990 3f3d 8b32 b3bc
00000150: ad6a 4dbd fd82 2a3e 3600 1ebc 9062 efbd
00000160: ed17 cdbd 4c49 ccbd eed3 07be b4f7 29bc
00000170: 37bc 2abe 5e2f 1a3d a116 83bd 449e 2b3d
00000180: 5f2f df3c 01c3 0dbd bff8 cc3a a320 433c
00000190: 9b20 a1ba 436a 303d 24a2 68bc 52ae 54bc
000001a0: b81b a5bd c1e8 853d 871e 153e 8644 a93c
000001b0: f983 9a3d 883f 1f3e 2cf0 f4bd d2d9 d93d
000001c0: 57f7 903d 4dd4 163e 35d4 353e a13d 6f3c
000001d0: 8e0b 2bbd fd2c 193d bed0 a3bc 4707 443d
000001e0: f701 c8bd 3462 013d 1029 f33c 4c3d a8bd
000001f0: 6cbc 473d 8108 d2bd 9a61 c03d 049d a5bd
00000200: 3c51 50bd cfb0 9b3d 86d4 21be 9d7b 98bd
00000210: 3571 8a3c ca56 c4bc e728 2e3b f52b 1d3d
00000220: ea1b 51be 13b1 cd3d c283 cb3c 0689 d73d
00000230: 4ae2 49bd 89e4 eb3d 032d 223d a01b 03be
00000240: d47d 30bd 44a2 4fba 0209 bdbd d5ad d03c
00000250: 3a21 81be 56c5 003e a2ce 6e3a 57f9 813d
00000260: 8f69 f43d bf48 f8bd ed0b 4c3d 6af5 5d3d
00000270: 2a94 8ebc 9658 23be ff2e 4bbb de21 2cbe
00000280: 8d39 183e 0f5a adbd 5bbe 80bd ab60 87bd
00000290: e9c4 a7bd 5e1b b9bc 3b80 543d 09af 70bd
000002a0: c0eb 653d 8438 243d 59aa bdbd 9227 babd
000002b0: 1f0f d33d edaf a93c 7d9b bb3d f143 043e
000002c0: ba73 02bd 29a2 02be c68a 983c 51d8 343e
000002d0: ed10 f03c 126c 20be 0816 b5bc 84f8 0abd
000002e0: 5250 933d 3408 12bd d08e 18bd fc25 8eba
000002f0: 8fa1 0fbb 2208 503d 7b96 613d cc33 63be
00000300: 57b9 49bd 8280 d33d de06 853c 362e fbbd
00000310: 1832 823c f610 6b3d a662 7d3c ebe4 d6bd
00000320: 36f9 49be 1d7d 45b9 20fa 543d aaea 9ebb
00000330: af91 be3d 755b 48bd 7d7f 003c e818 5b3d
00000340: 6499 8dbc af71 debd 020a eb3d 012b 283d
00000350: fc96 ae3d 3723 1a3d 5ed5 09bd 26d7 74bd
00000360: b6b8 0dbe df15 3fbd 37a7 a1bd 7510 a33d
00000370: 74fe 3bbd 118f 8d3d b103 4abe fcd0 bb3d
00000380: 560a f8bd 2bfa 3a3d 5c53 6b3d 021d 943b
00000390: 573c 6dbd ee21 c93d 8b77 283d 4687 e0bd
000003a0: 4326 29bd b93e 7abd eaad a4bd 6cc6 113d
000003b0: cfd8 d93d 6bed e13d b4a3 b23d 5eff b23d
000003c0: 56a8 e0ba eea2 633d f0be 223e ee17 5c3e
000003d0: b567 fa3d 8e91 923d 906f af3c 6fca 13be
000003e0: 0362 a2bc e078 c23c 6b7e 17bc c8ad a53d
000003f0: 9629 1abc ac98 9abd 4912 513c 9802 92bd
0.07243692 0.16890274 -0.10054824 0.10397004 -0.002425611 0.13801855 0.18790618 0.03210018
-0.041116785 -0.015389341 -0.044442967 0.06704065 0.13469498 -0.09418278 0.00014745172 0.0852605
-0.088463396 -0.15044592 0.016754426 0.08350123 0.027096633 -0.09451371 -0.11494654 -0.030573694
-0.042267375 -0.02561456 0.10830403 0.013722548 -0.041044746 0.037591346 0.13108553 0.05312268
0.0632639 -0.023051707 0.13745716 0.09964287 -0.08335293 0.041273247 0.059392717 0.17668505
-0.011340766 -0.0019775596 -0.010648894 0.020898322 -0.09949508 0.20380834 -0.11796603 0.2245741
-0.1438359 0.08882333 0.03801131 -0.009472637 -0.14568913 0.09878358 0.03606581 -0.056758728
0.09219265 -0.12127703 -0.037062608 0.07221812 -0.033646952 0.021550925 -0.041333076 -0.08638835
0.045258604 -0.03261833 0.009647503 0.087063126 -0.06982559 0.036605455 -0.031958263 0.06668654
0.14129682 -0.09861219 0.023492426 -0.11835094 0.015128985 0.07188959 -0.025882905 -0.035261676
-0.15401448 0.0144442795 0.046768222 -0.021874687 -0.050150562 0.1665153 -0.009643605 -0.11688721
-0.10014329 -0.09974918 -0.13264439 -0.010373998 -0.16673361 0.03764283 -0.064008005 0.04189898
0.027244268 -0.0346098 0.0015638097 0.011909637 -0.0012293042 0.04307009 -0.014198814 -0.012981014
-0.080619276 0.06538535 0.14562427 0.020662557 0.07544703 0.15551579 -0.11959872 0.10637249
0.07078426 0.14729424 0.17756732 0.014602096 -0.041759066 0.03739642 -0.019996997 0.047858503
-0.09766 0.031587794 0.029682666 -0.082148165 0.048763677 -0.10255528 0.09393616 -0.08086589
-0.05085872 0.07602083 -0.15803728 -0.07445452 0.016899684 -0.023967165 0.0026574673 0.038372
-0.20420805 0.1004354 0.0248431 0.10524182 -0.04928807 0.11518199 0.039593708 -0.12803507
-0.04308875 -0.0007920603 -0.09230234 0.025473515 -0.25220662 0.12575278 0.000910977 0.06346386
0.11934196 -0.1212325 0.04981606 0.054189123 -0.017404635 -0.15951762 -0.0031003354 -0.16809794
0.14865704 -0.08464443 -0.062863074 -0.06610235 -0.081918545 -0.022596058 0.051880103 -0.058760677
0.05613303 0.04009296 -0.09261007 -0.09089579 0.103056185 0.02071377 0.091605164 0.12916543
-0.031848647 -0.12757172 0.01862086 0.17660643 0.029304946 -0.15666226 -0.022105232 -0.03392841
0.07193054 -0.035652354 -0.03724557 -0.001084506 -0.0021916365 0.050789006 0.05507515 -0.22187728
-0.04924902 0.10327245 0.016238626 -0.122646734 0.015893027 0.057389222 0.015465414 -0.104928814
-0.19723973 -0.00018833992 0.05199635 -0.0048497515 0.09305131 -0.048915345 0.007842896 0.05349055
-0.017285056 -0.10861527 0.11476518 0.041056637 0.08524892 0.03763124 -0.03365075 -0.059775494
-0.13839993 -0.046651717 -0.07893222 0.07962123 -0.045896962 0.069120534 -0.1972797 0.0917072
-0.121113464 0.045648735 0.057452545 0.0045200596 -0.057918873 0.09820925 0.04112963 -0.10963301
-0.041296255 -0.061094973 -0.08040984 0.03558962 0.10637056 0.11031612 0.0872263 0.08740114
-0.0017140012 0.055575304 0.1589315 0.21493503 0.12226812 0.071566686 0.021415502 -0.14432691
-0.019822126 0.023739278 -0.009246449 0.08089787 -0.009409329 -0.07548651 0.012760707 -0.07129401

network_body.linear_encoder.seq_layers.2.bias f4 [128]
00000000: 0000 0000 0000 0000 0000 0000 0000 0000
00000010: 0000 0000 0000 0000 0000 0000 0000 0000
00000020: 0000 0000 0000 0000 0000 0000 0000 0000
00000030: 0000 0000 0000 0000 0000 0000 0000 0000
00000040: 0000 0000 0000 0000 0000 0000 0000 0000
00000050: 0000 0000 0000 0000 0000 0000 0000 0000
00000060: 0000 0000 0000 0000 0000 0000 0000 0000
00000070: 0000 0000 0000 0000 0000 0000 0000 0000
00000080: 0000 0000 0000 0000 0000 0000 0000 0000
00000090: 0000 0000 0000 0000 0000 0000 0000 0000
000000a0: 0000 0000 0000 0000 0000 0000 0000 0000
000000b0: 0000 0000 0000 0000 0000 0000 0000 0000
000000c0: 0000 0000 0000 0000 0000 0000 0000 0000
000000d0: 0000 0000 0000 0000 0000 0000 0000 0000
000000e0: 0000 0000 0000 0000 0000 0000 0000 0000
000000f0: 0000 0000 0000 0000 0000 0000 0000 0000
00000100: 0000 0000 0000 0000 0000 0000 0000 0000
00000110: 0000 0000 0000 0000 0000 0000 0000 0000
00000120: 0000 0000 0000 0000 0000 0000 0000 0000
00000130: 0000 0000 0000 0000 0000 0000 0000 0000
00000140: 0000 0000 0000 0000 0000 0000 0000 0000
00000150: 0000 0000 0000 0000 0000 0000 0000 0000
00000160: 0000 0000 0000 0000 0000 0000 0000 0000
00000170: 0000 0000 0000 0000 0000 0000 0000 0000
00000180: 0000 0000 0000 0000 0000 0000 0000 0000
00000190: 0000 0000 0000 0000 0000 0000 0000 0000
000001a0: 0000 0000 0000 0000 0000 0000 0000 0000
000001b0: 0000 0000 0000 0000 0000 0000 0000 0000
000001c0: 0000 0000 0000 0000 0000 0000 0000 0000
000001d0: 0000 0000 0000 0000 0000 0000 0000 0000
000001e0: 0000 0000 0000 0000 0000 0000 0000 0000
000001f0: 0000 0000 0000 0000 0000 0000 0000 0000
0.0 0.0 0.0 0.0 0.0 0.0 0.0 0.0
0.0 0.0 0.0 0.0 0.0 0.0 0.0 0.0
0.0 0.0 0.0 0.0 0.0 0.0 0.0 0.0
0.0 0.0 0.0 0.0 0.0 0.0 0.0 0.0
0.0 0.0 0.0 0.0 0.0 0.0 0.0 0.0
0.0 0.0 0.0 0.0 0.0 0.0 0.0 0.0
0.0 0.0 0.0 0.0 0.0 0.0 0.0 0.0
0.0 0.0 0.0 0.0 0.0 0.0 0.0 0.0
0.0 0.0 0.0 0.0 0.0 0.0 0.0 0.0
0.0 0.0 0.0 0.0 0.0 0.0 0.0 0.0
0.0 0.0 0.0 0.0 0.0 0.0 0.0 0.0
0.0 0.0 0.0 0.0 0.0 0.0 0.0 0.0
0.0 0.0 0.0 0.0 0.0 0.0 0.0 0.0
0.0 0.0 0.0 0.0 0.0 0.0 0.0 0.0
0.0 0.0 0.0 0.0 0.0 0.0 0.0 0.0
0.0 0.0 0.0 0.0 0.0 0.0 0.0 0.0

action_model._continuous_distribution.log_sigma f4 [1, 2]
00000000: 0000 0000 0000 0000
0.0 0.0

action_model._continuous_distribution.mu.weight f4 [2, 128]
00000000: f742 263b 4766 703c 5a51 523b 95f0 8f3c
00000010: 31c1 153d cb4a 3f3b d03c 583c 637a 99bc
00000020: 9142 aa3b 92b6 5eba 80a1 99bc d3e5 273d
00000030: 651e 8c3c 6f3a 4f3d 257d e33c 18c6 e8bb
00000040: 1759 423c a073 99bc ab42 59bb d081 83bc
00000050: 1a2f 7bb9 e5bf 5f3c 2ddf 6b3c 56c6 c6bc
00000060: 7bf1 5bbc 3e8e a13c fdf2 8f3c 536c a2bc
00000070: c411 953c a49e 3a3b 6756 0e3c fef7 a1bc
00000080: 8f8a 16bc a53a bcbc 33cc 943a 2833 ef3b
00000090: 330d 80bc 9571 d43c 2388 373a 745d a0bb
000000a0: 02cf 38bc b935 463c 5fc6 f5bc 2ec3 323c
000000b0: a3c5 c8bc 1d20 153c fdf5 b63c 328d 193c
000000c0: cbd2 413c 53a8 123c 2a09 053d 5c35 823b
000000d0: cad4 48bd 070c 13bd 4edb 8b3c e19b 24bc
000000e0: 2340 8a3c 657c b23a e83c 6a3c abee eab9
000000f0: a55a 7ebc 7bf2 bdba dfbf 9cbb 5279 3dbb
00000100: a84c e0ba 1a3a 743c 075a 7cbc 87a9 85bc
00000110: e021 6cbc e06b 27bc d35c 403c e31a a83c
00000120: 399c b9bc f04f 27b9 1d25 96bc afc1 ae3b
00000130: bd45 cdbc 0fce 2cbc 3351 9b3b 5c5a 3a3d
00000140: cad6 063b e88f 543b a739 d33c b5a7 eabb
00000150: 1fe1 253c 7be8 b5bb 300d bb3c 7037 573a
00000160: c249 54bc c3c6 c0bc 2b00 a13c 75da e63c
00000170: b334 9aba ddf5 77bc 6b34 6d3c f501 e83a
00000180: 85a2 d9bb 73a5 20bc 088a 163c 5c4e 0ebb
00000190: 75cc babb 0733 08bc efac 9e3b 40ba ffba
000001a0: 0df4 1f3c 4e36 4b3c 6be6 ba3c 0d23 07bd
000001b0: 3f16 433c e7c2 b53c 6111 a73c 0f40 313c
000001c0: 21c8 84bb 69f0 c93b 4b11 20bd 13da 6f3c
000001d0: 4e6b 293d 0932 c3bb 9996 2a3d 74f5 123a
000001e0: 13de f03b df82 f5bb efe1 653b 77b5 a43b
000001f0: f75c 2f3c ddd6 62bc c34b e5ba bf02 8c3b
00000200: dcca 3c3b 8a4e fbbc 9741 ddbc aff8 503c
00000210: eb1e 843c fb68 11b8 27c6 babb 2569 603b
00000220: 756b 91bc 7fac c1bc 24aa 39bc 972c 85bc
00000230: bd2b 5a3c 54bd 1fba aa6e 63bb 9d5c bf3b
00000240: bd94 0ebd 13fd bf3c 9d40 aa3c 1a53 133b
00000250: f147 283c 8cc2 c0bc a7d7 35bb 92de 31bc
00000260: b761 cebc 128f ce3a d7ac df3b 7f21 90bb
00000270: 15a3 be3a d217 cc3c 1d42 bdbc fa86 69bc
00000280: cd0b aabc 7f03 8b3c d109 c43c 08f0 8e3b
00000290: 80dd ed3c 0f4a 43bd e9ae 183c a070 ea3c
000002a0: dab7 9cbc 90e0 eb3c b236 e4bc be6a 0b3c
000002b0: f792 b5bc a218 dfbc 2c2a 4b3b 0bad 7ebc
000002c0: ef73 353b 1bd0 2dba 1ad9 c9bc 5a2f d23b
000002d0: d7ea a73c 7788 dbbb 0429 09bd cf17 cb3c
000002e0: 97d0 093a 4b00 06bd aa3e 3f3d 753d a5bc
000002f0: f575 8ebb f608 4439 4bd8 0c3c af35 3e3c
00000300: 0288 8abb 3ffd aa3a af7b 0dbc 58b2 a53c
00000310: 8faf 93bb db17 34bc 270b 163c 9b1d 833c
00000320: fad4 e33b a4ad 23bc bf16 04bd da55 7dbb
00000330: 5f8e aebc 9833 503c ed87 dcbb f258 e9bb
00000340: 4735 633c 8347 42bc 0f70 a63c eaea 79bb
00000350: 9534 42bc 9f45 293b abac 293c 3581 59bc
00000360: a35f 11bd 9ad7 623a 6b7b 9bbc 4737 133b
00000370: 7ebc 32bc e1b1 a73c 0b49 49ba 9875 99bc
00000380: a780 5c3d 7445 b83c d099 92bb 15df 73bc
00000390: 675f 223c 726c 3bbc 6c86 b73c 53a2 0f3c
000003a0: b304 ad3c e3e7 1dbc 78be a8bc a804 c3bc
000003b0: d561 15bc 64ef 44bb 9327 a93c d18f a63c
000003c0: 78c4 04bc 0598 d83c 7a9e 413b f6db 333c
000003d0: 1bed 33bc 5e06 02bc 454d 493c 5aeb eb3c
000003e0: 7e2a 033c c416 0dbd e1ae acba 7813 a83b
000003f0: 1f6f dcbc 75e3 b3ba c752 c5ba 67a8 253a
0.0025369504 0.014672822 0.0032091946 0.017570773 0.036561195 0.0029188867 0.013198093 -0.018735116
0.0051959236 -0.0008495833 -0.018753767 0.04099066 0.017104337 0.050592836 0.027769635 -0.0071036927
0.011862061 -0.018731892 -0.003315131 -0.01605311 -0.00023954772 0.013656591 0.014396471 -0.024264496
-0.013424273 0.019721147 0.01757192 -0.019827044 0.018196948 0.0028475905 0.008687592 -0.019771572
-0.009188308 -0.022977183 0.001135236 0.0072997995 -0.015631294 0.025933066 0.0007001182 -0.004893953
-0.011279823 0.012097769 -0.030001817 0.010910792 -0.024508303 0.009101895 0.022334093 0.0093720425
0.011830042 0.008951264 0.032479443 0.003973646 -0.049031056 -0.035900142 0.017072346 -0.01004693
0.016876286 0.0013617395 0.014296748 -0.0004480978 -0.015524541 -0.001449182 -0.004783615 -0.0028911424
-0.0017112689 0.014906431 -0.015402324 -0.016316188 -0.014412373 -0.0102185905 0.011740881 0.020520633
-0.0226575 -0.0001595614 -0.018328244 0.0053331475 -0.025057668 -0.010547175 0.0047399043 0.04549633
0.0020574802 0.0032434408 0.025784327 -0.0071611055 0.010124474 -0.0055513955 0.022833437 0.000820986
-0.012957038 -0.023532277 0.0196534 0.02818034 -0.0011764973 -0.015134302 0.014477829 0.0017700779
-0.0066416883 -0.009805071 0.009188183 -0.0021714186 -0.0057006427 -0.008312947 0.0048423926 -0.0019510463
0.009762776 0.012403084 0.02281495 -0.03299241 0.011907159 0.022187663 0.02039403 0.010818495
-0.0040521775 0.0061626923 -0.03907899 0.014639395 0.0413621 -0.0059568924 0.041647527 0.00056060334
0.007350692 -0.0074924077 0.0035077294 0.005026515 0.010703317 -0.013845173 -0.0017493892 0.0042727883
0.0028807437 -0.030677099 -0.027008815 0.012754603 0.016128024 -3.4668465e-05 -0.005699891 0.0034242359
-0.017751435 -0.023641823 -0.011332069 -0.016256614 0.013316092 -0.0006093581 -0.0034703412 0.005839898
-0.034809817 0.023436105 0.020782763 0.0022479952 0.010271058 -0.023530267 -0.0027746947 -0.010856288
-0.025193078 0.0015759191 0.006826024 -0.0043985243 0.0014544452 0.024913702 -0.023102814 -0.014253372
-0.02075758 0.01696944 0.023930462 0.00436211 0.029036283 -0.04767805 0.009319046 0.028618157
-0.019130636 0.028793603 -0.027858112 0.008509336 -0.022164805 -0.027233426 0.0031000478 -0.015544186
0.002768751 -0.00066304364 -0.024639655 0.006414336 0.020497723 -0.0066996175 -0.03348638 0.024791626
0.00052572176 -0.032715123 0.04669062 -0.020170907 -0.0043475577 0.00018695355 0.00859649 0.011609479
-0.004227639 0.0013045444 -0.0086354455 0.020226642 -0.004507012 -0.010992016 0.009157932 0.016005328
0.006952879 -0.00999013 -0.032248255 -0.0038655908 -0.021308122 0.012707613 -0.006730071 -0.007121199
0.013867683 -0.01185787 0.020317106 -0.0038134404 -0.011853357 0.002582885 0.010356109 -0.013275434
-0.035491597 0.0008653343 -0.018979749 0.0022463368 -0.010909198 0.020470561 -0.0007678426 -0.01873283
0.05383363 0.022494055 -0.0044739023 -0.01488473 0.009910441 -0.01143943 0.022402965 0.008766728
0.021120405 -0.009637806 -0.020598635 -0.023805931 -0.009117563 -0.0030049914 0.020648753 0.020332249
-0.008103482 0.026439676 0.0029543922 0.010977736 -0.010981823 -0.007936088 0.012286489 0.028798748
0.008005736 -0.03444554 -0.0013174677 0.005129274 -0.026908455 -0.0013724404 -0.0015054577 0.00063193444

action_model._continuous_distribution.mu.bias f4 [2]
00000000: 0000 0000 0000 0000
0.0 0.0

network_body.linear_encoder.seq_layers.0.weight f4 [128, 18]
00000000: c023 f83c 8da1 de3c f919 09be 4bb7 e13d
00000010: c2e0 01be 60d2 a63d c20b 60ba f25d f93e
00000020: 8da4 893e ced8 e13d ce3d 64bd cd1d 9abe
00000030: e028 97bd 42a5 943d 9b81 f0bd 929c 46be
00000040: 6620 af3e 475d 1f3f 7b29 f6be 2fb9 81be
00000050: a126 4c3e 91e2 1bbe 5e0d 06be 7653 543e
00000060: dbc0 e93d 223c 853e 41f9 2ebe ac61 823d
00000070: 9fa3 dabd 0fb5 c23b bdc2 363d c6aa 3bbe
00000080: f48c 30be a3b1 ddbd 93fa 0ebe f612 3cbd
00000090: 28dc 39be 4987 cdbe 5c9d fabe af17 a23e
000000a0: 0060 88bd 6575 5bbe 933e b03d efa4 bcbe
000000b0: 9a1a c83d ac30 16be 69b7 c93e c223 2bbd
000000c0: 0b34 e9be b326 9fbd f09b 61be d0dc 253e
000000d0: 7d74 8abc ad5d f63c 99fc b73d e911 92bd
000000e0: c4ae cabc 07dd d9bd f72b d8bd cb0c 23bc
000000f0: 5eba 25be d28c b13d c93c 2ebe 9a9f a7be
00000100: 3462 803d 6e9b febe 70e5 47bc c86a c3be
00000110: ef3a 1fbe c338 e4be fdcb 953e ac4c 4abe
00000120: de0b 2abd 32e7 abbd 8930 b9bd a14d 62be
00000130: c9e3 67bd fc22 4c3d d2ec 1fbc 0808 473e
00000140: 82a2 58be bc2a 583e 70bc e53d 543b f93d
00000150: 63a0 f9be 5ff5 0a3d 685c cb3e ec56 a03e
00000160: b420 893d 1163 58be b50d e03e a7b6 463e
00000170: f24a d1bd 6070 c4bd a465 a2bd 4639 973e
00000180: 2309 a7be 88d4 233e 7d83 bd3d 3e52 9d3e
00000190: abdc 4cbe 149f 0c3d c681 913e d515 74bd
000001a0: 83b6 d7bd a8e8 05be 0a50 b93e e5dc 4ebd
000001b0: fada ffbd 6990 70be 35b9 debd 1252 0f3e
000001c0: ce88 413d c2ce f43d f54a 5ebd 67ac ff3e
000001d0: d743 50be 9145 01bd 63d3 8a3e 925d 3abd
000001e0: 6557 db3d c468 943b 1ce9 a43c 9d2e da3b
000001f0: fc0c 97bb e30f 2fbe 0314 04be 9793 c2bd
00000200: ed4e 36bc 897f 6fbe 59b4 5bbd 7840 00bd
00000210: 6929 5bbe e619 0d3f f7c6 2ebe ac49 3d3d
00000220: 3eb5 843e 0abf ac3d e4cd 413e dae0 9c3d
00000230: d567 003d 4c63 04be 433f 89be abc1 80be
00000240: 0f38 e93d b68f 8ebd 3a05 9bbe 3aa6 813d
00000250: d843 0a3e 9b1a b3be 03a1 72bd df16 dd3d
00000260: 05d6 11be b7ad 35bd 2898 24be 3b9b d7be
00000270: d811 a7bc 318a a1bd 6463 d93c 61ad e8bc
00000280: d21e 9b3e 7769 943e 5e76 853e e279 85be
00000290: 0755 d93d ac3a 3d3e 1157 a23c 73fd 843d
000002a0: d7ec 1bbc ae15 8bbd 18a5 1fbe 4e6b 42be
000002b0: 578f f13d 0521 913d 01a8 4b3e 66e1 bdbd
000002c0: 0abe 23be d5d1 7cbe 40f4 93be 0534 d03d
000002d0: 1267 803d 7a5e 9bbe d8ff 5b3e 33a7 fcbd
000002e0: 76f8 d3bd 3faa 1cbc 5e55 b8bc 6bae 7d3d
000002f0: f640 98bd a6ab 07bd a45d dc3d 12d7 4f3e
00000300: 2c33 b63d 6fcf 133e 615a 3cbe 674f 8cbe
00000310: 8615 9c3d 357c 363e 9688 043d f7c2 e83e
00000320: 2abf 87bc df8a d6bc 247e 79be 58b3 d0be
00000330: 5c4d df3e e187 d7bd 71d1 ecbd a660 ee3d
00000340: 94d4 b53e d775 aebd e9ca e73d 8eea a3bd
00000350: 8e8e 143e 8db3 9b3d d317 57bc b073 be3d
00000360: f88e 143e 551b d13d 643f 68be 6bcf 763e
00000370: 5a6f e0bd 8623 4a3e 3cce 25be bca2 7c3d
00000380: db1f 3dbe bb7c 823e ab38 c9bd b757 e4bc
00000390: d42b 863e e74b 13be 83d0 983e 8a55 be3d
000003a0: f5f8 9e3d f511 103e d76b 083e e093 343d
000003b0: 9f50 87be 804c 953e a8df 183e 59fa 923d
000003c0: 9a23 863c c8b9 c7bb 6561 3c3d 165b f0bd
000003d0: 8a5c 25bd a395 c63d 04d0 043d 891d b83c
000003e0: 65b1 243e a270 04bf e809 babe 2783 303d
000003f0: f1a4 0ebe d87b c23d 7542 ccbd ec26 2b3e
0.030290484 0.027176643 -0.13388814 0.110212885 -0.12683395 0.081455946 -0.0008546674 0.48704487
0.26883355 0.1102768 -0.055723004 -0.3010086 -0.07380843 0.07258083 -0.1174347 -0.19395664
0.34204406 0.62251705 -0.48078522 -0.25336596 0.19936611 -0.15223147 -0.13091037 0.20734963
0.114137374 0.2602244 -0.1708727 0.06366286 -0.106757395 0.005941994 0.04461931 -0.18326864
-0.1724127 -0.10824897 -0.13962774 -0.04591652 -0.18150389 -0.40142277 -0.4894818 0.31658694
-0.066589355 -0.21431501 0.08605685 -0.36844584 0.09770699 -0.14667004 0.39397743 -0.04178215
-0.45547518 -0.07771053 -0.22032142 0.16197515 -0.016901249 0.030073965 0.08983726 -0.07132322
-0.024741538 -0.10637861 -0.10555261 -0.009951781 -0.16184375 0.086694375 -0.17015375 -0.32738954
0.06268731 -0.49727958 -0.012200698 -0.38167405 -0.15549825 -0.44574556 0.29257193 -0.1975581
-0.041515224 -0.083937064 -0.090424605 -0.22099926 -0.056613717 0.04983805 -0.009761052 0.19436657
-0.21155742 0.21110052 0.11217582 0.12169519 -0.48755178 0.03392541 0.39718938 0.31316316
0.06695691 -0.21131541 0.43760458 0.19405614 -0.10219373 -0.09591746 -0.07929543 0.29535884
-0.32624158 0.15999043 0.09253595 0.30726808 -0.20006053 0.034331396 0.28419322 -0.059591133
-0.10532858 -0.13077033 0.36193877 -0.05050363 -0.12492938 -0.23492588 -0.10875169 0.13996151
0.047249608 0.119534984 -0.054270703 0.4993622 -0.20338379 -0.031560484 0.271144 -0.04549939
0.107100286 0.0045290906 0.020130686 0.006658389 -0.004609702 -0.17095904 -0.12898259 -0.09500807
-0.011127216 -0.23388495 -0.05363879 -0.031311482 -0.21402515 0.5511764 -0.17068087 0.046212837
0.25919527 0.08434875 0.18926197 0.076600745 0.031349022 -0.12928504 -0.26806077 -0.25147757
0.113876455 -0.069610044 -0.30277425 0.06330533 0.13502443 -0.34981236 -0.059235584 0.10795378
-0.14241798 -0.04435512 -0.16073668 -0.4211062 -0.02039425 -0.07887686 0.026536651 -0.028402986
0.30296952 0.28986713 0.2606687 -0.26069552 0.10611921 0.18479413 0.019816907 0.06493654
-0.009516916 -0.067912444 -0.15590322 -0.18986246 0.11794918 0.07086376 0.19888307 -0.09271507
-0.15990463 -0.2468942 -0.28897285 0.10166172 0.06269659 -0.30345517 0.21484315 -0.12336578
-0.103501245 -0.009562074 -0.022501644 0.061933916 -0.07434265 -0.03312268 0.10760048 0.20296887
0.08896479 0.14434598 -0.18393852 -0.2740433 0.07621293 0.17820819 0.03235682 0.45461246
-0.016570646 -0.026189266 -0.24364525 -0.40761828 0.43613708 -0.10523964 -0.11563385 0.11639528
0.35513747 -0.0851857 0.11317999 -0.08003722 0.14507505 0.07602606 -0.013128239 0.092994094
0.14507663 0.10210291 -0.22680432 0.24102561 -0.109587386 0.19740114 -0.16191953 0.061678633
-0.18469183 0.25485787 -0.09825262 -0.027873857 0.26205313 -0.14384423 0.29846582 0.09293659
0.077623285 0.1406935 0.13322388 0.044086337 -0.26428697 0.29159927 0.14929068 0.07176656
0.016374398 -0.006095145 0.04599132 -0.11736123 -0.040371455 0.0969651 0.03242494 0.022475021
0.16083296 -0.51734364 -0.36335683 0.043093827 -0.13930108 0.094962776 -0.09973613 0.16714066

network_body.linear_encoder.seq_layers.0.bias f4 [128]
00000000: 0000 0000 0000 0000 0000 0000 0000 0000
00000010: 0000 0000 0000 0000 0000 0000 0000 0000
00000020: 0000 0000 0000 0000 0000 0000 0000 0000
00000030: 0000 0000 0000 0000 0000 0000 0000 0000
00000040: 0000 0000 0000 0000 0000 0000 0000 0000
00000050: 0000 0000 0000 0000 0000 0000 0000 0000
00000060: 0000 0000 0000 0000 0000 0000 0000 0000
00000070: 0000 0000 0000 0000 0000 0000 0000 0000
00000080: 0000 0000 0000 0000 0000 0000 0000 0000
00000090: 0000 0000 0000 0000 0000 0000 0000 0000
000000a0: 0000 0000 0000 0000 0000 0000 0000 0000
000000b0: 0000 0000 0000 0000 0000 0000 0000 0000
000000c0: 0000 0000 0000 0000 0000 0000 0000 0000
000000d0: 0000 0000 0000 0000 0000 0000 0000 0000
000000e0: 0000 0000 0000 0000 0000 0000 0000 0000
000000f0: 0000 0000 0000 0000 0000 0000 0000 0000
00000100: 0000 0000 0000 0000 0000 0000 0000 0000
00000110: 0000 0000 0000 0000 0000 0000 0000 0000
00000120: 0000 0000 0000 0000 0000 0000 0000 0000
00000130: 0000 0000 0000 0000 0000 0000 0000 0000
00000140: 0000 0000 0000 0000 0000 0000 0000 0000
00000150: 0000 0000 0000 0000 0000 0000 0000 0000
00000160: 0000 0000 0000 0000 0000 0000 0000 0000
00000170: 0000 0000 0000 0000 0000 0000 0000 0000
00000180: 0000 0000 0000 0000 0000 0000 0000 0000
00000190: 0000 0000 0000 0000 0000 0000 0000 0000
000001a0: 0000 0000 0000 0000 0000 0000 0000 0000
000001b0: 0000 0000 0000 0000 0000 0000 0000 0000
000001c0: 0000 0000 0000 0000 0000 0000 0000 0000
000001d0: 0000 0000 0000 0000 0000 0000 0000 0000
000001e0: 0000 0000 0000 0000 0000 0000 0000 0000
000001f0: 0000 0000 0000 0000 0000 0000 0000 0000
0.0 0.0 0.0 0.0 0.0 0.0 0.0 0.0
0.0 0.0 0.0 0.0 0.0 0.0 0.0 0.0
0.0 0.0 0.0 0.0 0.0 0.0 0.0 0.0
0.0 0.0 0.0 0.0 0.0 0.0 0.0 0.0
0.0 0.0 0.0 0.0 0.0 0.0 0.0 0.0
0.0 0.0 0.0 0.0 0.0 0.0 0.0 0.0
0.0 0.0 0.0 0.0 0.0 0.0 0.0 0.0
0.0 0.0 0.0 0.0 0.0 0.0 0.0 0.0
0.0 0.0 0.0 0.0 0.0 0.0 0.0 0.0
0.0 0.0 0.0 0.0 0.0 0.0 0.0 0.0
0.0 0.0 0.0 0.0 0.0 0.0 0.0 0.0
0.0 0.0 0.0 0.0 0.0 0.0 0.0 0.0
0.0 0.0 0.0 0.0 0.0 0.0 0.0 0.0
0.0 0.0 0.0 0.0 0.0 0.0 0.0 0.0
0.0 0.0 0.0 0.0 0.0 0.0 0.0 0.0
0.0 0.0 0.0 0.0 0.0 0.0 0.0 0.0

network_body.linear_encoder.seq_layers.2.weight f4 [128, 128]
00000000: 26fd 923d 332e 9cbd e6b6 843d c31f 1c3c
00000010: aff7 d3bd 81b8 ab3c 234a 553e 2728 6a3d
00000020: 3983 f13d df39 183d ae18 44bc 308d b43c
00000030: b219 7a3d 994f 973d a292 913d 2ab7 4c3c
00000040: 3bda 133e e5f6 47bc 6834 6abe 4f51 abbd
00000050: 7237 18be d620 c93c 253d 0a3e c681 ea3c
00000060: 6e06 d83c 7061 1a3c c4eb 02bd d056 f03d
00000070: 7aab b5bd e81a bf3d 7d2d 523d 7509 9abc
00000080: 41f0 583d e2a6 babc 8614 0d3d d44f 953d
00000090: 399c a83b 4067 623d fe3a 85bd 621c 033d
000000a0: bf8d 4c3d f3dd f23d f919 d43d d200 ec3b
000000b0: 5b3c 123d 5c73 013d 6b5d 913e 6395 17bd
000000c0: 94d6 2a3e 4eb5 ab3d 4fa4 893c a4ce 8b3c
000000d0: c7c1 aebd 2d9d e13c 02d0 0dbe b9f4 fc3d
000000e0: b125 9fbb 7e81 e83d 2dad b5bc f642 0d3b
000000f0: 3208 c83d 7269 2cbe cfc6 4e3e 64eb 993d
00000100: 3c0f cbbb fbec f7bd a0b1 69bd eae6 4c3d
00000110: c04c 833d 8b28 b9bc 5fba 183d eb05 023e
00000120: fec8 8fbd 193d 8c3d 0768 27bd 3aad 76bd
00000130: 1c91 58bc d711 23be 7b78 68bc b053 df39
00000140: 6bd1 863c 0995 2f3d f2c2 a23c 9ea1 84bd
00000150: 42a1 dcba 4bb3 523d a400 823e 5c98 4cbd
00000160: e161 26bd ae80 56bd b52d d73d c83f 8fbc
00000170: 02f9 ea3d 5b1f 1ebe 56c4 ad3c 792d 9dbc
00000180: f20e 903d e777 463d a612 c93c 64e6 06be
00000190: 1a4d 2d3d e38f 4e3c b655 9d3d 3652 aebd
000001a0: 4534 5fbc 5463 bdbd eb87 9dbd eccb 223e
000001b0: 69c4 b5bb 03ea 0d3c 744a ba3d 6706 a73c
000001c0: b49f 24bd d057 d9bd 259b 9f3a 9424 1fbd
000001d0: 2f72 51be 6c6e 083e 2af1 9fbd b177 8dbd
000001e0: 86c8 1cbc 5bf6 133e 2dde 3d3d 7e01 ba3d
000001f0: e894 16bc ed1f 3c3d 52b6 e73c 2bd5 593d
00000200: a806 e3bd 9a1e 263d 1d19 f73d f95c b83d
00000210: cea0 6f3d a9a7 cbbd 2ed3 debc d33d da3d
00000220: 9bb4 b93d ada0 e5bd fd53 c6bd 6415 653c
00000230: 47dc 11be 69b8 563d e960 dd3d a517 d33d
00000240: 56ed e1bd ab2b 983d c34a adbd 31c1 4d3d
00000250: 965a 6f3d 594b 91bb f0b8 c23d 3af1 a53d
00000260: 79e4 623d 3bce 5ebe 2229 d83d db86 3bbc
00000270: d762 9a3c cdcf f33d 1a94 3e3d 5a4b 4bbd
00000280: fe5a 043e 3b81 adbc c07e 16bd a9b4 c5bd
00000290: 17e2 5ebd 3af4 ec3c f1fa 123c f682 fe3d
000002a0: b310 0cbc fc3e 13be ef98 703c eb4d 5f3b
000002b0: e9f1 5abd c697 f7bd 8b7e 473c 705e da3d
000002c0: ca22 a73d 3bf3 0fbe 0d16 523e 9ff3 813c
000002d0: 92a8 a9bd 00cb 6f3d d57c 8b3d 517e 0abc
000002e0: 23b7 09be 85a8 bf3d 3c07 35be 9943 9b3d
000002f0: a51c a2bd c3d2 3b3d 6b2f d2bd 4a7b b33d
00000300: d1ba 08ba 9d49 7a3d dbf5 0f3e 6f80 363e
00000310: e507 023d ed3a 84bd d33d ea3c cf69 19be
00000320: b94e 4fbd 109d f93c 2d50 d7bd 66d5 043e
00000330: 7eed 313d 75e9 423e 940a 123e dd98 e4bd
00000340: 1a11 a03a 7bd8 35be b28a 153e d246 4bbe
00000350: 0bfb 0bbe ffdf 43bd 7616 1a3d d889 a13d
00000360: fea5 40bd c723 8d3e e903 6abd 71b9 e4bc
00000370: ad8f 4f3c bf37 993d 015f b33d 0b9d 72bd
00000380: 4c82 36be 31df f33d 8323 653d f668 b13c
00000390: 41f1 153e 6527 11bd 546b 953d 4972 b13b
000003a0: cb1b f83d 48ba 293e 9ac0 d13d b6c9 a4bc
000003b0: 1922 c23c ed25 063d 6a25 9bbc 715c f13b
000003c0: faf9 6dbd 9ff3 52bd af06 afbc 4f9f 703d
000003d0: 27e4 f43d f9de 25be 10a3 b03d b7fd 3c3d
000003e0: 7f95 1a3e 6481 cf3d 98cc 323c 6fee ae3b
000003f0: e8ca 85bd 854d 8a3d a78c 07be da04 8e3d
0.071771905 -0.07625999 0.064801976 0.009529057 -0.10349976 0.020962002 0.20829062 0.0571672
0.11792607 0.037164565 -0.011968775 0.02203998 0.06105966 0.07388229 0.07108046 0.012494842
0.14438717 -0.01220486 -0.22871554 -0.08365118 -0.148649 0.02455179 0.13499887 0.028626334
0.026370253 0.009422645 -0.031963125 0.11735308 -0.08870597 0.09331304 0.051312912 -0.018803338
0.0529635 -0.022784654 0.0344434 0.07290617 0.0051455763 0.055274248 -0.065053925 0.03200949
0.049939867 0.1185874 0.103565164 0.007202246 0.03570209 0.031604156 0.28391585 -0.0370077
0.16683418 0.083841905 0.016801981 0.017066307 -0.08533054 0.027540768 -0.1384888 0.12351365
-0.004856788 0.11352824 -0.022177303 0.0021554804 0.09767188 -0.16837099 0.20193027 0.075156
-0.0061968844 -0.12105747 -0.057054162 0.050024904 0.06411123 -0.02260234 0.037287112 0.1269757
-0.07020758 0.06847591 -0.040870693 -0.060223795 -0.0132181905 -0.15924774 -0.014188881 0.00042596227
0.01645728 0.04286674 0.019868348 -0.064761385 -0.0016832727 0.05144052 0.25391114 -0.04994999
-0.04062069 -0.052368812 0.10506765 -0.017486468 0.11473276 -0.15441649 0.021211784 -0.019186722
0.070341006 0.04845419 0.024545025 -0.13173825 0.042309858 0.012607547 0.07682364 -0.08511774
-0.013623302 -0.09247461 -0.0769194 0.15898103 -0.0055470956 0.00866175 0.09096232 0.020388795
-0.040191367 -0.10612452 0.0012176974 -0.038853243 -0.20453714 0.13323373 -0.0780967 -0.06907595
-0.009569293 0.14449446 0.04635446 0.09082316 -0.009190775 0.045928884 0.02828518 0.05318181
-0.11085254 0.040556528 0.12065337 0.09002108 0.058502965 -0.09944088 -0.027200308 0.10656323
0.09067651 -0.11212287 -0.09683988 0.013982151 -0.14244185 0.05242196 0.108095 0.10307244
-0.11031596 0.07430204 -0.08461525 0.05023307 0.058436 -0.004434031 0.0950793 0.08102651
0.05539367 -0.21758358 0.105547205 -0.011445726 0.018845959 0.11904869 0.04652796 -0.049632408
0.12925336 -0.021179786 -0.036741972 -0.09653599 -0.054414835 0.02892505 0.008970962 0.124273226
-0.008548903 -0.14379495 0.0146849 0.0034073542 -0.05345336 -0.12089495 0.012176166 0.10662544
0.08160932 -0.14057629 0.20516224 0.015863238 -0.08284105 0.058543205 0.06810919 -0.008452968
-0.13448767 0.093583144 -0.17678541 0.075812526 -0.0791562 0.045855295 -0.102629505 0.0876375
-0.0005215826 0.06110536 0.1405863 0.17822431 0.03174581 -0.06456552 0.028593933 -0.14981769
-0.050612185 0.030470401 -0.10513339 0.1297203 0.04343938 0.1903437 0.14261848 -0.11161969
0.0012212128 -0.17758362 0.1460369 -0.19851235 -0.13669984 -0.04782104 0.037619077 0.0788762
-0.047033302 0.27566358 -0.057132635 -0.027920457 0.012668532 0.07481336 0.08758355 -0.0592318
-0.17823142 0.11907805 0.05594207 0.021656495 0.14642812 -0.03543796 0.07295862 0.005415235
0.12114676 0.16574967 0.10241814 -0.020115715 0.0236979 0.032751013 -0.018938739 0.007365756
-0.058099724 -0.051501866 -0.021365492 0.05874568 0.11957579 -0.16198339 0.08624852 0.0461404
0.1509609 0.10132101 0.010913037 0.005338482 -0.06532842 0.06753067 -0.13237248 0.06934519

network_body.linear_encoder.seq_layers.2.bias f4 [128]
00000000: 0000 0000 0000 0000 0000 0000 0000 0000
00000010: 0000 0000 0000 0000 0000 0000 0000 0000
00000020: 0000 0000 0000 0000 0000 0000 0000 0000
00000030: 0000 0000 0000 0000 0000 0000 0000 0000
00000040: 0000 0000 0000 0000 0000 0000 0000 0000
00000050: 0000 0000 0000 0000 0000 0000 0000 0000
00000060: 0000 0000 0000 0000 0000 0000 0000 0000
00000070: 0000 0000 0000 0000 0000 0000 0000 0000
00000080: 0000 0000 0000 0000 0000 0000 0000 0000
00000090: 0000 0000 0000 0000 0000 0000 0000 0000
000000a0: 0000 0000 0000 0000 0000 0000 0000 0000
000000b0: 0000 0000 0000 0000 0000 0000 0000 0000
000000c0: 0000 0000 0000 0000 0000 0000 0000 0000
000000d0: 0000 0000 0000 0000 0000 0000 0000 0000
000000e0: 0000 0000 0000 0000 0000 0000 0000 0000
000000f0: 0000 0000 0000 0000 0000 0000 0000 0000
00000100: 0000 0000 0000 0000 0000 0000 0000 0000
00000110: 0000 0000 0000 0000 0000 0000 0000 0000
00000120: 0000 0000 0000 0000 0000 0000 0000 0000
00000130: 0000 0000 0000 0000 0000 0000 0000 0000
00000140: 0000 0000 0000 0000 0000 0000 0000 0000
00000150: 0000 0000 0000 0000 0000 0000 0000 0000
00000160: 0000 0000 0000 0000 0000 0000 0000 0000
00000170: 0000 0000 0000 0000 0000 0000 0000 0000
00000180: 0000 0000 0000 0000 0000 0000 0000 0000
00000190: 0000 0000 0000 0000 0000 0000 0000 0000
000001a0: 0000 0000 0000 0000 0000 0000 0000 0000
000001b0: 0000 0000 0000 0000 0000 0000 0000 0000
000001c0: 0000 0000 0000 0000 0000 0000 0000 0000
000001d0: 0000 0000 0000 0000 0000 0000 0000 0000
000001e0: 0000 0000 0000 0000 0000 0000 0000 0000
000001f0: 0000 0000 0000 0000 0000 0000 0000 0000
0.0 0.0 0.0 0.0 0.0 0.0 0.0 0.0
0.0 0.0 0.0 0.0 0.0 0.0 0.0 0.0
0.0 0.0 0.0 0.0 0.0 0.0 0.0 0.0
0.0 0.0 0.0 0.0 0.0 0.0 0.0 0.0
0.0 0.0 0.0 0.0 0.0 0.0 0.0 0.0
0.0 0.0 0.0 0.0 0.0 0.0 0.0 0.0
0.0 0.0 0.0 0.0 0.0 0.0 0.0 0.0
0.0 0.0 0.0 0.0 0.0 0.0 0.0 0.0
0.0 0.0 0.0 0.0 0.0 0.0 0.0 0.0
0.0 0.0 0.0 0.0 0.0 0.0 0.0 0.0
0.0 0.0 0.0 0.0 0.0 0.0 0.0 0.0
0.0 0.0 0.0 0.0 0.0 0.0 0.0 0.0
0.0 0.0 0.0 0.0 0.0 0.0 0.0 0.0
0.0 0.0 0.0 0.0 0.0 0.0 0.0 0.0
0.0 0.0 0.0 0.0 0.0 0.0 0.0 0.0
0.0 0.0 0.0 0.0 0.0 0.0 0.0 0.0

value_heads.value_heads.extrinsic.weight f4 [1, 128]
00000000: 2c13 2fbe 8dba 07be e505 95bd f39d 87bc
00000010: c7a6 90bd a853 a43d 44b1 2fbd 317a 4abc
00000020: 9774 933c ba7f 4bbd b755 363e cfdc 3abe
00000030: 74b5 02be 63dc 4abd 5451 453e 0197 5b3e
00000040: 477e e0bd 94de fbbd fdeb 8d3d 6901 3d3e
00000050: bca9 bcbc 7761 38be 2159 bc3d 0615 c63d
00000060: 4651 e3bd 7738 af3d 3b27 dcbc cfd6 99bd
00000070: db3a 17be 1839 463e 50ac e43d 698c 02be
00000080: 331f a03d 9fa4 1bbe 9ed0 0cbe e897 a83d
00000090: 8110 133e 8ea9 36be 786f f1bd b294 ff3d
000000a0: 8b80 3c3d b3d0 29be 291f 0d3d 7058 0bbe
000000b0: 36f6 2abd 480e 423e 75ae b33d 9337 c0bc
000000c0: 173e fabd 4903 b63d 61ef 38be 3597 b5bd
000000d0: a722 f13d 5593 283e d7f7 d53d a52f a4bd
000000e0: 7b2e a9bd 11a1 5a3e c846 243d 4ab7 973d
000000f0: 1500 e83d 9c3d 15bd 13a5 22be 048f 3cbe
00000100: f455 d3bd b4e8 f33d f466 e03d fbd6 4abe
00000110: f453 7d3d a52b 92bd 9602 823b 3c53 fb3d
00000120: d98e 56be 9c52 f0bd f323 123e 6699 073e
00000130: fa55 e1bc cbc4 f93d ec67 b53d 3106 393c
00000140: 8ab4 59be 5c8f e4ba e993 523e a725 543e
00000150: 3084 3cbe 2628 e6bd 3364 a03d eed6 7abd
00000160: ff70 0fbc 8fe3 4fbe 8593 673d 5632 fdbc
00000170: b3c4 763d 6e42 b73d 803d 563d 8f48 263e
00000180: 6af5 15be 71d0 4e3e 117a 123e 2170 05be
00000190: b54c 4c3e b8c0 e13d aff6 4b3e 318a fcbd
000001a0: 1727 2d3d 1bbc 033e 4c7c 56be 6bae 92bd
000001b0: b94f ecbc 236b 243e 2061 333e e433 51be
000001c0: 1292 123e 4f07 573e bea6 c93d 6495 3a3c
000001d0: cb5d 54be 5768 b53c d224 44be 2839 41bc
000001e0: 8fec a2bc 1874 3cbe b6c6 91bc 6465 24be
000001f0: e6f4 bcbd 8a66 44bd c1cb 023e c198 2b3d
-0.17097157 -0.13254757 -0.07276515 -0.016554808 -0.0706306 0.08023769 -0.042893663 -0.012358234
0.01799993 -0.049682356 0.17806135 -0.18248294 -0.12764531 -0.049526583 0.19269305 0.21444322
-0.109615855 -0.12298313 0.06929777 0.18457569 -0.023030154 -0.1800593 0.091966875 0.09671979
-0.11099486 0.08555692 -0.026874175 -0.075116746 -0.14768545 0.19357717 0.111656785 -0.12748875
0.07818451 -0.15199517 -0.13751456 0.08232099 0.14361764 -0.17838117 -0.11788839 0.12479533
0.046021026 -0.16583519 0.034453545 -0.13607955 -0.04173871 0.1895076 0.087735094 -0.023464
-0.12218874 0.08887345 -0.18060066 -0.08866731 0.117741875 0.16462453 0.10447662 -0.080169
-0.082608186 0.21350504 0.040106565 0.074080065 0.11328141 -0.03643571 -0.15883283 -0.18413931
-0.10319129 0.11909619 0.10957137 -0.19808571 0.061847642 -0.07137231 0.0039675934 0.12271735
-0.2095293 -0.117345065 0.14271526 0.1324211 -0.027506817 0.121957384 0.08857712 0.01129298
-0.21260276 -0.0017437744 0.20564236 0.20717488 -0.184098 -0.112381265 0.078316115 -0.06124013
-0.008754968 -0.2030165 0.05653717 -0.030907791 0.06024618 0.08948217 0.052304745 0.16238616
-0.146444 0.20196702 0.14304377 -0.13031055 0.19951136 0.11023086 0.19918321 -0.123310454
0.042273607 0.12864725 -0.20945853 -0.07162174 -0.028846608 0.16056494 0.17517519 -0.20429951
0.14313534 0.20998882 0.09846257 0.011388157 -0.20738904 0.02214448 -0.19154671 -0.011793412
-0.01988819 -0.18403661 -0.017794948 -0.16054302 -0.09226398 -0.04794935 0.12773038 0.041893724
