results/ppo/My Behavior/My Behavior-2624.pt (torch, 149583 bytes, 12 tensors)

network_body.linear_encoder.seq_layers.0.weight f4 [128, 6]
00000000: 264a c8be 17c7 3c3e 90a2 38bf e744 533f
00000010: edef 4f3e 17d4 62be 077e e7bd 9c72 0f3d
00000020: c495 84be 83c9 1b3f 2604 0cbe 4299 18bf
00000030: 9a3d 17bd 8ec5 29bf 198e 5f3f 66b6 8abe
00000040: ea99 193c 4814 e1be e103 62bf 2cca 743e
00000050: d9a6 113e 1756 4d3d 0cba 1ebf 1279 edbe
00000060: 8d49 8d3e f0e5 5bbf 50c2 3a3e be1a 143f
00000070: 15e8 5b3e 7f0f 65be b69a 89be 6893 d1bb
00000080: 6381 65bd 1cbc 683f 74eb 96bd 8025 033f
00000090: b663 153f 4dc6 95be ae28 0bbe 5bcc 12be
000000a0: 584d e03e 7023 cb3d f7d1 2ebe 066c 533d
000000b0: 79f3 2bbe 4878 a63e d2dd d23e 3b3e 143e
000000c0: 941e 823e 05f4 243f e43d c6be ebc8 a9be
000000d0: de43 2c3e 8386 183f 0fae 333f e957 24bf
000000e0: 7faf e9bd 391b 25be 70bb 983e a76d 223e
000000f0: 01be c3be 7a0e 8a3e 511e 28bf 416c 423e
00000100: b7fe bb3e 192f 3e3d 961a cf3c 96b4 c1be
00000110: 7a50 6fbe 48c8 4d3e 8fca 833e 5479 d13e
00000120: d5ca 7abe 7643 9abe 3e77 f53e 3812 4abf
00000130: 1765 cf3c cd4e 8dbe 0378 f03e d847 773d
00000140: 2564 da3e edcf f93e 7ef9 38bf d782 05bf
00000150: 8827 0b3e 9816 ed3e 3cfa 153f 6ad5 983a
00000160: 17d3 f03e e78e 513e bf11 ed3d d37f ce3e
00000170: 939e 0ebe 2ced 3ebe 0dfd 0fbf 975a cf3e
00000180: 15ac bdbe 0dec cabd ac9c d8bd bdd8 7e3d
00000190: 6853 6dbe 715e a33e 78a9 903e 79a4 293f
000001a0: e374 b0be 0148 ca3d 64d4 94be f687 9e3e
000001b0: bff5 db3e 67f0 efbd 182e 1d3f c167 f13e
000001c0: a892 0c3e a808 113f 42e1 0e3e 27ff 9d3e
000001d0: cef5 053f d816 85bd 8117 9ebe af80 3a3f
000001e0: 086a 93bf a0ec 863e 0fe7 15bf 123f d5be
000001f0: 0878 4b3e 6d68 a7bb 0890 173f a0e2 b63e
00000200: 4563 163e 2cfe e03e 5157 4b3e f61f 103d
00000210: a08b 17be d3bf 46bf 46b7 2c3f 7609 f8be
00000220: a093 d3be f32d 14bd 3859 1d3d 525c f4be
00000230: 934f 1d3f 79cc 4c3d 920a d93e a2e5 cdbe
00000240: 3dd5 27be 5df6 52bf 977a f4be e9f0 f43d
00000250: 6d8f c7be 6a6b f0be 04bd d03d 209f dc3e
00000260: fafb 733f bbac 3f3e 27e4 c63e f18b 6a3e
00000270: c691 aabe e8c6 9cbe a27c b0be 7742 2ebf
00000280: 74ae 603c 58e9 11bf 88bc bf3d ac5f a23c
00000290: 5863 01bf 8180 c73e a5da c43e 2487 37bf
000002a0: 6a12 eb3e e0c9 cabc 2846 f8be bf04 6b3e
000002b0: 646e 80bd e889 aa3e bd71 9dbd 9941 9ebe
000002c0: a0ed 9b3f ae67 d93c 0eb5 2e3e e29f cb3d
000002d0: db90 1bbc a8b4 e8bd c17d 90be 37c7 2d3f
000002e0: becd 48be 52b1 34bf 8835 413f 1f91 d6be
000002f0: 0fbd 7bbd a8d0 23be a5b8 e4be 47b0 033f
00000300: ac9e 373b fb56 22bf 54b6 00be c164 a9bd
00000310: 73ad d63e 5812 6b3e 7b44 b03e e72c 633e
00000320: d73d d8be 8e50 e63e 3695 163e 3ca1 3cbf
00000330: 43be ecbe 556b 21bf f512 e03e 7b93 34bf
00000340: 6a59 663f 16f9 023e 5a0f 593f d692 423f
00000350: 92f7 2fbe c74b cbbd 996a cc3e 1f73 a6bd
00000360: fc58 adbe e5d0 463e a0e3 a6bc 7aa7 a33e
00000370: a201 43bf fdab 013f 2e68 0d3f 1c43 c8be
00000380: f2a7 82be 725a 2cbf d711 f3bd e966 153f
00000390: 2ed8 6fbe 9802 00bf 5cb8 0fbf f00e 8e3e
000003a0: 76a7 3d3d d092 15be dfd0 d13e 7e85 cfbe
000003b0: 19b1 28bf 3000 b23e 1ea4 fb3e 1f82 e73d
000003c0: b90f 9abe 3a45 b43e 2698 c63d 53d4 063e
000003d0: bdc2 11bf b07a 36bc c7e9 7a3e 1157 42bd
000003e0: cbe5 133e 377f 35bc c07e d8be f810 a63e
000003f0: a7e2 91be bd26 24be 7c2c 9fbe 2755 a0be
-0.3911907 0.18435322 -0.7212305 0.8252701 0.20306368 -0.22151218 -0.11303335 0.03502141
-0.25895512 0.6085436 -0.13673458 -0.5960885 -0.036923982 -0.6631707 0.873262 -0.27092284
0.009375075 -0.43960786 -0.8828717 0.23905247 0.14223804 0.05013093 -0.62002635 -0.46381432
0.27595177 -0.8589773 0.18238187 0.57853305 0.21475251 -0.22369193 -0.26875848 -0.006395746
-0.056031596 0.9091203 -0.07369128 0.51229095 0.5835527 -0.29252854 -0.13589737 -0.14335768
0.4380901 0.099188685 -0.17072283 0.05161669 -0.16792096 0.32513642 0.4118486 0.14476864
0.25413954 0.64434844 -0.38719094 -0.331611 0.16822764 0.5958025 0.7018747 -0.6419664
-0.11410426 -0.16123666 0.29830503 0.15862142 -0.382309 0.2696417 -0.6567126 0.18986608
0.3671777 0.046431635 0.025281232 -0.3783309 -0.23370543 0.20095932 0.25740477 0.4091288
-0.24491437 -0.30129594 0.47942537 -0.7893405 0.025316758 -0.27599183 0.46966562 0.06037125
0.4265453 0.48791447 -0.72255695 -0.5215277 0.13589299 0.463063 0.5858495 0.0011660282
0.4703605 0.20464669 0.115756504 0.40331897 -0.13927679 -0.18645161 -0.562455 0.40498802
-0.3704535 -0.09908304 -0.10576758 0.062218416 -0.23176348 0.3190799 0.28254294 0.6626659
-0.34464177 0.09877015 -0.2906829 0.30963105 0.42960927 -0.11715775 0.6139846 0.4714947
0.1372782 0.56653833 0.13953117 0.30858728 0.52328193 -0.06498498 -0.30877307 0.72852606
-1.1516733 0.26352406 -0.5855569 -0.4164968 0.19870007 -0.005108884 0.5920415 0.35719776
0.14686306 0.43943918 0.19857527 0.03518673 -0.14799356 -0.7763645 0.67467153 -0.48444718
-0.41323566 -0.036176633 0.038415164 -0.47726685 0.61449546 0.049999688 0.42390877 -0.40214258
-0.16389938 -0.8240717 -0.4774978 0.119600125 -0.38976613 -0.4695695 0.10192302 0.43090153
0.9530636 0.18718235 0.3884594 0.22904946 -0.3331434 -0.30620503 -0.34470087 -0.6807017
0.013713468 -0.5699668 0.09362131 0.01982101 -0.5054221 0.38965228 0.38448063 -0.71690583
0.45912486 -0.024754465 -0.48491025 0.22951029 -0.06271055 0.3330834 -0.076877095 -0.30909422
1.2181892 0.026538696 0.17061254 0.099426046 -0.009494985 -0.113625824 -0.28220943 0.678821
-0.19609734 -0.7058307 0.7547231 -0.41907594 -0.061459597 -0.15997565 -0.44672123 0.5144085
0.002801816 -0.6341397 -0.12569553 -0.082711704 0.41929206 0.22956216 0.34427246 0.22185098
-0.4223468 0.44983333 0.14705357 -0.73683524 -0.46238908 -0.630544 0.43764463 -0.7053754
0.89980185 0.12790331 0.8478905 0.76005304 -0.17184284 -0.09926563 0.39925078 -0.08127426
-0.33856952 0.19415624 -0.020372212 0.31963712 -0.76174366 0.5065306 0.5523709 -0.391137
-0.25518757 -0.6732551 -0.11868637 0.58360153 -0.2342231 -0.5000396 -0.56140685 0.2774577
0.04630228 -0.14606786 0.40979668 -0.40531534 -0.6589523 0.34765768 0.4914865 0.113041155
-0.3009012 0.35209066 0.09696989 0.13166933 -0.5693777 -0.011137649 0.24503241 -0.047446314
0.14443128 -0.011077694 -0.42284203 0.3243482 -0.28493235 -0.16030402 -0.31088626 -0.31314966

network_body.linear_encoder.seq_layers.0.bias f4 [128]
00000000: 0000 0000 0000 0000 0000 0000 0000 0000
00000010: 0000 0000 0000 0000 0000 0000 0000 0000
00000020: 0000 0000 0000 0000 0000 0000 0000 0000
00000030: 0000 0000 0000 0000 0000 0000 0000 0000
00000040: 0000 0000 0000 0000 0000 0000 0000 0000
00000050: 0000 0000 0000 0000 0000 0000 0000 0000
00000060: 0000 0000 0000 0000 0000 0000 0000 0000
00000070: 0000 0000 0000 0000 0000 0000 0000 0000
00000080: 0000 0000 0000 0000 0000 0000 0000 0000
00000090: 0000 0000 0000 0000 0000 0000 0000 0000
000000a0: 0000 0000 0000 0000 0000 0000 0000 0000
000000b0: 0000 0000 0000 0000 0000 0000 0000 0000
000000c0: 0000 0000 0000 0000 0000 0000 0000 0000
000000d0: 0000 0000 0000 0000 0000 0000 0000 0000
000000e0: 0000 0000 0000 0000 0000 0000 0000 0000
000000f0: 0000 0000 0000 0000 0000 0000 0000 0000
00000100: 0000 0000 0000 0000 0000 0000 0000 0000
00000110: 0000 0000 0000 0000 0000 0000 0000 0000
00000120: 0000 0000 0000 0000 0000 0000 0000 0000
00000130: 0000 0000 0000 0000 0000 0000 0000 0000
00000140: 0000 0000 0000 0000 0000 0000 0000 0000
00000150: 0000 0000 0000 0000 0000 0000 0000 0000
00000160: 0000 0000 0000 0000 0000 0000 0000 0000
00000170: 0000 0000 0000 0000 0000 0000 0000 0000
00000180: 0000 0000 0000 0000 0000 0000 0000 0000
00000190: 0000 0000 0000 0000 0000 0000 0000 0000
000001a0: 0000 0000 0000 0000 0000 0000 0000 0000
000001b0: 0000 0000 0000 0000 0000 0000 0000 0000
000001c0: 0000 0000 0000 0000 0000 0000 0000 0000
000001d0: 0000 0000 0000 0000 0000 0000 0000 0000
000001e0: 0000 0000 0000 0000 0000 0000 0000 0000
000001f0: 0000 0000 0000 0000 0000 0000 0000 0000
0.0 0.0 0.0 0.0 0.0 0.0 0.0 0.0
0.0 0.0 0.0 0.0 0.0 0.0 0.0 0.0
0.0 0.0 0.0 0.0 0.0 0.0 0.0 0.0
0.0 0.0 0.0 0.0 0.0 0.0 0.0 0.0
0.0 0.0 0.0 0.0 0.0 0.0 0.0 0.0
0.0 0.0 0.0 0.0 0.0 0.0 0.0 0.0
0.0 0.0 0.0 0.0 0.0 0.0 0.0 0.0
0.0 0.0 0.0 0.0 0.0 0.0 0.0 0.0
0.0 0.0 0.0 0.0 0.0 0.0 0.0 0.0
0.0 0.0 0.0 0.0 0.0 0.0 0.0 0.0
0.0 0.0 0.0 0.0 0.0 0.0 0.0 0.0
0.0 0.0 0.0 0.0 0.0 0.0 0.0 0.0
0.0 0.0 0.0 0.0 0.0 0.0 0.0 0.0
0.0 0.0 0.0 0.0 0.0 0.0 0.0 0.0
0.0 0.0 0.0 0.0 0.0 0.0 0.0 0.0
0.0 0.0 0.0 0.0 0.0 0.0 0.0 0.0

network_body.linear_encoder.seq_layers.2.weight f4 [128, 128]
00000000: c063 833c b900 24bd 5711 90bd cab7 3fbe
00000010: 99f5 e0bc a28f f83d ed61 823d 4bdc b33d
00000020: b516 0bbc 36c5 803b fdf5 94ba e750 26be
00000030: e2a0 313d a3ee dd3c e1a4 d73b 4d8e 2dbd
00000040: 8b5c 78bb b28e 013c 0f1c 103e 3d31 61bd
00000050: 11e0 593d f2a5 19bd 618b 88ba d6f7 963d
00000060: 3e66 eb3d 9537 d83c 1aa9 163e a259 fabd
00000070: 0ee1 b83d d855 b83c 7077 c5bd ae14 29bd
00000080: 3bf6 663d 7940 693d a9b2 f73d 90f5 2a3e
00000090: 1b97 843d aa57 f63c 7db6 43bc 4c0b 1abc
000000a0: ba78 dcbd fbd5 a1bc 7dee eebc 28bb b93d
000000b0: ab5e 103e 126c 63bd 9484 d13d 6baf 813d
000000c0: 1cd1 08bd 1647 b2bc 73cd 8a3d 7b56 48bd
000000d0: c557 4b3c 1f2a 5dbc b1d2 c1bc b16f 6bbd
000000e0: 8860 e0bd 8ec9 5f3d fd56 7a3c 2e33 2abe
000000f0: 19ca 133e 882b d23c af58 033e a6ac 843c
00000100: 750f 71bd 0564 3fbd bb02 1fbc 7bf0 12bd
00000110: 7879 68be 7f99 f4bc c666 b73d 9dd1 48bd
00000120: 7fe0 d3bb eb35 f6bc 2ce7 683c 8862 b4bd
00000130: 9b21 79be 2ca9 533e 0a13 ffbd a2da 863d
00000140: ea4a 80bc a009 5fbd 718f f3bc 1408 bd3d
00000150: 928e f8bd 9245 0abe 6a72 79bb d48c d3bc
00000160: e8b8 ef3c dcff 1c3e 78a0 d1bd 404c 1e3d
00000170: 27bf b7bd 6fa6 57bd 0b97 26bd 606d 06bc
00000180: 22e6 7c3d 14a2 8fbc 593b 2c3d c1c3 f4bd
00000190: c532 cdbd ee33 a8bd 689d ef3c 0449 0dbd
000001a0: 6f17 6cbd 2ba8 043e 72ec 133c 600d 04be
000001b0: 7855 2f3d f40a b0bd 6337 4bbe ea3b a1bd
000001c0: 62b5 423d 5921 f2bb 9acc 5b3d ff4f 33bd
000001d0: 5534 763d 1553 823c 0062 07be c326 a33c
000001e0: d3bd 14bd 258c b83c 4ac6 1a3e f998 073b
000001f0: 3a6b 1c3d 777b a6bc 41d4 babd 330b 8e3c
00000200: 28cf a23c 42bd 06bb 28de 6abd dc7f b5bd
00000210: 749e 213e d72f 593d 12bb 883a 64e1 5b3b
00000220: ca74 b7bd 63e6 113d 925a dc3d 7721 0d3e
00000230: 5291 55bd 7f94 c53d f570 af3d cfee d93d
00000240: 9782 cdbd 42d8 f43d ba64 a4bc 8c01 52be
00000250: ba3c e9bd 3962 bb3d 7cd3 8c3d 0a99 4a3d
00000260: 5f26 783a 6694 1cbd ec4f 07be e161 c7bd
00000270: 7b90 a33d a0ba ab3d 5b66 0e3e 7d45 0a3c
00000280: 8308 a4bd 6eb9 c13d 046a 593d c0b5 9cbd
00000290: c412 1a3d 61e9 88bd 6040 3cbc d9fc ba3c
000002a0: 110d 22bd b481 a73a 93dd 9a3c f3f5 b33b
000002b0: 0d8a 95bb d4ca c8bc d1b7 3f3c 71c4 c1b9
000002c0: cc05 523d 08b4 2a3e 2d96 4abb 6ed2 71bd
000002d0: 4464 48bc 3010 203e a5d6 203e 3200 91bc
000002e0: f9cf 8a3c 313a 823d 9b4d fb3c 4994 fc3d
000002f0: 4a29 143d d697 993d ddae c8bd 2908 0c3e
00000300: 17fe 2fbc 631e 823c 7c54 0cbe 8133 68b9
00000310: f6ba dd3d 001b 8bbd 3ce1 ecbd d85b e63d
00000320: 5abe 07be 6601 03be 3218 e0bd 4943 cebc
00000330: 9b5e fd3d 104b 603d 017e 273d 2afc 723d
00000340: f413 6b3d 7e03 293d a188 e8bc 2315 0bbc
00000350: 87e4 b8bd ce2c 95bc 7236 8d3d 05c8 3fbe
00000360: 20e1 70be bb07 97bd d233 063d f8f1 b6bd
00000370: 7fba bd3d 278d d23d 702e 8d3d 2688 3dbd
00000380: 271f 4abd 496b 68bd 10d3 233e 516e 92bb
00000390: 9176 59bd ebec 713d 3385 70ba 5182 18bd
000003a0: 8eeb b13d ebf1 dc3d ea03 6fbb 974f ce3d
000003b0: 0334 283d cf6f 533e 4add b2bc 5579 ce3c
000003c0: 626f 233e cb7f f2bd 9182 13be cd55 8abd
000003d0: ec18 443d aa9e b0bc 3a92 9bbc 3dcf 15bb
000003e0: 5925 9b3d 9f6c 29be 8765 ae3d be8d 2abd
000003f0: 9370 90bb 5e10 c13d ddca 0b3e ec94 4bbd
0.016038775 -0.04003975 -0.07034557 -0.18722454 -0.02746086 0.12136771 0.06366334 0.08782252
-0.0084893005 0.0039297594 -0.0011364814 -0.162418 0.04336632 0.02709133 0.0065809344 -0.042372037
-0.0037896957 0.007907556 0.14073204 -0.054978598 0.053192202 -0.037511773 -0.0010417515 0.0737149
0.114941105 0.026393691 0.14712945 -0.12224127 0.09027301 0.022501871 -0.096419215 -0.041279487
0.056387167 0.05694625 0.120946236 0.16695237 0.064741336 0.030071098 -0.011945364 -0.009402107
-0.10765214 -0.019755354 -0.029166454 0.090689 0.14098613 -0.055522986 0.102303654 0.063322864
-0.033402547 -0.021762412 0.067774676 -0.0489106 0.012411063 -0.013498812 -0.023660036 -0.057479564
-0.10955912 0.054635577 0.015279529 -0.16621086 0.14432563 0.025655523 0.12826799 0.016195606
-0.05885263 -0.046726245 -0.009705241 -0.03587387 -0.22702587 -0.029858349 0.08955149 -0.049028028
-0.006465971 -0.030055007 0.014215272 -0.08807856 -0.24329226 0.20670003 -0.12454803 0.0658467
-0.015660722 -0.05445254 -0.029731484 0.092300564 -0.12136568 -0.13503101 -0.003806258 -0.025823988
0.029262975 0.15331978 -0.10235685 0.038646936 -0.08972006 -0.052648958 -0.04067139 -0.008204788
0.06174291 -0.01753334 0.042048786 -0.119513996 -0.10019449 -0.0821303 0.029249862 -0.03449346
-0.057639536 0.12954776 0.009028541 -0.12895727 0.04280612 -0.08595839 -0.19845347 -0.07872756
0.04753626 -0.0073892293 0.05366192 -0.043777462 0.0601085 0.015908757 -0.13220978 0.019915944
-0.036313843 0.022527764 0.15114704 0.0020690544 0.038188197 -0.020322545 -0.091225155 0.017339325
0.01987417 -0.0020559584 -0.05734077 -0.08862278 0.15783101 0.05302414 0.0010431728 0.0033551091
-0.089578226 0.035620105 0.107594624 0.13782297 -0.05214054 0.09647464 0.08566467 0.10641252
-0.10034674 0.119553104 -0.020067561 -0.20508403 -0.11388536 0.09149594 0.06876275 0.049462356
0.0009466167 -0.03822746 -0.13214082 -0.09735466 0.07986542 0.08385205 0.13906233 0.008439419
-0.08009436 0.09459196 0.05307962 -0.076518536 0.037615553 -0.066851385 -0.011489958 0.022825645
-0.039563242 0.0012779743 0.018904483 0.005491966 -0.004563576 -0.024510778 0.01170154 -0.0003695819
0.05127506 0.16670239 -0.0030912266 -0.059038572 -0.012230936 0.15631175 0.1570688 -0.017700288
0.016944872 0.063587554 0.030676654 0.12332971 0.03617219 0.074996635 -0.097989775 0.13674988
-0.010741732 0.01588363 -0.13704103 -0.00022144431 0.108266756 -0.06792259 -0.115663975 0.112479866
-0.13256207 -0.12793502 -0.10942115 -0.025178568 0.1237156 0.054759085 0.04089165 0.059322514
0.057392076 0.041263096 -0.028385462 -0.008488926 -0.09027963 -0.018209841 0.0689515 -0.18728645
-0.23523378 -0.07374521 0.032764263 -0.089328706 0.09264087 0.10280829 0.06893623 -0.04627242
-0.049346115 -0.05674294 0.15998483 -0.004468717 -0.05309159 0.059063833 -0.00091751217 -0.037233654
0.086875066 0.1078833 -0.0036470839 0.10073774 0.041065227 0.2064812 -0.021834034 0.02520434
0.15960458 -0.11840781 -0.14405276 -0.067546465 0.04787533 -0.021560032 -0.018990625 -0.002285912
0.07575483 -0.16545342 0.085154586 -0.041639082 -0.004407951 0.0942695 0.13651605 -0.04970257

network_body.linear_encoder.seq_layers.2.bias f4 [128]
00000000: 0000 0000 0000 0000 0000 0000 0000 0000
00000010: 0000 0000 0000 0000 0000 0000 0000 0000
00000020: 0000 0000 0000 0000 0000 0000 0000 0000
00000030: 0000 0000 0000 0000 0000 0000 0000 0000
00000040: 0000 0000 0000 0000 0000 0000 0000 0000
00000050: 0000 0000 0000 0000 0000 0000 0000 0000
00000060: 0000 0000 0000 0000 0000 0000 0000 0000
00000070: 0000 0000 0000 0000 0000 0000 0000 0000
00000080: 0000 0000 0000 0000 0000 0000 0000 0000
00000090: 0000 0000 0000 0000 0000 0000 0000 0000
000000a0: 0000 0000 0000 0000 0000 0000 0000 0000
000000b0: 0000 0000 0000 0000 0000 0000 0000 0000
000000c0: 0000 0000 0000 0000 0000 0000 0000 0000
000000d0: 0000 0000 0000 0000 0000 0000 0000 0000
000000e0: 0000 0000 0000 0000 0000 0000 0000 0000
000000f0: 0000 0000 0000 0000 0000 0000 0000 0000
00000100: 0000 0000 0000 0000 0000 0000 0000 0000
00000110: 0000 0000 0000 0000 0000 0000 0000 0000
00000120: 0000 0000 0000 0000 0000 0000 0000 0000
00000130: 0000 0000 0000 0000 0000 0000 0000 0000
00000140: 0000 0000 0000 0000 0000 0000 0000 0000
00000150: 0000 0000 0000 0000 0000 0000 0000 0000
00000160: 0000 0000 0000 0000 0000 0000 0000 0000
00000170: 0000 0000 0000 0000 0000 0000 0000 0000
00000180: 0000 0000 0000 0000 0000 0000 0000 0000
00000190: 0000 0000 0000 0000 0000 0000 0000 0000
000001a0: 0000 0000 0000 0000 0000 0000 0000 0000
000001b0: 0000 0000 0000 0000 0000 0000 0000 0000
000001c0: 0000 0000 0000 0000 0000 0000 0000 0000
000001d0: 0000 0000 0000 0000 0000 0000 0000 0000
000001e0: 0000 0000 0000 0000 0000 0000 0000 0000
000001f0: 0000 0000 0000 0000 0000 0000 0000 0000
0.0 0.0 0.0 0.0 0.0 0.0 0.0 0.0
0.0 0.0 0.0 0.0 0.0 0.0 0.0 0.0
0.0 0.0 0.0 0.0 0.0 0.0 0.0 0.0
0.0 0.0 0.0 0.0 0.0 0.0 0.0 0.0
0.0 0.0 0.0 0.0 0.0 0.0 0.0 0.0
0.0 0.0 0.0 0.0 0.0 0.0 0.0 0.0
0.0 0.0 0.0 0.0 0.0 0.0 0.0 0.0
0.0 0.0 0.0 0.0 0.0 0.0 0.0 0.0
0.0 0.0 0.0 0.0 0.0 0.0 0.0 0.0
0.0 0.0 0.0 0.0 0.0 0.0 0.0 0.0
0.0 0.0 0.0 0.0 0.0 0.0 0.0 0.0
0.0 0.0 0.0 0.0 0.0 0.0 0.0 0.0
0.0 0.0 0.0 0.0 0.0 0.0 0.0 0.0
0.0 0.0 0.0 0.0 0.0 0.0 0.0 0.0
0.0 0.0 0.0 0.0 0.0 0.0 0.0 0.0
0.0 0.0 0.0 0.0 0.0 0.0 0.0 0.0

action_model._continuous_distribution.log_sigma f4 [1, 2]
00000000: 0000 0000 0000 0000
0.0 0.0

action_model._continuous_distribution.mu.weight f4 [2, 128]
00000000: 8f9b 943c 138f 143c 6f89 4a3c bb2d ed3b
00000010: 17a7 7abc 3fd7 75bb 1054 b2bc 4d89 d93b
00000020: 0bb0 33bd 5d13 a2bc c571 caba f664 c1bc
00000030: d26b 03bd 7c69 80bc bc3b 273c 70e6 cf3c
00000040: 3499 cb3b 8357 47bc 25df 66bc 6658 06bc
00000050: db66 b63c ca84 283d 2b27 d4bc 0076 7f3b
00000060: 4576 eb3b 871e f6bb 736e 663c 668d 493b
00000070: 3add adbc 0b07 e73c 2daa 0a3d 5acd c23c
00000080: c87d 333d c36d 373d d3ad 6e3b e2b5 dcbc
00000090: 9a4a 613c aee9 12bc 8aa7 88bc 5f04 5f3c
000000a0: 8c51 0c3d 57ad 323c f8d5 d43c 7cb5 973b
000000b0: 38e5 e1bb 22fb 6d3c 718f 263b 521c e13c
000000c0: 5554 b9bc 0a68 8cbc 89b6 0b3b e0c0 3bbc
000000d0: ad58 f0bb beb4 c6bc 7ef6 c23b a68c c73b
000000e0: d2a6 a03c f84d 623c 29aa 1bbb c3d8 963c
000000f0: e5ae 81bc 1b60 b8bc 471d 3dbc 852b 353c
00000100: 78c8 4f3c 0b93 593b 43c9 723c 1324 a0bb
00000110: dd67 11bc 1c66 043c ea44 a3ba 8fc3 86bc
00000120: cf43 37bc 887f 8abc b369 7abc 707f 343c
00000130: 0f72 74bc 579d 2dbc c220 a0bc af9d 513c
00000140: 00b6 8cbc 2b75 54bc 3fd2 163c 54d9 8dbc
00000150: 58cb 56bc 95ee 47bc d55a ed3c f312 30bc
00000160: 3353 e73b e06a 773c 8a0a ec3b dd3b 32bc
00000170: 971d a2bc b7b3 bb3c 5776 22bc df56 15bd
00000180: 4a28 b03a c08e 183d f52d 53bd 93bf dabc
00000190: 0f8d 243d cb8e d73c 2d30 32bb 302a 15bc
000001a0: 43f5 5c3c 972e 7e3c 1235 783c 1fe6 e4bc
000001b0: 9dd9 803c 2924 0abd 0261 9e3c c81c e8bb
000001c0: bbf5 d33c 1f7f 33bd 2371 88bc f7a1 95bc
000001d0: 2373 eeba 3f92 8abc eb5b fcba 7763 36ba
000001e0: 1cab a23a 8f66 3cbc 034e ba3b 1f4c 8e3c
000001f0: d03a 693b 177a 61bc 0e6f 27bd 639f c0bb
00000200: 18b4 8cbc 7b7f 2ebc 2017 e2bc d720 ad3c
00000210: 1d09 7abc 2b7e 783b f9a9 4a3b 07ff a4bb
00000220: a211 32bc 6d78 ddbc 66e3 a53c 975a a73c
00000230: 3931 123d 5b28 ea3c e7a6 db3b dae4 673c
00000240: 7910 25bc c6a6 00bc 843f 353b 6f15 f83b
00000250: 18ae 1bbd cf52 94bc 3ba9 3fbb 3710 06bd
00000260: 1c76 9dbc 89bf 0f3b 42ed 5c3c 33d1 c9bb
00000270: 5d43 673b e8fb e7bb 2bad 2dbc addd c6bb
00000280: 1ead b53a 6f22 f239 3b20 38bc f3a9 133c
00000290: c32d 083c 131e b23b f7bb b33b 9125 0dbd
000002a0: 6bce 7c3b 3a24 7b3c 60bb 3fbd 7764 393c
000002b0: b32c 0f3c 2563 dabc 6c01 a13c f707 213d
000002c0: ae42 b2bc 7d30 4e3c db64 a8bb 2254 e53c
000002d0: 6c42 3139 1069 44bb e2d6 cbbc f9e1 4bbb
000002e0: 339c 8e3c e1b4 253d c8b4 873b 23a3 2b3c
000002f0: 2fcf e8bb d59a e5bc 0f00 8ebc 6490 ac3c
00000300: 346e 24bd 0ec1 91ba 4ac0 983c 7ffa 583c
00000310: 0a8d 073c 8344 8dbb 33dd 1bbc 7a78 bebc
00000320: 4bba 023d 1f1d 673c c3bd f43b 5350 543c
00000330: 82b2 183b 7f2f 2c3c 1f62 8d3c 20aa 09bb
00000340: c512 72bb 0047 0e3d abe4 f33a 1b8b ae3c
00000350: 33a5 0e3d ed84 d5ba 50f7 5abc edbb 933c
00000360: 37d7 1a3a 7f43 00bd e3eb e63b 75bf a33a
00000370: a7e7 95bc afb9 8a3a 6838 88bc 5ade 76bc
00000380: a71c b53c 4378 19bc e794 7f3c 5298 6b3c
00000390: c864 c9ba 3bdf 663c d557 82bb 84b4 8bbb
000003a0: e1b1 a4bc ec16 b239 f7de 763c c323 b9bc
000003b0: 903f 8dbb 23ba 00bc f060 163c f608 b73b
000003c0: 3e85 393b c7bc fd3c 9729 253b 0130 8c3c
000003d0: 5e5d aabb 9647 803c d483 933b 97e8 383c
000003e0: ff66 973c c8c5 cd3c 15a6 503c 9085 b0bc
000003f0: 73ff b4bb 7d7d 1bbc e73f 9dba f78c 703c
0.018140582 0.009067315 0.012361868 0.0072381175 -0.015298626 -0.003751233 -0.0217686 0.006638682
-0.04386906 -0.019784624 -0.0015445283 -0.023607712 -0.032085247 -0.015675299 0.010207113 0.025378436
0.0062133316 -0.0121668605 -0.014091288 -0.008199787 0.022265842 0.041142263 -0.025897583 0.0038980246
0.0071857297 -0.0075109634 0.014064419 0.0030754446 -0.021223653 0.0282016 0.0338537 0.02377956
0.043821126 0.04478241 0.0036419525 -0.026942197 0.013750697 -0.008966846 -0.016681451 0.013611882
0.034257457 0.010905585 0.025980935 0.004629789 -0.00689378 0.014525207 0.0025415088 0.027479324
-0.02262322 -0.017139453 0.0021318516 -0.011459559 -0.0073347897 -0.024256106 0.0059497943 0.0060897646
0.019610796 0.0138125345 -0.0023752546 0.018413907 -0.015830467 -0.022506764 -0.011542625 0.011057739
0.012682073 0.0033199217 0.014818492 -0.004887113 -0.008874861 0.008080985 -0.0012456451 -0.016450671
-0.0111856 -0.016906515 -0.01528399 0.011016712 -0.014919772 -0.010596595 -0.01954687 0.012793942
-0.017176628 -0.012967388 0.0092054 -0.017315544 -0.013110004 -0.0122028785 0.028973976 -0.010746705
0.0070594787 0.015101165 0.007203405 -0.01087853 -0.0197895 0.022912843 -0.00991591 -0.0364598
0.0013439741 0.037245512 -0.0515575 -0.026702678 0.040173586 0.026313206 -0.002718936 -0.009104297
0.013486209 0.015514038 0.015149372 -0.027941762 0.015728766 -0.03372589 0.019333366 -0.007083509
0.02587401 -0.043822404 -0.01665551 -0.018265707 -0.0018192272 -0.016915439 -0.0019253468 -0.00069575704
0.0012410614 -0.011499061 0.0056855693 0.017370282 0.0035588033 -0.013762019 -0.040877394 -0.0058783754
-0.01717572 -0.010650511 -0.027598917 0.021133823 -0.015260962 0.0037917 0.0030924066 -0.0050352844
-0.010868462 -0.027034963 0.020250034 0.020428939 0.035691474 0.028583696 0.006703246 0.014153684
-0.010074728 -0.007852262 0.0027656266 0.0075709145 -0.038007826 -0.018105892 -0.0029245156 -0.032730307
-0.019221358 0.0021934232 0.013484301 -0.0061589717 0.0035287954 -0.00707959 -0.0106003685 -0.0060689063
0.0013860797 0.00046183492 -0.011238153 0.009012687 0.008311692 0.005435714 0.0054850536 -0.034459654
0.0038575183 0.015328461 -0.046809554 0.011315457 0.0087386845 -0.026658604 0.019653998 0.039314236
-0.021760311 0.012584803 -0.005138976 0.02799422 0.0001690478 -0.0029969849 -0.024882738 -0.0031110032
0.017408466 0.040455703 0.004141424 0.010475907 -0.0071047763 -0.028027931 -0.017334012 0.021064945
-0.04014416 -0.0011120157 0.018646378 0.013243317 0.008273372 -0.0043111457 -0.009513187 -0.023250807
0.031915944 0.014106064 0.0074689104 0.012958604 0.0023299758 0.010509371 0.017258702 -0.0021005943
-0.0036937457 0.03473568 0.0018607577 0.021306565 0.034825515 -0.0016290225 -0.013364628 0.018033946
0.00059067033 -0.03131437 0.007047163 0.0012492972 -0.018298937 0.0010583902 -0.01662846 -0.015067661
0.022108389 -0.009367052 0.015599466 0.014379578 -0.0015365118 0.014091308 -0.0039777556 -0.0042634625
-0.02010435 0.00033967884 0.015067807 -0.02260006 -0.0043105558 -0.007856878 0.009178385 0.005585785
0.0028308178 0.030973805 0.0025201791 0.017112734 -0.0051991185 0.015659135 0.004501799 0.0112859225
0.01848173 0.025118724 0.01273491 -0.021548063 -0.005523616 -0.009490368 -0.0011997194 0.014682046

action_model._continuous_distribution.mu.bias f4 [2]
00000000: 0000 0000 0000 0000
0.0 0.0

network_body.linear_encoder.seq_layers.0.weight f4 [128, 6]
00000000: e19d b1bd 0458 1ebf 67ec c63d 2815 2e3e
00000010: 0119 5bbf 17c9 ff3e 36f1 05bf 7208 f93d
00000020: 8809 6dbc 057e b83d b38b 6f3d ac1e 0f3e
00000030: 25dd c93c e7ec bb3d 71a3 e43e b4b7 e93e
00000040: 5083 8f3d ae88 adbe 0e5b b23e 313c a73e
00000050: 2b2f 3c3e 1423 68be ceb3 55be 9a47 24be
00000060: 4ace f1bd 54aa 563e d332 513e ed43 0e3f
00000070: 5f3e 103d 9926 773e cfc4 3ebe 40cf 84bd
00000080: 9766 963d ac0e 12bf 5213 b4be b09e 0d3f
00000090: 59e7 3b3f e0bf 153e 69ce 3bbd fb46 3d3d
000000a0: 5be5 68be 704b f6be d58d c9bd 5a4f 1fbe
000000b0: a1ef 85bf 4051 6ebe 1fbe c1be 45cd bb3e
000000c0: ecff 54bf c1e8 023d 1c3d b63f 08b3 ae3e
000000d0: 8dbd 4c3d 7d11 91be 379f 083d 958e 3a3f
000000e0: d806 c5bd a48a f63c 5de7 163e 64fc 53be
000000f0: b72f eb3e 4816 04bf 02d7 053e 7824 b63d
00000100: 4208 5cbe 998d de3c 8d2c 4abe 3054 0c3f
00000110: 5f3c 0dbe ad08 873e 58ad 573f 3675 033f
00000120: b3c9 d7be a5ff 81be cf2b bb3e edba 793e
00000130: 7fa1 2c3e 5093 9dbd f657 f13d 9d8f e53e
00000140: 182f cbbe 530d 853d b211 01bf fc4f b0be
00000150: 16e3 b83e 0eff 29bf 86af 163f b718 2b3e
00000160: 6ea8 f8be 9141 573e e597 eb3e 8a9f f93e
00000170: c66e f7be 5570 e83d 066b 1abf 3ec9 1fbe
00000180: 053c a13e f27d 083e 55a9 923d db07 063f
00000190: 2970 45bf dca3 d23e 3aa7 773e d047 a5be
000001a0: a938 02bd ece5 3a3f 3593 1b3f 730b 8fbf
000001b0: 10c2 eb3e 3419 a6bd 7122 2f3e 25b0 ce3d
000001c0: e0d8 8e3e 40ec d83d 248c 673c 2c49 763f
000001d0: a740 9f3e f97f 3ebe 9ef1 60be cac0 11be
000001e0: c2a9 093e d569 e43e 1c24 debe 8c35 f3be
000001f0: 2bc3 15bd 0505 51bf d9dd b4bd 276f 273c
00000200: 4fb4 00bf cb01 d8be cc80 f23e 36d7 61be
00000210: fc9b e3be 149d b63e fdab 4e3b 9654 3cbe
00000220: 498a e53a a74f 373f a01e 69bf cd29 92be
00000230: fe01 763e 083b ed3e 95f8 193e cdc6 8f3e
00000240: 77bd a1be ebd0 ca3e 30b5 9cbe 6f14 a33d
00000250: daa9 08bf af81 c1bd cefe 86be 9e32 a1bd
00000260: c47d 863e 6461 80bb d10f e7be 2e43 e7bc
00000270: 9c41 88be 9f56 36bf eca2 2fbf d2fe 75be
00000280: fd1e ccbe 13be 05be 2a97 91be a8d6 c43d
00000290: 93c7 b9be ebb1 86bf 5970 dabe f068 383e
000002a0: ec1d 5c3e c3a6 383d 9c9e 87be 722d 2b3f
000002b0: e69c 443e 24ee 9e3e 1124 e63e 8a3b 07bd
000002c0: faac 1ebe f34d 3fbe 02f8 e03e 0b4f ec3e
000002d0: d86c f43e e3e8 6d3f a17b 89be 1f7c b93e
000002e0: 56d7 be3e b1ec 4d3e 7b4b e23e d514 5bbd
000002f0: caf7 42be e148 933e cc94 31bf 6626 d53e
00000300: f8c9 cebc 5d18 2abe d97a 19bf 44b5 363e
00000310: 9a84 e7bc 43b6 06bd 9324 afbd 91ab 113e
00000320: c736 02bf a8ed 8d3d ed3a 983e 1738 48bf
00000330: 78bc 13bf ecf9 073f a933 a9bd 50b4 5fba
00000340: 76a7 dc3e a495 803d 613e fdbc ced7 7b3f
00000350: 3814 bb3e 103d ec3e 8294 093e 5434 903f
00000360: 4085 063e f07b da3e d67e 0f3f f55d c5be
00000370: e5cc 33bf 12ab bbbe 96d2 2f3e 41ba 71be
00000380: 4a48 a2bd d16a 37bf 0a95 07be bb74 4abf
00000390: fdc1 d23e 7bee e43e 5790 0abe fb8e 8d3d
000003a0: 46c8 56be 0aad 06bf 4b3c 1d3e 4959 4d3e
000003b0: d2c7 fa3e 3887 7b3d 26f9 0c3f a5b0 64bf
000003c0: 817e f93e afc4 1e3f ac4d 23be e569 3ebf
000003d0: cffd b43d c1d3 c0bd 98d6 5a3d a2d9 22be
000003e0: ad29 2bbe 9eae aa3d 458c 523f 84c8 bb3e
000003f0: bdab fbbd 1fd3 65be 5f5b 8fbe 05aa d03e
-0.08672691 -0.6185305 0.09713059 0.17000258 -0.8558503 0.49958107 -0.52321184 0.12159814
-0.014467604 0.09008411 0.058482837 0.13976544 0.024641583 0.09176045 0.44655946 0.45647967
0.07007468 -0.3389334 0.34835094 0.3266311 0.18377368 -0.22669631 -0.20869371 -0.16042939
-0.11806925 0.20963413 0.20429544 0.55572397 0.03521573 0.24135818 -0.18629764 -0.06484842
0.07343786 -0.5705364 -0.3517099 0.5532026 0.73399884 0.14623976 -0.045851145 0.04621027
-0.22743742 -0.4810443 -0.098415054 -0.15557614 -1.0463754 -0.23273182 -0.37840363 0.36680046
-0.83203006 0.031960253 1.4237399 0.34120965 0.049985457 -0.28333655 0.033354964 0.7287381
-0.09620446 0.030095406 0.14736696 -0.20701748 0.4593484 -0.515965 0.130703 0.088936746
-0.21487525 0.027167128 -0.19743557 0.5481596 -0.13792561 0.26373807 0.84248877 0.51350725
-0.42146072 -0.25390354 0.3655686 0.24387713 0.16858481 -0.07694113 0.11784355 0.4483613
-0.39684367 0.06496682 -0.50417626 -0.34436023 0.36110753 -0.6640481 0.5886158 0.16708647
-0.48566002 0.21021105 0.46014324 0.4875453 -0.483267 0.11349551 -0.60319555 -0.15604112
0.31491104 0.13329294 0.07161204 0.52355736 -0.7712427 0.4114064 0.24184886 -0.3228135
-0.031792317 0.7300708 0.60771495 -1.1175369 0.46046495 -0.08110276 0.17102982 0.10092191
0.27899837 0.10591936 0.014132533 0.962054 0.31104013 -0.18603505 -0.2196717 -0.142337
0.13443664 0.44611993 -0.43386924 -0.4750179 -0.03656308 -0.81648284 -0.088313766 0.010219372
-0.5027513 -0.42188868 0.4736389 -0.22054753 -0.44454944 0.35666716 0.0031535618 -0.18391642
0.0017512526 0.71605915 -0.91062355 -0.28547516 0.24024197 0.463341 0.15036233 0.2808136
-0.31589863 0.39612517 -0.30606985 0.07962882 -0.5338417 -0.09448563 -0.26366276 -0.078709826
0.26267827 -0.00391786 -0.45129254 -0.028230276 -0.26612556 -0.71225923 -0.68607974 -0.24022987
-0.39867392 -0.13060789 -0.28435642 0.09611255 -0.36285076 -1.0523046 -0.4266384 0.1800878
0.2149579 0.04508091 -0.26488197 0.6686622 0.19200477 0.31041062 0.4494939 -0.033015765
-0.15495673 -0.18682079 0.43939215 0.46154055 0.4773929 0.9293348 -0.26852134 0.3622751
0.37273663 0.20109822 0.44198212 -0.053486664 -0.19039837 0.2876654 -0.6936767 0.41630858
-0.02524279 -0.16610856 -0.59953076 0.17842585 -0.028261472 -0.032888662 -0.08551898 0.14225604
-0.50864834 0.06930095 0.29732457 -0.78210586 -0.57709455 0.53115726 -0.082618065 -0.00085336436
0.43096513 0.06278542 -0.030913534 0.98376167 0.36538863 0.46140337 0.13435557 1.1265969
0.13136768 0.42672682 0.5605291 -0.38548246 -0.7023452 -0.36653954 0.17170176 -0.23606206
-0.07923944 -0.71647364 -0.13240448 -0.79084367 0.41163626 0.44713196 -0.13531624 0.06912037
-0.20974836 -0.52607787 0.15355031 0.20053591 0.48980576 0.06140825 0.5506767 -0.8933204
0.48729327 0.62018865 -0.15947598 -0.7438033 0.08837473 -0.09415389 0.05342731 -0.15903333
-0.16715117 0.08334087 0.82245284 0.3667642 -0.12288616 -0.22443818 -0.27999398 0.40754715

network_body.linear_encoder.seq_layers.0.bias f4 [128]
00000000: 0000 0000 0000 0000 0000 0000 0000 0000
00000010: 0000 0000 0000 0000 0000 0000 0000 0000
00000020: 0000 0000 0000 0000 0000 0000 0000 0000
00000030: 0000 0000 0000 0000 0000 0000 0000 0000
00000040: 0000 0000 0000 0000 0000 0000 0000 0000
00000050: 0000 0000 0000 0000 0000 0000 0000 0000
00000060: 0000 0000 0000 0000 0000 0000 0000 0000
00000070: 0000 0000 0000 0000 0000 0000 0000 0000
00000080: 0000 0000 0000 0000 0000 0000 0000 0000
00000090: 0000 0000 0000 0000 0000 0000 0000 0000
000000a0: 0000 0000 0000 0000 0000 0000 0000 0000
000000b0: 0000 0000 0000 0000 0000 0000 0000 0000
000000c0: 0000 0000 0000 0000 0000 0000 0000 0000
000000d0: 0000 0000 0000 0000 0000 0000 0000 0000
000000e0: 0000 0000 0000 0000 0000 0000 0000 0000
000000f0: 0000 0000 0000 0000 0000 0000 0000 0000
00000100: 0000 0000 0000 0000 0000 0000 0000 0000
00000110: 0000 0000 0000 0000 0000 0000 0000 0000
00000120: 0000 0000 0000 0000 0000 0000 0000 0000
00000130: 0000 0000 0000 0000 0000 0000 0000 0000
00000140: 0000 0000 0000 0000 0000 0000 0000 0000
00000150: 0000 0000 0000 0000 0000 0000 0000 0000
00000160: 0000 0000 0000 0000 0000 0000 0000 0000
00000170: 0000 0000 0000 0000 0000 0000 0000 0000
00000180: 0000 0000 0000 0000 0000 0000 0000 0000
00000190: 0000 0000 0000 0000 0000 0000 0000 0000
000001a0: 0000 0000 0000 0000 0000 0000 0000 0000
000001b0: 0000 0000 0000 0000 0000 0000 0000 0000
000001c0: 0000 0000 0000 0000 0000 0000 0000 0000
000001d0: 0000 0000 0000 0000 0000 0000 0000 0000
000001e0: 0000 0000 0000 0000 0000 0000 0000 0000
000001f0: 0000 0000 0000 0000 0000 0000 0000 0000
0.0 0.0 0.0 0.0 0.0 0.0 0.0 0.0
0.0 0.0 0.0 0.0 0.0 0.0 0.0 0.0
0.0 0.0 0.0 0.0 0.0 0.0 0.0 0.0
0.0 0.0 0.0 0.0 0.0 0.0 0.0 0.0
0.0 0.0 0.0 0.0 0.0 0.0 0.0 0.0
0.0 0.0 0.0 0.0 0.0 0.0 0.0 0.0
0.0 0.0 0.0 0.0 0.0 0.0 0.0 0.0
0.0 0.0 0.0 0.0 0.0 0.0 0.0 0.0
0.0 0.0 0.0 0.0 0.0 0.0 0.0 0.0
0.0 0.0 0.0 0.0 0.0 0.0 0.0 0.0
0.0 0.0 0.0 0.0 0.0 0.0 0.0 0.0
0.0 0.0 0.0 0.0 0.0 0.0 0.0 0.0
0.0 0.0 0.0 0.0 0.0 0.0 0.0 0.0
0.0 0.0 0.0 0.0 0.0 0.0 0.0 0.0
0.0 0.0 0.0 0.0 0.0 0.0 0.0 0.0
0.0 0.0 0.0 0.0 0.0 0.0 0.0 0.0

network_body.linear_encoder.seq_layers.2.weight f4 [128, 128]
00000000: e929 51be a1fb 943d 9aff b6bd 14a9 533c
00000010: b770 04be d962 d83d 02df 6bbe 4cf9 25bd
00000020: 68c9 873d ce16 4b3d 6fc4 c33c 0307 f83d
00000030: b7ca c3bd 868b 3d3e 0090 1fbe 56d4 44bd
00000040: c009 1ebd c82d b3bd c4cc 9ebc 0998 95bd
00000050: a576 0a3e c2f6 48bc 503e 40bd 770c a2bc
00000060: 60ec 1abd 3400 09bd 6db5 48bd 2275 41bd
00000070: 1e65 e8bc 6262 61bd f98c 8bbd 1398 d2bc
00000080: 7a2b 23bd 3147 c8bd 598e bf3c 1597 54bd
00000090: a9fa 8f3d 173a 7f3c 8553 c1bc 9c41 9e3d
000000a0: a72e f63d 99da 42be a6f9 643d 3664 a439
000000b0: 5065 593d d1ea e53d ae0f 9fbd 4734 de3c
000000c0: b86a 623d 8f0b 85bc 615c e9bc 9229 103e
000000d0: 9846 873d b90e 203c a50d dbba c636 3e3d
000000e0: 389a 96bd 07ad e9bc 2985 6b3d c44a 96bd
000000f0: eb4d 2c3d fb5f 6d3d f4fc bfbd 384e b3bc
00000100: 1baa c13c 720f 0cbe 9ded b43c a6bf 75bd
00000110: 0003 3bbe 12ef 373d 40a0 313d 853d e6bd
00000120: 7e56 b83d 101d f33d 2014 093e e367 7f3d
00000130: f3e2 823c 03a2 043e 873e 913c 2516 9fbd
00000140: 9fbb 093d e46d ba3d 92cc fabc c841 0c3e
00000150: ee9a 6b3d e020 bcbc 913f 29bc c128 8f3d
00000160: fe08 423d cb13 1b3d e6f8 9b3d fb96 1dbe
00000170: 4c99 593c b51f d9ba 2eb5 a43d b2a4 75bd
00000180: c211 e3bd b77b a2bd 64a0 d9bd 8b59 093d
00000190: 38d9 8ebd e136 60be ab5f 133d ae18 083e
000001a0: ce85 413d 8fcb 37bb 8bff 823a 7dbd b83d
000001b0: 3ce2 42be 4504 06be ed0d 48bc f8c8 7e3d
000001c0: 817b ed3d 0224 bdbc 4a92 f7bc e15e ccbd
000001d0: c863 ce3c a257 8ebd 0cbe 8ebd 4101 28bd
000001e0: a09e f13c de40 843d 0aae 7a3d 9339 793d
000001f0: f6e3 fe3c 5e8e 0f3e 6cc1 b3bd 7442 223d
00000200: fafd 693d b3d1 49bd 6180 dabd d6b9 923d
00000210: 6269 51bd e6e0 863c bc0d 8cbd e805 773d
00000220: aa43 03bd 6af8 913d 7c86 9a3d 4807 3a3d
00000230: e29c 323d 0098 493c eadd da3d a01f cb3c
00000240: 55c5 a53c 366d bd3d 52ad 313c 4eca 39bd
00000250: d7f9 d83c 81f7 d13d 96f7 453d 7d45 553c
00000260: d758 e13c c4c2 05bd dd70 a5bd 595e 7d3d
00000270: 9c4c c4ba d0eb 17be 9637 923c 495a d23b
00000280: f730 9bbd 26f8 b53d d030 bd3c c646 cfbd
00000290: 5277 8f3d a566 2e3e b7a7 3dbe 2e9f abbd
000002a0: ca8c dd3d f81a b5bc 8d59 303d 6c08 f83c
000002b0: 759e a5bd baba a73d 05e6 8dbd 563f cabd
000002c0: 52af 573e 6a6e a73d 8db6 13bd 2ada 25bd
000002d0: bcf8 613d d6d1 fbbd f3fc a43d 0bc2 24be
000002e0: c90f 6c3c 856c 5cbd b08c 493d dc68 82bc
000002f0: 4621 22bd a7e7 2f3e 1320 c8bc c8ed 1abd
00000300: 9899 b2bd 35c4 2abc 8342 583d 155b 0dbe
00000310: 28f6 bc3d 5763 28bb 825b 40bd 0b7c b73c
00000320: 5987 d4bc 825b 723d f71f 68bd cf26 7cbd
00000330: cd8e 82bd 0589 e6bd 4391 e73d 6b13 a9bd
00000340: 84bb f93d fc64 983c 32e6 de3c 552e f13d
00000350: 9bde 12be c5ad fd3c eacc 323e 31f3 993d
00000360: 71b8 a9bd 3096 af3d 27b0 d93c 9b05 c23c
00000370: 52a6 d43d b5e9 1d3e 8428 4bbd 2495 073c
00000380: 26ce 9f3c d313 81bd 3513 163d 2e9c bf3d
00000390: b780 cfbd bef4 acbc 34b2 c03d c8c4 aabb
000003a0: 4dfe 413e a1e4 e2bc e2e4 de3c 050e 573d
000003b0: f197 d4bd 1490 ce3d 8eb1 5c3d 1f2b d93d
000003c0: c415 f93c 1445 06be 7f3d 093d d108 c5bd
000003d0: 4fde fa3d 2a21 a03d ebef 03bc 311b 623d
000003e0: 1134 c6bd 7022 003d 258b a5bd 2225 1f3d
000003f0: a076 a6bd c02e 5e3d 9e62 efbc 128d d33b
-0.20426144 0.07274557 -0.08935471 0.012918729 -0.12933622 0.10565729 -0.2303429 -0.04052095
0.06630212 0.049582295 0.023897378 0.121107124 -0.09560149 0.18510255 -0.15582275 -0.04805406
-0.038583517 -0.087489665 -0.01938475 -0.07304389 0.13521822 -0.012265863 -0.046934426 -0.019781334
-0.03782308 -0.03344746 -0.049001146 -0.047230847 -0.028368529 -0.055025466 -0.06813998 -0.02570728
-0.039836384 -0.09779204 0.023383306 -0.051901896 0.070302315 0.015577815 -0.023599396 0.07727358
0.12020617 -0.19028701 0.055902146 0.0003135518 0.053075135 0.11226428 -0.077666625 0.027124537
0.055277556 -0.016240863 -0.028486433 0.14078358 0.066052616 0.009769135 -0.001671244 0.046438955
-0.07353634 -0.028524889 0.05750004 -0.07338479 0.042066496 0.057952862 -0.09374419 -0.021887884
0.023640683 -0.13677767 0.02208596 -0.059997223 -0.18262863 0.04490573 0.043365717 -0.11242203
0.09000872 0.118707776 0.13386583 0.062354933 0.015977358 0.12952428 0.01773001 -0.077678956
0.033626195 0.09102991 -0.030615125 0.13696969 0.0575208 -0.022964895 -0.010330097 0.06990195
0.047371857 0.037860673 0.07615833 -0.15389626 0.013281178 -0.0016565236 0.0804237 -0.05997152
-0.110873714 -0.07933753 -0.10626295 0.03353266 -0.06975025 -0.21895935 0.035979908 0.13290665
0.047246747 -0.0028044914 0.0009994371 0.09020517 -0.19031614 -0.13087566 -0.012210351 0.062203377
0.11595822 -0.023088459 -0.030221123 -0.09979034 0.025194064 -0.069503084 -0.06969842 -0.04101682
0.029494584 0.06457685 0.061201133 0.060845923 0.03111456 0.14019153 -0.08777127 0.039614156
0.057126977 -0.04927225 -0.106690176 0.07164352 -0.05112589 0.016464662 -0.06838557 0.060308367
-0.03204695 0.07127459 0.07545182 0.0454171 0.043606646 0.012304306 0.10686858 0.024795353
0.020235697 0.09249346 0.010844545 -0.04535895 0.02648632 0.10252286 0.04833182 0.013017056
0.027508182 -0.032656446 -0.080781676 0.061857555 -0.0014976445 -0.14836049 0.017848771 0.0064194542
-0.07577699 0.08885221 0.023094565 -0.10120921 0.070051804 0.17031343 -0.1852101 -0.083799705
0.10817869 -0.022107586 0.043054152 0.030277453 -0.08086864 0.08189912 -0.06928638 -0.098753616
0.21062973 0.08175357 -0.036062766 -0.04049126 0.055168852 -0.122958824 0.08056059 -0.16089647
0.01440806 -0.05381443 0.049206436 -0.015919141 -0.039582513 0.17178212 -0.024429357 -0.037824422
-0.08720702 -0.010422756 0.052797806 -0.13804276 0.09226638 -0.0025693977 -0.04696227 0.022398015
-0.025943445 0.0591693 -0.05667111 -0.06156045 -0.06374893 -0.11256603 0.11307003 -0.08255657
0.12193969 0.01860284 0.027209375 0.11776415 -0.1434273 0.030966649 0.17460981 0.07517088
-0.082871325 0.08573568 0.026573254 0.023684314 0.103832856 0.15421183 -0.049599186 0.008275304
0.019507479 -0.06302609 0.03663941 0.09355961 -0.10131972 -0.021112796 0.094089895 -0.0052114464
0.18944664 -0.02769691 0.02720875 0.052503604 -0.10380543 0.100860745 0.053880267 0.10603928
0.030405886 -0.13112289 0.033505913 -0.09620822 0.12249433 0.078188255 -0.008052806 0.055201713
-0.096779 0.031282842 -0.0808318 0.038853772 -0.08128095 0.054243803 -0.029221829 0.006456026

network_body.linear_encoder.seq_layers.2.bias f4 [128]
00000000: 0000 0000 0000 0000 0000 0000 0000 0000
00000010: 0000 0000 0000 0000 0000 0000 0000 0000
00000020: 0000 0000 0000 0000 0000 0000 0000 0000
00000030: 0000 0000 0000 0000 0000 0000 0000 0000
00000040: 0000 0000 0000 0000 0000 0000 0000 0000
00000050: 0000 0000 0000 0000 0000 0000 0000 0000
00000060: 0000 0000 0000 0000 0000 0000 0000 0000
00000070: 0000 0000 0000 0000 0000 0000 0000 0000
00000080: 0000 0000 0000 0000 0000 0000 0000 0000
00000090: 0000 0000 0000 0000 0000 0000 0000 0000
000000a0: 0000 0000 0000 0000 0000 0000 0000 0000
000000b0: 0000 0000 0000 0000 0000 0000 0000 0000
000000c0: 0000 0000 0000 0000 0000 0000 0000 0000
000000d0: 0000 0000 0000 0000 0000 0000 0000 0000
000000e0: 0000 0000 0000 0000 0000 0000 0000 0000
000000f0: 0000 0000 0000 0000 0000 0000 0000 0000
00000100: 0000 0000 0000 0000 0000 0000 0000 0000
00000110: 0000 0000 0000 0000 0000 0000 0000 0000
00000120: 0000 0000 0000 0000 0000 0000 0000 0000
00000130: 0000 0000 0000 0000 0000 0000 0000 0000
00000140: 0000 0000 0000 0000 0000 0000 0000 0000
00000150: 0000 0000 0000 0000 0000 0000 0000 0000
00000160: 0000 0000 0000 0000 0000 0000 0000 0000
00000170: 0000 0000 0000 0000 0000 0000 0000 0000
00000180: 0000 0000 0000 0000 0000 0000 0000 0000
00000190: 0000 0000 0000 0000 0000 0000 0000 0000
000001a0: 0000 0000 0000 0000 0000 0000 0000 0000
000001b0: 0000 0000 0000 0000 0000 0000 0000 0000
000001c0: 0000 0000 0000 0000 0000 0000 0000 0000
000001d0: 0000 0000 0000 0000 0000 0000 0000 0000
000001e0: 0000 0000 0000 0000 0000 0000 0000 0000
000001f0: 0000 0000 0000 0000 0000 0000 0000 0000
0.0 0.0 0.0 0.0 0.0 0.0 0.0 0.0
0.0 0.0 0.0 0.0 0.0 0.0 0.0 0.0
0.0 0.0 0.0 0.0 0.0 0.0 0.0 0.0
0.0 0.0 0.0 0.0 0.0 0.0 0.0 0.0
0.0 0.0 0.0 0.0 0.0 0.0 0.0 0.0
0.0 0.0 0.0 0.0 0.0 0.0 0.0 0.0
0.0 0.0 0.0 0.0 0.0 0.0 0.0 0.0
0.0 0.0 0.0 0.0 0.0 0.0 0.0 0.0
0.0 0.0 0.0 0.0 0.0 0.0 0.0 0.0
0.0 0.0 0.0 0.0 0.0 0.0 0.0 0.0
0.0 0.0 0.0 0.0 0.0 0.0 0.0 0.0
0.0 0.0 0.0 0.0 0.0 0.0 0.0 0.0
0.0 0.0 0.0 0.0 0.0 0.0 0.0 0.0
0.0 0.0 0.0 0.0 0.0 0.0 0.0 0.0
0.0 0.0 0.0 0.0 0.0 0.0 0.0 0.0
0.0 0.0 0.0 0.0 0.0 0.0 0.0 0.0

value_heads.value_heads.extrinsic.weight f4 [1, 128]
00000000: 19f7 46be 1105 153e 989f d83d 7b68 8e3c
00000010: 642e e43d e040 44be 02bb 6e3d a4be e43d
00000020: a756 05bd c783 1a3e b312 343d 4404 293e
00000030: 22c7 0a3e a627 123e 0606 0cbe c60e 973b
00000040: 6f32 e3bd 93d9 f43c 844d f93d 6a3b c33b
00000050: 39aa fc3d 8878 493e e6cc 52be 75bc 0a3e
00000060: 0830 59be 53b5 183e f8d4 023c 8dca ccbd
00000070: ec50 7a3c 7346 0c3e dd63 203e 4959 adbb
00000080: fd23 e83c 16d1 d03d caf7 233e dd01 f23d
00000090: 877b fd3d d35f 09be 2e36 eabd 4947 5cbe
000000a0: 6ecb d5bd b6bd a5bd 6085 87bd 38bc 8d3b
000000b0: 4a88 30be 5334 18be 7e60 d13c 9cc6 853b
000000c0: 2c76 653d 55fe a3bd 1a16 363e fcc7 f13d
000000d0: 21e0 d4bd f2eb 29bd 5325 3abe a758 31be
000000e0: 1b95 293e 518c b53d ebdb 39bd f90f d0bd
000000f0: 6d1a 44be 6ce8 cd3d de6c 74bd e62b 8abc
00000100: 24d0 3f3e bec3 12be 8f0a 96bd 3cae af3d
00000110: f365 d93c 8edd 343e 7975 843d d9e6 9cbd
00000120: e859 1ebe 2032 abbc 3ac2 d1bd a75f 7abd
00000130: 65a4 103e 6f51 47be 02fc d2bd 2cc8 043e
00000140: c982 5bbd edab cdbd 0575 ae3d 1a52 e5bc
00000150: 44a0 1bbe 1cf4 523e a3a7 dabd a513 133e
00000160: e227 bdbd b68d 033d ddb5 c73d a195 3c3e
00000170: 39e1 293e c5e2 82bc c1cb 4c3c 85fc 84bd
00000180: 46a0 9bbc 4174 39be d82e 19bd 9405 b4bd
00000190: ac07 f53d b3b7 1b3e d30b bebd 28e6 b23d
000001a0: 4071 f7bd fc9f 2e3e baba 653d c5e3 1e3e
000001b0: f98d de3d 053a 4c3e 2dbf 49be 5c36 243e
000001c0: 2fcb aabd c5be 39be 137f cc3d 5815 31be
000001d0: f83a 473e 0b41 363e 06c5 403c 355f 03be
000001e0: 0e03 6cbd 188e c0bd 6768 1bbe c229 2a3e
000001f0: 6d6d a43d be5f 45be feb6 273d 8eb6 16bd
-0.19430198 0.14552714 0.10577315 0.017383805 0.11141661 -0.19165373 0.058283813 0.11169174
-0.03255334 0.15089332 0.043963145 0.16505533 0.13552526 0.14272937 -0.13674173 0.0046099154
-0.11093604 0.029888904 0.12172988 0.0059580104 0.12337155 0.19674885 -0.20585975 0.13548453
-0.21209729 0.1491292 0.007985346 -0.09999571 0.015278082 0.13698749 0.15663095 -0.0052901846
0.028337473 0.1019613 0.16012493 0.11816762 0.123770766 -0.1341546 -0.11436115 -0.21511568
-0.10439192 -0.08092825 -0.06617236 0.004325416 -0.1723949 -0.1486371 0.025558706 0.004082514
0.0560209 -0.08007494 0.17781869 0.11805722 -0.10394312 -0.04148478 -0.181783 -0.17318974
0.16560785 0.08864654 -0.045375746 -0.101592965 -0.19150706 0.100540966 -0.059674136 -0.016866636
0.18731743 -0.14332482 -0.07326233 0.085781544 0.026537871 0.17662641 0.06467719 -0.07661218
-0.15463984 -0.020897925 -0.10242124 -0.061126377 0.14125212 -0.19464658 -0.10301973 0.12966985
-0.053591523 -0.10042558 0.085184135 -0.02799325 -0.15197855 0.20600933 -0.106765054 0.14362963
-0.09236123 0.032117568 0.097514845 0.18416454 0.16589822 -0.015977273 0.012499751 -0.06493477
-0.018997323 -0.18110754 -0.03739819 -0.087901264 0.11964354 0.15206794 -0.09279599 0.08735305
-0.120821476 0.17053217 0.05608628 0.15516575 0.10866923 0.19944008 -0.19701834 0.16036361
-0.083395354 -0.18139179 0.09985175 -0.17293298 0.19456089 0.1779825 0.011765724 -0.12829287
-0.0576201 -0.09402102 -0.15176545 0.16617492 0.08028684 -0.19274804 0.040946 -0.03679519
