results/ppo/My Behavior/My Behavior-24800.pt (torch, 439263 bytes, 36 tensors)

network_body.linear_encoder.seq_layers.0.weight f4 [128, 6]
00000000: 55ef 04be 8b13 83be cc8d 48bd b876 b0be
00000010: b744 04be 17a1 473e 6afc 2a3f b26b 5c3f
00000020: 3018 563f 894f 083d 1b2c 13bf c498 c63e
00000030: 886d 1ebd 58d4 e4be a39a b8be 7e32 3dbf
00000040: e3d3 123f 2540 46bc 9539 12be 0da1 f63d
00000050: 7cd6 983e fe58 823f aabd 80be 5235 f7bc
00000060: 60ce 333f 795a 47bf c0e0 55bf 84c3 34bf
00000070: 2646 24bd e466 2bbf 43a2 5e3e cafd d53e
00000080: 9f7c e3be 1025 c5bd 70d5 8a3e 58d2 d9be
00000090: b542 3fbe 4720 48be bc79 223e e6a4 85bd
000000a0: 0c8a 403d 59f3 3f3f e080 61be 9cfd fdbe
000000b0: 9e04 1ebf 0eee d9be f0e0 ae3e a3f5 13be
000000c0: 7cd6 dcbe c93d c83e 236d 86be 258b 143f
000000d0: efef 5bbf bc96 aabf 5a48 6c3e 1ae8 053f
000000e0: 2f7e 82bd 1372 d43c baa8 70bf a92a 09bf
000000f0: b68a 073f 0c22 a7be aaaf 46be 3e17 9fbd
00000100: 6906 39bf 2cf2 6bbd 9dc0 aabe 0190 db3b
00000110: 41e7 4bbf 233c bdbe dca9 1e3e b0ce 043f
00000120: 6b46 1d3d 9d5a 2c3f 6403 613e 5481 2f3e
00000130: e482 03be e42f fdbd 193d 1a3c 928c 1dbe
00000140: 9bc9 b0bd ad05 373f 87a7 1e3f 2e3a c9be
00000150: 1fa1 0dbf 0174 81be a578 bdbd df0b bebe
00000160: e746 cdbd ae65 423f dd54 213e d1bd f7be
00000170: 821e cbbe 96e2 a1be bcf3 9b3e deb2 debe
00000180: 6370 9b3e c545 053e a393 84be 82f7 073f
00000190: 4124 12bf eb89 cb3d 6d99 723f 6822 50be
000001a0: 5eef 77bd 64e5 b9bd b85d e83d e53a c4bd
000001b0: e0a8 60be 9305 4dbd f994 943e c448 9f3d
000001c0: 8f0c 01bf aefe 7b3c 860a e8bd f5e0 7a3e
000001d0: bfcb 21bf 6e9e ebbd 582d d23e dbd8 eebe
000001e0: 72fd 6d3d 16a1 87be 4274 dc3c 1db0 153e
000001f0: c1b2 f1bc 48b4 033f 08b8 64bd 2c03 703e
00000200: a819 ae3e 8e41 943e 9365 a4bd bc6c 28bf
00000210: c65a f03d c379 53be 2271 f13e a8a5 14bf
00000220: 974b 093f f7cd 7e3e b4e7 f73e 7390 a2be
00000230: 60f6 2d3e 83db 97bc f5d7 073f cdff 46bd
00000240: 3c09 15bf f165 443f d9b0 8f3d 1cc9 733e
00000250: 8e30 9e3e 7685 263f b93d 3fbf 5d30 d03e
00000260: 998b 82be 2fbd 79be c9d7 113f 2090 67bf
00000270: 869d bd3d d417 743e 037e 9c3e 6fd3 92be
00000280: 6c24 bd3e 200f 12bf 2aaf 563d fe81 8ebe
00000290: a74b 95be e156 f23e b192 b13e 3bc4 b8bc
000002a0: a7ad 793d f627 433e 9f53 203f 2411 94be
000002b0: 3262 a53e 7389 97be e380 913e 32e8 d03d
000002c0: f7da e5bd 1ae4 22bf 1e34 673f 3f74 b23e
000002d0: 5095 91be 7cd9 33bd 4fd0 a83e a741 85be
000002e0: b43a 07bf ceac 453e 71e3 a03d 852d 853f
000002f0: e49f fe3d 8ef4 6b3e 6cc2 e0be 9125 9c3e
00000300: a921 90be bff6 6fbf 6108 223e b988 e5bd
00000310: d0c3 aabe c36b 8fbe 0e1a 393f 3c13 7fbe
00000320: aaab 86bd d327 fcbe f0db 423d b414 99bd
00000330: c71b c9be 9138 a0be d302 bf3b 6a90 de3e
00000340: 3fbf 5b3c 6bdd 563f 5d33 a6bd fd07 05bd
00000350: d4c6 9dbd 8954 073f 1253 55be 2532 9d3d
00000360: d9b1 113f 7c52 f23e 507e 3abe 331d cb3d
00000370: 1971 9ebe b42c ecbe 591b e3bd 88f5 793e
00000380: 6cf1 d1be b92d 55bd 1e4b 8cbe 7c46 4a3f
00000390: a8d1 6c3f 8e65 42bf 3a6f 12be ca3d b23d
000003a0: 6337 0c3f a85e 423f acf4 17bf 0063 ee3e
000003b0: 8c3f d53e 9da0 c5bd 502a 1a3c 5dbc 2cbe
000003c0: 6e6c e3bc 2a47 293e da91 2abf 6289 8a3e
000003d0: 6461 ebbe 0edc a5bd 5fc2 ddbe 4ca2 c53e
000003e0: 7712 95be be8a f2be 2753 f3be ec25 64bc
000003f0: 96be e73d 8218 cfbd 61a5 debe 4903 5b3b
-0.12981923 -0.25600848 -0.048963353 -0.34465575 -0.12916838 0.19495045 0.66791403 0.8610183
0.8363066 0.033278976 -0.57489175 0.38788426 -0.038678676 -0.44693255 -0.36055478 -0.7390517
0.57354563 -0.012100254 -0.14279778 0.12042437 0.2985114 1.0183408 -0.25144702 -0.030176792
0.7023678 -0.77872425 -0.83546066 -0.70610833 -0.04010596 -0.66953874 0.21741585 0.41795188
-0.44431016 -0.0962621 0.27115965 -0.42543292 -0.1867779 -0.19543563 0.1586675 -0.065255925
0.04700665 0.74980694 -0.22021818 -0.4960755 -0.61725795 -0.42564434 0.3415599 -0.14449172
-0.4313239 0.39109638 -0.2625514 0.5802482 -0.85912985 -1.332725 0.23074475 0.52307284
-0.06371724 0.025933301 -0.94007456 -0.5358072 0.5294603 -0.32643163 -0.19402948 -0.07768105
-0.72275406 -0.057604 -0.33350077 0.006700516 -0.7964974 -0.36959943 0.15494484 0.5187788
0.038397234 0.67325765 0.2197395 0.17139179 -0.128429 -0.1236265 0.009413981 -0.15385655
-0.08632203 0.71493036 0.61974376 -0.393022 -0.55323976 -0.25283816 -0.09251527 -0.37118432
-0.10023289 0.759364 0.15755029 -0.48387006 -0.39671713 -0.31618184 0.30459392 -0.4349584
0.30359182 0.13014896 -0.25893888 0.5311204 -0.5708657 0.09938415 0.9476536 -0.20325625
-0.060531013 -0.09076956 0.113460004 -0.09581546 -0.2193942 -0.050054144 0.29019907 0.07777551
-0.5040979 0.015380545 -0.11330132 0.24499877 -0.63201517 -0.115048274 0.4105022 -0.46649823
0.058103032 -0.26490086 0.026910905 0.14617963 -0.029504182 0.5144696 -0.05583957 0.2343871
0.3400395 0.28956264 -0.08027186 -0.65790915 0.11736064 -0.20651917 0.47156626 -0.5806527
0.53630966 0.24883257 0.48418963 -0.3175083 0.16988516 -0.018537289 0.530639 -0.048583794
-0.58217216 0.7671805 0.07016153 0.23807186 0.3089642 0.65047395 -0.74703556 0.40661898
-0.2549713 -0.24388574 0.56969887 -0.9045429 0.09258561 0.23837215 0.3056489 -0.28676936
0.3694185 -0.5705433 0.052413143 -0.2783355 -0.2915928 0.47331908 0.3468223 -0.022554507
0.060956623 0.19058213 0.62627596 -0.28919327 0.3230148 -0.29597053 0.28418645 0.10200538
-0.11223405 -0.63629305 0.903139 0.34854314 -0.2843423 -0.04390858 0.32971427 -0.2602665
-0.5282395 0.19304201 0.07855881 1.0404516 0.124328405 0.23042509 -0.43898332 0.3049741
-0.2815068 -0.9373588 0.15823509 -0.112077184 -0.33352518 -0.28011903 0.7230538 -0.24909681
-0.06575711 -0.49249133 0.04757303 -0.07474652 -0.39279005 -0.31293157 0.005829194 0.43469554
0.013412296 0.83931607 -0.081152655 -0.03247832 -0.07703939 0.52863365 -0.2083247 0.0767558
0.56912 0.47328556 -0.18212247 0.09917679 -0.30945662 -0.46127856 -0.110892005 0.24410069
-0.41004503 -0.052045558 -0.2740106 0.790138 0.9250741 -0.7593621 -0.14300242 0.087031916
0.54772013 0.75925684 -0.59357715 0.46559906 0.41650045 -0.09649775 0.009409502 -0.1686873
-0.027761664 0.16531053 -0.666288 0.2705794 -0.4597274 -0.08098613 -0.43312356 0.38600385
-0.2911565 -0.47371477 -0.47524378 -0.013925057 0.11315648 -0.10112096 -0.4348555 0.0033418706

network_body.linear_encoder.seq_layers.0.bias f4 [128]
00000000: 5467 c5ba 443b 21b9 07f8 c0ba 23e7 b239
00000010: 5d71 ceba eabb 1139 3592 153a fc47 613a
00000020: 8d00 0b3b ca88 7d3a 503e 00ba 07c2 9dba
00000030: 9565 7338 8a67 4a39 3cb2 a2ba 9fda 633a
00000040: b630 88b9 2eae 23bb ed04 9bb9 d6e1 e7ba
00000050: 28a1 e0b8 072f bcb8 d70a 8239 2223 29ba
00000060: eb18 22ba 5efe 2eb9 4f10 f2b9 c4c7 83bb
00000070: ab3d fbb9 e3a9 d6ba 3fb5 d639 7fae bcb9
00000080: 0a5a 75b7 c667 98ba 67b3 c5ba 8cbf a039
00000090: 410e bbba c0a7 1aba 0bd5 cdb9 06ab 43ba
000000a0: 048c 93ba a809 00bb c6f4 813b f991 a7b9
000000b0: fbe4 47ba 49a9 453b 0219 043a da37 fab9
000000c0: c08d a6b9 fdb3 48b9 6625 a4b7 2fc2 243a
000000d0: d933 1739 1476 19b9 8bfb 35ba 4ba4 14bb
000000e0: cd59 503a 9c10 48ba 5ae7 1cba c84d c139
000000f0: 341b 11ba ad08 d9b9 17a4 88b9 d7d8 95ba
00000100: 143c 913a bf83 a339 e45d 663a a537 043a
00000110: 6a15 b8ba 8484 8739 443c 8cb9 4e4a fab9
00000120: 5114 14bb 6327 8339 f9e3 74ba 8f46 81ba
00000130: 33e8 37b9 b62a 57b9 a4a5 91ba 2459 18b9
00000140: 5490 53ba 9455 3eb9 20ff 3439 65f8 edb8
00000150: 0b60 3239 ac86 9eb9 18cd 20b9 9259 6439
00000160: 85c1 9b3a a27e 1db9 f6bb 9dba 01ff 85b9
00000170: 399f 0bb9 70c4 083a e6f5 f2b9 67b0 10ba
00000180: 6845 4dba 7e40 96b9 8280 8f3a 4fdc 83ba
00000190: 3794 543b 256f 7637 9f1d e637 5e1c a938
000001a0: 0e50 10bb 8c4a 1fb9 9f68 44b9 5ae9 74b9
000001b0: 1aca fe35 77b8 0b3a 8132 6cb9 ce65 70ba
000001c0: 7b04 043a 2584 51ba 2656 ea3a e82d bbba
000001d0: c450 1e3a cfaf 92b9 e4b9 5db9 2267 6439
000001e0: 96e5 85b9 e805 b8b7 30b7 693a cb51 d7b8
000001f0: a3dc c3ba 0df6 89ba 62f4 9fb8 e34f a539
-0.0015060701 -0.00015376235 -0.0014722355 0.00034123016 -0.0015750338 0.00013898281 0.00057056855 0.00085937954
0.0021210045 0.0009671567 -0.0004892098 -0.0012035974 5.803032e-05 0.00019302792 -0.0012412737 0.000869194
-0.00025976234 -0.0024975645 -0.00029567574 -0.0017691206 -0.0001071117 -8.973298e-05 0.00024803609 -0.00064520736
-0.00061835226 -0.00016688692 -0.00046169988 -0.0040216167 -0.00047920397 -0.0016377534 0.000409523 -0.00035988164
-1.4624102e-05 -0.0011627607 -0.0015083373 0.00030660292 -0.0014271216 -0.00058996305 -0.00039259376 -0.0007464144
-0.0011256938 -0.0019537006 0.003965947 -0.0003196148 -0.00076253683 0.0030160716 0.0005039127 -0.00047725328
-0.000317676 -0.00019140537 -1.9567738e-05 0.0006285039 0.00014419797 -0.00014635205 -0.0006942085 -0.0022680934
0.00079479517 -0.00076318695 -0.0005985402 0.0003686978 -0.00055353646 -0.0004139593 -0.00026062198 -0.0011432421
0.0011080527 0.0003118794 0.00087877945 0.0005043692 -0.0014044468 0.00025847938 -0.00026747782 -0.00047739077
-0.0022595117 0.00025015612 -0.0009341832 -0.0009862947 -0.00017538741 -0.00020519909 -0.0011111987 -0.00014529057
-0.0008070518 -0.00018151692 0.00017261179 -0.00011347308 0.00017011182 -0.00030236447 -0.00015335192 0.00021777142
0.0011883235 -0.00015019861 -0.0012034166 -0.0002555773 -0.00013315388 0.000521726 -0.00046341046 -0.000551945
-0.0007830472 -0.0002865828 0.0010948332 -0.0010060164 0.0032436976 1.46886205e-05 2.743193e-05 8.063832e-05
-0.0022020373 -0.00015191193 -0.00018730991 -0.00023356584 1.8983294e-06 0.00053299166 -0.00022525528 -0.00091704435
0.0005036068 -0.00079924084 0.0017878457 -0.0014280649 0.00060392567 -0.00027978278 -0.00021145452 0.00021782194
-0.00025538792 -2.193726e-05 0.00089155417 -0.00010267234 -0.0014943074 -0.0010525599 -7.627231e-05 0.00031530773

network_body.linear_encoder.seq_layers.2.weight f4 [128, 128]
00000000: 1db5 ae3a 2828 febb f951 97bd 4349 b4bb
00000010: 1d38 16be 487d 293e c6b9 0d3c b0d8 163d
00000020: c9cc 00be 04d3 343e 3ae5 5a3d dc26 353e
00000030: f69d 593d d092 48bb 8013 0dbd 148e 743d
00000040: 2f8e 55bc 0492 633d ab0d bd3d c0b2 f1ba
00000050: bdc0 773d e5dd 28be 9a96 85bc 5a0f aa3d
00000060: e358 d2bd 935b 353e fbcd 173d 59ba 8abc
00000070: ebba 4cbe ee3c b9bc bac9 d9bd 954e 4e3d
00000080: f579 f5bd 5f30 aa3d 0dd0 9ebd 2722 33be
00000090: 3421 e9bc ff91 3e3e ef4e 083d 7e21 59bd
000000a0: 7e53 b1bd 69c1 47bd 4540 1d3e ff58 1dbe
000000b0: 1817 9938 9699 e7bc fee0 093e 4009 12be
000000c0: a234 b9bc 34e7 82bd 53f8 793d 425b 20be
000000d0: 3b92 25bc 85fd 7a3c 3816 733d 5a5b 00be
000000e0: d26b 4bbe d852 59bd e781 be3d c187 e63d
000000f0: 165e 1dbe d6e1 e73d 7372 ec3c cfc2 dc3d
00000100: 8f81 5b3e 322e 2d3e b728 603d 2713 cf3c
00000110: 4be4 edbc ead6 71bb 6bc8 183d f974 e73d
00000120: 24dd 143a a19b 26be ce4e a53d 63f4 d43d
00000130: d121 22be e093 0abe 3248 15bd 6995 92bd
00000140: d68e 68bd df4d 10be 51a9 4dbd 74e7 143e
00000150: 5ee2 193d fe1d 82bd c644 55bd 19d7 d03d
00000160: 7819 53bd 421f bf3d d84d 133d ae70 993c
00000170: 1ee4 13be 84d8 093e 0ecd f3bd 43fb 1db9
00000180: 982d 81bd 7256 ebbd 5f82 913d 6bb9 9cbd
00000190: 2fa6 6fbd a589 00bd e615 113d 5901 aa3d
000001a0: b49a bcbd 8dbf 6c3c 5696 f23c 17a4 62be
000001b0: fe8c 09bd e60c 01bd 56a4 c03d aca2 b6bc
000001c0: 22ca f13d d8e7 a5bd 594d da3d 7b0c d43c
000001d0: 99d4 693d 8bef afbc a9fc 10bd cc6e c4bc
000001e0: 88a4 3b3e 128a a23b 6aa0 2fbe 45b3 233e
000001f0: 368c e93d c0e6 cf3d 7496 703c 050b 8c3c
00000200: ec93 e93d 5779 c7bd 4806 4c3d 4cbc 18bd
00000210: 09dc f73d 6586 693d 3dd8 2bbe 70fa f73c
00000220: 767f 95bd cee7 01be 4604 ebbb 0257 c6bc
00000230: f8bf 713d 8610 58be 5be7 9f3d 9cd6 2f3d
00000240: 4220 dfba adb8 80bc d179 75bd a0c4 dc3d
00000250: bf20 bb3c a7ff c63c 5d01 c43c c999 9abd
00000260: ad1c 05be d3df 3dbd d410 ff3b 0e18 913d
00000270: db57 2a3e 8eef 6e3d f1a3 8ebd 33d2 a23c
00000280: 5998 223e 82bc 983a e186 113e af39 18be
00000290: c3f9 f1bc 8935 1e3e 765c f3bd b6ec 123e
000002a0: 2fde 023c 7ebf 4ebc 5e05 983d b141 c03d
000002b0: 43e4 c4bd ae76 003e 01c2 2a3e f16d 9abc
000002c0: d005 0f3e 7422 20bd 0759 04bd 49f5 b33a
000002d0: d60f 553d 382e 093b 37bb 423d c5f1 1d3e
000002e0: 625d 23be 05fe dd3d cb18 e13d 6006 4d3e
000002f0: 4efb 803d 4f3c 723c 9277 eebd fe05 163d
00000300: 2d31 4fbe 7ccd 8f3d 3e38 dabd 19e6 ad3a
00000310: 8dba 763b 797b 81bd 5d65 d7bb 338d dabd
00000320: cddc d33d 9441 95bd f492 ba3d f521 1fbd
00000330: bfbc acba 62ca 4abe a9d0 76bc 09dc ee3c
00000340: 319b 8f3d c0e8 8fbc 9c2a bbbd 5151 a33c
00000350: 0f63 0a3e 558c bb3c d1cb 733d ffce 82bc
00000360: 5df1 10bd 1c69 a9bc 981d 853d 6d45 d2bd
00000370: 2c0e 86bd b8c5 29bd e192 af3d ef50 703d
00000380: e6dd f2bd 677f 36bd 0a0c 20bd 5f07 db3d
00000390: 5a15 05be aea1 03be a0f9 4b3d 9a8e aabd
000003a0: b22f fb3d d4ea 1cbd 1931 3c3c 35e1 d7bb
000003b0: 1a1c de3c 4cf5 013e 2233 debd 2a55 2b3d
000003c0: c94e cbbd 8ad4 2d3c 2325 16bd cfb5 73bd
000003d0: d993 03be 015a d43c 792a 783b 02dc 11be
000003e0: feda 8abd 4abf e9bd 5bc2 363e 7421 003e
000003f0: e3e7 d3bc 421f 1cbe 4c6f d83d 6dd7 f33d
0.0013329122 -0.007756252 -0.07388682 -0.0055018975 -0.14669843 0.16551697 0.008650249 0.036827743
-0.1257812 0.17658621 0.053441264 0.17690605 0.05312916 -0.0030605085 -0.034442425 0.05970581
-0.0130343875 0.055559173 0.092311226 -0.0018440112 0.060486544 -0.16490896 -0.016307164 0.08303709
-0.1027086 0.17710714 0.037061673 -0.01693456 -0.19993179 -0.022612061 -0.106341794 0.05036791
-0.11986152 0.08310007 -0.07754526 -0.17493497 -0.028458215 0.1861038 0.033278402 -0.053010456
-0.08658503 -0.048768435 0.15356548 -0.1536598 7.29991e-05 -0.028271478 0.13464734 -0.14261341
-0.022608105 -0.06391755 0.061027836 -0.15659812 -0.010105665 0.015319233 0.05934736 -0.12534848
-0.19865349 -0.05305752 0.09302121 0.11256362 -0.15367922 0.11322372 0.028863167 0.10779344
0.21436141 0.16912153 0.05472633 0.025277687 -0.029039523 -0.003690178 0.03730051 0.11301608
0.00056787045 -0.16270305 0.080716714 0.103981756 -0.15833212 -0.13532972 -0.036445804 -0.07157404
-0.056776844 -0.14092205 -0.0502103 0.14541417 0.037569396 -0.06353377 -0.05206754 0.101972766
-0.05153796 0.09332134 0.03596291 0.018730488 -0.14442489 0.134615 -0.119043455 -0.00015066289
-0.063075244 -0.114910975 0.071049444 -0.07652553 -0.058508094 -0.031381268 0.035421275 0.08301038
-0.09209195 0.014449966 0.029612701 -0.22132908 -0.033581726 -0.03150644 0.094063446 -0.022294365
0.11806132 -0.08100861 0.10659284 0.025884857 0.057087515 -0.021476528 -0.035397206 -0.023978613
0.18324482 0.004960307 -0.17151037 0.15986355 0.11403696 0.10151434 0.014684308 0.017095098
0.11405167 -0.097399406 0.049810678 -0.03728895 0.12102515 0.057012934 -0.16781707 0.030270785
-0.07299702 -0.12686083 -0.0071721403 -0.02421141 0.059020966 -0.21100053 0.078077994 0.042929277
-0.0017023163 -0.01571306 -0.059930626 0.10779691 0.022842763 0.024291826 0.023926431 -0.075488634
-0.1299922 -0.046356034 0.0077839885 0.07084666 0.16635077 0.058333926 -0.06964863 0.019875621
0.15878429 0.0011652859 0.14211608 -0.14865755 -0.029538041 0.1545011 -0.1188287 0.1434811
0.007987543 -0.0126188975 0.07422899 0.0938753 -0.0961385 0.12545273 0.16675569 -0.018851252
0.13967061 -0.039095357 -0.032311466 0.0013729717 0.052017055 0.002093209 0.047541823 0.15424259
-0.15953591 0.10839466 0.10991057 0.20021963 0.062979326 0.0147848865 -0.116439 0.03662681
-0.20233603 0.07021615 -0.106552586 0.0013267427 0.0037647814 -0.06322379 -0.0065733627 -0.10671463
0.10344849 -0.07287899 0.0911006 -0.038850743 -0.0013178809 -0.19803765 -0.015064397 0.029157655
0.07012022 -0.017567039 -0.091389865 0.019936236 0.1351435 0.022894064 0.059520546 -0.015967844
-0.035386432 -0.020680003 0.06499785 -0.10267148 -0.06545672 -0.041448325 0.08572937 0.058670934
-0.1185873 -0.044555094 -0.03907398 0.10694765 -0.12996426 -0.12854645 0.049798608 -0.0832798
0.122649565 -0.038309887 0.011486315 -0.006588126 0.02711301 0.1269123 -0.108495966 0.041829266
-0.099271365 0.010609755 -0.03665651 -0.059499558 -0.12849368 0.025921823 0.0037867113 -0.14244083
-0.06780051 -0.114134386 0.17847578 0.12512761 -0.025867408 -0.15246299 0.10568103 0.119063236

network_body.linear_encoder.seq_layers.2.bias f4 [128]
00000000: 131f b1ba ecdf 64ba a2f2 acb9 9799 23b9
00000010: d773 10b9 001f 733a 80a7 b2b8 f594 e3ba
00000020: 7f43 b9ba 3d15 a9ba cd0e 523b c933 0a3a
00000030: f94c a1b9 0fa2 163b d80f 4cbb 2bcf d33a
00000040: c2b9 07bb acf1 1ab9 8803 98b9 cc22 3dba
00000050: 8af1 023a 4f03 ceb9 8ce5 e039 dc80 2a39
00000060: 1416 bb38 b765 4239 7e55 9bb9 7ce0 aabb
00000070: f0c6 3f3a d355 b2b8 c48a 3ebb a781 c936
00000080: 0c08 1139 cec8 093a a34a 5bb8 96d5 8939
00000090: 327c 3aba 3f1a 733a f80d b4ba a532 45bb
000000a0: 7aac 3eba a60f ccb9 d274 e3ba 9d0d d739
000000b0: 9bc7 eab9 2800 85b9 0240 c839 6dbf d83a
000000c0: 071d 513a 6925 9939 2476 c1b9 0468 dbb8
000000d0: dfe7 2b3a 1798 d139 1396 b5b9 9989 3ebb
000000e0: ec45 07ba be13 dcb9 f185 d739 de71 a0b9
000000f0: 2e04 c73a 3f38 513a 2212 50bb 4662 83b9
00000100: 95e4 06bb 8097 403b b854 86ba 1863 9fba
00000110: afc0 43ba 8d1c cd39 8dcc 24b9 691c bdba
00000120: a865 58ba ddaf 2d3a 6c0c 07ba 603d b238
00000130: 5b5c f5b9 599a 973a 86a9 4639 fe1f 3dba
00000140: 9b1d 85b9 f6e5 36bb e4e7 4dba 6b0b d2b8
00000150: 9599 033b 688f 153a 8064 eeba d605 b9b9
00000160: 3911 f1b9 d6e9 fcb9 3029 97ba d072 72ba
00000170: a6fc 223a c62b 4d39 8b55 8fb9 15b7 48bb
00000180: d401 9bba bfc2 45b9 7889 ee39 b28c 403a
00000190: 97df a7b8 f067 3bba 0124 85b8 b1e8 2eb9
000001a0: b59d a638 3718 ccba dcfe 03bb 9f03 6bba
000001b0: d38d 15b8 fdf9 17ba 7214 deb5 538d 473b
000001c0: e23d 263a 4e83 b9b9 60c1 6a3a 227a 5bba
000001d0: 5e9d 89b9 0a52 23ba ae28 87b9 816b 3339
000001e0: b693 b5b9 c43a ff3a 55c7 2bb9 b5fc 68bb
000001f0: 8054 22bb 47a7 8637 9a6e 9cb9 7083 03bb
-0.0013513289 -0.0008730877 -0.00032987172 -0.00015602108 -0.00013776064 0.0009274334 -8.518901e-05 -0.0017363118
-0.0014134495 -0.0012900006 0.003205228 0.0005271999 -0.00030765662 0.0022984778 -0.0031137373 0.0016159763
-0.0020710086 -0.00014776614 -0.0002899433 -0.0007214963 0.00049950986 -0.00039293847 0.00042895635 0.00016260467
8.920967e-05 0.00018539173 -0.000296276 -0.005214749 0.0007315716 -8.5036874e-05 -0.002907441 6.0053603e-06
0.00013831275 0.00052560575 -5.228318e-05 0.0002628981 -0.00071138435 0.00092736253 -0.0013737073 -0.003009
-0.0007273626 -0.0003892157 -0.0017353541 0.00041018138 -0.00044780676 -0.00025367853 0.00038194662 0.0016536542
0.00079770427 0.00029210307 -0.0003689985 -0.00010462108 0.0006557684 0.00039976902 -0.00034634824 -0.0029073714
-0.00051602605 -0.0004197638 0.0004110779 -0.00030602416 0.0015183741 0.00079810986 -0.003174909 -0.00025059487
-0.0020583023 0.0029387176 -0.0010248637 -0.001216027 -0.0007467372 0.0003912192 -0.0001571646 -0.0014428023
-0.0008254894 0.0006625632 -0.00051516923 8.4991334e-05 -0.00046798852 0.0011566385 0.00018945904 -0.0007214545
-0.00025389795 -0.0027908063 -0.0007854684 -0.00010015707 0.0020080556 0.0005705268 -0.001818791 -0.00035290298
-0.00045979934 -0.00048239407 -0.001153266 -0.0009248676 0.0006217457 0.0001956663 -0.0002733882 -0.0030626704
-0.0011826106 -0.00018859933 0.0004549732 0.0007345184 -8.0048274e-05 -0.0007148972 -6.3486405e-05 -0.00016680617
7.944872e-05 -0.0015571181 -0.0020140922 -0.0008965078 -3.5656452e-05 -0.0005797444 -1.6546239e-06 0.0030449226
0.0006341619 -0.0003538378 0.0008955207 -0.0008372386 -0.00026247924 -0.00062301813 -0.00025779515 0.00017110819
-0.00034633063 0.001947247 -0.00016382088 -0.0035551016 -0.0024769604 1.605194e-05 -0.00029837043 -0.0020067357

action_model._continuous_distribution.log_sigma f4 [1, 2]
00000000: dc08 5a3a 5502 4f3a
0.000831736 0.0007896771

action_model._continuous_distribution.mu.weight f4 [2, 128]
00000000: 9572 7dba d6a8 483c fbff f93b 1054 533d
00000010: e78d 2fbd c1cc 863c 5b21 4f3a a5fb 26bc
00000020: 53b5 4bbd e0db f0bb 1536 e53c db50 08bd
00000030: eb5b cf3b 5717 58bb 9998 4cbc 2b15 f43c
00000040: ca04 cdb9 b39f f1bc ce1a d23c aaa2 84bb
00000050: e58d 7fbb bd3e 823c 733d e43b a064 e93c
00000060: 1365 c93c d8f5 9e3c 4c9a e8bb 585d 85bc
00000070: cc03 b5bb 0d4a 433c 2266 b3ba fa90 e63c
00000080: e704 76bc 65dd 183d 18d3 97bb c440 a63c
00000090: e3b5 873b 0a3a 943a da13 193a 902b 46bc
000000a0: 302d 423b 651b 98bc 7630 00bb 73d9 f2bb
000000b0: ef3f c83c f4d4 cfbc c765 e7bb 1c34 bc3c
000000c0: af81 333c ee95 17bd f5e8 233d 9d78 623c
000000d0: 8f2d 31bb 0b3e e73c 90e1 acba c62e 003d
000000e0: 1870 953b 25a9 f43b 4d2a 9f3c eb5e adb9
000000f0: 9069 353c 0981 1b3b 6066 673c e5da dabb
00000100: b837 26bb 643b 58bc ddb2 a7bc aa06 ebbb
00000110: e8ba 123c ea9e e03c 69c2 693c 6888 223d
00000120: 8fe2 9b3c eec9 2c3b 2ded 043c 09df 5ebc
00000130: 3406 c53b 938c de3a e08b b53c ffe1 593b
00000140: 3f2b 6c3c ea9a f03a 41c1 2a3b 1c17 763b
00000150: f488 9dbb ca03 dfbc 09f3 aabb 0670 ad3c
00000160: ee05 d5bc 83ec 093c ff25 06bc 9a6e f53a
00000170: 6a66 8fbb a800 043c d998 babc 398f 823a
00000180: 8c37 e73a d09f e73b 5032 7f3c 04b8 d1bc
00000190: 1ab1 5a3c 0e77 12bc baf5 833c 575c 20bd
000001a0: f74c 46bc 6346 9639 fce3 1a3b 5367 ea3a
000001b0: 6921 963c 51bc 353c 8ce2 f93c 2cd5 03bc
000001c0: 5ade 15ba 2256 283c 3165 02bc 9c0a 45bc
000001d0: fc51 1bbb c3cb 543c d5f1 903b 9ff0 48bc
000001e0: 39ed 703c 9d4e a3bc 83d0 d0bc e99b 9a3a
000001f0: c88b b33c b5ab a53b fff1 b13c 6223 c3bc
00000200: 96b1 6ebc a216 15bd 738a 64bb c4e8 05bc
00000210: 0add d0bc 05bd 163d ffd5 d23c 2a1b 55bb
00000220: 6d23 03bd c537 a5bc 0d67 adbc a729 d6bb
00000230: c0b5 11bb 7ea7 61bc 30ac 8abc 2ca6 c13c
00000240: 4881 5fbb 96c4 333c 25a4 8cbc 6f4f 8cb9
00000250: 5e2d 983c a3b0 2abc 2586 c43c 15f3 833c
00000260: 69cc 653c 7dd2 173c cccd 833c 0676 443c
00000270: aa14 fcbc de11 7bbb 8678 fbbb 9389 923c
00000280: fb07 8f3c e760 c33c fc0a 2e3c 45ac 833c
00000290: f66c d0bc 99c2 3a3c 6cf5 5fba 7360 37bb
000002a0: 51b4 e0bc fd9f 68bc a807 51bb 0a6a 033c
000002b0: 6e0c 12bd d7db 7abb dcb2 433d 53bb b73c
000002c0: 62a2 bb3c 1c9a ae3c eba3 edbb 2a70 e2b9
000002d0: 368d a1bb 0299 e93c 360c 8bbb 975f 853c
000002e0: cea4 1bbc 4134 a5bb 71fa b33c bf36 bcbc
000002f0: 2ee4 273c 8e60 d13b f5f4 7d3c 5843 953a
00000300: 1a85 93bc f8aa 00bd bedd b83a 86e7 e6bc
00000310: 07c6 063c 7eae 3cbc 3fe3 383c ecd7 42bb
00000320: 9f2d 10bc 32ff 46bc 22db 30bc 3d7f 29bc
00000330: 1819 dfbb d423 bcbb c06a 6b3c f59d 1dbc
00000340: c4ca 543b 1b5f 87ba d0ab f4bc c082 253c
00000350: 7aa0 233c 5234 643b 930a 5fbc b977 5ebc
00000360: 6b53 c7bc de44 83ba 892f dabc 6f3a e8bc
00000370: 299b 75bc d123 d43b fd84 b43c 51ee 4eba
00000380: ddd4 3fb9 32be 3f3d f90a d7ba 3180 003c
00000390: 410e 92bb f757 953c b239 4b3c 0378 a6bb
000003a0: dc82 973b fd52 f3bb b999 34bc f87a aebc
000003b0: 63e5 ec3b 35e0 44bc c009 c33c 459c 983c
000003c0: 5120 8c3c f101 0abc d7c0 9b3c eb48 b8bc
000003d0: 55a1 603c 6618 19bd 2281 353b 9146 433c
000003e0: f367 d2bc 56fd 063c 480a 34bc 9601 acbc
000003f0: 3743 1f3c bace 7fbc 0a41 84bc 81a8 8bbb
-0.0009668258 0.012247285 0.007629392 0.05159384 -0.042859938 0.016455056 0.00079013937 -0.010191833
-0.04973347 -0.00735043 0.02797989 -0.033280235 0.006328096 -0.0032972896 -0.012487554 0.02979525
-0.00039104215 -0.029495096 0.025647547 -0.0040477114 -0.0038994488 0.015899057 0.006965333 0.028490365
0.024584329 0.019404337 -0.0070984717 -0.016279861 -0.0055241343 0.011919511 -0.0013687054 0.028145302
-0.015015817 0.037320513 -0.0046333186 0.020294555 0.0041415556 0.0011308801 0.0005839445 -0.012095347
0.0029628985 -0.01856775 -0.0019560135 -0.007411176 0.024444548 -0.025370099 -0.0070616934 0.022974066
0.010956212 -0.03700822 0.040017087 0.013822702 -0.0027035212 0.028227827 -0.0013189781 0.031294607
0.0045604818 0.0074664527 0.01942935 -0.0003306785 0.011072531 0.0023728034 0.014123529 -0.0066789263
-0.00253628 -0.013197754 -0.02047103 -0.0071724253 0.008955695 0.027419526 0.014267542 0.03968087
0.01902893 0.0026365477 0.008113188 -0.01360298 0.0060127024 0.001697915 0.022161424 0.0033246276
0.014414608 0.0018356715 0.002605513 0.0037550395 -0.004807586 -0.027223486 -0.0052169603 0.021171581
-0.026003804 0.008418205 -0.00818777 0.0018724978 -0.0043762224 0.008056797 -0.022777962 0.0009960897
0.0017640456 0.0070686117 0.01557596 -0.02560044 0.013347888 -0.008939518 0.016108382 -0.039150562
-0.012103311 0.00028662672 0.0023634424 0.0017883576 0.018326478 0.011092261 0.030503534 -0.00804643
-0.0005717032 0.010274442 -0.007958696 -0.012026455 -0.002369999 0.012988034 0.00442336 -0.0122644
0.014704996 -0.019934947 -0.025490051 0.0011795732 0.021917239 0.0050558695 0.021721838 -0.023820583
-0.014568707 -0.036398537 -0.0034872561 -0.008173171 -0.025496025 0.036801357 0.025736807 -0.0032517412
-0.032016207 -0.020168195 -0.021167303 -0.006535727 -0.0022233576 -0.013772843 -0.016927809 0.023638807
-0.0034104157 0.010972163 -0.017168114 -0.00026762063 0.01857632 -0.01041809 0.023989746 0.016107121
0.014025786 0.009266493 0.016089343 0.01199103 -0.030771572 -0.003831021 -0.0076742796 0.017887866
0.01745986 0.023849918 0.010622736 0.016073355 -0.025442582 0.011398935 -0.00085433456 -0.0027981072
-0.027429732 -0.0141983 -0.0031895433 0.008020887 -0.035656385 -0.0038278007 0.047777995 0.02242819
0.022904579 0.02131372 -0.0072522066 -0.00043189648 -0.0049301637 0.028515343 -0.004243399 0.016280932
-0.009499742 -0.0050416295 0.021970006 -0.022975324 0.010247273 0.006389684 0.015500297 0.0011387868
-0.018007804 -0.03141305 0.001410417 -0.02818657 0.008225924 -0.011516212 0.011284648 -0.002973075
-0.008799939 -0.012145804 -0.010794433 -0.010345277 -0.0068084113 -0.0057415757 0.014368713 -0.009620179
0.003246949 -0.0010328026 -0.029867083 0.010101974 0.009986991 0.0034821224 -0.013613361 -0.013578349
-0.024331769 -0.0010015031 -0.026633995 -0.028348176 -0.014990606 0.006473996 0.02203607 -0.0007893788
-0.00018294477 0.046812244 -0.0016406468 0.007843063 -0.0044572656 0.018230421 0.012403892 -0.0050802245
0.004623754 -0.0074256645 -0.011022978 -0.02129887 0.0072294935 -0.012016346 0.02380836 0.018629203
0.017105253 -0.008423314 0.019012852 -0.022495707 0.01371034 -0.037376784 0.0027695377 0.01191868
-0.025684332 0.008239111 -0.010988779 -0.02099685 0.009720615 -0.015613252 -0.016144294 -0.0042620306

action_model._continuous_distribution.mu.bias f4 [2]
00000000: 0e69 bdb7 7447 0b3a
-2.2579476e-05 0.00053130765

exp_avg f4 [128, 6]
00000000: 3ded a6bb f302 23b9 226d af3b eb68 a2b3
00000010: 335e ceb7 e9ce 0731 a891 573b 4d20 aa38
00000020: 54bf 1abc c96c 96b6 716d d538 2692 f636
00000030: 336e 7eba aa11 6db8 cf7c bbb9 4efd 0233
00000040: 64e1 f137 0198 9132 62b2 2b3b e8ff 8b38
00000050: 6cc6 8abb 7e82 0fb6 3c78 e5b7 ecca 9836
00000060: 7b1b 66b4 0989 9eb4 d756 36b6 2e13 0431
00000070: faa8 cab4 f0f6 f6b0 8c97 87b8 d951 8a35
00000080: 6f31 a737 109b 6fb1 3218 9d36 45a1 b630
00000090: 1dab a33b 088a 0b39 f235 c7bb c572 d3b5
000000a0: 02f5 8437 3a3a 6c36 4f92 6d38 cde4 ca36
000000b0: 09d3 d737 b3f1 2931 a447 7837 440c 87b1
000000c0: bebe 2bb9 e5f8 b736 65db c03a 50e2 a9b3
000000d0: c75c e5b7 bffa 3431 a76b dc38 f701 48b6
000000e0: 6ef9 a1b9 3b7f 9fb2 2d08 6eb7 a2be 5b33
000000f0: ee81 feb8 cceb 0037 2d3d f637 4f3c 8dad
00000100: 2dab 1337 9f06 7f32 c495 c839 2b86 d037
00000110: c1f3 2239 652f a8b0 0bbf 0037 177a cbb2
00000120: d4c7 c938 7929 6838 db35 02bb aeaf ca35
00000130: d554 94b6 f488 d9b6 f704 d439 3d8a 5f37
00000140: 8c6e 3039 1d3a b631 9dc9 5a36 7cd0 47b2
00000150: f7ef 2ebb aac7 b0b8 dc19 4a3a 577e 4e32
00000160: 9ed9 a038 b517 f734 ee61 3839 643b 69b7
00000170: 5b82 e0b8 40e2 fbb1 ee23 92b7 dd37 1c32
00000180: 31f9 7e38 22d0 19b7 2340 89b8 456b f9b1
00000190: aa82 f1b5 018b 742f 3cd1 1836 36ca 36b6
000001a0: a012 53ba 65cd 93b4 af30 dcb7 d2c2 13b4
000001b0: 70b5 32bb be82 a6b8 604d 9e3b e983 4536
000001c0: bbfe 0135 c710 99b6 cce3 5dba 8842 3db8
000001d0: 49ea a2b9 f21f 8e33 5165 0739 628a 86b3
000001e0: a48b 8b38 8646 2837 575f c8b8 06e0 5b35
000001f0: 4ecf 2737 ddd0 66b5 f50d 8db9 0aa1 bfb7
00000200: d53e 2d3a be0e a5b5 a907 26b6 0493 1736
00000210: 3fb9 023b ce56 8238 9a88 90bb bd8c 82b5
00000220: 355b 5738 9822 ac35 1703 c93a 1eab adb5
00000230: b827 97bb 2210 25b6 f766 2d38 e2d6 cd36
00000240: 1b3e b8bb a441 0eb9 38f0 fd3b c856 8536
00000250: f324 a237 36b5 ecb6 5ba8 0abb 978d 57b8
00000260: 8ab9 a1ba 8dfb 3c33 6347 aa38 b158 dab3
00000270: 43b8 423a c444 b937 33fe 40bb 593a 07b6
00000280: 73e9 e737 5bee 3536 8324 8aba 3b6a 39b8
00000290: 307d 84b9 9ff0 bf32 f3e8 d237 4929 0b32
000002a0: 30fa 9739 1d80 1a37 2360 6db9 19b5 cc34
000002b0: 87d4 ac36 17f7 8034 acf8 31b8 3315 4336
000002c0: 1cae 5ab8 2988 4031 160f 9db5 937b 58af
000002d0: 5887 9b39 8ddc 9737 621d d23a 2645 8e35
000002e0: 1ea8 b937 8881 10b6 c961 f83a f95a 2638
000002f0: addd bfbb 6b12 41b6 028e 5e38 351c 8136
00000300: bd1d 983b 2623 fd38 3a8e 26bc adb6 b6b6
00000310: 6451 8b38 59ba e536 3b4e 7e39 2983 b8b7
00000320: 3962 5a3a fe1f 5f34 35bb f637 e8fe 5733
00000330: d036 1abb 6956 a2b8 d39e b23b 1978 2636
00000340: 353b 05b8 8de4 a4b6 49e6 943a 1626 3938
00000350: 97d2 1e39 517e 44b2 c887 c4b7 071f 3fb2
00000360: baf1 acb8 98d4 e436 6438 da38 cb60 39af
00000370: f09f 1737 3f70 d031 abed 7bba 0991 29b8
00000380: 3f19 75b9 e1ca 3132 7fad 8f37 e523 df32
00000390: 9f7d 8538 62a5 ccb6 cbf3 fd38 2e75 6432
000003a0: aa5e 33b7 8d72 1cb0 c462 5dbb 9f4b 14b9
000003b0: 9a93 cb3b c2a7 e0b3 dc46 1eb7 3852 bc35
000003c0: eaae 3bb9 0643 5434 d055 9635 7d4c 1732
000003d0: 0c63 be37 f6af 1ab2 0671 51ba 709e dfb7
000003e0: 281e 173a 80b1 6933 b80d 3938 db7c 4db3
000003f0: 1bd3 dc38 8f6f e0b6 be28 2eb8 9d98 6cb1
-0.005094199 -0.0001554599 0.005353586 -7.562797e-08 -2.4600979e-05 1.97627e-09 0.0032893214 8.112248e-05
-0.00944503 -4.4830126e-06 0.000101770165 7.348385e-06 -0.0009705752 -5.6521654e-05 -0.0003576041 3.0498363e-08
2.8834394e-05 1.6949345e-08 0.0026198854 6.675703e-05 -0.0042350795 -2.1384617e-06 -2.7354916e-05 4.553576e-06
-2.1430417e-07 -2.95295e-07 -2.717066e-06 1.921943e-09 -3.774838e-07 -1.796904e-09 -6.4655294e-05 1.0305622e-06
1.993097e-05 -3.486722e-09 4.6817813e-06 1.3288078e-09 0.0049947635 0.00013307494 -0.006079429 -1.5754127e-06
1.5849717e-05 3.5200633e-06 5.6641464e-05 6.046705e-06 2.5728268e-05 2.4730127e-09 1.4798632e-05 -3.9304116e-09
-0.00016378888 5.4828e-06 0.0014713822 -7.910842e-08 -2.734213e-05 2.633598e-09 0.00010510469 -2.9803466e-06
-0.00030894153 -1.8567894e-08 -1.4187809e-05 5.116329e-08 -0.00012135865 7.684295e-06 2.9353972e-05 -1.6056627e-11
8.801738e-06 1.4844459e-08 0.00038258557 2.4858009e-05 0.0001554033 -1.2237079e-09 7.673875e-06 -2.368783e-08
9.621648e-05 5.5351735e-05 -0.0019868526 1.5101302e-06 -4.4206195e-06 -6.4830474e-06 0.0004043949 1.3324022e-05
0.0001682585 5.303504e-09 3.2601886e-06 -1.1630728e-08 -0.0026693323 -8.429524e-05 0.0007709542 1.20195045e-08
7.669929e-05 4.6024584e-07 0.00017584089 -1.390171e-05 -0.00010705433 -7.330783e-09 -1.7421287e-05 9.093097e-09
6.0790397e-05 -9.16797e-06 -6.5446155e-05 -7.259049e-09 -1.7993927e-06 2.2241055e-10 2.2771555e-06 -2.7237816e-06
-0.00080517866 -2.7530328e-07 -2.6248714e-05 -1.3761317e-07 -0.002726879 -7.9398495e-05 0.004831001 2.943207e-06
4.8426926e-07 -4.5617085e-06 -0.00084644253 -4.5123074e-05 -0.00031073604 6.618201e-08 0.00012912347 -6.265033e-08
6.6540466e-05 1.003e-05 -9.5545016e-05 8.1909855e-07 1.0002243e-05 -8.5985613e-07 -0.00026904015 -2.2843964e-05
0.0006608789 -1.2297749e-06 -2.4740386e-06 2.2586328e-06 0.001994684 6.215052e-05 -0.0044108154 -9.726715e-07
5.1344938e-05 1.2825067e-06 0.0015336004 -1.2939306e-06 -0.004612889 -2.4596307e-06 4.1342308e-05 6.1344917e-06
-0.005622638 -0.00013566628 0.0077495836 3.9738115e-06 1.932911e-05 -7.054444e-06 -0.0021157477 -5.139186e-05
-0.001233862 4.4000945e-08 8.1195285e-05 -1.0167549e-07 0.000742797 2.208574e-05 -0.002944839 -2.015053e-06
2.7646054e-05 2.7109843e-06 -0.0010539446 -4.4206372e-05 -0.00025270274 2.2344748e-08 2.5142426e-05 8.100252e-09
0.0002898737 9.208944e-06 -0.00022637895 3.8129727e-07 5.150741e-06 2.402164e-07 -4.2431682e-05 2.9069604e-06
-5.2137402e-05 2.8017075e-09 -1.1701802e-06 -1.9688988e-10 0.00029664743 1.8103305e-05 0.0016030485 1.0599949e-06
2.2132004e-05 -2.153307e-06 0.0018950041 3.966221e-05 -0.0058552832 -2.8769962e-06 5.306118e-05 3.8477833e-06
0.004642217 0.00012070527 -0.010165745 -5.445289e-06 6.643197e-05 6.8464255e-06 0.00024252471 -2.1995585e-05
0.00083306764 2.0780132e-07 2.941266e-05 5.0290424e-08 -0.0023531206 -7.740857e-05 0.005451062 2.4805834e-06
-3.1764812e-05 -4.9141877e-06 0.0011360134 4.4142907e-05 0.00015146505 -1.1437423e-08 -2.3428249e-05 -1.1124718e-08
-8.246624e-05 6.8196787e-06 0.000104055536 -1.686004e-10 9.03754e-06 6.0663576e-09 -0.00096103054 -4.0427814e-05
-0.00023374426 1.0348885e-08 1.7127719e-05 2.597694e-08 6.365333e-05 -6.098927e-06 0.0001210939 1.329799e-08
-1.0691272e-05 -5.6915256e-10 -0.0033780793 -0.00014142551 0.006212664 -1.0461328e-07 -9.434032e-06 1.403102e-06
-0.0001789887 1.9768422e-07 1.1200846e-06 8.806748e-09 2.2695887e-05 -9.003989e-09 -0.0007989559 -2.665745e-05
0.00057646865 5.4410975e-08 4.4120214e-05 -4.7843837e-08 0.00010529739 -6.6887073e-06 -4.1522777e-05 -3.442927e-09

exp_avg_sq f4 [128, 6]
00000000: bbbf dd37 610c b932 520e 6238 bfa6 4f28
00000010: a84e f931 c921 5b28 19b3 5d38 3373 8c33
00000020: 1542 213a 49a7 162d d708 d932 32da a62c
00000030: f8a3 3936 d075 6431 b9c2 f833 3177 8226
00000040: 659f 6830 939b 6226 48c1 ac37 f54f e532
00000050: 3965 5139 4576 072c 51b2 1f32 1c6d bc2b
00000060: 401d 7731 7ce3 412e ed56 3231 5746 e223
00000070: 21b0 f82d 0005 8123 b289 8f32 d149 9b2f
00000080: ad32 8032 b647 f024 ae49 0f2f 449e e624
00000090: 5ab4 e837 0e58 e432 9899 6339 0a04 9b2b
000000a0: d3a9 3b32 2f47 512b d6a9 6b34 e4ca d82f
000000b0: 4afe 8a32 7d8b 3125 6d47 262f 2fde b324
000000c0: 5a4d 2336 11cf 2731 2e8c 7835 79bd 5626
000000d0: 2153 1f30 caaa 3826 d16d 0533 bb4e ba2f
000000e0: ea17 d033 25f0 9226 c22a 8b2f 1e32 6d27
000000f0: 6aac 2733 2259 c82f 9b04 8f33 2003 3b25
00000100: 0391 462f 1621 b325 3704 2135 e2ca 1530
00000110: 2c66 9a32 227e 1925 f5b7 172f 2f36 f424
00000120: c764 f437 9eb8 6d33 fb2c 053a 74c2 b32c
00000130: 2258 8a32 4f0f b42c 7111 fd34 85e8 f02f
00000140: ebc7 cc32 22f4 1825 2738 092f 18ec 1f25
00000150: 143d 4b37 0875 5332 54c8 8838 fbc5 3228
00000160: fbcb a431 97ac 3e29 58c5 b832 6135 952f
00000170: b481 6f32 9358 0e25 5613 1e2f 0ffa a224
00000180: 74cb fb31 b17d 242f 15f4 0732 00c3 7924
00000190: ef9a c42e 2cb6 8a24 656c d233 2797 8630
000001a0: 1e18 a436 0505 3929 a7a1 ff2f db82 9d29
000001b0: 9099 9237 9893 dc32 7a66 7239 9fba 6b2c
000001c0: 54a0 1832 4145 fb2b 5db3 0337 4675 2232
000001d0: 9cfd ab34 bc5e 5f27 39d1 3431 6102 3b27
000001e0: a176 9436 a3d8 a931 882d 4938 21d6 342a
000001f0: 2b40 0a31 388e 272a 3455 5636 8013 c031
00000200: 2bc5 4638 2250 0a2b 9663 f330 1cbd e02a
00000210: 944a 0a37 8d8d 0932 a1c5 9738 8637 2f2b
00000220: 3e76 6f31 8781 df2a 6fe9 6936 96cf 5d32
00000230: 2ce3 f338 6120 4b2c 7333 7131 3d3d 202c
00000240: 6dfa 5f38 d016 8633 1820 0e3a c866 b62c
00000250: 7974 c332 b0b9 6f2c 2342 a037 940b 6732
00000260: 80b9 c338 b6f1 be27 c243 c231 389e e327
00000270: fc28 3736 22be e131 3e6a 7738 5bca ee2b
00000280: 949e 1431 9581 742b 0c55 6335 870e c230
00000290: f057 4d33 a9c6 c925 8827 9e2f b870 bc25
000002a0: 43ff 7834 cc26 a82f e0de 1b36 097c e629
000002b0: d7d5 0c2f 99fa 8029 cb1e 1e32 f31f b22e
000002c0: 7040 ac32 5550 3124 d1d7 812e 475e 7d24
000002d0: 8913 fc36 ba21 1a32 4ae7 4338 28b0 c92a
000002e0: faeb 3431 c0fd be2a 5721 de37 6df8 0d33
000002f0: 6d40 9b39 16a5 722c 2ed2 5132 d47e e92b
00000300: 85df 4338 01cf 9d33 9eb6 323a c3bf 692d
00000310: 3bdb d932 de64 e72c f6bc aa34 824b 2131
00000320: dd27 8537 ac39 8628 33ad 4d30 4e53 bb28
00000330: 8ed0 7237 dc9b 7f32 46a1 1839 a724 052c
00000340: 5225 d831 a38f af2b 8ce7 2736 ff1a 3c31
00000350: 2d98 0634 e69f 4226 966a 3230 c433 3626
00000360: bd76 1032 bee3 de2e 108a 3c32 fdd4 0524
00000370: f93c 692e 7f5e 4924 3b9d e635 6536 fb30
00000380: 9f5d 8833 e5a6 0526 948b 1230 1aad ea25
00000390: d159 ec32 621d 772f 8032 b334 1712 6525
000003a0: be29 232f 6c03 8625 00a0 3538 762d 6533
000003b0: fb78 df39 0b11 9d2b 92b0 a232 58a5 b62b
000003c0: eb5f 0134 4664 872f aafe 1d32 c210 b324
000003d0: 03b9 952e 43c4 9e24 81fd 4936 7a42 4031
000003e0: 131d f834 3162 c726 a0ef 5b30 c9b2 6b26
000003f0: 07dd f733 2274 2a30 83b7 ce32 9a9b 9725
2.6434534e-05 2.1542464e-08 5.3895936e-05 1.1526966e-14 7.255796e-09 1.2164268e-14 5.2857304e-05 6.5402126e-08
0.00061515096 8.563658e-12 2.5266145e-08 4.7422283e-12 2.766259e-06 3.3245335e-09 1.158382e-07 9.052869e-16
8.462762e-10 7.8620343e-16 2.0594001e-05 2.6695469e-08 0.00019969502 1.9250307e-12 9.2955625e-09 1.3388487e-12
3.5959857e-09 4.4085166e-11 2.595182e-09 2.453276e-17 2.8272553e-11 1.3988326e-17 1.6710008e-08 2.8246785e-10
1.4924206e-08 1.0420489e-16 1.303195e-10 1.0001471e-16 2.7740538e-05 2.6582736e-08 0.00021705625 1.1014533e-12
1.0923446e-08 7.4350503e-13 2.1947866e-07 3.9434334e-10 1.6180952e-08 1.5399563e-16 1.5122988e-10 7.800527e-17
2.4333917e-06 2.4419402e-09 9.259119e-07 7.450295e-16 5.7961996e-10 6.4069286e-16 3.1066353e-08 3.3889144e-10
9.690105e-08 1.0195876e-15 2.5314334e-10 3.2917526e-15 3.9039527e-08 3.644312e-10 6.659794e-08 1.6220723e-16
1.8059514e-10 3.107397e-16 5.998331e-07 5.44942e-10 1.7974422e-08 1.331337e-16 1.3798725e-10 1.0590992e-16
2.9133995e-05 5.534877e-08 0.000508025 5.1090746e-12 1.6105393e-08 5.1176073e-12 4.7137613e-07 4.382096e-10
2.3839638e-08 1.3266614e-16 1.2480027e-10 1.3871043e-16 1.2113964e-05 1.2308426e-08 6.5222994e-05 9.923915e-15
4.796218e-09 4.2338173e-14 2.151016e-08 2.714087e-10 1.3941122e-08 1.2346547e-16 1.4376886e-10 7.0679917e-17
7.3281914e-09 1.4960368e-10 7.913532e-09 5.415844e-17 8.94057e-11 6.015657e-17 9.798604e-08 9.792743e-10
4.8903885e-06 4.1082606e-14 4.649909e-10 6.9949004e-14 1.7476064e-05 2.5678489e-08 0.00023117094 3.3499104e-12
8.884019e-09 1.7853844e-12 7.84997e-06 9.456306e-09 3.2035757e-07 3.0998822e-15 2.6312377e-09 2.5952753e-15
4.424554e-06 4.943176e-09 4.796454e-05 1.6061502e-13 2.0118118e-09 1.4881922e-13 3.193808e-06 5.5901523e-09
4.7390506e-05 4.9138655e-13 1.7708881e-09 3.9921614e-13 8.242805e-06 8.0066345e-09 7.237052e-05 6.2249544e-13
3.484629e-09 3.9702635e-13 3.4855582e-06 1.2911093e-08 0.00011629457 2.886601e-12 3.5099361e-09 2.2771362e-12
5.340057e-05 6.244011e-08 0.00054216525 5.184162e-12 2.2753953e-08 3.406702e-12 1.9104284e-05 1.3448602e-08
9.332877e-05 5.2997657e-15 5.6538463e-09 6.3176698e-15 2.729298e-06 6.5699775e-09 5.8988335e-05 1.6967082e-12
2.1626976e-09 8.6866045e-13 8.468785e-07 1.4119487e-09 4.781026e-08 3.500256e-16 2.876812e-10 3.2689183e-16
2.3189664e-07 3.058659e-10 2.322653e-06 1.02355685e-13 1.2808897e-10 5.7278136e-14 9.203812e-09 8.100178e-11
2.0052738e-08 3.84488e-17 5.9045775e-11 5.4940486e-17 7.5124594e-06 8.971648e-09 4.6707028e-05 3.5827005e-13
2.6327585e-09 3.3926854e-13 2.6479987e-05 3.3055063e-08 0.00029611905 3.448191e-12 1.22131905e-08 1.6590848e-12
4.669979e-05 7.348536e-08 0.0006817373 1.3287096e-11 2.536182e-08 6.5766134e-12 3.1802455e-07 2.3471505e-09
1.5873398e-05 1.4902e-14 7.4824696e-10 2.0797298e-14 1.4472882e-05 1.4878392e-08 0.00014555929 1.8920783e-12
6.29067e-09 1.2474365e-12 2.5019717e-06 2.7372946e-09 1.2535084e-07 6.7523974e-16 6.490749e-10 6.321409e-16
8.408901e-09 1.0135846e-10 1.0974432e-08 2.9020186e-17 5.303222e-11 4.366497e-17 1.7182095e-06 1.8278113e-09
6.350023e-08 4.636983e-16 5.3312843e-10 4.0709828e-16 2.751486e-08 2.2474958e-10 3.3378092e-07 1.9868713e-16
1.4839593e-10 2.3247613e-16 4.3302774e-05 5.3359564e-08 0.00042624012 1.1160251e-12 1.8939577e-08 1.297777e-12
1.2048956e-07 2.4627606e-10 9.196507e-09 7.7657264e-17 6.8086e-11 6.885406e-17 3.0098893e-06 2.7977465e-09
4.6214754e-07 1.3835014e-15 8.0012263e-10 8.17743e-16 1.15420384e-07 6.2010674e-10 2.4065008e-08 2.6299764e-16

exp_avg f4 [128]
00000000: 298f 1539 d57e c7b8 51b3 5738 1873 98b8
00000010: e7ae 8e34 14f8 7ab5 822f 09b9 0149 b8b6
00000020: e966 a8b6 dacf 4936 ad7f ebb6 8d98 bdb7
00000030: bed8 24b8 36ea 4bb7 07b6 a038 c952 5437
00000040: 9adb 0b37 000f f235 77fa b238 533a 2c38
00000050: 6967 ebb6 f664 8037 6e4f 81b8 47ab 56b7
00000060: c61a 1739 6d8f 4838 4c3f f2b7 70b2 2838
00000070: bc9f 02b7 5e08 32b6 e07b 38b7 6f61 4db8
00000080: fbfd 0cb9 84cb ac37 c4f9 a738 acbb 28b8
00000090: ed62 cfb6 893c 1a38 b443 bc36 55a9 0539
000000a0: c693 43b4 3074 cb37 f1da cb36 95e2 9237
000000b0: 86f1 6734 c6ea 0737 404a 7eb8 7887 be37
000000c0: 9b26 0d38 ac0e 19b8 776a 9f37 df77 6cb6
000000d0: 1c5d fb37 8d23 1d38 0221 d1b5 1509 4c38
000000e0: e542 5ab9 9d20 3eb7 d3ab 0e39 78c6 f235
000000f0: 519f 9737 c247 9536 b257 10b5 9c76 7fb5
00000100: 0fa6 66b7 3db1 76b6 5ed9 2db8 1f99 11b8
00000110: dc2d 06b6 57c3 bdb7 c6d3 a038 a487 7137
00000120: d1b8 4935 70b1 9cb8 e522 a337 85a2 bb37
00000130: ceb2 49b8 3529 1cb7 108e c5b6 0c25 7f36
00000140: 3f6b ab37 7a12 0db8 1cc1 28b7 359a 18b8
00000150: cd74 1b38 8cbd 0038 1c62 52b7 fc20 c8b7
00000160: 8972 95b6 1e4d 8537 cb3d b337 0358 56b8
00000170: fe4e 7c37 cea2 97b8 f486 c438 b454 1a38
00000180: 4352 47b8 d651 1fb7 0a0e 9437 34db 8e38
00000190: 492f 19b7 3adb 9b37 b9cc 20b8 3059 3d37
000001a0: 07cd 8cb6 3437 fbb7 75ed d2b5 21c5 1838
000001b0: 437a b738 072b 0cb8 ca25 3738 b14a 2039
000001c0: 1d4e 17b6 e2e5 9db6 3c1d cfb8 b147 7137
000001d0: 4ef8 2937 0458 5036 7009 ac38 8701 22b8
000001e0: fcec 2739 f32f c937 9c48 ea34 91d9 e7b8
000001f0: d02a 4c37 c362 0d38 095a f738 7819 ab37
0.00014263079 -9.512684e-05 5.1426996e-05 -7.269363e-05 2.657682e-07 -9.349326e-07 -0.00013083036 -5.492126e-06
-5.0187705e-06 3.007232e-06 -7.018409e-06 -2.2601593e-05 -3.9302504e-05 -1.2154274e-05 7.6633e-05 1.265546e-05
8.336176e-06 1.8034771e-06 8.534354e-05 4.1062314e-05 -7.0155843e-06 1.5305803e-05 -6.165994e-05 -1.2795273e-05
0.00014410456 4.781729e-05 -2.8878123e-05 4.0220504e-05 -7.785795e-06 -2.6528937e-06 -1.09960965e-05 -4.896655e-05
-0.00013446056 2.0598767e-05 8.009703e-05 -4.0229104e-05 -6.180597e-06 3.677284e-05 5.6107183e-06 0.0001274695
-1.821455e-07 2.425359e-05 6.0753596e-06 1.7510067e-05 2.1601417e-07 8.1012895e-06 -6.062747e-05 2.2712848e-05
3.3652974e-05 -3.6491707e-05 1.9003854e-05 -3.5236515e-06 2.996489e-05 3.7464826e-05 -1.558132e-06 4.864585e-05
-0.0002081502 -1.1332476e-05 0.00013606185 1.8088167e-06 1.807479e-05 4.4488997e-06 -5.3771794e-07 -9.51675e-07
-1.3747732e-05 -3.6760023e-06 -4.1448853e-05 -3.47133e-05 -1.999425e-06 -2.2621518e-05 7.6688404e-05 1.4396301e-05
7.514728e-07 -7.47171e-05 1.9447363e-05 2.2367816e-05 -4.808866e-05 -9.307919e-06 -5.8875958e-06 3.8019525e-06
2.0434729e-05 -3.3634227e-05 -1.0058542e-05 -3.638324e-05 3.706366e-05 3.0694107e-05 -1.2539818e-05 -2.3857217e-05
-4.4538797e-06 1.5890746e-05 2.1367237e-05 -5.1103543e-05 1.5038762e-05 -7.230566e-05 9.371145e-05 3.6795347e-05
-4.752191e-05 -9.496192e-06 1.7649512e-05 6.8119174e-05 -9.13052e-06 1.8579525e-05 -3.8337635e-05 1.1286043e-05
-4.1961935e-06 -2.9947238e-05 -1.5715328e-06 3.6423215e-05 8.748893e-05 -3.3418673e-05 4.3665794e-05 0.00015286614
-2.2546221e-06 -4.7057265e-06 -9.8759745e-05 1.4381411e-05 1.0130998e-05 3.1045647e-06 8.203357e-05 -3.8625232e-05
0.00016014645 2.3983395e-05 4.3638727e-07 -0.00011055463 1.2169316e-05 3.3709e-05 0.00011794648 2.0396648e-05

exp_avg_sq f4 [128]
00000000: ff4b 9a32 cb34 6633 c215 3e31 4507 bd32
00000010: 42ea 202e 9767 802f 3279 bc32 1c1c b42f
00000020: 510e 0b31 66e6 9a2f 9345 a62f 7411 f92f
00000030: 2276 4333 e5ff c72f f757 2f32 6d30 782f
00000040: 63a9 082f fc5d 5c30 d805 b532 a663 0732
00000050: 9fb2 8c31 acbd 9e31 fb27 e231 5631 3332
00000060: 9d09 5d33 6b4f 4032 ee62 b831 8bbc a130
00000070: 3f6f 8c2f 2818 932e aed1 ff31 1fb7 e932
00000080: 9728 8133 7845 0531 4e33 5132 345f 1c31
00000090: ef0d b92e 32bc d030 d547 4c2f b54e 3d33
000000a0: 9057 612f abf8 1f31 5c99 0d30 7b43 f431
000000b0: 0cab c530 0e3f 8f30 d9db df31 e9f8 c932
000000c0: f70d fe32 dad5 3531 ea38 f532 ca2b 0430
000000d0: 08de 5131 6a39 7632 9688 152f 1347 2c31
000000e0: 2d0d 9d33 991d 9a2f f043 e732 d5e2 1f2f
000000f0: c55c e231 e018 7e31 3c23 3831 6f11 bc2f
00000100: b865 ec30 e59e 382e e026 2631 fa03 9b31
00000110: 1fc4 e42e 08d0 df31 e8c7 1833 02ae 0532
00000120: 9496 ab2e fd7d 4633 6ee4 0f30 ec58 cd30
00000130: dc5c a431 5ede 4632 1257 2c32 5fe1 882f
00000140: a0e8 aa30 e3b0 bd32 b5fb bd2f e9f4 1732
00000150: 809b 1f32 33ea 0d30 8f00 5533 8b62 0e33
00000160: 0a3a c030 a760 7430 b687 d230 f262 8732
00000170: 0e76 9732 5775 0e33 50d4 ca32 5307 3032
00000180: a1e3 5f32 4cef 852f 187c fa30 2324 7a32
00000190: 061e a62f 6c1e 4e31 178f 0e32 91df 4f33
000001a0: 29f3 0b30 081e ca31 4c2d 8731 d67a 3a34
000001b0: 176d 9c32 4e64 f230 dbb7 1632 6009 1333
000001c0: 37c0 eb30 676f 5430 92aa d431 402a bf2f
000001d0: e601 262f 057b 0331 ae06 d833 28de da31
000001e0: e9aa 9533 cccf 6732 d8da 3430 923b 2333
000001f0: c9b2 0331 b925 f230 44e3 2d33 e907 7b30
1.7962519e-08 5.3599063e-08 2.7661007e-09 2.2005802e-08 3.658785e-11 2.335667e-10 2.1941194e-08 3.2761782e-10
2.02353e-09 2.8176145e-10 3.024466e-10 4.5305237e-10 4.5509417e-08 3.6379713e-10 1.02063415e-08 2.2572673e-10
1.2429306e-10 8.0169094e-10 2.107383e-08 7.880692e-09 4.094843e-09 4.6199684e-09 6.582011e-09 1.0430389e-08
5.1464315e-08 1.11939285e-08 5.366352e-09 1.1767879e-09 2.5544897e-10 6.689077e-11 7.4453146e-09 2.7208044e-08
6.014414e-08 1.9393536e-09 1.21770665e-08 2.2755104e-09 8.415301e-11 1.518748e-09 1.8579212e-10 4.4076575e-08
2.0494739e-10 2.3278897e-09 5.151344e-10 7.1090063e-09 1.4382251e-09 1.0422541e-09 6.515148e-09 2.3512671e-08
2.9575842e-08 2.6460527e-09 2.8547635e-08 4.808355e-10 3.0539713e-09 1.4332139e-08 1.3599996e-10 2.5069695e-09
7.313279e-08 2.8033467e-10 2.6922834e-08 1.4541553e-10 6.5880124e-09 3.6976004e-09 2.6795552e-09 3.4209388e-10
1.720017e-09 4.1977883e-11 2.4178277e-09 4.511546e-09 1.0403078e-10 6.5138046e-09 3.557207e-08 7.781184e-09
7.802928e-11 4.6215053e-08 5.2347715e-10 1.4940986e-09 4.783585e-09 1.1575677e-08 1.0031515e-08 2.4898392e-10
1.2435244e-09 2.2082935e-08 3.4557748e-10 8.845043e-09 9.290375e-09 5.162832e-10 4.9593435e-08 3.3151576e-08
1.3986334e-09 8.8904034e-10 1.5318082e-09 1.5761064e-08 1.7632399e-08 3.316867e-08 2.3612444e-08 1.0246214e-08
1.3032065e-08 2.436259e-10 1.8225164e-09 1.4560132e-08 3.0216557e-10 2.9994238e-09 8.298023e-09 4.8399276e-08
5.0913457e-10 5.882388e-09 3.9341668e-09 1.7367287e-07 1.8210399e-08 1.7636326e-09 8.772953e-09 3.423463e-08
1.7153131e-09 7.7283463e-10 6.1894037e-09 3.4772718e-10 1.5098287e-10 1.9132937e-09 1.0059499e-07 6.3698913e-09
6.9694416e-08 1.3493217e-08 6.5794614e-10 3.8005574e-08 1.9164637e-09 1.7618539e-09 4.04864e-08 9.132451e-10
