results/ppo/My Behavior/My Behavior-704.onnx (onnx, 72951 bytes, 7 tensors)

action_model._continuous_distribution.log_sigma f4 [1, 2]
000000 00 00 00 00 00 00 00 00
       0.0 0.0

action_model._continuous_distribution.mu.bias f4 [2]
000000 00 00 00 00 00 00 00 00
       0.0 0.0

action_model._continuous_distribution.mu.weight f4 [2, 128]
000000 ab d9 99 3c fe 28 8d bc 27 43 8e bc 87 fe ca ba
       0.01878055 -0.01723146 -0.017366005 -0.0015487232
000010 a7 c5 86 bc 79 ad a2 bb a8 66 40 3c fd 83 42 bd
       -0.01645167 -0.004964527 0.011743225 -0.047489155
000020 94 75 9c 3c 47 bd b0 bb 9e 80 87 3c 5b a5 00 3c
       0.019099034 -0.0053936574 0.016540822 0.007851924
000030 f5 16 58 bc 52 38 df 3c 30 19 c9 bc cb 1c 27 bb
       -0.013189067 0.027248535 -0.024548143 -0.002549934
000040 a3 4b 7e 3c 08 c7 70 3c 42 cd 4d bb e4 c9 13 3a
       0.015520963 0.01469589 -0.003140286 0.0005637689
000050 c1 ed 9c bc cb bc 07 3c 69 b0 9e bc c4 6f bc 3c
       -0.019156339 0.008284758 -0.019371228 0.023002513
000060 0c 14 af bc bf 3e 28 3b cb f2 c0 bc 1f ca 48 3b
       -0.021371864 0.0025672165 -0.023553273 0.0030638052
000070 7a a7 9f 3b bb 19 39 3c 9f da e9 3c 78 b0 64 3c
       0.0048722597 0.0112976385 0.02854663 0.013958089
000080 c5 2e cf bb 02 10 ce 3c 0a 2a 0b bc c8 b5 f4 bc
       -0.006322714 0.025154117 -0.00849391 -0.029871836
000090 76 40 ad bc 6f 07 c9 bc 16 87 8e bc bd ba 08 3c
       -0.021148901 -0.024539677 -0.017398398 0.008345303
0000a0 b6 a1 85 3c df 97 8b bc 05 4a d5 3b 90 5e 09 3c
       0.016312461 -0.017040191 0.006509068 0.008384362
0000b0 e3 9c 4e 3c 00 ef 06 3b 3c e6 98 3c 6a 44 28 3c
       0.012610647 0.0020589232 0.018664472 0.010270217
0000c0 f0 92 db bb c1 99 42 ba df a3 13 bd 48 c1 e4 3c
       -0.006700866 -0.0007423424 -0.03604495 0.027924195
0000d0 00 43 e6 bb 8c 8a 8f 3c 2b ad 72 bb 01 3c aa bb
       -0.00702703 0.017522119 -0.0037029486 -0.0051951413
0000e0 f0 b8 10 bc 97 be 16 bd d3 c7 c2 3a 5b 49 b4 3b
       -0.008833155 -0.036802854 0.0014860578 0.0055019087
0000f0 76 a5 86 bc 51 e2 93 3c 2f 57 a7 bc 67 51 c5 3b
       -0.01643632 0.018052252 -0.020427315 0.006021667
000100 6b 27 2d bc 87 d0 00 3d 55 37 8b 3c a0 ba 6f 3c
       -0.01056848 0.031448867 0.016994158 0.014631897
000110 7a 3e dc bc 87 8d 03 bd 43 24 02 bd 43 ba db 3c
       -0.02688526 -0.032117393 -0.031772863 0.026822215
000120 bb 00 13 3b f3 f0 90 bc ca 4b 15 ba 12 0e b1 3b
       0.0022430855 -0.017693019 -0.00056951924 0.0054032886
000130 2b 61 b9 ba 3a 68 a8 3c 9b 00 bd 3c 73 34 60 3d
       -0.0014143338 0.020557512 0.023071578 0.05473752
000140 6f ae 00 3c 26 c5 0c bc 63 3b 47 bc c3 61 23 3c
       0.007854088 -0.008591926 -0.012160155 0.009972039
000150 b2 d5 ff bb 6d 02 4d bc b5 9e 71 bb 1d 3f 79 3c
       -0.007807457 -0.012512785 -0.0036868278 0.015212801
000160 3e e8 06 3c a0 2f 8c 3c 47 b3 9d 3c cf 7c 87 bb
       0.008234082 0.017112553 0.019250525 -0.0041347514
000170 ed 40 ce bb 9a c7 04 bd 77 98 a8 3c 9f e7 ea b9
       -0.006294361 -0.032416917 0.020580513 -0.0004480453
000180 09 b0 36 bc ea bd 82 bb 7d 2c 4f bc 7d 19 ec 39
       -0.0111503685 -0.0039899247 -0.012644884 0.00045032418
000190 33 4b 4a bc a2 08 d5 bc 87 14 66 bc b7 35 a0 bb
       -0.01234703 -0.026005093 -0.01404298 -0.004889216
0001a0 21 2b 4a 3c 1e 7e a0 bc da eb 6e bb f3 ac 52 bc
       0.012339384 -0.019591387 -0.0036456496 -0.012858617
0001b0 dd d9 25 3d 22 e4 be bc fd 9f a8 3c 12 69 11 3c
       0.040490974 -0.023302142 0.0205841 0.008875148
0001c0 4a f7 63 bb e3 65 60 3c 0f 23 c3 3b 53 d0 bc 3c
       -0.0034784847 0.013696167 0.005955107 0.023048555
0001d0 4d a2 b2 bb 58 d0 21 3c 55 1e 7a bb 8b 55 13 3c
       -0.0054514767 0.009876333 -0.0038165052 0.008992563
0001e0 13 a8 2a bc 73 1b 27 3b eb a3 a6 bb 51 aa 05 bd
       -0.010416049 0.0025498539 -0.0050854585 -0.03263313
0001f0 2d 5f e4 3c e0 46 be 3c 55 92 e7 3c 00 da 0c bc
       0.027877415 0.023227155 0.028268019 -0.008596897
000200 3b 71 22 bc d5 9d ad bc 12 1f d2 bc fd f0 bd bb
       -0.009914692 -0.021193424 -0.025649581 -0.0057965503
000210 9b 16 82 3c 84 32 09 bd dd f1 85 3c a0 7b 8e bc
       0.01587992 -0.03349544 0.016350681 -0.017392933
000220 e0 a7 ee b9 23 9b 3b bc a3 1a c6 bc 32 36 3d bb
       -0.00045519974 -0.011450562 -0.024182623 -0.0028871414
000230 bb 11 c8 bc 82 73 62 3c 67 bb 83 bc db a6 d0 3c
       -0.024422517 0.0138214845 -0.016080571 0.025470188
000240 29 5c b1 bc c6 1f 8a 3c d5 40 e2 bb 3f 05 98 bc
       -0.02165039 0.016860854 -0.0069047012 -0.018557189
000250 aa 60 61 3b 4e be 1f bc dd 70 e8 3b cf fd 2c bc
       0.0034389892 -0.009749962 0.0070935325 -0.01055856
000260 17 76 f8 bb 77 c8 5e bc cf 97 af bb ac de 11 bc
       -0.007582437 -0.013597599 -0.005358673 -0.008903187
000270 18 13 01 3d b2 36 0e 3d 0c 25 8f 3c cc 47 04 3d
       0.03151235 0.03472013 0.01747372 0.032295033
000280 18 4d 24 3d bf 9a ad 3b 66 97 bf bc f3 92 bf ba
       0.040112585 0.005297988 -0.023387622 -0.0014615938
000290 5c 11 3a 3c 1d 58 d6 bb 55 37 ce bc 18 6e 50 3c
       0.011356678 -0.0065412656 -0.025172869 0.012721561
0002a0 62 d2 f2 bc 48 de a0 bb f1 a6 89 3c 71 68 3a 3c
       -0.029641334 -0.0049093105 0.016803237 0.01137744
0002b0 80 33 af 3c ff a6 bc 3b 1d 17 b0 bb c9 70 15 3c
       0.021386862 0.005757212 -0.005373849 0.009121128
0002c0 43 df 4d bd f8 1e 36 bb 89 ee 00 3b 79 63 0f bc
       -0.050261747 -0.0027789455 0.0019673428 -0.0087517435
0002d0 09 a2 32 bc f7 9e 94 3c 7c f5 11 bd d2 a2 a7 bc
       -0.01090289 0.018142207 -0.035634503 -0.020463381
0002e0 63 38 c7 bc 13 7c b1 bc 43 a5 63 bc 35 53 42 3d
       -0.02431888 -0.021665609 -0.013894382 0.047442634
0002f0 8d 33 4e 3a 28 74 c5 3b 10 b7 76 3c 33 be 3b bd
       0.0007865958 0.00602581 0.015058294 -0.045835685
000300 bc 75 87 bc aa 47 6d bc e3 8f 7b bc 9f 0b a3 bc
       -0.016535632 -0.014482418 -0.0153541295 -0.019903002
000310 af d1 19 bc fa fe dd bc 4c 56 a0 bc d6 fe 00 bc
       -0.009388371 -0.027099121 -0.0195724 -0.007873258
000320 79 55 1b 3d bb 16 9c 3c 0c 69 a6 bc 3c 31 ac 3b
       0.03792331 0.019053807 -0.020313762 0.0052548926
000330 af 52 a0 bc ba 97 88 bc a6 d4 a1 bc c5 47 93 3c
       -0.019570677 -0.016673911 -0.019754719 0.017978558
000340 1a ec e8 3c db f7 be bb 28 1c 55 ba 48 ba 18 3c
       0.028432894 -0.0058278865 -0.0008129501 0.009321757
000350 27 eb b8 bc 5c 57 ca 3c 18 ce 0d 3d 80 11 e4 3b
       -0.022573067 0.02469986 0.034620374 0.006960094
000360 3c 30 9f bb b7 8a e2 3b 5b f8 ab 3c 4b 77 85 3c
       -0.004858045 0.0069135088 0.020992449 0.016292235
000370 15 c1 3f bb 77 93 2f 3b 06 c6 04 bc 3a 0f 65 ba
       -0.0029259373 0.0026790777 -0.008103853 -0.00087379257
000380 47 38 be 3c 15 59 f3 ba 80 d6 b5 bb 35 5a b6 3b
       0.023220195 -0.0018565977 -0.005549252 0.0055649527
000390 7a 4d 20 bb 1f 3f 19 3c a7 fd 89 3c c2 55 11 bc
       -0.0024460242 0.009353428 0.016844584 -0.008870544
0003a0 1a 7f e4 3c 9f 4c 1a bd 6e d2 31 3c 09 4c 13 bd
       0.027892638 -0.037670728 0.010853393 -0.035961185
0003b0 57 37 84 bc bf 6b 97 3c 1e e7 85 39 1c 9b 8f bb
       -0.01613967 0.018483995 0.00025539933 -0.004382504
0003c0 12 0b ef 3b af 23 06 bd e5 f0 02 3c a1 c1 bf 3a
       0.007295021 -0.032748874 0.007992004 0.001462985
0003d0 d2 4b 76 3b 51 47 9f 3b 27 d2 d0 bc 6c 23 a9 3c
       0.0037581814 0.0048607965 -0.025490833 0.020646773
0003e0 42 0d 6e 3c 37 64 bd 3b 03 68 ea bb 53 e1 a3 bc
       0.014529528 0.005779769 -0.0071535124 -0.020004904
0003f0 73 17 7b 39 4a b8 cc bb 73 98 88 3a b3 b0 b8 3c
       0.00023945961 -0.006247555 0.001042141 0.022545194

network_body.linear_encoder.seq_layers.0.bias f4 [128]
000000 00 00 00 00 00 00 00 00 00 00 00 00 00 00 00 00
       0.0 0.0 0.0 0.0
000010 00 00 00 00 00 00 00 00 00 00 00 00 00 00 00 00
       0.0 0.0 0.0 0.0
000020 00 00 00 00 00 00 00 00 00 00 00 00 00 00 00 00
       0.0 0.0 0.0 0.0
000030 00 00 00 00 00 00 00 00 00 00 00 00 00 00 00 00
       0.0 0.0 0.0 0.0
000040 00 00 00 00 00 00 00 00 00 00 00 00 00 00 00 00
       0.0 0.0 0.0 0.0
000050 00 00 00 00 00 00 00 00 00 00 00 00 00 00 00 00
       0.0 0.0 0.0 0.0
000060 00 00 00 00 00 00 00 00 00 00 00 00 00 00 00 00
       0.0 0.0 0.0 0.0
000070 00 00 00 00 00 00 00 00 00 00 00 00 00 00 00 00
       0.0 0.0 0.0 0.0
000080 00 00 00 00 00 00 00 00 00 00 00 00 00 00 00 00
       0.0 0.0 0.0 0.0
000090 00 00 00 00 00 00 00 00 00 00 00 00 00 00 00 00
       0.0 0.0 0.0 0.0
0000a0 00 00 00 00 00 00 00 00 00 00 00 00 00 00 00 00
       0.0 0.0 0.0 0.0
0000b0 00 00 00 00 00 00 00 00 00 00 00 00 00 00 00 00
       0.0 0.0 0.0 0.0
0000c0 00 00 00 00 00 00 00 00 00 00 00 00 00 00 00 00
       0.0 0.0 0.0 0.0
0000d0 00 00 00 00 00 00 00 00 00 00 00 00 00 00 00 00
       0.0 0.0 0.0 0.0
0000e0 00 00 00 00 00 00 00 00 00 00 00 00 00 00 00 00
       0.0 0.0 0.0 0.0
0000f0 00 00 00 00 00 00 00 00 00 00 00 00 00 00 00 00
       0.0 0.0 0.0 0.0
000100 00 00 00 00 00 00 00 00 00 00 00 00 00 00 00 00
       0.0 0.0 0.0 0.0
000110 00 00 00 00 00 00 00 00 00 00 00 00 00 00 00 00
       0.0 0.0 0.0 0.0
000120 00 00 00 00 00 00 00 00 00 00 00 00 00 00 00 00
       0.0 0.0 0.0 0.0
000130 00 00 00 00 00 00 00 00 00 00 00 00 00 00 00 00
       0.0 0.0 0.0 0.0
000140 00 00 00 00 00 00 00 00 00 00 00 00 00 00 00 00
       0.0 0.0 0.0 0.0
000150 00 00 00 00 00 00 00 00 00 00 00 00 00 00 00 00
       0.0 0.0 0.0 0.0
000160 00 00 00 00 00 00 00 00 00 00 00 00 00 00 00 00
       0.0 0.0 0.0 0.0
000170 00 00 00 00 00 00 00 00 00 00 00 00 00 00 00 00
       0.0 0.0 0.0 0.0
000180 00 00 00 00 00 00 00 00 00 00 00 00 00 00 00 00
       0.0 0.0 0.0 0.0
000190 00 00 00 00 00 00 00 00 00 00 00 00 00 00 00 00
       0.0 0.0 0.0 0.0
0001a0 00 00 00 00 00 00 00 00 00 00 00 00 00 00 00 00
       0.0 0.0 0.0 0.0
0001b0 00 00 00 00 00 00 00 00 00 00 00 00 00 00 00 00
       0.0 0.0 0.0 0.0
0001c0 00 00 00 00 00 00 00 00 00 00 00 00 00 00 00 00
       0.0 0.0 0.0 0.0
0001d0 00 00 00 00 00 00 00 00 00 00 00 00 00 00 00 00
       0.0 0.0 0.0 0.0
0001e0 00 00 00 00 00 00 00 00 00 00 00 00 00 00 00 00
       0.0 0.0 0.0 0.0
0001f0 00 00 00 00 00 00 00 00 00 00 00 00 00 00 00 00
       0.0 0.0 0.0 0.0

network_body.linear_encoder.seq_layers.0.weight f4 [128, 6]
000000 0f 3a 75 3f b6 7b e0 be e9 11 e9 be 61 10 00 3e
       0.95791715 -0.43844384 -0.45521477 0.12506248
000010 5e 47 a9 be 34 39 a8 be 09 9e cb 3c ac 9b 31 be
       -0.3306226 -0.32856143 0.02485563 -0.1734454
000020 c2 d2 1c be 32 09 d0 3d 5d e2 35 3f a1 47 14 bf
       -0.15314773 0.10158004 0.7104853 -0.579218
000030 fb d8 1e 3f b7 7d 23 3e 8f 2f a8 be 7e 23 19 bf
       0.62049836 0.15965925 -0.32848784 -0.5981978
000040 62 2f 43 bf 25 4b 28 be 81 69 e5 3e 7e dc f6 be
       -0.76244175 -0.16434915 0.44807056 -0.48215097
000050 1d d7 33 3f d2 5c d2 3d 1a a0 2a bf 65 11 24 bc
       0.7025011 0.1027161 -0.66650546 -0.010013913
000060 89 f6 b2 be 36 4b 87 be 56 f6 ae 3e 44 b9 34 be
       -0.34953716 -0.2642457 0.34172314 -0.17648798
000070 64 6b aa bd 56 51 75 3f 10 79 03 3f a5 fe e7 3e
       -0.083212644 0.95827234 0.513566 0.45311466
000080 7a 14 b6 3d 3f 6a 6e be 6a e9 0f bf ca 1f c6 be
       0.08890624 -0.23282717 -0.56215537 -0.38696128
000090 43 8a 3e bf 25 a1 ef 3c ab de 68 be e3 9a 4d 3c
       -0.7442972 0.029251644 -0.22741191 0.012549135
0000a0 95 f2 42 bf e1 8b e8 3e 68 d5 5a bf 8f c9 09 be
       -0.761514 0.4541922 -0.8548188 -0.13455795
0000b0 e9 a5 80 be fa b3 d8 3d 1d be 95 3e 83 36 a7 3e
       -0.2512658 0.10581203 0.29246607 0.32658777
0000c0 0d 27 55 be d6 28 32 3e 4c 10 96 be d1 f8 dd be
       -0.20815678 0.1739839 -0.2930931 -0.43353894
0000d0 fb 2b 29 bf 9d 7f e1 be bc 1b 65 3e ab 03 f8 be
       -0.66082734 -0.44042674 0.22373861 -0.48440298
0000e0 45 6c a5 3e 38 00 07 3c e3 17 b9 3d 30 52 04 3f
       0.32309166 0.008239798 0.09037759 0.5168791
0000f0 76 ab 81 be 5b 89 35 bb 1f db af bf fc 49 3c be
       -0.25326127 -0.0027700278 -1.3738745 -0.18387598
000100 40 33 1b 3e 42 66 b2 bf 41 9e 58 be 12 d4 d3 be
       0.15156269 -1.3937457 -0.21154119 -0.41372734
000110 b2 53 50 3f e1 29 6d be 48 c6 ba 3d 66 9c 8b 3e
       0.8137771 -0.23160507 0.091198504 0.2726776
000120 b7 d4 01 3e b2 f5 c9 be de f1 b9 be 28 ad 54 3f
       0.126788 -0.39445263 -0.36317343 0.83076715
000130 48 af e8 3e cf 8a 90 3e 86 28 cc be 05 68 c2 be
       0.4544623 0.28230903 -0.39874667 -0.37969986
000140 eb de a2 be 2e b5 61 3e b7 64 28 3e 4e d2 db be
       -0.31810698 0.22041771 0.1644467 -0.42933887
000150 d3 33 ce 3e 4a b7 4c 3e ed 78 22 bf 2e c2 97 bd
       0.40273914 0.19991794 -0.6346577 -0.07410084
000160 bb 93 27 be ee 59 fd be 17 e0 8d be f1 08 09 bf
       -0.16364948 -0.49482673 -0.2771003 -0.5352927
000170 0a 19 48 be 4f 19 5c be 85 47 6f be 51 94 a3 be
       -0.19540802 -0.2149403 -0.23367126 -0.31949094
000180 19 48 d8 bc d0 00 06 3e 1f 3f f8 3e d4 44 ac 3e
       -0.026401566 0.13086247 0.48485658 0.33646262
000190 b4 b7 2e be 54 f8 17 bf 8e 01 48 bf 9a 41 2f bd
       -0.17062265 -0.59363294 -0.7812737 -0.042787172
0001a0 e5 cf 03 be 1f 70 60 be 6b 4d 50 be eb 1d fd 3d
       -0.12872274 -0.21917771 -0.20342033 0.12359222
0001b0 b4 b8 de bc ef ab 36 3f 91 5d 0c 3f 77 21 fd 3e
       -0.027187683 0.713561 0.5483027 0.49439594
0001c0 d4 0a 04 3f 0a e6 a4 be 9c 4e ad 3d e3 ce 0f 3e
       0.5157902 -0.32206756 0.08462259 0.14043765
0001d0 61 a8 38 bf 31 dc 0b 3f fb 0e 7a 3e 03 d0 e1 bc
       -0.72131926 0.5463286 0.24419777 -0.027565008
0001e0 3f 80 a5 be ec 90 b3 3e 6e a4 92 3e 64 34 48 3f
       -0.32324407 0.35071504 0.28641075 0.7820494
0001f0 9f 61 03 3f a4 c0 29 3d eb be 0b bf 10 8f 16 bf
       0.5132083 0.041443482 -0.5458819 -0.58812046
000200 61 4c 7c 3d 9b 71 e0 be ab b7 ad 3e 5d bb 71 be
       0.061596278 -0.43836674 0.3392919 -0.2360663
000210 03 d8 8e 3e 4e 70 24 bd f5 be 5e bf 31 61 00 3e
       0.2789918 -0.040146165 -0.8701013 0.12537076
000220 41 44 60 be 1a 0c 3f 3f d6 04 99 3e 9c c5 3f 3f
       -0.21901037 0.7462784 0.29886502 0.749109
000230 83 a6 3a 3f a3 fd 3e bd a6 1f 22 bf b8 3e c4 3e
       0.72910327 -0.046628606 -0.6332954 0.383291
000240 0d 3b e6 3d 4f 0c b0 be b0 51 b1 bd f4 d6 4a 3e
       0.11241732 -0.3438439 -0.08658159 0.1980856
000250 be 41 40 bf f5 db 0c bf df 94 a0 3e 39 d3 c7 bd
       -0.75100315 -0.5502313 0.3136358 -0.097570844
000260 e1 41 19 3f 0e 5a e0 3e 7e 49 5a be 32 e3 d9 bc
       0.5986615 0.43818706 -0.21317098 -0.026597593
000270 ad 5a 1a bf 87 09 ce 3d 91 64 0e 3f d3 b8 6c be
       -0.6029461 0.10060411 0.556222 -0.2311738
000280 f0 f0 e2 3d e7 d2 8f 3e cc 9c c3 be fa 87 7b 3e
       0.110811114 0.28090593 -0.38205564 0.2456359
000290 23 75 5b 3e 10 12 a1 bc 3d d3 9a bb 96 4e a2 be
       0.21431403 -0.019661933 -0.0047248886 -0.3170058
0002a0 54 d3 84 3d ad de ab be 04 d6 06 3e eb 94 10 3f
       0.0648562 -0.33568326 0.13167578 0.5647723
0002b0 70 38 0e bf e1 f9 11 bf 33 ad 85 be 0a 8e b5 3e
       -0.55554867 -0.5702191 -0.26108703 0.3545993
0002c0 b2 d3 9d 3e fd 41 7b 3e 3f 39 6d 3e ed 32 82 bf
       0.30825573 0.24536891 0.23166369 -1.0171791
0002d0 f9 e0 e3 bc b0 9a 42 3e 96 09 62 bf e8 fd 23 bf
       -0.027817236 0.19004321 -0.88295877 -0.64059305
0002e0 2f 7b 96 3e 36 af 2c 3e 46 34 e4 be 17 1e 87 3e
       0.29390857 0.16863713 -0.4457113 0.26390144
0002f0 9b bd e6 3e 57 11 33 3f 56 17 ea 3e a8 64 87 3e
       0.45066532 0.69948334 0.4572093 0.26443982
000300 96 24 8d 3d 47 24 e2 3e 14 99 41 be 85 6f 12 bf
       0.06891744 0.44168302 -0.18906051 -0.57201415
000310 98 58 af 3e 99 9a 82 be 50 e0 0f bf 89 52 ed 3e
       0.3424728 -0.25508574 -0.5620165 0.46352032
000320 de 56 0a 3f 45 49 c4 bd 0b 14 d9 bd 72 d9 7e 3f
       0.540388 -0.095842876 -0.10599526 0.99550545
000330 4e 11 d4 bd 3c 76 a7 3e 6c 01 be 3e e7 04 ac 3e
       -0.10354863 0.32707393 0.3711046 0.3359749
000340 6c a5 24 bf 52 53 64 3e cf 27 c6 3e c6 88 10 3f
       -0.64314914 0.22297409 0.38702247 0.564587
000350 b4 40 8b 3e c9 60 f2 be e1 cc 66 bf 50 8f 01 bd
       0.27197802 -0.47339466 -0.9015637 -0.031630814
000360 54 9d b4 3e 6f b7 b6 be 3b 0b 68 be 2c da c5 3d
       0.35276282 -0.35686824 -0.22660534 0.096607536
000370 01 ad 33 bd 02 92 24 bf ac 3d 62 be bb e4 d8 be
       -0.04386616 -0.6428529 -0.22093838 -0.42362007
000380 4f 05 b6 be cc 0f 3f be 51 51 6b 3e 71 9e cd bd
       -0.35550925 -0.1865837 0.22980238 -0.10039986
000390 bf 26 82 3f 47 9c 92 3f 43 a1 9b be 98 ef 18 bf
       1.0168074 1.1453942 -0.3039647 -0.5974059
0003a0 f6 99 97 be cc c6 a1 3e 0e 40 d9 bc 62 72 c2 be
       -0.2960965 0.31596982 -0.026519801 -0.37977892
0003b0 51 c5 0b be 49 c5 33 3e 0a 3a ca 3e af 7b 88 3e
       -0.13649489 0.17555727 0.39497405 0.26656863
0003c0 dd 66 09 3e 6e 06 8a 3d 35 14 39 bf 70 93 de 3d
       0.13418145 0.067395076 -0.7229646 0.10867965
0003d0 77 1c 84 bd 64 00 64 be 2c c9 ea 3e cc 43 c8 be
       -0.06450742 -0.22265774 0.45856607 -0.39114225
0003e0 12 38 39 be 67 5f 05 be b7 a5 6b be 07 83 72 be
       -0.18087795 -0.13024674 -0.23012434 -0.23682795
0003f0 1f bd d7 be 82 66 de be e7 a2 d4 bd 5f d8 82 3d
       -0.42136475 -0.43437582 -0.10382634 0.06388926

network_body.linear_encoder.seq_layers.2.bias f4 [128]
000000 00 00 00 00 00 00 00 00 00 00 00 00 00 00 00 00
       0.0 0.0 0.0 0.0
000010 00 00 00 00 00 00 00 00 00 00 00 00 00 00 00 00
       0.0 0.0 0.0 0.0
000020 00 00 00 00 00 00 00 00 00 00 00 00 00 00 00 00
       0.0 0.0 0.0 0.0
000030 00 00 00 00 00 00 00 00 00 00 00 00 00 00 00 00
       0.0 0.0 0.0 0.0
000040 00 00 00 00 00 00 00 00 00 00 00 00 00 00 00 00
       0.0 0.0 0.0 0.0
000050 00 00 00 00 00 00 00 00 00 00 00 00 00 00 00 00
       0.0 0.0 0.0 0.0
000060 00 00 00 00 00 00 00 00 00 00 00 00 00 00 00 00
       0.0 0.0 0.0 0.0
000070 00 00 00 00 00 00 00 00 00 00 00 00 00 00 00 00
       0.0 0.0 0.0 0.0
000080 00 00 00 00 00 00 00 00 00 00 00 00 00 00 00 00
       0.0 0.0 0.0 0.0
000090 00 00 00 00 00 00 00 00 00 00 00 00 00 00 00 00
       0.0 0.0 0.0 0.0
0000a0 00 00 00 00 00 00 00 00 00 00 00 00 00 00 00 00
       0.0 0.0 0.0 0.0
0000b0 00 00 00 00 00 00 00 00 00 00 00 00 00 00 00 00
       0.0 0.0 0.0 0.0
0000c0 00 00 00 00 00 00 00 00 00 00 00 00 00 00 00 00
       0.0 0.0 0.0 0.0
0000d0 00 00 00 00 00 00 00 00 00 00 00 00 00 00 00 00
       0.0 0.0 0.0 0.0
0000e0 00 00 00 00 00 00 00 00 00 00 00 00 00 00 00 00
       0.0 0.0 0.0 0.0
0000f0 00 00 00 00 00 00 00 00 00 00 00 00 00 00 00 00
       0.0 0.0 0.0 0.0
000100 00 00 00 00 00 00 00 00 00 00 00 00 00 00 00 00
       0.0 0.0 0.0 0.0
000110 00 00 00 00 00 00 00 00 00 00 00 00 00 00 00 00
       0.0 0.0 0.0 0.0
000120 00 00 00 00 00 00 00 00 00 00 00 00 00 00 00 00
       0.0 0.0 0.0 0.0
000130 00 00 00 00 00 00 00 00 00 00 00 00 00 00 00 00
       0.0 0.0 0.0 0.0
000140 00 00 00 00 00 00 00 00 00 00 00 00 00 00 00 00
       0.0 0.0 0.0 0.0
000150 00 00 00 00 00 00 00 00 00 00 00 00 00 00 00 00
       0.0 0.0 0.0 0.0
000160 00 00 00 00 00 00 00 00 00 00 00 00 00 00 00 00
       0.0 0.0 0.0 0.0
000170 00 00 00 00 00 00 00 00 00 00 00 00 00 00 00 00
       0.0 0.0 0.0 0.0
000180 00 00 00 00 00 00 00 00 00 00 00 00 00 00 00 00
       0.0 0.0 0.0 0.0
000190 00 00 00 00 00 00 00 00 00 00 00 00 00 00 00 00
       0.0 0.0 0.0 0.0
0001a0 00 00 00 00 00 00 00 00 00 00 00 00 00 00 00 00
       0.0 0.0 0.0 0.0
0001b0 00 00 00 00 00 00 00 00 00 00 00 00 00 00 00 00
       0.0 0.0 0.0 0.0
0001c0 00 00 00 00 00 00 00 00 00 00 00 00 00 00 00 00
       0.0 0.0 0.0 0.0
0001d0 00 00 00 00 00 00 00 00 00 00 00 00 00 00 00 00
       0.0 0.0 0.0 0.0
0001e0 00 00 00 00 00 00 00 00 00 00 00 00 00 00 00 00
       0.0 0.0 0.0 0.0
0001f0 00 00 00 00 00 00 00 00 00 00 00 00 00 00 00 00
       0.0 0.0 0.0 0.0

network_body.linear_encoder.seq_layers.2.weight f4 [128, 128]
000000 d7 ec 9d bd d2 05 d6 bc 0f 40 57 bd 5e e6 de bd
       -0.07711189 -0.026125822 -0.052551325 -0.10883783
000010 f5 83 55 bd a5 fd ff 3d 43 32 04 3e ef fb 22 3d
       -0.052127797 0.12499551 0.12909798 0.039791044
000020 09 87 74 bd 33 d6 32 3d cd 69 5b 3d f1 57 1e 3e
       -0.059699092 0.043661308 0.053567696 0.15463234
000030 66 29 1c bd 74 15 8f 3c 77 63 6f bd ca 2b b2 3d
       -0.038125418 0.017466284 -0.058444466 0.08699758
000040 4f 32 99 bd 78 23 00 bd c3 e8 4c 3d 5d 0f 8e 3c
       -0.07480299 -0.031283826 0.050026666 0.01734131
000050 44 fb e4 bc 40 83 84 bd c4 1d e0 3d 84 e4 16 be
       -0.027951844 -0.064703465 0.10943177 -0.1473561
000060 35 24 0c be 59 dd a1 3d c0 cd 04 3d 29 ff c5 3d
       -0.13685687 0.07903547 0.03242278 0.096678086
000070 85 52 52 be 50 c7 6b 3d 7b d9 28 3e 78 d3 cf 3d
       -0.20539291 0.057563126 0.16489212 0.10147756
000080 0a e8 8a bd 04 e5 a2 3d 18 25 2d 3d ad 6f d0 bc
       -0.06782539 0.079538375 0.042271703 -0.025443876
000090 90 d5 0c 3d 8b 2c bd bc 06 10 43 be 64 46 02 be
       0.034383357 -0.023092529 -0.19049081 -0.12722164
0000a0 17 71 40 bd e3 7b 34 3d a5 f6 0f 3d a4 c9 39 bd
       -0.04698285 0.04406346 0.035147328 -0.045358315
0000b0 4e 98 e6 3c c9 27 90 3c d2 b0 11 be 0a a1 ea 3c
       0.028148796 0.017597096 -0.14227608 0.028641243
0000c0 17 a8 d6 3d 10 dd 8b bd ed 07 7f 3d 26 05 06 be
       0.10481279 -0.06829274 0.062263418 -0.13087901
0000d0 f9 48 9b 3d 2e db 7d 3d 79 42 f5 bc 99 ab 45 bd
       0.07582278 0.061976604 -0.029938923 -0.04825935
0000e0 db 51 fa bc 50 30 b0 bc f0 62 35 3d d9 76 5a bd
       -0.03055661 -0.021507412 0.044283807 -0.053336
0000f0 50 7a 01 be 51 a6 fe 3c 3b c0 7b 3d 3d 62 48 3d
       -0.12644315 0.031085165 0.061462622 0.048921812
000100 90 53 07 bd 3b 23 b9 3d db 14 c3 3d 29 66 cb bc
       -0.033038676 0.09039923 0.09525462 -0.024828987
000110 03 7d 8a bd 51 ec 23 be df 09 81 3c dd 08 45 3e
       -0.06762125 -0.16008116 0.015751777 0.19241662
000120 3a d1 f4 bc f7 0e 4a b8 a3 22 ee 3d 05 5c d4 3d
       -0.029884923 -4.817449e-05 0.116277 0.10369114
000130 76 d9 df 3d 00 72 f3 bd b4 57 e3 bd 23 52 11 3e
       0.10930149 -0.11886978 -0.111007124 0.14191489
000140 58 28 20 be cb 9c 72 bb 48 a1 96 3d 69 29 46 bb
       -0.1564039 -0.0037019725 0.07354981 -0.0030237085
000150 f1 a3 d4 bc d6 88 a7 3d 25 71 40 bd a1 4d d5 3b
       -0.02595708 0.08180396 -0.046982903 0.006509498
000160 f5 47 8c 3d 30 51 15 3d 9e 81 96 3b 62 cc 3b be
       0.06849662 0.03645438 0.0045930883 -0.18339685
000170 95 a5 52 3d 1e 28 a6 bc db ee 9c 3d c3 a9 76 3d
       0.051427443 -0.020282801 0.076627456 0.06022049
000180 d9 82 26 bb 2c 4b 82 bc 15 68 dc 3c ab e0 c0 3d
       -0.002540758 -0.015904985 0.026905099 0.09417852
000190 35 41 01 3d bf 2d e5 3c 64 5e 3b 3d eb c2 93 3d
       0.031556327 0.027975915 0.045744315 0.07214912
0001a0 5f 9d 60 bc 3c 78 25 3d 2b 32 62 3c 7a ed 49 bd
       -0.013709395 0.040397868 0.013805906 -0.04929874
0001b0 fa 7d 9b 3d 1a 8a 29 3e 8b ca 72 bd f9 14 06 3e
       0.075923875 0.16556588 -0.05927519 0.13093938
0001c0 9c 9a c2 3d c4 e6 bd 3c 45 46 d2 3c 5b 20 0a be
       0.09502146 0.023181327 0.025668273 -0.13488905
0001d0 b1 21 8a bb a2 8b 39 bc 8f cd a6 3d 16 d3 6e 3d
       -0.004215442 -0.011324795 0.08144676 0.058306776
0001e0 18 57 40 3e 9e 72 a7 bc 44 52 9c bd aa 4b 13 bd
       0.18783224 -0.020440396 -0.076328784 -0.03596083
0001f0 80 1b 0a 3e de 49 59 3d b3 c0 14 3e c8 23 64 3c
       0.13487053 0.05304896 0.14526634 0.013924547
000200 10 7b 7b 3d 72 fd 90 bc 01 67 d4 3d dc a7 a3 3d
       0.06139666 -0.017698977 0.10371209 0.07991001
000210 a6 73 ee bd b8 81 44 bd 7d e5 06 bd c4 ef a5 bd
       -0.11643152 -0.047975272 -0.0329337 -0.08102372
000220 36 e3 c7 bd 9b f7 fe 3c 8a 1a e1 ba d8 2e ee bc
       -0.09760134 0.031123927 -0.0017174047 -0.029075071
000230 24 57 34 3c 8f 79 a2 3d 53 98 b3 bd 70 14 8b bd
       0.011007104 0.07933342 -0.08769288 -0.067910075
000240 98 2e 2d bc 75 28 33 be 12 c1 47 3c 7a a0 88 3c
       -0.010570191 -0.17495902 0.012192028 0.016678084
000250 02 62 8a bc 4e 00 29 3b 5f 68 a0 bd cd 73 ac 3b
       -0.016892437 0.0025787535 -0.07832407 0.005262828
000260 54 67 44 3c 90 02 f3 bc e0 57 f3 3d 29 c9 b3 bd
       0.011987526 -0.029664308 0.11881995 -0.08778603
000270 4f 10 23 bd a4 da e4 3c 42 3a 03 3d 39 95 36 bd
       -0.039810475 0.027936287 0.03203798 -0.044575904
000280 a9 81 19 3d 08 05 c7 3c 30 2a c3 3d fc 82 aa bd
       0.03747717 0.024294391 0.09529531 -0.083257645
000290 65 fd 50 bb d8 88 41 bd 19 f9 64 bd 2f 5d 8d bd
       -0.0031889316 -0.047249645 -0.05590162 -0.06902539
0002a0 70 de 9a 3c 65 61 f6 3c 71 78 b8 bd c4 17 67 bd
       0.018904895 0.030075738 -0.090073474 -0.05641915
0002b0 97 36 21 bd a1 9d 9a bc d2 4a 45 bd e2 2e b5 3d
       -0.0393587 -0.018873991 -0.048167057 0.08846833
0002c0 82 ce f4 bd bd 12 c9 bd df b3 80 b8 98 23 95 3c
       -0.11953451 -0.09818027 -6.137019e-05 0.018205449
0002d0 b0 37 82 bd b8 7c 95 3d 2d 05 59 3d 27 5b 52 3d
       -0.06358278 0.07299179 0.05298345 0.05135646
0002e0 82 10 cb 3d 89 ea d7 bd 35 cc c1 3d 21 e4 6f 3c
       0.09915258 -0.10542781 0.094627775 0.0146417925
0002f0 b7 b4 a4 3d bd 8f 13 3d 43 4e df bd 2c 19 06 3d
       0.08042281 0.03602575 -0.10903599 0.03273885
000300 d5 c0 1a 3c 7e 1a b1 3c bb 75 f8 3d 04 50 41 be
       0.009445389 0.021619078 0.1213183 -0.1887818
000310 ea d3 41 3c 3a 0d d0 bd c5 ae 33 bd 41 23 3d be
       0.011830309 -0.10158773 -0.043867845 -0.1847048
000320 9b 6a fe 3b bb 1c b6 3d f8 5c 21 be ab 48 d3 3c
       0.007764173 0.08892199 -0.15758121 0.025791487
000330 63 49 bd bd d7 c2 e0 3c fa 72 1d be 8d d8 1b bd
       -0.09242513 0.027436657 -0.15375891 -0.038048316
000340 8a 72 89 bc 97 a5 4f 3e 64 f0 78 bb 28 ba f4 3d
       -0.01677825 0.20278011 -0.003798508 0.11949569
000350 b0 48 41 3d 2f 7d 5f 3d bd 20 76 3d 22 07 15 bd
       0.04718846 0.054562744 0.060089815 -0.036383756
000360 b2 90 6a 3c ee b5 dd bd 13 0b ee bd ae a9 bb bd
       0.014316725 -0.10825716 -0.11623206 -0.09163223
000370 d7 d9 96 bd 9c 4d a3 3d 20 c7 11 3e 0e 2d b3 bd
       -0.073657684 0.07973787 0.14236116 -0.08748828
000380 5e 54 22 3d 33 f6 ca 3d 3a d7 9e 3d 9d 16 3d bc
       0.03963124 0.0991024 0.07755895 -0.011541036
000390 73 50 b8 3d c5 56 49 3e 34 c9 69 3e 40 79 c1 bd
       0.089997195 0.19662006 0.22830659 -0.09446955
0003a0 f8 6e a5 bc cf dc c7 3c 24 cd c0 3d 3b 2b dc bb
       -0.020194516 0.024397282 0.094141275 -0.0067190207
0003b0 52 48 8b bc ea 9a 63 be b0 65 20 3e ae 3d cf 3d
       -0.017002258 -0.22227064 0.1566379 0.10119186
0003c0 ff 47 58 3c 1c 19 25 bc 04 03 11 be 2e 8b 67 3d
       0.013200759 -0.010076787 -0.14161307 0.056529216
0003d0 b5 59 0e bd 8a b0 04 3e 96 3c f7 3c c9 08 54 be
       -0.03475352 0.1295797 0.030180257 -0.20706476
0003e0 76 6e ed bd 95 9e 9a bd 8d d5 05 3d 42 e1 4d 3c
       -0.115933344 -0.07549778 0.03267436 0.012565913
0003f0 24 ca 1b bc 94 fb 65 3c 89 0d 95 3d c5 3e d2 bd
       -0.009508643 0.014037032 0.07277972 -0.102658786
