results/ppo/My Behavior/My Behavior-22208.onnx (onnx, 72951 bytes, 7 tensors)

action_model._continuous_distribution.log_sigma f4 [1, 2]
0	0xbacd714e	-0.0015674026
1	0x3a300149	0.00067140587

action_model._continuous_distribution.mu.bias f4 [2]
0	0x3a720fba	0.0009233911
1	0x39b1fc68	0.00033948128

action_model._continuous_distribution.mu.weight f4 [2, 128]
0	0xbbb87782	-0.005629481
1	0xbd21650e	-0.039403014
2	0x3b8a5cbb	0.00422248
3	0xba5ab9ad	-0.0008343708
4	0x3cc876b5	0.024470666
5	0xbcb1c4b0	-0.021700233
6	0x3bff45d3	0.007790306
7	0x3b97f5fb	0.0046374775
8	0xbcdbdb3b	-0.026837936
9	0xbc2aa70c	-0.010415804
10	0xb8939cdf	-7.038726e-05
11	0xba629b47	-0.0008644354
12	0x3c1d08e8	0.009584643
13	0xbb63a24e	-0.0034734192
14	0x3cb0a1d5	0.021561543
15	0xbb610c34	-0.003433955
16	0xbc4beee0	-0.012447089
17	0x3d360e91	0.044447485
18	0x3c8a5f42	0.016891126
19	0xbc7e471e	-0.015519885
20	0xb8b68cb7	-8.7046465e-05
21	0x3ce64d3c	0.028113
22	0xbca9d4dd	-0.020731384
23	0x3b9b1157	0.0047322917
24	0x3d610e3d	0.05494522
25	0x3cd7b843	0.02633298
26	0x3bde7bb7	0.0067896503
27	0x3a358405	0.00069242745
28	0x3d30d639	0.04317305
29	0x3c0a0385	0.008423691
30	0x3c23d7b6	0.01000016
31	0x3b05c5b3	0.0020412027
32	0x3b7ce5c2	0.0038589095
33	0x3cdbb173	0.026818013
34	0x3b424966	0.00296458
35	0x3b0b730c	0.002127829
36	0x3cb2a20f	0.021805791
37	0xba417fd3	-0.0007381413
38	0xbc444784	-0.011979941
39	0x3b11b478	0.0022232812
40	0x3aa005f1	0.0012208802
41	0xbbe80189	-0.007080261
42	0xbcac4d38	-0.021032915
43	0xbcdab83b	-0.026699176
44	0x39cee804	0.00039464247
45	0x3b2c76ac	0.002631585
46	0xbc99c4e2	-0.018770639
47	0x3c487b9b	0.012236501
48	0xbba95638	-0.005167749
49	0x3cdbed27	0.026846481
50	0xb9d88107	-0.00041294863
51	0xbd417f5d	-0.047240604
52	0xb790f3cb	-1.7279663e-05
53	0xbbc22c2c	-0.005925676
54	0x39f99ab3	0.0004760824
55	0x3c5bf5cd	0.013425303
56	0x3c37a8e4	0.0112097
57	0x3d0f949e	0.03505384
58	0x3c443ff3	0.011978137
59	0x3c0717de	0.0082454365
60	0x3cbe20ee	0.023209061
61	0x3a67ae58	0.000883793
62	0x3c098079	0.008392447
63	0x3b9b348e	0.0047364896
64	0xbc32d75a	-0.010915602
65	0x3cfa5f03	0.030562883
66	0xbd009303	-0.0313902
67	0x3b15e024	0.0022869194
68	0x3c15db15	0.0091464715
69	0x3a842458	0.0010081632
70	0xbb17adfe	-0.002314448
71	0xbbeae9e7	-0.0071689966
72	0x3cb114c6	0.02161635
73	0x3d47731b	0.048693758
74	0x3c2a4e8e	0.010394705
75	0xbce3fd6c	-0.027830802
76	0x3ca6ad0a	0.020346183
77	0xbbcd1977	-0.006259139
78	0x3a36032e	0.0006943223
79	0x38be3906	9.0705274e-05
80	0xba2e8418	-0.0006657257
81	0xbc687bff	-0.014189719
82	0xbc10709a	-0.008815909
83	0x3b30c6d3	0.0026973977
84	0xbcbe95fc	-0.023264877
85	0xbc2569a2	-0.010095986
86	0xbcd9cc24	-0.0265866
87	0xbc1b471c	-0.009477403
88	0xbc0beec6	-0.008540815
89	0x3c96cee9	0.01840921
90	0xbbcd87d2	-0.0062722946
91	0x3a198ce1	0.00058574794
92	0xbcc582aa	-0.024110157
93	0x3b09a8d4	0.002100517
94	0x3c225149	0.009907075
95	0x3bca80c6	0.006179902
96	0x3c062c86	0.008189326
97	0xbc032a8f	-0.008005752
98	0xbb5c13cf	-0.0033581143
99	0xbc1a467b	-0.009416218
100	0x3bc69456	0.0060601635
101	0x3c6daad1	0.014506058
102	0x3cad26d1	0.021136673
103	0x3c88da57	0.016705675
104	0xbcb6bfab	-0.022308191
105	0x3cb75dc3	0.022383576
106	0x3c328326	0.010895526
107	0x3c6fb585	0.01463068
108	0xbc1bc535	-0.009507467
109	0x3b90da0d	0.004420525
110	0xbc962f74	-0.018333174
111	0xbcd1becd	-0.025603676
112	0x3b719ec6	0.0036868318
113	0xbb064518	-0.002048796
114	0xbc52decb	-0.012870501
115	0x3aa6acd0	0.0012716297
116	0x3b2499fc	0.0025116196
117	0x3cb2d62b	0.021830639
118	0xbc1bb56c	-0.009503704
119	0xbcb4c68a	-0.022067327
120	0x3cbcae69	0.023032384
121	0x3ba6e83c	0.0050936025
122	0xbbaeca03	-0.0053341403
123	0xbca48a4d	-0.020085478
124	0xbc4f9849	-0.012670585
125	0xbba8346f	-0.0051332037
126	0xb9236a09	-0.00015584393
127	0x3bfb6883	0.007672371
128	0xbd6ab694	-0.057303026
129	0xbcac4250	-0.021027714
130	0x3c51a003	0.012794497
131	0xbcb0df2f	-0.021590797
132	0xbb1f1040	-0.002427116
133	0xbcf46d56	-0.029837292
134	0x3bbc3b1d	0.0057443515
135	0xbcc5ae3c	-0.024130933
136	0xbc6d7106	-0.014492279
137	0x3b170f67	0.0023049952
138	0x3ca3217a	0.019913424
139	0xb8cbb1bc	-9.7129e-05
140	0x3c858244	0.016297467
141	0xbceaca23	-0.02866084
142	0xbc48b9af	-0.012251302
143	0xbc9e7a6f	-0.01934549
144	0x39dc771d	0.00042050416
145	0xbc44b326	-0.012005603
146	0x3c47995a	0.012182558
147	0x3c5da434	0.013527919
148	0xbc0dafb6	-0.00864785
149	0x3c7edade	0.015555112
150	0x3c358cd6	0.011080941
151	0xbbc88726	-0.0061196266
152	0x3c5a40f9	0.013321155
153	0xbc6a109a	-0.014286185
154	0x3cb184c7	0.021669758
155	0x3c2b8f5a	0.010471189
156	0x3c47cd84	0.012194995
157	0x3b491a65	0.0030685898
158	0xbc568888	-0.013094075
159	0xbcba3dda	-0.022734571
160	0x3c39a7ce	0.011331512
161	0xb9a45d2b	-0.00031349933
162	0x3cbd5250	0.023110539
163	0xbb64d9c4	-0.0034919837
164	0xbcf39633	-0.029734707
165	0x3c0e7c52	0.008696632
166	0x3d2a6d70	0.041608274
167	0xbb4c1173	-0.003113833
168	0xbc13bdcb	-0.009017418
169	0xbb90472f	-0.004403017
170	0x3c017069	0.007900336
171	0xbd28a66d	-0.04117434
172	0xbd4669d3	-0.048440766
173	0xbaadf53e	-0.001327194
174	0x3c81b6e2	0.015834276
175	0xbd27c3ba	-0.040958144
176	0x3cc74868	0.024326518
177	0xbc1e7847	-0.009672231
178	0x3be09051	0.0068531414
179	0x3bb7e1c6	0.005611631
180	0xbbd3ecd8	-0.006467443
181	0xbc0f5c54	-0.00875004
182	0xbc83ba4e	-0.016080048
183	0xbbc7ea4f	-0.00610093
184	0xbcc0bb71	-0.023526879
185	0x3c6cfe9b	0.014465
186	0x3cc46fbc	0.02397906
187	0x3c275fa2	0.010215672
188	0x39b1bcb1	0.00033900657
189	0xbcd73499	-0.026270198
190	0x3b77a913	0.0037789985
191	0x391d7959	0.00015017892
192	0x3c126024	0.0089340545
193	0x3cd63db1	0.026152464
194	0x3bafc97b	0.0053645945
195	0x3cb219c1	0.021740796
196	0x3d198a3c	0.037485346
197	0x3ba28675	0.004959876
198	0xbc501987	-0.012701399
199	0xbc00dead	-0.00786559
200	0xbcc20fa7	-0.023689104
201	0xbc74f16f	-0.01495014
202	0xbcfa44db	-0.030550411
203	0xbcd966af	-0.026538221
204	0xba9d570b	-0.001200409
205	0x3bc8fefc	0.006133912
206	0xbb05ec22	-0.0020434936
207	0xbc8d9931	-0.017284961
208	0x3cd32a28	0.025776938
209	0x3c003969	0.007826188
210	0x3cabf0b8	0.020988807
211	0x3d280fa5	0.041030545
212	0x3bb44bd3	0.005502203
213	0x3cb85448	0.022501126
214	0xbcaf5592	-0.021403108
215	0xbc5b98e4	-0.013403151
216	0xbd23420a	-0.0398579
217	0x3d11ceb7	0.03559753
218	0x3cfd17fc	0.030895226
219	0x3bc5b0e7	0.0060330513
220	0xbcb70497	-0.022341056
221	0x3c8f7381	0.017511131
222	0xbc307643	-0.010770383
223	0x3b141b2b	0.0022599201
224	0x3c176b22	0.009241851
225	0x3c071ce0	0.00824663
226	0xbc52425c	-0.012833204
227	0x3b8fb200	0.004385233
228	0xbc16c256	-0.009201607
229	0x3c70d9de	0.014700381
230	0xbc4c2b52	-0.0124615
231	0x3b529c03	0.0032136447
232	0x3b31f633	0.0027154803
233	0x3bc5a27b	0.006031332
234	0x3ca61b13	0.020276582
235	0xbc82a515	-0.015947858
236	0xbbae1d8a	-0.00531358
237	0x3b25fb5d	0.0025326826
238	0x3c0ba191	0.008522407
239	0xbad46871	-0.0016205442
240	0xbc88eb3f	-0.016713737
241	0x3b4a96d4	0.0030912654
242	0xbc51bee5	-0.01280186
243	0x3b05eee4	0.002043658
244	0xbbdbaa7f	-0.0067036743
245	0xbbd7bc09	-0.006583695
246	0xbca05dc0	-0.019575953
247	0xbc56ec95	-0.013117929
248	0x3c117d21	0.008879931
249	0x3c70fcde	0.014708726
250	0x3c93272a	0.01796301
251	0x3b051e96	0.002031242
252	0xbbb72510	-0.005589135
253	0xbbb2329e	-0.005438163
254	0x3bd14f30	0.0063876137
255	0xbc02f43c	-0.0079928

network_body.linear_encoder.seq_layers.0.bias f4 [128]
0	0xb9dd0871	-0.00042158694
1	0xbb37fc60	-0.0028074011
2	0xbb0de81c	-0.002165324
3	0xba95efe9	-0.0011439297
4	0xb91ddd4e	-0.00015055129
5	0x39d0efea	0.00039851601
6	0x3985974e	0.00025480468
7	0x394bbb44	0.0001942935
8	0xba2d7fc3	-0.0006618464
9	0x3880a116	6.13352e-05
10	0xba45ae1a	-0.0007540897
11	0x3ad11277	0.0015950938
12	0x3a793cda	0.0009507664
13	0xba6a3574	-0.0008934357
14	0x3ab8ae5f	0.0014090053
15	0x3aac25b9	0.0013133801
16	0x399705d4	0.00028805307
17	0xbaa24e2f	-0.001238292
18	0x39c34e2b	0.00037251538
19	0xba08b883	-0.00052154827
20	0x3ace26c5	0.0015728107
21	0xba12bbfd	-0.00055974704
22	0xb8d5536e	-0.000101721715
23	0x3a340459	0.0006867103
24	0x3ad13362	0.0015960748
25	0x39992e76	0.0002921705
26	0x398030d2	0.00024450436
27	0x3a5e642e	0.0008483556
28	0x3b99c573	0.0046927272
29	0x39cbb97f	0.00038857383
30	0x3ac24cdd	0.0014823932
31	0xba8b683e	-0.0010635925
32	0xb9f80553	-0.00047306213
33	0xb8b110de	-8.4431595e-05
34	0xbb1968bf	-0.002340838
35	0xba9f56a1	-0.0012156555
36	0x3bacb053	0.005270043
37	0xbb075032	-0.0020647165
38	0xbb799f36	-0.0038089282
39	0xb926a0ef	-0.00015890946
40	0xbabf384a	-0.0014588919
41	0xba2d2f0b	-0.0006606436
42	0x39971dca	0.0002882316
43	0xb9844fef	-0.00025236557
44	0xbabb49d2	-0.0014288968
45	0xb9a9eb89	-0.0003240968
46	0xbac80a41	-0.0015261845
47	0x3953600f	0.00020158313
48	0xbae771b1	-0.0017657784
49	0xba460c1d	-0.00075549056
50	0x3a2d70ed	0.00066162535
51	0x3b624299	0.0034524559
52	0xba02a8df	-0.000498427
53	0xba5eaecd	-0.0008494675
54	0x39334880	0.00017097779
55	0xba4ca427	-0.0007806443
56	0xba056066	-0.0005087912
57	0xbb54993a	-0.0032439963
58	0xba1413e6	-0.0005648717
59	0xbab928b2	-0.0014126508
60	0x3a9aeee2	0.001182046
61	0x3aabac95	0.0013097698
62	0x3b40ec3f	0.0029437689
63	0xba30a571	-0.000673852
64	0xbaba3fb7	-0.0014209662
65	0x3a791d98	0.0009503006
66	0x3b3efdaa	0.0029142895
67	0xba5559fc	-0.0008138714
68	0x393f3ac4	0.00018237071
69	0xba587119	-0.0008256599
70	0x39cdb7a0	0.00039237458
71	0xb9eea893	-0.00045520495
72	0xbaa7cd61	-0.0012802297
73	0xbacec462	-0.0015775079
74	0x3ac734d0	0.0015198234
75	0xba8430d3	-0.0010085352
76	0xb9be003a	-0.00036239793
77	0x3a39ce75	0.00070879544
78	0xbadbfd6f	-0.0016783903
79	0x3a4e595d	0.00078715925
80	0xb9b6a647	-0.0003483763
81	0x3a8fabb2	0.0010961203
82	0xb69d29bf	-4.6838245e-06
83	0x39152c65	0.00014226286
84	0x398ad945	0.0002648329
85	0xb9a87780	-0.00032132491
86	0x3a208be3	0.00061243604
87	0xba6da4b5	-0.0009065376
88	0x3b3c5edd	0.0028743066
89	0xbace6ff8	-0.0015749922
90	0xbaadae61	-0.0013250822
91	0x3a787c60	0.00094789825
92	0xba9411e9	-0.0011296842
93	0xb8125ecf	-3.489741e-05
94	0x3a0fd5b7	0.0005486863
95	0x3998619d	0.00029064427
96	0x3a3f8bed	0.00073069223
97	0x3a0f9e1d	0.0005478578
98	0x3b13681b	0.0022492472
99	0xbaa43617	-0.0012528327
100	0xb9d7dd56	-0.00041172904
101	0x3a985228	0.0011621164
102	0x390af4dc	0.00013251923
103	0x3b1a0ffe	0.0023508067
104	0xb8dca603	-0.000105213396
105	0xb9c8c735	-0.00038295393
106	0x3b085acc	0.0020806072
107	0xb9df0260	-0.00042535644
108	0xb9eed294	-0.0004555179
109	0x3a2ab5b4	0.0006512061
110	0x3aa5f84d	0.00126625
111	0x39b8cf8e	0.00035249855
112	0x3aaaa590	0.0013019312
113	0x3743048d	1.1623965e-05
114	0x3a829787	0.0009963372
115	0xbb3d3dce	-0.002887595
116	0xb9f1ec0e	-0.00046142976
117	0x3a8afff2	0.0010604842
118	0x3a1649bb	0.00057330326
119	0xb8f1ab96	-0.00011523736
120	0xb89bf5b2	-7.43674e-05
121	0xba1c2ad8	-0.0005957312
122	0xb8fb0903	-0.00011970291
123	0x3a449a9f	0.0007499847
124	0xba062515	-0.000511722
125	0x3ae928a2	0.0017788599
126	0xba4a4901	-0.0007716567
127	0xb985f357	-0.0002554904

network_body.linear_encoder.seq_layers.0.weight f4 [128, 6]
0	0xbe21f814	-0.1581729
1	0xbe8a07ff	-0.26959226
2	0x3e9f7d6c	0.31150377
3	0xbf050bb6	-0.51970994
4	0x3e77df1e	0.24206206
5	0x3eff4d9b	0.49863896
6	0xbe64d37a	-0.22346297
7	0x3ed89b8d	0.42306176
8	0x3e974cc6	0.2955076
9	0x3e294bc5	0.1653281
10	0x3b533172	0.0032225517
11	0x3e3f4a4b	0.18680684
12	0x3d3c6839	0.045997832
13	0xbe922d61	-0.28550246
14	0x3ea81c16	0.32833928
15	0xbf2fa12f	-0.6860532
16	0xbeb46cb5	-0.35239187
17	0xbf71c765	-0.94444877
18	0x3f06fb06	0.5272678
19	0x3ece3ec3	0.40282258
20	0x3e9efeb3	0.31053695
21	0xbf32aae9	-0.6979204
22	0x3f04dfb3	0.5190384
23	0x3f237fe7	0.6386704
24	0xbe9cbbb4	-0.30611956
25	0x3ebb4a9b	0.36580357
26	0xbd38c173	-0.045106363
27	0xbcb50b17	-0.022100015
28	0x3efad263	0.48988637
29	0x3f62b27b	0.8855359
30	0xbe76726a	-0.24067083
31	0xbf0defa7	-0.55443805
32	0xbe49bb02	-0.19700244
33	0x3f24eb52	0.6442157
34	0x3e185fc8	0.14880288
35	0x3e27e3c8	0.16395485
36	0x3de089e3	0.109638
37	0x3e7bf46f	0.24604963
38	0x3ef0b733	0.4701477
39	0xbea22ce1	-0.31674865
40	0x3edf6c2b	0.43637213
41	0xbedc194f	-0.4298806
42	0xbde35487	-0.11100107
43	0xbeb9c8fe	-0.36286157
44	0x3f3da198	0.740747
45	0x3eb6c290	0.35695314
46	0x3e95fb9b	0.29293522
47	0xbdfd22b2	-0.12360133
48	0xbe9c4cf4	-0.3052746
49	0x3e58e435	0.21180804
50	0x3ddb75b7	0.10715812
51	0x3f0a0c30	0.53924847
52	0xbf64f97c	-0.8944318
53	0x3eab1082	0.33411032
54	0xbe00e443	-0.12587075
55	0x3f427f12	0.75975144
56	0x3db3ec3e	0.08785294
57	0xbd0de272	-0.034639783
58	0x3e746ecf	0.23870395
59	0x3ecb7829	0.39740112
60	0xbcd5cf9d	-0.026099974
61	0xbdd52c1d	-0.104088046
62	0x3eaa2dea	0.33238155
63	0x3f39b309	0.7253881
64	0x3f039a5e	0.5140742
65	0xbf00c585	-0.5030139
66	0x3d1e2f45	0.0386193
67	0x3e9824c3	0.29715547
68	0x3d539f29	0.05166546
69	0x3ee22ee9	0.44176415
70	0xbe2a005a	-0.16601697
71	0x3d7419e9	0.059595022
72	0xbfc2eb41	-1.5228044
73	0xbf731865	-0.949591
74	0x3ea52b2b	0.32259497
75	0xbed6b82d	-0.4193739
76	0x3e8af494	0.27139723
77	0x3f2eae1f	0.6823444
78	0xbe4a6229	-0.19764008
79	0x3d72b650	0.059255898
80	0x3d72dad0	0.059290707
81	0x3e5ab358	0.21357477
82	0x3e0184c9	0.1264831
83	0x3e97ac08	0.29623437
84	0xbd71b3c8	-0.059009343
85	0x3ebc1107	0.3673174
86	0xbed54d25	-0.4166042
87	0x3e8b64f0	0.27225447
88	0xbe853e8a	-0.26024276
89	0xbe806951	-0.2508035
90	0x3ea9997b	0.3312491
91	0x3e3dd6e4	0.18539006
92	0xbee83fe7	-0.45361254
93	0x3ef62123	0.48072156
94	0x3e96cb52	0.29451996
95	0x3e6c5edb	0.2308306
96	0x3f1066bd	0.56406766
97	0xbf207137	-0.6267275
98	0xbde08076	-0.10962002
99	0x3efc9404	0.49331677
100	0x3e77395c	0.24142975
101	0x3e6d2110	0.23157144
102	0xbe285062	-0.16436914
103	0x3dc3eda7	0.09566813
104	0xbf1799e3	-0.5921919
105	0x3f167d47	0.5878491
106	0x3f51c713	0.8194439
107	0x3f6c571e	0.9232043
108	0x3e9f2f64	0.31090844
109	0xbee9ef98	-0.45690608
110	0x3df0d4e4	0.11759356
111	0x3e6ccc3a	0.23124781
112	0xbef4d7af	-0.47820804
113	0xbdda0261	-0.10644985
114	0x3e6820f1	0.22668816
115	0xbe0d5a49	-0.13803972
116	0x3f137a4c	0.57608485
117	0x3f5b0946	0.85561025
118	0x3e9494dc	0.2901982
119	0xbc178124	-0.009247098
120	0x3f09444d	0.53619844
121	0x3d9cfc2a	0.07665284
122	0xbeedc1b9	-0.4643686
123	0xbe09311c	-0.1339764
124	0xbdd7fca6	-0.10546236
125	0xbe296d0b	-0.16545503
126	0x3eb5de65	0.35521236
127	0x3eaee636	0.34160012
128	0xbf09b90a	-0.5379797
129	0xbf0e1cd6	-0.5551275
130	0x3ec607b1	0.38677743
131	0x3df3aad6	0.11897819
132	0x3f03a2f6	0.51420534
133	0xbe643187	-0.22284518
134	0x3e1252fd	0.1428947
135	0xbd7cd2ed	-0.061724592
136	0x3f169bc0	0.58831406
137	0x3d115818	0.035484403
138	0x3e95d847	0.2926657
139	0xbde337db	-0.11094638
140	0xbf41fd39	-0.7577701
141	0xbe991d91	-0.2990537
142	0xbd1b5449	-0.037922177
143	0xbe27cac2	-0.1638594
144	0x3ec81103	0.3907548
145	0xbcc6f0a4	-0.024284668
146	0xbf0ab960	-0.5418911
147	0x3e7d3c0e	0.2472994
148	0x3da7c42a	0.08191712
149	0x3d07c63e	0.033148043
150	0xbce39034	-0.027778722
151	0x3e91608e	0.28393978
152	0x3e0ef718	0.13961446
153	0xbef36e7f	-0.4754524
154	0xbf06002c	-0.5234401
155	0x3da485bf	0.080333225
156	0xbf4fcad7	-0.81168884
157	0xbe2555bf	-0.16145991
158	0xbec042ed	-0.3755106
159	0xbf06470c	-0.5245216
160	0xbdda5bdd	-0.10662053
161	0x3ea1eddd	0.31626788
162	0xbedc59d6	-0.4303729
163	0x3e13072b	0.14358203
164	0xbda930fe	-0.08261298
165	0x3e1a295c	0.1505484
166	0xbeb83423	-0.35977277
167	0x3c668334	0.014069367
168	0x3fa22114	1.2666345
169	0x3d5e198c	0.054223582
170	0x3ea8668a	0.3289073
171	0x3f5dbe56	0.86618555
172	0x3c8ec72d	0.017428959
173	0x3f1975fe	0.59945667
174	0xbefd8459	-0.49515036
175	0x3ee175b6	0.4403512
176	0xbca71535	-0.020395854
177	0x3d59c493	0.053165983
178	0x3d70db0c	0.05880265
179	0x3efd5183	0.4947625
180	0x3e347097	0.17621075
181	0x3f33364c	0.70004725
182	0x3d713773	0.05889077
183	0xbec13973	-0.37739143
184	0xbe3520fd	-0.17688365
185	0xbebad688	-0.364918
186	0xbec7c457	-0.39016983
187	0x3e68e2b8	0.22742736
188	0xbdd58b2c	-0.104269356
189	0xbe897444	-0.26846516
190	0xbe18e4f4	-0.14931089
191	0x3db6a66d	0.08918462
192	0x3ee4fabe	0.4472255
193	0x3eccd531	0.40006402
194	0x3f053e46	0.52048147
195	0x3e3408a8	0.17581427
196	0x3ed12213	0.4084631
197	0xbed42480	-0.41434097
198	0xbe4dc69a	-0.20095292
199	0x3ce0866a	0.027407844
200	0x3f28a009	0.65869194
201	0xbda83347	-0.082129054
202	0x3e8b57a8	0.27215314
203	0xbee1ace1	-0.4407721
204	0xbe9bd5cc	-0.30436552
205	0xbe32cdf9	-0.17461385
206	0x3f3ac516	0.7295698
207	0xbef9f79d	-0.48821726
208	0xbdcf6d69	-0.1012829
209	0x3db2f5be	0.08738278
210	0x3e98f994	0.29877913
211	0x3caebf18	0.021331355
212	0xbe8f01cd	-0.2793106
213	0xbec266e0	-0.37969112
214	0xbd8a1259	-0.06741781
215	0xbebff662	-0.37492663
216	0x3f1d311d	0.61403066
217	0xbf0fec91	-0.56220347
218	0xbf448b7e	-0.7677535
219	0xbf3407ac	-0.70324206
220	0xbf1f5d4e	-0.62251747
221	0x3deb8d56	0.11501567
222	0x3f204808	0.6260991
223	0xbef2c045	-0.47412315
224	0xbecef7ac	-0.40423334
225	0xbf3e7b9e	-0.74407375
226	0x3d3dd289	0.04634336
227	0xbdd8e0e4	-0.105897695
228	0x3edd47b0	0.43218756
229	0x3ec48f4f	0.38390586
230	0x3dbf7d31	0.0935005
231	0x3f932e5d	1.1498524
232	0xbf05b8f8	-0.52235365
233	0x3f5144fa	0.81745875
234	0x3f0e908a	0.556893
235	0x3e984917	0.29743263
236	0x3e836129	0.25660065
237	0xbe6cfce6	-0.23143348
238	0x3ece160c	0.40251195
239	0x3d9cfdcb	0.07665595
240	0xbc75fa62	-0.015013309
241	0xbe1a0d44	-0.15044123
242	0x3dfa1fef	0.12213122
243	0x3b2390b8	0.0024958085
244	0xbebfc198	-0.37452388
245	0x3e82620b	0.25465426
246	0x3e05ac43	0.13053994
247	0x3f47205b	0.77783746
248	0xbeb7b7ec	-0.3588251
249	0xbf254a93	-0.64566916
250	0xbf212b3b	-0.6295659
251	0x3e089f25	0.13341959
252	0xbda7bedf	-0.08190703
253	0x3eba2257	0.36354324
254	0xbeae1a4c	-0.34004438
255	0xbefb269c	-0.49052894

network_body.linear_encoder.seq_layers.2.bias f4 [128]
0	0xb9cce712	-0.00039082073
1	0xb903b479	-0.00012560365
2	0x3ad25de0	0.0016049705
3	0xba35b1c6	-0.00069310924
4	0x3a87a115	0.0010347689
5	0xba435423	-0.0007451197
6	0xb9bce704	-0.00036030274
7	0xbaae8714	-0.0013315403
8	0xb9c17a8a	-0.00036903127
9	0xbadcc881	-0.0016844423
10	0x39df6125	0.00042606253
11	0xbb16ad59	-0.0022991507
12	0x3a00ebe3	0.00049179624
13	0xb98a50af	-0.00026381525
14	0x3ab9f471	0.0014187229
15	0x3a93fe3b	0.0011290977
16	0xbaa4caed	-0.0012572684
17	0xba89d6f8	-0.0010516336
18	0x3a7c23e8	0.00096183876
19	0xbb30de24	-0.0026987875
20	0xba197233	-0.0005853504
21	0x39c29412	0.00037112884
22	0xba9abc88	-0.0011805454
23	0xbb887211	-0.0041639884
24	0x3a878fd7	0.001034255
25	0xb9967582	-0.0002869778
26	0xb90ac73b	-0.00013234925
27	0x3a863f67	0.0010242284
28	0x3a46742f	0.0007570413
29	0x39062096	0.00012791375
30	0x38a1ccb3	7.7152064e-05
31	0xba73284f	-0.0009275721
32	0x3a66e2c0	0.0008807592
33	0x3aeb152a	0.0017935385
34	0xb89b1225	-7.3943556e-05
35	0xba4fefd6	-0.00079321617
36	0xba20fce2	-0.0006141198
37	0xb94ebca0	-0.00019715959
38	0x38935a32	7.0263064e-05
39	0xbaa75237	-0.0012765591
40	0xba5b7cda	-0.00083727913
41	0xbaaabfd1	-0.0013027136
42	0xbaac8303	-0.0013161603
43	0xb912d8b5	-0.00014004375
44	0x3aa36ded	0.0012468674
45	0xba25b355	-0.0006320973
46	0xbafec6a9	-0.0019437867
47	0xba447a93	-0.00074950716
48	0xb7d58cab	-2.5457082e-05
49	0xb94b4130	-0.00019383873
50	0xb99b9546	-0.0002967512
51	0xba39289d	-0.0007063242
52	0xba941458	-0.0011297567
53	0xb9630dba	-0.0002165352
54	0xb9a423ed	-0.00031307284
55	0xb98901b4	-0.00026131945
56	0x39f05146	0.0004583692
57	0x39e739ff	0.00044102964
58	0x3a055221	0.00050857855
59	0xb80358bc	-3.1315474e-05
60	0x398c8b1b	0.00026806523
61	0xba7f330c	-0.00097350846
62	0x399b1392	0.00029578485
63	0xb93d1eaa	-0.00018035868
64	0xba8f77f2	-0.0010945781
65	0x3a3d75e2	0.0007227344
66	0xba63eed3	-0.00086949504
67	0x39c37b0a	0.0003728497
68	0x3911bdfb	0.00013899051
69	0xb9ae7de5	-0.00033281665
70	0xba3d65d1	-0.00072249497
71	0x39f8a6cb	0.00047426517
72	0x376b4353	1.4022767e-05
73	0x3aadd16c	0.0013261265
74	0xbaf6015c	-0.0018768716
75	0xb94a4511	-0.0001928995
76	0xb92cceeb	-0.00016480281
77	0xbb95a327	-0.0045665684
78	0xba50543f	-0.0007947124
79	0xb9d920a8	-0.00041413796
80	0x39d124cd	0.00039891005
81	0xbb7919d2	-0.0038009775
82	0xb81bef14	-3.717754e-05
83	0x3a10ea69	0.0005528094
84	0xbb2b4e28	-0.0026139114
85	0xbac9d19f	-0.0015397555
86	0xbad0543d	-0.0015894246
87	0x3acad6e8	0.0015475424
88	0xb9e243b6	-0.00043156528
89	0x39db526d	0.00041832347
90	0x38194dca	3.655049e-05
91	0xb8eb4cdc	-0.000112199894
92	0x3adbc977	0.0016768415
93	0x3a4475b5	0.00074943464
94	0x3b12f520	0.0022423938
95	0x39a8bae9	0.00032182716
96	0xb8e79388	-0.00011042418
97	0xba5d896e	-0.00084509596
98	0x38f14eb6	0.000115064366
99	0xbad776dd	-0.0016438622
100	0xba9b3c28	-0.001184349
101	0x3a905282	0.0011010917
102	0x3b0c1297	0.0021373385
103	0x3a01ac90	0.0004946673
104	0xba90108e	-0.0010991262
105	0xb9f59bd7	-0.0004684615
106	0xb9092e8d	-0.0001308268
107	0xb9acb0f4	-0.00032938237
108	0xb9fe54e7	-0.00048509912
109	0xbb177aeb	-0.0023114036
110	0xb9aabe3c	-0.00032566662
111	0xbaa6295c	-0.0012677121
112	0xbaa29fba	-0.0012407221
113	0xb97959a3	-0.00023779883
114	0xba6280b2	-0.0008640393
115	0xb90dc5b9	-0.00013520465
116	0xbaa92715	-0.0012905324
117	0x3929439e	0.00016142285
118	0xba7eeefd	-0.0009724943
119	0xb9a1008f	-0.0003070873
120	0x3a716aaf	0.00092093175
121	0x39f3ff78	0.0004653891
122	0x39a97972	0.00032324676
123	0x3b4246ba	0.0029644207
124	0xba91e3d6	-0.0011130522
125	0xb98d198c	-0.0002691265
126	0xba0f08b8	-0.0005456316
127	0x3af89895	0.0018966371

network_body.linear_encoder.seq_layers.2.weight f4 [128, 128]
0	0x3d6e7d32	0.058224864
1	0x3dc17574	0.094462305
2	0xbdd52600	-0.104076385
3	0xbe07f0bd	-0.13275428
4	0x3d02011d	0.031739343
5	0xbd82e8ad	-0.06392036
6	0x3d80372c	0.06260523
7	0xbb8ef7fb	-0.0043630577
8	0xbd6dddc6	-0.058072828
9	0x3e10efd9	0.14153995
10	0x3c3463b7	0.011010102
11	0xbccd6eec	-0.025077306
12	0x3cd153c6	0.025552642
13	0x3e19d2fd	0.15021892
14	0x3dd8890f	0.10573017
15	0x3d1b498e	0.037911944
16	0x3ce18f7f	0.027534245
17	0x3d23e169	0.04000989
18	0xbdfd266e	-0.123608455
19	0x3d97b685	0.0740786
20	0x3da44e9f	0.08022808
21	0x3cd5b46a	0.026087005
22	0xbccfc93d	-0.025364513
23	0x3e839330	0.25698233
24	0x3d3979c9	0.04528216
25	0xbd9e362f	-0.077251785
26	0x3d558736	0.0521309
27	0xbd63fe52	-0.05566246
28	0xbdfbbc71	-0.12291802
29	0xbd3bbec9	-0.045836244
30	0xbd6c41fd	-0.05768012
31	0x3d24ae69	0.040205393
32	0x3d4da181	0.05020285
33	0xbc37894c	-0.011202168
34	0xbdf5ae55	-0.11996142
35	0xbd5f36f2	-0.05449576
36	0x3dfe4a9e	0.12416576
37	0xbd9c3389	-0.07627017
38	0xbde0f092	-0.10983385
39	0x3caec37f	0.021333454
40	0x3dc2ea4e	0.09517346
41	0xbe508644	-0.20363718
42	0x3d3b996f	0.045800623
43	0x3c855a31	0.016278358
44	0x3c029635	0.007970382
45	0xbbf9f406	-0.007627967
46	0x3c648e2a	0.01394991
47	0x3d1d7471	0.038441125
48	0xbd54c8d6	-0.051949345
49	0xbca5dec1	-0.020247819
50	0x3db89052	0.09011902
51	0x3d96ea66	0.07368927
52	0x3e098de3	0.13433032
53	0x3e3430bb	0.17596714
54	0xbc05132c	-0.008122247
55	0x3a636e0e	0.0008675762
56	0x3dc61d88	0.096736014
57	0xbe2b1a90	-0.16709352
58	0xbb7ef8cb	-0.0038905616
59	0x3d0f49b8	0.034982413
60	0xbc46ab39	-0.012125784
61	0xbc5336b8	-0.012891464
62	0x3d3d8e3d	0.046278227
63	0x3ddf85d1	0.10914195
64	0x3e010d03	0.1260262
65	0xbc20b584	-0.009808902
66	0x3df9c7a2	0.1219628
67	0xbdb200b8	-0.08691543
68	0x3b5d7dd9	0.0033796935
69	0xbdc7a7c9	-0.09748799
70	0x3e85e6a5	0.2615253
71	0x3e06bd5d	0.13158174
72	0x3de9893c	0.114031285
73	0xbe09644d	-0.13417168
74	0xbd13a554	-0.03604634
75	0xbdc2fa03	-0.09520342
76	0xbc64fb9d	-0.013976005
77	0xbae02429	-0.001710062
78	0x3ce7d514	0.028299846
79	0xbe56a922	-0.20962957
80	0xbc20d98a	-0.00981749
81	0x3d08fe16	0.03344544
82	0x3dafdb67	0.085867696
83	0x3bf0650c	0.0073362645
84	0xbda44763	-0.080214284
85	0x3e066ce6	0.13127479
86	0xbd8f49f4	-0.06996527
87	0x3e3ff5e9	0.18746151
88	0xbe33f926	-0.17575511
89	0x3dc9b26d	0.09848485
90	0x3e1a8b68	0.15092242
91	0x3e1bc760	0.15212774
92	0x3e5daa81	0.21647073
93	0x3de369d7	0.11104172
94	0xbd24a945	-0.04020049
95	0xbcdb5d6c	-0.026777945
96	0x3d6f0f33	0.058364104
97	0x3d0abfc6	0.033874296
98	0xbdbfdede	-0.093686804
99	0x3da6ca3b	0.08144041
100	0xbd3f7d1b	-0.04675017
101	0xbcccc4e5	-0.02499623
102	0xbc3295cd	-0.010899973
103	0x3c4f378a	0.012647519
104	0xbd017b85	-0.031611938
105	0xbd4c4d8d	-0.049878646
106	0xbd9815d4	-0.074260384
107	0xbc349c8d	-0.011023653
108	0x3e40d808	0.1883241
109	0x3cd8029f	0.026368437
110	0x3caaff8d	0.02087381
111	0xbd370965	-0.044686694
112	0x3e02c7a2	0.12771466
113	0xbdc6616d	-0.09686551
114	0xbda23f7c	-0.07922265
115	0x3d9c8b06	0.07643704
116	0xbc5900c7	-0.013244814
117	0xbe072f17	-0.13201557
118	0xbba70502	-0.0050970325
119	0x3dbf6b56	0.093466446
120	0xbdcae772	-0.09907426
121	0x3c995098	0.018715188
122	0x3dbdabed	0.09261308
123	0xbd209de6	-0.039213084
124	0xbe000f6a	-0.1250588
125	0xbd245327	-0.040118363
126	0x3bb7a242	0.0056040594
127	0x3de4a281	0.11163808
128	0xbd7bb407	-0.061450984
129	0xbc4a904e	-0.0123635065
130	0x3d021299	0.031756017
131	0x3c7bed38	0.015376382
132	0x3c8beccf	0.017080693
133	0xbd4a902b	-0.049453896
134	0x3d0a0cfd	0.033703793
135	0x3c0e9b31	0.008703993
136	0xbc0e0b5d	-0.008669701
137	0x3d654bf0	0.055980623
138	0x3c2a9734	0.010412026
139	0x3d339fb1	0.043853465
140	0x3b71e14e	0.0036907974
141	0xbcc04dd4	-0.023474611
142	0xbd055cdd	-0.032559264
143	0xbdab77e3	-0.08372476
144	0x3cc98121	0.024597706
145	0xbe075362	-0.13215402
146	0x3cfc09ff	0.030766485
147	0x3d9fd503	0.07804301
148	0xbd8280cf	-0.063722245
149	0xbdf8af86	-0.121428534
150	0x3cafe8a8	0.021473244
151	0x3d9bfcda	0.07616587
152	0x3e0eaed0	0.13933873
153	0xbd94c1eb	-0.072635494
154	0x3d9b3845	0.07579092
155	0xbc4c5a64	-0.012472723
156	0x3d9a3f8a	0.0753165
157	0x3d433b7d	0.047664154
158	0x3d50a30d	0.050936747
159	0x3ca4818b	0.020081302
160	0x3dd22dce	0.10262643
161	0x3d16bc13	0.036800455
162	0xbd9c193a	-0.07621999
163	0x3e272f37	0.16326605
164	0xbbbe5981	-0.0058090095
165	0x3df24cd8	0.11831063
166	0xbe1102e2	-0.14161256
167	0xbd8b1451	-0.067909844
168	0xbc991681	-0.018687489
169	0xbde55417	-0.111976795
170	0xbcf0ab4f	-0.029378561
171	0xbbbeb81e	-0.0058202883
172	0x3dc36993	0.09541621
173	0xbd5d95da	-0.054097988
174	0x3cf5ec54	0.030019917
175	0xbe5107f7	-0.20413195
176	0x3d2c9920	0.04213822
177	0xbda2be9b	-0.07946511
178	0xbdf1e10a	-0.11810501
179	0x3d8c28aa	0.068436936
180	0x3da4128f	0.08011352
181	0x3d7f802d	0.062378097
182	0x3c5fc8b1	0.013658688
183	0xbdacb50e	-0.08432971
184	0xbd71328e	-0.058886103
185	0x3dca2d79	0.098719545
186	0x3d4c77c5	0.04991891
187	0x3d7795fc	0.06044577
188	0x3c866772	0.016406748
189	0xbde61d26	-0.112360284
190	0x3db7d749	0.08976609
191	0x3ce7309e	0.028221425
192	0x3e11f78b	0.14254586
193	0xbd433924	-0.047661915
194	0xbd3e5bb9	-0.046474192
195	0x3dd78d80	0.10525036
196	0x3c125058	0.008930288
197	0xbdc0281f	-0.093826525
198	0xbcad7d5a	-0.021177936
199	0xbb2e94d3	-0.0026639
200	0x3c629bf6	0.013831129
201	0x3c060878	0.00818073
202	0xbd312962	-0.043252356
203	0xbbd57be9	-0.0065150154
204	0x3d3e93b0	0.046527565
205	0xbb870092	-0.004119941
206	0x3da2b669	0.07944948
207	0x3d107de6	0.035276316
208	0x3c888606	0.01666547
209	0xbcc45019	-0.023963975
210	0x3e16c989	0.14725317
211	0xbe17589a	-0.14779893
212	0xbd74ce49	-0.05976704
213	0xbd3e374d	-0.046439458
214	0xbe1b60bd	-0.15173621
215	0xbca4a3e5	-0.020097682
216	0x3cabb2b6	0.02095924
217	0x3c1a06c6	0.009401029
218	0xbdd01d59	-0.101618476
219	0x3de488b4	0.111588866
220	0x3e5a8c44	0.2134257
221	0xbe1061aa	-0.14099756
222	0xbd88732f	-0.066625945
223	0x3e2cfc9c	0.16893238
224	0x3b2246ae	0.0024761367
225	0xbc7ae90c	-0.015314352
226	0xbcc6d8db	-0.024273327
227	0xbc539f0e	-0.01291634
228	0x3bc53c35	0.00601914
229	0x3db804bc	0.08985278
230	0x3d72abec	0.05924599
231	0x3e291a2f	0.16513894
232	0x3deae2fd	0.11469076
233	0xbb64d291	-0.0034915546
234	0xbd943d11	-0.0723821
235	0x3e2c75de	0.16841838
236	0x3b9adbcb	0.0047259084
237	0xbc0df0ae	-0.00866334
238	0xbbc95ed0	-0.0061453357
239	0xbd836deb	-0.064174496
240	0x3af78c2a	0.0018886377
241	0x3e6fad88	0.2340604
242	0x3d2bea83	0.041971695
243	0x3e14e987	0.14542209
244	0xbdc52e56	-0.096279785
245	0xbc00c12b	-0.007858555
246	0x3c510388	0.01275719
247	0xbe06c22e	-0.13160011
248	0xbcbbd4cc	-0.022928618
249	0xbde61572	-0.11234559
250	0xbce77456	-0.028253715
251	0xbcc2a2ba	-0.023759235
252	0xbd30590d	-0.043053675
253	0x3d366e69	0.04453889
254	0x3e2cbf98	0.16869962
255	0x3deeca46	0.11659674
