results/ppo/My Behavior/My Behavior-91785.onnx (onnx, 74487 bytes, 7 tensors)

action_model._continuous_distribution.log_sigma f4 [1, 2]
0.011105262 0.012256245
00000000: d8f2 353c 6bce 483c

action_model._continuous_distribution.mu.bias f4 [2]
-0.000112703485 0.0066983704
00000000: 395b ecb8 017e db3b

action_model._continuous_distribution.mu.weight f4 [2, 128]
-0.0019211629 -0.008850696 8.1926315e-05 0.00052667357 -0.0035809663 0.020454932 0.033475485 0.0022255394
0.02145851 0.019325085 0.004354894 0.030745644 0.019350696 0.013145419 -0.024979351 0.00732498
0.0009910392 0.0037623337 -0.00626926 0.03985149 -0.0011654568 -0.013584797 0.039172415 -0.017169481
0.019605577 0.0065498427 -0.013913375 -0.003048456 0.0049223825 -0.0057365154 0.0011679577 0.010949325
0.030542638 0.01313116 -0.0012245048 -0.0382333 0.030370401 0.0019192387 -0.00731493 0.010505392
-0.0066133565 -0.019424938 0.0059042983 0.025107993 -0.055882636 0.003950504 0.0045014373 0.0007901244
-0.026597876 0.038786806 -0.019662274 -0.0058155023 -0.035848264 -0.002985774 -0.004168146 -0.02802004
-0.023307975 -0.024342863 -0.007910033 -0.0063015027 0.002776555 -0.025269361 -0.022428636 -0.005287349
0.0021440869 0.02650241 0.014017624 0.0029244102 0.0008125367 0.02075208 -0.010341734 0.01638724
-0.023493653 0.022592917 -0.025968513 -0.02146259 0.00015159423 0.020839587 0.0071173976 -0.013594855
-0.045469433 -0.009470145 -0.014360369 -0.0015921422 0.0029198963 -0.0010805009 0.004310449 0.0018052295
-0.012343532 0.0026934876 -0.051790547 -0.01649182 0.032289967 -0.010932185 -0.01044406 -0.017987344
-0.018217923 -0.00094416214 0.033583388 -0.024819348 -0.008477925 0.02619609 0.009955483 -0.0045849225
0.0031996279 0.0031197204 -0.018930547 0.008060589 0.036780506 -0.010842244 0.016057083 -0.016537208
0.014596287 0.030576443 0.030004522 0.0248093 0.0028421888 0.029682556 -0.035838682 0.0013710923
-0.053034417 0.007941144 -0.0013660166 -0.0041086 -0.0021138792 0.012191205 -0.00042068138 -0.0019423541
-0.015582737 0.007371897 0.004343318 0.014508794 -0.02523238 0.00917045 -0.003937129 -0.008399958
0.0012023707 -0.02620027 0.0050759465 0.008114028 -0.020478666 0.00640569 -0.0138934 0.031581875
-0.017899131 -0.00026578896 0.025797682 -0.031620357 0.03014737 0.024958523 -0.024976287 -0.030414794
-0.017900018 -0.00614067 0.003343343 0.001160443 -0.0125503335 -0.012239482 -0.005256426 0.004332175
0.0010337582 -0.020262439 -0.0042646416 0.0025489049 0.017562902 -0.0011449921 0.017908905 -0.02088897
0.018994154 -0.014566107 0.018331062 0.0060661514 0.0007072531 -0.016698794 0.00878222 0.00029692965
-0.009546611 -0.009032945 0.01982486 -0.014867939 0.024257764 -0.00031769977 -0.032363027 0.01258381
-0.012723067 -0.0017687639 -0.009407885 0.0023658914 0.006449483 -0.021264756 -0.010092143 -0.007221829
0.0061018635 0.0068932627 0.009734417 -0.0077962736 -0.0240555 0.024770658 0.029694898 -0.00013412375
0.000520032 -0.011403194 0.0023628622 -0.027022125 0.016234905 0.0062263315 0.008766837 -0.0053365873
0.019918747 -0.021354644 0.0011772439 -0.011742191 0.03192489 -0.014849812 0.0022851394 0.0024921012
0.030623656 0.0032636446 0.02067129 -0.01098877 0.008100454 0.0147003895 0.014091518 -0.018768236
0.014619682 -0.008800834 0.008669934 0.044591475 0.0018292918 -0.00728628 0.0032002085 -0.0025007562
0.0061647105 -0.025716057 -0.03260182 0.022114743 -0.015126848 0.011223727 -0.010517164 -0.007973693
0.038974006 0.002814333 -0.001788886 0.010617664 0.010590332 0.014738573 0.013477564 -0.024893867
0.0242358 -0.03349006 -0.012153937 -0.0062404713 0.01322764 -0.0008167757 0.014669528 -0.00022715815
00000000: 88cf fbba 8202 11bc dbcf ab38 7710 0a3a
00000010: a5ae 6abb 1a91 a73c 971d 093d 5bda 113b
00000020: c2c9 af3c a44f 9e3c 80b3 8e3b 4ade fb3c
00000030: 5a85 9e3c e25f 573c 7fa1 ccbc 6306 f03b
00000040: c2e5 813a 7c91 763b 5d6e cdbb 513b 233d
00000050: 3ec2 98ba c592 5ebc 4173 203d 03a7 8cbc
00000060: e09b a03c 10a0 d63b edf4 63bc 9bc8 47bb
00000070: f04b a13b 61f9 bbbb 2816 993a cc64 333c
00000080: 8e34 fa3c 1424 573c 907f a0ba 859a 1cbd
00000090: 59cb f83c f78e fb3a 15b2 efbb cf1e 2c3c
000000a0: dbb4 d8bb 0c21 9fbc d878 c13b 47af cd3c
000000b0: 31e5 64bd 3b73 813b cb80 933b 5a20 4f3a
000000c0: cae3 d9bc eade 1e3d c712 a1bc f88f bebb
000000d0: a1d5 12bd faac 43bb f194 88bb 488a e5bc
000000e0: 5ef0 bebc af6a c7bc 1599 01bc d67c cebb
000000f0: ddf6 353b b101 cfbc 42bc b7bc 8041 adbb
00000100: cf83 0c3b 951b d93c 2daa 653c 76a7 3f3b
00000110: 6a00 553a 4400 aa3c 6070 29bc 883e 863c
00000120: c375 c0bc c814 b93c ebbb d4bc 50d2 afbc
00000130: 44f5 1e39 c8b7 aa3c 0f39 e93b f4bc 5ebc
00000140: 283e 3abd ab28 1bbc c147 6bbc 6daf d0ba
00000150: bb5b 3f3b 989f 8dba ab3e 8d3b 739d ec3a
00000160: 873c 4abc 3985 303b 5322 54bd da19 87bc
00000170: 7c42 043d e81c 33bc 901d 2bbc 325a 93bc
00000180: c13d 95bc a681 77ba bc8e 093d f251 cbbc
00000190: ffe6 0abc 2f99 d63c 521c 233c 1e3d 96bb
000001a0: d9b0 513b 3974 4c3b 3c14 9bbc 9010 043c
000001b0: 28a7 163d aba3 31bc 258a 833c 0a79 87bc
000001c0: 4425 6f3c 737b fa3c 0bcc f53c e03c cb3c
000001d0: 0444 3a3b d528 f33c 95cb 12bd 39b6 b33a
000001e0: 9e3a 59bd 921b 023c e90b b3ba 6fa1 86bb
000001f0: 0289 0abb 9fbd 473c e68e dcb9 9796 feba
00000200: bc4e 7fbc f48f f13b 6452 8e3b 4bb6 6d3c
00000210: 23b4 cebc a83f 163c 0803 81bb fa9f 09bc
00000220: de98 9d3a f3a1 d6bc 2054 a63b b3f0 043c
00000230: e0c2 a7bc d3e6 d13b 25a1 63bc ff5b 013d
00000240: 33a1 92bc 9759 8bb9 a955 d33c 5984 01bd
00000250: 9ef7 f63c d175 cc3c 129b ccbc 7228 f9bc
00000260: 0fa3 92bc ac37 c9bb fd1b 5b3b 011a 983a
00000270: ea9f 4dbc 1c88 48bc 193e acbb ebf4 8d3b
00000280: 2b7f 873a 6afd a5bc 68be 8bbb 870b 273b
00000290: 13e0 8f3c 8f13 96ba b2b5 923c 581f abbc
000002a0: a199 9b3c aea6 6ebc 062b 963c 91c6 c63b
000002b0: f466 393a e9cb 88bc 4de3 0f3c 39ad 9b39
000002c0: 6469 1cbc ebfe 13bc bf67 a23c a898 73bc
000002d0: 38b8 c63c f190 a6b9 188f 04bd 532c 4e3c
000002e0: 6974 50bc ded5 e7ba 8823 1abc 120d 1b3b
000002f0: 2f56 d33b 6d33 aebc 8459 25bc 18a5 ecbb
00000300: 24f2 c73b e1e0 e13b 1b7d 1f3c e277 ffbb
00000310: 0a10 c5bc d6eb ca3c b742 f33c 92a3 0cb9
00000320: c252 083a 76d4 3abc 40da 1a3b 815d ddbc
00000330: 10ff 843c 4106 cc3b c8a2 0f3c 8ade aebb
00000340: a42c a33c efef aebc c04d 9a3a 5262 40bc
00000350: acc3 023d a04c 73bc 47c2 153b 8552 233b
00000360: 76de fa3c dfe2 553b d656 a93c 3e0a 34bc
00000370: c4b7 043c e7d9 703c 1ce0 663c d8bf 99bc
00000380: 6487 6f3c 6031 10bc 570c 0e3c 8da5 363d
00000390: d9c4 ef3a bfc1 eebb 97ba 513b bae3 23bb
000003a0: 5701 ca3b 7baa d2bc 7c89 05bd fa29 b53c
000003b0: 99d6 77bc b9e3 373c 2f50 2cbc 18a4 02bc
000003c0: 35a3 1f3d ac70 383b 0e79 eaba b6f5 2d3c
000003d0: 1283 2d3c 0e7a 713c 00d1 5c3c 39ee cbbc
000003e0: 288a c63c e02c 09bd 4e21 47bc de7c ccbb
000003f0: beb8 583c e41c 56ba 7658 703c 4d31 6eb9

network_body.linear_encoder.seq_layers.0.bias f4 [128]
-0.005882557 -0.004110035 0.00032504273 -0.0016076006 -0.007948502 -0.0025717835 0.0063471566 0.0034131673
0.0071116914 0.0008174902 0.0010908914 -0.00033953573 -0.00035324157 -0.0011203289 -0.003566121 0.0028882923
-0.0014658327 0.002802634 0.0010702494 -0.0008482083 0.0015861056 0.00406934 -0.002321392 0.0015726751
-0.000487254 -0.0047514196 -0.004605059 -0.0070318775 -0.006497876 -0.0009894526 -0.004555927 -0.0033835527
0.0032765644 -0.00631921 0.000769741 0.0028591673 -0.0024152368 -0.0035958183 -0.0028510364 -4.0392744e-05
0.010227987 -0.008830334 -0.0054315734 0.003895195 0.002253774 0.0011478266 -0.0023114423 0.0040912223
-0.00091171206 0.0008671209 0.0012169864 -0.0016256424 0.002675908 -0.003353081 -0.0039894483 -0.0027978816
-0.0015856286 -0.0022808805 0.004552117 -0.008206268 -0.0047134436 0.00010748815 -0.0010000446 0.0049258876
-0.0066763684 -0.0059572924 -0.00012581248 -0.0045269695 0.0059806136 0.0028184226 0.0013648105 0.005545629
0.0029283473 0.00368276 0.0021833603 0.00503714 -0.0020564024 -0.0011105405 -0.0019701878 0.0037082087
-0.005035146 -0.0045717047 -3.666752e-05 -0.0016618412 0.0069052367 0.003228228 0.0046675955 -0.0009829183
-0.0021866255 -0.003255062 0.0023756106 0.0015536346 -4.1794898e-05 -0.004295546 -0.0028753737 -0.0012716111
0.0015025955 -0.0013552246 -0.002400507 -0.0059989467 0.004282237 -0.0073139207 0.0050611086 0.005045238
-0.0062871547 -0.005390909 0.00014460261 -0.005979555 -0.0040745265 -0.0026965246 0.0053835274 -0.0010985504
-0.0047000055 -0.007895711 -0.00059910223 0.004157928 0.00029298864 -0.002343977 -0.005219011 -0.005912578
0.0045496062 0.0075002224 -0.0047262856 -0.008215397 0.0034697459 0.0001007055 -0.0026506053 0.005026802
00000000: 77c2 c0bb 79ad 86bb 7f6a aa39 20b6 d2ba
00000010: 6f3a 02bc 5e8b 28bb cffb cf3b 72af 5f3b
00000020: 3109 e93b d74c 563a 3efc 8e3a b703 b2b9
00000030: 4833 b9b9 00d8 92ba 95b5 69bb 8149 3d3b
00000040: 2f21 c0ba 65ac 373b 9c47 8c3a 4c5a 5eba
00000050: dfe4 cf3a 1958 853b 7f22 18bb 3822 ce3a
00000060: 2076 ffb9 ccb1 9bbb 09e6 96bb aa6b e6bb
00000070: 22ec d4bb 85b0 81ba e349 95bb 98be 5dbb
00000080: a1bb 563b 6011 cfbb 72c8 493a de60 3b3b
00000090: f348 1ebb d2a7 6bbb 74d8 3abb 616b 29b8
000000a0: 4993 273c 1bad 10bc 57fb b1bb 8746 7f3b
000000b0: 0eb4 133b ab72 963a 917b 17bb a90f 863b
000000c0: f6ff 6eba 804f 633a 4a83 9f3a 8213 d5ba
000000d0: 495e 2f3b 5dbf 5bbb ebb9 82bb aa5c 37bb
000000e0: ded4 cfba d37a 15bb ed29 953b 9573 06bc
000000f0: 3b73 9abb 436b e138 ee13 83ba 5769 a13b
00000100: 70c5 dabb 6435 c3bb 88ec 03b9 f956 94bb
00000110: 06f9 c33b 49b5 383b 71e3 b23a 1cb8 b53b
00000120: 84e9 3f3b 765a 713b b516 0f3b 980e a53b
00000130: b5c4 06bb 8e8f 91ba 441e 01bb 6b05 733b
00000140: defd a4bb 3dce 95bb 73cb 19b8 23d2 d9ba
00000150: 5345 e23b ae90 533b a1f2 983b 44d5 80ba
00000160: 7d4d 0fbb e152 55bb 22b0 1b3b 54a3 cb3a
00000170: ee4c 2fb8 a7c1 8cbb c470 3cbb 30ac a6ba
00000180: bdf2 c43a cba1 b1ba d351 1dbb d092 c4bb
00000190: 0252 8c3b 9da9 efbb a8d7 a53b 8652 a53b
000001a0: 7a04 cebb 39a6 b0bb 78a0 1739 25f0 c3bb
000001b0: 9b83 85bb 2db8 30bb 4d68 b03b 3cfd 8fba
000001c0: 8102 9abb 035d 01bc 120d 1dba 3a3f 883b
000001d0: 459c 9939 699d 19bb 3d04 abbb 4dbe c1bb
000001e0: dd14 953b 6dc4 f53b f5de 9abb df99 06bc
000001f0: ad64 633b db31 d338 c7b5 2dbb dfb7 a43b

network_body.linear_encoder.seq_layers.0.weight f4 [128, 9]
-0.17751934 0.18169285 0.3796981 -0.5182081 0.09812873 0.064042225 0.21847494 -0.65902644
0.40825322 0.65554625 -0.060477894 0.57012475 -0.2984899 -0.15515658 0.011070982 -0.31904137
0.09443195 -0.20083475 0.026282897 -0.23847225 -0.2145758 0.10746226 -0.42574325 -0.082086645
-0.19028412 0.28106627 -0.06767816 0.015321157 0.28408363 -0.24373676 0.32510453 -0.2857168
0.24817501 0.26440725 -0.17766489 -0.38199487 0.040184077 0.33056894 -0.053392593 -0.059995674
-0.22485384 0.04955674 0.8423367 -0.0027768125 -0.44522968 0.087833904 0.08038137 0.4856016
-0.6294149 -0.3493088 0.26439133 -0.51597375 0.01628249 -0.056445144 -0.17036226 -0.13012819
0.15846911 0.3323403 -0.47341776 -0.47554532 0.20998748 0.18824041 -0.48974305 0.08423445
-0.07967063 -0.1492485 0.48771912 -0.25276858 0.19285403 -0.06390125 -0.035449985 -0.1281861
0.17415884 -0.7010863 0.11890567 0.14365558 0.38049296 -0.10958256 0.16196688 -0.10463592
0.16661419 -0.026564129 0.36624402 0.2195657 -0.007747857 -0.32330203 0.16604754 0.08250242
-0.2674838 -0.0300676 0.054478455 -0.15742734 -0.120111436 -0.14859356 -0.51161987 -0.601269
-0.2705841 -0.3043157 0.37389982 0.26951298 -0.6881793 -0.44091862 0.67418087 -0.22139038
-0.17542419 -0.09867625 0.47203827 -0.20635147 0.15793152 0.12754443 0.15239906 -0.0042439313
-0.7776362 -0.46570042 1.0079942 -0.62198657 -0.14191538 -0.19311953 0.40982166 -0.28238535
0.24294095 -0.046572886 -0.3886503 -0.014654539 0.20862174 -0.3190523 -0.22437663 0.31351408
-0.22090219 -0.39326772 0.01695425 -0.26396525 -0.38022605 -0.38422546 -0.43504107 0.21207176
0.70216054 0.15878054 -0.12790032 -0.35879138 0.32081133 -0.10917727 -0.22588928 -0.27453673
-0.30643302 0.19757709 -0.042805415 0.19984707 -0.3964708 0.029255971 0.28238449 -0.1414499
-0.60096747 0.6887749 -0.3227979 -0.10581122 -0.1093642 0.15439448 0.20807868 0.16276722
-0.086967364 -0.02643712 -0.215853 -0.045563567 -0.38493365 -0.65087444 -0.12697104 0.5119536
-0.14822051 0.15648606 -0.47265255 0.43311948 0.004447847 -0.012415341 -0.28273946 -0.076813444
0.31783038 0.6735833 0.2966748 0.50243455 -0.20703577 0.08686893 0.023075888 -0.23476894
-0.19736466 -0.56258607 0.24853702 -0.042326596 -0.049012296 -0.006309239 0.5011784 -0.0966907
0.6634601 -0.6021168 -0.1303522 -0.4565689 -0.5225651 0.0050138813 -0.22676806 -0.31204447
0.20346785 -0.3773309 0.3043089 0.020903708 -0.10963751 0.36420822 -0.17832524 -0.18476361
-0.31877932 -0.23026696 -0.080927946 0.19347744 0.1615223 0.19131234 0.007538572 -0.089915216
-0.120491765 -0.25227714 -0.050107297 -0.09788122 0.34540716 0.32321 -0.64343005 -0.9744537
-0.038539834 0.24940263 -0.31069574 0.31572476 0.4050378 0.21075925 -1.0958322 -0.6746978
0.30049405 -0.037475523 0.31448328 0.042062245 -0.022657394 -0.003914252 0.2985639 -0.27672613
0.24995233 -0.090326376 -0.96382886 -0.43157896 0.019938398 0.056656905 0.40647987 -0.18406515
0.058890916 -0.33884102 -0.17080599 0.3660107 0.13614112 -0.06578397 -0.35936576 0.4226909
00000000: a1c7 35be b10d 3a3e ca67 c23e 49a9 04bf
00000010: b7f7 c83d 9228 833d e5b7 5f3e f5b5 28bf
00000020: 9106 d13e e1d1 273f abb7 77bd b2f3 113f
00000030: abd3 98be 5ee1 1ebe 1063 353c 6459 a3be
00000040: 8a65 c13d a0a7 4dbe 3b4f d73c 1232 74be
00000050: c2b9 5bbe 2c15 dc3d 05fb d9be 0b1d a8bd
00000060: d7d9 42be ebe7 8f3e d99a 8abd 9705 7b3c
00000070: 6973 913e 2196 79be 1a74 a63e 7949 92be
00000080: 9721 7e3e 6360 873e c9ed 35be d594 c3be
00000090: 0f98 243d 5540 a93e 31b2 5abd 06be 75bd
000000a0: 1640 66be 02fc 4a3d 61a3 573f 2ffb 35bb
000000b0: 25f5 e3be 43e2 b33d fd9e a43d c6a0 f83e
000000c0: 5621 21bf 9ad8 b2be 4d5e 873e db16 04bf
000000d0: db62 853c 0633 67bd 7273 2ebe 5340 05be
000000e0: ba45 223e 8228 aa3e d063 f2be ad7a f3be
000000f0: f506 573e 18c2 403e 9abf fabe 1c83 ac3d
00000100: 5b2a a3bd 99d4 18be 52b6 f93e e26a 81be
00000110: 877b 453e a9de 82bd 0134 11bd 3843 03be
00000120: b256 323e 647a 33bf d184 f33d 731a 133e
00000130: f9cf c23e d26c e0bd a5da 253e 5b4b d6bd
00000140: e99c 2a3e 049d d9bc 5684 bb3e d5d5 603e
00000150: bce1 fdbb d887 a5be 5e08 2a3e 07f7 a83d
00000160: a3f3 88be 5450 f6bc cd24 5f3d a234 21be
00000170: fcfc f5bd e928 18be 85f9 02bf c4ec 19bf
00000180: 008a 8abe 44cf 9bbe cc6f bf3e 9bfd 893e
00000190: 852c 30bf 16c0 e1be 1e97 2c3f 29b4 62be
000001a0: 66a2 33be c616 cabd 00af f13e cd4d 53be
000001b0: cdb8 213e 029b 023e 800e 1c3e ad10 8bbb
000001c0: 2a13 47bf 4970 eebe f405 813f 833a 1fbf
000001d0: 4452 11be 20c1 45be 25d4 d13e d094 90be
000001e0: 83c5 783e 36c3 3ebd 2cfd c6be 9719 70bc
000001f0: f0a0 553e d35a a3be fdc2 65be eb84 a03e
00000200: 2f34 62be 635a c9be a4e3 8a3c 7426 87be
00000210: fdac c2be 33b9 c4be b4bd debe 5729 593e
00000220: cbc0 333f 5e97 223e 4df8 02be 81b3 b7be
00000230: 6241 a43e 5598 dfbd 854f 67be 1490 8cbe
00000240: cae4 9cbe a651 4a3e bb54 2fbd b6a4 4c3e
00000250: 38fe cabe 38aa ef3c b394 903e 3ed8 10be
00000260: 01d9 19bf 8d53 303f c445 a5be 8eb3 d8bd
00000270: 56fa dfbd 9619 1e3e 9412 553e 73ac 263e
00000280: f21b b2bd a992 d8bc 9208 5dbe dda0 3abd
00000290: 0616 c5be b59f 26bf b204 02be 640f 033f
000002a0: 1ec7 17be e23d 203e 84ff f1be d6c1 dd3e
000002b0: 3fbf 913b b769 4bbc 3ac3 90be 5e50 9dbd
000002c0: aaba a23e f56f 2c3f c2e5 973e 8d9f 003f
000002d0: 2f01 54be 56e8 b13d a509 bd3c 4567 70be
000002e0: f619 4abe a405 10bf 7d80 7e3e a75e 2dbd
000002f0: 1ec1 48bd bcbd cebb 3a4d 003f c605 c6bd
00000300: 85d8 293f 5424 1abf 0c7b 05be 66c3 e9be
00000310: d4c6 05bf 7c4b a43b e335 68be 4bc4 9fbe
00000320: e059 503e 8431 c1be 60ce 9b3e 413e ab3c
00000330: a189 e0bd 8079 ba3e e49a 36be ac32 3dbe
00000340: 0b37 a3be 1acb 6bbe 8dbd a5bd f31e 463e
00000350: 1a66 253e 62e7 433e 2006 f73b 7825 b8bd
00000360: 63c4 f6bd 782a 81be 4f3d 4dbd f375 c8bd
00000370: 35d9 b03e c87b a53e d5b7 24bf cc75 79bf
00000380: f2db 1dbd 6763 7f3e 8313 9fbe ada6 a13e
00000390: 1d61 cf3e 46d1 573e 3b44 8cbf ffb8 2cbf
000003a0: 5bda 993e ef7f 19bd f403 a13e 7649 2c3d
000003b0: 009c b9bc 2043 80bb 5edd 983e 0caf 8dbe
000003c0: 81f3 7f3e 09fd b8bd 7dbd 76bf ebf7 dcbe
000003d0: da55 a33c 1211 683d 211e d03e 937b 3cbe
000003e0: 9a37 713d 927c adbe c4e7 2ebe c165 bb3e
000003f0: 9468 0b3e bfb9 86bd cafe b7be f16a d83e

network_body.linear_encoder.seq_layers.2.bias f4 [128]
-0.009764729 0.003826794 0.0013889112 0.0044249846 0.01006885 0.0077580186 -0.0014311352 -0.005750464
0.005077389 -0.0036319166 0.0017816457 0.0007071531 -0.0029123002 0.0032993203 -0.0030108613 0.0058879205
-0.0064283144 -0.0049979365 0.004085958 0.002136614 0.005263938 0.0063011316 -0.0036668181 -0.005706536
0.00041291476 -0.004598021 0.0025780627 -0.008190094 -0.006847245 -0.005825362 -0.006108514 0.0006078682
0.010411939 -0.0058177146 -0.0045615286 0.00079286325 0.0033875967 -0.0058815484 0.0010986385 -0.006290275
0.0017155671 -0.0037818304 0.004655212 0.0062807295 -0.0021352407 -0.006938105 0.0049134106 -0.0053875754
-0.0014779646 -8.669102e-05 0.0051491396 -0.0064020962 0.0030580752 0.002561278 -0.0075267074 0.0015853208
-0.00015953323 -0.0007428828 -0.00588798 -0.002756111 0.0037135703 -0.004946745 -0.002799499 -0.0050643836
0.0019122832 0.00036419884 0.0034313735 -0.005610414 -0.007297708 0.004181388 0.004918086 0.0035422414
-0.0007288843 -0.00080990477 -0.00293441 -0.0054075923 0.0069808527 8.9669404e-05 0.0032018456 -0.0021930686
0.00026380466 -0.0067750053 -0.00053430133 -0.005502719 0.006134887 -0.008921944 0.002502687 -0.002062962
-0.005954423 0.002857105 0.0028880138 -0.0036716193 0.0021909038 0.0020572285 0.0066298316 -0.0038803807
-0.0031814368 -0.0057947384 0.0012104169 0.004452539 0.0032520585 -0.0017160057 -0.0017243283 -0.011590707
0.0020966928 -0.00631478 0.005651425 0.0049710786 -0.0025024267 0.0017906294 -0.0052848337 -0.0025458247
0.0008843303 0.00020180279 -0.0003078248 -0.000867398 0.0021173866 0.0010227985 -0.00061441207 -0.008477663
0.00061548484 -0.006805844 -0.0051406245 -0.0060393494 0.007025739 -0.00259797 0.006243955 0.0029295627
00000000: 3efc 1fbc f3ca 7a3b 200c b63a 76ff 903b
00000010: d1f7 243c fa36 fe3b ee94 bbba 636e bcbb
00000020: 3a60 a63b 7305 6ebb 1c86 e93a 3e60 393a
00000030: 4adc 3ebb 6939 583b df51 45bb 75ef c03b
00000040: 9ca4 d2bb bbc5 a3bb 80e3 853b 6f06 0c3b
00000050: 1d7d ac3b b979 ce3b 004f 70bb e5fd babb
00000060: 7b7c d839 ffaa 96bb b7f4 283b be2f 06bc
00000070: db5e e0bb aee2 bebb ee29 c8bb 5859 1f3a
00000080: d696 2a3c 87a2 bebb e078 95bb 27d8 4f3a
00000090: 7102 5e3b 01ba c0bb 3100 903a a71e cebb
000000a0: e1dc e03a 96d8 77bb c08a 983b 94ce cd3b
000000b0: 65ef 0bbb 0b59 e3bb ad00 a13b 428a b0bb
000000c0: 43b8 c1ba e3cd b5b8 1dba a83b adc8 d1bb
000000d0: fd69 483b 1ddb 273b 99a2 f6bb 8aca cf3a
000000e0: 6048 27b9 05be 42ba f5ef c0bb df9f 34bb
000000f0: 5f5f 733b 4e18 a2bb cd77 37bb 21f3 a5bb
00000100: 94a5 fa3a f1f1 be39 e5e0 603b 90d7 b7bb
00000110: 9d21 efbb 0604 893b e527 a13b f324 683b
00000120: 9912 3fba ca4f 54ba 3b4f 40bb 2c32 b1bb
00000130: a3bf e43b e50c bc38 0ed6 513b 96b9 0fbb
00000140: 434f 8a39 dd00 debb 5b10 0cba 2750 b4bb
00000150: 2a07 c93b 582d 12bc 1f04 243b c232 07bb
00000160: 521d c3bb 453e 3b3b d544 3d3b 8d9f 70bb
00000170: 4495 0f3b 91d2 063b 0f3f d93b fc4d 7ebb
00000180: a77f 50bb cae1 bdbb daa6 9e3a 9be6 913b
00000190: 7d20 553b 99eb e0ba db02 e2ba f3e6 3dbc
000001a0: ab68 093b 37ec cebb 972f b93b 6ee4 a23b
000001b0: c1ff 23bb 8db3 ea3a 662c adbb dad7 26bb
000001c0: 67d2 673a 069b 5339 8c63 a1b9 1862 63ba
000001d0: dac3 0a3b 6c0f 863a 7f10 21ba e5e5 0abc
000001e0: 7d58 213a 8f03 dfbb af72 a8bb bce5 c5bb
000001f0: 2c38 e63b b442 2abb 179a cc3b e8fd 3f3b

network_body.linear_encoder.seq_layers.2.weight f4 [128, 128]
0.0033665297 -0.012682145 0.11034678 -0.020117225 -0.017203419 -0.03806841 0.04134182 -0.10638841
-0.101324916 -0.018661903 0.21813576 0.117932744 -0.013795015 -0.054519787 0.011097093 0.038439915
0.061159402 -0.26505712 -0.05546284 0.115774505 0.1858077 -0.11957057 0.0029821242 -0.07724972
0.092029154 -0.025347378 -0.11818763 0.0106516555 -0.07884313 -0.103347145 0.060723767 0.040420804
0.15721633 -0.05697524 0.0884247 0.09521369 0.04362383 0.019773971 0.03460356 -0.021509536
-0.053502977 -0.059408933 0.044220656 0.0063498253 0.08434396 -0.13039134 0.068037525 -0.06533195
-0.087236 0.10539709 0.04959761 0.044887986 0.033884536 0.067842394 0.103643775 -0.07089933
0.02455679 0.027915105 0.08006385 0.030570397 0.15582363 -0.037381258 -0.12158438 0.041642476
0.08942054 -0.083207816 -0.10556808 -0.025444567 -0.041903432 0.12420404 0.038778957 -0.10288028
-0.12565532 -0.07819473 0.11061122 -0.13040127 0.0009590505 0.14026634 0.084157854 0.12416434
0.09869653 -0.051296677 0.10725774 0.0857546 -0.11050773 -0.021771401 0.031977817 -0.04210645
0.06881248 0.048873458 -0.0006048509 0.0031131168 -0.12439273 0.060464833 0.12377997 -0.062262543
0.02355933 -0.042238325 -0.09786513 0.096215926 -0.05696976 -0.06867561 0.01150655 -0.023657508
-0.09835102 0.025772814 -0.1270749 -0.08582114 0.119904846 -0.04640576 0.108533025 0.030760065
-0.10326889 0.08272572 0.16368708 0.20003882 -0.069525525 -0.023367975 -0.16314761 -0.083234355
0.0145075945 0.046150755 0.14484933 0.06358336 -0.0019055868 -0.011276939 0.017804828 -0.032007888
-0.036717877 0.15372668 -0.1111723 -0.13648376 -0.071067624 -0.0463348 -0.1321741 0.14256479
-0.18288384 0.11429455 -0.017090062 0.0067009474 0.024013115 0.031288467 -0.16079305 -0.06499028
-0.09053552 0.08922284 0.16563733 -0.18280855 0.12924469 0.034445286 0.11896939 0.10865942
-0.07365614 -0.094808824 -0.14507687 -0.008311136 0.07145326 0.007704981 -0.050086726 0.044368956
-0.014708815 -0.12514366 0.008025094 -0.10171416 0.017812395 -0.048766386 -0.22876275 -0.0537313
0.1429099 0.12132751 0.0020698684 -0.13252003 0.041257456 -0.05396284 -0.08557571 0.027522184
0.110516265 -0.15974754 -0.06740881 0.023502987 -0.09526937 -0.0127949305 -0.07901573 0.038462304
-0.013443451 0.11008614 0.06350619 -0.02531081 0.02774305 -0.001433949 0.04446807 0.05241907
0.12072216 -0.09082085 -0.1488452 -0.10032155 -0.06940859 0.097639754 0.091880366 -0.050282456
-0.18094958 0.13379052 0.09326192 0.039186772 0.017536325 0.1388207 -0.045121755 0.023422264
0.0774044 0.07124863 -0.097763345 0.07653805 -0.049755584 0.062154178 0.08987488 -0.050434828
0.013743703 0.09969389 -0.09194825 0.00018771367 0.0070324973 0.06354457 0.053635206 0.035014864
-0.1668583 -0.12673022 0.07515226 -0.13929395 0.103379235 0.019503148 0.14181022 0.16434728
-0.15915184 0.14158942 0.103161946 0.0905782 0.06598923 0.034358893 0.04314858 -0.1179431
0.036643222 -0.05481046 0.0896714 -0.022443421 0.0848531 0.06745367 -0.05680324 -0.057156704
0.018080583 -0.070765056 -0.062934175 -0.14037904 -0.045626964 -0.045081504 0.033376094 0.1461101
00000000: ffa0 5c3b c6c8 4fbc 7efd e13d e1cc a4bc
00000010: 2fee 8cbc 9fed 1bbd 0a56 293d 2be2 d9bd
00000020: 7083 cfbd d9e0 98bc fb5e 5f3e b986 f13d
00000030: 7d04 62bc 2450 5fbd 95d0 353c 2c73 1d3d
00000040: 4882 7a3d 91b5 87be 012d 63bd 2f1b ed3d
00000050: 6044 3e3e 6ae1 f4bd be6f 433b 1a35 9ebd
00000060: c879 bc3d 4ea5 cfbc 5b0c f2bd 4884 2e3c
00000070: 8278 a1bd aba7 d3bd 7cb9 783d 4990 253d
00000080: 51fd 203e df5e 69bd 0218 b53d 65ff c23d
00000090: e7ae 323d 06fd a13c 76bc 0d3d c434 b0bc
000000a0: f025 5bbd c856 73bd b820 353d 3212 d03b
000000b0: 87bc ac3d 4f85 05be 4257 8b3d c2cc 85bd
000000c0: caa8 b2bd 6eda d73d dd26 4b3d 77dc 373d
000000d0: 83ca 0a3d f4f0 8a3d 3043 d43d ab33 91bd
000000e0: 522b c93c 38ae e43c 84f8 a33d c56e fa3c
000000f0: 3b90 1f3e 171d 19bd 3b01 f9bd 4d91 2a3d
00000100: 1e22 b73d dc68 aabd 1434 d8bd 2071 d0bc
00000110: efa2 2bbd b05e fe3d afd6 1e3d e5b2 d2bd
00000120: caab 00be 8f24 a0bd 2388 e23d e987 05be
00000130: ca68 7b3a fba1 0f3e f45a ac3d e049 fe3d
00000140: 6821 ca3d 771c 52bd f2a9 db3d 1ca0 af3d
00000150: e051 e2bd f059 b2bc 2cfb 023d d077 2cbd
00000160: 8fed 8c3d 892f 483d db8e 1eba 6f05 4c3b
00000170: 9ec1 febd f9a9 773d 5a80 fd3d 0207 7fbd
00000180: 7fff c03c 1802 2dbd 836d c8bd db0c c53d
00000190: 2059 69bd cca5 8cbd f885 3c3c 64cd c1bc
000001a0: 426c c9bd 8221 d33c ec1f 02be fec2 afbd
000001b0: ac90 f53d f713 3ebd 9046 de3d 88fc fb3c
000001c0: a47e d3bd 1a6c a93d 969d 273e fad6 4c3e
000001d0: 6663 8ebd 326e bfbc 2b10 27be c676 aabd
000001e0: 43b1 6d3c 9308 3d3d 6253 143e fe37 823d
000001f0: e2c4 f9ba e9c2 38bc 6edb 913c b41a 03bd
00000200: 7c65 16bd 876a 1d3e 4eae e3bd 66c2 0bbe
00000210: e78b 91bd 8fc9 3dbd a658 07be 81fc 113e
00000220: e745 3bbe 4313 ea3d 7500 8cbc 9f93 db3b
00000230: 27b7 c43c 5628 003d efa6 24be a019 85bd
00000240: b06a b9bd 77ba b63d d59c 293e 2a32 3bbe
00000250: b858 043e 8016 0d3d 39a6 f33d d488 de3d
00000260: 08d9 96bd 212b c2bd 088f 14be 6e2b 08bc
00000270: 1656 923d 117a fc3b bd27 4dbd 39bc 353d
00000280: 3efd 70bc a925 00be af7b 033c 834f d0bd
00000290: 4deb 913c 43bf 47bd c840 6abe 5a15 5cbd
000002a0: f956 123e 8f7a f83d a1a6 073b 55b3 07be
000002b0: 94fd 283d 2408 5dbd 5142 afbd 3476 e13c
000002c0: 5a56 e23d dc94 23be a10d 8abd 5689 c03c
000002d0: 961c c3bd d4a1 51bc 00d3 a1bd a68a 1d3d
000002e0: ec41 5cbc d874 e13d 890f 823d 9e58 cfbc
000002f0: 6545 e33c 58f3 bbba 2724 363d 61b5 563d
00000300: 2e3d f73d 4800 babd e06a 18be 6375 cdbd
00000310: 1726 8ebd 5af7 c73d c62b bc3d faf4 4dbd
00000320: d94a 39be 6200 093e 1b00 bf3d 4f82 203d
00000330: 57a8 8f3c 0327 0e3e 97d1 38bd 0ce0 bf3c
00000340: 3386 9e3d cdea 913d 2638 c8bd fbbf 9c3d
00000350: 83cc 4bbd 6195 7e3d 5210 b83d c094 4ebd
00000360: 452d 613c 4f2c cc3d 5d4f bcbd 01d5 4439
00000370: dd70 e63b a823 823d 97b0 5b3d bf6b 0f3d
00000380: e7dc 2abe 91c5 01be 6ee9 993d 13a3 0ebe
00000390: 7eb8 d33d 11c5 9f3c b336 113e a74a 283e
000003a0: b3f8 22be d1fc 103e 9246 d33d 1081 b93d
000003b0: 5d25 873d e9bb 0c3d 91bc 303d 278c f1bd
000003c0: 3417 163d ef80 60bd a4a5 b73d 44db b7bc
000003d0: 76c7 ad3d 2625 8a3d 84aa 68bd 261d 6abd
000003e0: bb1d 943c 45ed 90bd a2e3 80bd 86bf 0fbe
000003f0: 57e3 3abd 62a7 38bd 5fb5 083d e39d 153e
