results/ppo/My Behavior/My Behavior-5252.onnx (onnx, 74487 bytes, 7 tensors)

action_model._continuous_distribution.log_sigma f4 [1, 2]
0.0 0.0
00000000: 0000 0000 0000 0000

action_model._continuous_distribution.mu.bias f4 [2]
0.0 0.0
00000000: 0000 0000 0000 0000

action_model._continuous_distribution.mu.weight f4 [2, 128]
0.0326852 0.0089631295 0.019207153 -0.024567807 -0.010141193 0.00454874 -0.004710017 0.038566284
-0.014785056 -0.011444111 -0.013201325 -0.021592451 0.0205331 -0.03561656 0.017184474 -0.018837418
-0.020118473 0.0062534744 0.037670474 0.0044845426 -0.0020466635 -0.0075515397 -0.0033250165 -0.022135938
-0.022378756 -0.011994477 0.0054460987 -0.03344938 -0.014546961 -0.024100592 0.014576164 -0.036035147
-0.001936575 0.015470353 0.010801875 -0.0056070825 0.023394296 -0.00070071494 0.010677639 -0.014265603
0.039178744 -0.021993067 0.02017006 -0.036333002 -0.0016195355 0.030321587 0.0023486745 -0.00091159577
0.005554965 0.007892622 -0.012157386 0.01231231 -0.0051990594 0.037825663 0.010138729 -0.016352976
0.010834545 -0.017360965 0.025790839 0.010396818 -0.009003698 -0.02804075 0.0024604779 0.04015417
-0.021413555 0.0029387847 -0.0021972298 -0.0048823813 -0.032468334 0.03203691 -0.027477419 0.026172815
-0.0127048 -0.008816008 -0.028848276 0.024915224 -0.023847593 0.005763 0.008563086 0.03306013
0.021348832 0.0037660934 0.01613393 0.002148157 0.0015919779 -0.024877142 -0.002375857 3.982712e-05
0.00877283 0.018584723 -0.048541825 -0.012805414 0.006671618 0.017297382 -0.00047770338 0.0052705156
-0.005620053 0.0016916106 0.031042075 0.028838921 -0.0082224505 0.024911977 -0.020081198 -0.014395527
-0.009984779 0.010052203 -0.015812783 0.015707968 -0.007000708 0.00017686216 -0.013461389 0.0024280648
-0.002784619 0.018257722 -0.0057311626 0.0035865714 -0.006002949 -0.032097656 0.014658774 0.02570852
0.006948501 0.015136547 -0.027861474 0.0026143321 -0.003878741 -0.02115575 -0.014233467 -0.016864527
-0.0021115474 -0.0044239094 0.010930106 0.005936308 -0.0023491667 -0.012519707 0.0067558037 -0.033768438
-0.021105753 -0.019617466 0.029145673 0.007360676 -0.021773634 -0.017455198 0.017780311 -0.03724753
0.0042423676 -0.0024411671 -0.016667593 -0.027972847 0.0057425075 -0.02204404 0.00089993386 0.002913688
-0.008712417 -0.017607816 0.013398424 -0.0024414635 -0.0092953015 0.019676602 -0.00659541 -0.0018230804
0.013707106 -0.01349309 -0.01675984 -0.007115158 -0.0008829524 0.020489706 0.0036901669 -0.0047929543
-0.031273745 0.012109506 0.0259997 0.03170244 0.026145807 0.0020862955 0.013237774 0.024886912
0.017249523 0.012525625 0.03447235 -0.03596979 -0.0054451395 -0.005917592 -0.008683071 -0.0075122467
-0.0050106323 -0.00974702 -0.011945899 -0.010183112 -0.015023576 0.055493034 0.024066387 -0.0041925665
-0.012541564 0.007517256 -0.0162364 0.015004127 -0.005176931 -0.012021553 0.04933439 0.0070278556
-0.005930276 0.00591658 -0.002248561 0.017308302 0.021548491 -0.019426534 -0.007127549 -0.020197758
0.022573773 0.006155331 0.0030931623 0.010321039 -0.013558221 0.023715282 0.016864128 -0.018012146
-0.017307853 0.002867688 -0.008615819 -0.013924782 -0.012089923 -0.033295337 -0.020713257 -0.016892932
0.012493296 -0.0075853104 -0.02277643 0.019954747 0.027194126 -0.01173528 0.007933437 0.002317239
-0.010389948 -0.030020526 0.010179293 -0.0015390723 0.012513408 0.029817343 0.025078192 -0.008595746
-0.011820035 0.0046714703 0.0047845067 0.010921967 0.020866262 -0.008077002 0.023996795 -0.03148848
0.009113752 -0.01121345 -0.0021947825 0.011755837 0.016331105 -0.004564391 0.025786603 -0.0036718592
00000000: ebe0 053d 17da 123c 5258 9d3c 6d42 c9bc
00000010: 3f27 26bc 990d 953b 7c56 9abb aef7 1d3d
00000020: 053d 72bc 1580 3bbc 5f4a 58bc a7e2 b0bc
00000030: 0835 a83c ace2 11bd 74c6 8c3c ee50 9abc
00000040: 7fcf a4bc f2e9 cc3b 5b4c 1a3d 12f3 923b
00000050: 5121 06bb e872 f7bb 85e8 59bb 6d56 b5bc
00000060: a753 b7bc 7c84 44bc 3075 b23b 3802 09bd
00000070: 6056 6ebc 9b6e c5bc ddd0 6e3c 9799 13bd
00000080: add4 fdba 5d77 7d3c 59fa 303c 9ebb b7bb
00000090: 65a5 bf3c 2fb0 37ba 44f1 2e3c 47ba 69bc
000000a0: e479 203d ce2a b4bc af3b a53c ead1 14bd
000000b0: 9846 d4ba fa64 f83c 38ec 193b 28f8 6eba
000000c0: 6d06 b63b 0e50 013c c62f 47bc 92b9 493c
000000d0: df5c aabb 15ef 1a3d e91c 263c adf6 85bc
000000e0: 6083 313c 9538 8ebc 4f47 d33c 6a57 2a3c
000000f0: 3f84 13bc b7b5 e5bc f83f 213b b378 243d
00000100: 7b6b afbc a098 403b 66ff 0fbb 62fc 9fbb
00000110: 84fd 04bd 2339 033d 5318 e1bc 5f68 d63c
00000120: cb27 50bc 0571 10bc 3853 ecbc 031b cc3c
00000130: 075c c3bc 8cd7 bc3b 304c 0c3c 0f6a 073d
00000140: bfe3 ae3c 90d0 763b 4e2b 843c 18c8 0c3b
00000150: eaa9 d03a 26cb cbbc 44b4 1bbb 0b0c 2738
00000160: eabb 0f3c fd3e 983c cbd3 46bd cdcd 51bc
00000170: 979d da3b 3db3 8d3c 4374 fab9 4ab4 ac3b
00000180: 6c28 b8bb 08b9 dd3a f34b fe3c 9a3f ec3c
00000190: 75b7 06bc 3414 cc3c 5381 a4bc 37db 6bbc
000001a0: 3397 23bc ffb1 243c cf89 81bc ffad 803c
000001b0: 3266 e5bb 1374 3939 288d 5cbc 2b20 1f3b
000001c0: 287e 36bb 3891 953c 7acc bbbb af0c 6b3b
000001d0: 63b4 c4bb d578 03bd 5b2b 703c ad9a d23c
000001e0: 40b0 e33b 48ff 773c bf3d e4bc 3755 2b3b
000001f0: 7a32 7ebb d34e adbc 7d33 69bc 7a27 8abc
00000200: e361 0abb 71f6 90bb 3014 333c 5c85 c23b
00000210: 7af4 19bb 751f 4dbc ca5f dd3b c650 0abd
00000220: f9e5 acbc cfb4 a0bc e8c2 ee3c d331 f13b
00000230: 9f5e b2bc 34fe 8ebc 04a8 913c de90 18bd
00000240: 8f03 8b3b fdfb 1fbb 7a8a 88bc 5027 e5bc
00000250: a52b bc3b b495 b4bc 8ae9 6b3a 93f3 3e3b
00000260: 87be 0ebc 443e 90bc 1085 5b3c f600 20bb
00000270: 524b 18bc d330 a13c 4f1e d8bb 6df4 eeba
00000280: c593 603c 1f12 5dbc ef4b 89bc 4526 e9bb
00000290: ef75 67ba 07da a73c bad6 713b 370e 9dbb
000002a0: e618 00bd f366 463c 53fd d43c 6bda 013d
000002b0: bb2f d63c 3bba 083b 40e3 583c a3df cb3c
000002c0: df4e 8d3c 4738 4d3c e132 0d3d 0f55 13bd
000002d0: 246d b2bb 5ce8 c1bb 7043 0ebc 4b29 f6bb
000002e0: 3b30 a4bb f7b1 1fbc bbb8 43bc 11d7 26bc
000002f0: 7225 76bc aa4c 633d df26 c53c cc61 89bb
00000300: 227b 4dbc 5053 f63b 3302 85bc dfd3 753c
00000310: 3fa3 a9bb 0cf6 44bc db12 4a3d ed49 e63b
00000320: c352 c2bb dfdf c13b 985c 13bb 24ca 8d3c
00000330: 7686 b03c 6524 9fbc 378e e9bb c575 a5bc
00000340: a2ec b83c a9b2 c93b a7b6 4a3b 9319 293c
00000350: 4d23 5ebc 8d46 c23c a426 8a3c 358e 93bc
00000360: 33c9 8dbc d2ef 3b3b 5d29 0dbc c524 64bc
00000370: d014 46bc b160 08bd d9ae a9bc 0c63 8abc
00000380: aeb0 4c3c 328e f8bb a395 babc 2378 a33c
00000390: 37c6 de3c 5545 40bc 3ffb 013c d2dc 173b
000003a0: 9a3a 2abc 9bed f5bc 0dc7 263c b2ba c9ba
000003b0: 0a05 4d3c 8043 f43c c870 cd3c 2cd5 0cbc
000003c0: d2a8 41bc 2213 993b 5ac7 9c3b 0df2 323c
000003d0: b9ef aa3c 6755 04bc ed94 c43c 10fa 00bd
000003e0: d951 153c 9eb8 37bc 57d6 0fbb 8e9b 403c
000003f0: cfc8 853c e390 95bb 6d3e d33c 93a3 70bb

network_body.linear_encoder.seq_layers.0.bias f4 [128]
0.0 0.0 0.0 0.0 0.0 0.0 0.0 0.0
0.0 0.0 0.0 0.0 0.0 0.0 0.0 0.0
0.0 0.0 0.0 0.0 0.0 0.0 0.0 0.0
0.0 0.0 0.0 0.0 0.0 0.0 0.0 0.0
0.0 0.0 0.0 0.0 0.0 0.0 0.0 0.0
0.0 0.0 0.0 0.0 0.0 0.0 0.0 0.0
0.0 0.0 0.0 0.0 0.0 0.0 0.0 0.0
0.0 0.0 0.0 0.0 0.0 0.0 0.0 0.0
0.0 0.0 0.0 0.0 0.0 0.0 0.0 0.0
0.0 0.0 0.0 0.0 0.0 0.0 0.0 0.0
0.0 0.0 0.0 0.0 0.0 0.0 0.0 0.0
0.0 0.0 0.0 0.0 0.0 0.0 0.0 0.0
0.0 0.0 0.0 0.0 0.0 0.0 0.0 0.0
0.0 0.0 0.0 0.0 0.0 0.0 0.0 0.0
0.0 0.0 0.0 0.0 0.0 0.0 0.0 0.0
0.0 0.0 0.0 0.0 0.0 0.0 0.0 0.0
00000000: 0000 0000 0000 0000 0000 0000 0000 0000
00000010: 0000 0000 0000 0000 0000 0000 0000 0000
00000020: 0000 0000 0000 0000 0000 0000 0000 0000
00000030: 0000 0000 0000 0000 0000 0000 0000 0000
00000040: 0000 0000 0000 0000 0000 0000 0000 0000
00000050: 0000 0000 0000 0000 0000 0000 0000 0000
00000060: 0000 0000 0000 0000 0000 0000 0000 0000
00000070: 0000 0000 0000 0000 0000 0000 0000 0000
00000080: 0000 0000 0000 0000 0000 0000 0000 0000
00000090: 0000 0000 0000 0000 0000 0000 0000 0000
000000a0: 0000 0000 0000 0000 0000 0000 0000 0000
000000b0: 0000 0000 0000 0000 0000 0000 0000 0000
000000c0: 0000 0000 0000 0000 0000 0000 0000 0000
000000d0: 0000 0000 0000 0000 0000 0000 0000 0000
000000e0: 0000 0000 0000 0000 0000 0000 0000 0000
000000f0: 0000 0000 0000 0000 0000 0000 0000 0000
00000100: 0000 0000 0000 0000 0000 0000 0000 0000
00000110: 0000 0000 0000 0000 0000 0000 0000 0000
00000120: 0000 0000 0000 0000 0000 0000 0000 0000
00000130: 0000 0000 0000 0000 0000 0000 0000 0000
00000140: 0000 0000 0000 0000 0000 0000 0000 0000
00000150: 0000 0000 0000 0000 0000 0000 0000 0000
00000160: 0000 0000 0000 0000 0000 0000 0000 0000
00000170: 0000 0000 0000 0000 0000 0000 0000 0000
00000180: 0000 0000 0000 0000 0000 0000 0000 0000
00000190: 0000 0000 0000 0000 0000 0000 0000 0000
000001a0: 0000 0000 0000 0000 0000 0000 0000 0000
000001b0: 0000 0000 0000 0000 0000 0000 0000 0000
000001c0: 0000 0000 0000 0000 0000 0000 0000 0000
000001d0: 0000 0000 0000 0000 0000 0000 0000 0000
000001e0: 0000 0000 0000 0000 0000 0000 0000 0000
000001f0: 0000 0000 0000 0000 0000 0000 0000 0000

network_body.linear_encoder.seq_layers.0.weight f4 [128, 9]
0.23420024 -0.083146624 -0.2752843 -0.24523968 -0.4563453 -0.11496413 0.2505548 -0.12532164
-0.07237687 0.13162832 -0.5387979 -0.1575599 -0.25886652 -0.49319154 -0.3736145 0.077442944
-0.40364385 0.10473445 0.38228917 0.44329184 0.49678808 0.07520243 -0.75847286 -0.1975551
-0.55617714 -0.24075007 -0.05659035 0.5656475 -0.26933682 0.20617002 -0.38324082 0.27354443
0.51527125 0.60020906 -0.32660657 -0.081567846 0.009578907 0.44392034 -0.37717554 0.22424668
0.29202062 0.28369188 -0.2445964 -0.47822887 -0.29372883 -0.027192604 0.5130948 -0.24695784
0.04385188 0.54091066 -0.31637996 0.094255224 -0.18553746 -0.17060643 -0.8414092 0.4407495
-0.407304 0.26707542 0.5306502 0.2869132 0.24698663 0.1344217 0.2541691 -0.23874912
-0.15797372 -0.10784984 0.18500964 -0.7479521 -0.5244347 -0.09652446 -0.26983583 -0.082973644
-0.036070228 0.30176035 0.07920486 0.27310342 -0.6029434 0.15184548 0.017391488 -0.06813164
-0.2507497 -0.00032400026 0.15368965 -0.029390574 -0.4344657 0.29353166 0.57163525 -0.062094755
-0.19624636 0.31147802 -0.12001991 0.22817045 0.20720236 -0.23250745 -0.21087025 0.35051033
0.10970758 0.022420352 -0.15825395 -0.08848133 -0.529441 -0.5765364 -0.36163545 0.69648874
-0.23342684 -0.32429743 0.389543 0.22663507 -0.008375864 -0.36718556 -0.19107628 0.001445326
-0.4734232 0.21992014 0.37220892 0.19948885 -0.32288003 0.027390968 -0.6518111 0.13109104
0.04587759 0.46021795 0.024398547 0.138213 0.1427613 0.16255218 -0.35012746 -0.0038358336
-0.08209207 0.010025967 -0.09521493 0.238199 -0.46161902 -0.13520299 -0.26032758 0.32222003
-0.039411247 -0.3479335 0.33994764 0.0567069 -0.25982112 0.2293916 -0.4439541 -0.23001894
0.033476777 0.8847209 0.14999245 -0.014050282 -0.24489698 -0.37396201 0.45876393 -0.12337275
0.34705794 0.33793783 0.283907 -0.25913388 0.4005605 -0.43568546 -0.40025124 0.68678737
0.11578285 -0.03808809 0.09105869 -0.13356751 0.26935244 0.45858628 0.28152412 0.16749623
0.3977505 -0.23190312 0.514768 0.08125481 -0.2611498 0.3660887 0.4135787 -0.11397432
0.11481878 -0.44465476 0.4553696 0.1836046 0.39402243 -0.20911211 0.40086114 0.05599911
-0.15505224 0.15746668 0.0020969005 0.37606025 0.26642466 0.21170762 -0.03467244 -0.27969754
0.03006838 0.1923391 -0.14342985 -0.23252612 0.16423507 0.14903454 0.091501266 0.4030256
-0.5427774 0.07127338 0.10772745 -0.19713974 -0.41667086 0.7423897 -0.398707 -0.29520094
0.15323833 0.21881449 0.024662461 0.11670923 0.12692258 -0.13371128 -0.3759708 -0.36572704
0.169968 -0.5958178 -0.39889953 0.16765887 0.11392217 -0.4787483 -0.5241269 0.27375072
0.24588278 0.34200618 0.10748338 0.2855018 0.09595807 0.14240322 0.3745328 0.71284544
-0.27742672 -0.2942246 0.38481805 -0.20743138 -0.5018233 0.9122015 0.26336038 -0.13668442
-0.39282963 -0.1342426 -0.084106565 0.23533988 -0.01728786 -0.17952088 -0.17124358 -0.071316436
-0.01051909 0.018371038 -0.21778566 0.26284605 0.16502783 -0.03227484 -0.6299881 -0.10289997
00000000: 30d2 6f3e c748 aabd 10f2 8cbe 1c20 7bbe
00000010: 17a6 e9be 5072 ebbd b848 803e 5154 00be
00000020: 533a 94bd 93c9 063e a9ee 09bf 6257 21be
00000030: 278a 84be 9a83 fcbe 664a bfbe 689a 9e3d
00000040: 68aa cebe 047f d63d 68bb c33e 26f7 e23e
00000050: 025b fe3e bb03 9a3d 472b 42bf e24b 4abe
00000060: a061 0ebf 3087 76be 48cb 67bd 46ce 103f
00000070: 84e6 89be 3c1e 533e 2438 c4be 040e 8c3e
00000080: d1e8 033f 4da7 193f fa38 a7be 0b0d a7bd
00000090: d9f0 1c3c 8749 e33e 271d c1be eca0 653e
000000a0: ba83 953e 1040 913e 7b77 7abe 6ada f4be
000000b0: a063 96be 06c3 debc 2e5a 033f 84e2 7cbe
000000c0: 079e 333d 1f79 0a3f 8efc a1be e208 c13d
000000d0: 88fd 3dbe 74b3 2ebe 9866 57bf eba9 e13e
000000e0: 268a d0be 1cbe 883e b1d8 073f 49e6 923e
000000f0: 10ea 7c3e d8a5 093e 7422 823e a67a 74be
00000100: ddc3 21be 60e0 dcbd 2b73 3d3e ca79 3fbf
00000110: 5a41 06bf 9eae c5bd ec27 8abe 16ee a9bd
00000120: 60be 13bd 5580 9a3e 2836 a23d 36d4 8b3e
00000130: 805a 1abf 627d 1b3e 9878 8e3c 9a88 8bbd
00000140: 4462 80be 94de a9b9 d260 1d3e 80c4 f0bc
00000150: 4a72 debe c849 963e b056 123f 1257 7ebd
00000160: cef4 48be 0c7a 9f3e 00cd f5bd 84a5 693e
00000170: db2c 543e 6f16 6ebe 5fee 57be 1776 b33e
00000180: 5eae e03d e3aa b73c 530d 22be b335 b5bd
00000190: 7289 07bf e497 13bf 4828 b9be 164d 323f
000001a0: 7207 6fbe 500a a6be 2e72 c73e 0613 683e
000001b0: eb3a 09bc bfff bbbe 80a9 43be 1871 bd3a
000001c0: 8764 f2be bf32 613e 2b92 be3e ce46 4c3e
000001d0: 8850 a5be 0663 e03c 18dd 26bf bb3c 063e
000001e0: 24ea 3b3d b0a1 eb3e 76df c73c b587 0d3e
000001f0: 0530 123e 1474 263e e843 b3be 9c62 7bbb
00000200: e31f a8bd f443 243c 0c00 c3bd 70ea 733e
00000210: 5459 ecbe a772 0abe a849 85be 06fa a43e
00000220: b06d 21bd 5724 b2be 9e0d ae3e 7f45 683d
00000230: 4607 85be a2e5 6a3e f44d e3be 168a 6bbe
00000240: f21e 093d 127d 623f 9f97 193e 2733 66bc
00000250: 46c6 7abe f377 bfbe 1be3 ea3e daaa fcbd
00000260: 94b1 b13e 3006 ad3e 425c 913e 32ad 84be
00000270: 4416 cd3e 2a12 dfbe bbed ccbe 4cd1 2f3f
00000280: 8f1f ed3d 4202 1cbd fa7c ba3d ecc5 08be
00000290: 90e8 893e d2cb ea3e ee23 903e 2284 2b3e
000002a0: f4a5 cb3e 0378 6dbe d6c7 033f ec68 a63d
000002b0: 6db5 85be fa6f bb3e 96c0 d33e 5e6b e9bd
000002c0: 1c26 eb3d caa9 e3be 3426 e93e d802 3c3e
000002d0: 4fbd c93e 7c21 56be ac3d cd3e 535f 653d
000002e0: 04c6 1ebe f23e 213e 276c 093b f88a c03e
000002f0: d068 883e e2c9 583e b004 0ebd 8434 8fbe
00000300: f751 f63c 8bf4 443e 46df 12be 541b 6ebe
00000310: 3d2d 283e 839c 183e 0465 bb3d 5f59 ce3e
00000320: 76f3 0abf c7f7 913d 36a0 dc3d 00df 49be
00000330: e255 d5be 400d 3e3f 5323 ccbe 9424 97be
00000340: 82ea 1c3e e810 603e ee08 ca3c 4005 ef3d
00000350: fef7 013e 9ceb 08be 3f7f c0be 9340 bbbe
00000360: 170c 2e3e 8487 18bf 8f3c ccbe c4ae 2b3e
00000370: 0750 e93d 7f1e f5be 2e2d 06bf 0e29 8c3e
00000380: b2c8 7b3e 6f1b af3e 3f20 dc3d 4b2d 923e
00000390: aa85 c43d 26d2 113e c3c2 bf3e 0a7d 363f
000003a0: e00a 8ebe 9ba4 96be df06 c53e e468 54be
000003b0: 7e77 00bf 0a86 693f 2cd7 863e 00f7 0bbe
000003c0: f720 c9be e476 09be 1040 acbd f0fc 703e
000003d0: 459f 8dbc 52d4 37be 7a5a 2fbe 5a0e 92bd
000003e0: 4358 2cbc dc7e 963c 3403 5fbe c293 863e
000003f0: 0efd 283e 9f32 04bd e646 21bf 38bd d2bd

network_body.linear_encoder.seq_layers.2.bias f4 [128]
0.0 0.0 0.0 0.0 0.0 0.0 0.0 0.0
0.0 0.0 0.0 0.0 0.0 0.0 0.0 0.0
0.0 0.0 0.0 0.0 0.0 0.0 0.0 0.0
0.0 0.0 0.0 0.0 0.0 0.0 0.0 0.0
0.0 0.0 0.0 0.0 0.0 0.0 0.0 0.0
0.0 0.0 0.0 0.0 0.0 0.0 0.0 0.0
0.0 0.0 0.0 0.0 0.0 0.0 0.0 0.0
0.0 0.0 0.0 0.0 0.0 0.0 0.0 0.0
0.0 0.0 0.0 0.0 0.0 0.0 0.0 0.0
0.0 0.0 0.0 0.0 0.0 0.0 0.0 0.0
0.0 0.0 0.0 0.0 0.0 0.0 0.0 0.0
0.0 0.0 0.0 0.0 0.0 0.0 0.0 0.0
0.0 0.0 0.0 0.0 0.0 0.0 0.0 0.0
0.0 0.0 0.0 0.0 0.0 0.0 0.0 0.0
0.0 0.0 0.0 0.0 0.0 0.0 0.0 0.0
0.0 0.0 0.0 0.0 0.0 0.0 0.0 0.0
00000000: 0000 0000 0000 0000 0000 0000 0000 0000
00000010: 0000 0000 0000 0000 0000 0000 0000 0000
00000020: 0000 0000 0000 0000 0000 0000 0000 0000
00000030: 0000 0000 0000 0000 0000 0000 0000 0000
00000040: 0000 0000 0000 0000 0000 0000 0000 0000
00000050: 0000 0000 0000 0000 0000 0000 0000 0000
00000060: 0000 0000 0000 0000 0000 0000 0000 0000
00000070: 0000 0000 0000 0000 0000 0000 0000 0000
00000080: 0000 0000 0000 0000 0000 0000 0000 0000
00000090: 0000 0000 0000 0000 0000 0000 0000 0000
000000a0: 0000 0000 0000 0000 0000 0000 0000 0000
000000b0: 0000 0000 0000 0000 0000 0000 0000 0000
000000c0: 0000 0000 0000 0000 0000 0000 0000 0000
000000d0: 0000 0000 0000 0000 0000 0000 0000 0000
000000e0: 0000 0000 0000 0000 0000 0000 0000 0000
000000f0: 0000 0000 0000 0000 0000 0000 0000 0000
00000100: 0000 0000 0000 0000 0000 0000 0000 0000
00000110: 0000 0000 0000 0000 0000 0000 0000 0000
00000120: 0000 0000 0000 0000 0000 0000 0000 0000
00000130: 0000 0000 0000 0000 0000 0000 0000 0000
00000140: 0000 0000 0000 0000 0000 0000 0000 0000
00000150: 0000 0000 0000 0000 0000 0000 0000 0000
00000160: 0000 0000 0000 0000 0000 0000 0000 0000
00000170: 0000 0000 0000 0000 0000 0000 0000 0000
00000180: 0000 0000 0000 0000 0000 0000 0000 0000
00000190: 0000 0000 0000 0000 0000 0000 0000 0000
000001a0: 0000 0000 0000 0000 0000 0000 0000 0000
000001b0: 0000 0000 0000 0000 0000 0000 0000 0000
000001c0: 0000 0000 0000 0000 0000 0000 0000 0000
000001d0: 0000 0000 0000 0000 0000 0000 0000 0000
000001e0: 0000 0000 0000 0000 0000 0000 0000 0000
000001f0: 0000 0000 0000 0000 0000 0000 0000 0000

network_body.linear_encoder.seq_layers.2.weight f4 [128, 128]
-0.12418281 -0.07228176 -0.09185327 0.076591365 -0.16330782 -0.06807926 -0.13435937 -0.10212927
0.106561214 -0.10754059 0.08848329 0.15344411 -0.06845975 -0.0156823 -0.019770738 0.016658263
-0.088943265 0.17734873 0.055336155 0.027186072 0.1644916 -0.071322426 -0.031160956 0.0829014
-0.025080662 -0.113757186 0.06938849 0.038945593 -0.028677452 0.12974586 -0.03287784 -0.095329545
0.2298586 0.15955691 -0.18220116 -0.108180545 -0.11277279 0.17111559 -0.035311684 0.071894035
0.028076919 -0.015866056 0.16753171 -0.04801021 -0.074977264 -0.023056004 0.017872827 -0.017476121
0.1116236 0.037322216 -0.08558793 0.032238666 0.016432332 0.16438937 0.088651426 -0.02017154
-0.07050737 0.09478979 0.080824174 0.14528838 -0.086029686 -0.052305408 -0.011376959 -0.03722966
0.044130873 0.08481167 -0.067629196 -0.16280836 0.066042006 -0.0892295 -0.08418041 -0.12913574
-0.07863378 0.014447507 0.06898209 0.07914125 -0.022870895 -0.057507597 -0.097704 0.11857176
0.02234033 0.11823881 0.0042487835 0.049411707 0.010684629 0.035301134 0.07744084 -0.058249887
-0.0055132224 0.005236689 0.05803019 0.23388669 0.16175717 -0.04231241 -0.010657078 0.024981959
0.0051611047 0.04852486 0.11022302 -0.04922539 -0.0066234707 -0.018523471 0.07919911 -0.031163344
0.07021153 -0.08342858 0.11323679 0.12683327 0.048679557 -0.034297362 0.012623552 -0.055363126
-0.05815014 0.014795803 0.12524126 0.06266809 -0.1342007 -0.096945494 -0.025296936 -0.095860645
0.008468614 -0.099584065 0.13896789 -0.08099917 0.02086826 0.022229714 0.004124297 0.056347817
-0.08276072 0.092237435 -0.007036614 0.09123169 -0.03576367 -0.120959714 0.018894901 -0.11067522
0.0071226796 0.08977393 0.06431861 0.054951955 -0.0048754527 -0.05291102 0.00067204435 -0.15430719
-0.17301251 0.05035614 -0.0001387502 -0.079433985 0.17909916 0.20556591 0.089509115 0.1080253
-0.005644974 0.0044641853 0.0453648 0.09762118 0.017565655 -0.13527736 0.023988515 -0.17442195
0.12066382 -0.033878207 -0.023435755 -0.11358823 -0.051727347 -0.01518913 -0.13516079 -0.21348059
0.003556036 -0.07528355 -0.07614982 -0.007895131 0.07482124 0.018675098 0.10459312 -0.018371508
0.046896975 0.0037292012 0.048147906 0.09354793 0.02127297 0.11973691 -0.09578295 0.045403887
-0.037772916 0.020405749 0.13802496 -0.111961804 0.16048285 -0.02869945 0.14527567 -0.12285349
0.009084633 0.09034383 -0.089627475 0.05162067 -0.2002095 -0.027098661 -0.04339634 0.035454128
0.04664791 -0.0744316 -0.06602859 -0.020921329 -0.04925364 0.14792764 0.04051454 -0.11457384
0.05973412 0.08574829 0.07527307 -0.1760228 0.06675479 -0.021959716 0.024572821 -0.06829635
0.106233455 0.12189751 0.040680118 0.0290033 -0.012174076 -0.06901088 0.15113346 -0.13984649
-0.071915634 0.061581224 0.065073974 0.15147007 -0.12918805 -0.119730376 0.08286018 0.04548989
-0.1312145 0.059629764 0.10204541 0.13884094 -0.017478075 0.05772151 -0.030080007 0.015233076
-0.06189376 0.0058444133 -0.018899499 0.042615652 -0.14014682 0.08681944 0.054369282 0.03759483
-0.071145326 -0.040617473 -0.028054915 0.057460345 0.030271202 0.035932947 -0.18763036 -0.027834117
00000000: 8f53 febd 7608 94bd 911d bcbd efdb 9c3d
00000010: 2a3a 27be 246d 8bbd 8195 09be 2729 d1bd
00000020: c43c da3d 3e3e dcbd ba36 b53d 7420 1d3e
00000030: a034 8cbd 2b78 80bc 3ef6 a1bc e976 883c
00000040: e327 b6bd e89a 353e 2aa8 623d 53b5 de3c
00000050: 7c70 283e 7e11 92bd 4345 ffbc 36c8 a93d
00000060: f675 cdbc 87f9 e8bd 8d1b 8e3d 6a85 1f3d
00000070: faec eabc 19dc 043e eaaa 06bd 233c c3bd
00000080: 0e60 6b3e e362 233e f192 3abe c38d ddbd
00000090: 6cf5 e6bd ed38 2f3e fca2 10bd 2e3d 933d
000000a0: 9101 e63c 88f9 81bc 6f8d 2b3e 5ba6 44bd
000000b0: ae8d 99bd f2df bcbc 096a 923c 152a 8fbc
000000c0: ea9a e43d 2edf 183d ba48 afbd b10c 043d
000000d0: 199d 863c b055 283e e18e b53d c93e a5bc
000000e0: 2b66 90bd 2621 c23d 2587 a53d 7ac6 143e
000000f0: 5530 b0bd 323e 56bd 6d66 3abc 217e 18bd
00000100: 93c2 343d beb1 ad3d 2d81 8abd 3cb7 26be
00000110: 0841 873d f5bd b6bd c766 acbd 293c 04be
00000120: bf0a a1bd 3db5 6c3c 7b46 8d3d cf14 a23d
00000130: be5b bbbc 168d 6bbd 0919 c8bd c0d5 f23d
00000140: 1103 b73c 3027 f23d 6139 8b3b ee63 4a3d
00000150: 950e 2f3c ec97 103d 4e99 9e3d 6f97 6ebd
00000160: 43a8 b4bb 8898 ab3b 11b1 6d3d fe7f 6f3e
00000170: aca3 253e c74f 2dbd 069b 2ebc f7a6 cc3c
00000180: 7c1e a93b 01c2 463d 9bbc e13d 90a0 49bd
00000190: b309 d9bb 89be 97bc 2533 a23d 454a ffbc
000001a0: 10cb 8f3d 9adc aabd b1e8 e73d 95e0 013e
000001b0: 3764 473d 647b 0cbd 04d3 4e3c 72c4 62bd
000001c0: d72e 6ebd 196a 723c 3f3f 003e 2158 803d
000001d0: e96b 09be 5c8b c6bd 853b cfbc 9652 c4bd
000001e0: f1bf 0a3c bbf2 cbbd 994d 0e3e e5e2 a5bd
000001f0: eaf3 aa3c 171b b63c 1c25 873b f8cc 663d
00000200: 747e a9bd fbe6 bc3d 6693 e6bb aed7 ba3d
00000210: ed7c 12bd bab9 f7bd 7bc9 9a3c b1a9 e2bd
00000220: 5e65 e93b 65db b73d 7ab9 833d 4d15 613d
00000230: 43c2 9fbb 3ab9 58bd 222c 303a b402 1ebe
00000240: 312a 31be 3d42 4e3d 797d 11b9 49ae a2bd
00000250: c565 373e df7f 523e 8e50 b73d 5e3c dd3d
00000260: 79f9 b8bb 4d48 923b 71d0 393d 9ded c73d
00000270: d9e5 8f3c 2686 0abe 9083 c43c ab9b 32be
00000280: 981e f73d e0c3 0abd 57fc bfbc f2a0 e8bd
00000290: 0ee0 53bd d4db 78bc 9767 0abe a89a 5abe
000002a0: 620c 693b 432e 9abd 70f4 9bbd 945a 01bc
000002b0: e13b 993d 85fc 983c eb34 d63d d87f 96bc
000002c0: 0b17 403d 9d65 743b bd36 453d 0f96 bf3d
000002d0: a744 ae3c a038 f53d da29 c4bd 6df9 393d
000002e0: c6b7 1abd f529 a73c 6a56 0d3e 3b4c e5bd
000002f0: 9e55 243e 1c1b ebbc 25c3 143e 9c9a fbbd
00000300: b6d7 143c 3006 b93d 9c8e b7bd 3270 533d
00000310: b803 4dbe 03fe ddbc 5cc0 31bd 5938 113d
00000320: e111 3f3d 986f 98bd ff39 87bd 3563 abbc
00000330: 2fbe 49bd 587a 173e 93f2 253d b0a5 eabd
00000340: c4ab 743d cd9c af3d c428 9a3d 523f 34be
00000350: bcb6 883d dde4 b3bc f14c c93c f5de 8bbd
00000360: ed90 d93d 67a5 f93d 32a0 263d 5498 ed3c
00000370: c775 47bc 9455 8dbd bbc2 1a3e eb33 0fbe
00000380: 8148 93bd 983c 7c3d 8145 853d f81a 1b3e
00000390: df49 04be 3335 f5bd 99b2 a93d 9b53 3a3d
000003a0: 185d 06be 573e 743d 2ffd d03d 522c 0e3e
000003b0: 2e2e 8fbc 646d 6c3d 596a f6bc 2794 793c
000003c0: 5084 7dbd 7e82 bf3b 1fd3 9abc c08d 2e3d
000003d0: a682 0fbe 64ce b13d 53b2 5e3d 09fd 193d
000003e0: a4b4 91bd 825e 26bd 6cd3 e5bc 8a5b 6b3d
000003f0: 50fb f73c 6d2e 133d 2c22 40be 6004 e4bc
