results/ppo/My Behavior/My Behavior-399.pt (torch, 152655 bytes, 12 tensors)

network_body.linear_encoder.seq_layers.0.weight f4 [128, 9]
0	0xbdd44110	-0.10363972
1	0xbe2ddd13	-0.16978864
2	0x3e39201c	0.18078655
3	0xbd73d142	-0.059525736
4	0x3e92ff54	0.28710425
5	0xbca17310	-0.019708186
6	0xbed615ca	-0.418135
7	0xbf8a7522	-1.0816996
8	0x3e8aaa3f	0.27083012
9	0x3e99fe73	0.30076942
10	0x3e0d3976	0.13791451
11	0x3d908ca2	0.070580736
12	0x3ea2d894	0.3180586
13	0xbe47681c	-0.19473308
14	0x3e9806da	0.29692727
15	0x3ecaaacf	0.39583442
16	0xbe8acb16	-0.27108067
17	0x3d373606	0.044729255
18	0x3cd78d5e	0.026312526
19	0x3dd57394	0.104224354
20	0xbedde384	-0.43337643
21	0xbf1e0978	-0.617332
22	0xbf08a7a8	-0.53380823
23	0x3eba6b08	0.36409783
24	0xbc486834	-0.012231875
25	0x3d787b12	0.060664244
26	0xbde99c50	-0.11406767
27	0x3e8854a7	0.26627085
28	0xbaf07650	-0.0018345807
29	0xbea91a74	-0.33027995
30	0xbf268f42	-0.65062344
31	0xbe0f3056	-0.13983282
32	0xbe0a13eb	-0.1348416
33	0x3d9b73be	0.075904354
34	0xbe9489d6	-0.2901141
35	0xbf70a8aa	-0.9400736
36	0xbebc1dcb	-0.3674148
37	0x3ea280c9	0.3173888
38	0xbe3922a4	-0.1807962
39	0xbf36e3cb	-0.71441334
40	0x3d190f43	0.03736807
41	0xbe2af170	-0.16693664
42	0x3cedbcca	0.029020686
43	0x3e3e9d74	0.18614751
44	0xbed5d6e4	-0.4176551
45	0x3ceae0f7	0.028671725
46	0xbbd9d7f6	-0.006648059
47	0x3d2f9baa	0.042873062
48	0xbe86df53	-0.26342258
49	0xbe98fb7f	-0.29879376
50	0xbec192ce	-0.37807316
51	0xbf08774c	-0.5330703
52	0xbe7b1e9e	-0.24523398
53	0xbe1c680e	-0.15274069
54	0xb9de39df	-0.00042386257
55	0xbc8a4042	-0.016876344
56	0xbd49930e	-0.049212508
57	0x3e952d7f	0.29136273
58	0xbf13f572	-0.57796395
59	0x3caff800	0.02148056
60	0xbf087a4e	-0.5331162
61	0xbc043f2a	-0.0080717
62	0x3b8668ba	0.00410184
63	0x3e31723e	0.17328736
64	0xbed0ac9f	-0.407567
65	0xbe6a60f2	-0.22888544
66	0xbe78af22	-0.24285558
67	0x3ed903d4	0.42385733
68	0xbf24415e	-0.6416224
69	0x3ed18ec8	0.40929246
70	0x3db335e2	0.08750512
71	0x3dba6a0c	0.09102258
72	0xbe09b2d9	-0.13447131
73	0xbda926aa	-0.08259328
74	0x3f01a7e7	0.50646824
75	0x3ee9464e	0.4556145
76	0xbdbc8aff	-0.09206199
77	0xbe434977	-0.19070993
78	0xbe9ec2e6	-0.3100807
79	0xbd8f8bee	-0.07009111
80	0xbed61e22	-0.41819865
81	0xbeec44ab	-0.4614614
82	0x3dfa4e20	0.122219324
83	0x3dceeb64	0.10103491
84	0xbdbdd1ff	-0.09268569
85	0x3df4d70f	0.11955082
86	0xbf05cc54	-0.52264905
87	0xbec40bfc	-0.38290393
88	0x3ec0673a	0.37578756
89	0xbe049cd0	-0.12950444
90	0xbf002704	-0.50059533
91	0x3efc9d08	0.49338555
92	0x3e93745f	0.28799722
93	0x3f085532	0.53255
94	0xbda53592	-0.08066858
95	0xbf2982eb	-0.6621539
96	0x3f55be12	0.8349315
97	0x3e1726c9	0.14760889
98	0x3dbe6b82	0.09297849
99	0x3c8533bc	0.01626002
100	0xbe3c0262	-0.18360284
101	0x3eb05386	0.34438723
102	0x3e50564a	0.20345417
103	0x3e6c18ac	0.23056287
104	0x3cf15bf0	0.029462785
105	0xbeb8e1fe	-0.36109918
106	0x3eab402a	0.3344739
107	0xbe386a90	-0.180094
108	0x3d962f40	0.07333231
109	0xbb946c86	-0.0045295386
110	0x3dd457ce	0.1036831
111	0x3d96cc38	0.073631704
112	0x3f0ff547	0.5623364
113	0xbf6837a4	-0.907099
114	0xba121fa0	-0.00055741705
115	0x3d1d001d	0.038330186
116	0xbd8a6db7	-0.06759208
117	0xbe05ea92	-0.13077763
118	0x3e8b0392	0.2715116
119	0x3ec7f3a6	0.39053077
120	0xbe0ca031	-0.13732983
121	0xbdc0e7f8	-0.094192445
122	0xbe56ff20	-0.2099576
123	0xbe01fac4	-0.12693316
124	0xbf10c67a	-0.5655285
125	0xbe957be7	-0.29196092
126	0xbd6c9cb8	-0.057766646
127	0xbf241300	-0.6409149
128	0xbe048062	-0.12939599
129	0x3ee8917c	0.45423496
130	0x3e8519e3	0.25996312
131	0x3cb9c467	0.02267666
132	0x3e80019f	0.25001237
133	0x3d97f86c	0.074204296
134	0xbe34ecfa	-0.17668524
135	0xbcc13b66	-0.023587894
136	0xbd819581	-0.06327344
137	0xbe41e6f8	-0.18935764
138	0x3e3a89b0	0.18216586
139	0x3ee0cc3b	0.43905815
140	0xbe81c30d	-0.25344124
141	0xbe553523	-0.20821051
142	0xbe8006cc	-0.25005186
143	0x3f16733e	0.58769596
144	0x3af32127	0.0018549309
145	0xbe8cb220	-0.2747965
146	0xbe8caccd	-0.27475587
147	0xbd6aac62	-0.057293303
148	0xbe94094c	-0.28913343
149	0x3cc7770c	0.024348758
150	0xbef8f783	-0.48626336
151	0xbebb6216	-0.3659827
152	0x3f0c813a	0.54884684
153	0x3d96395e	0.07335161
154	0xbdf99b52	-0.12187828
155	0x3d390de3	0.04517926
156	0xbd160f17	-0.036635485
157	0xbd1ff932	-0.03905601
158	0xbe1268bd	-0.14297767
159	0x3f16d051	0.58911616
160	0x3e8994e4	0.26871407
161	0x3e127ca9	0.14305367
162	0x3e8dede2	0.27720553
163	0xbecf8f6a	-0.40539104
164	0x3e001e72	0.12511614
165	0xbef0d614	-0.4703833
166	0x3ea13fc4	0.31493962
167	0xbeac7ab0	-0.33687353
168	0xbeb60b72	-0.35555607
169	0x3f0ad2a7	0.5422768
170	0x3ebc30c7	0.36755964
171	0xbf0274fa	-0.5095974
172	0x3cb955bc	0.02262389
173	0x3e87778e	0.264584
174	0xbe73b6b6	-0.23800167
175	0x3e214dce	0.15752336
176	0xbeb59224	-0.3546306
177	0x3e5550fc	0.20831674
178	0x3e8bdd90	0.27317476
179	0x3e291a9c	0.16514057
180	0x3d7fdc63	0.062466037
181	0xbe03aaa8	-0.12858069
182	0x3e258cc5	0.1616698
183	0xbe3c3dfb	-0.18383019
184	0xbe7f42f2	-0.24927881
185	0xbe505d26	-0.20348033
186	0x3e0e1a92	0.13877323
187	0xbec0264b	-0.37529215
188	0xbe0192e9	-0.12653698
189	0x3d746e62	0.05967558
190	0x3e3efa83	0.1865025
191	0xbe4a5d9f	-0.19762276
192	0x3ee36ef0	0.44420576
193	0xbed95824	-0.42450058
194	0x3e490af7	0.19633089
195	0xbe1b9fd8	-0.15197694
196	0x3f998454	1.1993508
197	0xbdce33dc	-0.10068485
198	0xbea14571	-0.31498292
199	0xbd64f306	-0.055895828
200	0xbed229b2	-0.41047436
201	0xbe1f61ac	-0.15564603
202	0x3e5e7694	0.21724921
203	0x3f111ada	0.566816
204	0xbdf4aaa7	-0.11946612
205	0x3e258ef2	0.1616781
206	0x3e8c7958	0.27436328
207	0xbe97cec3	-0.29649934
208	0xbe9e153a	-0.3087557
209	0x3d3ab390	0.0455814
210	0x3c3edc06	0.011649137
211	0xbea23cd5	-0.31687036
212	0x3e668d7a	0.22514907
213	0x3e28a53e	0.16469285
214	0xbf5ae5c2	-0.8550683
215	0x3f7dd9ef	0.99160665
216	0xbe0e7a58	-0.13913858
217	0x3ef2ab3c	0.47396266
218	0xbf207eb9	-0.62693363
219	0x3ede578f	0.43426177
220	0x3e4eaae8	0.20182383
221	0xbebdab4a	-0.37044746
222	0x3e0aeccf	0.13566898
223	0xbe4b0dae	-0.19829437
224	0x3ec2112b	0.37903723
225	0x3e8566ad	0.26054898
226	0xbda3167e	-0.079632744
227	0x3d8d1223	0.06888225
228	0xbe55650b	-0.20839326
229	0xbd333acc	-0.043757245
230	0xbeb17e0e	-0.34666485
231	0xbb5b364c	-0.0033449112
232	0x3db5b37a	0.08872123
233	0x3ece9fea	0.4035638
234	0xbd26569a	-0.040609933
235	0x3d0e6feb	0.034774702
236	0xbf2c5a54	-0.6732533
237	0xbe67dfac	-0.22643918
238	0xbf055204	-0.5207827
239	0xbde95cdf	-0.11394667
240	0x3dcb329c	0.09921762
241	0xbe8e0748	-0.2773993
242	0xbc17f5f2	-0.0092749465
243	0xbee33230	-0.44374228
244	0xbea5224a	-0.32252723
245	0xbd2bc7f7	-0.04193875
246	0xbf233363	-0.63750285
247	0x3e841d23	0.2580348
248	0xbeb03efc	-0.34423053
249	0xbe455783	-0.19271664
250	0xbee8dc1b	-0.45480427
251	0x3e3a5eeb	0.18200271
252	0xbf005ba0	-0.5013981
253	0xbd510e8b	-0.05103926
254	0x3ea00578	0.31254172
255	0x3c997982	0.018734697

network_body.linear_encoder.seq_layers.0.bias f4 [128]
0	0x00000000	0.0
1	0x00000000	0.0
2	0x00000000	0.0
3	0x00000000	0.0
4	0x00000000	0.0
5	0x00000000	0.0
6	0x00000000	0.0
7	0x00000000	0.0
8	0x00000000	0.0
9	0x00000000	0.0
10	0x00000000	0.0
11	0x00000000	0.0
12	0x00000000	0.0
13	0x00000000	0.0
14	0x00000000	0.0
15	0x00000000	0.0
16	0x00000000	0.0
17	0x00000000	0.0
18	0x00000000	0.0
19	0x00000000	0.0
20	0x00000000	0.0
21	0x00000000	0.0
22	0x00000000	0.0
23	0x00000000	0.0
24	0x00000000	0.0
25	0x00000000	0.0
26	0x00000000	0.0
27	0x00000000	0.0
28	0x00000000	0.0
29	0x00000000	0.0
30	0x00000000	0.0
31	0x00000000	0.0
32	0x00000000	0.0
33	0x00000000	0.0
34	0x00000000	0.0
35	0x00000000	0.0
36	0x00000000	0.0
37	0x00000000	0.0
38	0x00000000	0.0
39	0x00000000	0.0
40	0x00000000	0.0
41	0x00000000	0.0
42	0x00000000	0.0
43	0x00000000	0.0
44	0x00000000	0.0
45	0x00000000	0.0
46	0x00000000	0.0
47	0x00000000	0.0
48	0x00000000	0.0
49	0x00000000	0.0
50	0x00000000	0.0
51	0x00000000	0.0
52	0x00000000	0.0
53	0x00000000	0.0
54	0x00000000	0.0
55	0x00000000	0.0
56	0x00000000	0.0
57	0x00000000	0.0
58	0x00000000	0.0
59	0x00000000	0.0
60	0x00000000	0.0
61	0x00000000	0.0
62	0x00000000	0.0
63	0x00000000	0.0
64	0x00000000	0.0
65	0x00000000	0.0
66	0x00000000	0.0
67	0x00000000	0.0
68	0x00000000	0.0
69	0x00000000	0.0
70	0x00000000	0.0
71	0x00000000	0.0
72	0x00000000	0.0
73	0x00000000	0.0
74	0x00000000	0.0
75	0x00000000	0.0
76	0x00000000	0.0
77	0x00000000	0.0
78	0x00000000	0.0
79	0x00000000	0.0
80	0x00000000	0.0
81	0x00000000	0.0
82	0x00000000	0.0
83	0x00000000	0.0
84	0x00000000	0.0
85	0x00000000	0.0
86	0x00000000	0.0
87	0x00000000	0.0
88	0x00000000	0.0
89	0x00000000	0.0
90	0x00000000	0.0
91	0x00000000	0.0
92	0x00000000	0.0
93	0x00000000	0.0
94	0x00000000	0.0
95	0x00000000	0.0
96	0x00000000	0.0
97	0x00000000	0.0
98	0x00000000	0.0
99	0x00000000	0.0
100	0x00000000	0.0
101	0x00000000	0.0
102	0x00000000	0.0
103	0x00000000	0.0
104	0x00000000	0.0
105	0x00000000	0.0
106	0x00000000	0.0
107	0x00000000	0.0
108	0x00000000	0.0
109	0x00000000	0.0
110	0x00000000	0.0
111	0x00000000	0.0
112	0x00000000	0.0
113	0x00000000	0.0
114	0x00000000	0.0
115	0x00000000	0.0
116	0x00000000	0.0
117	0x00000000	0.0
118	0x00000000	0.0
119	0x00000000	0.0
120	0x00000000	0.0
121	0x00000000	0.0
122	0x00000000	0.0
123	0x00000000	0.0
124	0x00000000	0.0
125	0x00000000	0.0
126	0x00000000	0.0
127	0x00000000	0.0

network_body.linear_encoder.seq_layers.2.weight f4 [128, 128]
0	0xbd0bff20	-0.034178853
1	0xbdb9ec43	-0.090782665
2	0x3d6af0d5	0.05735858
3	0x3e0b274a	0.13589206
4	0xbdb2dc4e	-0.08733426
5	0xbd3eded3	-0.04659922
6	0xbc9e6319	-0.019334363
7	0x3e22a33e	0.15882584
8	0xbde6292d	-0.112383224
9	0xbd345b79	-0.044032548
10	0x3e117d3c	0.1420793
11	0x3e5190af	0.20465349
12	0x3e0c483e	0.13699433
13	0x3da20583	0.079112075
14	0x3d492b11	0.049113337
15	0xbc3c4683	-0.011491421
16	0xbd5f04b6	-0.054447852
17	0xbb402f98	-0.0029325243
18	0x3bea8139	0.007156518
19	0x3c91d6ca	0.017802615
20	0xbdc3c126	-0.095583245
21	0xbcdc68e5	-0.026905486
22	0x3e0364b5	0.12831385
23	0x3dd3e04b	0.10345515
24	0xbcc686db	-0.024234226
25	0x3c19750a	0.009366283
26	0xbdb804df	-0.08985304
27	0x3d625655	0.055258114
28	0xbe021da5	-0.12706621
29	0xbd056d4e	-0.032574944
30	0x3e5a95e9	0.21346249
31	0xbcd06755	-0.025439898
32	0x3d92540e	0.071449384
33	0x3e2352dd	0.15949579
34	0x3daca4f9	0.084299035
35	0xbe4dca95	-0.2009681
36	0xbc84f5b5	-0.016230443
37	0xbb239964	-0.0024963254
38	0xbd84063a	-0.064465
39	0x3dd999c7	0.10625034
40	0xbda4df60	-0.08050418
41	0x3e7c9275	0.24665244
42	0xbd56d29f	-0.052446958
43	0x3c5042e9	0.012711265
44	0xbd926ce4	-0.071496755
45	0x3dce20ce	0.10064851
46	0xbcfc651b	-0.03080993
47	0xbdc62047	-0.09674125
48	0xbb6991b9	-0.0035639836
49	0x3cb58728	0.022159174
50	0x3d1bab3b	0.038005095
51	0x3ce7f291	0.028313907
52	0xbc98b269	-0.01863976
53	0xbca7818e	-0.020447519
54	0xbd83fc4a	-0.06444605
55	0xbd0857ad	-0.03328674
56	0x3c8729a4	0.016499348
57	0xbcde7268	-0.027154163
58	0x3d197b87	0.03747132
59	0xbd531872	-0.051536985
60	0xbd8a9367	-0.06766396
61	0xbd00e3e6	-0.03146734
62	0x3c2219f3	0.009893882
63	0x3ddf4145	0.10901121
64	0x3de09c6b	0.10967334
65	0xbe6469f5	-0.22306044
66	0x3d8c51f1	0.068515666
67	0xbcaef92e	-0.021359053
68	0x3d4014b2	0.046894737
69	0xbc52d699	-0.012868547
70	0x3db9cc77	0.09072202
71	0x3c84f935	0.016232112
72	0xbd4a0e54	-0.04933007
73	0x3da23e21	0.079220064
74	0x3cc1442f	0.023592083
75	0x3d2e76e3	0.042593848
76	0x3e2bc331	0.16773678
77	0xbd0f376e	-0.03496497
78	0x3dc30bc5	0.09523729
79	0xbe13bf1d	-0.14428373
80	0xbdc6090c	-0.09669694
81	0xbdee2b19	-0.11629314
82	0xbd356d12	-0.04429347
83	0x3d4468ab	0.04795138
84	0x3dd8ef34	0.105924994
85	0xbd0110f3	-0.031510305
86	0xbdc6a72a	-0.09699853
87	0x3dedfd1f	0.11620545
88	0x3c611940	0.01373893
89	0x3dfe0095	0.12402455
90	0x3d80cdb6	0.06289236
91	0xbc4687c1	-0.012117327
92	0x3da0c774	0.07850543
93	0xbe25c638	-0.16188896
94	0xbc1c8c0c	-0.009554874
95	0x3d6c7d8c	0.05773692
96	0xbc488ae0	-0.012240142
97	0xbd40d60c	-0.04707913
98	0x3d89b280	0.06723499
99	0x3d7c4863	0.06159247
100	0xbca451be	-0.020058509
101	0x3d425fcd	0.047454644
102	0x3e00b19f	0.12567757
103	0xbdb8a930	-0.09016645
104	0xb9504674	-0.00019862672
105	0x3d6efa42	0.058344133
106	0xbe005ca5	-0.12535341
107	0xbdb02d13	-0.08602347
108	0x3d06129a	0.032732584
109	0xbdd3b234	-0.10336724
110	0x3d16a683	0.03677989
111	0x3c652c5b	0.013987626
112	0x3e1d4f71	0.15362336
113	0xbe10fa52	-0.1415799
114	0xbd6407d3	-0.055671524
115	0xbdc100fe	-0.09424017
116	0xbdadc411	-0.08484662
117	0xbdf1c61e	-0.11805366
118	0x3d3a2a66	0.04545059
119	0xbd680ead	-0.05665462
120	0x3bf99316	0.007616411
121	0xbb0c77c3	-0.0021433688
122	0xbe18b1b8	-0.14911544
123	0x3cb07ca7	0.021543814
124	0xbb981451	-0.004641094
125	0x3d49b758	0.049247116
126	0x3d996d0e	0.07491504
127	0x3c8e70bb	0.017387738
128	0xbdc01cf2	-0.09380521
129	0xbd3ffbb0	-0.046870887
130	0xbc0eb32e	-0.008709712
131	0xbd861e84	-0.06548789
132	0x3d2d7bc9	0.04235438
133	0x3dab7e44	0.08373693
134	0x3b4204e4	0.0029604966
135	0xbdea8a57	-0.114521675
136	0xbe053837	-0.13009726
137	0x3d592e9d	0.05302297
138	0xbc48ea5a	-0.012262905
139	0x3c33bdbc	0.010970529
140	0xbce31668	-0.027720645
141	0xbcead732	-0.028667066
142	0xbdb5c3fd	-0.088752724
143	0xbdf63e34	-0.12023583
144	0x3dab8306	0.083746
145	0x3be68f72	0.007036143
146	0x3e77c7b8	0.2419728
147	0x3d889cf4	0.066705614
148	0x3dbc9bbf	0.09209394
149	0x3d92cd2b	0.07168039
150	0xbd058d46	-0.032605432
151	0x3e11fa3d	0.14255615
152	0xbd0298b7	-0.03188392
153	0x3e092258	0.13392007
154	0x3d2389db	0.03992639
155	0x3dbc9364	0.092078
156	0x3d75301f	0.059860345
157	0x3dd2efcb	0.10299643
158	0x3e1711bc	0.14752859
159	0x3d869de1	0.06573082
160	0xbe75adc4	-0.23992068
161	0xbcd3dd7e	-0.025862452
162	0xbd8236f4	-0.06358138
163	0x3c243f4f	0.01002486
164	0xbd338d12	-0.043835707
165	0x3e046a1a	0.129311
166	0xbcfc83a0	-0.030824482
167	0xbd53dada	-0.051722385
168	0x3de14f86	0.11001496
169	0xba64d94a	-0.00087298884
170	0x3e645649	0.2229854
171	0x3ddd9190	0.108187795
172	0xbc848bb3	-0.016179895
173	0xbced9846	-0.029003274
174	0x3dc52726	0.096266076
175	0x3d1b8958	0.037972778
176	0x3d9f3320	0.07773423
177	0xbda48589	-0.08033282
178	0x3d6ce3e4	0.05783452
179	0xbd1ce698	-0.03830585
180	0x3d16207c	0.036652073
181	0x3c775cd2	0.015097814
182	0xbd1c0e3d	-0.038099516
183	0x3d8c568d	0.06852446
184	0xbddd93b4	-0.10819188
185	0xbe238749	-0.15969576
186	0x3e11d6e4	0.1424213
187	0x3c7b11df	0.015324085
188	0xbdce3e93	-0.10070529
189	0xbdf99bf6	-0.1218795
190	0x3e05e12a	0.13074175
191	0x3df13686	0.11777978
192	0x3d30f2f3	0.043200444
193	0xbe81417a	-0.25245267
194	0x3dc6dd79	0.09710211
195	0x3cf7ce0a	0.030249614
196	0xbdd5d588	-0.104411185
197	0xbc80e119	-0.015732335
198	0x3e16cb1b	0.14725916
199	0x3df3decd	0.1190773
200	0x3d71a8df	0.05899894
201	0x3c5887a7	0.013215936
202	0x3d5b2678	0.053503484
203	0xbd3167ae	-0.043311767
204	0xbe20bb0d	-0.15696354
205	0xbd6b5506	-0.05745413
206	0xbd84dbcd	-0.06487236
207	0xbd9f39bb	-0.07774683
208	0xba66f100	-0.00088097155
209	0xbb9825ae	-0.0046431636
210	0xbc03efc6	-0.008052772
211	0x3d998301	0.0749569
212	0x3cd02e95	0.025412837
213	0xbd6623c1	-0.05618644
214	0x3df107fa	0.117690995
215	0x3cfa45af	0.030550806
216	0x3de7bdc1	0.113154896
217	0xbd813e5b	-0.063107215
218	0x3cbeb697	0.023280425
219	0x39d2267a	0.0004008299
220	0xbcd1be13	-0.02560333
221	0x3db58510	0.0886327
222	0xbd678ca6	-0.056530617
223	0xbb5eeb1b	-0.0034014645
224	0xbdd91ae7	-0.10600834
225	0x3c54c7e2	0.012987109
226	0xbdf8609d	-0.121278025
227	0x3cd932ab	0.026513418
228	0x3bfc14ab	0.0076928935
229	0xbd51ecb5	-0.051251132
230	0xbe08c2ab	-0.1335551
231	0xbc23a2be	-0.009987531
232	0xbcb78749	-0.022403376
233	0xbe4fb312	-0.20283154
234	0x3b32fb68	0.0027310494
235	0xbd120c5f	-0.03565633
236	0xbd0f1dcb	-0.034940522
237	0xbb7528a4	-0.0037408257
238	0xbda1fc51	-0.07909454
239	0xbdb960b3	-0.09051647
240	0x3ca36b2a	0.01994856
241	0x3dcdee42	0.1005521
242	0xbd928845	-0.071548976
243	0x3dd323db	0.10309573
244	0xbe23cddd	-0.159965
245	0xbe157c69	-0.1459824
246	0x3d31a3ae	0.043368988
247	0x3e0c69fc	0.13712305
248	0x3e59ec2b	0.21281497
249	0xbda44e83	-0.080227874
250	0xbaa6c76d	-0.0012724228
251	0xbd8e5757	-0.069502525
252	0xbd7a3580	-0.061086178
253	0x3de1a53f	0.11017846
254	0xbda9bea9	-0.08288319
255	0xbd87f32a	-0.06638177

network_body.linear_encoder.seq_layers.2.bias f4 [128]
0	0x00000000	0.0
1	0x00000000	0.0
2	0x00000000	0.0
3	0x00000000	0.0
4	0x00000000	0.0
5	0x00000000	0.0
6	0x00000000	0.0
7	0x00000000	0.0
8	0x00000000	0.0
9	0x00000000	0.0
10	0x00000000	0.0
11	0x00000000	0.0
12	0x00000000	0.0
13	0x00000000	0.0
14	0x00000000	0.0
15	0x00000000	0.0
16	0x00000000	0.0
17	0x00000000	0.0
18	0x00000000	0.0
19	0x00000000	0.0
20	0x00000000	0.0
21	0x00000000	0.0
22	0x00000000	0.0
23	0x00000000	0.0
24	0x00000000	0.0
25	0x00000000	0.0
26	0x00000000	0.0
27	0x00000000	0.0
28	0x00000000	0.0
29	0x00000000	0.0
30	0x00000000	0.0
31	0x00000000	0.0
32	0x00000000	0.0
33	0x00000000	0.0
34	0x00000000	0.0
35	0x00000000	0.0
36	0x00000000	0.0
37	0x00000000	0.0
38	0x00000000	0.0
39	0x00000000	0.0
40	0x00000000	0.0
41	0x00000000	0.0
42	0x00000000	0.0
43	0x00000000	0.0
44	0x00000000	0.0
45	0x00000000	0.0
46	0x00000000	0.0
47	0x00000000	0.0
48	0x00000000	0.0
49	0x00000000	0.0
50	0x00000000	0.0
51	0x00000000	0.0
52	0x00000000	0.0
53	0x00000000	0.0
54	0x00000000	0.0
55	0x00000000	0.0
56	0x00000000	0.0
57	0x00000000	0.0
58	0x00000000	0.0
59	0x00000000	0.0
60	0x00000000	0.0
61	0x00000000	0.0
62	0x00000000	0.0
63	0x00000000	0.0
64	0x00000000	0.0
65	0x00000000	0.0
66	0x00000000	0.0
67	0x00000000	0.0
68	0x00000000	0.0
69	0x00000000	0.0
70	0x00000000	0.0
71	0x00000000	0.0
72	0x00000000	0.0
73	0x00000000	0.0
74	0x00000000	0.0
75	0x00000000	0.0
76	0x00000000	0.0
77	0x00000000	0.0
78	0x00000000	0.0
79	0x00000000	0.0
80	0x00000000	0.0
81	0x00000000	0.0
82	0x00000000	0.0
83	0x00000000	0.0
84	0x00000000	0.0
85	0x00000000	0.0
86	0x00000000	0.0
87	0x00000000	0.0
88	0x00000000	0.0
89	0x00000000	0.0
90	0x00000000	0.0
91	0x00000000	0.0
92	0x00000000	0.0
93	0x00000000	0.0
94	0x00000000	0.0
95	0x00000000	0.0
96	0x00000000	0.0
97	0x00000000	0.0
98	0x00000000	0.0
99	0x00000000	0.0
100	0x00000000	0.0
101	0x00000000	0.0
102	0x00000000	0.0
103	0x00000000	0.0
104	0x00000000	0.0
105	0x00000000	0.0
106	0x00000000	0.0
107	0x00000000	0.0
108	0x00000000	0.0
109	0x00000000	0.0
110	0x00000000	0.0
111	0x00000000	0.0
112	0x00000000	0.0
113	0x00000000	0.0
114	0x00000000	0.0
115	0x00000000	0.0
116	0x00000000	0.0
117	0x00000000	0.0
118	0x00000000	0.0
119	0x00000000	0.0
120	0x00000000	0.0
121	0x00000000	0.0
122	0x00000000	0.0
123	0x00000000	0.0
124	0x00000000	0.0
125	0x00000000	0.0
126	0x00000000	0.0
127	0x00000000	0.0

action_model._continuous_distribution.log_sigma f4 [1, 2]
0	0x00000000	0.0
1	0x00000000	0.0

action_model._continuous_distribution.mu.weight f4 [2, 128]
0	0x3c9e5c4d	0.019331122
1	0xbc402a34	-0.011728812
2	0xbcadb14c	-0.021202706
3	0xbc512fa5	-0.012767707
4	0x3a40d8bd	0.0007356515
5	0xbc0f88f7	-0.008760682
6	0xbc6d2115	-0.014473219
7	0xbc785fb7	-0.015159539
8	0xbce26f42	-0.027640942
9	0x378a3b2a	1.6478432e-05
10	0x3d07714b	0.03306703
11	0x3cb230fb	0.021751871
12	0x3d0e3043	0.034713995
13	0x3c2afafd	0.010435817
14	0xbca34ba0	-0.019933522
15	0xbc1206ec	-0.008912783
16	0xbc5b504b	-0.013385843
17	0xbc53764b	-0.012906621
18	0xbc8ab038	-0.01692973
19	0xbd256bc7	-0.040385988
20	0x3b41f1b7	0.0029593536
21	0x3cd368f2	0.025806878
22	0x3c41c177	0.011825911
23	0xbcd737f3	-0.026271796
24	0x3c43fbed	0.011961919
25	0x3b894c87	0.004190031
26	0x3cb8eccb	0.02257385
27	0xbc71b50b	-0.014752637
28	0x3ca5f7bf	0.020259736
29	0xbd1c5650	-0.03816825
30	0xbbb1d48b	-0.0054269484
31	0xbc951973	-0.018200612
32	0x3c111c2f	0.008856817
33	0x3cc0bd3b	0.023527732
34	0x3c6cb10d	0.014446509
35	0xbc0bf5e0	-0.008542508
36	0x3c3df81f	0.011594801
37	0xba61d57a	-0.00086148793
38	0xbc8c4e4f	-0.017127184
39	0xbc27f7e9	-0.0102519775
40	0x3bbc4111	0.005745061
41	0x3cd6ff63	0.026244825
42	0xbc347956	-0.011015257
43	0xbb942a67	-0.0045216563
44	0x3c557d07	0.013030297
45	0xbbb6b67c	-0.005575953
46	0xbc1f27d5	-0.009714087
47	0x3bbe3f2c	0.0058058705
48	0xbbf25963	-0.0073959096
49	0xbc8e2711	-0.017352613
50	0xbc5ba3c0	-0.01340574
51	0xbc95930d	-0.018258596
52	0x3bd324f0	0.0064436123
53	0x3bf3d77f	0.0074414606
54	0x3c333b4a	0.010939429
55	0xbc957b31	-0.018247219
56	0x3c6854c3	0.014180365
57	0x3c80a21d	0.015702302
58	0xbbed3a77	-0.0072396356
59	0x3ce3f49a	0.027826596
60	0xbc2a2653	-0.010385114
61	0xbab8c500	-0.0014096797
62	0x3ae47703	0.0017430488
63	0xbbabeecf	-0.005246974
64	0xba01d62f	-0.00049528753
65	0x3b1d2760	0.0023979768
66	0x3d2474b7	0.04015037
67	0xbc93ce33	-0.01804266
68	0xbbefe2dd	-0.0073207454
69	0x3cb64b1d	0.022252614
70	0xbb5d3557	-0.0033753717
71	0x3c928f77	0.017890675
72	0xbcfa5880	-0.030559778
73	0xbcd92c48	-0.026510373
74	0x3c42bde6	0.011886096
75	0x3b50df37	0.0031871328
76	0x3bfd5a60	0.007731721
77	0xbc36049f	-0.0111095
78	0x3af5c252	0.0018749929
79	0x3d2cd76e	0.042197637
80	0x3c6e130a	0.014530906
81	0xba4bc437	-0.0007773074
82	0x3c09b444	0.008404795
83	0x3af775f0	0.0018879753
84	0x3b18113c	0.0023203632
85	0x3d0e8247	0.03479221
86	0x3cc809eb	0.024418792
87	0xbcfcf480	-0.030878305
88	0x3c566ebf	0.013087927
89	0x3c19f412	0.00939657
90	0xba9ff07a	-0.0012202405
91	0x3cc380f8	0.023865208
92	0x3cdaab4d	0.02669301
93	0x3bf2ac0d	0.007405764
94	0x3ca657fe	0.02030563
95	0xbc64f788	-0.013975032
96	0xbc689c92	-0.0141974855
97	0x3c01b247	0.00791604
98	0xbb225ae3	-0.002477341
99	0xbc0abe1b	-0.008468176
100	0x3c7c39b3	0.015394616
101	0xbce63f38	-0.028106317
102	0xbc82f797	-0.0159872
103	0x399e051f	0.00030139924
104	0x3b847d83	0.0040432825
105	0xbc14c30b	-0.009079705
106	0x3baeda48	0.0053360797
107	0x3d45dce7	0.048306372
108	0x3c045675	0.008077254
109	0xbbf15b97	-0.0073656547
110	0x3c7d640d	0.0154657485
111	0xbc98eb91	-0.018667014
112	0xbc488bf5	-0.0122404
113	0x3bf323f0	0.0074200556
114	0xbd53132d	-0.05153196
115	0xbc6b4593	-0.0143598495
116	0xbca7daa5	-0.02049
117	0x3c98f0b5	0.018669466
118	0xbae2f0d2	-0.0017314202
119	0xbc8850f7	-0.01664017
120	0x3c8abc19	0.016935395
121	0x3c067f0f	0.008209004
122	0xbc8b8f56	-0.017036121
123	0x3bcddba7	0.006282288
124	0x3bc2d47b	0.00594574
125	0xbc5375d5	-0.012906511
126	0xbbd88613	-0.00660778
127	0x3d24e196	0.040254198
128	0xbab228b0	-0.0013592448
129	0x3c64b495	0.01395907
130	0xbc1156ed	-0.008870822
131	0x3c9826c0	0.018573165
132	0x3a5098f3	0.00079573615
133	0x3be2fb47	0.0069269272
134	0x3c8da5c3	0.017290955
135	0x3c63df72	0.013908254
136	0x3c058b66	0.008150911
137	0xba77018f	-0.00094225345
138	0xbca338ba	-0.01992451
139	0xbc2df376	-0.010617128
140	0xbccf63f5	-0.025316218
141	0x3c6cffbb	0.014465268
142	0xbcb01a95	-0.02149705
143	0x3c18538b	0.009297262
144	0x3cc511bc	0.024056308
145	0xbcdf7872	-0.027279112
146	0x3ba719e4	0.005099522
147	0xbba114f3	-0.0049158274
148	0x3c0366e0	0.008020133
149	0xb9915239	-0.00027717816
150	0xbc5c5577	-0.013448111
151	0xbd03c853	-0.032173466
152	0xbbbaec2f	-0.005704425
153	0xbca462c9	-0.020066636
154	0xb9ad192a	-0.0003301588
155	0x3b63db55	0.0034768183
156	0xbb9132c5	-0.004431101
157	0x3c317b08	0.010832556
158	0xbc539eb3	-0.012916255
159	0xbca20bcc	-0.019781016
160	0x3c0cd442	0.008595528
161	0xbc47c66f	-0.012193306
162	0x3b062787	0.0020470337
163	0xbba2d656	-0.0049693985
164	0x3c662bd7	0.014048538
165	0x3b9528fc	0.004552005
166	0x3b708c67	0.003670478
167	0x3b1db7b6	0.00240658
168	0xbc409cce	-0.011756135
169	0xbd05e251	-0.032686535
170	0x3d19c483	0.037540924
171	0xbd25ad35	-0.040448386
172	0xbbc92651	-0.006138601
173	0x3c887e21	0.016661705
174	0xbcd0262f	-0.025408832
175	0xbcee7553	-0.029108679
176	0xbc2b09cb	-0.010439347
177	0xbc477517	-0.0121739125
178	0x3c9d7a83	0.019223457
179	0xbb476cc7	-0.0030429827
180	0x3c824167	0.015900327
181	0xbc7f22d8	-0.015572272
182	0x3c926589	0.017870681
183	0x3d0dfa83	0.034662735
184	0x3d059807	0.032615688
185	0x3b9eee22	0.004850165
186	0x3ccb91dd	0.024849826
187	0xbd23fd34	-0.040036395
188	0xbcd82f68	-0.026389793
189	0xbceaa67a	-0.028643835
190	0xbb91c34a	-0.004448329
191	0xbc32598c	-0.010885607
192	0x3cef7828	0.0292321
193	0x3cb1d684	0.021708734
194	0x3ccbc56b	0.02487441
195	0x3c23e347	0.010002918
196	0x3cc5dcfd	0.024153227
197	0x3d2c76a7	0.042105343
198	0xbccd2b8d	-0.02504518
199	0x3caaa726	0.020831656
200	0x3c835bd0	0.01603499
201	0xbc159c52	-0.009131508
202	0xbce3c102	-0.027801994
203	0x3ca33a2d	0.019925201
204	0xbd17bde7	-0.03704634
205	0xbd250a42	-0.040292986
206	0xbcbd19bb	-0.023083558
207	0xbb8e67d9	-0.0043458757
208	0xbb5371aa	-0.0032263794
209	0x3c005927	0.007833756
210	0xbcc9dadd	-0.024640495
211	0xbc032be3	-0.008006069
212	0x3b7e1e67	0.0038775445
213	0x3bee4ae5	0.0072721117
214	0x3ba608a9	0.0050669503
215	0x3c832e0c	0.016013168
216	0xbbfc19e5	-0.0076935166
217	0x3c17f76b	0.009275298
218	0x3c5fb52a	0.013654033
219	0x3ab05f27	0.0013456092
220	0xbab6ebe6	-0.0013955801
221	0xba1577db	-0.0005701759
222	0xbc807733	-0.015681839
223	0x3c89efcb	0.016837975
224	0x3c53df0b	0.012931596
225	0xbbfc742f	-0.00770428
226	0x3d67af52	0.056563683
227	0xbc996c87	-0.018728508
228	0x3c699c87	0.01425851
229	0xbc24eb7d	-0.01006591
230	0xbca970f5	-0.020683745
231	0xbcd85520	-0.026407778
232	0xbaa1f870	-0.0012357365
233	0x3be987c2	0.0071267793
234	0x3cf172c8	0.029473677
235	0x3c9e0981	0.019291641
236	0x3ce6aa70	0.028157443
237	0xbcfda880	-0.030964136
238	0xba53f633	-0.0008085698
239	0xbca44b6c	-0.020055495
240	0xbb528fcd	-0.003212917
241	0xbc84b85f	-0.016201196
242	0xbd1c124e	-0.038103394
243	0xbc570942	-0.013124766
244	0x3c2d9e49	0.01059682
245	0xbd021ab6	-0.031763755
246	0xbbe21aa0	-0.0069001466
247	0x3ae606a0	0.0017549582
248	0x3c30834c	0.010773491
249	0x3bf22325	0.0073894435
250	0xbc58a852	-0.013223724
251	0xbbc34eff	-0.005960345
252	0x3aa00e8b	0.0012211365
253	0xbb1c2c1d	-0.0023830005
254	0x3bd4ec7a	0.0064979168
255	0xbbc00ed2	-0.0058611417

action_model._continuous_distribution.mu.bias f4 [2]
0	0x00000000	0.0
1	0x00000000	0.0

network_body.linear_encoder.seq_layers.0.weight f4 [128, 9]
0	0xbeb7bed8	-0.3588779
1	0xbf079152	-0.52956116
2	0x3ef92c26	0.48666495
3	0xbd7fef83	-0.062484276
4	0x3e69e878	0.22842586
5	0x3e9a27df	0.30108544
6	0xbd97102e	-0.07376133
7	0xbdadbd33	-0.084833525
8	0xbe052934	-0.13003999
9	0xbdd6ca56	-0.10487811
10	0x3e2d1266	0.1690155
11	0xbdc6dce7	-0.097101025
12	0x3ea0df64	0.31420434
13	0xbd9e74dd	-0.07737134
14	0xbf23bb27	-0.63957447
15	0x3e645247	0.22297011
16	0xbe97577d	-0.29558936
17	0xbf0cd9d0	-0.55019855
18	0xbe17099c	-0.1474976
19	0x3e423b6e	0.18967983
20	0x3d9cd4a6	0.07657747
21	0xbe6c8c90	-0.23100495
22	0xbdb3e1f0	-0.087833285
23	0x3e842dcb	0.25816187
24	0x3ef8e50f	0.48612258
25	0xbee0edbc	-0.43931377
26	0x3e0a9fb3	0.13537483
27	0xbeb22292	-0.34792
28	0xbe3662c7	-0.17811118
29	0x3c838d05	0.016058454
30	0x3c1fde06	0.009757524
31	0x3e3e5b02	0.18589404
32	0xbe196de6	-0.14983329
33	0xbf172e56	-0.5905508
34	0xbe97a188	-0.29615426
35	0x3e11a3cb	0.14222638
36	0x3e023aaa	0.12717691
37	0xbdc81580	-0.09769726
38	0x3eae1ea0	0.3400774
39	0xbe5ce32b	-0.21571033
40	0x3f211718	0.62925863
41	0x3f159e8c	0.5844505
42	0x3c4f834c	0.012665581
43	0xbf2e25b8	-0.68026304
44	0xbef0cbb3	-0.4703041
45	0xbea56ad0	-0.32308054
46	0x3d84d2de	0.06485532
47	0x3ef9462a	0.48686343
48	0x3f02ceea	0.51096976
49	0x3e8831da	0.26600534
50	0x3db089c8	0.0862003
51	0x3e909ad0	0.28243113
52	0xbd0bd213	-0.03413589
53	0x3f25bbee	0.6473988
54	0xbeb4b0b7	-0.35291073
55	0xbf1861c0	-0.59524155
56	0xbebab3dc	-0.36465347
57	0xbe19e02e	-0.15026924
58	0xbe62d3dc	-0.2215113
59	0x3e3529b2	0.17691687
60	0xbe18294c	-0.14859504
61	0xbe17b3e0	-0.1481471
62	0x3f1b3034	0.6062043
63	0xbeffc973	-0.4995838
64	0x3e0c93fa	0.13728324
65	0xbe0c4bd2	-0.13700798
66	0x3e350fe7	0.17681848
67	0x3e1806c5	0.14846332
68	0x3eb4dbfc	0.35324085
69	0xbf0260e2	-0.5092908
70	0xbf02994c	-0.5101516
71	0xbda50b14	-0.080587536
72	0xbf72a8af	-0.9478864
73	0x3e621b0e	0.22080633
74	0x3e859da8	0.26096845
75	0xbd839998	-0.0642578
76	0xbcc5c3fc	-0.024141304
77	0x3ef30180	0.47462082
78	0x3d8aafda	0.06771822
79	0x3e8688f1	0.26276353
80	0x3e2140c4	0.15747362
81	0x3ec23fba	0.37939245
82	0xbeefe546	-0.4685461
83	0xbe96a7dc	-0.29424942
84	0xbec7dd76	-0.3903615
85	0x3e15ba6b	0.14621894
86	0xbeaf7b07	-0.3427355
87	0xbe8c9e84	-0.27464688
88	0x3efb5dd3	0.4909502
89	0x3ea431b1	0.32069162
90	0xbdc6c78f	-0.097060315
91	0x3f78cf73	0.9719154
92	0xbd482a1b	-0.04886828
93	0x3edd811b	0.43262562
94	0xbf46a3e6	-0.7759384
95	0xbe6e6948	-0.23282349
96	0xbcba2372	-0.02272198
97	0xbe43547c	-0.19075197
98	0xbe1a1eac	-0.15050763
99	0x3e90c707	0.28276846
100	0x3c865e1e	0.0164023
101	0x3d172c80	0.036907673
102	0xbe016de2	-0.12639573
103	0xbe6568f6	-0.2240332
104	0xbecae5b7	-0.39628384
105	0x3f0c08f6	0.54701173
106	0xbeea8f06	-0.45812243
107	0xbe302602	-0.17201999
108	0x3d2b7030	0.041855037
109	0x3f00645c	0.50153136
110	0xbf25ac0a	-0.64715636
111	0x3e3c0ef3	0.18365078
112	0x3ec90d0e	0.39267772
113	0x3ed1933c	0.40932643
114	0xbf26d947	-0.6517529
115	0x3c2027a7	0.009775079
116	0x3cd3ec77	0.025869591
117	0x3eba1f82	0.36352164
118	0x3e020d83	0.12700467
119	0xbe4a8147	-0.19775878
120	0x3cfb1727	0.030650688
121	0x3e4d7956	0.20065817
122	0x3e05ca76	0.13065514
123	0xbe950696	-0.29106587
124	0xbce46580	-0.02788043
125	0x3eae33f7	0.3402402
126	0xbe80bfc7	-0.25146315
127	0xbf0f95aa	-0.56087744
128	0x3f6856fb	0.9075772
129	0xbe48a19e	-0.19592902
130	0x3e64e903	0.22354512
131	0x3e85797b	0.26069245
132	0x3e21dc0c	0.15806597
133	0xbf23f4b4	-0.6404526
134	0x3f4ca207	0.79934734
135	0x3ed2941f	0.41128632
136	0x3dfbeb1c	0.12300703
137	0xbdbcba08	-0.0921517
138	0xbf4004a6	-0.7500709
139	0xbf193a8a	-0.5985495
140	0xbdee6234	-0.116398245
141	0xbda68921	-0.08131624
142	0xbd8a28ae	-0.0674604
143	0x3e2b4be7	0.16728173
144	0xbd8c8cf3	-0.068628214
145	0xbeef0e43	-0.46690568
146	0xbf1702e4	-0.58988786
147	0x3e366dfc	0.17815393
148	0xbdc61f10	-0.096738935
149	0x3e978444	0.29593098
150	0x3f0aa67a	0.54160273
151	0xbed45037	-0.4146745
152	0xbf11db58	-0.56975317
153	0x3d718f43	0.058974516
154	0x3eff062a	0.4980939
155	0x3f12b9c4	0.57314706
156	0xbe62ac0c	-0.22135943
157	0xbe8145c1	-0.2524853
158	0xbd51fe50	-0.051267922
159	0xbed8489e	-0.42242903
160	0x3e091dc3	0.1339026
161	0x3ecc8d06	0.39951342
162	0x3ee0d507	0.43912527
163	0x3eb31cb7	0.34982845
164	0x3eb4f303	0.35341653
165	0xbeb605c7	-0.35551283
166	0xbe4f112b	-0.20221393
167	0x3e8bf166	0.2733261
168	0x3e649acf	0.2232468
169	0x3efeb90b	0.49750552
170	0xbef999ce	-0.48750156
171	0x3edbc9fc	0.4292754
172	0x3f17129c	0.5901277
173	0xbe2799ba	-0.16367236
174	0x3cb14c9a	0.021642972
175	0x3ee7d210	0.45277452
176	0xbe4e90db	-0.20172445
177	0x3efb1d13	0.4904562
178	0x3f2171b3	0.63064116
179	0x3e9593dc	0.2921437
180	0x3cabecdb	0.020986965
181	0x3f169004	0.588135
182	0xbe1fea8f	-0.15616821
183	0x3de28f0e	0.11062442
184	0xbf0267fa	-0.50939906
185	0x3db71dcc	0.0894123
186	0xbe9d15d3	-0.30680713
187	0x3e99e7c1	0.30059627
188	0xbe39f03e	-0.18158051
189	0x3e841726	0.2579891
190	0xbee187e3	-0.44048986
191	0xbe84461d	-0.25834742
192	0x3b17ce0e	0.002316359
193	0xbe484058	-0.19555795
194	0x3e3b7e1a	0.18309823
195	0xbdf19a36	-0.117969915
196	0xbefc801f	-0.493165
197	0xbf020bb0	-0.50799084
198	0xbee79fff	-0.45239255
199	0xbe6156cb	-0.22005765
200	0xbdd2d716	-0.10294931
201	0xbc4ce732	-0.012506293
202	0xbe5de4e7	-0.2166935
203	0x3e074736	0.13210759
204	0xbd9178ad	-0.07103095
205	0x3e805cf6	0.25070924
206	0x3ed33a40	0.4125538
207	0xbe1ea006	-0.15490732
208	0xbda51a58	-0.08061665
209	0x3f4a911f	0.7912769
210	0x3bd41d44	0.0064732153
211	0x3ee9564b	0.4557365
212	0x3d8232b4	0.06357327
213	0x3e18330c	0.14863223
214	0xbc1b380c	-0.009473812
215	0x3eba7cc3	0.3642331
216	0xbd52c0ef	-0.051453527
217	0x3e74374e	0.23849222
218	0xbcee16c6	-0.029063594
219	0xbde71d30	-0.11284864
220	0xbe4e4063	-0.20141749
221	0x3e8b3ce2	0.27194887
222	0xbde24927	-0.11049109
223	0x3ef36eff	0.4754562
224	0x3f48596c	0.78261447
225	0xbf3f965c	-0.74838805
226	0xbf3d1f1c	-0.73875594
227	0x3c68fb30	0.014220044
228	0x3eb5da2f	0.35518023
229	0xbebc49c2	-0.36775023
230	0x3e056340	0.13026142
231	0x3eadc456	0.33938855
232	0xbc77b5b8	-0.015119009
233	0x3d07b1d4	0.033128574
234	0x3e120c19	0.14262427
235	0x3d12850e	0.035771422
236	0xbe86dffa	-0.26342756
237	0xbe9992cd	-0.29994813
238	0xbe2e4700	-0.17019272
239	0xbecc1a28	-0.39863706
240	0x3f2ab63c	0.6668432
241	0xbf132efd	-0.57493573
242	0x3e75ab4e	0.23991129
243	0x3e8224cb	0.25418696
244	0x3ebffa2c	0.37495553
245	0x3c3f20e4	0.011665557
246	0x3f195628	0.5989709
247	0xbe335554	-0.17513019
248	0xbed5277f	-0.41631696
249	0xbf1bc803	-0.6085207
250	0xbdb5df3b	-0.088804685
251	0xbf04ea23	-0.51919764
252	0x3eb47dc0	0.3525219
253	0xbdf3d860	-0.11906505
254	0x3d979aa2	0.07402541
255	0xbe1c2c66	-0.15251312

network_body.linear_encoder.seq_layers.0.bias f4 [128]
0	0x00000000	0.0
1	0x00000000	0.0
2	0x00000000	0.0
3	0x00000000	0.0
4	0x00000000	0.0
5	0x00000000	0.0
6	0x00000000	0.0
7	0x00000000	0.0
8	0x00000000	0.0
9	0x00000000	0.0
10	0x00000000	0.0
11	0x00000000	0.0
12	0x00000000	0.0
13	0x00000000	0.0
14	0x00000000	0.0
15	0x00000000	0.0
16	0x00000000	0.0
17	0x00000000	0.0
18	0x00000000	0.0
19	0x00000000	0.0
20	0x00000000	0.0
21	0x00000000	0.0
22	0x00000000	0.0
23	0x00000000	0.0
24	0x00000000	0.0
25	0x00000000	0.0
26	0x00000000	0.0
27	0x00000000	0.0
28	0x00000000	0.0
29	0x00000000	0.0
30	0x00000000	0.0
31	0x00000000	0.0
32	0x00000000	0.0
33	0x00000000	0.0
34	0x00000000	0.0
35	0x00000000	0.0
36	0x00000000	0.0
37	0x00000000	0.0
38	0x00000000	0.0
39	0x00000000	0.0
40	0x00000000	0.0
41	0x00000000	0.0
42	0x00000000	0.0
43	0x00000000	0.0
44	0x00000000	0.0
45	0x00000000	0.0
46	0x00000000	0.0
47	0x00000000	0.0
48	0x00000000	0.0
49	0x00000000	0.0
50	0x00000000	0.0
51	0x00000000	0.0
52	0x00000000	0.0
53	0x00000000	0.0
54	0x00000000	0.0
55	0x00000000	0.0
56	0x00000000	0.0
57	0x00000000	0.0
58	0x00000000	0.0
59	0x00000000	0.0
60	0x00000000	0.0
61	0x00000000	0.0
62	0x00000000	0.0
63	0x00000000	0.0
64	0x00000000	0.0
65	0x00000000	0.0
66	0x00000000	0.0
67	0x00000000	0.0
68	0x00000000	0.0
69	0x00000000	0.0
70	0x00000000	0.0
71	0x00000000	0.0
72	0x00000000	0.0
73	0x00000000	0.0
74	0x00000000	0.0
75	0x00000000	0.0
76	0x00000000	0.0
77	0x00000000	0.0
78	0x00000000	0.0
79	0x00000000	0.0
80	0x00000000	0.0
81	0x00000000	0.0
82	0x00000000	0.0
83	0x00000000	0.0
84	0x00000000	0.0
85	0x00000000	0.0
86	0x00000000	0.0
87	0x00000000	0.0
88	0x00000000	0.0
89	0x00000000	0.0
90	0x00000000	0.0
91	0x00000000	0.0
92	0x00000000	0.0
93	0x00000000	0.0
94	0x00000000	0.0
95	0x00000000	0.0
96	0x00000000	0.0
97	0x00000000	0.0
98	0x00000000	0.0
99	0x00000000	0.0
100	0x00000000	0.0
101	0x00000000	0.0
102	0x00000000	0.0
103	0x00000000	0.0
104	0x00000000	0.0
105	0x00000000	0.0
106	0x00000000	0.0
107	0x00000000	0.0
108	0x00000000	0.0
109	0x00000000	0.0
110	0x00000000	0.0
111	0x00000000	0.0
112	0x00000000	0.0
113	0x00000000	0.0
114	0x00000000	0.0
115	0x00000000	0.0
116	0x00000000	0.0
117	0x00000000	0.0
118	0x00000000	0.0
119	0x00000000	0.0
120	0x00000000	0.0
121	0x00000000	0.0
122	0x00000000	0.0
123	0x00000000	0.0
124	0x00000000	0.0
125	0x00000000	0.0
126	0x00000000	0.0
127	0x00000000	0.0

network_body.linear_encoder.seq_layers.2.weight f4 [128, 128]
0	0xbe00859d	-0.1255097
1	0xbdc040e4	-0.09387377
2	0x3d075acc	0.033045575
3	0x3bfbb83a	0.0076818736
4	0x3d6c8434	0.057743266
5	0x3d00e44b	0.031467717
6	0x3c6027d0	0.013681367
7	0xbe159d8d	-0.14610882
8	0xbd419bd5	-0.047267754
9	0xbd3207e7	-0.043464568
10	0xbda0ae84	-0.07845786
11	0x3da21e84	0.07915977
12	0xbdfa0b11	-0.12209142
13	0x3d91c68e	0.071179494
14	0x3da0f0b6	0.07858412
15	0x3c83e644	0.01610101
16	0x3c72a0dc	0.01480886
17	0x3d9e60cc	0.07733306
18	0x3d105b16	0.035243116
19	0xbca3e650	-0.020007282
20	0xb9e70df2	-0.00044070143
21	0x3dd0014a	0.10156496
22	0xbd9b24aa	-0.075753525
23	0x3e092071	0.13391282
24	0xbc5dc009	-0.013534554
25	0xbc1460e0	-0.0090563
26	0xbe1d98ff	-0.15390395
27	0x3da5da0c	0.0809823
28	0xbdda2f0a	-0.10653503
29	0xbc7756d6	-0.015096387
30	0x3dc11e40	0.09429598
31	0x3e060f18	0.13091695
32	0x3e83f141	0.2577
33	0x3d4a737b	0.049426537
34	0xbe11b014	-0.14227325
35	0xbd53079d	-0.051520932
36	0xbc81e55d	-0.01585644
37	0x3d6a0cfc	0.05714129
38	0x3dc00573	0.09376039
39	0x3e31e4c6	0.17372426
40	0xbd4dad1f	-0.05021393
41	0x3e1ce56e	0.15321895
42	0xbdc60a17	-0.09669893
43	0xbc41fbce	-0.01183982
44	0x3db7a5ab	0.089671455
45	0xbdd1323d	-0.1021466
46	0xbd016328	-0.031588703
47	0xbce9a17e	-0.028519388
48	0x3e1aa181	0.15100671
49	0x3db5e2e9	0.0888117
50	0x3d0e1008	0.034683257
51	0xbd89e083	-0.06732275
52	0xbcf7c48d	-0.03024509
53	0xbd9a82f4	-0.075445086
54	0xbe032930	-0.1280868
55	0xba68cde4	-0.0008880778
56	0x3dd4b3bd	0.10385845
57	0x3c168634	0.00918727
58	0x3d5cf8e4	0.053948298
59	0xbbc1b5d8	-0.00591157
60	0x3e304f65	0.17217787
61	0xbc4d4163	-0.012527796
62	0xbce357ff	-0.02775192
63	0x3ce0ed2c	0.027456842
64	0x3d25e6d8	0.040503353
65	0x3dff7903	0.12474253
66	0xbdb4cb1e	-0.08827804
67	0xbe01b7a9	-0.12667717
68	0x3dac7b5b	0.08421966
69	0xbd4eecb7	-0.050518718
70	0xbd83851a	-0.064218715
71	0x3d874bbd	0.06606243
72	0xbbdcbf59	-0.0067366776
73	0xbdf488e4	-0.11940172
74	0x3d9371f3	0.071994685
75	0x3db6348d	0.08896742
76	0xbdeef6ac	-0.11668143
77	0xbd97b88f	-0.07408249
78	0x3dd9393b	0.10606619
79	0x3d167904	0.036736503
80	0x3da18ce3	0.078882
81	0x3e1f8c46	0.15580854
82	0xbe033c10	-0.12815881
83	0xbd334201	-0.043764118
84	0xbd2ae594	-0.04172285
85	0xbd2aebed	-0.041728903
86	0x3d211d52	0.039334603
87	0x3dc04d17	0.09389704
88	0x3daf2f51	0.08553947
89	0xbd272c4f	-0.04081374
90	0x3c8b4369	0.016999917
91	0x3d44163d	0.04787277
92	0xbd5ed9fb	-0.0544071
93	0x3c90eac0	0.017690063
94	0x3df2455b	0.11829635
95	0x3c14fd13	0.009093541
96	0xbd3f33ad	-0.04668014
97	0xbbece81b	-0.0072298176
98	0xbd169f5f	-0.036773082
99	0x3d962b6c	0.07332501
100	0x3d9c7f6e	0.07641493
101	0xbdffb2e5	-0.12485293
102	0x3d678f8b	0.056533378
103	0x3d9dca01	0.07704545
104	0xbda11567	-0.0786541
105	0x3d8e3148	0.069429934
106	0xbd860489	-0.06543834
107	0xbdcfa5fc	-0.10139081
108	0x3c740f43	0.014896217
109	0x3e1eb0e0	0.1549716
110	0xbd1ab732	-0.037772365
111	0xbb39b263	-0.0028335087
112	0xbb67fc20	-0.003539808
113	0xbdbc7bc3	-0.09203293
114	0x3d60b421	0.054859284
115	0x3d8dda8e	0.069264516
116	0xbde60ee2	-0.112333074
117	0xbd655d92	-0.05599744
118	0xbd670acd	-0.056406785
119	0xbcf181bd	-0.02948081
120	0xbad4a03a	-0.0016222068
121	0x3dd4168b	0.10355862
122	0xbd3a2e48	-0.045454293
123	0x3d5aea98	0.053446382
124	0xbd52b2c9	-0.051440034
125	0x3cc6891e	0.024235304
126	0xbbd7ce94	-0.0065859053
127	0x3d5d8f7e	0.054091923
128	0xbd9a18ff	-0.07524299
129	0x3d1f0f28	0.038832814
130	0x3de0f63c	0.109844655
131	0x3ca4ed19	0.020132588
132	0xbdbdb42d	-0.092628814
133	0x3d86d6bb	0.06583925
134	0xbba64144	-0.0050736982
135	0x3d0f4951	0.03498203
136	0x3e00d967	0.12582932
137	0x3e020dcf	0.1270058
138	0xbe26f7c7	-0.16305457
139	0x3dad74c5	0.08469538
140	0x3da0461e	0.07825874
141	0xbdfc0d82	-0.12307264
142	0x3dd31b6a	0.10307963
143	0xbd1ced81	-0.03831244
144	0xbd753545	-0.059865255
145	0xbd9c889f	-0.07643246
146	0xbaf00e8e	-0.0018314885
147	0x3ddfe5cc	0.10932502
148	0x3dbccead	0.09219108
149	0xbd37001c	-0.04467784
150	0xbdf5276a	-0.11970408
151	0x3dc0790e	0.09398089
152	0x3d13633a	0.0359833
153	0x3d4e1350	0.050311387
154	0xbe0fe8d7	-0.14053665
155	0x3d16e597	0.036840048
156	0xbe05f48f	-0.13081573
157	0xbd88fbf7	-0.066886835
158	0xbdf6aba7	-0.12044459
159	0x3de76f18	0.11300486
160	0xbc4ba3d2	-0.0124291945
161	0xbd5856c5	-0.052817125
162	0x3df1bf84	0.11804107
163	0x3ca5214b	0.020157477
164	0x3e083352	0.13300827
165	0x3e1c62a4	0.15272003
166	0x3de50028	0.111816704
167	0xbd9cae82	-0.07650472
168	0xbc02e8b7	-0.007990054
169	0x3e0a45b3	0.1350315
170	0x3c3dad59	0.011576974
171	0xbe4bf409	-0.19917311
172	0xbcf0bdb4	-0.029387332
173	0xbdf78120	-0.120851755
174	0x3da4516f	0.08023345
175	0xbce89576	-0.028391581
176	0xbd39cd0e	-0.04536157
177	0xbe127e7e	-0.14306065
178	0xbd303d58	-0.043027252
179	0x3e037829	0.12838806
180	0x3dcb5344	0.09927991
181	0x3d148e96	0.036268793
182	0xbda858e9	-0.08220083
183	0x3de59bc4	0.112113506
184	0xbc5c2eb2	-0.013438867
185	0xbd384a6e	-0.044992857
186	0xbe0fa426	-0.14027461
187	0x3e101c55	0.14073308
188	0x3cdea6c6	0.027179133
189	0x3dbf92cc	0.09354171
190	0xbdcd4da8	-0.100245774
191	0xbd95b170	-0.07309234
192	0x3b991fee	0.004672996
193	0xbd00b4bf	-0.031422373
194	0x3c2ec82c	0.010667842
195	0x3e099961	0.13437416
196	0x3b95961c	0.0045650136
197	0xbbfcc1fa	-0.0077135535
198	0xbd21f0bd	-0.039536227
199	0xbd3f35c9	-0.046682153
200	0xbd5b1588	-0.05348733
201	0xbc3db3eb	-0.01157854
202	0x3e005b42	0.12534812
203	0x3ce028be	0.027363177
204	0xbe31103f	-0.17291354
205	0xbcc6760d	-0.024226213
206	0x3e1a9f47	0.15099822
207	0x3abc10e1	0.0014348292
208	0x3e0f70cc	0.14007872
209	0xbdd67b33	-0.10472717
210	0xbd7b288b	-0.06131796
211	0x3d8b815f	0.06811785
212	0xbe292bcc	-0.16520613
213	0x3ca2f95e	0.019894298
214	0x3d87a0f5	0.06622497
215	0xbdd11578	-0.10209173
216	0xbccc2a1b	-0.024922421
217	0xbdf4bdb6	-0.11950247
218	0xbe0b8d3e	-0.13628098
219	0x3d54b75f	0.05193269
220	0x3d7862b4	0.060641006
221	0x3cc7b8d7	0.02438013
222	0x3e447a62	0.1918731
223	0xbc962796	-0.018329423
224	0xbd5314d3	-0.05153353
225	0xbdec9218	-0.11551303
226	0x3da92511	0.08259023
227	0x3da7da9f	0.081959955
228	0x3b8fc8ee	0.0043879664
229	0xbd938fc7	-0.07205158
230	0x3dae3ce8	0.08507711
231	0xbdc1c204	-0.09460834
232	0x3c675272	0.014118778
233	0x3be4ae74	0.0069788042
234	0xbd3e5698	-0.0464693
235	0x3d330cff	0.043713566
236	0x3d95eca6	0.07320528
237	0x3d961ed7	0.07330101
238	0xbd03048d	-0.03198676
239	0xba1cd405	-0.0005982521
240	0xbe9df92d	-0.3085417
241	0xbe88a95f	-0.2669172
242	0x3d7b1d7b	0.06130741
243	0x3d4cfa0c	0.05004315
244	0x3db255ca	0.08707769
245	0x3df81022	0.12112452
246	0xbdd1536c	-0.102209896
247	0xbd059ce5	-0.03262033
248	0xbe31ea9f	-0.17374657
249	0xbd184d82	-0.037183292
250	0xbcdc70a1	-0.026909174
251	0x3e041147	0.12897216
252	0xbca15e26	-0.019698214
253	0xbd8dd445	-0.06925253
254	0x3c30f796	0.010801217
255	0x3d9207a7	0.07130366

network_body.linear_encoder.seq_layers.2.bias f4 [128]
0	0x00000000	0.0
1	0x00000000	0.0
2	0x00000000	0.0
3	0x00000000	0.0
4	0x00000000	0.0
5	0x00000000	0.0
6	0x00000000	0.0
7	0x00000000	0.0
8	0x00000000	0.0
9	0x00000000	0.0
10	0x00000000	0.0
11	0x00000000	0.0
12	0x00000000	0.0
13	0x00000000	0.0
14	0x00000000	0.0
15	0x00000000	0.0
16	0x00000000	0.0
17	0x00000000	0.0
18	0x00000000	0.0
19	0x00000000	0.0
20	0x00000000	0.0
21	0x00000000	0.0
22	0x00000000	0.0
23	0x00000000	0.0
24	0x00000000	0.0
25	0x00000000	0.0
26	0x00000000	0.0
27	0x00000000	0.0
28	0x00000000	0.0
29	0x00000000	0.0
30	0x00000000	0.0
31	0x00000000	0.0
32	0x00000000	0.0
33	0x00000000	0.0
34	0x00000000	0.0
35	0x00000000	0.0
36	0x00000000	0.0
37	0x00000000	0.0
38	0x00000000	0.0
39	0x00000000	0.0
40	0x00000000	0.0
41	0x00000000	0.0
42	0x00000000	0.0
43	0x00000000	0.0
44	0x00000000	0.0
45	0x00000000	0.0
46	0x00000000	0.0
47	0x00000000	0.0
48	0x00000000	0.0
49	0x00000000	0.0
50	0x00000000	0.0
51	0x00000000	0.0
52	0x00000000	0.0
53	0x00000000	0.0
54	0x00000000	0.0
55	0x00000000	0.0
56	0x00000000	0.0
57	0x00000000	0.0
58	0x00000000	0.0
59	0x00000000	0.0
60	0x00000000	0.0
61	0x00000000	0.0
62	0x00000000	0.0
63	0x00000000	0.0
64	0x00000000	0.0
65	0x00000000	0.0
66	0x00000000	0.0
67	0x00000000	0.0
68	0x00000000	0.0
69	0x00000000	0.0
70	0x00000000	0.0
71	0x00000000	0.0
72	0x00000000	0.0
73	0x00000000	0.0
74	0x00000000	0.0
75	0x00000000	0.0
76	0x00000000	0.0
77	0x00000000	0.0
78	0x00000000	0.0
79	0x00000000	0.0
80	0x00000000	0.0
81	0x00000000	0.0
82	0x00000000	0.0
83	0x00000000	0.0
84	0x00000000	0.0
85	0x00000000	0.0
86	0x00000000	0.0
87	0x00000000	0.0
88	0x00000000	0.0
89	0x00000000	0.0
90	0x00000000	0.0
91	0x00000000	0.0
92	0x00000000	0.0
93	0x00000000	0.0
94	0x00000000	0.0
95	0x00000000	0.0
96	0x00000000	0.0
97	0x00000000	0.0
98	0x00000000	0.0
99	0x00000000	0.0
100	0x00000000	0.0
101	0x00000000	0.0
102	0x00000000	0.0
103	0x00000000	0.0
104	0x00000000	0.0
105	0x00000000	0.0
106	0x00000000	0.0
107	0x00000000	0.0
108	0x00000000	0.0
109	0x00000000	0.0
110	0x00000000	0.0
111	0x00000000	0.0
112	0x00000000	0.0
113	0x00000000	0.0
114	0x00000000	0.0
115	0x00000000	0.0
116	0x00000000	0.0
117	0x00000000	0.0
118	0x00000000	0.0
119	0x00000000	0.0
120	0x00000000	0.0
121	0x00000000	0.0
122	0x00000000	0.0
123	0x00000000	0.0
124	0x00000000	0.0
125	0x00000000	0.0
126	0x00000000	0.0
127	0x00000000	0.0

value_heads.value_heads.extrinsic.weight f4 [1, 128]
0	0xbe3c3864	-0.18380886
1	0xbdc710d0	-0.097200036
2	0x3e11c555	0.14235432
3	0x3c0440b0	0.008072063
4	0x3d9387c8	0.072036326
5	0x3ce6cec1	0.02817476
6	0xbd09495b	-0.033517223
7	0xbe3134ed	-0.17305346
8	0x3da4e656	0.080517456
9	0xbc319ea8	-0.010841049
10	0xbd2582cd	-0.040407944
11	0x3c399679	0.011327379
12	0x3e373be1	0.17893936
13	0x3d3cc130	0.046082675
14	0x3d9ee5b8	0.07758659
15	0x3e509c53	0.20372133
16	0x3e0aca3d	0.1355371
17	0x3e07a200	0.13245392
18	0x3de5bb71	0.11217392
19	0x3de679a2	0.11253668
20	0x3e04cb7f	0.12968253
21	0x3df748f1	0.12074459
22	0x3d3ab541	0.045583013
23	0xbd7333b1	-0.05937547
24	0xbe33949e	-0.17537162
25	0x3e0361f9	0.12830342
26	0xbdedd3bd	-0.116126515
27	0xbd73232b	-0.05935971
28	0xbc8c6885	-0.017139683
29	0xbe525167	-0.20538865
30	0x3cd3c593	0.025851047
31	0xbe38cbc7	-0.18046485
32	0x3e5c4aa9	0.21512856
33	0xbe188efe	-0.14898297
34	0x3d9ef645	0.07761816
35	0x3d8da669	0.06916506
36	0x3e33fb12	0.17576244
37	0x3c8a63dd	0.016893322
38	0xbdbc2b0d	-0.09187899
39	0xbd7406ae	-0.059576683
40	0xbe3bae86	-0.18328294
41	0xbd337a6d	-0.043817926
42	0xbe51f2f0	-0.2050283
43	0xbda7f0af	-0.082002036
44	0xbe0963b2	-0.13416937
45	0xbdb4f20e	-0.08835231
46	0x3e0520ef	0.13000844
47	0xbd8e9ddc	-0.06963703
48	0xbd728aec	-0.059214517
49	0x3e027f57	0.12743889
50	0x3e1af10c	0.15131015
51	0x3b76e96a	0.0037675747
52	0xbda1137d	-0.07865045
53	0x3d2dea52	0.042459793
54	0xbdbbf7e2	-0.09178139
55	0x3e061ecb	0.13097684
56	0x3de8abbd	0.113608815
57	0x3e1887d7	0.14895569
58	0x3d274855	0.040840466
59	0xbe0a2875	-0.13491996
60	0xbdf78260	-0.12085414
61	0xbc4018a7	-0.011724628
62	0x3e44c6e9	0.19216503
63	0xbe4bb506	-0.19893274
64	0x3b7e9162	0.003884398
65	0x3d54c256	0.051943146
66	0x3d84dc8f	0.06487381
67	0x3e3dd5a1	0.18538524
68	0xbe139933	-0.1441391
69	0x3b97be53	0.0046308427
70	0x3e1187b4	0.14211923
71	0xbdd0b3f5	-0.10190574
72	0xbe265b15	-0.16245683
73	0xbcbdc1b9	-0.023163663
74	0xbcd73fec	-0.026275598
75	0x3ced445e	0.028963264
76	0x3e4fa51c	0.20277828
77	0x3d89c7a4	0.067275316
78	0xbe0ce0a8	-0.13757575
79	0xbdc1620a	-0.094425276
80	0x3d8367eb	0.06416305
81	0xbe346fdc	-0.17620796
82	0xbe5091a5	-0.20368059
83	0x3e0496df	0.12948178
84	0xbd05fb05	-0.032710094
85	0x3d003135	0.031296927
86	0xbdde3bee	-0.108512744
87	0xbe08c17b	-0.13355057
88	0x3e0656da	0.13119069
89	0x3e45f99d	0.19333501
90	0xbe1dcf09	-0.15411009
91	0xbc8809ff	-0.016606329
92	0x3cb23324	0.021752901
93	0x3d9d85a1	0.07691503
94	0xbe455c5b	-0.19273512
95	0x3dd9f8d2	0.10643162
96	0x3d451190	0.048112452
97	0x3c3631aa	0.011120239
98	0xbdd6f92a	-0.10496743
99	0xbdff0f4b	-0.12454089
100	0xbe0592d7	-0.13044296
101	0x3d49a61c	0.04923068
102	0xbdf1bbcf	-0.118034
103	0xbda6852e	-0.08130871
104	0xbd70b3b8	-0.058765143
105	0xbd1d7f6e	-0.038451605
106	0x3de8e6ed	0.113721706
107	0xbe1c36e1	-0.1525531
108	0xbe396bf0	-0.18107581
109	0xbd01119b	-0.03151093
110	0x3c19ffc5	0.009399359
111	0xbdf580bb	-0.11987444
112	0x3e2d1f82	0.1690655
113	0xbe4e1efd	-0.20129009
114	0xbd4b7262	-0.04966963
115	0xbdb91f5c	-0.090391845
116	0x3e599f74	0.21252233
117	0x3ce8eff5	0.028434733
118	0xbe4748f5	-0.19461425
119	0xbd4826d5	-0.048865158
120	0x3e542fb2	0.2072132
121	0xbca634ed	-0.020288909
122	0xbdb26eda	-0.087125495
123	0x3daafd23	0.08349063
124	0xbe366c06	-0.17814645
125	0xbc6b5578	-0.014363639
126	0x3dbdeeba	0.09274049
127	0xbdd5d32a	-0.10440667
