results/ppo/My Behavior/My Behavior-3072.pt (torch, 161871 bytes, 12 tensors)

network_body.linear_encoder.seq_layers.0.weight f4 [128, 18]
000000 d0 e8 31 3e 1c 6e 82 be bd 3f a0 3e 27 b0 f7 3d
       0.17373967 -0.25474632 0.31298628 0.12094145
000010 a2 b6 5f 3e 0d af 83 bc a5 26 f6 3e b3 17 0e bb
       0.21847013 -0.016074682 0.48076358 -0.0021681606
000020 4c 9f 42 3e fd aa 3c 3e a1 6e a5 3e e9 4a d1 3d
       0.1900608 0.18424602 0.32310966 0.10219366
000030 04 af 5f be 5d 9a 73 be ae b9 11 3f ef b4 91 be
       -0.21844107 -0.23789354 0.5692395 -0.28458354
000040 a3 04 96 be ce 7a cb 3d 32 fe b1 bd ef 2b e7 be
       -0.29300413 0.099355325 -0.08691062 -0.45150706
000050 92 28 67 be 4a 9e 07 be e1 06 df 3c e6 6b 29 3f
       -0.2257407 -0.13243976 0.02722496 0.66180265
000060 5c 60 f4 bd e8 38 c2 bd 84 e6 a2 3d 0d 90 ec 3c
       -0.119324416 -0.0948351 0.079541236 0.028877283
000070 53 1d 99 3e bf fd 07 3e 5d 93 3b 3e c5 12 77 3e
       0.29905185 0.1328039 0.18317933 0.24128254
000080 8f e4 09 3e 8f 85 46 3d 0d fa 3a be fe 2e 6f 3e
       0.13466094 0.048467215 -0.1825945 0.2335777
000090 a5 7a 45 3b fc 01 98 3e a0 86 93 be 13 02 1c be
       0.0030132916 0.29689014 -0.28813648 -0.15235166
0000a0 a3 94 9e 3e 83 49 06 3f 94 85 55 3e 2c 4c 03 3f
       0.30972776 0.5245592 0.20851737 0.51288104
0000b0 6f 78 8e be 6f aa ea bd e3 34 8d be 29 ff e9 bd
       -0.2782626 -0.11458289 -0.27579412 -0.11425621
0000c0 14 9e 8e 3e bf 1e 39 3d d0 fb 35 be 2c d9 26 3e
       0.2785498 0.045195337 -0.1777184 0.16293782
0000d0 c4 59 e2 bd 08 3e 9a 3c 6c f8 d1 3c f7 17 40 3e
       -0.11052278 0.018828407 0.025631152 0.18759142
0000e0 75 b4 b8 3e 3b ad 3b be 2c 19 eb 3d 81 5e 74 bb
       0.36075178 -0.18327801 0.114794105 -0.0037287774
0000f0 bf e1 dd bc 68 5b 00 be fd 0b 10 3e 5b 48 f0 be
       -0.027085183 -0.12534869 0.14067073 -0.46930203
000100 ac dd fb 3d 70 ea 74 bc a2 38 b3 bd 13 df bc 3b
       0.1229814 -0.014948472 -0.08751036 0.005763897
000110 c7 8f a1 be 01 ad ae be 8c 79 87 be 1d 2b 94 3e
       -0.31555006 -0.34116367 -0.2645992 0.28939143
000120 10 d0 e3 bc f3 f4 69 be b9 64 90 3e de 27 f2 bd
       -0.027809173 -0.22847347 0.28201845 -0.1182401
000130 96 ed 17 be 5f 73 78 be 68 07 d5 be 3e db 92 3e
       -0.14836726 -0.2426276 -0.41607213 0.28682894
000140 aa fd 79 3e 11 00 9d 3d 17 a7 0c be 35 68 96 3e
       0.24413171 0.07666028 -0.13735615 0.2937638
000150 a8 ac 3a be 6a ae 9a bd 8a 5c 49 3e 55 b3 15 bd
       -0.18229926 -0.07552798 0.19664207 -0.036547977
000160 88 3c 93 3b ee b1 0e 3e 55 c6 91 3e d2 e6 4b 3e
       0.0044933 0.13935062 0.28471628 0.1991227
000170 c1 cc 35 be 42 ca d9 bd cc b3 b0 3c 58 91 af 3d
       -0.17753889 -0.10634281 0.021570109 0.08572644
000180 11 a4 0f bf dc bc b6 3e 7e 6b 66 bd 58 57 22 bd
       -0.5610972 0.35690963 -0.056254856 -0.03963408
000190 35 f2 97 be 6a 75 89 be e2 9c 4d be 6f 7d 03 3e
       -0.29676977 -0.26847392 -0.20079377 0.12840818
0001a0 cd 39 10 3d 0e 85 b3 3d 7d 23 5b be 1b 48 9e 3e
       0.035211373 0.087656125 -0.21400256 0.30914387
0001b0 f0 ac 1a 3f 03 d0 8d 3e 07 41 d5 bc 28 6e ae be
       0.6042013 0.27697763 -0.026031984 -0.34068418
0001c0 15 b4 76 3e 05 17 92 3e e2 24 92 be ca 47 86 be
       0.24092133 0.28533188 -0.28543764 -0.26226646
0001d0 64 12 c1 bc 3b e6 49 be a5 67 4a bd ce c9 6b bd
       -0.02356834 -0.19716732 -0.04941525 -0.057565503
0001e0 4e 1c 62 3e 01 a5 a4 3c 77 82 dd 3d c0 7e 09 be
       0.2208111 0.020098211 0.108159 -0.13427258
0001f0 32 fb 02 be a4 1a f2 3d 1f e0 32 be 60 81 63 be
       -0.12791136 0.118214875 -0.17468308 -0.22217321
000200 af 42 11 bf 35 3c b3 3e 47 91 b9 3e 76 74 30 be
       -0.56742376 0.35006872 0.3624365 -0.17231926
000210 86 eb 13 bf c0 b2 6b 3e 23 49 1d 3e d4 c6 7a be
       -0.57781255 0.23017406 0.1535993 -0.2448991
000220 d3 af c6 bd 0b 2a 2b be 64 5c b0 bd 90 95 13 3e
       -0.097015046 -0.16715257 -0.08611372 0.14412522
000230 de 66 9e 3c 47 05 4b bd 82 c0 49 bd c0 1f 9b be
       0.01933616 -0.04956558 -0.049255855 -0.3029766
000240 7f 2c bb bd 1d b8 77 be cf 94 d6 be a8 4e 58 3d
       -0.09139346 -0.24191327 -0.41910407 0.052809387
000250 fb fd 2e be 85 fe f3 be 3b 7b 5f be 88 00 d7 3d
       -0.17089073 -0.4765512 -0.21824352 0.10498148
000260 6e 71 95 3e 3b 60 7d bd 9c 45 9f be c8 6f 5b 3e
       0.29188102 -0.06185935 -0.31107795 0.2142936
000270 40 5d 42 3e a6 53 41 bd 74 26 5d bd 6a ad 51 3e
       0.18980885 -0.047198914 -0.05399175 0.20476308
000280 03 66 b6 3e 6a 90 d0 3e 14 1a 97 3e 74 b1 15 3f
       0.35624704 0.4073518 0.29512084 0.58473897
000290 02 1d d7 bd eb 2f 38 bd 90 cb ee bd d1 22 3b 3f
       -0.1050358 -0.044967573 -0.1165992 0.731
0002a0 c5 f5 4d 3d 99 fb df be ee e5 d4 3e 65 a4 41 3e
       0.050283212 -0.4374664 0.41581672 0.18910368
0002b0 9e d2 48 3e 0c 89 3f be 99 87 5b bc 34 6a e2 3e
       0.19611594 -0.18704623 -0.013399028 0.44221652
0002c0 e3 05 e4 3d a0 33 b1 be 7e a7 8b 3c a8 56 3e 3e
       0.11133935 -0.346097 0.01704764 0.18587744
0002d0 96 72 9e bd 3b ed 85 bd 6d 1a ac be e8 04 da be
       -0.07736699 -0.06539389 -0.3361391 -0.42581868
0002e0 ab ba b6 3e db ba 08 3e 8d 62 0f bf 3c e0 18 3d
       0.3568929 0.1335253 -0.5600975 0.03732322
0002f0 47 86 9f bc 4b cb c0 be 5c 24 c0 be 64 9b 9c 3a
       -0.019473208 -0.376551 -0.3752774 0.0011948165
000300 37 1b 56 3e f4 5c e4 bd cc a8 d3 3d 9b 4b c0 bc
       0.20908819 -0.11150542 0.1033493 -0.023473551
000310 8e bf 54 3d 9d fe 88 3e b2 19 31 3d 62 50 ce be
       0.051940493 0.26756755 0.043237396 -0.40295702
000320 2b d5 32 be ec da 09 bc 47 33 23 be 8c f1 96 3e
       -0.1746413 -0.008414011 -0.1593753 0.2948116
000330 95 9f d4 bc 62 f1 06 3d e7 06 0b bc f0 f9 58 3e
       -0.025955 0.032945044 -0.008485532 0.21189094
000340 7d c6 ca bd dc b8 3d 3d 91 bb e8 bd d6 ce 90 bd
       -0.0990114 0.046318874 -0.113639005 -0.07070701
000350 8f 23 03 3d d8 c0 a3 3d df e3 4c be 12 b8 c3 be
       0.032016333 0.079957664 -0.20008801 -0.38226372
000360 d4 14 3d be 5a 71 e2 3e 65 a2 0a bd ad 37 4f be
       -0.18464977 0.44227105 -0.033846278 -0.20236082
000370 7e d5 d3 3c fa de 2d be d5 fc 85 bd 3a 9d 36 3d
       0.025858637 -0.1697959 -0.065423645 0.044583537
000380 33 de 8c 3e 4d ab ea 3c 8e 9d b6 be a9 ed 60 3e
       0.27513275 0.028646136 -0.3566708 0.2196566
000390 b6 08 8a 3e 83 d9 8d be 7b 67 03 be f4 3e a9 be
       0.2695977 -0.2770501 -0.12832443 -0.33055842
0003a0 22 72 0a bf 4c fa c1 3c 47 be c3 bd b3 d0 fa 3d
       -0.540804 0.023678921 -0.09557777 0.122468375
0003b0 c2 43 9e be 86 b1 9e 3d c2 96 71 3e 7c fe 56 be
       -0.3091107 0.07748704 0.23592666 -0.20995516
0003c0 91 f5 2e bf b8 59 2c bc 84 97 72 3e 1b 10 f2 3d
       -0.68343455 -0.0105194375 0.23690611 0.11819478
0003d0 b8 c4 a7 bd 16 92 9d 3d 67 23 71 3d f0 25 59 bb
       -0.08191818 0.07693879 0.058871653 -0.0033134185
0003e0 61 a7 4c be 43 53 85 3c 1b d5 28 3e 46 d7 65 be
       -0.19985725 0.016275054 0.16487543 -0.22445402
0003f0 6e 4d 0f be 80 0c b1 3a ce 92 0f 3d 40 42 85 bd
       -0.13994381 0.0013507754 0.035052113 -0.06506777

network_body.linear_encoder.seq_layers.0.bias f4 [128]
000000 00 00 00 00 00 00 00 00 00 00 00 00 00 00 00 00
       0.0 0.0 0.0 0.0
000010 00 00 00 00 00 00 00 00 00 00 00 00 00 00 00 00
       0.0 0.0 0.0 0.0
000020 00 00 00 00 00 00 00 00 00 00 00 00 00 00 00 00
       0.0 0.0 0.0 0.0
000030 00 00 00 00 00 00 00 00 00 00 00 00 00 00 00 00
       0.0 0.0 0.0 0.0
000040 00 00 00 00 00 00 00 00 00 00 00 00 00 00 00 00
       0.0 0.0 0.0 0.0
000050 00 00 00 00 00 00 00 00 00 00 00 00 00 00 00 00
       0.0 0.0 0.0 0.0
000060 00 00 00 00 00 00 00 00 00 00 00 00 00 00 00 00
       0.0 0.0 0.0 0.0
000070 00 00 00 00 00 00 00 00 00 00 00 00 00 00 00 00
       0.0 0.0 0.0 0.0
000080 00 00 00 00 00 00 00 00 00 00 00 00 00 00 00 00
       0.0 0.0 0.0 0.0
000090 00 00 00 00 00 00 00 00 00 00 00 00 00 00 00 00
       0.0 0.0 0.0 0.0
0000a0 00 00 00 00 00 00 00 00 00 00 00 00 00 00 00 00
       0.0 0.0 0.0 0.0
0000b0 00 00 00 00 00 00 00 00 00 00 00 00 00 00 00 00
       0.0 0.0 0.0 0.0
0000c0 00 00 00 00 00 00 00 00 00 00 00 00 00 00 00 00
       0.0 0.0 0.0 0.0
0000d0 00 00 00 00 00 00 00 00 00 00 00 00 00 00 00 00
       0.0 0.0 0.0 0.0
0000e0 00 00 00 00 00 00 00 00 00 00 00 00 00 00 00 00
       0.0 0.0 0.0 0.0
0000f0 00 00 00 00 00 00 00 00 00 00 00 00 00 00 00 00
       0.0 0.0 0.0 0.0
000100 00 00 00 00 00 00 00 00 00 00 00 00 00 00 00 00
       0.0 0.0 0.0 0.0
000110 00 00 00 00 00 00 00 00 00 00 00 00 00 00 00 00
       0.0 0.0 0.0 0.0
000120 00 00 00 00 00 00 00 00 00 00 00 00 00 00 00 00
       0.0 0.0 0.0 0.0
000130 00 00 00 00 00 00 00 00 00 00 00 00 00 00 00 00
       0.0 0.0 0.0 0.0
000140 00 00 00 00 00 00 00 00 00 00 00 00 00 00 00 00
       0.0 0.0 0.0 0.0
000150 00 00 00 00 00 00 00 00 00 00 00 00 00 00 00 00
       0.0 0.0 0.0 0.0
000160 00 00 00 00 00 00 00 00 00 00 00 00 00 00 00 00
       0.0 0.0 0.0 0.0
000170 00 00 00 00 00 00 00 00 00 00 00 00 00 00 00 00
       0.0 0.0 0.0 0.0
000180 00 00 00 00 00 00 00 00 00 00 00 00 00 00 00 00
       0.0 0.0 0.0 0.0
000190 00 00 00 00 00 00 00 00 00 00 00 00 00 00 00 00
       0.0 0.0 0.0 0.0
0001a0 00 00 00 00 00 00 00 00 00 00 00 00 00 00 00 00
       0.0 0.0 0.0 0.0
0001b0 00 00 00 00 00 00 00 00 00 00 00 00 00 00 00 00
       0.0 0.0 0.0 0.0
0001c0 00 00 00 00 00 00 00 00 00 00 00 00 00 00 00 00
       0.0 0.0 0.0 0.0
0001d0 00 00 00 00 00 00 00 00 00 00 00 00 00 00 00 00
       0.0 0.0 0.0 0.0
0001e0 00 00 00 00 00 00 00 00 00 00 00 00 00 00 00 00
       0.0 0.0 0.0 0.0
0001f0 00 00 00 00 00 00 00 00 00 00 00 00 00 00 00 00
       0.0 0.0 0.0 0.0

network_body.linear_encoder.seq_layers.2.weight f4 [128, 128]
000000 2b 09 15 bd 67 b1 8e 3d 7e 9f 48 3e 3e 7a cd 3c
       -0.036385696 0.069674306 0.19592091 0.025082704
000010 4d 1b 85 bc 9a 98 06 3e a4 6c a3 bc de 15 f9 bd
       -0.01624837 0.1314415 -0.019949265 -0.12162374
000020 bc b3 22 be 2d b8 d2 3d 0a be a8 bd fb 64 ff bd
       -0.15888876 0.10289035 -0.08239372 -0.12470432
000030 2c e6 15 bd 02 79 80 bc 6f c7 75 3d 39 12 8c bc
       -0.036596462 -0.015682701 0.060004648 -0.017098533
000040 e8 7c b1 3c 91 d1 72 3d 07 3d 2a 3e 13 55 79 bd
       0.021666005 0.05928189 0.16624843 -0.06087215
000050 28 8e 8b 3d 67 1f b2 bd 18 a3 35 bd b8 14 40 3e
       0.068142235 -0.08697396 -0.04434499 0.18757904
000060 30 19 6c bc d1 ef 61 3c 87 86 19 be d7 d0 be bb
       -0.014410302 0.013790087 -0.14992724 -0.0058232355
000070 24 a7 94 bd f7 6a 59 3c 8a 48 70 3d 33 78 b4 3d
       -0.07258442 0.013270131 0.05866293 0.08811989
000080 52 0b 03 3d 87 ff 28 3c ac 02 8c 3d 4c 56 3a bd
       0.031993218 0.010314829 0.06836447 -0.045492455
000090 04 17 f3 3d 3e d8 bb bd fd 3c 29 3c 21 a8 ed 3c
       0.11869624 -0.09172104 0.010329482 0.029010834
0000a0 76 97 1a 3d 02 45 df 3c 9c ad 20 bd 0a 07 a2 bd
       0.0377421 0.027254585 -0.039228067 -0.07911499
0000b0 d6 f3 82 bd 3c e3 de 3c 32 18 30 be a7 74 bf bc
       -0.06394164 0.027207963 -0.1719673 -0.023371054
0000c0 c6 af 0c bc 2a c0 86 bd a6 9b f7 bd a7 80 fd 3d
       -0.0085868295 -0.06579621 -0.120902345 0.12378054
0000d0 03 95 3d bd e7 01 f8 3d 12 09 c7 bc f6 5f 22 bc
       -0.046284687 0.12109738 -0.024296317 -0.009910574
0000e0 8e 9f 29 3e 91 23 f9 bc 57 49 9e bc 3d 94 dd bd
       0.16564772 -0.030412467 -0.01932208 -0.1081929
0000f0 7f c7 1e be 6d 79 58 be d0 2d ee bb d5 35 9f bd
       -0.15505789 -0.2114007 -0.007268645 -0.077739395
000100 3e 82 1c 3d 7f ae 0c be eb 86 47 bd a1 fb 20 bd
       0.038210146 -0.1373844 -0.048712652 -0.039302472
000110 ea f8 2f bd 2e 47 8a 3d 0d ed 0a be 33 f8 85 bd
       -0.042961992 0.06751858 -0.1356699 -0.06541481
000120 a3 73 10 bd f3 c6 ef bd ec 13 bd 3d 14 b4 d4 bb
       -0.03526653 -0.117078684 0.092323154 -0.0064911935
000130 5e 41 01 be b6 9f 1e bd a4 72 f9 3c d6 91 df bd
       -0.12622592 -0.03872653 0.030450173 -0.10916488
000140 ea 55 04 3d de ae e8 3c 03 cc ba 3d 6b 58 61 bc
       0.032308497 0.028403696 0.091209434 -0.013753991
000150 bd 91 2a be db 9f e5 bc 4c d1 55 bd 66 5c 86 bc
       -0.16657157 -0.028030327 -0.052201554 -0.01640148
000160 e9 8b 01 bd d1 24 30 bd 7b db 0d be d2 ee ca 3d
       -0.03162757 -0.04300386 -0.13853256 0.099088326
000170 89 0b 0d be 6a 1a 55 3d 38 3d dc bd f8 b4 85 bd
       -0.13773932 0.052027144 -0.10753864 -0.06528658
000180 6d 75 90 bd cb 42 10 be 44 eb 8a bd ff 75 9e bd
       -0.07053647 -0.1408798 -0.067831546 -0.0773735
000190 74 60 f7 3d fa 2a 91 3d 5d 5f 03 be 3d 05 d2 3c
       0.12078944 0.07088275 -0.12829347 0.025637263
0001a0 7a b3 21 bd 1e 12 07 3d ff fa 76 bd 0e 42 55 bd
       -0.039477803 0.032976262 -0.060297962 -0.052064948
0001b0 c8 3d 1f 3d f0 35 45 be 96 f8 37 3c 6d a7 d8 3d
       0.03887728 -0.19258857 0.011228701 0.10578809
0001c0 4c 13 03 3d 9a 95 11 bd e7 58 4b bd 1d 2c 24 bd
       0.032000825 -0.03554306 -0.04964533 -0.040081132
0001d0 ec c7 6a bd 3d 8e cb bc 95 1c 4f be 2a 03 17 3e
       -0.057319567 -0.024848098 -0.20225747 0.147473
0001e0 91 04 59 3e cc 74 33 be f3 ed 3c 3d b0 f2 e3 bd
       0.21193148 -0.17525023 0.046125364 -0.11130273
0001f0 33 1f 69 bd ff 31 a3 3d b3 5d c4 3d 14 cb ab 3d
       -0.05691452 0.079685204 0.09588184 0.083883435
000200 83 fe 54 bd a2 5b ac bd e4 d3 c3 3d 98 20 00 bc
       -0.052000534 -0.08415915 0.09561899 -0.007820271
000210 a1 0f e4 3c ca 79 36 3d 5e 79 ca 3d 4b ba 2b bd
       0.027839484 0.04454974 0.0988643 -0.04192571
000220 ff 6a 95 bc a3 21 b7 bd f9 f8 30 be bb 0d 31 3d
       -0.018239496 -0.089419626 -0.17282476 0.043225985
000230 88 7e a5 3d ac 4f 4d bc f6 2d 6f bd 82 12 8f bd
       0.080807745 -0.012531202 -0.05839344 -0.06985952
000240 63 7f 68 3d 12 4d 22 bc 2b be 39 3d 8d 06 55 bd
       0.05676211 -0.00990607 0.045347374 -0.0520082
000250 53 f4 bd bd c5 d9 c0 3d d7 06 b3 3c 07 d4 dc bd
       -0.09275117 0.09416536 0.021853847 -0.107826285
000260 31 e0 e4 bd 20 1f 77 3d cb 55 95 bd bc 72 d0 bd
       -0.111755736 0.060332417 -0.07291754 -0.10178134
000270 38 fb c5 3b 59 e1 38 bd 0e e3 2c 3d c1 c4 09 3d
       0.0060419105 -0.045136783 0.042208724 0.033634905
000280 61 e6 d0 bc b6 55 11 3d 50 a3 58 3b b8 8c c4 3d
       -0.025500478 0.03548213 0.0033056326 0.095971525
000290 bb 17 5a 3d c3 39 ae 3d b5 97 f4 3d 74 35 ac 3d
       0.053245287 0.08507111 0.11942998 0.08408633
0002a0 af bc c2 bd 68 16 45 3e 0c 2c 25 be b6 06 ca bd
       -0.09508645 0.19246829 -0.16130084 -0.09864561
0002b0 cc 2f 4e bd ca ed 08 3d 4c 2a 8d bd 05 59 39 bd
       -0.05033855 0.0334299 -0.06892833 -0.04525091
0002c0 5d 0d 66 bd 41 f9 37 be 0d e9 a1 bc a8 67 f0 bc
       -0.056165088 -0.17966177 -0.019764448 -0.029346302
0002d0 b2 37 5a 3c 58 15 6e bc ec a8 81 bc 5b d0 3f bc
       0.013318943 -0.014531456 -0.015827619 -0.011707391
0002e0 51 d8 0f be f7 18 9e 3d 12 7b 71 bd b3 e2 31 3d
       -0.14047362 0.077196054 -0.05895526 0.043429088
0002f0 2e db ab 3d 8c 57 a8 bd fd c4 b5 3c 0b 56 bf bd
       0.083914146 -0.08219823 0.022188658 -0.09342583
000300 81 be 73 3d e5 d0 de 3d f2 c8 de 3c 3c a8 34 3d
       0.05950785 0.10879687 0.027195428 0.044105753
000310 4a 1c 45 3c 21 d4 63 bd c4 88 de bd 99 aa 66 3e
       0.01203067 -0.055622224 -0.1086593 0.22526015
000320 1a 70 d5 bb 01 a7 25 3e e0 a3 17 3d 60 d0 c7 bc
       -0.0065136077 0.16176988 0.037021518 -0.024391353
000330 2f c8 16 3d 79 a2 d9 bd dc f5 90 bd 19 06 af 3d
       0.036812004 -0.10626692 -0.07078144 0.08546085
000340 b9 55 c1 bd 28 b2 9c bd 0b dd b6 bb 5b 4f b9 3d
       -0.094401784 -0.07651168 -0.0055805496 0.09048339
000350 ff 8c f5 bd 3f 8d 23 3d fa 6e 3c bc 3c 5f 4e bd
       -0.119897835 0.039929625 -0.011501068 -0.05038379
000360 d9 d0 c3 3c 16 a1 11 be e8 86 15 bc 2c 3a 65 bd
       0.023903297 -0.14221606 -0.009126402 -0.05596368
000370 aa e6 c5 bd bb 4e b7 bd af 60 c6 3d 26 48 6a 3d
       -0.09663136 -0.089505635 0.0968641 0.057197712
000380 62 2b e2 3d 18 77 bc bc d0 6a bb 3d d3 8c 13 3a
       0.11043431 -0.023006007 0.09151232 0.00056285894
000390 80 f0 3e bd 75 47 28 3d a8 16 98 bd 7d 91 38 3e
       -0.046616077 0.04108377 -0.07426196 0.1802425
0003a0 40 f8 4a 3d 89 c7 90 bb 74 e4 a1 bd e1 52 a7 3d
       0.049553156 -0.0044183177 -0.07904902 0.08170105
0003b0 5e fb a0 bd 27 56 24 be 41 90 42 bc 50 11 b3 bd
       -0.078604445 -0.1604849 -0.011875213 -0.087435365
0003c0 dc d1 c1 bd ee 8f a3 3d 03 35 a9 3c cf 83 26 3e
       -0.094638556 0.07986437 0.02065516 0.16261218
0003d0 1f 97 f2 bd 5b 50 37 bd 2a 47 01 bd b5 a3 df 3d
       -0.1184523 -0.044754367 -0.031562008 0.109198965
0003e0 b5 93 6c bc 36 5f 2c 3d f4 81 94 3e cd 32 12 3e
       -0.014439513 0.042082988 0.29005396 0.14277191
0003f0 c0 1a a9 bd ff 06 82 bd f2 05 10 3e 37 fb 02 3e
       -0.08257055 -0.06348991 0.14064768 0.12791143

network_body.linear_encoder.seq_layers.2.bias f4 [128]
000000 00 00 00 00 00 00 00 00 00 00 00 00 00 00 00 00
       0.0 0.0 0.0 0.0
000010 00 00 00 00 00 00 00 00 00 00 00 00 00 00 00 00
       0.0 0.0 0.0 0.0
000020 00 00 00 00 00 00 00 00 00 00 00 00 00 00 00 00
       0.0 0.0 0.0 0.0
000030 00 00 00 00 00 00 00 00 00 00 00 00 00 00 00 00
       0.0 0.0 0.0 0.0
000040 00 00 00 00 00 00 00 00 00 00 00 00 00 00 00 00
       0.0 0.0 0.0 0.0
000050 00 00 00 00 00 00 00 00 00 00 00 00 00 00 00 00
       0.0 0.0 0.0 0.0
000060 00 00 00 00 00 00 00 00 00 00 00 00 00 00 00 00
       0.0 0.0 0.0 0.0
000070 00 00 00 00 00 00 00 00 00 00 00 00 00 00 00 00
       0.0 0.0 0.0 0.0
000080 00 00 00 00 00 00 00 00 00 00 00 00 00 00 00 00
       0.0 0.0 0.0 0.0
000090 00 00 00 00 00 00 00 00 00 00 00 00 00 00 00 00
       0.0 0.0 0.0 0.0
0000a0 00 00 00 00 00 00 00 00 00 00 00 00 00 00 00 00
       0.0 0.0 0.0 0.0
0000b0 00 00 00 00 00 00 00 00 00 00 00 00 00 00 00 00
       0.0 0.0 0.0 0.0
0000c0 00 00 00 00 00 00 00 00 00 00 00 00 00 00 00 00
       0.0 0.0 0.0 0.0
0000d0 00 00 00 00 00 00 00 00 00 00 00 00 00 00 00 00
       0.0 0.0 0.0 0.0
0000e0 00 00 00 00 00 00 00 00 00 00 00 00 00 00 00 00
       0.0 0.0 0.0 0.0
0000f0 00 00 00 00 00 00 00 00 00 00 00 00 00 00 00 00
       0.0 0.0 0.0 0.0
000100 00 00 00 00 00 00 00 00 00 00 00 00 00 00 00 00
       0.0 0.0 0.0 0.0
000110 00 00 00 00 00 00 00 00 00 00 00 00 00 00 00 00
       0.0 0.0 0.0 0.0
000120 00 00 00 00 00 00 00 00 00 00 00 00 00 00 00 00
       0.0 0.0 0.0 0.0
000130 00 00 00 00 00 00 00 00 00 00 00 00 00 00 00 00
       0.0 0.0 0.0 0.0
000140 00 00 00 00 00 00 00 00 00 00 00 00 00 00 00 00
       0.0 0.0 0.0 0.0
000150 00 00 00 00 00 00 00 00 00 00 00 00 00 00 00 00
       0.0 0.0 0.0 0.0
000160 00 00 00 00 00 00 00 00 00 00 00 00 00 00 00 00
       0.0 0.0 0.0 0.0
000170 00 00 00 00 00 00 00 00 00 00 00 00 00 00 00 00
       0.0 0.0 0.0 0.0
000180 00 00 00 00 00 00 00 00 00 00 00 00 00 00 00 00
       0.0 0.0 0.0 0.0
000190 00 00 00 00 00 00 00 00 00 00 00 00 00 00 00 00
       0.0 0.0 0.0 0.0
0001a0 00 00 00 00 00 00 00 00 00 00 00 00 00 00 00 00
       0.0 0.0 0.0 0.0
0001b0 00 00 00 00 00 00 00 00 00 00 00 00 00 00 00 00
       0.0 0.0 0.0 0.0
0001c0 00 00 00 00 00 00 00 00 00 00 00 00 00 00 00 00
       0.0 0.0 0.0 0.0
0001d0 00 00 00 00 00 00 00 00 00 00 00 00 00 00 00 00
       0.0 0.0 0.0 0.0
0001e0 00 00 00 00 00 00 00 00 00 00 00 00 00 00 00 00
       0.0 0.0 0.0 0.0
0001f0 00 00 00 00 00 00 00 00 00 00 00 00 00 00 00 00
       0.0 0.0 0.0 0.0

action_model._continuous_distribution.log_sigma f4 [1, 2]
000000 00 00 00 00 00 00 00 00
       0.0 0.0

action_model._continuous_distribution.mu.weight f4 [2, 128]
000000 8c 5d 0f bc 73 b0 10 3c 1a ae 48 bd ec 7a 33 3c
       -0.008750331 0.008831131 -0.04899416 0.0109546
000010 b3 15 f6 3b f8 81 54 3c 75 a6 9f bc e8 e8 c7 3c
       0.007509911 0.01297044 -0.019488553 0.02440305
000020 85 ec ab bc a2 02 c9 bb 8e 78 2e 3d 57 26 27 bc
       -0.020986805 -0.006134347 0.04259544 -0.010202012
000030 90 0c 92 bc 39 02 c6 bc 1a 23 5a 3c f0 99 6b 3c
       -0.017828256 -0.024170982 0.013314033 0.014379963
000040 a8 eb fd bb 47 56 27 3c 5d c2 a4 bc cc 2e ba 3c
       -0.0077490397 0.010213441 -0.02011221 0.022727393
000050 5b c4 36 3c 54 40 82 3c fe 49 a2 bc 2c 77 1e 3c
       0.011155213 0.015899815 -0.019810673 0.0096719675
000060 d1 81 2e bc c2 f5 cf 3c 2a 42 cb bc 37 7a d5 bb
       -0.010651068 0.025385741 -0.024811823 -0.0065148133
000070 04 d5 be bc c0 21 15 3c 8f f9 a6 ba a4 6d ba 3b
       -0.023294933 0.009102285 -0.0012739169 0.0056893397
000080 e4 db 35 3c 0e 2d bc 3c 8d 65 5c bb 56 e8 9c 3c
       0.011099789 0.022970702 -0.0033629865 0.019153755
000090 6f a3 02 3c ff 27 e6 3b d0 e9 d3 bc 3c b1 c0 3a
       0.007973536 0.007023811 -0.025868326 0.0014701257
0000a0 c3 d1 8e 3c 7f c6 7a 3c 8b 52 87 3c 8f 85 18 bb
       0.017434007 0.015306114 0.016518852 -0.0023272967
0000b0 ca 36 99 bc a6 35 8d bc 38 19 db 3c 72 d4 63 3c
       -0.018702883 -0.017237496 0.026745424 0.013905631
0000c0 3a 67 db 3c 40 c7 08 3d d3 1e ec ba 18 b7 18 bb
       0.02678262 0.033393145 -0.0018014557 -0.0023302492
0000d0 87 44 28 3c fb 2f fc 3a 6e 96 1f 3d c0 02 ac 3c
       0.010270244 0.0019240374 0.03896182 0.020997405
0000e0 a3 56 00 3d ef ce 4f 3c d7 57 95 bc 97 d9 9d 3a
       0.031332623 0.012683614 -0.018230362 0.0012042996
0000f0 10 39 73 3c 89 2b ba bc b4 d1 91 bb 59 93 a9 3c
       0.014845148 -0.022725837 -0.0044500474 0.020700144
000100 88 f9 d6 3b ec d0 88 bc 54 d8 2d 3d 8d d5 2a 3b
       0.006560508 -0.016701184 0.042442635 0.0026067228
000110 79 e4 b4 bc ab d4 b1 bc 64 69 ba bb 9b fe 14 3b
       -0.0220816 -0.021707853 -0.005688833 0.0022734764
000120 93 9c a2 3c 0a 46 ee bc c3 9e fe bb 11 51 09 bc
       0.019850051 -0.029086132 -0.0077703907 -0.008381144
000130 bd ee 8b 3a 3e 3e 1c 3c d3 80 c4 3c 9f 90 b5 bb
       0.0010676008 0.009536324 0.02398721 -0.005540922
000140 f7 44 d2 bb 87 2e 05 bc cd 47 f9 3b bd e5 e8 3b
       -0.0064169127 -0.008128769 0.0076074363 0.007107465
000150 cf f2 9a 3c df 96 91 bc 04 0d 3f 3c 79 e0 83 bc
       0.018914608 -0.017772136 0.011660818 -0.016098248
000160 f5 6f 58 bc f8 d9 c7 3a 56 35 99 3c 73 a2 28 3d
       -0.013210286 0.0015247455 0.01870219 0.04117055
000170 f1 75 80 bc 71 80 84 bb aa eb 6f 3c 7a 08 b7 3c
       -0.015681239 -0.0040436317 0.014643589 0.02234291
000180 18 f2 3b bb 21 b6 c1 bb 5c f8 1d bb 6c d2 80 3b
       -0.0028678235 -0.005911604 -0.0024104333 0.0039313342
000190 9b 38 f2 bb fb d7 a2 3c 45 d6 ef 3c d6 e4 32 3c
       -0.007392002 0.019878378 0.029276976 0.010918817
0001a0 d9 23 3d bc 2b 4c 6b bc 09 4b 97 3c 40 91 4f 3d
       -0.011544191 -0.014361422 0.018468397 0.05067563
0001b0 db e8 11 3d cd d6 6d bb 36 d9 02 3d 6b 12 a0 3a
       0.03562246 -0.0036291361 0.03194543 0.001221252
0001c0 bb 37 95 bc 66 23 c7 3c b7 06 69 3b ff a3 14 bb
       -0.01821505 0.024308871 0.003555698 -0.0022680757
0001d0 93 b6 00 3d 3c 56 26 3b 6f 7d 53 3b 4d d6 69 3c
       0.031424116 0.002538099 0.003227081 0.014272285
0001e0 b2 ae 62 3c 13 86 b2 3b 23 dd 11 3b 33 e4 0a ba
       0.013835596 0.005448112 0.0022257052 -0.00052982866
0001f0 63 cb 67 3c fd ed de bc 6f 85 ca bc a1 14 a1 3b
       0.014147612 -0.027213091 -0.02472183 0.0049157892
000200 1d 96 5a 3a 87 f1 17 bb af 1e 3d 3c 0b 96 19 bb
       0.00083384087 -0.0023184733 0.01154296 -0.002343538
000210 a7 79 b8 bc 00 61 83 bb 39 bf 04 bd f0 5f 5c 3b
       -0.022518946 -0.004009366 -0.032408927 0.003362652
000220 87 8b d5 3c bf a0 b9 3c ab b7 c8 3b 7b 37 bb 3b
       0.026067508 0.022659658 0.0061254106 0.005713401
000230 9a c0 a7 3c 50 39 c6 b9 58 09 4c bc 0d a6 9a 3b
       0.020477582 -0.00037808204 -0.0124534 0.004719502
000240 7a a1 53 3c fb 80 26 bc ec 11 01 3d 7d 9c 64 3c
       0.012916917 -0.010162587 0.031511232 0.013953325
000250 d8 97 99 bc 47 e7 8e bb 02 9c 2a 3b 57 97 3a 3a
       -0.018749163 -0.0043610665 0.002603293 0.00071178883
000260 7b 32 47 3c 55 07 7d bc c3 00 88 bc e9 0c 98 bb
       0.012158032 -0.015443643 -0.016601926 -0.004640211
000270 b0 82 cd 3c 3b 95 8b 3a 4f 8c 1d 3d a7 ea 5f bc
       0.02508673 0.0010649333 0.038463887 -0.013666785
000280 0e b3 34 3c 33 d4 4f bb 8a 34 30 bc 5a 5b e6 ba
       0.011029018 -0.0031712174 -0.010754714 -0.0017574832
000290 a1 17 29 bd 3b e5 8e bc 33 2c 55 bc 71 3a 35 3c
       -0.0412823 -0.01744329 -0.013011026 0.011061297
0002a0 42 17 7a 3a 67 fb 13 3c 33 ba 93 3c 6b 84 6b b9
       0.0009540209 0.009032107 0.018033123 -0.00022460676
0002b0 20 9d 49 3a 47 7c e1 b9 87 79 05 3c 2a 1d 66 3c
       0.0007690955 -0.00043007938 0.00814665 0.014045039
0002c0 8a 33 9d bb bc df 24 3c ff c2 10 3d dc a1 00 3c
       -0.0047974037 0.010063108 0.035342213 0.00785109
0002d0 d7 27 3d 3b db 94 88 3c 88 19 39 bc bb 54 b7 3b
       0.0028862858 0.016672542 -0.011297591 0.0055948175
0002e0 50 78 03 bb e3 21 42 3c 0d 39 d1 bc ff d6 22 bc
       -0.0020060726 0.0118489 -0.0255399 -0.009938954
0002f0 1f 1c c2 bc 0a b0 61 bc 15 72 08 3c 9b 9f a0 bb
       -0.02369505 -0.013774881 0.0083279805 -0.004901839
000300 87 65 05 bd 53 52 af 3c b2 07 07 bb cc c8 1d bc
       -0.032567527 0.02140156 -0.0020603952 -0.009630393
000310 7e 64 a8 3c d1 7c 18 3c 7c ff 84 3b aa 59 b2 3b
       0.02055573 0.009307102 0.0040587764 0.0054428177
000320 69 a2 a4 3b 26 ee 47 3a a3 4c 85 3c e5 0b ca bc
       0.0050242436 0.00076267344 0.016271895 -0.024663875
000330 9d 67 e8 bc 03 4d b3 3c 2c 33 b6 ba 3b d1 06 3d
       -0.02836972 0.021887308 -0.0013900748 0.03291438
000340 83 53 81 3a 30 d6 fc 3c 23 f1 f8 bb c0 d4 f4 bc
       0.0009866807 0.030863851 -0.007597105 -0.029886603
000350 5c 3e bc bb 0f 46 0f 3b 62 97 c1 3c a8 67 8f 3c
       -0.0057447385 0.0021861827 0.023631755 0.017505482
000360 86 45 26 bc 9e bc 39 3c 13 74 cb ba bb 66 c2 3b
       -0.010148412 0.011336474 -0.0015522264 0.0059326566
000370 6b a2 dc 3c f8 3a 24 3d 82 ac 82 3c b8 18 0f 3d
       0.026932916 0.0400953 0.015951399 0.034935683
000380 f2 16 0b bd d8 21 15 bc a3 3c cc bb ed 6f a5 3c
       -0.03395743 -0.009102307 -0.0062328144 0.020194972
000390 45 48 3d 3c df eb 9a 3c 37 8a 31 3c 33 f9 1e bc
       0.011552875 0.0189113 0.010836176 -0.009702968
0003a0 8b 04 ad bb 5c 0e ae 3a fa f2 5c 3c 1c b9 2c bc
       -0.0052800826 0.0013279426 0.0134856645 -0.01054218
0003b0 43 a7 2b bc 7b 0e ca bb e7 69 2c bd 05 24 56 bc
       -0.01047689 -0.006166277 -0.042093184 -0.013070111
0003c0 8f 60 50 3c 8f 5f 96 bc de 47 92 bb f8 90 58 bc
       0.012718334 -0.018356113 -0.0044641336 -0.013218157
0003d0 ab af ac 3c 87 2b 0a 3c 87 65 33 bd 2c c0 08 bd
       0.021079859 0.008433229 -0.043797996 -0.033386394
0003e0 70 ee 29 3c 9c e0 31 3c 0c 26 2e 3d b9 50 2a 3d
       0.010371789 0.010856774 0.042516753 0.04158089
0003f0 93 17 30 bc 65 d4 d1 bc 20 6e fe bb 9a 87 4e 3b
       -0.010747808 -0.025613973 -0.0077645928 0.003151393

action_model._continuous_distribution.mu.bias f4 [2]
000000 00 00 00 00 00 00 00 00
       0.0 0.0

network_body.linear_encoder.seq_layers.0.weight f4 [128, 18]
000000 0d 18 df 3e 5d 8c 66 3d 63 f8 a8 3d e0 a1 88 bd
       0.43573037 0.056286205 0.08250501 -0.066715
000010 16 7b dc 3d c7 30 8c 3d c6 48 77 3e c8 66 a5 3d
       0.10765664 0.06845241 0.24148855 0.080762446
000020 74 f3 a7 bd d4 a2 d2 3e f5 15 8e be 5b df 08 be
       -0.08200732 0.41139853 -0.27751127 -0.13366453
000030 66 a8 9a 3c 77 3d c1 bd 02 be fc 3c f7 d3 27 be
       0.018879127 -0.094355516 0.030852322 -0.16389452
000040 b2 6f 75 3e 3c 1f ba bd 1d 79 bc bd f5 d0 7d bd
       0.2396839 -0.09087989 -0.09202788 -0.061966855
000050 65 de 5b be b2 15 b1 be e7 b5 6d bd 97 5f 1e be
       -0.21471556 -0.34586865 -0.058034804 -0.15466152
000060 98 e6 74 3e e7 3a bd 3e 3e 70 df 3e 0b 5b 15 bf
       0.2391609 0.36959 0.43640321 -0.58342046
000070 67 bb 9c be 27 46 cb 3c 96 5a a7 be 2b b5 8c 3e
       -0.30611727 0.024813725 -0.326863 0.2748197
000080 97 54 d5 3d 79 6c d1 3d 7e 1f 0c bf 01 46 2b 3e
       0.10416525 0.10225768 -0.54735553 0.16725923
000090 93 7f ed 3d 78 d2 29 3e 67 df 87 bc 39 ca e6 3e
       0.115965985 0.16584194 -0.016586019 0.4507616
0000a0 eb d3 3b 3e 52 02 01 bf 04 0f 95 bb b3 3e b3 3c
       0.18342559 -0.50394166 -0.004548909 0.021880483
0000b0 f1 c3 ec 3d eb 8b 81 be 1c da f2 3d 24 8c 2d 3e
       0.1156081 -0.2530206 0.11858007 0.1694799
0000c0 f2 d8 b0 bc 51 83 e5 bd ee 9d 29 be bf 6d ea bc
       -0.021587823 -0.11206687 -0.16564152 -0.028616784
0000d0 6c 26 e0 bd 81 de 4a be b2 c2 c7 3c ec ea ac be
       -0.109448284 -0.19811441 0.02438483 -0.3377298
0000e0 16 b2 ce 3d 6c f7 45 3d 1f 04 06 3e f1 e3 33 3e
       0.10092561 0.048331663 0.1308751 0.17567421
0000f0 a9 51 76 bd 6b c2 8b bd 3d 3d ac be 03 f0 59 be
       -0.06013647 -0.06824192 -0.3364047 -0.21282963
000100 3b 6d 63 be 7e 70 14 3e 72 16 6f be 0e 21 a8 3e
       -0.22209637 0.14496037 -0.23348406 0.3283772
000110 c0 32 6c 3d 9f 89 15 be d4 7e 68 be c4 98 5d bd
       0.057665586 -0.1460328 -0.22704631 -0.054100767
000120 8d cc 72 be 58 0b 2b be 7b 5b 56 3d 85 aa 5c 3d
       -0.23710842 -0.16703546 0.052333336 0.053873558
000130 a1 86 ab ba 07 d8 d8 3d ff ee b5 be c2 a1 8a be
       -0.0013086387 0.10588079 -0.35533902 -0.27076536
000140 ae 0b db 3d 89 ec 66 3c 9f bf d7 be 0d 27 c3 bc
       0.10695587 0.01409448 -0.42138383 -0.023822332
000150 85 3a aa 3d 74 64 29 be 82 61 fa 3b 77 a4 47 be
       0.08311943 -0.16542226 0.0076410184 -0.19496332
000160 eb ae fd bd b7 5a 92 bd ff e8 c7 3e 69 6f ee bd
       -0.123868786 -0.07146209 0.3904495 -0.116423436
000170 31 e9 86 3e 19 57 8e 3e 1e ea d3 bc 9d 06 0f 3e
       0.26349786 0.27800825 -0.025868472 0.13967367
000180 ac 48 4d 3e a4 d8 0b 3e 97 ec bb 3d 0a a5 3f 3d
       0.20047253 0.1365686 0.09175985 0.046788253
000190 59 eb 81 3e bc 72 16 be fa 67 7c 3e 29 0b 68 be
       0.2537487 -0.14692205 0.24649039 -0.22660507
0001a0 c9 4b 13 be 16 89 7c 3e cc 33 4a be bd 21 06 bf
       -0.14384378 0.24661669 -0.19746321 -0.5239523
0001b0 a0 93 15 be 70 b0 e6 3e 63 6d 1c 3e 24 8e 3e bc
       -0.14607096 0.45056486 0.15276103 -0.011630569
0001c0 da 8a b6 bd 83 d1 f4 be 43 ca d1 3e b7 38 1d 3d
       -0.089132026 -0.47816095 0.40974626 0.038384166
0001d0 6f 3b 95 3d 36 ba 49 be cc 70 53 be 90 f1 5b 3e
       0.07286727 -0.1969994 -0.20648497 0.21478868
0001e0 27 9d 2f 3e a8 9c c4 bd 4b 88 7a 3e 72 68 b5 3c
       0.17149793 -0.09600192 0.24466054 0.02214453
0001f0 ec 5c 71 3e 25 72 3b 3e 66 c9 20 3e 0b b3 bf 3d
       0.23570603 0.18305261 0.15701827 0.093603216
000200 84 ea b5 be eb a0 7e be 01 0c 57 3e 55 a7 db 3d
       -0.35530484 -0.24866073 0.21000673 0.107252754
000210 6e 05 40 bf 24 6a fe be a8 3e 81 3e 9d 7a 8c 3e
       -0.75008285 -0.49690354 0.25243115 0.27437297
000220 dd 30 e5 3e b0 2f b1 be 30 f2 31 3e f2 ac 37 3e
       0.44763842 -0.34606695 0.17377543 0.17937067
000230 90 0e e9 3d 34 e2 3d be 07 e6 7f bd 90 d5 ce 3d
       0.11379731 -0.18543321 -0.06247523 0.100993276
000240 f9 59 60 3d 41 c9 16 bd a5 db 53 bd 2c c7 8d 3d
       0.054773305 -0.036813024 -0.05172314 0.06922755
000250 dc cd 7f be ca 0b 66 be 36 62 0d 3d d0 69 16 3e
       -0.24980873 -0.22465435 0.03451749 0.14688802
000260 09 ec c7 bc c5 35 fe bd 97 f2 38 3d c2 bd c2 be
       -0.024404543 -0.124125995 0.045153227 -0.380354
000270 a0 3e 96 be 4f 1f f9 bd e5 c3 b3 3e 8b 5c 07 be
       -0.29344654 -0.12164175 0.35110393 -0.13218896
000280 f7 44 8b bd b5 ff a8 b8 c2 84 d9 3b d3 a0 7e be
       -0.068002634 -8.0584934e-05 0.0066381404 -0.24866037
000290 19 38 fb 3d 18 f4 81 3c 94 aa 71 bd e0 5e 96 3e
       0.12266559 0.015863463 -0.059000567 0.2936926
0002a0 19 c9 3a bf 43 05 99 3e 43 0a e9 bc c1 d8 e0 bd
       -0.729631 0.29886827 -0.028447276 -0.109788425
0002b0 03 94 79 3e 0d 8e 32 3d ca ce 48 3e 1e de ac be
       0.24372868 0.0435925 0.19610134 -0.33763212
0002c0 79 2b 9e bd 72 53 a0 bd 51 ad 42 be 05 30 8f bc
       -0.077231355 -0.07828416 -0.19011427 -0.017478952
0002d0 19 f4 46 3e 08 cb 07 3d 5b 21 91 bb 20 85 bf 3d
       0.19429053 0.03315261 -0.004429025 0.093515635
0002e0 0e 56 d9 3d ec 98 b7 3d 8f 54 86 3e ec 28 8f bd
       0.10612117 0.089647144 0.26236388 -0.06990227
0002f0 4c 8e a3 3e f6 15 c4 be f4 4c bc 3d f0 bf 6a 3d
       0.319445 -0.38298005 0.09194365 0.057311952
000300 31 e6 9b 3e f2 68 31 be d2 bb 8d 3e 64 32 0d 3f
       0.3044906 -0.1732519 0.27682358 0.55155015
000310 77 e1 06 be 89 d7 dc 3e 8e da 28 3e 95 2f 53 3d
       -0.13171946 0.4313319 0.16489622 0.05155905
000320 00 a6 93 3e c1 28 23 3e 47 c5 69 be 6b 8d e6 bd
       0.28837585 0.15933515 -0.22829162 -0.11257442
000330 69 a9 33 be f6 ef 26 3e c5 c9 33 3e 53 22 df 3d
       -0.17545094 0.16302475 0.17557438 0.10895219
000340 a6 41 57 be 34 58 cd 3e be 69 5b be c0 78 b7 3d
       -0.21021137 0.40106356 -0.21427056 0.08958578
000350 56 a8 44 3e b4 06 00 3e d7 d8 55 3e 95 7b b1 3c
       0.1920484 0.12502557 0.20883499 0.021665374
000360 de ce 60 3e 0e e0 36 bf e7 b2 1a 3e 38 39 bf 3a
       0.21953914 -0.7143563 0.15107308 0.0014589196
000370 e1 c0 36 3d 01 2e 5a 3e 56 c3 8d 3e 2e f9 22 3e
       0.044617537 0.21306612 0.27688092 0.15915367
000380 36 23 72 3d 83 9e 57 3e c9 48 12 3e 10 12 0c 3e
       0.05911561 0.21056561 0.14285578 0.13678765
000390 5e 83 17 bf 87 bf 10 3e 44 93 11 3f 99 fa f0 be
       -0.59184825 0.14135562 0.56865335 -0.4706619
0003a0 e4 a2 01 3e 1c 2e 48 3e 21 4b 92 be 04 b2 21 be
       0.12659794 0.1954884 -0.28572944 -0.15790564
0003b0 af 99 ef 3e 94 6d 83 3d ed 65 4a bd fd 9c c5 be
       0.4679694 0.06417385 -0.04941361 -0.38596335
0003c0 d8 15 b5 be c9 57 b6 be ea 05 49 3e e0 51 44 bd
       -0.35368228 -0.3561385 0.19631162 -0.047929645
0003d0 ce 93 2b bd a4 ae 82 be 1d 8e 03 bb 72 db a2 3d
       -0.041889004 -0.25523865 -0.002007372 0.07952012
0003e0 29 d9 80 bd 8b 85 bc 3e d3 01 0f 3b ba ed 36 3d
       -0.0629142 0.36820635 0.0021821156 0.044660307
0003f0 0e f8 64 3e 4e dc a4 bd e8 fe ac be b6 ed a9 be
       0.2236025 -0.08049832 -0.33788228 -0.33189172

network_body.linear_encoder.seq_layers.0.bias f4 [128]
000000 00 00 00 00 00 00 00 00 00 00 00 00 00 00 00 00
       0.0 0.0 0.0 0.0
000010 00 00 00 00 00 00 00 00 00 00 00 00 00 00 00 00
       0.0 0.0 0.0 0.0
000020 00 00 00 00 00 00 00 00 00 00 00 00 00 00 00 00
       0.0 0.0 0.0 0.0
000030 00 00 00 00 00 00 00 00 00 00 00 00 00 00 00 00
       0.0 0.0 0.0 0.0
000040 00 00 00 00 00 00 00 00 00 00 00 00 00 00 00 00
       0.0 0.0 0.0 0.0
000050 00 00 00 00 00 00 00 00 00 00 00 00 00 00 00 00
       0.0 0.0 0.0 0.0
000060 00 00 00 00 00 00 00 00 00 00 00 00 00 00 00 00
       0.0 0.0 0.0 0.0
000070 00 00 00 00 00 00 00 00 00 00 00 00 00 00 00 00
       0.0 0.0 0.0 0.0
000080 00 00 00 00 00 00 00 00 00 00 00 00 00 00 00 00
       0.0 0.0 0.0 0.0
000090 00 00 00 00 00 00 00 00 00 00 00 00 00 00 00 00
       0.0 0.0 0.0 0.0
0000a0 00 00 00 00 00 00 00 00 00 00 00 00 00 00 00 00
       0.0 0.0 0.0 0.0
0000b0 00 00 00 00 00 00 00 00 00 00 00 00 00 00 00 00
       0.0 0.0 0.0 0.0
0000c0 00 00 00 00 00 00 00 00 00 00 00 00 00 00 00 00
       0.0 0.0 0.0 0.0
0000d0 00 00 00 00 00 00 00 00 00 00 00 00 00 00 00 00
       0.0 0.0 0.0 0.0
0000e0 00 00 00 00 00 00 00 00 00 00 00 00 00 00 00 00
       0.0 0.0 0.0 0.0
0000f0 00 00 00 00 00 00 00 00 00 00 00 00 00 00 00 00
       0.0 0.0 0.0 0.0
000100 00 00 00 00 00 00 00 00 00 00 00 00 00 00 00 00
       0.0 0.0 0.0 0.0
000110 00 00 00 00 00 00 00 00 00 00 00 00 00 00 00 00
       0.0 0.0 0.0 0.0
000120 00 00 00 00 00 00 00 00 00 00 00 00 00 00 00 00
       0.0 0.0 0.0 0.0
000130 00 00 00 00 00 00 00 00 00 00 00 00 00 00 00 00
       0.0 0.0 0.0 0.0
000140 00 00 00 00 00 00 00 00 00 00 00 00 00 00 00 00
       0.0 0.0 0.0 0.0
000150 00 00 00 00 00 00 00 00 00 00 00 00 00 00 00 00
       0.0 0.0 0.0 0.0
000160 00 00 00 00 00 00 00 00 00 00 00 00 00 00 00 00
       0.0 0.0 0.0 0.0
000170 00 00 00 00 00 00 00 00 00 00 00 00 00 00 00 00
       0.0 0.0 0.0 0.0
000180 00 00 00 00 00 00 00 00 00 00 00 00 00 00 00 00
       0.0 0.0 0.0 0.0
000190 00 00 00 00 00 00 00 00 00 00 00 00 00 00 00 00
       0.0 0.0 0.0 0.0
0001a0 00 00 00 00 00 00 00 00 00 00 00 00 00 00 00 00
       0.0 0.0 0.0 0.0
0001b0 00 00 00 00 00 00 00 00 00 00 00 00 00 00 00 00
       0.0 0.0 0.0 0.0
0001c0 00 00 00 00 00 00 00 00 00 00 00 00 00 00 00 00
       0.0 0.0 0.0 0.0
0001d0 00 00 00 00 00 00 00 00 00 00 00 00 00 00 00 00
       0.0 0.0 0.0 0.0
0001e0 00 00 00 00 00 00 00 00 00 00 00 00 00 00 00 00
       0.0 0.0 0.0 0.0
0001f0 00 00 00 00 00 00 00 00 00 00 00 00 00 00 00 00
       0.0 0.0 0.0 0.0

network_body.linear_encoder.seq_layers.2.weight f4 [128, 128]
000000 ef 51 eb bb a5 98 fa bd 92 74 46 bd 39 b2 28 bd
       -0.007181398 -0.12236146 -0.048451014 -0.04118559
000010 ac ca 95 ba a4 8b fe 3d 1b 29 71 3d 84 0d c9 3d
       -0.0011428199 0.12428978 0.05887709 0.09817031
000020 bc 0d 7d bd 31 b2 72 bd 18 69 ac bb 32 21 a0 bd
       -0.061780676 -0.059251968 -0.0052615516 -0.078188315
000030 41 7d 8d bd 57 27 04 3d 22 7d 1c be 2f 39 4c bd
       -0.06908656 0.03226408 -0.1528211 -0.049859222
000040 5a 94 67 3d 4b eb 72 3d a6 c3 79 3d d4 c7 2e 3e
       0.056537963 0.059306424 0.0609776 0.17068416
000050 c2 37 3c bd 1e c2 cc 3b 89 ce bb bd 6a 9a 2d be
       -0.045951612 0.0062487265 -0.09170253 -0.16953436
000060 51 d3 f9 bd 8b 93 5e bd 58 40 bc bc c4 92 ae bd
       -0.121985085 -0.054339927 -0.0229799 -0.08524087
000070 b9 eb e1 3d dc 9c 6a 3c 3e 76 d3 bd e9 34 b2 3d
       0.11031289 0.014319625 -0.10325287 0.08701498
000080 86 b2 fb bd 4d 73 0b 3d 4d dd a1 bd 6a 29 42 3e
       -0.1228991 0.034045506 -0.07903538 0.1896111
000090 1a 19 94 bd 4d be 0d 3e 0f 82 e4 3d 3a c1 fe 3d
       -0.0723135 0.13842125 0.11157619 0.12439199
0000a0 ea 64 08 3e de 9f a6 3d 22 bb ec bd bc cc 8c bd
       0.13319746 0.08135961 -0.1155913 -0.068749875
0000b0 e0 43 21 be c4 ea 0c 3d 84 91 9a 3b f6 0b 1f bd
       -0.15748549 0.034403577 0.004717054 -0.038829766
0000c0 5e 03 04 3e 50 a5 b6 bd 6c fa 49 3e a6 19 94 bc
       0.1289191 -0.089182496 0.19724435 -0.018078636
0000d0 26 c9 9d 3c 78 7a 79 bd 62 3d 09 3e 54 d2 02 3e
       0.019260954 -0.06090781 0.13402322 0.12775546
0000e0 73 83 f4 3c 9f 43 ac 3d c1 db 2c bd c8 cc 19 3e
       0.029847836 0.08411335 -0.04220176 0.15019524
0000f0 de 2b 7f 3e a6 5c 18 be bb 62 a0 bd f9 a7 0f be
       0.24919078 -0.14879093 -0.07831331 -0.1402892
000100 a2 75 43 3d cc 8c 3a bd 34 d2 13 3d bd ef 88 bc
       0.047719605 -0.04554443 0.036089137 -0.016715879
000110 01 8d db bd a9 22 f0 3d 53 4e 0d 3e 08 3a e9 bc
       -0.10720254 0.11725361 0.1379941 -0.028470054
000120 f2 a5 ec 3c a5 34 60 3d 15 c3 57 bd e2 59 70 3d
       0.028887723 0.054737706 -0.05267628 0.05867947
000130 42 8f 46 3d aa be f5 bd 7c e2 73 3d 8c da 96 3c
       0.048476465 -0.11999257 0.059542164 0.018414758
000140 00 a0 cd bc 88 68 77 bd 3a 2b 1d be 3e 2a d2 3d
       -0.025100708 -0.060402423 -0.15348521 0.10261963
000150 c5 3e 82 3e ae f8 2e be 09 ce 11 be 00 e0 42 bc
       0.25438514 -0.17087051 -0.14238752 -0.011894226
000160 9d e9 c8 3d 96 8f ec 3d 72 f5 a8 bc 98 c9 ec 3c
       0.09810183 0.11550824 -0.02062485 0.028904721
000170 e3 54 b9 3d b9 c0 1d 3e df 65 0e 3d 33 c3 ca 3c
       0.09049394 0.15405549 0.03476512 0.024751281
000180 8d 12 52 3c 4d 31 6c 3c ef 4f 01 3e ef 89 80 3d
       0.012821806 0.014416051 0.12628148 0.06276309
000190 f0 e0 6f 3c e7 d9 25 bd f9 66 a8 bb d8 24 ab bc
       0.014641032 -0.04049101 -0.0051392284 -0.020891592
0001a0 bd 1b 5c 3e cf 21 14 3e 3f d6 93 be 37 ee d7 3d
       0.21494956 0.14466022 -0.28874394 0.10543483
0001b0 be 71 a0 bc da cc 76 ba 2a 83 65 3d 1b 7c 7f bd
       -0.019585487 -0.00094146805 0.05603329 -0.062374216
0001c0 88 1f 2c be cf ef 8b bd 9e 6b c9 bc 28 56 36 ba
       -0.16808903 -0.06832849 -0.024587449 -0.00069555873
0001d0 68 55 33 3d f9 98 ef bd 50 64 12 3e 17 4a c6 3d
       0.04378262 -0.11699099 0.14296079 0.096821
0001e0 af cd fe bd c6 c0 0d be 3d 6d 68 bd a2 03 ec bb
       -0.12441575 -0.13843068 -0.056744803 -0.0072025815
0001f0 4a 9e f5 3c c2 11 3c bd 9c 64 d0 3c 76 b6 26 3d
       0.029982705 -0.045915373 0.0254386 0.040701352
000200 30 3a 89 3d d3 85 86 3d 8a 4b cd bd d5 2b a4 3b
       0.067005515 0.06568494 -0.100241736 0.005010108
000210 1b b3 01 3e a5 a2 d5 3d 6c c0 18 bc bd 00 00 be
       0.1266598 0.104314126 -0.009323221 -0.12500282
000220 18 e9 9b bb 68 0f 0e 3e e9 f8 a4 bd cc 9e a8 3d
       -0.0047580115 0.13873065 -0.08055288 0.08233413
000230 53 21 6d 3d 20 cf e9 3d b8 fd 83 bc 11 20 35 bd
       0.05789311 0.11416459 -0.016112193 -0.044220034
000240 f4 1c 89 bc 8a 69 0c 3d 17 62 6a bd 5d eb 1f 3e
       -0.016737439 0.034280337 -0.057222452 0.15617128
000250 08 25 05 3e 42 48 80 3d b2 84 a5 bc 6f 20 98 3c
       0.13002408 0.06263782 -0.020204876 0.018570153
000260 42 ae 89 3d 2c a2 08 3e af 97 dc bc 05 d1 e9 3d
       0.0672269 0.13343114 -0.026927797 0.114168204
000270 ef bd df 3d 91 ee d2 bd 00 1d db bd 8a 79 f8 3d
       0.10924899 -0.10299409 -0.10698891 0.12132557
000280 07 9e 3c bd 4b c2 92 bd 6d 22 35 3a c2 9b b1 3d
       -0.046049144 -0.07165965 0.0006909732 0.086722866
000290 a7 e5 07 be 3c 65 67 bd ec 87 95 3d bb 6d 37 3d
       -0.13271199 -0.05649303 0.07301316 0.04478238
0002a0 b8 dd 0a 3e 6f 4b ad bd d6 3e 45 3d a2 5c d6 bb
       0.13561141 -0.084616534 0.04815563 -0.0065418044
0002b0 4c 69 75 3d 4d c5 72 be de 3c 69 3d 3b 62 71 3d
       0.059914872 -0.23708077 0.056942813 0.05893157
0002c0 79 75 9e bd 14 24 6b bd 8e 63 3c be 86 97 d7 3d
       -0.0773725 -0.057407454 -0.18397352 0.10526948
0002d0 fd b2 98 bd 3d 5a 1d bd db 8f 5c bb 68 ec 00 be
       -0.07456014 -0.038416136 -0.003365508 -0.12590182
0002e0 d8 83 68 3c 3f 2b 21 bd b7 b4 2d be 41 a9 18 3e
       0.01419159 -0.039347883 -0.16963468 0.14908315
0002f0 a6 79 06 3d b5 57 ca 3c 5e 57 2a bc 86 04 41 3d
       0.032830857 0.024700025 -0.0103968065 0.047123455
000300 6b a9 32 3d 0f 0d 05 be 04 71 3c 3e 6a 3b b3 bc
       0.0436186 -0.12993263 0.18402487 -0.021878917
000310 1e 8e 39 3e f7 d6 9b bb 89 8d 00 3d 66 0a 52 bd
       0.1812062 -0.0047558504 0.03138498 -0.051279448
000320 2c 63 fb 3b 8c 78 6a bd 85 b6 f9 3d d2 ae 12 3d
       0.0076717343 -0.05724387 0.12193016 0.035811253
000330 fb 8e 7a 3c c7 2c 21 3d be 91 cf 3d 95 ec 17 3e
       0.015292878 0.039349344 0.1013522 0.14836343
000340 05 79 37 be a9 ca 06 3e 7c 9c 13 3e 17 0f c5 bc
       -0.17917259 0.13163246 0.14415163 -0.024055047
000350 15 95 a8 3d a8 67 95 bc c3 2a 8b 3c 07 5d 24 be
       0.0823156 -0.018237904 0.016988164 -0.16051112
000360 d2 20 11 bc 1a a6 80 3d bf df af bd 7a 9a cc bd
       -0.008857923 0.06281681 -0.08587598 -0.099904016
000370 fb b2 d9 3d 16 ed 18 bc 11 03 cb 3d 4e bd 19 bb
       0.10629841 -0.009333869 0.09912694 -0.0023458782
000380 03 b8 37 bd 37 44 89 3d 23 e1 1c 3e 13 24 1c 3d
       -0.04485322 0.06702464 0.15320258 0.03812034
000390 2c 5a c7 bc b3 71 b7 3d 6e fc c9 bd 51 22 ec bd
       -0.02433499 0.08957233 -0.098626 -0.11529983
0003a0 7c 15 8b bd 35 5d 1a 3c e7 66 0b be 7d 8b c8 bc
       -0.06791207 0.009421636 -0.13613473 -0.024480576
0003b0 0f e1 de b9 6e c6 69 3d 1a 55 36 bd b3 a7 5d bd
       -0.0004251082 0.057074003 -0.044514753 -0.05411501
0003c0 82 63 8d bd 5d 19 43 3d 23 d3 9c bc e7 33 0c be
       -0.06903745 0.04763161 -0.019143647 -0.13691674
0003d0 31 36 d3 3d 18 3d a1 3d d4 2b ae bd 26 f0 81 3c
       0.103130706 0.07872981 -0.08504453 0.015861582
0003e0 4d a3 e7 bc 22 78 50 bc 54 62 a1 bd 91 69 98 bd
       -0.02827611 -0.012723954 -0.07880083 -0.0744201
0003f0 07 99 04 3e 24 f9 06 3e 65 3b 32 3e 30 de 02 3d
       0.12949 0.13180977 0.1740547 0.031950176

network_body.linear_encoder.seq_layers.2.bias f4 [128]
000000 00 00 00 00 00 00 00 00 00 00 00 00 00 00 00 00
       0.0 0.0 0.0 0.0
000010 00 00 00 00 00 00 00 00 00 00 00 00 00 00 00 00
       0.0 0.0 0.0 0.0
000020 00 00 00 00 00 00 00 00 00 00 00 00 00 00 00 00
       0.0 0.0 0.0 0.0
000030 00 00 00 00 00 00 00 00 00 00 00 00 00 00 00 00
       0.0 0.0 0.0 0.0
000040 00 00 00 00 00 00 00 00 00 00 00 00 00 00 00 00
       0.0 0.0 0.0 0.0
000050 00 00 00 00 00 00 00 00 00 00 00 00 00 00 00 00
       0.0 0.0 0.0 0.0
000060 00 00 00 00 00 00 00 00 00 00 00 00 00 00 00 00
       0.0 0.0 0.0 0.0
000070 00 00 00 00 00 00 00 00 00 00 00 00 00 00 00 00
       0.0 0.0 0.0 0.0
000080 00 00 00 00 00 00 00 00 00 00 00 00 00 00 00 00
       0.0 0.0 0.0 0.0
000090 00 00 00 00 00 00 00 00 00 00 00 00 00 00 00 00
       0.0 0.0 0.0 0.0
0000a0 00 00 00 00 00 00 00 00 00 00 00 00 00 00 00 00
       0.0 0.0 0.0 0.0
0000b0 00 00 00 00 00 00 00 00 00 00 00 00 00 00 00 00
       0.0 0.0 0.0 0.0
0000c0 00 00 00 00 00 00 00 00 00 00 00 00 00 00 00 00
       0.0 0.0 0.0 0.0
0000d0 00 00 00 00 00 00 00 00 00 00 00 00 00 00 00 00
       0.0 0.0 0.0 0.0
0000e0 00 00 00 00 00 00 00 00 00 00 00 00 00 00 00 00
       0.0 0.0 0.0 0.0
0000f0 00 00 00 00 00 00 00 00 00 00 00 00 00 00 00 00
       0.0 0.0 0.0 0.0
000100 00 00 00 00 00 00 00 00 00 00 00 00 00 00 00 00
       0.0 0.0 0.0 0.0
000110 00 00 00 00 00 00 00 00 00 00 00 00 00 00 00 00
       0.0 0.0 0.0 0.0
000120 00 00 00 00 00 00 00 00 00 00 00 00 00 00 00 00
       0.0 0.0 0.0 0.0
000130 00 00 00 00 00 00 00 00 00 00 00 00 00 00 00 00
       0.0 0.0 0.0 0.0
000140 00 00 00 00 00 00 00 00 00 00 00 00 00 00 00 00
       0.0 0.0 0.0 0.0
000150 00 00 00 00 00 00 00 00 00 00 00 00 00 00 00 00
       0.0 0.0 0.0 0.0
000160 00 00 00 00 00 00 00 00 00 00 00 00 00 00 00 00
       0.0 0.0 0.0 0.0
000170 00 00 00 00 00 00 00 00 00 00 00 00 00 00 00 00
       0.0 0.0 0.0 0.0
000180 00 00 00 00 00 00 00 00 00 00 00 00 00 00 00 00
       0.0 0.0 0.0 0.0
000190 00 00 00 00 00 00 00 00 00 00 00 00 00 00 00 00
       0.0 0.0 0.0 0.0
0001a0 00 00 00 00 00 00 00 00 00 00 00 00 00 00 00 00
       0.0 0.0 0.0 0.0
0001b0 00 00 00 00 00 00 00 00 00 00 00 00 00 00 00 00
       0.0 0.0 0.0 0.0
0001c0 00 00 00 00 00 00 00 00 00 00 00 00 00 00 00 00
       0.0 0.0 0.0 0.0
0001d0 00 00 00 00 00 00 00 00 00 00 00 00 00 00 00 00
       0.0 0.0 0.0 0.0
0001e0 00 00 00 00 00 00 00 00 00 00 00 00 00 00 00 00
       0.0 0.0 0.0 0.0
0001f0 00 00 00 00 00 00 00 00 00 00 00 00 00 00 00 00
       0.0 0.0 0.0 0.0

value_heads.value_heads.extrinsic.weight f4 [1, 128]
000000 7e c1 e8 bd 2e 76 f9 3c 9a 4f 3e bd 85 a4 2c be
       -0.11365031 0.03045186 -0.046462633 -0.16859634
000010 b8 d7 a9 bd 3d d8 dc 3d 94 67 56 be 6e 38 36 be
       -0.08293098 0.10783432 -0.2093795 -0.17794964
000020 89 41 34 be 62 1b 49 3e 99 77 d0 3d b1 1e 58 be
       -0.17603125 0.19639352 0.101790614 -0.21105458
000030 b4 01 03 3e f6 1e 6b 3b 93 50 5b be eb 91 3b be
       0.12793618 0.0035876608 -0.21417455 -0.18317382
000040 f7 d5 2c 3e 40 67 f8 3d 79 40 09 be b4 b1 a3 3c
       0.16878496 0.121290684 -0.134035 0.019982196
000050 c7 d8 57 3d 48 d3 1d 3e 48 ee 66 bd 4f bd b6 bd
       0.05269697 0.15412629 -0.056379586 -0.089228265
000060 da ce 11 be 6a 75 9a bb 1f 58 0b 3e c8 1c 99 3b
       -0.14239064 -0.004713704 0.13607834 0.0046726204
000070 dc 0e 0d 3e 2e c4 f7 3d b0 88 4a 3e 96 2a e7 3d
       0.137752 0.12097965 0.19778705 0.112874195
000080 e8 05 28 be f9 79 8f 3d dd a9 53 3c 40 e9 80 3c
       -0.16408503 0.07005686 0.0129189165 0.015736222
000090 1b 4c 68 3d fa 63 0d 3e 90 44 02 be 25 e8 59 bd
       0.056713205 0.1380767 -0.12721467 -0.053199906
0000a0 4c 61 f2 3d 6c 84 1c 3d d6 67 e3 bd a4 20 24 be
       0.11834964 0.038212225 -0.111037895 -0.16028076
0000b0 19 20 57 be fc e9 27 3e 8a 53 f7 bd 7f e6 89 3d
       -0.21008338 0.16397852 -0.12076481 0.06733417
0000c0 29 02 3b 3e 5c 73 35 be 66 d0 41 be ec ea 6c 3d
       0.18262543 -0.17719787 -0.18927154 0.057841226
0000d0 8b c9 40 3e e7 f4 e0 3d 7c 5a c0 bd 9d 96 29 3e
       0.18826883 0.109842114 -0.093922585 0.1656136
0000e0 85 87 ad 3d c8 ec 2a be bc e7 17 3d f5 2e cd bd
       0.08473114 -0.16691887 0.037086233 -0.10018722
0000f0 de d1 69 3c bd 69 dc 3d d6 b6 14 be 54 a9 25 3e
       0.014271228 0.107623555 -0.14522871 0.16177875
000100 ae df 41 3d 2e 5c a3 3d f3 dd 4f 3e d5 ff 15 3e
       0.04733246 0.07976566 0.2029951 0.14648373
000110 29 16 87 3d a1 07 2c be f7 09 a8 bd b9 f4 e9 3d
       0.065960236 -0.16799785 -0.08205026 0.1142363
000120 fc f3 3c be 07 87 d0 bd 15 52 1b bd 89 0a 08 3e
       -0.18452448 -0.101820044 -0.037920076 0.13285269
000130 00 bb 13 be 23 52 27 3e 28 dc ca bb 2c 81 bd 3d
       -0.14426804 0.16339926 -0.0061907955 0.09253153
000140 68 79 b2 3d d0 59 ce bd 92 a7 58 3e f6 9d 39 be
       0.08714563 -0.10075724 0.21157673 -0.18126664
000150 32 f7 f2 bd 38 16 de bd f5 c3 56 3e db 91 f3 bd
       -0.11863555 -0.10844082 0.20973189 -0.11893054
000160 ef 7a 12 3e 4b 7e d9 bc 96 ea 49 3d 26 45 2e 3e
       0.14304708 -0.026549479 0.049295984 0.17018566
000170 97 6c 0f bd 3e 6b 56 3e e4 74 73 3d 21 62 eb bd
       -0.03501567 0.20939347 0.059437647 -0.11493326
000180 2e 4d 4c be 9e 5c 24 3d 6d 27 a5 3d e3 c2 05 be
       -0.19951317 0.04012739 0.080641605 -0.13062625
000190 9c ef 11 3d 78 65 02 3c a2 7a df bd 47 a1 54 be
       0.0356289 0.007958762 -0.10912062 -0.20764647
0001a0 5a 86 54 bd 5f ab 0d 3d 68 f6 ec 3b f4 00 eb bd
       -0.05188594 0.03458726 0.0072315224 -0.11474791
0001b0 78 68 f1 bd bb cf e2 3d 64 3c 21 bc 3f 17 20 bd
       -0.11787504 0.11074778 -0.009841058 -0.03908467
0001c0 d7 5a 44 3d 8e 91 93 3d f1 81 bc bc 5e e9 8e bd
       0.047938194 0.07205497 -0.02301118 -0.06978105
0001d0 3b 26 14 be bc 0b 50 3e a3 6f 6d 3d 67 4b 03 3e
       -0.14467709 0.20316976 0.057967793 0.12821732
0001e0 04 2c be 3d e5 9d e3 3d 0c db ee 3d d9 cc 53 3e
       0.09285739 0.111141 0.116628736 0.20683612
0001f0 77 51 46 3e 04 88 d8 3d 4c a0 e1 bd 88 ff 06 be
       0.19367014 0.10572818 -0.11016902 -0.13183415
