results/ppo/My Behavior/My Behavior-9216.onnx (onnx, 74487 bytes, 7 tensors)

action_model._continuous_distribution.log_sigma f4 [1, 2]
000000 00 00 00 00 00 00 00 00
       0.0 0.0

action_model._continuous_distribution.mu.bias f4 [2]
000000 00 00 00 00 00 00 00 00
       0.0 0.0

action_model._continuous_distribution.mu.weight f4 [2, 128]
000000 7a 34 07 3d 9b 76 c3 3a 4b ee 1e 3b 25 c3 de bb
       0.03300903 0.0014912667 0.002425092 -0.0067981654
000010 fe 5b 10 bb ad 1a a6 3b c8 fc f7 ba b5 2e fa 3c
       -0.0022027488 0.005069098 -0.0018919939 0.03053985
000020 32 04 c3 bc 70 fe d8 bc b0 67 3c bc 0c bc 9a bc
       -0.023805711 -0.026488513 -0.01149933 -0.018888496
000030 27 39 87 3a bb 63 cd bc 05 ef 72 3b 5f 33 a2 bb
       0.0010316715 -0.02507197 0.0037068736 -0.0049499716
000040 83 92 24 3c 53 d8 d3 3b 02 ad d6 bb c3 79 60 3c
       0.010044697 0.006464997 -0.006551386 0.013700905
000050 7f e6 f8 bb b0 fa 2e bb 1b 9a 28 bb 72 24 62 bc
       -0.0075958367 -0.0026699714 -0.002572662 -0.013802635
000060 ec 04 ac bb d8 10 2c 3c 20 8e 50 bc 10 05 e6 39
       -0.00524961 0.010502063 -0.012729198 0.0004387279
000070 4e ae a8 bc 5f a8 06 3b b3 53 8d 3c 1b 2a 0e bd
       -0.020590927 0.0020547134 0.017251825 -0.034708124
000080 e5 3c f8 bb b7 32 ac 3c 13 8d 2b 3c 65 77 3b 3c
       -0.0075756186 0.021020276 0.010470646 0.01144204
000090 ba 8c ee bc ca 52 05 3c 21 9f a0 3b 51 70 ae 3b
       -0.029119838 0.008137414 0.004901782 0.0053234478
0000a0 a8 7b f1 3b 63 f8 ad 3c 4b de e6 bb d3 b0 8b bb
       0.0073694773 0.021236604 -0.0070455424 -0.0042630224
0000b0 23 f7 0e 3c 47 b5 37 3c df 77 b9 bb c3 2e ee 3c
       0.008725914 0.0112126535 -0.0056600417 0.029075032
0000c0 12 63 bb 3b b8 1a b4 3c fe 62 13 bd aa ae bd 3b
       0.005718597 0.021985397 -0.03598308 0.005788644
0000d0 4f 89 c7 bc 8b 3f 55 3c 67 d1 bc bb f0 03 77 3b
       -0.024357466 0.013015638 -0.0057622674 0.0037691556
0000e0 f3 48 62 3c 66 b2 8a bc 20 02 99 3c 0f 3d e9 bc
       0.013811338 -0.01693077 0.018677771 -0.028471498
0000f0 e4 11 80 bb 62 b8 ce bc 8d 47 e2 3c 43 5e 3e 3c
       -0.0039083827 -0.025234405 0.027622009 0.011619153
000100 1f f5 02 bb b7 c9 82 3b 8b ab 16 bc ba 9d a0 bc
       -0.001998253 0.0039913314 -0.0091961725 -0.01960646
000110 d8 67 d1 3c 84 ba 02 bc 4f fc 29 3c 36 bd c4 3b
       0.025562212 -0.007979039 0.010375096 0.006004001
000120 0c df 1d 3b a8 d1 77 bc 36 55 9d bc 07 a9 06 bd
       0.0024089245 -0.01512567 -0.01920567 -0.03287604
000130 4d 47 68 bc e4 90 11 3b 13 58 9d ba 44 30 aa bc
       -0.014177156 0.0022211606 -0.0012004398 -0.020774968
000140 a7 ca 13 3c 82 0e c1 3b ee 31 ad bc 7d 09 e7 3b
       0.009020484 0.005891622 -0.021141972 0.0070506916
000150 c3 5d 42 bb 11 7b 90 3b 97 a1 f3 3c 2d f9 e3 bc
       -0.0029657937 0.004409202 0.029740138 -0.027828777
000160 a5 5f 54 bc 40 87 f3 3c 5e b2 36 39 d0 45 ab bc
       -0.012962257 0.029727578 0.0001742332 -0.020907313
000170 bf 61 8a 3c dc 80 36 bd 6f 14 91 3b 98 e2 9c 3b
       0.016892312 -0.044556484 0.0044274847 0.0047877543
000180 88 12 f1 b9 c0 06 47 bc 9c b7 40 3c e0 46 25 bc
       -0.0004598091 -0.012147605 0.011762526 -0.010087699
000190 5f 40 fa 3b cd 85 8b bc 7d 64 1f 38 83 d4 cc 3b
       0.007637068 -0.017031575 3.800214e-05 0.0062509193
0001a0 a8 11 56 3b f0 95 61 bc 8a e6 e4 bc 8a 68 68 3c
       0.0032664333 -0.013768658 -0.02794196 0.01418508
0001b0 57 7f d3 bb 43 da f8 bb 4b 4f f2 3c c9 d9 b0 39
       -0.006454389 -0.007594378 0.029578825 0.00033731599
0001c0 90 cd 17 3c 91 00 3b 3b ed 58 fc 3a f9 2a 9c 3b
       0.0092653185 0.0028534273 0.0019252576 0.004765865
0001d0 54 07 b9 bc e7 81 a2 bc c8 dc e0 3c 52 04 ec bc
       -0.022586502 -0.019837333 0.027449027 -0.028810654
0001e0 1b e2 f1 3c 67 b5 a4 39 6a 2c ad b9 0f c0 b5 bc
       0.02952676 0.00031415673 -0.00033030222 -0.022186307
0001f0 c0 cc cf bc aa ae 2d bc 9d 12 27 3c f7 26 5a bb
       -0.025366187 -0.010600725 0.010197309 -0.0033287385
000200 c0 02 06 3c 1b c6 b7 bb f3 f2 65 bc 9f e7 ae 3c
       0.008179367 -0.005608333 -0.014034974 0.02135068
000210 f9 a7 3f 3c 8b fc b0 3c dd e3 eb bc 2b ff 04 bd
       0.011697763 0.021604797 -0.028795177 -0.03246991
000220 a7 9e 5b 3d 88 a1 48 bc 15 1b 24 3a 4a 94 c6 3c
       0.0536181 -0.012245543 0.0006260139 0.024240632
000230 52 f0 95 bb e7 5d b2 3c 82 ef 57 3c f2 46 ab bb
       -0.0045757676 0.021773292 0.013179662 -0.005226963
000240 92 5a 09 bc d0 1a 03 3d 30 c8 99 bc d8 27 fc 3a
       -0.00838341 0.032007992 -0.018772215 0.0019237949
000250 b6 ff 08 3c 20 88 5a 3b 6a 3e 56 bb 60 cb e9 3a
       0.0083617475 0.0033345297 -0.003269101 0.00178371
000260 fa 8c f8 bc ce 6f 23 3d 7b 99 0c 3c 38 e2 ce bb
       -0.03034066 0.039901547 0.0085815145 -0.0063135885
000270 68 d4 ec 3c a6 07 23 3d c7 c9 28 3c 5b 6d 64 bc
       0.028909877 0.039802216 0.010302014 -0.013942088
000280 a8 d0 4f bc 55 fe 5f 3c 63 3a 01 3d 57 01 a1 3c
       -0.012684025 0.013671477 0.031549823 0.01965396
000290 a3 da 71 ba db e6 e2 3b c4 56 8e bc 43 04 c6 3c
       -0.0009226 0.006924493 -0.017375357 0.024171954
0002a0 73 b8 d1 bb ff 51 0a 3c 6b b0 b9 3c 1f 6d 45 3a
       -0.006400162 0.008442401 0.02266713 0.0007531214
0002b0 18 bd 05 3c 4f 2f 8b 3c 7b f8 e2 bb 7d 1b b2 3c
       0.008162759 0.016990332 -0.006926594 0.021741623
0002c0 8b c2 97 bc 6f 63 62 3c 9a 2b ef ba 87 d5 03 bc
       -0.018525383 0.013817652 -0.0018247247 -0.008046514
0002d0 79 6a 9a bc c0 e5 29 bc 3d 3d a7 3c aa 5b 8e bc
       -0.018849598 -0.010369718 0.020414943 -0.017377693
0002e0 37 c2 b4 3a ea 72 30 bc 66 b0 1b bb d0 88 98 b9
       0.0013790791 -0.010769585 -0.0023756265 -0.00029093632
0002f0 d1 01 0a 3a 87 25 14 bd 88 7c 9d 3c ee c6 c4 bc
       0.0005264553 -0.0361686 0.01922442 -0.024020638
000300 ee cb c0 ba 3b c9 96 3c db 28 6c 3c ca b5 6c bc
       -0.0014709213 0.018406501 0.014414038 -0.014447639
000310 7f 1a b2 bc 67 3f 63 3c a7 84 eb bc ac 91 39 3c
       -0.02174115 0.013870097 -0.028749777 0.011326235
000320 85 5b 56 3c 95 3c ce 3c 87 8f 61 3c 2b ed 7d bb
       0.013083343 0.025175372 0.01376713 -0.00387461
000330 10 c7 aa bc 3f 8b 15 3b 7f 24 0f bc 62 87 5f bc
       -0.020846874 0.0022818593 -0.008736729 -0.013643118
000340 60 ab 05 bd 62 37 b3 bb c4 5d 3c bb 87 5d 38 bc
       -0.03263414 -0.0054692486 -0.0028742412 -0.011252767
000350 62 61 e9 3b 84 5a 3c bd 74 7d 8a 3b 37 af e2 bc
       0.0071222046 -0.04598476 0.004226381 -0.02767144
000360 5b 88 a2 3c bd 24 15 3c 86 25 3a 3d 05 56 d3 3a
       0.01984041 0.009102997 0.04544594 0.0016123658
000370 90 2a 59 bc 67 8c 69 bc 34 4e 8c 3c bb 8a 04 3c
       -0.013254777 -0.014254666 0.017127134 0.008089717
000380 dd 4a f6 3b fb 38 1c 3c 00 92 6e bc 0f 9c 09 bc
       0.0075162486 0.00953507 -0.014561176 -0.008399024
000390 76 60 9d bc 3f 07 a2 3c ab 25 16 3d ec e1 99 3c
       -0.019211035 0.019778846 0.036657017 0.018784486
0003a0 42 3e 95 bc 04 c5 84 bc b8 9f 0a bc 96 b0 1e 3d
       -0.018218163 -0.016207226 -0.0084609315 0.038742624
0003b0 5f 28 cc 3b f5 1a ef bb 7b 36 2b 3b c3 ad 53 3c
       0.0062303985 -0.0072969147 0.0026125002 0.012919846
0003c0 2a fc 1b 3a 82 94 6c 3c 58 b5 e0 bc b3 e0 e3 bb
       0.0005950356 0.014439704 -0.027430221 -0.0069542765
0003d0 6b 31 3a bc 0f fc 0f 3c 42 77 25 ba 6a 66 06 3a
       -0.011364321 0.008788123 -0.0006312021 0.0005126955
0003e0 67 3d 51 bc 43 65 bc bc cf c1 07 3c a4 91 cc 3c
       -0.012770987 -0.022997504 0.008285954 0.02497179
0003f0 7f 3d 30 bc 53 c3 7d bc 94 b3 9e 3c 40 6b 99 bb
       -0.010756849 -0.015488463 0.019372739 -0.0046819746

network_body.linear_encoder.seq_layers.0.bias f4 [128]
000000 00 00 00 00 00 00 00 00 00 00 00 00 00 00 00 00
       0.0 0.0 0.0 0.0
000010 00 00 00 00 00 00 00 00 00 00 00 00 00 00 00 00
       0.0 0.0 0.0 0.0
000020 00 00 00 00 00 00 00 00 00 00 00 00 00 00 00 00
       0.0 0.0 0.0 0.0
000030 00 00 00 00 00 00 00 00 00 00 00 00 00 00 00 00
       0.0 0.0 0.0 0.0
000040 00 00 00 00 00 00 00 00 00 00 00 00 00 00 00 00
       0.0 0.0 0.0 0.0
000050 00 00 00 00 00 00 00 00 00 00 00 00 00 00 00 00
       0.0 0.0 0.0 0.0
000060 00 00 00 00 00 00 00 00 00 00 00 00 00 00 00 00
       0.0 0.0 0.0 0.0
000070 00 00 00 00 00 00 00 00 00 00 00 00 00 00 00 00
       0.0 0.0 0.0 0.0
000080 00 00 00 00 00 00 00 00 00 00 00 00 00 00 00 00
       0.0 0.0 0.0 0.0
000090 00 00 00 00 00 00 00 00 00 00 00 00 00 00 00 00
       0.0 0.0 0.0 0.0
0000a0 00 00 00 00 00 00 00 00 00 00 00 00 00 00 00 00
       0.0 0.0 0.0 0.0
0000b0 00 00 00 00 00 00 00 00 00 00 00 00 00 00 00 00
       0.0 0.0 0.0 0.0
0000c0 00 00 00 00 00 00 00 00 00 00 00 00 00 00 00 00
       0.0 0.0 0.0 0.0
0000d0 00 00 00 00 00 00 00 00 00 00 00 00 00 00 00 00
       0.0 0.0 0.0 0.0
0000e0 00 00 00 00 00 00 00 00 00 00 00 00 00 00 00 00
       0.0 0.0 0.0 0.0
0000f0 00 00 00 00 00 00 00 00 00 00 00 00 00 00 00 00
       0.0 0.0 0.0 0.0
000100 00 00 00 00 00 00 00 00 00 00 00 00 00 00 00 00
       0.0 0.0 0.0 0.0
000110 00 00 00 00 00 00 00 00 00 00 00 00 00 00 00 00
       0.0 0.0 0.0 0.0
000120 00 00 00 00 00 00 00 00 00 00 00 00 00 00 00 00
       0.0 0.0 0.0 0.0
000130 00 00 00 00 00 00 00 00 00 00 00 00 00 00 00 00
       0.0 0.0 0.0 0.0
000140 00 00 00 00 00 00 00 00 00 00 00 00 00 00 00 00
       0.0 0.0 0.0 0.0
000150 00 00 00 00 00 00 00 00 00 00 00 00 00 00 00 00
       0.0 0.0 0.0 0.0
000160 00 00 00 00 00 00 00 00 00 00 00 00 00 00 00 00
       0.0 0.0 0.0 0.0
000170 00 00 00 00 00 00 00 00 00 00 00 00 00 00 00 00
       0.0 0.0 0.0 0.0
000180 00 00 00 00 00 00 00 00 00 00 00 00 00 00 00 00
       0.0 0.0 0.0 0.0
000190 00 00 00 00 00 00 00 00 00 00 00 00 00 00 00 00
       0.0 0.0 0.0 0.0
0001a0 00 00 00 00 00 00 00 00 00 00 00 00 00 00 00 00
       0.0 0.0 0.0 0.0
0001b0 00 00 00 00 00 00 00 00 00 00 00 00 00 00 00 00
       0.0 0.0 0.0 0.0
0001c0 00 00 00 00 00 00 00 00 00 00 00 00 00 00 00 00
       0.0 0.0 0.0 0.0
0001d0 00 00 00 00 00 00 00 00 00 00 00 00 00 00 00 00
       0.0 0.0 0.0 0.0
0001e0 00 00 00 00 00 00 00 00 00 00 00 00 00 00 00 00
       0.0 0.0 0.0 0.0
0001f0 00 00 00 00 00 00 00 00 00 00 00 00 00 00 00 00
       0.0 0.0 0.0 0.0

network_body.linear_encoder.seq_layers.0.weight f4 [128, 9]
000000 8c 30 91 3e a0 5b 76 be 4b 47 a7 bd 40 52 1a 3e
       0.2835735 -0.2405839 -0.08167895 0.15070438
000010 02 99 3f bf 86 64 3e 3e 4d fb 0e 3d c3 44 ff 3e
       -0.74842846 0.18593034 0.034907628 0.4985715
000020 fb af 64 be fa e4 23 3e c1 af 10 bf ce cd 9d be
       -0.22332756 0.16005316 -0.5651818 -0.3082108
000030 b6 15 d2 3e fa 6c b1 3e 53 1e 7d be 70 00 24 3e
       0.4103219 0.34653455 -0.24718599 0.16015792
000040 0f 0a d9 3d 32 90 7d be 8c a4 05 bf 78 b4 14 3f
       0.10597622 -0.24762037 -0.52204204 0.58087873
000050 44 46 ab be 06 d8 bb 3d 73 0f 2f be c8 a7 f1 be
       -0.33452046 0.091720626 -0.17095737 -0.4719832
000060 ba 49 80 3d 58 7c a3 3c de f3 11 bf 82 99 46 be
       0.06264062 0.019956753 -0.57012737 -0.19394496
000070 46 1b c4 be 10 78 9d be aa d2 3d 3f ca ac 16 3f
       -0.38302058 -0.30755663 0.7414957 0.58857405
000080 7e a2 ad bd d7 4a 33 be 79 c9 1e 3f 41 05 01 3f
       -0.084782586 -0.17509018 0.6202617 0.5039864
000090 0c 0b ac be 59 78 a1 3e e6 88 3d 3e 83 11 c1 bd
       -0.33602178 0.3153713 0.18509254 -0.09427168
0000a0 02 03 24 3e 1b 96 4c 3e c6 16 ea bd 40 d7 11 be
       0.16016772 0.19979136 -0.11430125 -0.14242268
0000b0 98 5c 62 3e 47 7d d4 be 42 7a fb bd cf e6 24 be
       0.22105634 -0.4150183 -0.12279178 -0.16103671
0000c0 c7 77 d8 bd 7f 5f d9 bc 58 43 17 bf 18 f2 8e bd
       -0.10569721 -0.026534794 -0.59087133 -0.069797695
0000d0 e7 a1 d3 bb 6b a0 27 bd 05 f9 a5 3d 57 e9 cd be
       -0.0064585092 -0.04092447 0.08104137 -0.40217087
0000e0 7a 31 27 bf 94 81 d0 be da 3c 12 3e 44 71 71 3e
       -0.6530987 -0.4072386 0.14281026 0.23578364
0000f0 77 06 bf be f3 e7 98 3a e7 56 bd bd 42 0e 2a bf
       -0.3730962 0.0011665806 -0.09245091 -0.66428006
000100 9f 05 cc 3e 00 31 eb 3e ce 58 d5 be 5f 04 80 3e
       0.3984804 0.45935822 -0.41669315 0.25003335
000110 3e a6 6b 3e 35 b5 07 3f 9a 9f 20 bf eb 0d 64 be
       0.23012635 0.53010875 -0.6274353 -0.22270934
000120 8f 88 09 3f ec 8e 20 3e cf af 4a 3e 5e 58 79 be
       0.53723997 0.1567952 0.19793628 -0.24350116
000130 28 7c 73 3e 47 8c 5c 3e 64 9e 10 3e 44 91 e9 bd
       0.2377783 0.21537887 0.14122921 -0.1140466
000140 f0 35 e7 bd e6 d4 87 3e a8 1c 3f be 03 2d 78 bd
       -0.11289585 0.26529616 -0.18663275 -0.0605898
000150 99 74 29 3e 82 1c dc ba ab af 02 3f 84 d5 fc 3d
       0.16548385 -0.0016793164 0.510493 0.123454124
000160 c3 07 e3 3e 48 41 21 3f 5b 9c dd 3e 5e a2 3b be
       0.4434186 0.62990236 0.43283352 -0.18323657
000170 9b d4 96 3c ff fe 42 3d b0 17 45 3d 1b 6c 3e bf
       0.018411925 0.047606464 0.048118293 -0.74383706
000180 af ab 3e 3e 9e b2 7d 3e 42 8b 70 be d8 22 60 be
       0.1862018 0.24775168 -0.23490623 -0.21888292
000190 63 44 05 bf f4 d2 2a be ae f0 9e 3d e4 38 a3 be
       -0.52057475 -0.16682035 0.0776075 -0.31879342
0001a0 b4 94 8e bd 3c d3 45 3e a6 15 d3 3c bc 05 74 3c
       -0.069619566 0.19318861 0.025767159 0.014893945
0001b0 86 08 1a be 3f 25 41 be 8a 03 dc 3c 5c b0 e7 bd
       -0.15042314 -0.18861865 0.026857156 -0.11312935
0001c0 d6 1d 96 be fe 8b 14 be 67 0b d1 bd ae c8 92 3e
       -0.29319638 -0.14506528 -0.10207253 0.2866873
0001d0 77 a1 f8 3d 29 79 8d bd 2c 61 02 bf ee 8a 27 3e
       0.12140172 -0.06907875 -0.5092952 0.16361591
0001e0 9e cc c4 3e 1c 9b dd bd dc fe 01 bf a0 7c 93 3e
       0.3843736 -0.108206004 -0.5077951 0.2880602
0001f0 5c b9 55 3e c0 d8 06 be e2 f8 9a be ed 22 84 be
       0.2087149 -0.13168621 -0.30268008 -0.25807896
000200 fe 58 1d be c7 cd 95 3e 93 48 7c be 06 74 1d bf
       -0.15365979 0.29258558 -0.2463706 -0.6150516
000210 12 a4 41 be ac 16 11 3e 90 0a 49 3f af 94 b3 bd
       -0.18910244 0.14168805 0.7853174 -0.087685935
000220 1e 0c 09 3f 83 70 d6 be 57 87 c1 3e b7 7c e4 3d
       0.53534114 -0.41882715 0.3779857 0.111566
000230 b6 29 f8 3e 00 33 97 be 43 31 e6 3e c6 bc cf bd
       0.48469323 -0.29531097 0.4495946 -0.101434276
000240 54 92 6e 3e 8d f8 19 3e d4 c0 6c 3e de 4f 01 be
       0.23298007 0.15036221 0.23120433 -0.12628123
000250 10 f7 05 bf 34 91 98 3e d6 c3 8b 3e 08 31 5b 3f
       -0.5233011 0.2979828 0.27297848 0.8562169
000260 b7 d0 f7 3e be ba 04 bb 92 06 f7 3e d0 bc d5 3c
       0.48401424 -0.0020252909 0.482472 0.02609101
000270 0f c5 e5 3e 86 8a 17 bf 42 3d 0f bc 0a 3f fe be
       0.44876906 -0.59195745 -0.008742632 -0.4965747
000280 04 e0 a8 3e 2e 16 e1 3e 76 ba f9 be 88 84 cb be
       0.3298341 0.43962234 -0.4877507 -0.3974955
000290 f2 8b 5d bd 2c 48 53 3e 46 84 9c be 14 a9 27 3f
       -0.05408854 0.20633 -0.30569667 0.6549237
0002a0 3c 06 87 be b0 b1 c3 3e bb 78 ce 3e 9f 31 8a 3d
       -0.26371944 0.38221502 0.40326485 0.06747746
0002b0 ed 1c 0c be 82 60 26 3c 97 49 b7 be 58 16 3a 3b
       -0.1368291 0.010154845 -0.35798332 0.0028394666
0002c0 3e 25 e0 3e ee 7d 1c be 84 ac 01 bf 17 02 f2 3e
       0.43778414 -0.15282413 -0.5065386 0.4726722
0002d0 78 ed 8f bd 77 6b 96 3e 72 72 90 3a 18 5f 0f 3d
       -0.070277154 0.29378864 0.0011020435 0.035002798
0002e0 1b d9 b1 3e fe bf ad 3e 28 60 25 3b 61 16 a9 be
       0.3473595 0.3393554 0.0025234316 -0.33024886
0002f0 ce e4 c5 be 72 e6 d1 bd 9b 66 b0 3e f8 8c 9e be
       -0.38651127 -0.10249032 0.34453282 -0.30966926
000300 24 47 a9 3e 9b 5e c6 3b e6 6e ab be da b6 27 bf
       0.33062088 0.0060537583 -0.33483046 -0.65513384
000310 bd cf 82 3e a4 13 83 3e d4 3f 70 be 70 32 64 be
       0.25549117 0.25600922 -0.23461848 -0.22284865
000320 6c 8a 52 3e 04 4e 73 3e c5 d7 0b bf 8e 07 03 3d
       0.20560616 0.2376023 -0.54626113 0.031989627
000330 73 96 63 3e 27 5d 7c 3e a2 40 bc 3e ff 50 0e bf
       0.2222536 0.2464491 0.3676806 -0.5559234
000340 c6 1e d9 be 3e 0d f2 be 66 be 09 bc 36 6c da bd
       -0.4240629 -0.47275728 -0.008407211 -0.10665171
000350 8c f3 04 3f aa d2 bd bc 88 8d df be da be d2 3e
       0.51934123 -0.023171742 -0.43662667 0.41161233
000360 b0 41 96 be 10 3b c5 be 50 49 46 3e 74 3a 2b 3e
       -0.2934699 -0.38521624 0.19363904 0.16721517
000370 7f 85 8c 3e 56 f2 08 3f e9 b7 12 be 18 65 46 3e
       0.274456 0.53494775 -0.14327969 0.19374502
000380 8a 59 c5 3c 77 16 7e 3e ea e5 c7 be c8 93 7b be
       0.024090547 0.24813257 -0.39042598 -0.24568093
000390 10 41 af 3e 3c 28 37 bf 84 98 a4 3e 0f 07 91 be
       0.34229326 -0.7154577 0.3214761 -0.28325698
0003a0 d4 f8 9f bd 5c a7 da be ff 5e 8b 3e 10 55 c8 bb
       -0.07811132 -0.4270581 0.27220914 -0.006113656
0003b0 8c 16 f6 bc 0d 99 8e be da 96 a7 3d 5f 45 dd 3e
       -0.030040048 -0.27851143 0.081830695 0.43216988
0003c0 5b 45 b3 be 17 87 ac 3e d4 eb 27 3f 55 a9 15 3e
       -0.35013852 0.33696815 0.6559422 0.14615376
0003d0 ac 8a 0a bf fb 31 dd bd 0f 83 33 be b8 87 88 3e
       -0.54117846 -0.10800549 -0.17530464 0.26666045
0003e0 66 ca cf 3e ca dd 6e bd be 7e 35 bd 04 c2 02 3e
       0.40584105 -0.058316983 -0.044310324 0.12769324
0003f0 91 98 a7 be 92 eb b2 be 4e eb b1 3e 32 c5 75 3d
       -0.32733586 -0.3494535 0.34749836 0.060002513

network_body.linear_encoder.seq_layers.2.bias f4 [128]
000000 00 00 00 00 00 00 00 00 00 00 00 00 00 00 00 00
       0.0 0.0 0.0 0.0
000010 00 00 00 00 00 00 00 00 00 00 00 00 00 00 00 00
       0.0 0.0 0.0 0.0
000020 00 00 00 00 00 00 00 00 00 00 00 00 00 00 00 00
       0.0 0.0 0.0 0.0
000030 00 00 00 00 00 00 00 00 00 00 00 00 00 00 00 00
       0.0 0.0 0.0 0.0
000040 00 00 00 00 00 00 00 00 00 00 00 00 00 00 00 00
       0.0 0.0 0.0 0.0
000050 00 00 00 00 00 00 00 00 00 00 00 00 00 00 00 00
       0.0 0.0 0.0 0.0
000060 00 00 00 00 00 00 00 00 00 00 00 00 00 00 00 00
       0.0 0.0 0.0 0.0
000070 00 00 00 00 00 00 00 00 00 00 00 00 00 00 00 00
       0.0 0.0 0.0 0.0
000080 00 00 00 00 00 00 00 00 00 00 00 00 00 00 00 00
       0.0 0.0 0.0 0.0
000090 00 00 00 00 00 00 00 00 00 00 00 00 00 00 00 00
       0.0 0.0 0.0 0.0
0000a0 00 00 00 00 00 00 00 00 00 00 00 00 00 00 00 00
       0.0 0.0 0.0 0.0
0000b0 00 00 00 00 00 00 00 00 00 00 00 00 00 00 00 00
       0.0 0.0 0.0 0.0
0000c0 00 00 00 00 00 00 00 00 00 00 00 00 00 00 00 00
       0.0 0.0 0.0 0.0
0000d0 00 00 00 00 00 00 00 00 00 00 00 00 00 00 00 00
       0.0 0.0 0.0 0.0
0000e0 00 00 00 00 00 00 00 00 00 00 00 00 00 00 00 00
       0.0 0.0 0.0 0.0
0000f0 00 00 00 00 00 00 00 00 00 00 00 00 00 00 00 00
       0.0 0.0 0.0 0.0
000100 00 00 00 00 00 00 00 00 00 00 00 00 00 00 00 00
       0.0 0.0 0.0 0.0
000110 00 00 00 00 00 00 00 00 00 00 00 00 00 00 00 00
       0.0 0.0 0.0 0.0
000120 00 00 00 00 00 00 00 00 00 00 00 00 00 00 00 00
       0.0 0.0 0.0 0.0
000130 00 00 00 00 00 00 00 00 00 00 00 00 00 00 00 00
       0.0 0.0 0.0 0.0
000140 00 00 00 00 00 00 00 00 00 00 00 00 00 00 00 00
       0.0 0.0 0.0 0.0
000150 00 00 00 00 00 00 00 00 00 00 00 00 00 00 00 00
       0.0 0.0 0.0 0.0
000160 00 00 00 00 00 00 00 00 00 00 00 00 00 00 00 00
       0.0 0.0 0.0 0.0
000170 00 00 00 00 00 00 00 00 00 00 00 00 00 00 00 00
       0.0 0.0 0.0 0.0
000180 00 00 00 00 00 00 00 00 00 00 00 00 00 00 00 00
       0.0 0.0 0.0 0.0
000190 00 00 00 00 00 00 00 00 00 00 00 00 00 00 00 00
       0.0 0.0 0.0 0.0
0001a0 00 00 00 00 00 00 00 00 00 00 00 00 00 00 00 00
       0.0 0.0 0.0 0.0
0001b0 00 00 00 00 00 00 00 00 00 00 00 00 00 00 00 00
       0.0 0.0 0.0 0.0
0001c0 00 00 00 00 00 00 00 00 00 00 00 00 00 00 00 00
       0.0 0.0 0.0 0.0
0001d0 00 00 00 00 00 00 00 00 00 00 00 00 00 00 00 00
       0.0 0.0 0.0 0.0
0001e0 00 00 00 00 00 00 00 00 00 00 00 00 00 00 00 00
       0.0 0.0 0.0 0.0
0001f0 00 00 00 00 00 00 00 00 00 00 00 00 00 00 00 00
       0.0 0.0 0.0 0.0

network_body.linear_encoder.seq_layers.2.weight f4 [128, 128]
000000 9a 52 1e be 8f 42 8f bd 89 ab 99 3b c4 18 78 3d
       -0.15461197 -0.06995117 0.004689638 0.060570493
000010 e0 36 0b be 16 98 dc 3c 70 0a 50 be 33 e9 2b bd
       -0.13595152 0.026927989 -0.20316482 -0.041970443
000020 cb a6 ac bd 34 11 0d 3e c7 ed 25 bc e6 33 01 3e
       -0.08430251 0.13776094 -0.010127491 0.12617454
000030 84 ba 87 3d 4a 36 ba bd 5e de 03 3e e3 14 ba 3b
       0.06627372 -0.09092386 0.12877795 0.0056787594
000040 6a bf b4 bc f7 01 d4 3d e1 d1 e7 bd 47 e1 3c 3d
       -0.02206393 0.10351937 -0.11319328 0.04611328
000050 43 78 d9 3c 28 96 80 bd 33 00 91 bc c6 5b 0e 3e
       0.026546603 -0.0627864 -0.01770029 0.13902196
000060 f3 4a 4e 3d c7 7b a2 3d 4c c2 1e be 87 11 c0 bc
       0.050364446 0.07933765 -0.15503806 -0.023445858
000070 c4 33 e7 3d 3e 37 6b bd 2c 83 f0 3c 02 ac 9d 3b
       0.112891704 -0.05742573 0.029359423 0.0048117647
000080 c2 db 2b bd 73 05 3b bd 72 b1 0c bd 6c 09 1b 3d
       -0.041957624 -0.045659494 -0.034348913 0.037850782
000090 19 f2 f5 bd e5 98 ca bd 3b b4 34 3d 02 df 87 bd
       -0.12009067 -0.098924436 0.044117194 -0.06634332
0000a0 37 d3 48 3e 90 3e 33 3e 84 8b b9 3c 35 ee e0 3c
       0.19611822 0.17504334 0.022649534 0.027457336
0000b0 f6 d5 ef bd 1e 5f 01 bc 14 d1 00 be 1e e8 9d 3d
       -0.11710732 -0.007896213 -0.12579757 0.077102885
0000c0 0a e1 a7 3d ed 74 21 3e ff 93 b3 3c 4f 27 a4 bc
       0.0819722 0.1576726 0.021921156 -0.020038275
0000d0 dd fd 11 be 81 9a b6 bd 22 40 38 be 37 fd b0 bb
       -0.14256997 -0.08916188 -0.17993215 -0.0054012793
0000e0 a4 30 09 bd d3 08 a7 3d eb 9c e3 bd 0f 7e f3 3c
       -0.033493653 0.0815598 -0.11113914 0.029723195
0000f0 e7 80 57 be 5c 11 9b bc 2a ec 52 3c 77 77 16 3e
       -0.21045266 -0.018929176 0.012873689 0.1469401
000100 07 32 43 3d 68 7f c9 3d df 8d 11 be 16 a0 80 bc
       0.04765513 0.09838754 -0.14214276 -0.015701335
000110 22 3c 9a bc b7 eb 48 3e 0c 82 34 3d eb 43 2d 3e
       -0.018827502 0.19621168 0.044069335 0.1692044
000120 91 86 8c bd a6 5a 2c bd bc ef c9 3d 99 9f 00 3e
       -0.06861604 -0.042078637 0.09860179 0.12560882
000130 10 65 fb 3c a2 3c 6d bc 4e 55 84 bc 98 2e 38 3d
       0.030687839 -0.014479788 -0.016153958 0.04496631
000140 4b e4 07 3d 98 37 ad bd 83 f2 06 bb 66 6b 77 bd
       0.0331767 -0.08457869 -0.0020591326 -0.060405158
000150 7d 88 49 3d ed 84 01 3c f0 d5 29 be 66 0e f7 bc
       0.04920243 0.007905227 -0.16585517 -0.030158233
000160 e3 42 98 3c 23 f0 27 3e 17 cf ce 3d 28 16 2c be
       0.018586582 0.16400199 0.10098093 -0.16805327
000170 af 69 eb bc fd 37 29 3e ea 08 12 be 2e 44 17 3e
       -0.028736917 0.16525264 -0.14261213 0.14772102
000180 2a 68 dc bd 31 0c 92 bd a3 98 3c bd d6 bf de bd
       -0.10762055 -0.071312316 -0.046044003 -0.108764336
000190 1a bd 3b 3d 73 08 1c 3c 8b 5a aa 3d da 90 dc bd
       0.04583464 0.009523499 0.08318051 -0.10769816
0001a0 84 32 c0 3c e4 a2 ab bb f8 8f a0 bd 18 d0 66 3d
       0.023461588 -0.005237924 -0.0783996 0.056350797
0001b0 a5 9b 4b bc c4 1e 2f 3d b2 f8 15 be d9 dd da 3d
       -0.012427245 0.04275395 -0.14645651 0.10686845
0001c0 75 23 78 3c 89 7a 98 3b bd a5 21 3e 66 d9 21 3d
       0.015145172 0.004653279 0.1578588 0.039513968
0001d0 59 e1 e5 3c cc b7 74 3c cd dc 8d 3c ed 18 3d bc
       0.028061556 0.014936399 0.0173172 -0.011541587
0001e0 de 0b 2a bd 38 53 20 bd ba 4a f4 bd ce 20 67 3d
       -0.041515224 -0.039141864 -0.119283155 0.05642777
0001f0 32 dc 81 bc f7 ea 95 bd 5e 78 48 bd 88 f5 cd 3c
       -0.015852068 -0.073202066 -0.048942916 0.025141492
000200 f4 7c 87 3e 63 16 c6 3b df 79 a8 b9 34 8a eb bc
       0.2646252 0.006045149 -0.00032134258 -0.028752424
000210 5e 1b 5d bd 92 6c 24 be 17 4d d5 bd 6c 50 16 bd
       -0.053981178 -0.16057041 -0.10415094 -0.03669779
000220 e8 20 01 bd 52 fc ae 3c 76 f1 e5 bd 5d 3f db bd
       -0.031525522 0.02136055 -0.11227696 -0.10705445
000230 e7 e3 b8 3d 12 be 4e bd 07 e7 da 3d df 95 10 3e
       0.09027844 -0.050474234 0.10688596 0.14119671
000240 fc 99 0c be 8d 6a 02 3e 0b 0a f7 3c 7f 1b 2e 3d
       -0.13730615 0.12735958 0.030156156 0.04250669
000250 5d 1d a2 bd 89 66 42 bd aa 41 0a be 4c 96 45 3d
       -0.07915757 -0.047461066 -0.13501611 0.048239037
000260 66 d6 b2 bc 2b ea 51 bd 47 11 6c 3d c2 33 2c 3c
       -0.021830749 -0.05124871 0.057633664 0.010510387
000270 ee aa 05 3d 0c 21 2b be b4 2b 4a 3d 6f 4d b3 3d
       0.032633714 -0.16711825 0.049358085 0.08755004
000280 4a d2 f8 3c ee 5c cf bb e7 c3 7c 3d 92 72 27 bd
       0.030373711 -0.0063282168 0.061710265 -0.040880747
000290 07 d7 1e be 1c de e0 3b cb e3 4e bb 88 cf 84 3d
       -0.15511714 0.006862415 -0.003156888 0.06484896
0002a0 73 81 74 3d 60 c1 81 bd 64 f0 37 bd bb da 8f bc
       0.059693765 -0.063357115 -0.04490699 -0.017560354
0002b0 ad 6d a9 3d 75 e8 e6 3d 8f a5 67 3a d6 d8 0b 3d
       0.08272872 0.112748064 0.0008836621 0.034142338
0002c0 8d e2 09 3d 2b 8d 8f 3d b2 85 c2 bd be 8e 01 3e
       0.03366332 0.070093475 -0.094981566 0.12652108
0002d0 19 2e c4 3d 65 b5 b8 bd d2 f4 c9 3c 3b c8 98 bd
       0.09579105 -0.09018973 0.024652872 -0.07460066
0002e0 a1 a6 16 bc 49 7c c5 bd 69 db 2a 3e ab a1 cf 3b
       -0.009195001 -0.09642846 0.16685261 0.006336411
0002f0 fb a5 4b bc 52 fb 86 3d 71 cb 06 3c 4e c1 ca 3d
       -0.01242971 0.06590904 0.008227215 0.09900151
000300 1d 5a 4d bc 59 ba 00 be 81 00 c1 3d 31 5d 15 be
       -0.012533692 -0.12571086 0.09423924 -0.14586331
000310 14 ea 35 3e 18 be 8c bd a1 40 c9 bd a1 a9 03 bc
       0.17765075 -0.06872195 -0.0982678 -0.008036048
000320 d7 8a 42 3b 47 40 08 be ea 60 16 be 5d c1 3d 3e
       0.0029684806 -0.1330577 -0.14685407 0.18530793
000330 2a 44 9b 3d 74 ea fd 3c 0d b4 02 3e 1e 15 a0 be
       0.07581361 0.030995585 0.12763996 -0.3126611
000340 e5 46 ea 3c 84 8c 4d bd 4e cc d4 bc 68 7d 6e bd
       0.028598258 -0.050182834 -0.025976326 -0.058225065
000350 6d e3 94 3d 52 ea 48 3d 91 c4 b3 bd 70 28 e3 3d
       0.072699405 0.04905159 -0.087777264 0.11091697
000360 f1 c8 6c b9 34 bd 80 3e 13 e9 23 bc 75 ba 4e bc
       -0.0002258157 0.2514435 -0.0100043 -0.012617697
000370 65 2a ae 3c 92 1f af 3d 7d 36 c3 bd 89 8a 1d 3e
       0.02126045 0.085509434 -0.09531877 0.15384878
000380 df e9 2c 3c ec 8e 17 be 12 55 f5 3c 86 76 bb bb
       0.010553806 -0.14800614 0.029947791 -0.005720916
000390 8f f4 d8 3d a2 4a b9 bd dd 66 90 bd 3e 4a a2 bd
       0.10593521 -0.09047438 -0.070508696 -0.07924317
0003a0 af 30 ad bd 83 8a 92 3d c8 58 77 bd ef 2a 4a bd
       -0.08456551 0.07155325 -0.060387403 -0.04935735
0003b0 fc 9c b4 3d b1 2d ca bd 15 9c 1f be d2 cf 84 bd
       0.08819005 -0.09871996 -0.15586884 -0.06484951
0003c0 90 50 ae 3d 80 b8 ad 3c c4 9b 6f bd fb 1f ae bd
       0.0851146 0.02120614 -0.05849816 -0.085021935
0003d0 5f 1a 35 be 86 1a 9e bd 73 6a e0 3c 84 47 b5 3b
       -0.17685841 -0.07719903 0.027394509 0.005532207
0003e0 60 19 10 3d 2a fc 88 3e f7 c7 af bd c3 ce 12 3e
       0.03518045 0.26754886 -0.08583062 0.14336686
0003f0 86 e2 5b bd c9 c1 0f 3e 66 0e 11 3d d1 9c a0 3c
       -0.053682826 0.14038767 0.035414122 0.019606026
