results/ppo/My Behavior/My Behavior-1984.onnx (onnx, 71921 bytes, 6 tensors)

action_model._discrete_distribution.branches.0.bias f4 [5]
000000 00 00 00 00 00 00 00 00 00 00 00 00 00 00 00 00
       0.0 0.0 0.0 0.0
000010 00 00 00 00
       0.0

action_model._discrete_distribution.branches.0.weight f4 [5, 128]
000000 df a6 47 bb 70 b2 4b bb 05 9d 8c bc 67 a4 f5 3b
       -0.0030464453 -0.0031081699 -0.017164716 0.007496405
000010 07 d7 8d 3c bb 07 a8 bb a5 a3 68 3a 17 31 36 bc
       0.017314447 -0.0051278747 0.00088744826 -0.011120102
000020 6a 1a 41 bb af 9c 65 3c 02 55 42 bc 23 af e9 3b
       -0.0029465207 0.014014407 -0.011861088 0.0071314736
000030 25 29 80 bc 2a 8f b0 3b 2f 88 60 3c 2f 8d 59 bb
       -0.01564462 0.0053881602 0.013704344 -0.0033195724
000040 07 9d c9 3b b5 6e 77 bb b1 0e b8 bb 07 74 22 bc
       0.0061527523 -0.0037755196 -0.0056169857 -0.009915358
000050 82 c2 3b bc 98 0a 1d bb 0d 9d 60 bb 38 b7 0e bc
       -0.0114599485 -0.0023962613 -0.0034273297 -0.008710675
000060 6b db 08 3c c7 92 c8 3b 4a 8d 72 3b bb 09 80 3c
       0.008353095 0.006121013 0.0037010484 0.01562964
000070 c3 53 19 bb 7d 51 ee 3a a8 3b 28 bc 4a 00 ab 3b
       -0.0023395873 0.0018182244 -0.010268129 0.0052185403
000080 5f f5 4f 3b 00 02 6f 3b 1b a2 30 bc 7f f4 23 3c
       0.0031731946 0.0036469698 -0.010780836 0.010007023
000090 a9 13 3b 39 3e 42 b6 3b ea a4 89 bb 86 9e 97 bb
       0.00017841034 0.005562096 -0.0042005675 -0.0046270518
0000a0 a7 69 8e 3c 29 92 43 3c 1b b9 61 3c 22 3f 6b 3c
       0.017384363 0.011936703 0.013777043 0.014358314
0000b0 0a e9 f6 3b 13 dd b6 3b 31 a6 36 3b 2c c9 a4 3b
       0.0075351046 0.0055805533 0.0027870054 0.0050288644
0000c0 c7 97 47 bc d3 89 33 bb 47 f8 05 3c c7 b2 0a 3c
       -0.012182183 -0.0027395382 0.00817687 0.008465475
0000d0 e2 d4 85 3c f9 15 26 bb 1b 35 6f 3c 15 13 69 bb
       0.016336862 -0.0025342687 0.014600064 -0.0035564352
0000e0 af fa e5 3b 13 0d 4d 3c 03 f2 87 bb 32 e8 50 3c
       0.007018409 0.012515324 -0.004148723 0.012750672
0000f0 fd c5 28 3b 23 6f 8d 39 ed e5 ad bb 27 a2 61 bb
       0.0025752776 0.0002697642 -0.0053069503 -0.0034428926
000100 23 3e 13 bc 0d be 4b bc e5 a8 2c 3c 97 0d c7 bb
       -0.0089869825 -0.012435448 0.0105383145 -0.006074618
000110 5a 3b f9 ba 8f d4 90 bb 76 a9 1c bc 60 71 51 bc
       -0.001901488 -0.00441987 -0.009561887 -0.012783378
000120 a5 90 62 3c 1a 20 64 3b 95 bc 86 ba 80 54 3e 3c
       0.013828431 0.0034809173 -0.001027959 0.011616826
000130 06 82 27 bb cb e3 5c 3c 4e 67 00 bc 87 d7 d2 bb
       -0.0025559678 0.013482044 -0.00783713 -0.0064343843
000140 fd 58 07 bc 9b 9d 8b 3c 37 d4 1a ba 32 77 87 3b
       -0.008260963 0.017042926 -0.0005906256 0.0041340822
000150 fd 5b 81 3c 2f 05 14 3c f7 85 af 3a d5 3b 29 3c
       0.015790934 0.009034439 0.0013391365 0.0103292065
000160 53 f3 ce bb 35 0e c2 3c 1b 2f 0b bc b1 ad 12 3c
       -0.0063156276 0.023688415 -0.008495118 0.008952544
000170 d5 65 0c 3c d1 54 97 ba 97 29 43 bc 94 8f b6 ba
       0.0085692005 -0.0011545663 -0.011911771 -0.0013928288
000180 ef ea 0c bb 02 c8 93 bc 9f e5 7f bc ef 26 35 3c
       -0.0021502336 -0.018039707 -0.015618711 0.011056646
000190 1b 8b 02 bc a2 78 73 ba 17 99 fd 3b 0f 2d dd bb
       -0.007967736 -0.000928769 0.007739197 -0.006749756
0001a0 c6 aa c9 bb 20 4e d5 3b 43 b6 61 bc 75 23 4b 3c
       -0.006154391 0.0065095574 -0.013776365 0.01239859
0001b0 b9 05 0a 3c df ab 8b 3c 3f 0e 0c bc 19 0d 8e bb
       0.008424216 0.017049728 -0.008548318 -0.0043350575
0001c0 eb 79 b7 bb a0 0c 50 bc 7f 87 a8 3b da ca 83 bc
       -0.0055992506 -0.012698323 0.0051431055 -0.016087938
0001d0 7f 5e 18 3c eb 6f ae 3a dd 72 f7 3b e3 4e 14 bc
       0.009299873 0.0013308501 0.0075515346 -0.009052011
0001e0 c5 5e 5a bb da f7 56 3c 65 13 06 3c 58 1d 8f ba
       -0.0033320647 0.013120616 0.008183335 -0.0010918779
0001f0 85 72 54 3c 5b c0 36 39 5b e5 77 bc af 97 d5 3b
       0.012966757 0.0001742853 -0.015130366 0.0065183262
000200 b7 80 9b 3c 9e dd 87 3b 9b 21 33 ba 7f c5 cf 3b
       0.018982274 0.004146292 -0.0006833316 0.006340682
000210 c1 14 c4 b9 67 a3 c9 3b ef 9d 51 ba a4 22 bf bb
       -0.00037399496 0.0061535123 -0.0007996251 -0.005832987
000220 2e 3a 38 bc b5 3a 9f 3a ef 30 88 bb ea 90 78 bb
       -0.01124434 0.0012148233 -0.004156224 -0.0037928172
000230 eb ba ce 3c 35 f9 6e 3b 3f 33 5f 3b 9a 00 6d bc
       0.025235614 0.0036464457 0.0034057645 -0.014465475
000240 6b 57 c6 bb 7d 90 a9 ba 4d 5f 33 bc 05 e0 ce ba
       -0.0060529015 -0.0012936738 -0.010948014 -0.0015783316
000250 25 6f 53 3b 16 43 3c 3c 7e c2 48 3a d7 a8 3c bc
       0.0032262292 0.011490604 0.0007658376 -0.011514864
000260 35 fe 21 3c d7 0c 5e bc 21 8e a0 ba 5c ab a7 bb
       0.009887268 -0.013552866 -0.0012249389 -0.005116863
000270 17 7e 0f bc 18 35 76 39 f6 df c2 bb ff b7 16 bc
       -0.0087580895 0.00023480167 -0.0059471084 -0.0091991415
000280 cf ca 21 3c 1b 76 59 3c a5 58 35 38 d2 25 ff 3b
       0.0098750135 0.013272787 4.323632e-05 0.007786491
000290 87 76 57 3c 28 4a ef bb 75 66 51 b9 1a 1d 53 bc
       0.013150818 -0.0073025413 -0.00019969961 -0.012885356
0002a0 bd 1b 29 bb 7a cf 76 bc f8 0d 57 bb 64 03 1a bc
       -0.0025803887 -0.015064115 -0.0032814723 -0.009400222
0002b0 28 b6 0f 3c 49 80 99 38 f2 38 06 3c 08 aa 69 3b
       0.008771457 7.3195035e-05 0.008192288 0.0035654325
0002c0 a9 35 c5 3b 86 50 36 bb 0a 1b 58 3c bb 84 09 3b
       0.0060183597 -0.0027818992 0.01319004 0.0020983655
0002d0 27 84 85 bc 73 f8 59 bc f7 6b a6 ba d7 20 e3 3b
       -0.016298367 -0.013303864 -0.0012696971 0.006931405
0002e0 37 47 90 37 2f 1a 33 bc 3a ec cd bb bb 4f 18 3b
       1.71993e-05 -0.010931536 -0.006284264 0.0023240882
0002f0 e8 9c 6f 3b 42 4b 6e b9 95 7f 3c 3c 21 e2 31 3b
       0.003656203 -0.00022725484 0.011505027 0.002714284
000300 30 0a 5d 3b 8b 46 99 ba 12 ea ef ba d8 f7 36 bb
       0.0033727996 -0.0011693997 -0.0018304011 -0.0027918722
000310 9c 34 c2 3b a7 80 c8 3b 0f 6d b4 bb 6f a2 f6 3b
       0.0059266817 0.006118852 -0.005506165 0.007526688
000320 9f 72 c9 bb ad d9 fe bb 30 2d 52 bc 33 a8 bd 3a
       -0.006147697 -0.007777414 -0.012828156 0.0014469683
000330 91 07 ae bb 40 26 1a 3c 0c 63 96 3c 2b ec 34 39
       -0.0053109606 0.009408534 0.018357776 0.00017254117
000340 b4 64 8e ba 83 8d a6 3c 28 e7 a1 bb 8d 29 60 bb
       -0.0010863752 0.02033115 -0.004940886 -0.0034204454
000350 05 89 f0 bb be 7b 8a 3c 57 80 a1 ba 57 78 0c ba
       -0.0073405528 0.016904708 -0.0012321573 -0.0005358508
000360 db 56 28 3c 63 22 ff b9 b6 63 2b 3b 48 1d a6 3b
       0.010274614 -0.0004866301 0.0026151962 0.0050694086
000370 38 05 31 3c 50 99 6b 3c 5b d0 9a 3b a7 e8 fc ba
       0.010804467 0.014379814 0.004724545 -0.001929541
000380 63 36 50 bc 27 ea d6 3a 16 41 88 bb bf dc 17 3a
       -0.012708279 0.0016396687 -0.0041581495 0.00057930866
000390 ae c8 a9 bb 5e 81 b0 3b 03 21 ba bb 5d 8c 36 bb
       -0.0051813936 0.0053865155 -0.005680205 -0.002785466
0003a0 57 3a 02 bc eb 14 b2 3c 38 7a a5 3b 22 df e0 ba
       -0.00794848 0.02173849 0.00504997 -0.0017156343
0003b0 b7 46 c2 bb ba 3f 47 bc ef bc 5f 3a 1a 64 3f ba
       -0.00592884 -0.01216119 0.0008534928 -0.0007300988
0003c0 7b 61 73 bc df 87 c1 bb 47 97 93 bc 53 32 f0 bb
       -0.014854784 -0.0059060897 -0.01801647 -0.007330218
0003d0 e5 06 9c 3b 8b 0a 6e 3b b7 97 62 bb e2 3e 3c 3b
       0.004761564 0.0036322202 -0.0034575292 0.0028724005
0003e0 77 ed 36 bb 10 72 16 bc 43 98 07 3c c6 80 3f 3c
       -0.0027912536 -0.009182468 0.008276048 0.011688417
0003f0 5c 91 9e 3b 1f f1 04 bb 7c 34 99 3c 0a 61 1d 3c
       0.0048391055 -0.002028532 0.018701784 0.009605655

network_body.linear_encoder.seq_layers.0.bias f4 [128]
000000 00 00 00 00 00 00 00 00 00 00 00 00 00 00 00 00
       0.0 0.0 0.0 0.0
000010 00 00 00 00 00 00 00 00 00 00 00 00 00 00 00 00
       0.0 0.0 0.0 0.0
000020 00 00 00 00 00 00 00 00 00 00 00 00 00 00 00 00
       0.0 0.0 0.0 0.0
000030 00 00 00 00 00 00 00 00 00 00 00 00 00 00 00 00
       0.0 0.0 0.0 0.0
000040 00 00 00 00 00 00 00 00 00 00 00 00 00 00 00 00
       0.0 0.0 0.0 0.0
000050 00 00 00 00 00 00 00 00 00 00 00 00 00 00 00 00
       0.0 0.0 0.0 0.0
000060 00 00 00 00 00 00 00 00 00 00 00 00 00 00 00 00
       0.0 0.0 0.0 0.0
000070 00 00 00 00 00 00 00 00 00 00 00 00 00 00 00 00
       0.0 0.0 0.0 0.0
000080 00 00 00 00 00 00 00 00 00 00 00 00 00 00 00 00
       0.0 0.0 0.0 0.0
000090 00 00 00 00 00 00 00 00 00 00 00 00 00 00 00 00
       0.0 0.0 0.0 0.0
0000a0 00 00 00 00 00 00 00 00 00 00 00 00 00 00 00 00
       0.0 0.0 0.0 0.0
0000b0 00 00 00 00 00 00 00 00 00 00 00 00 00 00 00 00
       0.0 0.0 0.0 0.0
0000c0 00 00 00 00 00 00 00 00 00 00 00 00 00 00 00 00
       0.0 0.0 0.0 0.0
0000d0 00 00 00 00 00 00 00 00 00 00 00 00 00 00 00 00
       0.0 0.0 0.0 0.0
0000e0 00 00 00 00 00 00 00 00 00 00 00 00 00 00 00 00
       0.0 0.0 0.0 0.0
0000f0 00 00 00 00 00 00 00 00 00 00 00 00 00 00 00 00
       0.0 0.0 0.0 0.0
000100 00 00 00 00 00 00 00 00 00 00 00 00 00 00 00 00
       0.0 0.0 0.0 0.0
000110 00 00 00 00 00 00 00 00 00 00 00 00 00 00 00 00
       0.0 0.0 0.0 0.0
000120 00 00 00 00 00 00 00 00 00 00 00 00 00 00 00 00
       0.0 0.0 0.0 0.0
000130 00 00 00 00 00 00 00 00 00 00 00 00 00 00 00 00
       0.0 0.0 0.0 0.0
000140 00 00 00 00 00 00 00 00 00 00 00 00 00 00 00 00
       0.0 0.0 0.0 0.0
000150 00 00 00 00 00 00 00 00 00 00 00 00 00 00 00 00
       0.0 0.0 0.0 0.0
000160 00 00 00 00 00 00 00 00 00 00 00 00 00 00 00 00
       0.0 0.0 0.0 0.0
000170 00 00 00 00 00 00 00 00 00 00 00 00 00 00 00 00
       0.0 0.0 0.0 0.0
000180 00 00 00 00 00 00 00 00 00 00 00 00 00 00 00 00
       0.0 0.0 0.0 0.0
000190 00 00 00 00 00 00 00 00 00 00 00 00 00 00 00 00
       0.0 0.0 0.0 0.0
0001a0 00 00 00 00 00 00 00 00 00 00 00 00 00 00 00 00
       0.0 0.0 0.0 0.0
0001b0 00 00 00 00 00 00 00 00 00 00 00 00 00 00 00 00
       0.0 0.0 0.0 0.0
0001c0 00 00 00 00 00 00 00 00 00 00 00 00 00 00 00 00
       0.0 0.0 0.0 0.0
0001d0 00 00 00 00 00 00 00 00 00 00 00 00 00 00 00 00
       0.0 0.0 0.0 0.0
0001e0 00 00 00 00 00 00 00 00 00 00 00 00 00 00 00 00
       0.0 0.0 0.0 0.0
0001f0 00 00 00 00 00 00 00 00 00 00 00 00 00 00 00 00
       0.0 0.0 0.0 0.0

network_body.linear_encoder.seq_layers.0.weight f4 [128, 1]
000000 62 85 7b 3f e6 c1 be 3f 42 a2 9f bf 9b 3d d3 3e
       0.982504 1.4902923 -1.2471392 0.4125794
000010 d3 4d ba bd d9 68 42 40 15 7a 04 3f 6c db a0 bf
       -0.09096875 3.0376494 0.5174878 -1.2566962
000020 29 6e ec 3e e1 3a 65 bf 08 c5 c4 bf ea 01 d1 3e
       0.46177796 -0.8954297 -1.5372629 0.40821773
000030 27 0c fe bd 9e 6f 37 bf 0a 4e 16 40 4c c4 54 3f
       -0.124046616 -0.7165469 2.3485131 0.83112025
000040 12 71 58 bf b9 a5 96 bf e7 5c ff be 03 6c 25 3e
       -0.8454753 -1.1769325 -0.49875566 0.16154484
000050 ed 64 61 3d 1b b8 a8 bd c4 6c 59 3f bf c9 d7 be
       0.05502789 -0.0823824 0.8493159 -0.42146108
000060 71 c0 07 bf 11 e0 cd 3d 71 1a 58 bf 3b bf 43 3f
       -0.5302802 0.10052503 -0.84415346 0.7646367
000070 d7 62 d2 3f 32 7f 08 bf c6 ba cf 3e 6b 23 f3 be
       1.6436414 -0.53319085 0.40572184 -0.4748796
000080 26 b2 98 bf 76 72 90 be 99 9e 45 3e 2d 68 82 3f
       -1.1929367 -0.28212327 0.19298781 1.0188042
000090 a0 d9 ac bf ff 42 cf 3e 3f b1 54 bf be 6a 12 bf
       -1.3503914 0.404808 -0.83082956 -0.57194126
0000a0 4a c5 98 bf fd 7c 0d 40 71 ee 76 3e 09 4f ab 3e
       -1.1935208 2.2107537 0.24114396 0.33458737
0000b0 49 5e fd 3e d0 2d 7e bf db 00 c3 bd 69 ca 32 3f
       0.49485996 -0.99288654 -0.095216475 0.69840103
0000c0 56 38 d7 3e 3a e3 c1 be 4a ae 43 bf 93 7d 4f 3f
       0.42035168 -0.37868673 -0.7643782 0.81050986
0000d0 59 c2 72 be 46 c4 cc 3d d3 1d 37 3f d9 1e 0e 40
       -0.2370695 0.09998374 0.71529883 2.2206328
0000e0 6b d1 95 be 1f 39 10 3f 3a bd 3d bd 47 e9 69 3f
       -0.29261336 0.5633716 -0.04632304 0.9137158
0000f0 ee 3e 8d 3f b2 f3 8f bf b5 9b 4d 3f 6d d1 27 3e
       1.103483 -1.1246245 0.80315715 0.16388483
000100 71 15 80 bd 00 78 32 bf 50 c2 db bd 9e 2e a4 3e
       -0.062540896 -0.69714355 -0.107304215 0.32066816
000110 61 48 23 bf 59 a1 37 3f a4 88 8a bf 29 0c 52 3e
       -0.63782316 0.7173057 -1.082295 0.20512451
000120 37 63 4c bf 1f 7d 16 3f 84 cf ed be 88 68 02 bf
       -0.7983889 0.5878467 -0.46447384 -0.5094075
000130 06 a9 8b 3f 0c 83 a6 be 68 02 37 3f d8 7d 76 3f
       1.0910957 -0.32521856 0.71488047 0.9628577
000140 66 22 dc 3e e9 89 99 bf 0a 1f 26 3f 60 56 0f bf
       0.42994994 -1.1995212 0.6489111 -0.5599117
000150 62 5e dd 3f d0 1f d9 3f 23 e1 f4 3e f0 e5 e4 bf
       1.7294428 1.6962833 0.47828016 -1.7882671
000160 75 a6 eb 3f 6c fd c2 3f 75 47 cf 3e 52 e2 1c c0
       1.8410174 1.5233588 0.40484205 -2.4513135
000170 53 da dd 3d 80 39 d9 be e5 b0 f3 be 76 42 93 3e
       0.10832658 -0.42426682 -0.47595897 0.28761643
000180 d6 21 99 be 9d 1e b4 be cf 87 b1 bf fb fa 9d bf
       -0.29908627 -0.35179606 -1.386957 -1.2342218
000190 99 b0 08 bf 58 6f c6 3f 79 fc 4b 3f 24 b1 a4 3e
       -0.53394467 1.550273 0.7968212 0.32166398
0001a0 8a 7e d0 be 35 1e 19 bf ad e3 b2 3e dd db 85 be
       -0.40721542 -0.5981172 0.34939328 -0.26144305
0001b0 50 d2 f6 bf 08 de c0 bf a6 c1 be 3f 1e a1 91 3f
       -1.9282932 -1.5067759 1.4902847 1.1377294
0001c0 7b b0 38 bf 77 ab 80 be ab 7c 43 3c 46 42 a4 3d
       -0.7214429 -0.25130817 0.011931579 0.08020453
0001d0 93 81 a5 bf b3 37 19 bf 76 9e d7 3d ff 0c 8e 3f
       -1.2930168 -0.59850615 0.10528271 1.1097716
0001e0 6a c5 9e 3f 14 a4 a3 bf f1 10 d4 be 0b e1 ad 3f
       1.2403996 -1.2784448 -0.41419175 1.3584303
0001f0 9e 1f 0c be 18 de db bf 07 a1 e1 be 21 4c 9c bf
       -0.13683936 -1.7177153 -0.44068167 -1.2210733

network_body.linear_encoder.seq_layers.2.bias f4 [128]
000000 00 00 00 00 00 00 00 00 00 00 00 00 00 00 00 00
       0.0 0.0 0.0 0.0
000010 00 00 00 00 00 00 00 00 00 00 00 00 00 00 00 00
       0.0 0.0 0.0 0.0
000020 00 00 00 00 00 00 00 00 00 00 00 00 00 00 00 00
       0.0 0.0 0.0 0.0
000030 00 00 00 00 00 00 00 00 00 00 00 00 00 00 00 00
       0.0 0.0 0.0 0.0
000040 00 00 00 00 00 00 00 00 00 00 00 00 00 00 00 00
       0.0 0.0 0.0 0.0
000050 00 00 00 00 00 00 00 00 00 00 00 00 00 00 00 00
       0.0 0.0 0.0 0.0
000060 00 00 00 00 00 00 00 00 00 00 00 00 00 00 00 00
       0.0 0.0 0.0 0.0
000070 00 00 00 00 00 00 00 00 00 00 00 00 00 00 00 00
       0.0 0.0 0.0 0.0
000080 00 00 00 00 00 00 00 00 00 00 00 00 00 00 00 00
       0.0 0.0 0.0 0.0
000090 00 00 00 00 00 00 00 00 00 00 00 00 00 00 00 00
       0.0 0.0 0.0 0.0
0000a0 00 00 00 00 00 00 00 00 00 00 00 00 00 00 00 00
       0.0 0.0 0.0 0.0
0000b0 00 00 00 00 00 00 00 00 00 00 00 00 00 00 00 00
       0.0 0.0 0.0 0.0
0000c0 00 00 00 00 00 00 00 00 00 00 00 00 00 00 00 00
       0.0 0.0 0.0 0.0
0000d0 00 00 00 00 00 00 00 00 00 00 00 00 00 00 00 00
       0.0 0.0 0.0 0.0
0000e0 00 00 00 00 00 00 00 00 00 00 00 00 00 00 00 00
       0.0 0.0 0.0 0.0
0000f0 00 00 00 00 00 00 00 00 00 00 00 00 00 00 00 00
       0.0 0.0 0.0 0.0
000100 00 00 00 00 00 00 00 00 00 00 00 00 00 00 00 00
       0.0 0.0 0.0 0.0
000110 00 00 00 00 00 00 00 00 00 00 00 00 00 00 00 00
       0.0 0.0 0.0 0.0
000120 00 00 00 00 00 00 00 00 00 00 00 00 00 00 00 00
       0.0 0.0 0.0 0.0
000130 00 00 00 00 00 00 00 00 00 00 00 00 00 00 00 00
       0.0 0.0 0.0 0.0
000140 00 00 00 00 00 00 00 00 00 00 00 00 00 00 00 00
       0.0 0.0 0.0 0.0
000150 00 00 00 00 00 00 00 00 00 00 00 00 00 00 00 00
       0.0 0.0 0.0 0.0
000160 00 00 00 00 00 00 00 00 00 00 00 00 00 00 00 00
       0.0 0.0 0.0 0.0
000170 00 00 00 00 00 00 00 00 00 00 00 00 00 00 00 00
       0.0 0.0 0.0 0.0
000180 00 00 00 00 00 00 00 00 00 00 00 00 00 00 00 00
       0.0 0.0 0.0 0.0
000190 00 00 00 00 00 00 00 00 00 00 00 00 00 00 00 00
       0.0 0.0 0.0 0.0
0001a0 00 00 00 00 00 00 00 00 00 00 00 00 00 00 00 00
       0.0 0.0 0.0 0.0
0001b0 00 00 00 00 00 00 00 00 00 00 00 00 00 00 00 00
       0.0 0.0 0.0 0.0
0001c0 00 00 00 00 00 00 00 00 00 00 00 00 00 00 00 00
       0.0 0.0 0.0 0.0
0001d0 00 00 00 00 00 00 00 00 00 00 00 00 00 00 00 00
       0.0 0.0 0.0 0.0
0001e0 00 00 00 00 00 00 00 00 00 00 00 00 00 00 00 00
       0.0 0.0 0.0 0.0
0001f0 00 00 00 00 00 00 00 00 00 00 00 00 00 00 00 00
       0.0 0.0 0.0 0.0

network_body.linear_encoder.seq_layers.2.weight f4 [128, 128]
000000 a4 82 96 3c 68 8c 3d bd e9 a6 fa 3c 06 3a 1c 3d
       0.018372841 -0.04627648 0.030597167 0.038141273
000010 a9 de ee 3d 71 a6 c7 3c 1b 3b 06 bd 64 63 31 3e
       0.11663563 0.024371358 -0.03277121 0.17323071
000020 93 4f a7 3d 6c fe e0 3c cc 83 e1 bc 88 d3 54 bc
       0.081694745 0.027465068 -0.027528666 -0.012989886
000030 cb f6 1a be 94 7c dd 3d 22 38 32 bd 9e c0 0c 3e
       -0.15133207 0.10814777 -0.043510564 0.13745353
000040 79 29 a3 3d 04 ad 78 3c b2 46 af 3c 16 c7 2f bd
       0.07966895 0.015177969 0.021396015 -0.042914473
000050 6c e2 2a be 89 6f 45 3d d9 97 6b bd b6 b6 1a bd
       -0.16687936 0.04820207 -0.05751786 -0.037771903
000060 44 71 bc 3d 7a b7 0b 3e df 2f 1e be 45 f5 65 3d
       0.09201291 0.1364421 -0.15447949 0.05614211
000070 57 47 09 bd 87 94 c4 3d 9f 0f c3 bd b7 4f a6 3d
       -0.0335153 0.09598642 -0.09524464 0.08120673
000080 cd ce 73 be 58 67 a5 3d 6c e5 1f 3d 15 43 60 3c
       -0.23809357 0.08076352 0.039037153 0.013687869
000090 b6 62 23 3c ae c0 06 be c9 9c 51 be a8 46 97 bd
       0.009972265 -0.13159439 -0.20469965 -0.073865235
0000a0 99 68 7b bc ee b6 b8 bd c5 92 b0 3c 1a 80 47 be
       -0.015344762 -0.09019266 0.02155436 -0.1948246
0000b0 1c 3e f2 3d 2e 47 f1 ba e7 8e 22 be 9c 29 5c 3d
       0.11828253 -0.0018408054 -0.15874825 0.05375062
0000c0 f8 b1 92 3d 96 4f 54 3e 9b 05 fb 3c d0 44 07 be
       0.07162851 0.20733485 0.030642321 -0.13209844
0000d0 b6 47 9e bd 98 c9 27 3d 12 cc d3 bb bf 22 a0 ba
       -0.077285215 0.04096374 -0.006463536 -0.0012217386
0000e0 1b 4f aa bb d5 02 3e bd 24 3f 22 bd 07 32 44 3c
       -0.0051974184 -0.04638942 -0.039610997 0.011974818
0000f0 b5 bb 45 3e 40 41 1f be a8 a4 e1 3d cc 6a e5 bd
       0.19309886 -0.15552235 0.11017734 -0.112020105
000100 3a 14 ed bd 1e 63 a1 ba 6d 77 17 3d aa 54 5a bd
       -0.115761235 -0.0012312864 0.036979128 -0.0533034
000110 bb 64 7d bd da 00 84 3d 28 58 46 3e 3f 54 00 3d
       -0.061863642 0.06445475 0.19369566 0.031330343
000120 3c d5 79 bc 17 c0 f7 3c 24 02 a2 bd 96 1c 87 bd
       -0.015248593 0.030242963 -0.079105645 -0.06597249
000130 41 3b a8 3c c2 6a d0 bd 72 68 1c bd fe 61 ab bd
       0.020536067 -0.101766124 -0.038185544 -0.083683
000140 2c 9a 16 3d 41 59 d8 bc 94 ae c5 bd be b2 10 3d
       0.036768124 -0.026409747 -0.09652439 0.03532671
000150 d7 eb dc bd ae eb 1c 3d 91 96 a0 3d fd 39 3d bc
       -0.107871704 0.0383107 0.07841218 -0.01154947
000160 e8 cd 4e bd 94 e8 a6 3d 14 12 87 3c 4a 2f 35 3d
       -0.050489336 0.081498295 0.016488113 0.04423455
000170 46 cb 41 bb a2 c8 88 bd e9 ca b5 bd 95 96 0c 3e
       -0.0029570623 -0.06678893 -0.08876593 0.13729317
000180 68 e3 34 3d 57 e6 d8 3c 1b 17 f1 bd 3e 7e 77 bd
       0.044162184 0.026477022 -0.11771985 -0.06042313
000190 6f e7 76 bd 30 fa 47 bb f7 d3 da bd cb fe 18 bd
       -0.060279306 -0.0030514114 -0.1068496 -0.037352365
0001a0 43 ee f6 3d ec 5f fc bb 23 34 13 3e 91 a5 47 3d
       0.120571636 -0.0077018645 0.14375357 0.04874188
0001b0 9e 74 12 bb 4e 3f 24 3d cf d5 03 3e 95 ce cc bc
       -0.0022347341 0.040099435 0.1287453 -0.02500085
0001c0 59 d0 c7 3d ce f7 7d 3c 1b 23 04 3d 6f d8 74 bd
       0.09756536 0.015500976 0.03226004 -0.05977672
0001d0 50 ac 0b be de 2a 1e bd 98 4e e3 bc 89 30 a2 bd
       -0.13639951 -0.0386151 -0.027747437 -0.079194136
0001e0 b0 87 64 3d fc 67 0d be 88 be 95 bd 03 af 50 bd
       0.055793464 -0.13809198 -0.073117316 -0.050948154
0001f0 0d 21 cd bd 28 40 8e bc b5 db e6 bd 47 0d 47 be
       -0.100160696 -0.017364576 -0.112723745 -0.19438659
000200 f5 6d b8 bd 1b 43 08 3e 14 14 7d 3d d1 63 fc bd
       -0.09005348 0.13306849 0.061786726 -0.12323726
000210 f3 48 a5 3d ac ca 1a 3d e5 0c 1a 3b 6c c0 ca bc
       0.080705546 0.03779094 0.002350622 -0.024749957
000220 26 b9 aa 3d 8a 67 32 bd 20 4f 55 bd c5 18 22 bd
       0.083360955 -0.043555774 -0.052077413 -0.039574403
000230 25 8d 72 bd a9 0a 4c 3c b5 0e 0c bc de 86 dd bc
       -0.059216637 0.012453713 -0.008548428 -0.027041849
000240 39 df d7 3d e6 69 15 3d 20 6a 42 bb e0 42 3e bb
       0.10540623 0.036477946 -0.0029665306 -0.002903156
000250 c8 59 55 bd 75 24 93 bd 43 3f 98 3b c8 b6 af bd
       -0.052087575 -0.07184688 0.0046462133 -0.08579785
000260 bb 52 5a bd 79 8c 3c 3d f7 d8 39 3d 7b 44 79 bd
       -0.053301554 0.046032403 0.04537293 -0.060856324
000270 16 91 17 3e 78 e0 4f 3d f9 c2 44 3e 22 ac 76 ba
       0.1480144 0.05075118 0.19215001 -0.0009409805
000280 61 49 1e 3e 8a f4 ff 3c a4 8e 67 3c 1b e9 96 bd
       0.1545768 0.031244535 0.014133129 -0.0736868
000290 a5 0c 00 3e 7b 75 82 3d 28 66 90 3d 8c 94 94 bd
       0.12504824 0.06370064 0.07050735 -0.072548956
0002a0 3d 4e f0 3d 19 e2 63 bd af b6 03 3c e6 53 35 3d
       0.11733673 -0.055635545 0.008039161 0.044269465
0002b0 46 a3 6b 3d 3b e4 97 bd 48 e5 4d bc fa f1 b0 bd
       0.057528757 -0.074165784 -0.012566872 -0.08639903
0002c0 f2 0e 3a bd bb 26 ed bd 84 78 a5 ba 67 09 da 3c
       -0.04542441 -0.11579653 -0.0012624417 0.026615812
0002d0 5b 9e 1d be ca 0e ab 3d f8 8d 5e be 7a 42 3e 3e
       -0.15392439 0.0835243 -0.21733844 0.18580046
0002e0 2f 02 83 bd c2 45 90 3b 9f 97 91 3d 78 0a 04 3e
       -0.06396901 0.004402847 0.071089976 0.12894619
0002f0 29 58 7c bd 20 6e f6 3d 47 40 ad bd cb 13 30 be
       -0.061607514 0.120327234 -0.084595256 -0.1719505
000300 6c b9 db bd ee 5c 74 3d ad c1 b1 3d 8d b6 ab bd
       -0.10728726 0.059658937 0.08679519 -0.08384428
000310 c4 45 b8 3c 37 22 11 3e 28 b1 b4 3c d8 51 a5 3c
       0.022494204 0.14173208 0.022057131 0.020180628
000320 ae 47 09 3d 2f c3 22 be 00 eb 59 3d b7 5a 62 bd
       0.033515625 -0.15894769 0.05320263 -0.055262294
000330 c6 93 93 3d 16 89 ca bc ed af 94 bc 59 85 23 bd
       0.0720592 -0.02472357 -0.018150294 -0.039922092
000340 68 1b 8a 3d 96 77 3a bd 17 5d ba bd 3a 75 50 3d
       0.067435086 -0.045524202 -0.09099787 0.050893046
000350 71 05 62 3c 5b 35 06 be 36 a7 a4 bc 75 4b a0 bd
       0.013795243 -0.13106291 -0.020099264 -0.07826892
000360 40 80 0e be 5a 02 9b bd 60 b3 40 bd 0a c6 92 3d
       -0.13916111 -0.07568808 -0.047046065 0.07166679
000370 a1 9e ab 3d 16 d3 b1 bb bd 15 c7 bd 29 fb 5f 3d
       0.083798654 -0.0054267747 -0.09720943 0.054682884
000380 93 38 02 be 40 6e f8 3c 61 ce 0b bd 01 f1 d2 3d
       -0.12716894 0.030326009 -0.034132365 0.10299874
000390 37 0d 86 3c f8 dc 65 bd 18 ba 44 bc 52 3e 28 3e
       0.016363723 -0.056118935 -0.012007259 0.16430023
0003a0 53 3b 88 3a c1 97 ec bd 54 9f 3d 3e d8 f1 1d be
       0.0010393657 -0.11552382 0.1851781 -0.15424287
0003b0 a1 eb a8 ba 70 11 18 be be 53 48 3c 1e 85 7e 3d
       -0.0012887606 -0.14850402 0.012226997 0.06213867
0003c0 25 65 14 bd 35 6f d2 bd 41 64 e4 3b 13 cd 53 3e
       -0.03622927 -0.10275117 0.006969959 0.20683698
0003d0 bd 9e a0 3d f3 c7 9f bd 60 a1 4f bd e3 2f 9c bc
       0.07842777 -0.07801809 -0.05069101 -0.019065803
0003e0 db 6e 36 be ba 0e 91 3d 7e f7 4c bd 36 1c 00 be
       -0.17815726 0.07082887 -0.050040714 -0.12510762
0003f0 ed 91 a4 3d 8c dc be bd 6f dc 61 bd 26 67 08 be
       0.08035646 -0.0931941 -0.055141862 -0.13320598
