results/ppo/My Behavior/My Behavior-10.onnx (onnx, 79095 bytes, 7 tensors)

action_model._continuous_distribution.log_sigma f4 [1, 2]
0	0x00000000	0.0
1	0x00000000	0.0

action_model._continuous_distribution.mu.bias f4 [2]
0	0x00000000	0.0
1	0x00000000	0.0

action_model._continuous_distribution.mu.weight f4 [2, 128]
0	0x3b2642f7	0.0025369504
1	0x3c706647	0.014672822
2	0x3b52515a	0.0032091946
3	0x3c8ff095	0.017570773
4	0x3d15c131	0.036561195
5	0x3b3f4acb	0.0029188867
6	0x3c583cd0	0.013198093
7	0xbc997a63	-0.018735116
8	0x3baa4291	0.0051959236
9	0xba5eb692	-0.0008495833
10	0xbc99a180	-0.018753767
11	0x3d27e5d3	0.04099066
12	0x3c8c1e65	0.017104337
13	0x3d4f3a6f	0.050592836
14	0x3ce37d25	0.027769635
15	0xbbe8c618	-0.0071036927
16	0x3c425917	0.011862061
17	0xbc9973a0	-0.018731892
18	0xbb5942ab	-0.003315131
19	0xbc8381d0	-0.01605311
20	0xb97b2f1a	-0.00023954772
21	0x3c5fbfe5	0.013656591
22	0x3c6bdf2d	0.014396471
23	0xbcc6c656	-0.024264496
24	0xbc5bf17b	-0.013424273
25	0x3ca18e3e	0.019721147
26	0x3c8ff2fd	0.01757192
27	0xbca26c53	-0.019827044
28	0x3c9511c4	0.018196948
29	0x3b3a9ea4	0.0028475905
30	0x3c0e5667	0.008687592
31	0xbca1f7fe	-0.019771572
32	0xbc168a8f	-0.009188308
33	0xbcbc3aa5	-0.022977183
34	0x3a94cc33	0.001135236
35	0x3bef3328	0.0072997995
36	0xbc800d33	-0.015631294
37	0x3cd47195	0.025933066
38	0x3a378823	0.0007001182
39	0xbba05d74	-0.004893953
40	0xbc38cf02	-0.011279823
41	0x3c4635b9	0.012097769
42	0xbcf5c65f	-0.030001817
43	0x3c32c32e	0.010910792
44	0xbcc8c5a3	-0.024508303
45	0x3c15201d	0.009101895
46	0x3cb6f5fd	0.022334093
47	0x3c198d32	0.0093720425
48	0x3c41d2cb	0.011830042
49	0x3c12a853	0.008951264
50	0x3d05092a	0.032479443
51	0x3b82355c	0.003973646
52	0xbd48d4ca	-0.049031056
53	0xbd130c07	-0.035900142
54	0x3c8bdb4e	0.017072346
55	0xbc249be1	-0.01004693
56	0x3c8a4023	0.016876286
57	0x3ab27c65	0.0013617395
58	0x3c6a3ce8	0.014296748
59	0xb9eaeeab	-0.0004480978
60	0xbc7e5aa5	-0.015524541
61	0xbabdf27b	-0.001449182
62	0xbb9cbfdf	-0.004783615
63	0xbb3d7952	-0.0028911424
64	0xbae04ca8	-0.0017112689
65	0x3c743a1a	0.014906431
66	0xbc7c5a07	-0.015402324
67	0xbc85a987	-0.016316188
68	0xbc6c21e0	-0.014412373
69	0xbc276be0	-0.0102185905
70	0x3c405cd3	0.011740881
71	0x3ca81ae3	0.020520633
72	0xbcb99c39	-0.0226575
73	0xb9274ff0	-0.0001595614
74	0xbc96251d	-0.018328244
75	0x3baec1af	0.0053331475
76	0xbccd45bd	-0.025057668
77	0xbc2cce0f	-0.010547175
78	0x3b9b5133	0.0047399043
79	0x3d3a5a5c	0.04549633
80	0x3b06d6ca	0.0020574802
81	0x3b548fe8	0.0032434408
82	0x3cd339a7	0.025784327
83	0xbbeaa7b5	-0.0071611055
84	0x3c25e11f	0.010124474
85	0xbbb5e87b	-0.0055513955
86	0x3cbb0d30	0.022833437
87	0x3a573770	0.000820986
88	0xbc5449c2	-0.012957038
89	0xbcc0c6c3	-0.023532277
90	0x3ca1002b	0.0196534
91	0x3ce6da75	0.02818034
92	0xba9a34b3	-0.0011764973
93	0xbc77f5dd	-0.015134302
94	0x3c6d346b	0.014477829
95	0x3ae801f5	0.0017700779
96	0xbbd9a285	-0.0066416883
97	0xbc20a573	-0.009805071
98	0x3c168a08	0.009188183
99	0xbb0e4e5c	-0.0021714186
100	0xbbbacc75	-0.0057006427
101	0xbc083307	-0.008312947
102	0x3b9eacef	0.0048423926
103	0xbaffba40	-0.0019510463
104	0x3c1ff40d	0.009762776
105	0x3c4b364e	0.012403084
106	0x3cbae66b	0.02281495
107	0xbd07230d	-0.03299241
108	0x3c43163f	0.011907159
109	0x3cb5c2e7	0.022187663
110	0x3ca71161	0.02039403
111	0x3c31400f	0.010818495
112	0xbb84c821	-0.0040521775
113	0x3bc9f069	0.0061626923
114	0xbd20114b	-0.03907899
115	0x3c6fda13	0.014639395
116	0x3d296b4e	0.0413621
117	0xbbc33209	-0.0059568924
118	0x3d2a9699	0.041647527
119	0x3a12f574	0.00056060334
120	0x3bf0de13	0.007350692
121	0xbbf582df	-0.0074924077
122	0x3b65e1ef	0.0035077294
123	0x3ba4b577	0.005026515
124	0x3c2f5cf7	0.010703317
125	0xbc62d6dd	-0.013845173
126	0xbae54bc3	-0.0017493892
127	0x3b8c02bf	0.0042727883
128	0x3b3ccadc	0.0028807437
129	0xbcfb4e8a	-0.030677099
130	0xbcdd4197	-0.027008815
131	0x3c50f8af	0.012754603
132	0x3c841eeb	0.016128024
133	0xb81168fb	-3.4668465e-05
134	0xbbbac627	-0.005699891
135	0x3b606925	0.0034242359
136	0xbc916b75	-0.017751435
137	0xbcc1ac7f	-0.023641823
138	0xbc39aa24	-0.011332069
139	0xbc852c97	-0.016256614
140	0x3c5a2bbd	0.013316092
141	0xba1fbd54	-0.0006093581
142	0xbb636eaa	-0.0034703412
143	0x3bbf5c9d	0.005839898
144	0xbd0e94bd	-0.034809817
145	0x3cbffd13	0.023436105
146	0x3caa409d	0.020782763
147	0x3b13531a	0.0022479952
148	0x3c2847f1	0.010271058
149	0xbcc0c28c	-0.023530267
150	0xbb35d7a7	-0.0027746947
151	0xbc31de92	-0.010856288
152	0xbcce61b7	-0.025193078
153	0x3ace8f12	0.0015759191
154	0x3bdfacd7	0.006826024
155	0xbb90217f	-0.0043985243
156	0x3abea315	0.0014544452
157	0x3ccc17d2	0.024913702
158	0xbcbd421d	-0.023102814
159	0xbc6986fa	-0.014253372
160	0xbcaa0bcd	-0.02075758
161	0x3c8b037f	0.01696944
162	0x3cc409d1	0.023930462
163	0x3b8ef008	0.00436211
164	0x3ceddd80	0.029036283
165	0xbd434a0f	-0.04767805
166	0x3c18aee9	0.009319046
167	0x3cea70a0	0.028618157
168	0xbc9cb7da	-0.019130636
169	0x3cebe090	0.028793603
170	0xbce436b2	-0.027858112
171	0x3c0b6abe	0.008509336
172	0xbcb592f7	-0.022164805
173	0xbcdf18a2	-0.027233426
174	0x3b4b2a2c	0.0031000478
175	0xbc7ead0b	-0.015544186
176	0x3b3573ef	0.002768751
177	0xba2dd01b	-0.00066304364
178	0xbcc9d91a	-0.024639655
179	0x3bd22f5a	0.006414336
180	0x3ca7ead7	0.020497723
181	0xbbdb8877	-0.0066996175
182	0xbd092904	-0.03348638
183	0x3ccb17cf	0.024791626
184	0x3a09d097	0.00052572176
185	0xbd06004b	-0.032715123
186	0x3d3f3eaa	0.04669062
187	0xbca53d75	-0.020170907
188	0xbb8e75f5	-0.0043475577
189	0x394408f6	0.00018695355
190	0x3c0cd84b	0.00859649
191	0x3c3e35af	0.011609479
192	0xbb8a8802	-0.004227639
193	0x3aaafd3f	0.0013045444
194	0xbc0d7baf	-0.0086354455
195	0x3ca5b258	0.020226642
196	0xbb93af8f	-0.004507012
197	0xbc3417db	-0.010992016
198	0x3c160b27	0.009157932
199	0x3c831d9b	0.016005328
200	0x3be3d4fa	0.006952879
201	0xbc23ada4	-0.00999013
202	0xbd0416bf	-0.032248255
203	0xbb7d55da	-0.0038655908
204	0xbcae8e5f	-0.021308122
205	0x3c503398	0.012707613
206	0xbbdc87ed	-0.006730071
207	0xbbe958f2	-0.007121199
208	0x3c633547	0.013867683
209	0xbc424783	-0.01185787
210	0x3ca6700f	0.020317106
211	0xbb79eaea	-0.0038134404
212	0xbc423495	-0.011853357
213	0x3b29459f	0.002582885
214	0x3c29acab	0.010356109
215	0xbc598135	-0.013275434
216	0xbd115fa3	-0.035491597
217	0x3a62d79a	0.0008653343
218	0xbc9b7b6b	-0.018979749
219	0x3b133747	0.0022463368
220	0xbc32bc7e	-0.010909198
221	0x3ca7b1e1	0.020470561
222	0xba49490b	-0.0007678426
223	0xbc997598	-0.01873283
224	0x3d5c80a7	0.05383363
225	0x3cb84574	0.022494055
226	0xbb9299d0	-0.0044739023
227	0xbc73df15	-0.01488473
228	0x3c225f67	0.009910441
229	0xbc3b6c72	-0.01143943
230	0x3cb7866c	0.022402965
231	0x3c0fa253	0.008766728
232	0x3cad04b3	0.021120405
233	0xbc1de7e3	-0.009637806
234	0xbca8be78	-0.020598635
235	0xbcc304a8	-0.023805931
236	0xbc1561d5	-0.009117563
237	0xbb44ef64	-0.0030049914
238	0x3ca92793	0.020648753
239	0x3ca68fd1	0.020332249
240	0xbc04c478	-0.008103482
241	0x3cd89805	0.026439676
242	0x3b419e7a	0.0029543922
243	0x3c33dbf6	0.010977736
244	0xbc33ed1b	-0.010981823
245	0xbc02065e	-0.007936088
246	0x3c494d45	0.012286489
247	0x3cebeb5a	0.028798748
248	0x3c032a7e	0.008005736
249	0xbd0d16c4	-0.03444554
250	0xbaacaee1	-0.0013174677
251	0x3ba81378	0.005129274
252	0xbcdc6f1f	-0.026908455
253	0xbab3e375	-0.0013724404
254	0xbac552c7	-0.0015054577
255	0x3a25a867	0.00063193444

network_body.linear_encoder.seq_layers.0.bias f4 [128]
0	0x00000000	0.0
1	0x00000000	0.0
2	0x00000000	0.0
3	0x00000000	0.0
4	0x00000000	0.0
5	0x00000000	0.0
6	0x00000000	0.0
7	0x00000000	0.0
8	0x00000000	0.0
9	0x00000000	0.0
10	0x00000000	0.0
11	0x00000000	0.0
12	0x00000000	0.0
13	0x00000000	0.0
14	0x00000000	0.0
15	0x00000000	0.0
16	0x00000000	0.0
17	0x00000000	0.0
18	0x00000000	0.0
19	0x00000000	0.0
20	0x00000000	0.0
21	0x00000000	0.0
22	0x00000000	0.0
23	0x00000000	0.0
24	0x00000000	0.0
25	0x00000000	0.0
26	0x00000000	0.0
27	0x00000000	0.0
28	0x00000000	0.0
29	0x00000000	0.0
30	0x00000000	0.0
31	0x00000000	0.0
32	0x00000000	0.0
33	0x00000000	0.0
34	0x00000000	0.0
35	0x00000000	0.0
36	0x00000000	0.0
37	0x00000000	0.0
38	0x00000000	0.0
39	0x00000000	0.0
40	0x00000000	0.0
41	0x00000000	0.0
42	0x00000000	0.0
43	0x00000000	0.0
44	0x00000000	0.0
45	0x00000000	0.0
46	0x00000000	0.0
47	0x00000000	0.0
48	0x00000000	0.0
49	0x00000000	0.0
50	0x00000000	0.0
51	0x00000000	0.0
52	0x00000000	0.0
53	0x00000000	0.0
54	0x00000000	0.0
55	0x00000000	0.0
56	0x00000000	0.0
57	0x00000000	0.0
58	0x00000000	0.0
59	0x00000000	0.0
60	0x00000000	0.0
61	0x00000000	0.0
62	0x00000000	0.0
63	0x00000000	0.0
64	0x00000000	0.0
65	0x00000000	0.0
66	0x00000000	0.0
67	0x00000000	0.0
68	0x00000000	0.0
69	0x00000000	0.0
70	0x00000000	0.0
71	0x00000000	0.0
72	0x00000000	0.0
73	0x00000000	0.0
74	0x00000000	0.0
75	0x00000000	0.0
76	0x00000000	0.0
77	0x00000000	0.0
78	0x00000000	0.0
79	0x00000000	0.0
80	0x00000000	0.0
81	0x00000000	0.0
82	0x00000000	0.0
83	0x00000000	0.0
84	0x00000000	0.0
85	0x00000000	0.0
86	0x00000000	0.0
87	0x00000000	0.0
88	0x00000000	0.0
89	0x00000000	0.0
90	0x00000000	0.0
91	0x00000000	0.0
92	0x00000000	0.0
93	0x00000000	0.0
94	0x00000000	0.0
95	0x00000000	0.0
96	0x00000000	0.0
97	0x00000000	0.0
98	0x00000000	0.0
99	0x00000000	0.0
100	0x00000000	0.0
101	0x00000000	0.0
102	0x00000000	0.0
103	0x00000000	0.0
104	0x00000000	0.0
105	0x00000000	0.0
106	0x00000000	0.0
107	0x00000000	0.0
108	0x00000000	0.0
109	0x00000000	0.0
110	0x00000000	0.0
111	0x00000000	0.0
112	0x00000000	0.0
113	0x00000000	0.0
114	0x00000000	0.0
115	0x00000000	0.0
116	0x00000000	0.0
117	0x00000000	0.0
118	0x00000000	0.0
119	0x00000000	0.0
120	0x00000000	0.0
121	0x00000000	0.0
122	0x00000000	0.0
123	0x00000000	0.0
124	0x00000000	0.0
125	0x00000000	0.0
126	0x00000000	0.0
127	0x00000000	0.0

network_body.linear_encoder.seq_layers.0.weight f4 [128, 18]
0	0xbea08252	-0.31349427
1	0xbd8dc750	-0.069227815
2	0xbd9e3c8f	-0.077263944
3	0x3e615a05	0.22006996
4	0xbe53b188	-0.20673192
5	0x3e83bacd	0.25728455
6	0x3e2d0650	0.1689694
7	0xbed7a007	-0.4211428
8	0xbba957b4	-0.0051679257
9	0x3e9c2962	0.30500323
10	0x3e03e60e	0.12880728
11	0xbeefa6f3	-0.4680706
12	0xbe22fbcd	-0.15916367
13	0xbc444534	-0.01197939
14	0x3ed70b3b	0.42000756
15	0xbf142a4d	-0.57877046
16	0x3dee2cf0	0.11629665
17	0x3e9d0383	0.30666742
18	0x3b1ce1a8	0.0023938213
19	0x3c7a1ab3	0.015265155
20	0x3ecda68e	0.40166134
21	0xbe583b65	-0.21116407
22	0xbd814ac2	-0.06313087
23	0x3e6af93d	0.2294664
24	0xbe15468d	-0.14577694
25	0xbd3e1082	-0.04640246
26	0xbeb6dae0	-0.35713863
27	0xbe16e165	-0.14734419
28	0x3e98e539	0.29862383
29	0xbd36b303	-0.044604313
30	0x3c324196	0.010879895
31	0xbe4fee12	-0.2030566
32	0xbe7071ea	-0.23480955
33	0xbd2dcf80	-0.042434216
34	0x3dfeb5a9	0.12436993
35	0x3e77439e	0.24146888
36	0xbf0de293	-0.5542385
37	0x3e3b01be	0.18262383
38	0xbdd5172a	-0.10404809
39	0xbe24c7ad	-0.16091795
40	0xbdb065f5	-0.08613197
41	0x3e462783	0.1935101
42	0x3eb89673	0.36052284
43	0xbdfe12ee	-0.12405954
44	0xbe9b658f	-0.3035092
45	0x3e81ce84	0.2535287
46	0x3e569075	0.20953543
47	0xbe57f0ad	-0.21087904
48	0xbe605342	-0.2190676
49	0xbe1393bc	-0.14411825
50	0xbeff54d7	-0.49869415
51	0xbccba435	-0.024858573
52	0xbd5c8ee4	-0.05384721
53	0x3d593074	0.053024724
54	0x3e534da1	0.20635082
55	0x3cb2471f	0.021762429
56	0x3e243f53	0.16039781
57	0x3dabdf40	0.08392191
58	0x3e2a67db	0.1664118
59	0xbe0acfd5	-0.13555844
60	0x3d2c48bb	0.04206155
61	0xbea9c81f	-0.33160493
62	0x3e3d6a5a	0.18497601
63	0x3e1d4179	0.15357007
64	0x3e4852c8	0.19562829
65	0xbda35688	-0.07975489
66	0xbef0fb13	-0.47066554
67	0x3edab515	0.4271628
68	0xbe443929	-0.1916243
69	0x3dd374e7	0.10325032
70	0xbf16036f	-0.5859899
71	0x3e0b2055	0.13586552
72	0x3eab9930	0.3351531
73	0x3eb30a44	0.3496877
74	0x3ccf562f	0.02530965
75	0x3dcfa026	0.10137968
76	0xbed7ca67	-0.42146608
77	0x3e739fbd	0.23791404
78	0xbec393d2	-0.38198715
79	0xbdd93a19	-0.106067844
80	0xbe2b8e9c	-0.1675362
81	0xbda44f4e	-0.08022939
82	0x3e8f83b4	0.2803017
83	0xbc25f525	-0.010129248
84	0xbe01c87c	-0.12674135
85	0xbe891c40	-0.26779366
86	0xbc883a22	-0.016629282
87	0xbed1fc73	-0.41012916
88	0x3af228fb	0.0018475348
89	0x3e8c0302	0.27346045
90	0x3f51870c	0.8184669
91	0x3db436c3	0.087995075
92	0x3e969a3e	0.29414552
93	0x3ea7a478	0.32742667
94	0x3eacc840	0.3374653
95	0xbe87ef0d	-0.2654957
96	0x3e26c658	0.162866
97	0xbc0dbd81	-0.008651138
98	0xbe915758	-0.2838695
99	0xbe9f9113	-0.3116537
100	0xbe18f4f5	-0.14937194
101	0xbdbaba65	-0.09117583
102	0xbe7a7959	-0.24460353
103	0x3d8adec6	0.06780772
104	0x3df26391	0.11835397
105	0xbcbccfc4	-0.02304829
106	0x3ea0ac71	0.31381562
107	0xbdbd2579	-0.09235663
108	0x3d165751	0.036704365
109	0x3e422d21	0.18962528
110	0x3e871088	0.263798
111	0xbe240305	-0.16016777
112	0xbc9eb0ee	-0.019371476
113	0x3d911c23	0.07085445
114	0x3e104b3a	0.14091197
115	0xbea62cdd	-0.32456103
116	0xbe2448e3	-0.16043429
117	0x3ef5c666	0.48002928
118	0xbe59e493	-0.212786
119	0xbdd1ae86	-0.10238366
120	0x3e5e26ec	0.21694535
121	0x3caf4a03	0.021397596
122	0x3d7d5103	0.061844837
123	0x3eaa4dee	0.3326258
124	0xbd94d178	-0.072665155
125	0xbd1eb92a	-0.038750805
126	0x3ef453c4	0.47720158
127	0x3d5fe691	0.054663245
128	0x3deba716	0.115064785
129	0xbeca1fb3	-0.3947731
130	0x3ea46753	0.3211008
131	0xbf2a0577	-0.6641459
132	0xbdee2a87	-0.11629205
133	0xbe501e07	-0.20323955
134	0x3cfc07c4	0.030765422
135	0x3d87fe63	0.06640317
136	0xbda01be9	-0.078178234
137	0xbdc9ea81	-0.09859181
138	0xbdb34540	-0.08753443
139	0xbd3d087f	-0.04615068
140	0x3c717c3d	0.014739093
141	0xbdbc07b8	-0.0918116
142	0x3eb0dcf9	0.3454359
143	0x3e1625bd	0.14662834
144	0xbe78ec53	-0.243089
145	0x3e04de41	0.12975408
146	0x3ee6a784	0.4504968
147	0x3e39dd65	0.18150862
148	0xbe48027c	-0.19532198
149	0x3e862652	0.2620111
150	0xbe514ab8	-0.20438659
151	0x3cf274c2	0.02959669
152	0x3dd4b715	0.103864826
153	0x3d42788e	0.04747825
154	0x3ec6016a	0.38672954
155	0xbe7fc3b9	-0.24977006
156	0x3dcba2e2	0.09943177
157	0x3e967878	0.29388785
158	0x3cbef491	0.023309978
159	0xbdb5dd40	-0.08880091
160	0x3e0a8bad	0.13529845
161	0xbe7174a9	-0.23579659
162	0x3e72ef2f	0.23724054
163	0x3debdf12	0.11517157
164	0xbe40008a	-0.18750206
165	0xbe4d1e5a	-0.2003111
166	0x3eab8f56	0.33507794
167	0x3e56dc02	0.20982364
168	0xbda09611	-0.07841123
169	0xbcf63966	-0.030056667
170	0xbec3239b	-0.38113102
171	0x3cc35183	0.023842579
172	0x3eb23dbd	0.34812728
173	0xbe9cb65f	-0.30607888
174	0xbe3d6c99	-0.18498458
175	0xbdd58a44	-0.10426763
176	0x3e3f4c42	0.18681434
177	0x3f2c6992	0.6734859
178	0xbddb4fa5	-0.1070855
179	0x3e4526bd	0.19253059
180	0x3dbdf87e	0.09275912
181	0x3c86a4d4	0.016436018
182	0xbe8534a0	-0.26016712
183	0xbe586113	-0.21130781
184	0x3b3b0b53	0.0028540685
185	0x3e8f44d6	0.27982205
186	0x3e3d4be6	0.18485984
187	0xbe2c37be	-0.16818139
188	0x3db5e25a	0.08881064
189	0x3ebe4511	0.37162068
190	0xbe315272	-0.17316607
191	0xbe529aac	-0.20566815
192	0xbea89629	-0.32927063
193	0x3db8270c	0.089918226
194	0x3c25adc6	0.010112232
195	0x3e3811c1	0.17975523
196	0x3d6884b8	0.056767195
197	0xbf09a31b	-0.53764504
198	0xbe4f2766	-0.20229873
199	0xbe1a7755	-0.15084584
200	0xbe3f5b0b	-0.18687074
201	0x3edb51cf	0.42835853
202	0x3db5d7db	0.08879062
203	0xbe89a27f	-0.26881787
204	0x3e91d6c3	0.28484163
205	0x3d0f7a14	0.035028532
206	0xbe882301	-0.26589206
207	0xbdfe26d1	-0.124097474
208	0xbe1e80d1	-0.15478827
209	0x3cb588a5	0.022159884
210	0x3db32da4	0.0874894
211	0xbe74d97f	-0.23911093
212	0xbe2c0fe7	-0.16802941
213	0xbea360e6	-0.31909865
214	0x3edbc967	0.42927095
215	0xbe72f1f8	-0.23725116
216	0x3d56e557	0.05246481
217	0x3dd12a30	0.10213125
218	0xbe102235	-0.14075549
219	0x3efa25c5	0.4885694
220	0xbe7df118	-0.24799001
221	0xbdbee116	-0.093202755
222	0x3ef6e39d	0.4822053
223	0x3c997580	0.018732786
224	0xbe5b8a6b	-0.21439521
225	0xbbbbbf20	-0.005729571
226	0x3e46ce74	0.19414693
227	0xbd180f54	-0.037123993
228	0xbe51fed5	-0.20507367
229	0xba407f5d	-0.00073431974
230	0x3e1d5d24	0.15367562
231	0xbeadeb9e	-0.33968824
232	0x3d3edf92	0.046599932
233	0xbec49ee5	-0.38402477
234	0xbe31ce41	-0.17363836
235	0xbd096731	-0.033545677
236	0xbd7dbfab	-0.061950367
237	0x3e05fcfc	0.13084787
238	0xbe15a8d8	-0.1461519
239	0x3e8e0589	0.27738598
240	0x3d1532e6	0.036425494
241	0xbed9824b	-0.42482218
242	0xbe65c29c	-0.22437519
243	0xbb4a568d	-0.0030874342
244	0x3e11e0d4	0.14245921
245	0x3d164a91	0.036692206
246	0xbeac184b	-0.33612284
247	0x3ea7d670	0.3278079
248	0x3e70881a	0.23489419
249	0xbe72010f	-0.23633216
250	0x3e0405f4	0.12892896
251	0x3f1dff26	0.6171745
252	0x3f07e285	0.53080016
253	0x3dbe0721	0.092787035
254	0x3e006f61	0.12542488
255	0x3eceea5e	0.40413183

network_body.linear_encoder.seq_layers.2.bias f4 [128]
0	0x00000000	0.0
1	0x00000000	0.0
2	0x00000000	0.0
3	0x00000000	0.0
4	0x00000000	0.0
5	0x00000000	0.0
6	0x00000000	0.0
7	0x00000000	0.0
8	0x00000000	0.0
9	0x00000000	0.0
10	0x00000000	0.0
11	0x00000000	0.0
12	0x00000000	0.0
13	0x00000000	0.0
14	0x00000000	0.0
15	0x00000000	0.0
16	0x00000000	0.0
17	0x00000000	0.0
18	0x00000000	0.0
19	0x00000000	0.0
20	0x00000000	0.0
21	0x00000000	0.0
22	0x00000000	0.0
23	0x00000000	0.0
24	0x00000000	0.0
25	0x00000000	0.0
26	0x00000000	0.0
27	0x00000000	0.0
28	0x00000000	0.0
29	0x00000000	0.0
30	0x00000000	0.0
31	0x00000000	0.0
32	0x00000000	0.0
33	0x00000000	0.0
34	0x00000000	0.0
35	0x00000000	0.0
36	0x00000000	0.0
37	0x00000000	0.0
38	0x00000000	0.0
39	0x00000000	0.0
40	0x00000000	0.0
41	0x00000000	0.0
42	0x00000000	0.0
43	0x00000000	0.0
44	0x00000000	0.0
45	0x00000000	0.0
46	0x00000000	0.0
47	0x00000000	0.0
48	0x00000000	0.0
49	0x00000000	0.0
50	0x00000000	0.0
51	0x00000000	0.0
52	0x00000000	0.0
53	0x00000000	0.0
54	0x00000000	0.0
55	0x00000000	0.0
56	0x00000000	0.0
57	0x00000000	0.0
58	0x00000000	0.0
59	0x00000000	0.0
60	0x00000000	0.0
61	0x00000000	0.0
62	0x00000000	0.0
63	0x00000000	0.0
64	0x00000000	0.0
65	0x00000000	0.0
66	0x00000000	0.0
67	0x00000000	0.0
68	0x00000000	0.0
69	0x00000000	0.0
70	0x00000000	0.0
71	0x00000000	0.0
72	0x00000000	0.0
73	0x00000000	0.0
74	0x00000000	0.0
75	0x00000000	0.0
76	0x00000000	0.0
77	0x00000000	0.0
78	0x00000000	0.0
79	0x00000000	0.0
80	0x00000000	0.0
81	0x00000000	0.0
82	0x00000000	0.0
83	0x00000000	0.0
84	0x00000000	0.0
85	0x00000000	0.0
86	0x00000000	0.0
87	0x00000000	0.0
88	0x00000000	0.0
89	0x00000000	0.0
90	0x00000000	0.0
91	0x00000000	0.0
92	0x00000000	0.0
93	0x00000000	0.0
94	0x00000000	0.0
95	0x00000000	0.0
96	0x00000000	0.0
97	0x00000000	0.0
98	0x00000000	0.0
99	0x00000000	0.0
100	0x00000000	0.0
101	0x00000000	0.0
102	0x00000000	0.0
103	0x00000000	0.0
104	0x00000000	0.0
105	0x00000000	0.0
106	0x00000000	0.0
107	0x00000000	0.0
108	0x00000000	0.0
109	0x00000000	0.0
110	0x00000000	0.0
111	0x00000000	0.0
112	0x00000000	0.0
113	0x00000000	0.0
114	0x00000000	0.0
115	0x00000000	0.0
116	0x00000000	0.0
117	0x00000000	0.0
118	0x00000000	0.0
119	0x00000000	0.0
120	0x00000000	0.0
121	0x00000000	0.0
122	0x00000000	0.0
123	0x00000000	0.0
124	0x00000000	0.0
125	0x00000000	0.0
126	0x00000000	0.0
127	0x00000000	0.0

network_body.linear_encoder.seq_layers.2.weight f4 [128, 128]
0	0x3d9459cf	0.07243692
1	0x3e2cf4d7	0.16890274
2	0xbdcdec3c	-0.10054824
3	0x3dd4ee3f	0.10397004
4	0xbb1ef700	-0.002425611
5	0x3e0d54bc	0.13801855
6	0x3e406a7a	0.18790618
7	0x3d037b7a	0.03210018
8	0xbd286a13	-0.041116785
9	0xbc7c2393	-0.015389341
10	0xbd3609d4	-0.044442967
11	0x3d894c9c	0.06704065
12	0x3e09ed7b	0.13469498
13	0xbdc0e2e7	-0.09418278
14	0x391a9d45	0.00014745172
15	0x3dae9d0f	0.0852605
16	0xbdb52c4c	-0.088463396
17	0xbe1a0e7f	-0.15044592
18	0x3c894094	0.016754426
19	0x3dab02b1	0.08350123
20	0x3cddf9c2	0.027096633
21	0xbdc19067	-0.09451371
22	0xbdeb6917	-0.11494654
23	0xbcfa75af	-0.030573694
24	0xbd2d208e	-0.042267375
25	0xbcd1d5a0	-0.02561456
26	0x3dddce81	0.10830403
27	0x3c60d48a	0.013722548
28	0xbd281e89	-0.041044746
29	0x3d19f962	0.037591346
30	0x3e063b49	0.13108553
31	0x3d59972b	0.05312268
32	0x3d819081	0.0632639
33	0xbcbcd6ef	-0.023051707
34	0x3e0cc192	0.13745716
35	0x3dcc1190	0.09964287
36	0xbdaab4f1	-0.08335293
37	0x3d290e23	0.041273247
38	0x3d7345c7	0.059392717
39	0x3e34eced	0.17668505
40	0xbc39ce9f	-0.011340766
41	0xbb0199f2	-0.0019775596
42	0xbc2e78b3	-0.010648894
43	0x3cab32f5	0.020898322
44	0xbdcbc414	-0.09949508
45	0x3e50b322	0.20380834
46	0xbdf1982d	-0.11796603
47	0x3e65f6c1	0.2245741
48	0xbe1349b8	-0.1438359
49	0x3db5e902	0.08882333
50	0x3d1bb1bf	0.03801131
51	0xbc1b331f	-0.009472637
52	0xbe152f88	-0.14568913
53	0x3dca4f0c	0.09878358
54	0x3d13b9be	0.03606581
55	0xbd687bd7	-0.056758728
56	0x3dbccf80	0.09219265
57	0xbdf86017	-0.12127703
58	0xbd17cef6	-0.037062608
59	0x3d93e718	0.07221812
60	0xbd09d163	-0.033646952
61	0x3cb08b91	0.021550925
62	0xbd294cdf	-0.041333076
63	0xbdb0ec60	-0.08638835
64	0x3d396116	0.045258604
65	0xbd059acc	-0.03261833
66	0x3c1e108f	0.009647503
67	0x3db24e27	0.087063126
68	0xbd8f00b8	-0.06982559
69	0x3d15ef9a	0.036605455
70	0xbd02e6ab	-0.031958263
71	0x3d8892f4	0.06668654
72	0x3e10b01d	0.14129682
73	0xbdc9f530	-0.09861219
74	0x3cc07330	0.023492426
75	0xbdf261fa	-0.11835094
76	0x3c77df90	0.015128985
77	0x3d933ad9	0.07188959
78	0xbcd40863	-0.025882905
79	0xbd106e8c	-0.035261676
80	0xbe1db5f9	-0.15401448
81	0x3c6ca7b3	0.0144442795
82	0x3d3f9009	0.046768222
83	0xbcb3328b	-0.021874687
84	0xbd4d6aad	-0.050150562
85	0x3e2a82fd	0.1665153
86	0xbc1e0036	-0.009643605
87	0xbdef6290	-0.11688721
88	0xbdcd17ed	-0.10014329
89	0xbdcc494c	-0.09974918
90	0xbe07d3ee	-0.13264439
91	0xbc29f7b4	-0.010373998
92	0xbe2abc37	-0.16673361
93	0x3d1a2f5e	0.03764283
94	0xbd8316a1	-0.064008005
95	0x3d2b9e44	0.04189898
96	0x3cdf2f5f	0.027244268
97	0xbd0dc301	-0.0346098
98	0x3accf8bf	0.0015638097
99	0x3c4320a3	0.011909637
100	0xbaa1209b	-0.0012293042
101	0x3d306a43	0.04307009
102	0xbc68a224	-0.014198814
103	0xbc54ae52	-0.012981014
104	0xbda51bb8	-0.080619276
105	0x3d85e8c1	0.06538535
106	0x3e151e87	0.14562427
107	0x3ca94486	0.020662557
108	0x3d9a83f9	0.07544703
109	0x3e1f3f88	0.15551579
110	0xbdf4f02c	-0.11959872
111	0x3dd9d9d2	0.10637249
112	0x3d90f757	0.07078426
113	0x3e16d44d	0.14729424
114	0x3e35d435	0.17756732
115	0x3c6f3da1	0.014602096
116	0xbd2b0b8e	-0.041759066
117	0x3d192cfd	0.03739642
118	0xbca3d0be	-0.019996997
119	0x3d440747	0.047858503
120	0xbdc801f7	-0.09766
121	0x3d016234	0.031587794
122	0x3cf32910	0.029682666
123	0xbda83d4c	-0.082148165
124	0x3d47bc6c	0.048763677
125	0xbdd20881	-0.10255528
126	0x3dc0619a	0.09393616
127	0xbda59d04	-0.08086589
128	0xbd50513c	-0.05085872
129	0x3d9bb0cf	0.07602083
130	0xbe21d486	-0.15803728
131	0xbd987b9d	-0.07445452
132	0x3c8a7135	0.016899684
133	0xbcc456ca	-0.023967165
134	0x3b2e28e7	0.0026574673
135	0x3d1d2bf5	0.038372
136	0xbe511bea	-0.20420805
137	0x3dcdb113	0.1004354
138	0x3ccb83c2	0.0248431
139	0x3dd78906	0.10524182
140	0xbd49e24a	-0.04928807
141	0x3debe489	0.11518199
142	0x3d222d03	0.039593708
143	0xbe031ba0	-0.12803507
144	0xbd307dd4	-0.04308875
145	0xba4fa244	-0.0007920603
146	0xbdbd0902	-0.09230234
147	0x3cd0add5	0.025473515
148	0xbe81213a	-0.25220662
149	0x3e00c556	0.12575278
150	0x3a6ecea2	0.000910977
151	0x3d81f957	0.06346386
152	0x3df4698f	0.11934196
153	0xbdf848bf	-0.1212325
154	0x3d4c0bed	0.04981606
155	0x3d5df56a	0.054189123
156	0xbc8e942a	-0.017404635
157	0xbe235896	-0.15951762
158	0xbb4b2eff	-0.0031003354
159	0xbe2c21de	-0.16809794
160	0x3e18398d	0.14865704
161	0xbdad5a0f	-0.08464443
162	0xbd80be5b	-0.062863074
163	0xbd8760ab	-0.06610235
164	0xbda7c4e9	-0.081918545
165	0xbcb91b5e	-0.022596058
166	0x3d54803b	0.051880103
167	0xbd70af09	-0.058760677
168	0x3d65ebc0	0.05613303
169	0x3d243884	0.04009296
170	0xbdbdaa59	-0.09261007
171	0xbdba2792	-0.09089579
172	0x3dd30f1f	0.103056185
173	0x3ca9afed	0.02071377
174	0x3dbb9b7d	0.091605164
175	0x3e0443f1	0.12916543
176	0xbd0273ba	-0.031848647
177	0xbe02a229	-0.12757172
178	0x3c988ac6	0.01862086
179	0x3e34d851	0.17660643
180	0x3cf010ed	0.029304946
181	0xbe206c12	-0.15666226
182	0xbcb51608	-0.022105232
183	0xbd0af884	-0.03392841
184	0x3d935052	0.07193054
185	0xbd120834	-0.035652354
186	0xbd188ed0	-0.03724557
187	0xba8e25fc	-0.001084506
188	0xbb0fa18f	-0.0021916365
189	0x3d500822	0.050789006
190	0x3d61967b	0.05507515
191	0xbe6333cc	-0.22187728
192	0xbd49b957	-0.04924902
193	0x3dd38082	0.10327245
194	0x3c8506de	0.016238626
195	0xbdfb2e36	-0.122646734
196	0x3c823218	0.015893027
197	0x3d6b10f6	0.057389222
198	0x3c7d62a6	0.015465414
199	0xbdd6e4eb	-0.104928814
200	0xbe49f936	-0.19723973
201	0xb9457d1d	-0.00018833992
202	0x3d54fa20	0.05199635
203	0xbb9eeaaa	-0.0048497515
204	0x3dbe91af	0.09305131
205	0xbd485b75	-0.048915345
206	0x3c007f7d	0.007842896
207	0x3d5b18e8	0.05349055
208	0xbc8d9964	-0.017285056
209	0xbdde71af	-0.10861527
210	0x3deb0a02	0.11476518
211	0x3d282b01	0.041056637
212	0x3dae96fc	0.08524892
213	0x3d1a2337	0.03763124
214	0xbd09d55e	-0.03365075
215	0xbd74d726	-0.059775494
216	0xbe0db8b6	-0.13839993
217	0xbd3f15df	-0.046651717
218	0xbda1a737	-0.07893222
219	0x3da31075	0.07962123
220	0xbd3bfe74	-0.045896962
221	0x3d8d8f11	0.069120534
222	0xbe4a03b1	-0.1972797
223	0x3dbbd0fc	0.0917072
224	0xbdf80a56	-0.121113464
225	0x3d3afa2b	0.045648735
226	0x3d6b535c	0.057452545
227	0x3b941d02	0.0045200596
228	0xbd6d3c57	-0.057918873
229	0x3dc921ee	0.09820925
230	0x3d28778b	0.04112963
231	0xbde08746	-0.10963301
232	0xbd292643	-0.041296255
233	0xbd7a3eb9	-0.061094973
234	0xbda4adea	-0.08040984
235	0x3d11c66c	0.03558962
236	0x3dd9d8cf	0.10637056
237	0x3de1ed6b	0.11031612
238	0x3db2a3b4	0.0872263
239	0x3db2ff5e	0.08740114
240	0xbae0a856	-0.0017140012
241	0x3d63a2ee	0.055575304
242	0x3e22bef0	0.1589315
243	0x3e5c17ee	0.21493503
244	0x3dfa67b5	0.12226812
245	0x3d92918e	0.071566686
246	0x3caf6f90	0.021415502
247	0xbe13ca6f	-0.14432691
248	0xbca26203	-0.019822126
249	0x3cc278e0	0.023739278
250	0xbc177e6b	-0.009246449
251	0x3da5adc8	0.08089787
252	0xbc1a2996	-0.009409329
253	0xbd9a98ac	-0.07548651
254	0x3c511249	0.012760707
255	0xbd920298	-0.07129401
