results/ppo/My Behavior/My Behavior-55717.pt (torch, 448479 bytes, 36 tensors)

network_body.linear_encoder.seq_layers.0.weight f4 [128, 9]
0.3010253 -0.39113587 -0.5176483 0.26393595 -0.3951813 -0.009861393 0.35752028 -0.35896996
-0.5463702 0.1434821 0.14165129 0.42289037 -0.41234416 -0.016552065 -0.35508046 0.08972893
0.32994992 -0.3894013 -0.17572974 -0.0655148 -0.3286429 0.20730136 -0.13455635 -0.21521893
-0.3650587 -0.081928566 -0.44320697 0.18986546 -0.24162576 -0.10040228 -0.07206418 -0.19830205
0.81687593 0.049607996 -0.3882633 -0.6356364 0.07388412 -0.12341231 -0.31743836 0.2849818
-0.07331315 0.6717208 -0.042775825 -0.16182613 0.19427834 0.09710745 -0.3933943 -0.23968412
0.40618688 -0.13099813 0.6478483 -0.30644187 -0.19357438 -0.11143251 -0.30882177 0.42491218
0.01048561 0.4613621 0.15165153 0.18674918 -0.69452393 -0.7891507 0.44602278 -0.003135741
-0.19102436 0.098621085 0.46347195 0.4238678 -0.42973056 0.15343432 0.3676681 -0.072410874
-0.7306328 -0.35156724 0.61719465 0.12633564 0.60660785 0.23598923 0.12943292 0.18631388
-0.5555251 -0.10023343 0.047366183 -0.16880435 0.039631914 -0.61715853 0.15018812 0.099536404
0.7728786 0.12157092 0.19076052 0.47666782 0.41243446 -0.3876805 -0.3192262 -0.15558977
-0.37990728 -0.5499796 0.031394895 -0.08145141 0.18766086 -0.27799907 -0.1409951 -0.2944264
0.50785613 -0.41541684 -0.008841501 -0.29734716 0.31102383 -0.55356574 0.2101367 -0.032132972
-0.18560599 -0.4534508 0.60495776 -0.42375457 -0.36898032 0.0342771 -0.3776556 -0.32240778
-0.10650941 -0.038018193 0.1887787 -0.2732136 -0.11809589 0.25456816 0.060735352 -0.7272267
-0.09463372 -0.04466717 0.27075636 -0.2035071 -0.4878414 -0.022794917 0.113295734 -0.24455209
0.080710664 -0.22524986 0.19805087 -0.37691003 0.47144356 0.52443445 -0.02257413 -0.19624072
0.0017809636 0.30783588 -0.20832355 0.198791 0.13315591 0.0075220102 0.371731 0.09235029
0.09559284 0.23765652 1.0320404 0.04209001 -0.051584296 0.3794378 -0.08565689 0.13355812
-0.34360945 -0.08124353 0.3386724 0.20032166 0.24163169 -0.45131475 -0.3100459 -0.16239807
-0.13720228 -0.26169768 0.013861735 0.37535933 0.3142105 0.1860135 0.4724637 0.37390563
-0.29574466 -0.02802287 -0.0062477957 0.3782274 0.15464297 0.072705254 -0.22144295 -0.14572379
-0.57947445 -0.21464768 0.5316278 -0.5414423 0.0032703353 -0.107638225 -0.25661883 0.5517017
-0.36033773 -0.010275572 0.4114983 -0.14691104 -0.6409279 -0.3683733 -0.8627492 -0.23333102
-0.021447392 -0.34568334 -0.079570554 -0.18144426 0.17670889 0.115570806 -0.50066876 0.32555166
-0.10760872 0.3039648 -0.06606098 -0.030377598 0.2715554 0.08689067 0.14004189 0.036194265
0.1498438 0.16433553 0.05471273 0.210764 -0.2042729 0.31987813 0.061539434 0.22991425
0.018531267 -0.075156294 0.20112315 -0.5026364 0.89634115 0.6148505 0.13085744 -0.013024668
-0.81144327 0.24085799 0.16407129 0.042078186 0.033482175 -0.12464267 -0.32915774 0.29170343
-0.47916558 -0.3169633 -0.17977051 0.03186694 0.11644389 0.2594704 0.26003176 0.0013806752
0.17754441 0.050269164 0.25859955 0.07555278 0.07392095 -0.84999937 -0.28393078 0.0068821455
00000000: fd1f 9a3e f642 c8be 9984 04bf 9d22 873e
00000010: 3455 cabe ae91 21bc e60c b73e e9ca b7be
00000020: ebde 0bbf f9ec 123e 090d 113e 1685 d83e
00000030: c61e d3be 3298 87bc 1bcd b5be cdc3 b73d
00000040: 32ef a83e 9b5f c7be 7ff2 33be a02c 86bd
00000050: e243 a8be cf46 543e 24c9 09be 5a62 5cbe
00000060: f9e8 babe 2aca a7bd 06ec e2be 176c 423e
00000070: be6c 77be b69f cdbd 6396 93bd b10f 4bbe
00000080: c81e 513f c131 4b3d 72ca c6be 11b9 22bf
00000090: 8f50 973d 98bf fcbd 4887 a2be 22e9 913e
000000a0: 3425 96bd e5f5 2b3f b435 2fbd c0b5 25be
000000b0: e7f0 463e 45e0 c63d fa6a c9be c16f 75be
000000c0: baf7 cf3e 6024 06be 63d9 253f f3e5 9cbe
000000d0: 5d38 46be ba36 e4bd e31d 9ebe 178e d93e
000000e0: d6cb 2b3c a737 ec3e 8a4a 1b3e 2d3b 3f3e
000000f0: 52cc 31bf c805 4abf 195d e43e 0181 4dbb
00000100: e49b 43be daf9 c93d 324c ed3e 3305 d93e
00000110: a505 dcbe e31d 1d3e fe3e bc3e 274c 94bd
00000120: c00a 3bbf 9f00 b4be 7800 1e3f 215e 013e
00000130: a74a 1b3f 29a7 713e 108a 043e 11c9 3e3e
00000140: e536 0ebf 2f47 cdbd 0b03 423d 0cdb 2cbe
00000150: 1355 223d 1afe 1dbf eaca 193e bed9 cb3d
00000160: 5fdb 453f 2dfa f83d ba56 433e ce0d f43e
00000170: 9c2a d33e 0f7e c6be 9e71 a3be ed52 1fbe
00000180: 3583 c2be 77cb 0cbf ef97 003d ffcf a6bd
00000190: 2b2a 403e e555 8ebe 0561 10be 0fbf 96be
000001a0: dc02 023f 84b1 d4be f1db 10bc e33d 98be
000001b0: 843e 9f3e 7cb6 0dbf 132e 573e dd9d 03bd
000001c0: 7f0f 3ebe b42a e8be 83de 1a3f 5cf6 d8be
000001d0: fdea bcbe 2566 0c3d 135c c1be a212 a5be
000001e0: 9b21 dabd f7b8 1bbd 344f 413e a7e2 8bbe
000001f0: 42dc f1bd c256 823e a2c5 783d 872b 3abf
00000200: 53cf c1bd ecf4 36bd 94a0 8a3e 2a64 50be
00000210: 59c6 f9be 68bc babc 9807 e83d dd6b 7abe
00000220: a24b a53d e6a7 66be d9cd 4a3e 5afa c0be
00000230: 0d61 f13e 5641 063f 62ed b8bc 54f3 48be
00000240: 396f e93a aa9c 9d3e c552 55be de8f 4b3e
00000250: 065a 083e 327b f63b 8753 be3e 2622 bd3d
00000260: 2ec6 c33d 3b5c 733e e619 843f 9366 2c3d
00000270: 0e4a 53bd ac45 c23e e16c afbd 76c3 083e
00000280: 94ed afbe 0263 a6bd 7866 ad3e 1f21 4d3e
00000290: 4c6e 773e ba12 e7be 56be 9ebe ae4b 26be
000002a0: c17e 0cbe 3dfd 85be 551c 633c 192f c03e
000002b0: 33e0 a03e 537a 3e3e c3e6 f13e 8f70 bf3e
000002c0: d86b 97be 3890 e5bc 4fba ccbb 06a7 c13e
000002d0: ba5a 1e3e 7ee6 943d f1c1 62be 9e38 15be
000002e0: 7058 14bf 9acc 5bbe c218 083f f69b 0abf
000002f0: 1f53 563b 6e71 dcbd 8b63 83be 533c 0d3f
00000300: 307e b8be df5a 28bc e8af d23e d96f 16be
00000310: da13 24bf 6d9b bcbe 22dd 5cbf 54ee 6ebe
00000320: 71b2 afbc 68fd b0be e3f5 a2bd 86cc 39be
00000330: 2df3 343e 63b0 ec3d d42b 00bf b5ae a63e
00000340: f661 dcbd 46a1 9b3e fb4a 87bd 71da f8bc
00000350: 4f09 8b3e bcf3 b13d 2467 0f3e 7040 143d
00000360: a770 193e 9347 283e 751a 603d 85d2 573e
00000370: ea2c 51be 11c7 a33e c610 7c3d a46e 6b3e
00000380: e2ce 973c 8beb 99bd 3af3 4d3e c7ac 00bf
00000390: 9d76 653f d866 1d3f 7eff 053e 6b65 55bc
000003a0: bfba 4fbf 7aa3 763e 4e02 283e 2d5a 2c3d
000003b0: 9b24 093d a844 ffbd 5d87 a8be 275a 953e
000003c0: 3155 f5be 0349 a2be c315 38be e986 023d
000003d0: 227a ee3d 4ed9 843e e222 853e c6f7 b43a
000003e0: 34ce 353e 0ae7 4d3d 2967 843e 6abb 9a3d
000003f0: de63 973d 8f99 59bf 605f 91be 9f83 e13b

network_body.linear_encoder.seq_layers.0.bias f4 [128]
6.246018e-05 -0.0016912168 -0.004147941 8.223789e-05 0.0029184856 -0.004004134 0.00056669547 -0.00047918007
-0.0011192202 0.0013902093 -0.0054318816 -0.0049352306 0.002844053 -0.00079901144 -0.003457378 -0.003932173
-0.0019765464 -0.0009609639 -0.0010173132 -0.000998392 0.00095948885 0.0030260165 -0.0036644922 0.000779294
-0.0011541948 0.002063865 0.0017580539 0.001841154 -0.004117669 -5.8623275e-05 -0.00014352133 -0.0011122575
-0.0048126727 -0.0014098713 -0.0010571186 -0.00027192244 -0.004650353 0.0013075519 -0.00032074132 0.00015688506
0.0016873704 -0.0035671245 0.00080248737 -0.000284621 -2.0653059e-07 -0.0012291552 -0.0033143996 -0.002867689
0.00029186247 0.0010404632 -0.00016437308 -0.0032296937 0.0001081519 -0.00035370965 0.003733305 0.0018906395
-0.0038947177 -0.007063638 -0.0025322505 0.0023260633 -0.006030325 -0.00042110478 -0.0043242923 -0.00032267935
-0.00434108 0.000787823 0.0008985179 0.0050243307 -0.004589519 -0.0022514383 0.0009443357 0.000653339
-0.00292292 0.0017692945 0.00039734456 -0.0014211626 -0.00062468654 0.0002451338 -0.0018721522 -0.0011560955
-0.0010589613 -0.0022989267 -0.0012806443 -0.002249918 -0.00051402545 -0.0009163374 0.0020756351 -0.0020124507
-0.0036249205 0.003243011 0.0003037827 0.00013548441 -0.0013709769 -0.002123544 -0.0007738522 -0.0023713287
0.0011579932 -0.0046710484 -0.002004469 0.00097030506 0.0020446146 -0.0020453045 -0.0006042204 -0.0040971804
0.0010895918 0.0008316809 0.00028234578 -5.572502e-05 0.0019775457 -0.0003879234 -0.001681717 -0.00089180825
-0.0017987946 0.0024862757 -0.0018752322 -0.0023338292 -0.00066006905 0.0037224195 -0.0014301594 0.0012441664
5.943064e-06 0.00075284595 0.001852405 -0.0050411373 -0.0041380404 -0.002847794 -0.000906339 0.0021376156
00000000: 0efd 8238 d2ab ddba 73eb 87bb 2277 ac38
00000010: 1044 3f3b 1c35 83bb 4a8e 143a 763a fbb9
00000020: ccb2 92ba af37 b63a edfd b1bb b7b7 a1bb
00000030: 4b63 3a3b c074 51ba 2d95 62bb 75d9 80bb
00000040: f288 01bb 32e9 7bba 5e57 85ba 7adc 82ba
00000050: 3586 7b3a 2250 463b fa27 70bb 8949 4c3a
00000060: 5a48 97ba e941 073b 806e e63a e052 f13a
00000070: 83ed 86bb 43e2 75b8 377e 16b9 2bc9 91ba
00000080: a0b3 9dbb 6ecb b8ba 048f 8aba d090 8eb9
00000090: fd61 98bb 2962 ab3a 2c29 a8b9 8381 2439
000000a0: c12a dd3a 6bc6 69bb 045e 523a 2f39 95b9
000000b0: b2c2 5db4 9b1b a1ba 6636 59bb d6ef 3bbb
000000c0: 1e05 9939 2760 883a 905b 2cb9 45a9 53bb
000000d0: 9ccf e238 1b72 b9b9 77aa 743b 56cf f73a
000000e0: 853e 7fbb 1776 e7bb 1df4 25bb de70 183b
000000f0: 089a c5bb bac7 dcb9 cbb2 8dbb 4a2d a9b9
00000100: 9e3f 8ebb e885 4e3a 848a 6b3a 24a3 a43b
00000110: ad63 96bb de8c 13bb 4c8d 773a d744 2b3a
00000120: 768e 3fbb ace7 e73a af52 d039 4e46 baba
00000130: 01c2 23ba 4d85 8039 0163 f5ba 2188 97ba
00000140: d8cc 8aba 97a9 16bb 4bdb a7ba 5c73 13bb
00000150: aabf 06ba 5d36 70ba 6107 083b 52e3 03bb
00000160: 1390 6dbb b288 543b 0645 9f39 d210 0e39
00000170: 5ab2 b3ba 282b 0bbb 58dc 4aba 4b68 1bbb
00000180: cec7 973a 980f 99bb 695d 03bb 125c 7e3a
00000190: f1fe 053b 840a 06bb 8b64 1eba a441 86bb
000001a0: a2d0 8e3a 2905 5a3a cf07 9439 49ba 69b8
000001b0: b699 013b 3362 cbb9 0f6d dcba 3dc8 69ba
000001c0: 88c5 ebba c9f0 223b 5aca f5ba 28f3 18bb
000001d0: 7c08 2dba d6f3 733b 3074 bbba 4c13 a33a
000001e0: 886a c736 a35a 453a 66cc f23a 2030 a5bb
000001f0: 6698 87bb 0ea2 3abb 6197 6dba 3d17 0c3b

network_body.linear_encoder.seq_layers.2.weight f4 [128, 128]
-0.02259491 0.07701487 -0.027438633 0.0055820015 -0.014148546 -7.691177e-05 0.03702841 0.1365239
0.012805269 0.11874958 0.009560871 -0.01202293 0.060296863 -0.07455945 -0.058747947 -0.034585364
-0.033680815 -0.05774769 -0.14188641 -0.06663501 -0.049316432 -0.0016551083 -0.11967445 0.17772226
0.03190377 -0.071494296 0.0021292842 0.008837731 0.0070673265 0.049510054 -0.06580133 -0.016833201
-0.025794389 -0.004534905 0.081027046 0.0009875738 -0.093704544 0.070813626 -0.0735924 -0.01695191
0.04514672 -0.036023732 -0.112077 0.032290578 -0.04023127 -0.033944607 -0.031514384 -0.05218423
-0.0071391985 -0.022050396 0.03449831 0.10712507 -0.039390624 0.0129895825 0.07529676 0.0011006916
-0.054571357 0.0221036 0.07228956 0.07600166 -0.14733304 -0.06868595 0.16165258 -0.21627292
0.08899196 -0.08285036 -0.050327234 0.11982953 -0.02229574 -0.0048193843 0.0783854 0.07837155
0.051224507 -0.11872558 0.010652368 -0.11213311 0.06861733 0.031618394 -0.034204543 0.05919957
0.16460249 -0.11484166 0.06295466 -0.010688572 0.046259664 -0.1219549 0.13608386 -0.06947845
0.049829535 0.10486882 -0.06243373 0.019507354 0.042407393 -0.14527424 -0.1744982 -0.04882987
-0.060577612 0.025416799 0.04147618 0.07258783 -0.050673187 0.02578847 -0.018734358 0.11198908
0.13370599 -0.113205634 -0.074478984 0.01702986 -0.053578023 -0.060282372 0.030662162 -0.038947325
-0.11773285 0.14036411 0.07215106 0.060396638 -0.033562217 -0.019484548 -0.090660706 0.153237
-0.06545804 0.018045595 -0.15490606 -0.13612738 -0.16447635 -0.12368552 -0.11015277 0.03169039
-0.049855843 0.058145244 -0.14666681 0.11435818 -0.1985286 -0.021399088 0.13500509 0.045801654
-0.006709681 0.024079878 0.03420199 -0.1374365 -0.006762473 0.03882876 0.061597854 -0.0012132397
-0.02629502 -0.006555542 0.32925585 0.08905586 -0.17054178 -0.3201492 -0.04832005 0.09520357
0.08275049 0.1311994 0.06903073 0.021363735 0.042292804 0.13063118 -0.0309157 0.0056232037
-0.07140502 -0.028759135 -0.27501562 -0.011670338 0.15571485 -0.011753911 -0.19865933 -0.075018354
0.14653601 0.12866732 0.056398585 -0.031507075 0.075672016 0.028290205 -0.11247203 -0.03059357
-0.016937744 0.052475844 0.03622553 -0.043503743 0.023546299 0.05095004 0.021608684 0.0979326
0.009084022 -0.005975145 -0.13194697 -0.022400074 -0.02712638 0.0065146293 -0.03221628 -0.10682992
0.028319912 -0.21833111 0.13029048 0.13829803 -0.062858395 -0.04456683 -0.0067354008 0.026682349
-0.043608177 -0.054497186 0.19586875 -0.020960636 -0.09697134 -0.039248314 -0.02692652 0.106936686
-0.04617629 0.0027240692 -0.1285896 -0.039580505 0.14962746 -0.048335772 -0.13797493 -0.050196275
0.082890674 0.008609384 -0.03188754 -0.088458285 0.104498 -0.09804905 -0.047095094 -0.0900364
0.06484239 -0.10926975 0.02249289 -0.10846394 0.05707735 -0.047817767 -0.08186143 0.060515273
-0.020118646 0.03599123 0.024307821 0.1575785 0.073683515 0.069443986 0.14419909 0.031124558
-0.17560948 -0.021327225 -0.052405495 -0.0868628 -0.12284522 -0.093082964 -0.05802008 0.009953546
-0.14472155 -0.06595802 -0.08182822 0.046114437 -0.0006191955 -0.12130591 -0.18631428 -0.034853403
00000000: f618 b9bc f9b9 9d3d fcc6 e0bc 39e9 b63b
00000010: 4ecf 67bc b14b a1b8 1aab 173d eccc 0b3e
00000020: 31cd 513c fb32 f33d 33a5 1c3c d3fb 44bc
00000030: d8f9 763d a0b2 98bd b0a1 70bd 62a9 0dbd
00000040: e5f4 09bd d788 6cbd ac4a 11be f077 88bd
00000050: 0700 4abd 38f0 d8ba e117 f5bd d3fc 353e
00000060: 87ad 023d 9a6b 92bd 768b 0b3b 21cc 103c
00000070: 0895 e73b 0ecb 4a3d d9c2 86bd c8e5 89bc
00000080: c14e d3bc 8a99 94bb 82f1 a53d 7a71 813a
00000090: 2be8 bfbd bc06 913d 9db7 96bd bbde 8abc
000000a0: c4eb 383d 9f8d 13bd a088 e5bd 2043 043d
000000b0: 8bc9 24bd 8009 0bbd 3a15 01bd 22bf 55bd
000000c0: f0ef e9bb 08a3 b4bc 1a4e 0d3d 6464 db3d
000000d0: 1058 21bd 42d2 543c 3035 9a3d 1545 903a
000000e0: 3786 5fbd 9c12 b53c 8d0c 943d c2a6 9b3d
000000f0: 79de 16be 38ab 8cbd 4188 253e a676 5dbe
00000100: 6b41 b63d 73ad a9bd ee23 4ebd 2f69 f53d
00000110: 8ea5 b6bc edeb 9dbb 8688 a03d 4381 a03d
00000120: cad0 513d 6626 f3bd 4587 2e3c 0ba6 e5bd
00000130: 3e87 8c3d 4a82 013d 101a 0cbd 407b 723d
00000140: 8e8d 283e 1b32 ebbd 5fee 803d 1f1f 2fbc
00000150: c67a 3d3d 7ec3 f9bd 9159 0b3e b84a 8ebd
00000160: 0e1a 4c3d 77c5 d63d 83ba 7fbd e3cd 9f3c
00000170: 60b3 2d3d c5c2 14be a8af 32be d401 48bd
00000180: 3b20 78bd e436 d03c ede2 293d eea8 943d
00000190: b08e 4fbd 5742 d33c cc78 99bc 885a e53d
000001a0: 39ea 083e 5bd8 e7bd 7088 98bd 3482 8b3c
000001b0: a174 5bbd a6ea 76bd 372f fb3c 3b87 1fbd
000001c0: ec1d f1bd 9cbb 0f3e efc3 933d 7762 773d
000001d0: 8978 09bd 0f9e 9fbc 52ac b9bd 29ea 1c3e
000001e0: dd0e 86bd 5bd4 933c b29f 1ebe fa64 0bbe
000001f0: 7d6c 28be d54e fdbd c797 e1bd c8cd 013d
00000200: a435 4cbd b529 6e3d d32f 16be 9f34 ea3d
00000210: 154b 4bbe 244d afbc c63e 0a3e 849a 3b3d
00000220: e2dc dbbb 2a43 c53c 6317 0c3d 27bc 0cbe
00000230: bc97 ddbb e80a 1f3d 084e 7c3d 9205 9fba
00000240: a768 d7bc dfcf d6bb 3994 a83e eb62 b63d
00000250: 81a2 2ebe 99ea a3be 3feb 45bd 17fa c23d
00000260: 1779 a93d 2359 063e fc5f 8d3d 0003 af3c
00000270: 383b 2d3d 2ec4 053e ec42 fdbc da42 b83b
00000280: cc3c 92bd 4798 ebbc d9ce 8cbe f234 3fbc
00000290: b773 1f3e 7a93 40bc 5a6d 4bbe 39a3 99bd
000002a0: 890d 163e 5ec1 033e 3402 673d 900d 01bd
000002b0: eef9 9a3d dcc0 e73c bc57 e6bd 5e9f fabc
000002c0: 06c1 8abc e9f0 563d 3961 143d fb30 32bd
000002d0: 2be4 c03c fdb0 503d b204 b13c e390 c83d
000002e0: 26d5 143c 26cb c3bb 1b1d 07be 5c80 b7bc
000002f0: 2438 debc ac78 d53b 38f5 03bd a5c9 dabd
00000300: 29ff e73c 3192 5fbe de6a 053e 009e 0d3e
00000310: e7bb 80bd b58b 36bd a3b4 dcbb f194 da3c
00000320: 7d9e 32bd 7138 5fbd d191 483e a4b5 abbc
00000330: e998 c6bd d7c2 20bd 0195 dcbc 9f01 db3d
00000340: 5923 3dbd 4c86 323b feac 03be 2b1f 22bd
00000350: f137 193e bbfb 45bd 4d49 0dbe 9c9a 4dbd
00000360: 96c2 a93d 600e 0d3c 829c 02bd 9e29 b5bd
00000370: 0c03 d63d f1cd c8bd c9e6 40bd 0165 b8bd
00000380: 16cc 843d d2c8 dfbd 0243 b83c 5822 debd
00000390: f0c9 693d 90dc 43bd f7a6 a7bd ddde 773d
000003a0: dccf a4bc 8a6b 133d 3221 c73c 425c 213e
000003b0: 62e7 963d a638 8e3d eda8 133e eef8 fe3c
000003c0: f9d2 33be 6fb6 aebc 25a7 56bd 20e5 b1bd
000003d0: 4696 fbbd 48a2 bebd 77a6 6dbd 3314 233c
000003e0: e331 14be 0015 87bd 8e95 a7bd 7ee2 3c3d
000003f0: 8251 22ba 3c6f f8bd 2cc9 3ebe 71c2 0ebd

network_body.linear_encoder.seq_layers.2.bias f4 [128]
-0.0013825165 0.0007964196 -0.0017841525 -0.00096308877 -0.00035741716 -0.0006225088 0.0011205694 0.0004808813
0.00096136617 -0.0002638653 0.0009578197 0.0017863979 0.00022588174 0.0010724033 -0.00042899558 0.00034682767
-0.0009184609 -0.00073248777 0.0017357979 0.0023626254 0.0031743664 -0.005844113 0.0011238853 -0.0034764982
0.0022094497 -0.006824937 -0.000582414 -0.00043275548 -0.00021682434 0.0064606783 6.6768516e-05 0.0013627127
-0.00013930273 -0.000118479074 -0.001748663 -0.0013612399 0.0034327593 -0.0024003782 3.3368306e-05 0.0034631272
0.00043840712 -0.0007285381 -0.0021807444 8.3904764e-05 0.00064998097 -0.0002601003 3.0429688e-05 0.00042108254
-0.0036353345 0.0022273886 0.00058643584 -0.0062066643 0.0017936506 -0.0012578464 0.00047309347 -2.0297619e-05
-0.0017311797 0.0033126778 0.004137065 0.00019060522 -0.0017150799 -0.0022484935 -0.0005815719 0.001269327
0.00081273663 0.00039668928 0.00032361894 -0.00093064725 -0.0041208174 0.00015151197 -0.0013104494 0.00017155432
-0.003146724 -0.0034465452 -0.0012474235 -0.00026570415 -0.0003110583 0.0006846718 0.00032121222 0.0011623674
-0.000575035 -0.0010618243 -0.00070708885 -0.00053802284 -0.0036903215 0.0028161365 0.0019306997 -0.00084066554
-0.0014897198 -0.00046604034 -0.0019929258 -0.0008140902 0.0063941143 -0.0012709396 0.0005997972 -0.0030747554
-0.0014408224 -0.0036766105 -0.0015887716 0.0018076855 4.2695632e-05 0.0005109308 0.0012656966 0.00065327284
0.00037375875 0.0011431127 -0.0011586545 -0.0005764379 -0.0018103041 -0.0010745014 0.0006347006 -0.0026771012
-0.0003019096 -0.0005299741 0.0009915892 -0.0010143976 -0.00019626817 -0.0025447346 -0.00453924 -0.0031757469
0.001020935 0.0031894508 -0.00046029227 0.0015126603 0.00017609056 -0.0047117467 -0.0004254346 0.0029068994
00000000: 8e35 b5ba d1c6 503a 39da e9ba cb77 7cba
00000010: b863 bbb9 dc2f 23ba 12e0 923a cc1e fc39
00000020: 3104 7c3a 6757 8ab9 3116 7b3a 9125 ea3a
00000030: abda 6c39 e28f 8c3a d0ea e0b9 6cd6 b539
00000040: dec4 70ba 6c04 40ba b683 e33a 47d6 1a3b
00000050: 0809 503b f97f bfbb 554f 933a f6d5 63bb
00000060: 6acc 103b b9a3 dfbb 24ad 18ba 75e3 e2b9
00000070: 575b 63b9 19b4 d33b 1306 8c38 0d9d b23a
00000080: cb11 12b9 f877 f8b8 6533 e5ba a26b b2ba
00000090: 25f8 603b aa4f 1dbb f2f4 0b38 a2f5 623b
000000a0: 02da e539 5dfb 3eba d2ea 0ebb 07f6 af38
000000b0: 7c63 2a3a 125e 88b9 4243 ff37 bec4 dc39
000000c0: cb3e 6ebb 61f9 113b 0bbb 193a 4661 cbbb
000000d0: ed18 eb3a 52de a4ba 8809 f839 ce44 aab7
000000e0: c0e8 e2ba 8319 593b 3790 873b 33dd 4739
000000f0: 88cc e0ba 765b 13bb a174 18ba 8c5f a63a
00000100: d50d 553a bcfa cf39 66ab a939 aef6 73ba
00000110: ec07 87bb 2fdf 1e39 63c3 abba 43e3 3339
00000120: 4539 4ebb 6fdf 61bb 9680 a3ba 354e 8bb9
00000130: 8a15 a3b9 8c7b 333a 6068 a839 945a 983a
00000140: f2bd 16ba e92c 8bba ee5b 39ba 1a0a 0dba
00000150: 52d9 71bb ee8e 383b 880f fd3a 1c60 5cba
00000160: b442 c3ba e056 f4b9 bf9b 02bb ab68 55ba
00000170: b885 d13b a895 a6ba b53b 1d3a d681 49bb
00000180: fad9 bcba 4af3 70bb 543e d0ba dcef ec3a
00000190: 1614 3338 fcef 053a bbe5 a53a 6640 2b3a
000001a0: 0df5 c339 7fd4 953a fedd 97ba 181c 17ba
000001b0: ba47 edba 49d6 8cba 0962 263a 4e72 2fbb
000001c0: 9f49 9eb9 f6ed 0aba 36f8 813a 89f5 84ba
000001d0: 56cd 4db9 90c5 26bb e8bd 94bb 3120 50bb
000001e0: e5d0 853a 1b06 513b 6253 f1b9 7544 c63a
000001f0: f3a4 3839 ff64 9abb de0c dfb9 ae81 3e3b

action_model._continuous_distribution.log_sigma f4 [1, 2]
-0.0029743402 -0.0023028494
00000000: 26ed 42bb 67eb 16bb

action_model._continuous_distribution.mu.weight f4 [2, 128]
0.00036770978 0.024980942 -0.01633944 -0.005960632 0.0069701215 0.004587654 -0.0017022435 0.0071439943
-0.014542129 -0.025039861 -0.0006350345 -0.0037289723 0.014011651 -0.053723644 0.020937173 0.011187972
0.01794945 -0.026363099 -0.015660161 0.02682149 0.0133862095 -0.04062752 0.0049175555 -0.0017238173
0.007085333 -0.023093618 -0.0010702494 0.013829592 0.007990068 0.0029040757 -0.034553196 -0.00035959898
0.0031556059 -0.004598408 -0.00992179 -0.005569443 0.010326342 -0.046488576 0.01902226 0.0040233755
0.016014835 0.030504892 -0.02967528 0.022859296 -0.023449583 0.011690073 -0.0091699 -0.0060470123
-0.01082901 0.00072603166 0.0043353867 -0.030781588 0.003571323 -0.027904512 0.0009585251 -0.0131714195
-0.024212897 0.0062784147 0.008962333 0.0025785104 -0.018199587 0.0028727707 -0.018822316 -0.040998887
0.016743973 0.019764466 -0.006450675 0.01825901 -0.015308581 0.012275622 -0.028533757 0.009230868
-0.011736927 -0.009006482 -0.023289837 -0.010583975 0.022624701 -0.018027758 -0.013881331 0.0064411373
0.004994793 0.006796415 -0.038402863 -0.010257102 -0.028840177 0.029095141 0.023438733 0.011168072
0.018990314 0.011486946 -0.034314435 -0.031720087 -0.0030124842 -0.00024698893 -0.02777308 -0.006634828
-0.004496788 -0.0016073375 0.013530019 0.004557332 -0.010310954 -0.012858315 0.019521287 0.0103566535
-0.00378677 -0.00977215 0.001603682 0.0065048654 0.009324624 0.010868509 -0.0051221643 -0.0040884544
-0.023509372 -0.004494308 -0.01256751 0.0028550632 0.01600106 0.004587987 0.001440297 -0.010401517
0.016036108 0.015861498 -0.05099496 0.022342823 -0.0013068812 0.010889027 -0.010618934 -0.030374851
0.0016209559 0.01006892 -0.0045300336 0.0076648924 0.018028172 0.0040051052 0.012272754 0.016200371
0.0069593987 -0.0034867504 0.011980039 0.026423395 -0.009233945 -0.003506563 0.0034764975 0.023916759
-0.0112748025 0.0012346263 -0.014164569 0.024301756 0.014304566 -0.0010863274 0.0035484948 -0.002458758
0.008483536 -0.016478984 0.0014739156 -0.013650293 0.012169659 0.0049456484 0.013831571 0.01579985
-0.0036091614 0.017392078 -0.0018508638 0.005716182 0.0117034465 -0.012533257 -0.01595268 0.028921422
-0.0128218355 0.023291783 -0.008009783 -0.008359187 0.004589826 -0.01618718 -0.013036396 0.005640919
-0.0055078887 0.004947792 -1.2977995e-05 0.004372144 0.021212524 0.0019363826 0.02088644 0.040592853
-0.0057456763 0.007679676 0.02636036 0.0007714767 -0.007445613 -0.00015523925 -0.0108469175 -0.0041097873
-0.00819415 -0.033909205 0.005622246 -0.015048017 0.0012953546 -0.0052350787 -0.00067076157 -0.0061512347
-0.02020495 0.002694819 -0.00037833903 0.007324278 -0.017123884 0.025088767 0.014556739 -0.055154953
-0.011974298 -0.0030052143 0.012142691 0.004544424 -0.015793579 0.026762964 -0.010109254 -0.025883175
0.006155394 -0.014362037 -0.01501959 0.027492765 -0.01759974 0.0035956 -0.012945239 -0.017055513
-0.022158958 -0.0024279912 -0.033337757 0.014921678 0.012828931 -0.0051173395 0.007873168 -0.0009045204
0.024903405 -0.004536974 0.003509841 -0.004373802 -0.00721057 -0.026752558 0.014866429 -0.02141158
0.030789595 0.0032106559 0.02305685 -0.0009240256 -0.002768015 0.013126803 0.015897328 -0.014451307
0.0023924008 0.019002097 0.017904673 5.8731366e-05 0.0036449865 -0.009350414 -0.015117113 -0.04100038
00000000: 2cc9 c039 d5a4 cc3c 4ada 85bc 6851 c3bb
00000010: 9e65 e43b 0854 963b d01d dfba 2b18 ea3b
00000020: 1c42 6ebc 6520 cdbc 7278 26ba c661 74bb
00000030: 2091 653c 530d 5cbd 6f84 ab3c c14d 373c
00000040: ba0a 933c 6df7 d7bc bd49 80bc beb8 db3c
00000050: d551 5b3c 0b69 26bd 7223 a13b b6f1 e1ba
00000060: 152c e83b d42e bdbc 9c47 8cba 8395 623c
00000070: c6e8 023c 4e52 3e3b a787 0dbd 8f88 bcb9
00000080: 48ce 4e3b 3eae 96bb 018f 22bc e07f b6bb
00000090: d12f 293c ce6a 3ebd 92d4 9b3c 85d6 833b
000000a0: 8b31 833c 65e5 f93c 9319 f3bc 6b43 bb3c
000000b0: 5719 c0bc b887 3f3c 593d 16bc 0426 c6bb
000000c0: 296c 31bc 2953 3e3a dc0f 8e3b ab29 fcbc
000000d0: db0c 6a3b 0198 e4bc 8845 7b3a f0cc 57bc
000000e0: 205a c6bc 29bb cd3b c0d6 123c 3afc 283b
000000f0: 4d17 95bc 1845 3c3b 4231 9abc 73ee 27bd
00000100: a82a 893c 17e9 a13c 2f60 d3bb eb93 953c
00000110: d8d0 7abc b11f 493c a0bf e9bc 113d 173c
00000120: 3d4c 40bc ec8f 13bc 54ca bebc 6968 2dbc
00000130: 7057 b93c f3ae 93bc 866e 63bc 2d10 d33b
00000140: 5cab a33b 76b4 de3b 524c 1dbd 670d 28bc
00000150: 3c42 ecbc ef58 ee3c 9602 c03c 4afa 363c
00000160: 9391 9b3c be33 3c3c 4b8d 0cbd ecec 01bd
00000170: 196d 45bb 4b7e 81b9 5f84 e3bc f968 d9bb
00000180: cb59 93bb 4cad d2ba 03ad 5d3c ac55 953b
00000190: 47ef 28bc afab 52bc 1beb 9f3c f4ae 293c
000001a0: 752b 78bb 5e1b 20bc a332 d23a c426 d53b
000001b0: 4fc6 183c d511 323c d4d7 a7bb 71f8 85bb
000001c0: ba96 c0bc fd44 93bb f5e7 4dbc 031c 3b3b
000001d0: a814 833c d356 963b 59c8 bc3a 206b 2abc
000001e0: 285e 833c f9ef 813c 17e0 50bd 4c08 b73c
000001f0: a84b abba e467 323c 0afb 2dbc aed4 f8bc
00000200: 4176 d43a 1df8 243c ad70 94bb c729 fb3b
00000210: d1af 933c 423d 833b a913 493c a4b6 843c
00000220: ab0b e43b f781 64bb ed47 443c e075 d83c
00000230: f949 17bc 5dce 65bb f3d5 633b 14ed c33c
00000240: f3b9 38bc 2fd3 a13a 8212 68bc 7a14 c73c
00000250: b35d 6a3c 1963 8eba dd8d 683b 1d23 21bb
00000260: 87fe 0a3c effe 86bc 6730 c13a 7ba5 5fbc
00000270: 4063 473c 1b0f a23b d09d 623c b06e 813c
00000280: ae87 6cbb d579 8e3c af98 f2ba cf4e bb3b
00000290: d0bf 3f3c 4a58 4dbc 32af 82bc 9eec ec3c
000002a0: ad12 52bc 69ce be3c 773b 03bc f9f4 08bc
000002b0: 4066 963b fa9a 84bc 9c96 55bc 75d7 b83b
000002c0: 857b b4bb 1621 a23b 10bc 59b7 3444 8f3b
000002d0: e3c5 ad3c 38ce fd3a 0a1a ab3c b144 263d
000002e0: 3a46 bcbb cba5 fb3b aff1 d73c ed3c 4a3a
000002f0: 54fa f3bb b8c7 22b9 45b7 31bc 65ab 86bb
00000300: c240 06bc 61e4 0abd d13a b83b f58b 76bc
00000310: e3c8 a93a 068b abbb 0cd6 2fba 4c90 c9bb
00000320: da84 a5bc 8f9b 303b ce5b c6b9 7f00 f03b
00000330: 6347 8cbc f586 cd3c 637f 6e3c 29ea 61bd
00000340: d92f 44bc 21f3 44bb 23f2 463c 64e9 943b
00000350: 8961 81bc 013e db3c 49a1 25bc f408 d4bc
00000360: 30b3 c93b c04e 6bbc ba14 76bc 8238 e13c
00000370: 542d 90bc 28a4 6b3b 4518 54bc 01b8 8bbc
00000380: b486 b5bc ef1e 1fbb 2c8d 08bd 0e7a 743c
00000390: 7030 523c 5baf a7bb 76fe 003c 561d 6dba
000003a0: 3a02 cc3c e5aa 94bb 5c05 663b 1c52 8fbb
000003b0: a546 ecbb 2e28 dbbc 5392 733c 5667 afbc
000003c0: 763a fc3c de69 523b b8e1 bc3c 4f3a 72ba
000003d0: 9667 35bb cd11 573c 1d3b 823c 2dc5 6cbc
000003e0: d3c9 1c3b 49aa 9b3c d2ac 923c 5356 7638
000003f0: bae0 6e3b 7b32 19bc c4ad 77bc 04f0 27bd

action_model._continuous_distribution.mu.bias f4 [2]
0.0010644397 0.0015864673
00000000: ab84 8b3a 02f1 cf3a

exp_avg f4 [128, 9]
0.00090259366 3.1349904e-05 4.8874055e-05 -6.192348e-08 1.7000402e-05 2.9814933e-09 -2.3585766e-05 0.00087720854
3.009062e-05 -0.0005351839 0.00016065493 0.0016528909 7.142576e-06 4.3270287e-05 -1.0460207e-05 -3.2466116e-05
-0.00032006993 5.1479124e-06 -0.00035135288 -0.00017456037 5.8165788e-05 6.7688347e-06 -9.858543e-05 2.8979113e-07
0.00010798997 -0.00026224807 -0.00016567117 -8.103737e-06 -4.4799854e-06 0.00061261875 1.6114677e-06 2.3324536e-05
-4.4052751e-07 -2.4004286e-05 1.9199331e-05 2.766114e-05 -0.0005470081 7.537267e-05 0.00028834934 -2.46052e-08
4.723961e-05 5.1709968e-08 -5.2353098e-05 -0.0004919298 7.464265e-05 -4.374483e-06 -7.243059e-05 -7.996391e-05
-2.4244073e-06 -3.5176294e-05 3.8514754e-06 4.2856376e-05 -2.403315e-06 -5.333483e-05 -0.0014200559 -0.00030627346
0.0014772585 8.012022e-06 1.0401735e-05 -1.9388637e-05 -1.8156083e-05 -0.0011507146 -2.714828e-05 -0.00027906516
-0.00014352168 0.00058126694 1.00043035e-05 6.1798473e-06 -5.4958687e-06 5.8731753e-06 -0.00012788318 6.0345765e-06
0.0011630538 0.00050986867 -0.0012188096 -1.6396883e-05 -4.0068835e-06 2.4254156e-05 3.314671e-05 0.0010489766
4.620888e-07 0.00014357759 -1.843158e-05 -0.0005649365 -2.3798615e-08 -2.1497684e-05 -2.0122584e-08 -5.79768e-07
0.000119304335 -1.8345983e-05 -0.001155853 0.00010353733 0.00040210798 1.2808026e-05 -2.7246657e-05 -1.15221965e-05
3.739199e-05 -0.0009086084 -6.427015e-05 0.00019742054 8.364676e-05 -7.3911324e-05 -1.6605453e-07 -3.4486136e-05
1.1606129e-06 3.241318e-05 0.0002160452 -5.4713248e-05 0.0008591241 0.00025454635 -7.587569e-05 -1.0403025e-05
4.5953086e-05 1.5750647e-05 -6.209687e-05 0.00063462625 9.18635e-05 0.0001527724 -7.319254e-05 -0.00018666685
4.244164e-06 -3.3433756e-05 -5.3354997e-06 2.1083324e-05 0.00012773839 -5.4778764e-05 -0.00052336225 -0.00021607484
0.0011430605 -4.5048064e-06 -2.2058777e-05 1.1286202e-05 2.7203136e-05 -0.00038747254 -2.7978595e-05 0.00032679143
-4.4073517e-05 -2.0108158e-05 -1.7696137e-06 -3.1546851e-06 1.4003007e-07 2.6640973e-06 0.00033707242 -5.859924e-06
-0.00025439588 0.00027959526 0.000277752 2.8462475e-06 1.07266764e-07 1.9845597e-06 -1.2725434e-07 -0.00011462135
-1.8473963e-06 0.0003757557 5.28783e-05 0.00039566314 1.3311833e-06 -5.27225e-06 1.1238017e-05 6.992636e-07
0.00036884873 -7.5399707e-06 -0.0016149922 0.00016322818 0.00092084485 1.7810398e-05 1.5600617e-05 -3.8634025e-05
5.7768316e-06 -0.0011454208 -4.7743913e-05 -8.933954e-05 -0.00027077817 0.00050713983 8.2951055e-06 8.0126765e-06
-1.05627505e-05 -1.7432805e-05 -8.3623265e-05 3.60237e-05 9.3313094e-05 -0.00021470437 -0.0011813033 -1.1159823e-05
-2.0139012e-05 -4.7976578e-06 1.977263e-05 1.1553799e-05 -2.3190627e-05 0.000617582 3.2109045e-05 -0.00016756562
-1.158951e-05 3.5360822e-06 1.5180439e-05 -4.833051e-05 0.00040287574 6.139346e-05 -0.0007458536 -9.0986185e-05
0.0004319383 6.3463785e-06 3.2564628e-07 -2.3437527e-05 3.6964393e-05 -0.0005517348 -5.2235024e-05 0.0005438326
0.00027392225 -0.00048477008 -1.6757669e-05 4.2360916e-06 1.4087418e-05 3.9182887e-06 0.00042263157 1.7969456e-05
0.00016251153 7.8591565e-06 0.00013323953 5.139168e-07 -9.282464e-06 -1.0083043e-06 -1.7500737e-08 0.0001609143
-8.081857e-06 0.0003045381 0.00019647402 -7.5388816e-05 7.5344383e-06 5.711958e-06 2.5189252e-05 -4.1525953e-05
0.00020007144 6.214625e-05 0.0010277561 0.00023704866 -0.00053134933 -1.6484303e-06 3.6062138e-05 1.1568914e-05
-9.2906674e-05 0.0008648803 0.00010668779 -1.8645327e-06 0.00045771035 -0.0014033249 -1.5911308e-05 -4.010606e-05
2.0030755e-05 3.4097604e-05 -0.00010892816 -1.901456e-05 0.0006569413 4.9010494e-05 4.088769e-05 -4.2548745e-06
00000000: 099c 6c3a b47d 0338 1efe 4c38 cbfa 84b3
00000010: 169c 8e37 fce2 4c31 0cda c5b7 78f4 653a
00000020: 1d6b fc37 954b 0cba 7b75 2839 d1a5 d83a
00000030: 43aa ef36 1e7d 3538 3f7e 2fb7 3a2c 08b8
00000040: 0fcf a7b9 3bbc ac36 c935 b8b9 310a 37b9
00000050: 0af7 7338 d91f e336 a6bf ceb8 9794 9b34
00000060: ac78 e238 577e 89b9 04b8 2db9 49f5 07b7
00000070: c852 96b6 2698 203a 9c49 d835 0fa9 c337
00000080: a481 ecb4 d05c c9b7 400e a137 d909 e837
00000090: 1865 0fba 6511 9e38 982d 9739 685b d3b2
000000a0: 2523 4638 b617 5e33 b695 5bb8 daf4 00ba
000000b0: 7889 9c38 86c8 92b6 e0e5 97b8 4cb2 a7b8
000000c0: 00b3 22b6 428a 13b8 ec3b 8136 afc0 3338
000000d0: a348 21b6 d6b3 5fb8 2b21 baba 5493 a0b9
000000e0: 92a0 c13a 5f6b 0637 1d83 2e37 c8a4 a2b7
000000f0: e44d 98b7 93d3 96ba 7dbc e3b7 7e4f 92b9
00000100: 4f7e 16b9 2a60 183a 28d8 2737 7c5c cf36
00000110: 2769 b8b6 3112 c536 6118 06b9 9e7c ca36
00000120: 9c71 983a b5a8 053a 77c0 9fba 0a8c 89b7
00000130: de72 86b6 6775 cb37 0207 0b38 d07d 893a
00000140: 0015 f834 518d 1639 849d 9ab7 3f18 14ba
00000150: b56d ccb2 ed55 b4b7 08da acb2 5ba1 1bb5
00000160: 0733 fa38 b3e5 99b7 fe7f 97ba 2e22 d938
00000170: 05d2 d239 0ee2 5637 c08f e4b7 754f 41b7
00000180: 58d5 1c38 ad2f 6eba c6c8 86b8 ac02 4f39
00000190: 836b af38 d700 9bb8 b94c 32b4 35a5 10b8
000001a0: 5bc6 9b35 63f3 0738 318a 6239 e77b 65b8
000001b0: d836 613a a274 8539 731f 9fb8 a788 2eb7
000001c0: c0bd 4038 4220 8437 013a 82b8 0c5d 263a
000001d0: d7a6 c038 8731 2039 f27e 99b8 00bc 43b9
000001e0: 1769 8e36 393b 0cb8 9807 b3b6 18dc b037
000001f0: 83f1 0539 40c2 65b8 3f32 09ba 2692 62b9
00000200: bfd2 953a fe27 97b6 dd0a b9b7 de59 3d37
00000210: 4a32 e437 af25 cbb9 93b3 eab7 3455 ab39
00000220: 94db 38b8 f1ad a8b7 7783 edb5 14b5 53b6
00000230: 2c5b 1634 d8c8 3236 18b9 b039 5da0 c4b6
00000240: 7060 85b9 a496 9239 3e9f 9139 2902 3f36
00000250: 875a e633 7a2e 0536 68a3 08b4 de60 f0b8
00000260: 0ef4 f7b5 1401 c539 a4c9 5d38 0271 cf39
00000270: 1cab b235 48e8 b0b6 ea8a 3c37 07b5 3b35
00000280: 0a62 c139 dbff fcb6 25ae d3ba 3b28 2b39
00000290: da64 713a 8a67 9537 12de 8237 f80a 22b8
000002a0: 9bd6 c136 f221 96ba a340 48b8 cd5b bbb8
000002b0: 3bf7 8db9 94f1 043a 352b 0b37 2f6e 0637
000002c0: ab36 31b7 aa3c 92b7 e65e afb8 2718 1738
000002d0: 16b1 c338 4422 61b9 f6d5 9aba 133b 3bb7
000002e0: 33f0 a8b7 91fb a0b6 66dd a537 30d7 4137
000002f0: 7e89 c2b7 3ae5 213a d3ac 0638 8eb4 2fb9
00000300: 9170 42b7 6e4d 6d36 7daf 7e37 7db6 4ab8
00000310: 1139 d339 5dc0 8038 6385 43ba d6cf beb8
00000320: c775 e239 faf2 d436 7cd4 ae34 b59b c4b7
00000330: 370a 1b38 4ca2 10ba ee16 5bb8 fd8f 0e3a
00000340: 399d 8f39 bd28 feb9 d292 8cb7 c023 8e36
00000350: 0059 6c37 d879 8336 a694 dd39 1dbd 9637
00000360: db67 2a39 d2da 0337 37b6 0b39 18f4 0935
00000370: e1bb 1bb7 1255 87b5 8754 96b2 1abb 2839
00000380: 5097 07b7 69aa 9f39 9804 4e39 101a 9eb8
00000390: 55d0 fc36 58a9 bf36 824d d337 272c 2eb8
000003a0: 45ca 5139 8454 8238 c6b5 863a 4490 7839
000003b0: 404a 0bba a23f ddb5 6d41 1738 1b18 4237
000003c0: e4d6 c2b8 22b9 623a 92bd df38 db40 fab5
000003d0: d8f8 ef39 c5ef b7ba 4679 85b7 8e37 28b8
000003e0: b807 a837 0604 0f38 5c70 e4b8 7581 9fb7
000003f0: 9636 2c3a 9e90 4d38 d37e 2b38 18c5 8eb6

exp_avg_sq f4 [128, 9]
3.3032147e-06 4.6316853e-09 1.9611444e-07 1.8898023e-15 2.015989e-09 3.0608645e-15 1.9662645e-09 3.86186e-06
4.6495687e-09 9.0868633e-07 7.3446506e-07 2.4320998e-05 3.3263243e-11 1.0635539e-09 5.753376e-11 1.3324898e-09
8.918327e-07 6.0031793e-09 2.2437702e-05 3.2863753e-08 1.6302115e-06 6.488073e-11 1.3247001e-08 8.572007e-11
1.5118813e-08 2.6637214e-05 3.2511803e-08 9.559578e-07 7.58356e-08 8.428053e-07 1.4475648e-11 2.83115e-10
1.558396e-11 5.370374e-10 9.619051e-07 1.1604538e-09 3.8879293e-06 6.9134978e-09 2.8765444e-07 3.4122707e-15
3.0131648e-09 2.7006686e-15 2.897858e-09 4.644458e-06 6.8969594e-09 2.4725825e-06 2.1155887e-07 4.7913227e-07
2.5040833e-12 1.6736964e-09 4.3767403e-12 1.804646e-09 3.0007245e-06 4.0094714e-09 1.027353e-05 2.0314081e-07
1.7953304e-05 8.574143e-11 2.6051528e-09 1.2173013e-10 4.48004e-09 1.0287669e-05 1.0287664e-08 3.240572e-07
9.2549755e-08 1.9422938e-05 2.0313176e-11 4.2816645e-10 1.7702288e-11 3.99172e-10 2.2563853e-07 2.2663502e-09
1.6302332e-05 1.0682522e-06 8.719657e-05 1.7677207e-10 3.8235153e-09 2.0388892e-10 8.286195e-09 1.6055208e-05
1.9877586e-08 1.9797918e-07 1.2911165e-09 7.166632e-07 5.416226e-16 6.853195e-10 1.213296e-15 7.304909e-10
2.003244e-07 1.2921312e-09 3.8377266e-06 8.716254e-07 3.6500456e-05 1.4628213e-10 1.526187e-09 1.2182058e-10
2.0782953e-09 3.311271e-06 6.283703e-09 9.968046e-07 4.8568996e-08 1.3398405e-07 1.7228065e-12 9.771288e-10
2.960437e-12 8.8350166e-10 1.0913416e-06 2.132307e-09 9.850861e-06 3.645591e-07 5.682804e-05 1.5600875e-10
4.035918e-09 1.5911941e-10 5.850768e-09 1.0092661e-05 1.4553131e-08 2.0930795e-06 4.899434e-07 6.9122916e-07
2.7046787e-12 1.7837611e-09 6.0154277e-12 1.7786118e-09 2.3807781e-06 4.207255e-09 7.1121895e-07 3.0162323e-07
2.0886325e-06 1.4417788e-11 8.5675306e-10 3.5307056e-11 7.582839e-10 6.7499343e-07 1.9970021e-09 1.0386566e-06
3.2641726e-08 1.00536134e-07 3.2327966e-12 4.781875e-10 3.4390461e-12 4.744285e-10 1.204765e-06 1.1512732e-09
1.501168e-07 1.1431272e-07 1.1155402e-07 6.2674475e-12 1.04534055e-10 7.780747e-12 9.065365e-11 8.147146e-08
2.5284355e-10 3.5584198e-06 1.1660634e-08 2.4750745e-05 4.7453107e-11 5.5353294e-10 5.691064e-11 1.7461186e-09
3.286772e-06 4.504037e-09 2.1391972e-05 1.7167104e-06 0.00022558948 4.980305e-10 3.7145185e-09 6.615186e-10
8.165839e-09 1.7317558e-05 2.9171767e-08 5.902561e-07 6.486673e-08 2.1221636e-05 4.24955e-11 7.043676e-10
6.324024e-11 9.837362e-10 3.994756e-07 3.250252e-09 1.5208542e-05 2.9462432e-08 3.3719432e-06 1.3503317e-10
3.2307894e-09 1.2489941e-10 5.9760366e-09 1.6269605e-05 1.2807001e-08 1.0702411e-05 6.0009114e-07 3.134304e-05
1.5062442e-10 4.6816853e-09 1.3011105e-10 5.141654e-09 1.1413974e-05 1.27444215e-08 6.7029455e-06 2.107348e-07
2.894755e-05 1.2428007e-10 1.4676192e-09 1.4342855e-10 2.8142384e-09 6.144389e-06 6.770874e-09 2.6984435e-06
2.0697236e-07 3.403151e-05 7.29459e-11 5.1982146e-10 7.521568e-11 1.2964307e-09 2.188596e-06 3.99099e-09
1.9838174e-07 1.8654842e-09 2.5951574e-06 8.088697e-13 5.5721605e-10 9.170145e-13 5.285658e-10 1.9684396e-07
1.4726426e-09 7.704555e-06 1.360174e-07 3.2564028e-06 1.04655125e-10 2.3600943e-09 1.4377152e-10 3.3665977e-09
7.7909945e-06 7.66953e-09 7.981776e-06 1.9320538e-07 9.24628e-06 7.341747e-11 3.8772727e-09 6.288544e-11
4.885558e-09 8.77252e-06 1.0244546e-08 5.1535267e-06 7.741622e-07 9.825558e-05 2.0403804e-10 1.875639e-09
1.9410758e-10 3.074978e-09 3.8401345e-06 1.3745517e-08 4.4804815e-06 6.1769515e-07 1.4468973e-06 8.596897e-12
00000000: ccac 5d36 bc24 9f31 8793 5234 b32c 0827
00000010: a789 0a31 fc8e 5c27 e41e 0731 2095 8136
00000020: 0ac2 9f31 73ec 7335 0e28 4535 f204 cc37
00000030: 154b 122e 7a2c 9230 4109 7d2e d122 b730
00000040: 4766 6f35 8644 ce31 9938 bc37 1426 0d33
00000050: a4cd da35 9bac 8e2e ed94 6332 1c80 bc2e
00000060: 9fde 8132 fb72 df37 1ba3 0b33 764e 8035
00000070: 10db a233 243d 6235 86a8 7e2d e5a4 9b2f
00000080: f513 892d a69e 1330 cf1a 8135 d77d 9f30
00000090: 0f75 8236 c58b ed31 ed6e 9a34 49e1 7527
000000a0: 2810 4f31 8b9a 4227 a823 4731 97d7 9b36
000000b0: 4cfa ec31 a5ee 2536 dc28 6334 b89d 0035
000000c0: 8e35 302c f507 e630 2cfe 992c 5607 f830
000000d0: 0e60 4936 afc3 8931 7a5c 2c37 ec1e 5a34
000000e0: 6d9a 9637 228c bc2e 5506 3331 fcd7 052f
000000f0: d9ee 9931 3499 2c37 a0bd 3032 15fa ad34
00000100: c4bf c633 71ee a237 35ad b22d 1263 eb2f
00000110: 02b6 9b2d 7772 db2f 0c47 7234 0ebe 1b31
00000120: fec0 8837 de60 8f35 4ddd b638 ea5c 422f
00000130: ff5f 8331 a12d 602f 125b 0e32 4cae 8637
00000140: 46bf aa32 1a94 5434 2073 b130 b860 4035
00000150: b21c 1c26 1361 3c30 b9da ae26 bacb 4830
00000160: c018 5734 d396 b130 d2c5 8036 a4f9 6935
00000170: 1118 1938 c2d6 202f eec1 d130 72f1 052f
00000180: c2d1 0e31 3437 5e36 09e8 d731 f2c9 8535
00000190: 2d9a 5033 41dd 0f34 a576 f22b aa4b 8630
000001a0: 7e52 502c e7da 7230 367a 9235 f187 1231
000001b0: 2045 2537 9fb8 c334 a55a 6e38 8f88 2b2f
000001c0: 4fac 8a31 22f4 2e2f e607 c931 a653 2937
000001d0: 5905 7a32 d576 0c36 a784 0335 e88c 3935
000001e0: 2953 3e2c 8428 f530 28a6 d32c 5773 f430
000001f0: 75c5 1f36 688f 9031 98ea 3e35 c8ee a134
00000200: 6f2a 0c36 f2a3 7d2d a380 6b30 3648 1b2e
00000210: 7c6f 5030 3231 3535 a23b 0931 f867 8b35
00000220: f531 0c33 53e6 d733 e37c 632c 7471 0330
00000230: 5900 722c f068 0230 69b3 a135 d33a 9e30
00000240: cb2f 2134 157c f533 798f ef33 2684 dc2c
00000250: 71df e52e 5fe1 082d 7859 c72e 69f5 ae33
00000260: 9100 8b2f 30cd 6e36 0354 4832 d29f cf37
00000270: 73b3 502e 6b27 1830 af4b 7a2e 16fc ef30
00000280: 5092 5c36 eec1 9a31 e972 b337 b869 e635
00000290: 378c 6c39 c8e5 0830 8042 7f31 3cd6 3530
000002a0: bd49 0c32 2c45 9137 6595 fa32 1772 1e35
000002b0: dd4c 8b33 1e05 b237 aee5 3a2e 779d 4130
000002c0: 1711 8b2e 2434 8730 8277 d634 0a5b 5f31
000002d0: 3128 7f37 9314 fd32 8b49 6236 7578 142f
000002e0: a604 5e31 0f54 092f c655 cd31 b67a 8837
000002f0: c905 5c32 818e 3337 f315 2135 5576 0338
00000300: 019d 252f 8adc a031 010f 0f2f 78aa b031
00000310: a57e 3f37 8ff2 5a32 dde9 e036 5746 6234
00000320: 64d4 f237 bba5 082f 43b5 c930 8cb3 1d2f
00000330: 9b64 4131 e62b ce36 3da5 e831 e816 3536
00000340: 213c 5e34 0ebd 0e38 e468 a02e 2fe3 0e30
00000350: aa66 a52e 1a2e b230 cbdf 1236 1f21 8931
00000360: c202 5534 f231 0031 7728 2e36 34ad 632b
00000370: 982a 1930 ee0e 812b 834a 1130 0e5c 5334
00000380: 0166 ca30 d042 0137 2e0c 1234 9388 5a36
00000390: 9923 e62e 382f 2231 1614 1e2f d059 6731
000003a0: 11b6 0237 f3c2 0332 78e9 0537 e473 4f34
000003b0: 7820 1b37 5c72 a12e da38 8531 5b49 8a2e
000003c0: d3dd a731 b02d 1337 fdff 2f32 75ec ac36
000003d0: 05d0 4f35 900e ce38 9a57 602f 97e4 0031
000003e0: 6d6c 552f 964f 5331 81da 8036 6c25 6c32
000003f0: 0b57 9636 b0cf 2535 0333 c235 fb3c 172d

exp_avg f4 [128]
-2.7382519e-05 -3.7246887e-06 0.00015332476 -2.5989697e-05 -6.983294e-05 4.9291368e-05 2.5427644e-05 -4.9620826e-06
-2.9623911e-06 1.7063083e-05 5.78371e-05 5.1148018e-05 -8.371224e-05 5.0939765e-05 2.5499294e-05 5.38753e-06
1.8439282e-06 7.448078e-06 4.1146694e-05 -3.1924694e-05 2.1454965e-05 -5.575323e-05 4.7434147e-05 -1.6200554e-05
8.391105e-06 -5.742551e-05 -9.808193e-05 1.5674035e-05 -3.6246292e-06 -1.3840169e-05 -5.3966687e-06 4.201369e-06
4.7842885e-05 -3.7499787e-05 4.8168622e-05 -2.6259315e-05 2.4489576e-05 -1.0260695e-05 1.6160933e-05 -1.9161384e-08
-3.0959483e-05 2.8940307e-05 1.38506775e-05 -3.3497894e-05 -1.0306395e-05 -8.728042e-06 1.2385452e-07 4.6234736e-06
-4.6313402e-05 1.4126947e-05 3.969123e-05 1.9628345e-05 2.1455533e-05 4.1933265e-05 -2.3561095e-05 -0.00017639868
1.5798534e-05 5.43541e-05 -4.6412174e-06 -6.686671e-06 6.1164355e-06 -4.2033816e-06 0.00016440665 1.6811122e-05
8.311843e-05 1.241956e-05 -8.3869294e-05 -2.6234047e-05 6.991044e-06 -1.6998536e-05 -9.372878e-05 3.9914645e-05
2.0103524e-05 1.328301e-05 7.2577163e-06 1.8143342e-05 -3.3919878e-05 1.0455266e-05 4.25262e-07 -2.4170842e-05
9.167114e-06 4.1622374e-05 -4.080235e-05 0.00016639684 3.5224486e-05 4.3847565e-05 -8.129923e-06 2.11981e-05
7.9596844e-05 -5.084974e-05 -2.0221933e-06 -4.4136275e-05 3.8223414e-05 -1.0884091e-06 -1.6458282e-05 -7.9486035e-06
-4.5965066e-05 7.979861e-05 -2.1686526e-05 -4.3513453e-05 -4.0927865e-05 2.6557427e-05 -5.617676e-05 9.22684e-06
-2.4437233e-05 4.190324e-06 5.7179557e-05 1.0052374e-06 -4.123699e-05 8.517547e-06 2.3814433e-05 -7.760421e-06
4.6651665e-05 -2.6317042e-05 1.0848029e-05 7.270708e-05 7.280818e-06 -1.2548378e-05 9.963814e-05 1.1451486e-05
7.524923e-06 -0.00011008199 1.8838437e-05 9.3480034e-05 4.8518217e-05 -3.9898967e-07 -3.0408506e-05 -4.520324e-05
00000000: 83b3 e5b7 aaf5 79b6 cdc5 2039 7304 dab7
00000010: 4673 92b8 34be 4e38 734d d537 f77f a6b6
00000020: 7ecd 46b6 b122 8f37 1d96 7238 c487 5638
00000030: ab8e afb8 28a8 5538 51e7 d537 88c6 b436
00000040: e47c f735 81ea f936 ed94 2c38 e1e6 05b8
00000050: 30fa b337 93d8 69b8 07f4 4638 6de6 87b7
00000060: 86c7 0c37 2cdc 70b8 56b1 cdb8 bc7b 8337
00000070: a83e 73b6 1333 68b7 0815 b5b6 7cf9 8c36
00000080: e8aa 4838 1749 1db8 aa08 4a38 7347 dcb7
00000090: f76e cd37 5925 2cb7 5791 8737 5498 a4b2
000000a0: 7eda 01b8 d6c4 f237 3560 6837 1780 0cb8
000000b0: a1e9 2cb7 a86e 12b7 dffc 0434 5623 9b36
000000c0: a340 42b8 c602 6d37 227a 2638 8da7 a437
000000d0: 68fb b337 80e1 2f38 11a5 c5b7 a9f7 38b9
000000e0: 1887 8437 45fa 6338 c1bb 9bb6 115e e0b6
000000f0: c83b cd36 c60a 8db6 9364 2c39 9c05 8d37
00000100: de4f ae38 9b5d 5037 fce2 afb8 3011 dcb7
00000110: 9c94 ea36 1498 8eb7 4190 c4b8 066a 2738
00000120: fda3 a837 18da 5e37 4f87 f336 8832 9837
00000130: 3145 0eb8 0769 2f37 904f e434 7dc2 cab7
00000140: 74cc 1937 af93 2e38 3123 2bb8 d07a 2e39
00000150: 01be 1338 f7e8 3738 c165 08b7 93d2 b137
00000160: 3bed a638 7e47 55b8 04b5 07b6 f71e 39b8
00000170: 1452 2038 7415 92b5 e40f 8ab7 fe5a 05b7
00000180: 9dca 40b8 8d59 a738 76eb b5b7 3782 36b8
00000190: f6a9 2bb8 a4c7 de37 569f 6bb8 facc 1a37
000001a0: 8ffe ccb7 9c9a 8c36 15d4 6f38 b2eb 8635
000001b0: e1f5 2cb8 96e6 0e37 1bc5 c737 c132 02b7
000001c0: d8ab 4338 6bc3 dcb7 eeff 3537 517a 9838
000001d0: c04d f436 e086 52b7 d2f4 d038 c21f 4037
000001e0: 997e fc36 d2db e6b8 3c07 9e37 b60a c438
000001f0: 0a80 4b38 b934 d6b4 c515 ffb7 9c98 3db8

exp_avg_sq f4 [128]
3.9748946e-09 5.0597624e-09 2.7891579e-08 9.62303e-10 5.929482e-09 3.4384826e-09 8.833762e-09 1.920217e-09
1.681407e-08 1.1074333e-09 5.4343103e-09 1.8319564e-09 1.2605616e-08 3.6254555e-09 1.7075347e-09 9.870643e-10
2.1631871e-10 3.89626e-09 2.5349914e-08 2.600532e-09 1.098187e-08 1.0986004e-08 5.8494476e-09 3.4687158e-09
1.240907e-09 6.579146e-09 8.857863e-09 1.1638128e-08 6.4917676e-09 6.946455e-09 4.05149e-09 2.179283e-10
2.184314e-09 1.2720723e-08 2.9408929e-09 1.3577395e-08 1.6899877e-09 2.8531149e-09 1.2157803e-09 3.756051e-09
1.8649025e-08 1.4157291e-09 2.876196e-09 3.8637047e-08 1.0553254e-08 1.9380375e-09 1.5674825e-10 3.9306836e-10
2.1109507e-08 1.9144872e-09 1.05070015e-08 4.670861e-10 1.0793624e-09 2.7122782e-09 1.2747126e-09 2.7602054e-08
1.1631113e-09 1.6687736e-09 4.7961985e-09 4.284004e-10 1.675595e-10 6.4747635e-10 2.50231e-08 7.2045975e-10
1.2749348e-08 1.8111175e-09 2.1488233e-08 1.7578659e-09 9.76479e-10 8.0126235e-09 2.1770582e-08 6.5278902e-09
6.2799095e-09 3.842625e-09 9.981801e-10 1.955292e-09 1.5593551e-09 5.3661176e-10 1.0614025e-08 7.509028e-09
3.8779488e-10 3.8006656e-09 6.0900267e-09 2.662067e-08 5.8562506e-09 6.236958e-09 1.1078497e-09 3.2672032e-09
1.685437e-08 3.982936e-09 1.2773158e-08 6.593929e-09 5.9065813e-10 4.8230833e-11 3.1835141e-09 8.206786e-11
3.8026706e-09 8.105386e-09 2.5470421e-09 1.3109741e-08 2.1988644e-08 9.960661e-10 2.6755194e-08 5.770783e-09
8.8269664e-10 4.3426844e-09 4.7576525e-09 2.537605e-09 4.739901e-09 2.2303128e-09 8.706715e-10 1.3426927e-09
4.200489e-09 1.1334783e-09 1.9195674e-09 6.714407e-09 9.668595e-09 5.160623e-09 4.9391236e-08 8.5950774e-10
1.0624178e-09 4.8225797e-08 4.039321e-09 1.975373e-08 1.1612776e-08 1.2076011e-09 1.470017e-08 8.811721e-09
00000000: 8b93 8831 24da ad31 3b96 ef32 0742 8430
00000010: 46bc cb31 6d4a 6c31 4cc3 1732 d1f4 0331
00000020: 886e 9032 5834 9830 b3b8 ba31 3cc8 fb30
00000030: 1690 5832 b023 7931 89ae ea30 3da9 8730
00000040: 4ed8 6d2f dedf 8531 0dc1 d932 0bb5 3231
00000050: c6aa 3c32 f5bc 3c32 49fc c831 4b5e 6e31
00000060: 898c aa30 c80e e231 4b2d 1832 07f1 4732
00000070: 310e df31 aaad ee31 4835 8b31 5d9d 6f2f
00000080: dc1a 1631 558a 5a32 bc18 4a31 0442 6932
00000090: 2845 e830 8710 4431 7718 a730 930e 8131
000000a0: a431 a032 8a93 c230 93a6 4531 e2f1 2533
000000b0: b44d 3532 512e 0531 b658 2c2f 7417 d82f
000000c0: 4c54 b532 0490 0331 4882 3432 4364 0030
000000d0: b058 9430 e762 3a31 f631 af30 8f19 ed32
000000e0: 57db 9f30 c05a e530 cfcb a431 ff83 eb2f
000000f0: ce3b 382f 19fa 3130 61f2 d632 d909 4630
00000100: 3a08 5b32 08eb f830 2095 b832 6899 f130
00000110: cd34 8630 e4a7 0932 0402 bb32 ee4b e031
00000120: abc6 d731 1608 8431 5730 8930 dc5d 0631
00000130: ee50 d630 b280 1330 fa58 3632 0e01 0132
00000140: 4731 d52f 0297 8231 7140 d131 79ab e432
00000150: 2038 c931 dd4c d631 ff42 9830 3f85 6031
00000160: 27c7 9032 47da 8831 f170 5b32 d090 e231
00000170: df5b 2230 171f 542e f9c4 5a31 1978 b42e
00000180: a5a8 8231 dd3f 0b32 0a08 2f31 4039 6132
00000190: 8ae1 bc32 f6e5 8830 4bd3 e532 5848 c631
000001a0: 41a2 7230 a836 9531 c178 a331 0562 2e31
000001b0: 9cdc a231 1444 1931 0f54 6f30 cd89 b830
000001c0: e453 9031 b9c8 9b30 63e9 0331 8cb4 e631
000001d0: ee1a 2632 5251 b131 3d22 5433 7b42 6c30
000001e0: 8104 9230 d320 4f33 3eca 8a31 e9ae a932
000001f0: 8781 4732 b0f8 a530 088c 7c32 5c62 1732
