results/ppo/My Behavior/My Behavior-4416.onnx (onnx, 72951 bytes, 7 tensors)

action_model._continuous_distribution.log_sigma f4 [1, 2]
000000 00 00 00 00 00 00 00 00
       0.0 0.0

action_model._continuous_distribution.mu.bias f4 [2]
000000 00 00 00 00 00 00 00 00
       0.0 0.0

action_model._continuous_distribution.mu.weight f4 [2, 128]
000000 e5 b8 2a 3a 42 74 f5 bc fe 92 b4 bb 27 ca a8 bb
       0.0006512537 -0.029962663 -0.005510687 -0.0051510516
000010 63 d9 01 3c 0c 0d 0e 3b 25 ff f9 3c d2 ae c0 3c
       0.007925364 0.0021675257 0.03051717 0.02352086
000020 1b b4 8a bc ed 54 e1 b8 3f fb 9a bc c1 27 34 bc
       -0.016931584 -0.00010744655 -0.018918632 -0.010995806
000030 f8 b4 f8 3b af ce c5 bc 2d 64 90 3b a2 5c 8b bc
       0.0075899325 -0.024146406 0.004406473 -0.017011944
000040 18 ad d3 3b f8 8c de 3c d7 04 e7 3c 7c 67 a7 3b
       0.0064598434 0.027166829 0.02820055 0.005108772
000050 9b 62 03 3b 81 c0 b2 3c 93 8b a7 3c 09 b3 25 3c
       0.0020047787 0.021820309 0.020452296 0.010113486
000060 03 5d 64 bc 2d 7f 24 3c 69 95 08 3d d2 26 58 bc
       -0.013938191 0.010040087 0.033345614 -0.013192849
000070 52 8b 7b 3c 11 1c 13 bd bb fc 94 bb 67 f3 fe bc
       0.015353041 -0.035915438 -0.0045467294 -0.031121923
000080 97 0a cd 3b a8 6a a7 bc a9 3c 8a bc 28 18 5d 3d
       0.006257366 -0.0204366 -0.016874628 0.053978115
000090 24 85 1a bc fa 06 62 3c bf c2 98 bc db 1c f7 39
       -0.009431157 0.013795609 -0.01864755 0.0004713301
0000a0 94 39 28 3c 35 23 d5 3b 5f 7d 0f 3c da 21 72 bc
       0.010267634 0.006504441 0.008757918 -0.014778579
0000b0 0e 96 87 bc b8 1a 9a bc 80 5f 50 bb b6 8e 46 3c
       -0.016551044 -0.018811569 -0.0031795204 0.012118986
0000c0 cc ba 13 3c 58 ca aa bb 23 fe 08 3d 72 51 5f 3c
       0.009016704 -0.0052121095 0.03344549 0.013630258
0000d0 78 21 d4 3c 46 93 8f 3c bf d0 c9 bc cd 51 fe 3b
       0.025894865 0.01752628 -0.02463567 0.0077612163
0000e0 e7 de e4 3c da 44 3a 3c 35 11 e4 3c 0b 6b 81 3c
       0.02793832 0.011368955 0.027840236 0.015798112
0000f0 05 2a 72 bc cf d6 a4 3b 9f 21 96 bc 0e 23 bc 3a
       -0.014780526 0.00503049 -0.018326579 0.0014353709
000100 1b 03 a9 bc 60 e2 fd bb ef 21 bc bb 03 b0 6f 3b
       -0.020631364 -0.0077479333 -0.00574135 0.0036573417
000110 77 d4 0b ba 45 17 51 bc 1b f6 83 3b 94 ce 93 bc
       -0.0005334089 -0.012761896 0.004027141 -0.01804284
000120 e1 60 06 bc 4e d7 9d 3c cb 47 93 bb 24 71 a0 bc
       -0.008201809 0.019267704 -0.0044946424 -0.0195852
000130 87 d4 e0 bb 26 e5 c3 bb 97 2c 12 bd f0 31 c8 bb
       -0.0068612727 -0.0059782444 -0.035687055 -0.0061094686
000140 5b 35 f7 3c d6 91 31 bc ed 3a 35 bb 27 9e bb ba
       0.030176809 -0.010837993 -0.002765353 -0.0014314101
000150 bd 11 5f 3c 50 ed c5 bc 6d d9 d4 3c ba c9 d6 3a
       0.013615069 -0.024161011 0.025982583 0.0016387023
000160 0f a1 a1 3b b8 a9 69 3b 35 f1 72 bc 30 ad 68 bc
       0.0049325298 0.0035654139 -0.014828016 -0.014201447
000170 89 85 b4 b9 bc 83 9d 3b 09 e4 bc 3b 66 36 05 bc
       -0.00034431767 0.0048069637 0.0057644886 -0.008130645
000180 b5 4a 68 bb db 2a 18 3a f2 1f a4 3c 1f 10 16 3c
       -0.003544492 0.0005804726 0.020034764 0.009159117
000190 4a 2f 5c bc ff 40 d0 3c 70 68 63 3c a5 bb 05 bc
       -0.013439009 0.025421618 0.01387988 -0.008162414
0001a0 60 29 72 3b 88 9e cf 38 03 a4 5a 3b 53 5d 23 3b
       0.003695093 9.900058e-05 0.0033361919 0.0024927452
0001b0 7f 38 1f bc ba a1 e5 3b 62 bf 54 3c 10 ab f7 3b
       -0.00971806 0.0070078047 0.012985082 0.007558234
0001c0 cd 0e ac 3c 4c ea b8 3b 30 9a 76 3c 45 d0 f7 bb
       0.021003151 0.0056431647 0.01505141 -0.0075626695
0001d0 42 0f c3 bc 32 33 ca 3c 21 13 10 bd b5 90 be 3b
       -0.023810986 0.024682615 -0.035174493 0.0058155903
0001e0 35 b1 28 3b 7b c9 89 3b 28 9c 2e bc 5e eb b0 3b
       0.002574039 0.0042049265 -0.010657348 0.0053991517
0001f0 5f 53 b6 3b 54 93 35 bb 85 1c 77 bc 15 98 40 3d
       0.005564138 -0.0027706223 -0.015082483 0.047020037
000200 00 22 94 bb 6f 40 d6 bc bf 9e c2 3c 93 a2 e5 3b
       -0.0045206547 -0.026153771 0.023757337 0.0070079057
000210 3c 71 89 bc 73 e9 c4 3b 0e ca cb bc f3 bf df 3c
       -0.016777627 0.0060092746 -0.02487662 0.027313208
000220 b3 86 e1 bc 68 1b 3d bb ba 2c ec 3c 6b 33 09 bb
       -0.02753005 -0.0028855447 0.028829921 -0.0020935189
000230 83 92 0b bc 55 f9 ea ba ca 8f 47 3b 4c a2 c2 3c
       -0.008518818 -0.001792709 0.0030450695 0.02375903
000240 c3 ce e2 bc 40 a5 3a bc 6f 8c 7f 3c ef 82 90 3c
       -0.027686482 -0.011391938 0.015597447 0.017640559
000250 fb 7b e8 ba 1b 7e 65 bc 75 51 06 3b 24 d7 10 3c
       -0.0017737144 -0.014007117 0.002049533 0.008840356
000260 07 6b 8e bc 1b 1a 36 3c 55 33 78 3c 22 ab 68 3c
       -0.017385019 0.0111146225 0.015148957 0.0142009575
000270 da 22 41 3c f5 a7 38 bc 6a c4 c0 bc 8b 73 1d 3c
       0.011788094 -0.011270513 -0.023531158 0.009610067
000280 82 25 88 3c 0a 7b c4 3b 27 c4 0c bc 08 86 a6 3c
       0.016619448 0.0059961127 -0.008591688 0.020327583
000290 ab 59 6d bc 9f 0e 8f bb f8 68 a1 3b 1a c7 7f bb
       -0.014486711 -0.0043657566 0.0049258433 -0.0039028586
0002a0 43 6e 3d bc bf f6 5c 38 eb b9 08 bc a0 92 dd 3c
       -0.011561933 5.2681888e-05 -0.008345108 0.027047455
0002b0 8f d9 05 bc cf 79 cc bc f2 cc 2d bc e0 3c 91 bc
       -0.008169546 -0.024960427 -0.010607945 -0.017729223
0002c0 c9 93 35 3c 7f c4 df bc 07 2e 92 3c 3f 46 99 bc
       0.011082598 -0.027315376 0.017844213 -0.018710254
0002d0 80 5f 8d bc a4 10 49 bc 39 15 a0 bc fb 18 43 3c
       -0.017257452 -0.012272034 -0.01954137 0.011907811
0002e0 ff b0 9f ba 05 0b 82 bc 88 a6 60 3c aa ea 8c 3b
       -0.0012183486 -0.015874395 0.013711579 0.004300435
0002f0 d2 f1 1e bc 23 ca 97 3c d3 b2 4a bc f0 9e 99 bc
       -0.009701209 0.018529003 -0.012371737 -0.018752545
000300 48 92 cc 3c fb 50 4d bc 44 f9 b6 3b 45 ef c6 ba
       0.024972096 -0.012531514 0.005583914 -0.0015177509
000310 f7 d8 cd bc cb 80 8f bc 30 50 41 3c 0b cd 3e 3b
       -0.025127871 -0.017517468 0.011798903 0.0029113914
000320 03 e2 1f 3b 8b ce c0 bc ae a0 bf bc 6b c7 d0 3b
       0.0024396188 -0.023535987 -0.023392048 0.0063714287
000330 44 49 83 3c 4f 7b ea 3b 9f 17 01 3c 50 d3 1e 3c
       0.016026147 0.007155813 0.007879167 0.0096939355
000340 0a 13 9d 3b 20 7a f5 3c 35 67 16 bd 65 3d e3 3c
       0.0047935294 0.02996546 -0.03671952 0.027739236
000350 cf 2a 04 bd c2 85 dc 39 a8 60 aa 3c 83 c7 81 3a
       -0.032267388 0.00042061327 0.020798042 0.0009901378
000360 40 7c 62 bc 9f 4e 04 bc 66 d5 35 bb 17 0f cd 3c
       -0.013823569 -0.008075385 -0.0027745604 0.02503161
000370 70 fa de 3c dd 3e 19 bd b4 b2 2c bb 21 8d 8b 3c
       0.027219027 -0.037413467 -0.0026351633 0.017035069
000380 50 20 b3 bb a8 5e 84 bc 03 53 1d 3c c6 98 88 bb
       -0.0054664984 -0.016158417 0.009602311 -0.0041686026
000390 6e 83 32 bb 43 38 ae bc c7 81 5d bc 5f c6 7b bb
       -0.0027238983 -0.021267062 -0.013519711 -0.00384178
0003a0 6f 93 86 bc 49 ea 18 bc bf 21 90 ba 5b 64 09 bc
       -0.016427724 -0.009333202 -0.0010996385 -0.008385743
0003b0 85 09 89 3b 29 d4 04 bc e6 6f 1f 3c d6 2e 13 3d
       0.004182043 -0.008107224 0.0097312685 0.035933338
0003c0 0f 25 02 3d 30 90 c9 3c f7 cc 9c b9 05 de fc 39
       0.031773623 0.024604887 -0.0002990735 0.00048230603
0003d0 43 49 1e bc 1b fb 9a bc 24 8f 38 bc 80 c6 10 3b
       -0.009661022 -0.018918565 -0.011264596 0.0022090971
0003e0 10 09 d8 bc a2 b7 5b bc 0b 9c 9a bc d0 36 16 3c
       -0.026371509 -0.013410481 -0.018873235 0.009168342
0003f0 cb 74 fb 3c 78 56 4e bc ea 10 05 3d 5a cd 3c 3c
       0.03069534 -0.012593858 0.032486834 0.011523569

network_body.linear_encoder.seq_layers.0.bias f4 [128]
000000 00 00 00 00 00 00 00 00 00 00 00 00 00 00 00 00
       0.0 0.0 0.0 0.0
000010 00 00 00 00 00 00 00 00 00 00 00 00 00 00 00 00
       0.0 0.0 0.0 0.0
000020 00 00 00 00 00 00 00 00 00 00 00 00 00 00 00 00
       0.0 0.0 0.0 0.0
000030 00 00 00 00 00 00 00 00 00 00 00 00 00 00 00 00
       0.0 0.0 0.0 0.0
000040 00 00 00 00 00 00 00 00 00 00 00 00 00 00 00 00
       0.0 0.0 0.0 0.0
000050 00 00 00 00 00 00 00 00 00 00 00 00 00 00 00 00
       0.0 0.0 0.0 0.0
000060 00 00 00 00 00 00 00 00 00 00 00 00 00 00 00 00
       0.0 0.0 0.0 0.0
000070 00 00 00 00 00 00 00 00 00 00 00 00 00 00 00 00
       0.0 0.0 0.0 0.0
000080 00 00 00 00 00 00 00 00 00 00 00 00 00 00 00 00
       0.0 0.0 0.0 0.0
000090 00 00 00 00 00 00 00 00 00 00 00 00 00 00 00 00
       0.0 0.0 0.0 0.0
0000a0 00 00 00 00 00 00 00 00 00 00 00 00 00 00 00 00
       0.0 0.0 0.0 0.0
0000b0 00 00 00 00 00 00 00 00 00 00 00 00 00 00 00 00
       0.0 0.0 0.0 0.0
0000c0 00 00 00 00 00 00 00 00 00 00 00 00 00 00 00 00
       0.0 0.0 0.0 0.0
0000d0 00 00 00 00 00 00 00 00 00 00 00 00 00 00 00 00
       0.0 0.0 0.0 0.0
0000e0 00 00 00 00 00 00 00 00 00 00 00 00 00 00 00 00
       0.0 0.0 0.0 0.0
0000f0 00 00 00 00 00 00 00 00 00 00 00 00 00 00 00 00
       0.0 0.0 0.0 0.0
000100 00 00 00 00 00 00 00 00 00 00 00 00 00 00 00 00
       0.0 0.0 0.0 0.0
000110 00 00 00 00 00 00 00 00 00 00 00 00 00 00 00 00
       0.0 0.0 0.0 0.0
000120 00 00 00 00 00 00 00 00 00 00 00 00 00 00 00 00
       0.0 0.0 0.0 0.0
000130 00 00 00 00 00 00 00 00 00 00 00 00 00 00 00 00
       0.0 0.0 0.0 0.0
000140 00 00 00 00 00 00 00 00 00 00 00 00 00 00 00 00
       0.0 0.0 0.0 0.0
000150 00 00 00 00 00 00 00 00 00 00 00 00 00 00 00 00
       0.0 0.0 0.0 0.0
000160 00 00 00 00 00 00 00 00 00 00 00 00 00 00 00 00
       0.0 0.0 0.0 0.0
000170 00 00 00 00 00 00 00 00 00 00 00 00 00 00 00 00
       0.0 0.0 0.0 0.0
000180 00 00 00 00 00 00 00 00 00 00 00 00 00 00 00 00
       0.0 0.0 0.0 0.0
000190 00 00 00 00 00 00 00 00 00 00 00 00 00 00 00 00
       0.0 0.0 0.0 0.0
0001a0 00 00 00 00 00 00 00 00 00 00 00 00 00 00 00 00
       0.0 0.0 0.0 0.0
0001b0 00 00 00 00 00 00 00 00 00 00 00 00 00 00 00 00
       0.0 0.0 0.0 0.0
0001c0 00 00 00 00 00 00 00 00 00 00 00 00 00 00 00 00
       0.0 0.0 0.0 0.0
0001d0 00 00 00 00 00 00 00 00 00 00 00 00 00 00 00 00
       0.0 0.0 0.0 0.0
0001e0 00 00 00 00 00 00 00 00 00 00 00 00 00 00 00 00
       0.0 0.0 0.0 0.0
0001f0 00 00 00 00 00 00 00 00 00 00 00 00 00 00 00 00
       0.0 0.0 0.0 0.0

network_body.linear_encoder.seq_layers.0.weight f4 [128, 6]
000000 b5 2c e3 bd 80 c9 98 3b 5d 1f 86 3e 9e 84 1f bf
       -0.110925116 0.0046626925 0.26195803 -0.6231173
000010 45 26 b7 be 98 6a 45 3e 45 8f cd be bf 9d b1 3d
       -0.35771385 0.19278944 -0.40148368 0.08672666
000020 db 41 b6 3e 90 64 45 3c 29 08 25 3f 46 f5 87 3e
       0.3559712 0.012047902 0.64465576 0.26554316
000030 54 c6 63 3d 10 59 66 be 00 c9 ef 3e 68 a4 b6 be
       0.055609062 -0.22494912 0.46833038 -0.35672307
000040 60 d1 9e 3e 11 78 5a bd c5 40 f7 3d 19 cb fb bd
       0.31019115 -0.05333716 0.12072901 -0.12294597
000050 62 2e ff 3e af 7b fe 3e b4 a9 c6 be 07 b4 92 3d
       0.49840075 0.49703738 -0.38801348 0.07163244
000060 59 22 b6 3e 00 c0 e6 be 0b 56 9f bb af bb a7 be
       0.3557308 -0.4506836 -0.004862552 -0.3276038
000070 83 f2 54 3e 43 3f df 3e 21 65 4d 3d 73 7f 08 3e
       0.20795636 0.43602952 0.050145272 0.13329868
000080 d6 1d d6 be 11 e2 69 3d 25 66 6f 3e e3 56 eb 3d
       -0.41819638 0.05710036 0.23378809 0.11491182
000090 dd b0 ad 3e 65 b7 96 be 63 90 bc be 99 af 06 be
       0.33923998 -0.29436794 -0.36828908 -0.13152923
0000a0 d8 c3 86 be ad 47 67 bd 6b 3d 96 3e c5 29 ab be
       -0.26321292 -0.05646484 0.29343733 -0.33430305
0000b0 43 ea 50 3e 71 2f e3 be 9e 7d 8b 3a 2d e0 8f 3e
       0.20401864 -0.44372132 0.0010642295 0.2810072
0000c0 a8 58 85 3e 70 24 74 be 9e 4f b3 3e b6 60 d1 3e
       0.26044202 -0.23842025 0.3502168 0.40894097
0000d0 ad a3 23 3f bf 1d 18 3e 64 0a 3e bf a9 7e 1f be
       0.63921624 0.14855097 -0.74234605 -0.15575661
0000e0 ed f6 bb be 9b ab 22 3f c9 77 29 bf b1 aa 94 3e
       -0.36711827 0.635431 -0.661984 0.29036477
0000f0 86 79 8f 3e 1e 6a 2d 3e 31 12 2d 3e 34 5e 8a 3e
       0.28022403 0.16935012 0.1690147 0.27024996
000100 9c 48 fd 3d 20 33 bb be 40 36 67 3e 2e 4b eb be
       0.12367365 -0.36562443 0.22579288 -0.45955795
000110 d8 2b b0 3d 57 09 16 3f 3a 2b 68 3e 8f d5 b0 3e
       0.086021125 0.58608 0.2267274 0.34537932
000120 54 2b b5 3e 81 82 90 be 2f 58 40 3f 2b d1 41 be
       0.3538462 -0.28224567 0.7513456 -0.18927447
000130 6f 59 ca 3d ab 01 a2 be 82 55 74 3e 78 33 5c 3e
       0.09880339 -0.31641898 0.23860744 0.21504009
000140 1e e5 a4 be af 05 d0 3d aa 6f dc be dc 8e 41 3f
       -0.32206053 0.10157334 -0.43053943 0.7560861
000150 78 bf 14 be 3c 5d 44 3e cc 4b 40 be e9 54 92 3e
       -0.14526165 0.19176191 -0.18778914 0.28580406
000160 51 fc 70 3d de af d6 3e 82 b8 1e 3e 31 73 be 3d
       0.058834378 0.4193105 0.15500072 0.09299315
000170 23 7d a6 3e be 99 14 3f fd ca 5e 3e cb 4c 84 bd
       0.32517347 0.5804709 0.21757121 -0.064599596
000180 31 c0 76 3b 61 bb 8f be af 55 ff bd 3a ea 27 bf
       0.0037651176 -0.28072646 -0.12467515 -0.65591776
000190 db 53 2f bf 96 77 a5 bd 64 6c d0 be c6 29 cc be
       -0.6848733 -0.0807945 -0.40707695 -0.3987562
0001a0 1c 42 9c 3d 14 78 b6 be c1 f1 d1 be a3 35 5f 3e
       0.07629797 -0.35638487 -0.41004756 0.21797805
0001b0 a8 5a 6f 3f c7 52 77 3f 47 3a 77 be 6b 90 4e 3f
       0.93497705 0.96610683 -0.24143325 0.80689114
0001c0 46 22 ba be 17 70 b7 3c 5b e7 2b 3e d9 11 24 bf
       -0.36354274 0.022392316 0.16787474 -0.64089733
0001d0 d3 ae c0 be 6c c8 8c 3f 4f 58 1b be 51 df 26 be
       -0.3763338 1.0998664 -0.15170406 -0.16296126
0001e0 7a cc ed 3c 86 7e 2b bf 27 5b 0e bf eb d1 23 bf
       0.029028166 -0.66989934 -0.5560784 -0.63992184
0001f0 76 32 f2 be 88 80 84 3d 0f 11 22 3f f3 32 cd 3d
       -0.47304124 0.06469828 0.6330728 0.100194834
000200 11 b7 60 bd 49 17 bf 3e 7e e6 99 bf f5 ce a9 3f
       -0.054862086 0.37322453 -1.2023466 1.3266283
000210 d7 80 a3 be 85 bb 52 be 1d f1 a9 be 7a 91 82 be
       -0.31934234 -0.20579346 -0.33191767 -0.25501615
000220 47 9f 36 be 3f 6e 0f bf f0 29 36 be 5a cb 05 3f
       -0.17834197 -0.560276 -0.17789435 0.52263415
000230 7d 92 f1 bd 57 f7 34 bf 8f 8b 15 3f 84 ec cf 3d
       -0.117955185 -0.7068991 0.58416075 0.10152534
000240 3c 7b 78 3e 20 c4 9f 3d 1b 85 c8 3e e5 91 20 3f
       0.2426576 0.0780108 0.3916405 0.6272262
000250 a1 85 a1 3e 01 de 7b 3d c3 58 47 3e 6d 67 1b be
       0.31547263 0.061491016 0.19467454 -0.15176173
000260 6f c9 16 be d9 ce 9c bd b9 40 cd 3e fb 02 8a bd
       -0.14725278 -0.076566406 0.40088442 -0.0673885
000270 87 3e 36 3e c7 a3 9e 3c ab 7a dd be 82 dc 15 be
       0.1779729 0.019365204 -0.4325765 -0.14634898
000280 b5 6c 94 bd 1a c8 f1 be 3e c4 23 bf ca 77 96 3c
       -0.07247297 -0.47222978 -0.63971317 0.018367667
000290 de e3 28 bd b6 11 8e 3e 4c 48 a3 3e c2 7d 15 3f
       -0.041232936 0.27747887 0.31891096 0.58395016
0002a0 0d 5f 03 bd 20 fd c1 3e f9 ac fa be 96 35 90 be
       -0.03207307 0.37888432 -0.48960093 -0.28165883
0002b0 aa f3 b2 3e 2c cf f5 3e f4 98 e6 bd a4 e0 6d be
       0.34951526 0.48009622 -0.11259642 -0.23230225
0002c0 cd e5 d8 be 76 34 11 3f df e3 77 3e 36 93 72 be
       -0.42362824 0.56720674 0.2420802 -0.23688969
0002d0 9a 99 b3 3d 2f 79 5a 3f 11 01 34 bf 47 06 f1 3e
       0.087695315 0.8534116 -0.7031413 0.47075102
0002e0 7f e7 dd 3e 38 6a 01 bf fe 54 4b bf 87 68 33 3e
       0.4334068 -0.505527 -0.7942656 0.17520343
0002f0 fa 96 e2 3e ce 22 5a be 57 93 8e be 9c 50 35 3e
       0.4425581 -0.2130234 -0.27846786 0.17706531
000300 6a da f3 bd e4 09 b7 be 91 83 4d 3f 5a 34 91 be
       -0.119068936 -0.35749733 0.8027888 -0.28360254
000310 7d e5 d0 be e7 e2 05 3f 94 3d dc be 0f 99 0b be
       -0.40800086 0.5229935 -0.4301573 -0.13632606
000320 9e d5 bf 3c ba ad f2 3d aa d7 ce 3e d0 70 0c bd
       0.02341729 0.11849542 0.40398914 -0.034287274
000330 63 cc 28 be 0b 00 bd bd c2 4a e7 3e 4f 02 14 bf
       -0.16484217 -0.09228524 0.45174223 -0.5781602
000340 f8 5b f3 3e d5 1e ee 3d f5 27 97 3e f5 b2 21 bf
       0.47531104 0.116269745 0.29522672 -0.6316369
000350 4e 65 cc 3c 17 81 48 bf d7 f2 f8 3d a6 31 73 3e
       0.02495065 -0.78321975 0.12155693 0.23749408
000360 00 83 27 3e dd fc 9c be d4 55 a2 be fe d1 ba 3e
       0.16358566 -0.3066167 -0.31706107 0.36488336
000370 82 49 2b bd fa 4a a1 3e 0b 09 11 bf 33 94 0a 3f
       -0.04181815 0.31502515 -0.56654423 0.54132384
000380 69 54 02 bf 70 c1 a1 3e 9c 34 15 be 17 95 1c 3f
       -0.5091005 0.31592894 -0.1457085 0.61164993
000390 94 c4 8e 3e 6a ed 70 bd 07 62 5c be 8c d3 65 be
       0.27884352 -0.058820166 -0.2152177 -0.2244398
0003a0 c9 3f e3 be 6f f8 b8 be 05 58 a5 be 98 b3 0d be
       -0.44384602 -0.3612704 -0.32293716 -0.13838041
0003b0 67 5f 1e 3f 75 a7 27 bd ff 4d 7c be 7f 40 26 3e
       0.6186432 -0.040931184 -0.24639128 0.16235541
0003c0 f5 4c ee be 0b e3 3c 3e d8 ac 0b 3e b3 33 e7 3e
       -0.4654309 0.18445985 0.13640153 0.4515663
0003d0 6c 96 ac 3e 45 20 dd 3d 7a 66 68 be 83 cc 0b be
       0.33708513 0.107971705 -0.22695342 -0.13652234
0003e0 de 10 a5 be 50 f2 a8 bd 1d 61 58 3f 23 8f 62 bf
       -0.3223943 -0.082493424 0.84523183 -0.8849966
0003f0 6b cf 21 be af 9f 1b be 48 7f e0 3d 4b 46 f7 bc
       -0.1580178 -0.15197633 0.10961777 -0.030184885

network_body.linear_encoder.seq_layers.2.bias f4 [128]
000000 00 00 00 00 00 00 00 00 00 00 00 00 00 00 00 00
       0.0 0.0 0.0 0.0
000010 00 00 00 00 00 00 00 00 00 00 00 00 00 00 00 00
       0.0 0.0 0.0 0.0
000020 00 00 00 00 00 00 00 00 00 00 00 00 00 00 00 00
       0.0 0.0 0.0 0.0
000030 00 00 00 00 00 00 00 00 00 00 00 00 00 00 00 00
       0.0 0.0 0.0 0.0
000040 00 00 00 00 00 00 00 00 00 00 00 00 00 00 00 00
       0.0 0.0 0.0 0.0
000050 00 00 00 00 00 00 00 00 00 00 00 00 00 00 00 00
       0.0 0.0 0.0 0.0
000060 00 00 00 00 00 00 00 00 00 00 00 00 00 00 00 00
       0.0 0.0 0.0 0.0
000070 00 00 00 00 00 00 00 00 00 00 00 00 00 00 00 00
       0.0 0.0 0.0 0.0
000080 00 00 00 00 00 00 00 00 00 00 00 00 00 00 00 00
       0.0 0.0 0.0 0.0
000090 00 00 00 00 00 00 00 00 00 00 00 00 00 00 00 00
       0.0 0.0 0.0 0.0
0000a0 00 00 00 00 00 00 00 00 00 00 00 00 00 00 00 00
       0.0 0.0 0.0 0.0
0000b0 00 00 00 00 00 00 00 00 00 00 00 00 00 00 00 00
       0.0 0.0 0.0 0.0
0000c0 00 00 00 00 00 00 00 00 00 00 00 00 00 00 00 00
       0.0 0.0 0.0 0.0
0000d0 00 00 00 00 00 00 00 00 00 00 00 00 00 00 00 00
       0.0 0.0 0.0 0.0
0000e0 00 00 00 00 00 00 00 00 00 00 00 00 00 00 00 00
       0.0 0.0 0.0 0.0
0000f0 00 00 00 00 00 00 00 00 00 00 00 00 00 00 00 00
       0.0 0.0 0.0 0.0
000100 00 00 00 00 00 00 00 00 00 00 00 00 00 00 00 00
       0.0 0.0 0.0 0.0
000110 00 00 00 00 00 00 00 00 00 00 00 00 00 00 00 00
       0.0 0.0 0.0 0.0
000120 00 00 00 00 00 00 00 00 00 00 00 00 00 00 00 00
       0.0 0.0 0.0 0.0
000130 00 00 00 00 00 00 00 00 00 00 00 00 00 00 00 00
       0.0 0.0 0.0 0.0
000140 00 00 00 00 00 00 00 00 00 00 00 00 00 00 00 00
       0.0 0.0 0.0 0.0
000150 00 00 00 00 00 00 00 00 00 00 00 00 00 00 00 00
       0.0 0.0 0.0 0.0
000160 00 00 00 00 00 00 00 00 00 00 00 00 00 00 00 00
       0.0 0.0 0.0 0.0
000170 00 00 00 00 00 00 00 00 00 00 00 00 00 00 00 00
       0.0 0.0 0.0 0.0
000180 00 00 00 00 00 00 00 00 00 00 00 00 00 00 00 00
       0.0 0.0 0.0 0.0
000190 00 00 00 00 00 00 00 00 00 00 00 00 00 00 00 00
       0.0 0.0 0.0 0.0
0001a0 00 00 00 00 00 00 00 00 00 00 00 00 00 00 00 00
       0.0 0.0 0.0 0.0
0001b0 00 00 00 00 00 00 00 00 00 00 00 00 00 00 00 00
       0.0 0.0 0.0 0.0
0001c0 00 00 00 00 00 00 00 00 00 00 00 00 00 00 00 00
       0.0 0.0 0.0 0.0
0001d0 00 00 00 00 00 00 00 00 00 00 00 00 00 00 00 00
       0.0 0.0 0.0 0.0
0001e0 00 00 00 00 00 00 00 00 00 00 00 00 00 00 00 00
       0.0 0.0 0.0 0.0
0001f0 00 00 00 00 00 00 00 00 00 00 00 00 00 00 00 00
       0.0 0.0 0.0 0.0

network_body.linear_encoder.seq_layers.2.weight f4 [128, 128]
000000 d7 e6 e9 bd d7 81 d8 3d 71 4f 1c bd 9f 25 f2 3d
       -0.11420982 0.1057164 -0.0381617 0.11823582
000010 50 5f d3 3d a3 2c 60 bd 47 2f 2d bd 36 4b 91 3c
       0.10320914 -0.05473007 -0.042281415 0.017736059
000020 4e 37 a0 3d 4e 8c cc b9 73 0a 7b bd 79 1e 0e 3e
       0.078230485 -0.00039014447 -0.061289262 0.13878812
000030 a3 58 81 3d 3a 47 50 3d 86 b5 e3 3c 67 d3 a7 3d
       0.06315734 0.050849177 0.027796518 0.08194619
000040 46 a7 f4 bc 52 77 b0 bd 70 c3 86 3d b4 b3 27 be
       -0.029864918 -0.086165085 0.065802455 -0.16377145
000050 00 1f 1a 3e 7c 06 ed 3c 5b 36 91 3d 1e 0d fd bc
       0.15050888 0.028933756 0.070904456 -0.030890044
000060 5e aa f6 3d 60 b6 ee bb 03 cc de bd 5a 54 37 3e
       0.12044214 -0.0072849244 -0.10878756 0.17903271
000070 c5 96 8e bd 00 50 45 39 6c c4 3b 3e 11 9d 11 bd
       -0.06962351 0.00018817186 0.18336648 -0.03555018
000080 69 ee 43 3c 53 34 da bd 6a 18 58 3c cd e4 ce bc
       0.011958697 -0.10654511 0.0131894145 -0.025255585
000090 b8 d0 9e bd 50 c1 a4 bd 50 c3 ad bd 2f bd 17 be
       -0.07754654 -0.08044684 -0.084845185 -0.14818262
0000a0 50 f3 36 3c d3 ae 7f bd b1 15 bf bd b0 3a 27 bd
       0.011166409 -0.062422585 -0.09330309 -0.040827453
0000b0 76 86 38 bc 90 36 df bd 8b f0 e5 bd a1 80 ec 3c
       -0.011262527 -0.10899079 -0.112275206 0.028869929
0000c0 f4 da 17 be 65 fb 98 bd 3e d6 cd 3d 31 1a fb bc
       -0.14829618 -0.07469825 0.10050629 -0.030652137
0000d0 cc 33 0f 3c ff 2e 7f bd bf b4 48 3d e9 63 2d 3d
       0.008740377 -0.06230068 0.049000498 0.04233161
0000e0 e8 58 ae bd 37 cd 6c bd 82 4b eb bc be 5b 52 3c
       -0.08513051 -0.057812896 -0.028722528 0.012839256
0000f0 15 9b 12 bd 7e 82 c6 bd 4a 02 cf 3d 9b bd 05 3d
       -0.03579243 -0.09692858 0.101078585 0.032651525
000100 c4 bf b9 3d a1 e3 a4 bd 3d bb 8e 3c 46 7d f0 bc
       0.090697795 -0.08051229 0.017423267 -0.02935661
000110 13 8f 03 be 84 8f 11 bd 8c e9 8a ba c6 91 cd bc
       -0.12847547 -0.035537258 -0.0010598167 -0.025093924
000120 11 b8 24 3e cb 2e 85 bd 75 f3 86 3b 10 96 d0 3c
       0.16085841 -0.06503066 0.004118378 0.02546218
000130 50 24 84 bc dd b1 eb bb 97 42 80 3c 02 b8 e3 bd
       -0.016130596 -0.007192834 0.015656753 -0.11119081
000140 4a 91 10 3d 5a 65 09 3e 06 2e 7a 3d ee d4 8b 3d
       0.03529481 0.13417569 0.061079048 0.068277225
000150 f5 9e 3c bb 86 3f 0a 3d c8 fe c0 b9 dc 2b cf 3d
       -0.002878127 0.033751987 -0.0003681092 0.101157874
000160 91 a0 ed ba 45 a9 df 3d ac 5b 50 3c 08 e7 98 3c
       -0.0018129518 0.109209575 0.012717169 0.018664852
000170 79 34 c4 bc 0e 84 bf bd 52 8f cb 3c 75 38 e0 bc
       -0.023950802 -0.09351359 0.024848614 -0.02737067
000180 fc e2 7f 3d 30 8c 17 bc 79 21 96 3d c2 97 a9 3d
       0.06247233 -0.009249732 0.07330603 0.08280899
000190 99 18 ee 3d db a6 df 3c f2 a5 f6 3d 07 ed 9c 3d
       0.116257854 0.027301243 0.1204337 0.07662397
0001a0 02 91 65 3e 38 bf a2 bc 81 ef 57 bd fc 2c cb 3c
       0.22418597 -0.01986657 -0.052718643 0.024801724
0001b0 8a 71 6f 3d 9d ee 82 bd 64 88 16 3b 06 4a d4 3c
       0.05845789 -0.06393168 0.0022969479 0.025914203
0001c0 32 8f c0 bd d5 4a bc bd 5e 6e e5 bc 84 da 14 bc
       -0.09402312 -0.091939606 -0.028006729 -0.009085301
0001d0 44 9e 22 3d 99 d3 8d bd be 6c b9 3d 4a aa 87 bc
       0.039701715 -0.06925125 0.09053944 -0.016560692
0001e0 a5 92 58 3d 82 bc 91 3d a6 54 0a bd 4e f6 58 3d
       0.052874226 0.07116033 -0.033772133 0.05296927
0001f0 7b c0 10 3d d2 31 1b 3d 90 60 96 3d 99 a2 a2 3d
       0.035339814 0.03788931 0.073426366 0.07941169
000200 4e 2b 99 3d ae 69 70 3d f2 fc 05 be 28 3f 99 bd
       0.07478963 0.058694534 -0.13084772 -0.07482749
000210 ec 14 3a be 1f 20 5b be 6a ad 87 bd e8 67 f0 bd
       -0.18172044 -0.21398972 -0.06624873 -0.117385685
000220 15 32 2b 3d 15 c6 ed bc 7b 1c be bc 4b 46 b0 bd
       0.04179581 -0.029025117 -0.02320694 -0.08607157
000230 5c 52 48 3d c2 c7 92 3d 01 46 16 be 41 86 07 be
       0.04890667 0.07167007 -0.14675142 -0.13234808
000240 d0 bd 17 bd 34 c6 29 3c f4 10 0b bc 0d 41 58 3c
       -0.037046254 0.010362197 -0.008487929 0.013199103
000250 87 fb 97 3c 6e 9c 05 3c a8 ab b8 3d e8 0d 27 3d
       0.018552555 0.0081549715 0.09017116 0.040784746
000260 11 18 bd bd c9 7f c1 3c a2 c8 88 bc 8a c8 bc bd
       -0.09233106 0.023620503 -0.016697232 -0.09217937
000270 72 f9 c5 3d ed e7 b8 bb c5 f9 03 3e 0a 93 8c bb
       0.096667185 -0.005642882 0.12888248 -0.0042899894
000280 e5 ac 43 3d e1 02 36 3c 5d 8f 6d bd f9 d9 ea bc
       0.047772307 0.011109085 -0.05799805 -0.02866839
000290 f0 85 f8 bd 45 f2 d5 bd af 45 16 be 8e 30 43 3e
       -0.121349216 -0.104466 -0.1467502 0.19061491
0002a0 a4 7f 44 3c de 11 96 3d b4 87 1a be 2d 1b 85 3d
       0.0119933225 0.07327627 -0.15090829 0.06499324
0002b0 5a e7 8e bd 46 95 92 bc ea 23 70 3d 52 f4 5e 3a
       -0.069777206 -0.017893445 0.058628 0.00085050345
0002c0 ea 43 f6 3d f9 ab 5a bd 00 31 11 3c c0 d2 2f bd
       0.12024672 -0.053386662 0.00886178 -0.042925596
0002d0 a8 f9 5e bd 3a db bb bb 3c d6 b3 3d 87 c0 f9 3c
       -0.05443731 -0.005732921 0.08781096 0.030487312
0002e0 f2 f3 ac bd 54 49 1a bc bf 1d 0c 3e 79 1e a0 3c
       -0.084449664 -0.009416897 0.13683222 0.01954578
0002f0 14 98 a3 bd 65 8f 78 bc f5 07 c1 bd a9 ae 9a 3c
       -0.07987991 -0.015170907 -0.09425346 0.018882113
000300 29 6f 4d 3c ff 77 d4 3d 32 d5 ab 3b 31 96 e7 bd
       0.01253871 0.1037445 0.0052439207 -0.113079436
000310 16 a1 28 3e 0a 74 64 bd ce 78 9e bc c0 e5 00 3e
       0.164677 -0.055774726 -0.019344714 0.12587643
000320 48 d2 bb 3c 5e de f4 bd ca eb bb 3c bb a1 4f bc
       0.022927418 -0.11956476 0.022939581 -0.012672837
000330 8f 8e 30 bd 49 89 60 bc e3 94 c4 3d e6 35 b4 bd
       -0.043104704 -0.013704606 0.095987104 -0.08799343
000340 28 b7 56 3d 6e 34 86 bb 63 c2 de bd 8b 9a 27 3e
       0.052420765 -0.0040956056 -0.1087692 0.16367547
000350 61 b2 64 bd d9 cf 93 3d 4a c4 47 3d fa 63 9d 3d
       -0.055834178 0.07217378 0.04877118 0.07685085
000360 a8 d2 00 3e 48 55 fd bc 40 ce e8 bb 41 d6 0b 3d
       0.12580359 -0.030924454 -0.007104665 0.034139875
000370 c7 54 40 3d a1 0a cd bd a8 3a a3 3d 53 2c 82 bd
       0.04695585 -0.10011793 0.07970172 -0.063561104
000380 df ef 02 bd 83 9d d7 bd 25 26 84 bd a8 46 40 bb
       -0.03196704 -0.1052809 -0.06452588 -0.002933899
000390 2b 18 2a be c9 54 16 bc af cd 72 bd 4a 58 92 3d
       -0.16610782 -0.009175488 -0.059278186 0.07145746
0003a0 30 87 78 bd b5 ec 04 3d ce a5 58 3e eb a4 2e bc
       -0.0606758 0.032452304 0.21157 -0.010659437
0003b0 d1 b7 15 3e d2 7d 90 bd 8a eb 16 3e 09 b5 17 bb
       0.14620902 -0.07055248 0.14738289 -0.0023148677
0003c0 e3 1d 4c 3d 91 2d d1 3d df 63 c9 3d cd 5d b4 3d
       0.04983319 0.10213769 0.09833502 0.088069536
0003d0 64 cb 23 3e a9 c3 a1 3d a7 71 9c bd 68 7d f4 bd
       0.15995556 0.07898647 -0.07638865 -0.11937982
0003e0 21 a8 a0 bd b7 64 e3 3d 21 94 ff 3d 96 c0 5a 3d
       -0.07844568 0.11103194 0.12479425 0.05340632
0003f0 49 ab 91 bc 4a f4 1d bd 13 fb e4 bc b0 f8 c3 3d
       -0.01778187 -0.03856305 -0.027951753 0.09568918
