results/ppo/My Behavior.onnx (onnx, 74487 bytes, 7 tensors)

action_model._continuous_distribution.log_sigma f4 [1, 2]
-0.003895306 -0.002057496
00000000: 6448 7fbb 0ed7 06bb

action_model._continuous_distribution.mu.bias f4 [2]
-0.004453241 0.0025452813
00000000: 7eec 91bb bcce 263b

action_model._continuous_distribution.mu.weight f4 [2, 128]
-0.0039331764 0.008697921 0.025607394 -0.0058549796 0.010268383 0.056437608 -0.014939272 -0.002276706
-0.02642515 -0.02442083 0.04511502 -0.009171842 0.004440431 -0.020365087 -0.04666784 0.009394575
-0.004630973 0.0040530213 -0.016010944 -0.013559244 -0.003789166 0.029376883 0.017124815 -0.0017050073
-0.006543196 0.012984841 -0.011494502 0.019906942 -0.010120313 -0.0014781975 0.004746662 0.03716951
-0.012954007 -0.0042725545 -0.013719787 0.018682985 0.011760864 0.024735626 0.0051042223 0.013087479
-0.0112078255 0.009099672 0.0054700035 -0.010317773 0.0017949423 -0.024486914 0.016379664 0.008438354
0.005753521 -0.013593411 -0.03210547 0.00019242318 0.007244871 0.03842322 0.014049953 0.023161402
-0.009848151 0.03185186 -0.025529526 0.0074773896 0.00041336872 -0.0058781975 -0.0071432656 -0.0013280397
0.02873709 -0.0017838974 0.0015939169 -0.01545797 -0.036018685 -0.0035453087 -0.010784436 0.028865581
0.024856295 0.032383934 -0.0008286329 0.016039671 0.048379317 -0.0066534104 0.01475247 -0.0031778477
-0.020495052 -0.008543551 -0.022126256 0.0060570813 0.009531051 0.0016269962 5.8697893e-05 0.010888886
0.0009260839 0.02792774 -0.015852602 -0.007983165 0.020934818 -0.016266048 -0.0048450823 0.015453673
0.031497627 -0.011207763 -0.0065013124 -0.008707982 -0.013603833 0.0023092185 0.0025498504 0.017166052
0.0016483199 -0.010289097 -0.009509287 -0.019333687 -0.0029813165 -0.0043181577 0.002970078 -0.02707673
0.0058899163 -0.0049435864 0.032967884 -0.015468571 -0.055408202 0.014150357 0.011785795 -0.010556605
0.0018584295 -0.010780419 -0.012198471 0.0057259914 -0.0018479512 -0.002914958 -0.0074749915 0.014825078
0.013611256 -0.0004434641 0.013222791 0.023395484 0.004937258 -0.024902575 -0.024563003 -0.039305285
0.001223857 -0.029284338 -0.0029549925 -0.0037351944 -0.003645235 -0.017625581 -0.026879165 0.019268427
0.0014464642 -0.007420927 -0.0078085563 -0.0006441774 0.0012246692 -0.0015097795 -0.00725211 -0.034727175
-0.005444762 0.020384395 -0.0107365195 -0.034766853 0.007974581 0.0014799725 0.016284702 -0.021104833
0.0042064437 0.017935328 -0.004020343 -0.008891742 -0.0070443307 0.00766221 0.01419 0.0025956724
0.0008515428 0.007846456 -0.0022765542 0.0011437372 -0.0084488075 -0.0018006709 -0.016541472 -0.03637671
-0.026878407 -0.012103232 -0.03629948 -0.00078158575 0.013665357 0.011410265 -0.03791998 0.0005459472
-0.010072662 -0.017606376 0.0064244815 -0.040424176 -0.0016771675 -0.01432243 0.02301097 0.015805509
-0.0052427324 0.0053158468 0.0011101345 -0.008083228 -0.0006602464 0.0029403 0.0074974145 0.0007316353
-0.010686774 -0.0091624325 0.006319203 -0.013908941 0.0049664695 -0.014350054 -0.016886843 0.00015432795
0.021310221 -0.004282922 -0.026747236 0.0017041996 0.011737765 -0.004397812 -0.0035891377 -0.036094137
0.0056856927 -0.01875842 0.00095077744 -0.0010056263 0.011649354 -0.0036305594 0.008470233 0.0213969
0.0014773837 0.008995395 -0.0026598503 0.0025425383 0.022627957 -0.023903094 -0.009059093 0.022355027
-0.009670851 0.024401736 0.008494788 0.0036874632 0.006277748 -0.016461661 -0.01674845 -0.00019297704
0.002735262 0.023127042 8.615599e-06 0.00815227 -0.01610418 -0.0023203935 0.032866962 0.0021663741
-0.030214796 0.010285103 0.00388451 0.0048093228 0.004701469 -0.031446014 0.0047346316 -0.006391358
00000000: e0e1 80bb ba81 0e3c 99c6 d13c 21db bfbb
00000010: b83c 283c 1f2b 673d d9c3 74bc ca34 15bb
00000020: 8e79 d8bc 310e c8bc 87ca 383d 7e45 16bc
00000030: 0981 913b afd4 a6bc c726 3fbd b4eb 193c
00000040: 6bbf 97bb 35cf 843b 6229 83bc 9727 5ebc
00000050: a853 78bb caa7 f03c 5749 8c3c 8d7a dfba
00000060: 4e68 d6bb 5fbe 543c 7053 3cbc e213 a33c
00000070: abcf 25bc 14c0 c1ba e389 9b3b 0e3f 183d
00000080: 0b3d 54bc c900 8cbb f5c8 60bc 0f0d 993c
00000090: a4b0 403c 5ea2 ca3c 5241 a73b de6c 563c
000000a0: 07a1 37bc ca16 153c b73d b33b e00b 29bc
000000b0: 4544 eb3a c898 c8bc a52e 863c 0641 0a3c
000000c0: 0888 bc3b e6b6 5ebc 0681 03bd 34c5 4939
000000d0: 6266 ed3b ab61 1d3d c631 663c fbbc bd3c
000000e0: 245a 21bc 1977 023d 4c23 d1bc e404 f53b
000000f0: 69b9 d839 e59d c0bb 0e12 eabb 9e11 aeba
00000100: 0c6a eb3c aad1 e9ba faea d03a 6d43 7dbc
00000110: 5488 13bd 6958 68bb 34b1 30bc 8377 ec3c
00000120: 6e9f cb3c 04a5 043d 9d38 59ba a165 833c
00000130: 6429 463d da04 dabb 58b4 713c 7043 50bb
00000140: 3de5 a7bc 40fa 0bbc 1f42 b5bc 7b7a c63b
00000150: 2028 1c3c ef40 d53a 6232 7638 4c67 323c
00000160: 70c4 723a b7c8 e43c 51dd 81bc d2cb 02bc
00000170: 7f7f ab3c 6040 85bc 7fc3 9ebb 6731 7d3c
00000180: a803 013d c4a0 37bc f608 d5bb ecab 0ebc
00000190: 9ce2 5ebc 4256 173b 641b 273b d29f 8c3c
000001a0: 700c d83a 9a93 28bc d7cc 1bbc ae61 9ebc
000001b0: 3162 43bb 557f 8dbb a4a5 423b 05d0 ddbc
000001c0: 3300 c13b cffd a1bb 5509 073d e46f 7dbc
000001d0: b6f3 62bd e6d6 673c 3519 413c 9cf5 2cbc
000001e0: 8c96 f33a 5ba0 30bc 19dc 47bc 19a1 bb3b
000001f0: f436 f2ba e108 3fbb c6f0 f4bb e2e4 723c
00000200: bf01 5f3c be80 e8b9 68a4 583c e3a7 bf3c
00000210: b9c8 a13b 7c00 ccbc 5a38 c9bc 94fe 20bd
00000220: d469 a03a b5e5 efbc 8ca8 41bb 2aca 74bb
00000230: e5e4 6ebb 8663 90bc b231 dcbc d2d8 9d3c
00000240: 4997 bd3a 3f2b f3bb ebde ffbb 03de 28ba
00000250: 1485 a03a cbe3 c5ba 1ca3 edbb 153e 0ebd
00000260: f969 b2bb 2dfd a63c 3ae8 2fbc b067 0ebd
00000270: d1a7 023c a3fb c13a 7f67 853c 0be4 acbc
00000280: 35d6 893b 1ced 923c 15bd 83bb abae 11bc
00000290: 21d4 e6bb 4713 fb3b 2c7d 683c 281c 2a3b
000002a0: 123a 5f3a 6c8e 003c 3e32 15bb 74e9 953a
000002b0: de6c 0abc 7d04 ecba fb81 87bc bfff 14bd
000002c0: 1b30 dcbc a24c 46bc c3ae 14bd 55e3 4cba
000002d0: a9e4 5f3c 1ff2 3a3c fb51 1bbd e51d 0f3a
000002e0: ce07 25bc 3f3b 90bc 7584 d23b d293 25bd
000002f0: 67d4 dbba a0a8 6abc 8081 bc3c 8e7a 813c
00000300: 3acb abbb 8e30 ae3b ef81 913a 846f 04bc
00000310: 6314 2dba 0cb2 403b dfac f53b 37cb 3f3a
00000320: 9417 2fbc 071e 16bc 5111 cf3b 54e2 63bc
00000330: c4bd a23b 7d1c 6bbc 4756 8abc 18d3 2139
00000340: c692 ae3c c157 8cbb 051d dbbc 735f df3a
00000350: c14f 403c 851b 90bb bd37 6bbb 72d7 13bd
00000360: 0c4f ba3b 42ab 99bc 983d 793a 38cf 83ba
00000370: efdc 3e3c aeee 6dbb bbc6 0a3c 8d48 af3c
00000380: c5a4 c13a 6c61 133c e250 2ebb b7a0 263b
00000390: 445e b93c 6cd0 c3bc 976c 14bc e421 b73c
000003a0: 7d72 1ebc 26e6 c73c b92d 0b3c 5ea9 713b
000003b0: 91b5 cd3b 9bda 86bc 0c34 89bc e159 4ab9
000003c0: 1542 333b ec74 bd3c b78b 1037 1991 053c
000003d0: eaec 83bc be11 18bb 829f 063d baf9 0d3b
000003e0: 0585 f7bc d982 283c 4393 7e3b 8697 9d3b
000003f0: c80e 9a3b 89cd 00bd f824 9b3b 996e d1bb

network_body.linear_encoder.seq_layers.0.bias f4 [128]
-0.0035014905 0.0028194478 -0.0027003472 0.006023235 -0.0010171131 -0.003601447 -0.0077091223 0.0011671621
-0.0041469173 -0.0033733707 -0.0018705521 -0.0021062226 -0.0014645915 -0.0011901263 -0.0059687756 -0.0003914385
-0.002717668 -0.0069527077 -0.0037201839 -0.0058687115 0.0021174941 0.0065455167 -0.014769652 0.0008981326
0.0007731857 -5.453223e-05 -0.0022865727 -0.003067659 -0.004522349 0.0024122656 -0.004068553 -0.0048917322
-0.004654266 -0.00039727226 -0.0041313237 0.007766707 0.00330908 -0.002417418 -0.0020495509 0.013240683
-0.0061066267 0.0015109372 -0.005524677 0.0054099564 -0.0016425287 0.006228978 0.0071473275 0.002807106
-0.001240071 -0.0020118128 0.00699059 0.00023421331 0.008779407 0.00095195224 -0.006687854 -0.0030065842
0.0071496763 -0.01281307 0.005924122 -0.009319265 0.0013905904 -0.0015478191 0.007392894 0.0036506443
-0.009678463 -0.008497802 0.0044286735 0.00019948094 -0.0024450293 -0.0003523611 0.005691499 0.0035365666
-0.004639466 -0.002504264 -0.008338468 -0.004104888 0.0008891278 0.0007888862 -0.0036746904 0.0049646054
-0.0070145065 -0.00048744044 -0.00060404214 0.0014107561 -0.000255182 -0.0031103592 0.00026237604 -0.005397818
0.0014986626 -0.008979293 0.0018423528 -0.004473293 -0.0007050648 0.0036094382 -0.0008022114 0.0022995993
-0.0007247562 0.002731092 -0.004188664 0.0013619516 3.4862994e-06 -0.001201331 0.003543094 -0.0031709292
-0.007866133 -0.0080348905 0.0064294212 0.0065510287 -0.0011451928 -0.0011230095 0.0027056301 0.0019951428
-0.0005650234 0.0049540238 -0.002808229 0.003459965 -0.0032035802 -0.005236944 -0.00022970054 -0.0016157725
-0.006188237 0.0012111415 0.0018524894 -0.0036376568 -0.005495391 -0.0077294484 -0.0025951138 -0.0009898897
00000000: 4379 65bb 7cc6 383b 4ff8 30bb 8f5e c53b
00000010: a750 85ba 4106 6cbb ce9c fcbb 76fb 983a
00000020: dde2 87bb c513 5dbb 502d f5ba 8d08 0abb
00000030: 89f7 bfba 03fe 9bba b895 c3bb fc39 cdb9
00000040: e71a 32bb 8ad3 e3bb 54ce 73bb 524e c0bb
00000050: a8c5 0a3b c67b d63b 69fc 71bc a970 6b3a
00000060: 9daf 4a3a 89b9 64b8 53da 15bb c70a 49bb
00000070: 3730 94bb 1a17 1e3b 7f51 85bb d34a a0bb
00000080: d082 98bb fb48 d0b9 0e60 87bb dc7f fe3b
00000090: 26dd 583b 8b6d 1ebb c251 06bb 73ef 583c
000000a0: 191a c8bb a40a c63a 5a08 b5bb 0146 b13b
000000b0: 1e4a d7ba 741c cc3b 2134 ea3b 6cf7 373b
000000c0: e189 a2ba 9ed8 03bb 5211 e53b 2897 7539
000000d0: 80d7 0f3c 6f8c 793a c925 dbbb 1d0a 45bb
000000e0: d547 ea3b e9ed 51bc 231f c23b d5af 18bc
000000f0: 7944 b63a 31e0 caba 1740 f23b a63f 6f3b
00000100: 6b92 1ebc 5d3a 0bbc 681e 913b c22b 5139
00000110: c93c 20bb 1bbd b8b9 c17f ba3b bec5 673b
00000120: a906 98bb 941e 24bb 129e 08bc 4c82 86bb
00000130: 5b14 693a 42cd 4e3a 13d3 70bb 21ae a23b
00000140: f2d9 e5bb 268f ffb9 9558 1eba 1fe9 b83a
00000150: f3c9 85b9 2bd7 4bbb 848f 8939 2ee0 b0bb
00000160: c66e c43a e21d 13bc 1a7b f13a b494 92bb
00000170: 19d4 38ba 538c 6c3b 7f4b 52ba e0b4 163b
00000180: 91fd 3dba 1ffc 323b 0f41 89bb 8383 b23a
00000190: 2bf6 6936 fb75 9dba 4133 683b 5dcf 4fbb
000001a0: f4e0 00bc c6a4 03bc e5ad d23b 03aa d63b
000001b0: 4b1a 96ba f231 93ba f150 313b f1c0 023b
000001c0: 141e 14ba 5d55 a23b 440a 38bb 95c0 623b
000001d0: 28f3 51bb ac9a abbb c5db 70b9 54c8 d3ba
000001e0: b2c6 cabb 2abf 9e3a 3bcf f23a c165 6ebb
000001f0: ae12 b4bb 5047 fdbb c912 2abb 30bf 81ba

network_body.linear_encoder.seq_layers.0.weight f4 [128, 9]
0.09100772 0.16527745 -0.3918966 -0.32147428 -0.18128891 0.04486189 0.12291642 -0.0507186
0.066186786 0.36532864 0.41127053 0.33018234 -0.18075919 0.15703973 -0.46998602 -0.816711
0.00014598887 -0.07744813 -0.071809344 0.13269378 -0.057215538 -0.1826492 0.6220235 -0.2210408
-0.10235593 0.21125191 0.065286286 0.11065158 1.3227115 -0.021816675 0.75450546 -0.51380855
0.35432565 -0.13401932 0.074972905 0.71079344 0.057937298 0.149158 -0.75671333 -0.7165972
-0.07628724 -0.11042613 -0.5353738 -0.54856694 0.3887918 -0.23364796 -0.36530384 -0.32262442
-0.2570469 -0.08634193 0.32409665 -0.33822104 0.05848599 -0.49971983 -0.42871895 -0.5091892
0.34249145 -0.3429799 0.4525381 -0.33480626 0.6859408 0.57283604 -0.22029355 0.5649998
0.17379633 -0.21754943 -0.25079438 -0.089750096 -0.2138168 0.3505855 0.16199344 0.44699484
-0.120257504 0.13777776 -0.16962224 -0.22125793 -0.12095626 0.45572245 0.07083315 0.117795676
0.30596977 -0.7591411 0.117128015 -0.22162431 -0.0297741 0.33188662 0.30128393 0.30082598
0.17141505 0.5199515 -0.6863406 0.14212546 0.03666347 0.08735682 -0.76770484 -0.17770812
-0.26261345 0.49354637 -0.21540499 -0.13114862 -0.16386634 -0.31599432 0.7097445 0.16077057
0.12341065 0.23107332 -0.34439346 -0.016376143 0.20368758 0.20774135 -0.28000247 0.26995116
-0.11966877 -0.12130451 -0.009738639 -0.056545034 -0.56701064 0.12063626 -0.23146303 -0.056708544
0.32843933 0.19103244 -0.17623472 0.15181233 -0.6841463 0.01816856 -0.16250607 -0.09877985
0.071282305 0.11179735 0.37791508 -0.058745667 -0.45793447 -0.48763764 0.74827933 -0.13821195
-0.24741507 0.11870334 0.34557164 -0.27580398 -0.18317792 -0.3763955 -0.0972114 0.091027655
0.12254611 -0.07007478 0.6494609 0.08412553 0.30173486 0.017837621 0.010416498 0.3630301
0.1124334 -0.081298724 0.39498326 0.24244888 0.015627896 0.24549697 -0.20338905 0.026596252
0.6564824 -0.0059277792 0.18576367 -0.059195988 0.2453264 0.14112367 -0.020426346 -0.5391597
-0.5695218 0.069350384 -0.16610254 0.5316608 -0.25006765 0.07360761 -0.15654394 -0.24603628
-0.20374791 -0.5052805 -0.16825555 -0.4471567 0.21479861 -0.006807037 -0.079656735 -0.36982858
-0.44931462 0.19606507 0.037942875 0.027088622 0.010437772 0.114603244 0.4872572 -0.018675603
0.54991144 -0.6402044 0.79649574 0.16577323 -0.121263355 -0.8491492 -0.21006304 -0.111086056
-0.04178268 0.10229032 -0.17785951 0.066783704 -0.15576193 0.26196614 -0.18586393 0.27969047
0.027066136 -0.5736225 -0.39134577 0.62517554 -0.3864616 -0.26156005 0.13854058 0.028202578
0.37133923 -0.23903231 -0.30513245 0.16443263 -0.09264505 -0.04445203 0.77947336 0.09029397
0.09438556 0.23503295 0.35783866 0.036668215 0.7817478 -0.6610132 -0.30023295 0.17353474
0.36444768 -0.46840498 0.5201105 0.121196724 0.64568096 -0.08787917 0.5331732 -0.12796539
0.33245704 -0.3357976 0.15957986 0.18247072 0.51420134 -0.0985536 0.16021815 0.5706243
-0.053713385 0.011773049 -0.34077564 -0.020318098 -0.77858174 -0.06542023 0.33487338 -0.24024485
00000000: 4162 ba3d 7e3e 293e aca6 c8be 4798 a4be
00000010: cda3 39be 1ac1 373d 9bbb fb3d 4fbe 4fbd
00000020: f08c 873d 5b0c bb3e 0d92 d23e a90d a93e
00000030: f018 39be 06cf 203e 02a2 f0be f913 51bf
00000040: 9714 1939 209d 9ebd c710 93bd e1e0 073e
00000050: d75a 6abd 6408 3bbe ef3c 1f3f 8558 62be
00000060: fc9f d1bd 6c52 583e d1b4 853d 4c9d e23d
00000070: 9c4e a93f e2b8 b2bc 4527 413f f588 03bf
00000080: 2c6a b53e 5c3c 09be 658b 993d 8ff6 353f
00000090: a94f 6d3d e0bc 183e f7b7 41bf ea72 37bf
000000a0: 7c3c 9cbd 1827 e2bd 420e 09bf e26e 0cbf
000000b0: b80f c73e 6941 6fbe 1b09 bbbe 072f a5be
000000c0: a79b 83be 0ad4 b0bd ffef a53e 4f2b adbe
000000d0: 018f 6f3d 47db ffbe 0d81 dbbe 395a 02bf
000000e0: 0a5b af3e 109b afbe 13b3 e73e ba6b abbe
000000f0: d199 2f3f 62a5 123f a294 61be d4a3 103f
00000100: aaf7 313e 47c5 5ebe 1f68 80be e6ce b7bd
00000110: cbf2 5abe f17f b33e 9ce1 253e 82dc e43e
00000120: 9149 f6bd 9d15 0d3e 74b1 2dbe 7091 62be
00000130: eab7 f7bd 7454 e93e f810 913d dc3e f13d
00000140: 12a8 9c3e 1257 42bf d0e0 ef3d 7cf1 62be
00000150: d0e8 f3bc 0bed a93e e341 9a3e dd05 9a3e
00000160: 6d87 2f3e 8b1b 053f 04b4 2fbf 5689 113e
00000170: 6f2c 163d 22e8 b23d 4e88 44bf 1ef9 35be
00000180: 4575 86be 1cb2 fc3e 2093 5cbe d34b 06be
00000190: 94cc 27be 02ca a1be d1b1 353f 0aa1 243e
000001a0: b9be fc3d 7c9e 6c3e 5754 b0be 4327 86bc
000001b0: 7a93 503e 26ba 543e 7c5c 8fbe 0a37 8a3e
000001c0: e614 f5bd 806e f8bd d08e 1fbc c49b 67bd
000001d0: 9c27 11bf 2510 f73d a504 6dbe 3847 68bd
000001e0: 3329 a83e 029e 433e e076 34be b174 1b3e
000001f0: 3624 2fbf 3bd6 943c fe67 26be 174d cabd
00000200: 75fc 913d 02f6 e43d 167e c13e 4c9f 70bd
00000210: 6376 eabe a4ab f9be 3c8f 3f3f 6f87 0dbe
00000220: 605a 7dbe bd1a f33d c4ee b03e 2e36 8dbe
00000230: fe92 3bbe e9b6 c0be c516 c7bd b56c ba3d
00000240: 74f9 fa3d 5e83 8fbd 1243 263f 024a ac3d
00000250: fe7c 9a3e 3420 923c f6a9 2a3c 15df b93e
00000260: 7b43 e63d f27f a6bd 3f3b ca3e 8544 783e
00000270: 1306 803c 8f63 7b3e 3845 50be 62e0 d93c
00000280: 3b0f 283f d13d c2bb d538 3e3e 7e77 72bd
00000290: d836 7b3e b982 103e 2755 a7bc 5f06 0abf
000002a0: 2ecc 11bf 9307 8e3d c916 2abe ec1a 083f
000002b0: de08 80be 96bf 963d 0e4d 20be eff0 7bbe
000002c0: 4ba3 50be 105a 01bf 2f4b 2cbe b9f1 e4be
000002d0: 2bf4 5b3e 910d dfbb 1223 a3bd 2c5a bdbe
000002e0: 910c e6be 48c5 483e fd69 1b3d f5e8 dd3c
000002f0: 3003 2b3c 1bb5 ea3d c779 f93e 94fd 98bc
00000300: ffc6 0c3f 70e4 23bf 25e7 4b3f 75c0 293e
00000310: ec58 f8bd d861 59bf c41a 57be 1681 e3bd
00000320: 5124 2bbd 967d d13d ce20 36be e5c5 883d
00000330: 0e80 1fbe 6d20 863e 1d53 3ebe 9733 8f3e
00000340: cdb9 dd3c edd8 12bf 795e c8be 810b 203f
00000350: 4bde c5be 33eb 85be 95dd 0d3e 1809 e73c
00000360: 2d20 be3e e3c4 74be 523a 9cbe 0761 283e
00000370: b0bc bdbd 5513 36bd 918b 473f 0cec b83d
00000380: 374d c13d 7aac 703e a136 b73e 6931 163d
00000390: a020 483f 2938 29bf 22b8 99be 17b3 313e
000003a0: e398 ba3e c7d2 efbe f625 053f fd35 f83d
000003b0: 594b 253f fff9 b3bd 0a7e 083f 5c09 03be
000003c0: cf37 aa3e aaed abbe e768 233e 9bd9 3a3e
000003d0: b3a2 033f 78d6 c9bd 3a10 243e 6f14 123f
000003e0: 9102 5cbd bfe3 403c 257a aebe 2472 a6bc
000003f0: 2251 47bf 0bfb 85bd 8674 ab3e bf02 76be

network_body.linear_encoder.seq_layers.2.bias f4 [128]
0.0017297299 -0.0056727557 -0.0034777778 0.00015781903 -0.004619619 0.0136579815 -0.0008117104 0.0016937056
0.0050310395 0.00077938766 -0.0027834645 0.003817577 -0.00087226264 -0.0036084217 0.003927551 -0.0020857165
0.0031848412 0.00012571497 0.0033883636 0.0038704711 -0.0067584612 0.0037681405 -0.0007225347 0.0026534416
0.001432568 -0.00012456036 0.00028100816 0.0032194292 0.0036139493 -0.0076283165 0.0006945712 -0.0007864322
0.006167222 0.0053778216 0.0039458517 0.0067895497 -0.0072667217 -0.003309616 -0.0028680589 -3.1452444e-06
0.0057972213 -0.0036288735 0.0012852411 0.0054764985 -0.0046033333 0.0055942745 -0.005260853 -0.0067690876
0.0013651799 -0.0003817573 0.0008734217 -0.0074217226 -0.00056207547 -0.0037360091 -0.0024365524 0.00016030848
0.00027273525 -0.005571771 -0.003375173 0.0028254944 -0.0069506704 -0.00035296974 0.004482217 0.0046857726
0.0035924695 0.0030164318 -0.0065421 0.0026797925 0.004348517 0.00433063 -0.004152106 -0.0047469395
-0.00043979628 -0.00644648 -0.0083465725 -0.0064834096 -0.0049392823 -0.0011318849 0.0060700793 0.0027496933
0.0003103385 -0.0007281351 0.00046146123 -0.0009582599 -0.00070534874 -0.0047050556 -0.003451765 0.0036953057
-0.0024887442 0.009213472 0.001416684 0.0034308461 -0.004353066 -0.0029802225 -0.0024385 -0.0018910787
-0.005646648 -0.0010733719 -0.004370091 -0.002206958 -0.00039204877 -0.003658096 0.002958092 0.0016205235
-0.0041759904 0.0054586176 0.004334578 0.0063825743 -0.0065083127 -0.0017651627 -0.00016493267 0.0045181396
-0.004819106 0.0030736113 0.0010742466 0.0039768363 0.0041316845 0.0008806752 -0.000923725 0.004270188
-0.0017880275 -0.00047539274 0.005177362 -0.0033515042 0.0033751167 -0.002723285 0.0056173033 -0.0014121594
00000000: 1bb8 e23a 86e2 b9bb 6eeb 63bb 397c 2539
00000010: 2c60 97bb bac5 5f3c f6c8 54ba 54ff dd3a
00000020: 6bdb a43b d24f 4c3a c96a 36bb 5030 7a3b
00000030: 8ea8 64ba 457b 6cbb b0b2 803b 84b0 08bb
00000040: c5b8 503b 5bd2 0339 4f0f 5e3b bba7 7d3b
00000050: 1576 ddbb e8f2 763b 7c68 3dba 5de5 2d3b
00000060: 01c5 bb3a 6b9c 02b9 4754 9339 0ffd 523b
00000070: 02d8 6c3b f5f6 f9bb e213 363a 9228 4eba
00000080: 6816 ca3b 7038 b03b 344c 813b df7a de3b
00000090: ae1d eebb 24e6 58bb 0bf6 3bbb e312 53b6
000000a0: 9ef6 bd3b 65d2 6dbb 8975 a83a 3374 b33b
000000b0: 8fd7 96bb 2d50 b73b 3c63 acbb 39cf ddbb
000000c0: d6ef b23a 9926 c8b9 57f6 643a ec31 f3bb
000000d0: 3f58 13ba d5d7 74bb 91ae 1fbb 7b18 2839
000000e0: e8fd 8e39 6793 b6bb 0232 5dbb ee2b 393b
000000f0: 73c2 e3bb cc0e b9b9 90df 923b 1c8b 993b
00000100: a36f 6b3b 54af 453b 1d5f d6bb 759f 2f3b
00000110: 017e 8e3b f5e7 8d3b 640e 88bb 378c 9bbb
00000120: 7594 e6b9 fe3c d3bb 10c0 08bc c872 d4bb
00000130: b4d9 a1bb c15b 94ba 84e7 c63b 3334 343b
00000140: eeb4 a239 52e0 3eba 47f0 f139 bc33 7bba
00000150: 27e7 38ba de2c 9abb 0237 62bb f12c 723b
00000160: 331a 23bb 1af4 163c 07b0 b93a 0cd8 603b
00000170: 2aa4 8ebb d64f 43bb 3ecf 1fbb 12de f7ba
00000180: 8407 b9bb 62b0 8cba fb32 8fbb 9ca2 10bb
00000190: e58b cdb9 abbc 6fbb 8cdc 413b bf67 d43a
000001a0: bfd6 88bb 34de b23b 1309 8e3b ea24 d13b
000001b0: af43 d5bb 085d e7ba c7f1 2cb9 e70c 943b
000001c0: 97e9 9dbb a46e 493b bccd 8c3a 1f50 823b
000001d0: 1563 873b 1ddd 663a 2326 72ba efec 8b3b
000001e0: 3f5c eaba 223e f9b9 dca6 a93b e9a4 5bbb
000001f0: 1031 5d3b 2479 32bb 5b11 b83b 3518 b9ba

network_body.linear_encoder.seq_layers.2.weight f4 [128, 128]
-0.013011884 -0.053876933 -0.030382814 -0.16212025 -0.10352882 0.08257522 -0.06790369 -0.16831484
0.015875634 -0.028207961 0.15628238 -0.18685497 0.080754176 -0.0050173793 -0.038985774 -0.017854547
-0.030550849 -0.060522128 -0.040384926 -0.019992827 -0.08478411 0.009583471 -0.052151084 0.028295308
0.076926045 -0.029936956 0.07152823 0.20126061 0.046343725 -0.07371802 -0.023695262 0.008729681
0.13937232 -0.049532957 0.11773023 0.193223 -0.056335937 0.01751229 -0.14416957 -0.050481368
-0.13057339 -0.07628879 0.013250273 0.1264444 -0.027965387 0.04595536 0.035089996 0.08032705
-0.022371696 0.08081082 -0.024725558 0.05498906 0.022572272 0.0034557541 -0.095889665 -0.053537946
-0.0761372 -0.1254994 -0.12168391 0.15989928 -0.022015477 0.041807678 0.12125689 0.16497499
0.096514545 0.033176992 -0.018233543 0.00690184 -0.23668516 0.12074769 0.08781825 -0.16365953
-0.0146568855 -0.058838926 -0.11021315 -0.06992801 0.08210349 0.022310298 0.1525678 -0.12954658
-0.11235486 -0.05603666 -0.041268256 0.0825855 -0.110500716 -0.030914314 0.044397525 0.011222751
0.101993695 0.0481407 0.019149713 0.08598323 0.18333751 -0.08331357 0.036353208 0.04015286
0.07444377 0.0012601572 0.23123676 0.105810985 -0.105324864 0.090832055 0.03823507 -0.08727049
-0.12304298 -0.071820535 0.09560649 0.027261347 0.12791081 0.13358536 0.108724125 -0.010180176
-0.06211751 0.034022983 0.06698425 0.19596446 0.211251 0.052392494 -0.084095076 -0.16481233
-0.029590124 -0.034899153 0.026983425 0.13823344 -0.03262759 0.07338631 0.04333378 0.076763175
-0.026098136 0.030051202 -0.07330289 0.111934096 -0.0428452 0.09521227 0.025978487 0.0759006
0.061778463 -0.037750695 -0.025089758 -0.04444258 -0.028297221 -0.059027903 0.07739833 0.000897968
0.15536685 -0.03373947 -0.1866562 -0.08702458 0.019973824 -3.3468394e-05 0.089666866 -0.06357064
-0.065773234 0.088272825 0.03781743 -0.004649868 0.07627447 0.12249456 0.031235572 -0.10730068
-0.029846253 -0.009919537 0.018073553 0.055668678 0.02321116 -0.08781959 0.06539978 -0.015931873
0.08937356 0.20862342 -0.19715719 -0.112605974 -0.016408028 0.1312053 0.014700952 0.09102627
0.022099275 -0.038466096 0.044185057 0.010191651 0.13522184 0.1035701 -0.17857474 -0.089516
0.030749876 0.12513913 -0.08151797 0.0029530618 -0.13140239 -0.04024497 -0.04102404 -0.093458585
-0.04649175 0.1740254 -0.034293927 -0.115543544 -0.030507192 0.026746716 -0.040253308 0.14847657
-0.12708893 -0.0023299097 0.0091870865 0.028739812 -0.12950456 0.03547778 -0.07842664 0.06711801
-0.15177664 -0.0022061903 -0.033835165 0.1541649 -0.07449753 -0.10635689 0.03805804 0.054872517
-0.1350993 0.030873546 0.052057173 0.0139552485 -0.0747708 -0.061946873 -0.007989983 -0.13104339
-0.020974107 -0.071128994 0.0849584 0.14245318 -0.12580262 0.02190119 0.11491954 0.12236112
-0.047852017 0.021140367 0.15965234 -0.1649686 -0.048222516 0.004669959 0.02385491 0.079750754
-0.019555172 -0.040599216 0.12584451 0.0548012 -0.041389212 0.016286496 0.0264072 -0.076861665
0.057956163 0.041522674 0.04456267 -0.028938236 0.006223209 0.02395839 0.11446497 0.08703218
00000000: cc2f 55bc 0fae 5cbd 61e5 f8bc da02 26be
00000010: eb06 d4bd 321d a93d 1711 8bbd ba5a 2cbe
00000020: 9e0d 823c 6214 e7bc 7d08 203e e956 3fbe
00000030: 7262 a53d d468 a4bb 8caf 1fbd b343 92bc
00000040: c645 fabc 0de6 77bd aa6a 25bd ffc7 a3bc
00000050: 4ba3 adbd fe03 1d3c 609c 55bd 90cb e73c
00000060: 678b 9d3d 593e f5bc 657d 923d 4317 4e3e
00000070: ebd2 3d3d 79f9 96bd 911c c2bc f006 0f3c
00000080: 9eb7 0e3e 12e3 4abd 8c1c f13d 40dc 453e
00000090: 83c0 66bd ef75 8f3c 30a1 13be 8dc5 4ebd
000000a0: 08b5 05be 4c3d 9cbd ac17 593c a47a 013e
000000b0: ab17 e5bc b03b 3c3d 87ba 0f3d 8282 a43d
000000c0: d944 b7bc 2580 a53d 418d cabc 353c 613d
000000d0: 7ce9 b83c ef79 623b cd61 c4bd 9b4a 5bbd
000000e0: d2ed 9bbd ea82 00be 6a35 f9bd a3bc 233e
000000f0: cd59 b4bc 873e 2b3d 8855 f83d 34ef 283e
00000100: 6ba9 c53d 99e4 073d 835e 95bc d528 e23b
00000110: 985d 72be 914a f73d 0eda b33d 5d96 27be
00000120: 6f23 70bc 1601 71bd 6fb7 e1bd 6b36 8fbd
00000130: e025 a83d 16c4 b63c bc3a 1c3e dca7 04be
00000140: 4e1a e6bd b286 65bd e708 29bd 9622 a93d
00000150: 334e e2bd 0440 fdbc 2eda 353d a1df 373c
00000160: 12e2 d03d 2f2f 453d dcdf 9c3c fa17 b03d
00000170: d4bc 3b3e 4ea0 aabd 1ae7 143d 5377 243d
00000180: fa75 983d dc2b a53a 54c9 6c3e 6eb3 d83d
00000190: 90b4 d7bd 2806 ba3d 609c 1c3d dfba b2bd
000001a0: f5fd fbbd a516 93bd 56cd c33d 3053 df3c
000001b0: 0dfb 023e 9aca 083e c1aa de3d c1ca 26bc
000001c0: ee6e 7ebd af5b 0b3d 0a2f 893d e8aa 483e
000001d0: 2f52 583e 8399 563d 0a3a acbd 90c4 28be
000001e0: fd66 f2bc 6af2 0ebd 580c dd3c 118d 0d3e
000001f0: 82a4 05bd 904b 963d c37e 313d 0336 9d3d
00000200: c2cb d5bc f02d f63c d31f 96bd b43d e53d
00000210: 737e 2fbd a7fe c23d d6d0 d43c c671 9b3d
00000220: 6a0b 7d3d 79a0 1abd 0989 cdbc 6c09 36bd
00000230: 93cf e7bc 3ec7 71bd 0483 9e3d 9d65 6b3a
00000240: 7d18 1f3e 6632 0abd ce22 3fbe f139 b2bd
00000250: 25a0 a33c 6a60 0cb8 43a3 b73d 5331 82bd
00000260: 1eb4 86bd 62c8 b43d 73e6 1a3d eb5d 98bb
00000270: ca35 9c3d 6ede fa3d bee1 ff3c 75c0 dbbd
00000280: 2180 f4bc 8e85 22bc fd0e 943c d704 643d
00000290: 5525 be3c c2da b3bd 52f0 853d 8f83 82bc
000002a0: 7c09 b73d 61a1 553e 93e3 49be f69d e6bd
000002b0: 216a 86bc af5a 063e 43dc 703c fb6b ba3d
000002c0: 8a09 b53c a08e 1dbd 64fb 343d e2fa 263c
000002d0: 9877 0a3e 901c d43d 4cdc 36be 2a54 b7bd
000002e0: 2ae7 fb3c 7924 003e e5f2 a6bd 2888 413b
000002f0: 598e 06be e9d7 24bd d308 28bd 3767 bfbd
00000300: 226e 3ebd b733 323e ca77 0cbd 18a2 ecbd
00000310: 38ea f9bc ee1b db3c a7e0 24bd 3e0a 183e
00000320: 9a23 02be 66b1 18bb 6f85 163c c16f eb3c
00000330: d89c 04be 2651 113d 259e a0bd 2b75 893d
00000340: 566b 1bbe bb95 10bb be96 0abd 67dd 1d3e
00000350: 2992 98bd a4d1 d9bd bfe2 1b3d 01c2 603d
00000360: 7957 0abe 85ea fc3c e739 553d 8ea4 643c
00000370: 6f21 99bd 01bc 7dbd 6be8 02bc 3d30 06be
00000380: e4d1 abbc 14ac 91bd abfe ad3d 3fdf 113e
00000390: 67d2 00be 206a b33c f05a eb3d 7898 fa3d
000003a0: 7a00 44bd 902e ad3c e77b 233e 87ed 28be
000003b0: f984 45bd 7506 993b 5f6b c33c 5d54 a33d
000003c0: 2b32 a0bc 5d4b 26bd 62dd 003e 3977 603d
000003d0: bc87 29bd 426b 853c ea53 d83c a669 9dbd
000003e0: 7163 6d3d ae13 2a3d 5987 363d e10f edbc
000003f0: 10ec cb3b 6344 c43c 9c6c ea3d ed3d b23d
