results/ppo/HoldBall/HoldBall-1814.onnx (onnx, 74487 bytes, 7 tensors)

action_model._continuous_distribution.log_sigma f4 [1, 2]
0	0x00000000	0.0
1	0x00000000	0.0

action_model._continuous_distribution.mu.bias f4 [2]
0	0x00000000	0.0
1	0x00000000	0.0

action_model._continuous_distribution.mu.weight f4 [2, 128]
0	0x3c78a9bd	0.0151771875
1	0x3b4fe17f	0.00317201
2	0x3ad814aa	0.001648565
3	0xbbc3d26c	-0.005976012
4	0x3c370ad9	0.01117202
5	0x3c2e89e7	0.010652996
6	0xbcb7fafc	-0.022458546
7	0xbc93711b	-0.017998269
8	0x3963fe9b	0.00021743255
9	0xbcab3531	-0.020899387
10	0x3c524957	0.012834868
11	0x3bf9e070	0.007625632
12	0x3d1de330	0.03854674
13	0xbc80b37c	-0.015710585
14	0x3bff35e2	0.0077884058
15	0xbc0dc093	-0.00865187
16	0xb9cdcfd5	-0.00039255494
17	0xbcc3667f	-0.023852585
18	0xbcccc8ec	-0.02499815
19	0xbca1d84f	-0.019756464
20	0x38b1a63c	8.470981e-05
21	0xbce37662	-0.02776641
22	0x3ae0d86f	0.0017154346
23	0x3b9e721f	0.0048353816
24	0x3c13b8db	0.009016241
25	0x3c977987	0.018490566
26	0xbcbc9932	-0.023022268
27	0xbbd0feba	-0.006378022
28	0xbc0bd7f6	-0.008535376
29	0xbc8d9625	-0.017283509
30	0xbb575ab5	-0.0032860462
31	0x3b237f33	0.0024947643
32	0x3d4d6a87	0.05015042
33	0x3a64e742	0.000873197
34	0xbb0c150c	-0.002137485
35	0x3c73f000	0.014888763
36	0xbb112587	-0.0022147612
37	0x3c078201	0.008270741
38	0xbcd66d98	-0.026175305
39	0x3953bb25	0.00020192245
40	0x3b2808af	0.0025639941
41	0xbc2d03fb	-0.010560031
42	0x3982f721	0.00024979658
43	0x3ba4f957	0.0050346064
44	0x3c9acbb2	0.018895958
45	0x3c7a2f3b	0.01527005
46	0x3c36c167	0.011154509
47	0x3d39b67f	0.045340057
48	0xbbd7e5e0	-0.0065886825
49	0xbc203c96	-0.00978007
50	0x3c3f64d3	0.011681753
51	0x3a0598d5	0.0005096321
52	0x3cb6fc14	0.022336997
53	0xbc12c2e7	-0.008957601
54	0x3cb50024	0.022094794
55	0x3d027a6d	0.031855036
56	0xbcfc69ca	-0.030812163
57	0x3c9af609	0.018916147
58	0xbb527062	-0.0032110442
59	0xbb8040e4	-0.0039139856
60	0x3a58eaf7	0.00082747586
61	0x3d00f67a	0.03148506
62	0x3c3bee82	0.011470439
63	0xbc6dbd53	-0.01451047
64	0xbcdba4e3	-0.026812023
65	0x3c12c6eb	0.008958559
66	0xbc478065	-0.012176608
67	0x3cbb1047	0.02283491
68	0xbc035cd8	-0.008017741
69	0x3ab9c5e5	0.0014173357
70	0xbd17fdcf	-0.037107285
71	0xbc4939ce	-0.012281848
72	0xba9e2e41	-0.0012068228
73	0x3c929bf4	0.01789663
74	0xbcd00dc7	-0.025397195
75	0xbc1da4b1	-0.009621785
76	0xbb55ae87	-0.0032605247
77	0xbb409238	-0.0029384028
78	0x3c8f007f	0.017456291
79	0x3baa3485	0.005194249
80	0xbc24f3b8	-0.010067873
81	0xbbb24127	-0.0054398957
82	0xbcc16b78	-0.023610815
83	0x3cb4fbec	0.022092782
84	0xbbb8d6fb	-0.005640862
85	0xbbb27ddf	-0.005447134
86	0x3d0322e5	0.0320157
87	0xbaf5ce32	-0.0018753468
88	0x3b40add3	0.0029400482
89	0xbb186c9a	-0.002325809
90	0x3ae3d1f8	0.0017381301
91	0xbcb5255f	-0.022112546
92	0x3c0dba6d	0.008650404
93	0xbcafce25	-0.021460602
94	0xbc77355d	-0.015088406
95	0xbb77e847	-0.0037827657
96	0x3c443a60	0.011976808
97	0xbc0af4e7	-0.008481241
98	0x3c26df57	0.010185084
99	0xbd0a365f	-0.03374326
100	0xbd0c62a0	-0.034273744
101	0x3c1e4b64	0.009661529
102	0xba9437af	-0.0011308099
103	0xbc8994f0	-0.016794652
104	0x3d140d67	0.036145594
105	0x3c2059b3	0.009787011
106	0x3b23ea80	0.00250116
107	0xbc9577df	-0.018245636
108	0xbb9f71a6	-0.004865843
109	0x3c05d9ba	0.008169586
110	0x3ce289b3	0.02765355
111	0x3ba16fe3	0.004926668
112	0x3ba0fa65	0.004912662
113	0x3b826182	0.003978909
114	0xbc8735af	-0.01650509
115	0xbba3fe4d	-0.0050046802
116	0xbc9be676	-0.01903079
117	0x3c0bd0dc	0.008533683
118	0xbadf019b	-0.0017014028
119	0x3d15239e	0.03641092
120	0xbce7f26f	-0.028313844
121	0xbc3b4c71	-0.011431799
122	0xbc64b818	-0.013959907
123	0xbbc339d7	-0.005957823
124	0x3af1ad38	0.0018438464
125	0xbb0b78a7	-0.0021281631
126	0xb9d65ebb	-0.0004088784
127	0x3c2c7c83	0.010527733
128	0x3c9bd12b	0.019020637
129	0x3bbc64bb	0.0057493127
130	0x3bc2fb97	0.005950402
131	0x3c8b4035	0.01699839
132	0xbb3e9a80	-0.0029083788
133	0x3ce6fa63	0.028195566
134	0x3d11aa44	0.03556277
135	0x3cd1a8e3	0.025593227
136	0xbc5fae8a	-0.013652453
137	0x3b1ac309	0.0023614785
138	0xbc615375	-0.013752808
139	0x3a2af960	0.0006522145
140	0xbb9a6a1c	-0.0047123563
141	0x3aff2c6b	0.0019468194
142	0x3ca15d41	0.019697787
143	0x3b42fee3	0.0029753975
144	0xbd10ec64	-0.03538169
145	0x3c63d485	0.013905649
146	0x3cadc07f	0.021209953
147	0x3b5441b8	0.0032387804
148	0xbcfc5b08	-0.030805126
149	0xba289b6d	-0.00064318517
150	0x3c041742	0.008062186
151	0xbc50c063	-0.012741181
152	0xbc802283	-0.015641456
153	0xbccbd6c8	-0.02488269
154	0x3d036a17	0.032083597
155	0xbc418564	-0.011811588
156	0xba9853ab	-0.0011621615
157	0xbbacb37a	-0.0052704187
158	0xbc6bc4e3	-0.014390203
159	0xbbf039e0	-0.007331118
160	0xbbce538f	-0.006296582
161	0x3be64c7a	0.0070281597
162	0xbb4b963f	-0.0031064895
163	0x3cdf067f	0.027224777
164	0xbcab61b9	-0.020920621
165	0x3ba93fd0	0.0051650777
166	0x3c4c3f85	0.012466316
167	0xba511e9f	-0.000797728
168	0x3a420ccb	0.0007402419
169	0xbb7f1d3d	-0.003892734
170	0x3b12c827	0.0022397132
171	0xbcd3c4a5	-0.025850603
172	0x3cb4f2ba	0.022088397
173	0x3bd74d60	0.006570503
174	0x3bfa98b5	0.0076475986
175	0x3b858e91	0.004075833
176	0x3be2cf53	0.0069216876
177	0xbcaf7521	-0.021418156
178	0xbc5a4fe3	-0.013324711
179	0xbb86263b	-0.004093913
180	0x3afbaccd	0.0019201279
181	0x3c8ba947	0.017048491
182	0x3c0feb06	0.008784061
183	0xbbf1c217	-0.0073778736
184	0x3d03a277	0.03213736
185	0x3b71172d	0.0036787495
186	0x3cd01d4a	0.025404591
187	0xbd139696	-0.03603228
188	0x3bde40c2	0.006782622
189	0xba7bc8e7	-0.0009604827
190	0x3cdaa03d	0.026687736
191	0x3c0f34f2	0.0087406505
192	0x3d1e73ac	0.038684532
193	0xbcf2b70a	-0.029628295
194	0xbb4d6ba7	-0.0031344683
195	0x3b965bff	0.0045886035
196	0xbc8c4fe7	-0.017127944
197	0x3cb4b943	0.022060996
198	0x3ba051f7	0.0048925835
199	0xbbba6d4b	-0.0056892983
200	0xbb3df31b	-0.0028984013
201	0xbcd3a1e7	-0.025834037
202	0xbba8f7bd	-0.005156486
203	0xbcb423d4	-0.02198974
204	0x3b8474b3	0.004042232
205	0x3b96c155	0.0046006837
206	0x3c542117	0.012947342
207	0x3c929dbb	0.017897477
208	0xbba9d4c0	-0.0051828325
209	0xbc0e2457	-0.008675656
210	0xbc3d23c9	-0.011544176
211	0xbc85a8e2	-0.016315881
212	0xbd16e393	-0.036838125
213	0x3c50ecf7	0.012751809
214	0x3d0c1f95	0.034209806
215	0x3c536a1f	0.012903719
216	0xbc21b157	-0.009868941
217	0xbca0bd16	-0.019621413
218	0x3d1bad8d	0.038007308
219	0x3ae79633	0.0017668664
220	0x3bdbe4e3	0.006710635
221	0xbb178bf7	-0.0023124197
222	0xbcbd8c4a	-0.023138184
223	0xbc86cceb	-0.016455134
224	0x3c7d5515	0.01546218
225	0xbbcd99b3	-0.006274426
226	0x3b9971e2	0.0046827653
227	0xbc89f6fd	-0.016841406
228	0x3c8f855e	0.01751965
229	0x3b8a6373	0.004223281
230	0xbb06996f	-0.002053823
231	0xbbb58a1b	-0.005540145
232	0xbc1fe2b7	-0.009758643
233	0xba4a027f	-0.00077060604
234	0x3abe1d52	0.0014504588
235	0xbcc1956f	-0.023630826
236	0x3b64a48d	0.003488812
237	0xbc256316	-0.010094425
238	0xbb475e04	-0.0030421028
239	0xbc9c00d4	-0.019043364
240	0x3c045a06	0.008078104
241	0xbbb40bb9	-0.0054945615
242	0xbb6e700d	-0.0036382705
243	0x3cc39898	0.023876473
244	0x3b0bca25	0.0021330204
245	0x3c97c5bf	0.01852691
246	0xbcd9c468	-0.026582912
247	0xbc529375	-0.012852539
248	0x3c38e6f0	0.011285529
249	0xbc3d5fb1	-0.011558459
250	0xbb191003	-0.002335549
251	0x3bdc40c3	0.0067215874
252	0x3c7a4097	0.0152741885
253	0x3cbdb3c3	0.023157006
254	0x3cdc9f2d	0.02693137
255	0x3beef96d	0.0072929175

network_body.linear_encoder.seq_layers.0.bias f4 [128]
0	0x00000000	0.0
1	0x00000000	0.0
2	0x00000000	0.0
3	0x00000000	0.0
4	0x00000000	0.0
5	0x00000000	0.0
6	0x00000000	0.0
7	0x00000000	0.0
8	0x00000000	0.0
9	0x00000000	0.0
10	0x00000000	0.0
11	0x00000000	0.0
12	0x00000000	0.0
13	0x00000000	0.0
14	0x00000000	0.0
15	0x00000000	0.0
16	0x00000000	0.0
17	0x00000000	0.0
18	0x00000000	0.0
19	0x00000000	0.0
20	0x00000000	0.0
21	0x00000000	0.0
22	0x00000000	0.0
23	0x00000000	0.0
24	0x00000000	0.0
25	0x00000000	0.0
26	0x00000000	0.0
27	0x00000000	0.0
28	0x00000000	0.0
29	0x00000000	0.0
30	0x00000000	0.0
31	0x00000000	0.0
32	0x00000000	0.0
33	0x00000000	0.0
34	0x00000000	0.0
35	0x00000000	0.0
36	0x00000000	0.0
37	0x00000000	0.0
38	0x00000000	0.0
39	0x00000000	0.0
40	0x00000000	0.0
41	0x00000000	0.0
42	0x00000000	0.0
43	0x00000000	0.0
44	0x00000000	0.0
45	0x00000000	0.0
46	0x00000000	0.0
47	0x00000000	0.0
48	0x00000000	0.0
49	0x00000000	0.0
50	0x00000000	0.0
51	0x00000000	0.0
52	0x00000000	0.0
53	0x00000000	0.0
54	0x00000000	0.0
55	0x00000000	0.0
56	0x00000000	0.0
57	0x00000000	0.0
58	0x00000000	0.0
59	0x00000000	0.0
60	0x00000000	0.0
61	0x00000000	0.0
62	0x00000000	0.0
63	0x00000000	0.0
64	0x00000000	0.0
65	0x00000000	0.0
66	0x00000000	0.0
67	0x00000000	0.0
68	0x00000000	0.0
69	0x00000000	0.0
70	0x00000000	0.0
71	0x00000000	0.0
72	0x00000000	0.0
73	0x00000000	0.0
74	0x00000000	0.0
75	0x00000000	0.0
76	0x00000000	0.0
77	0x00000000	0.0
78	0x00000000	0.0
79	0x00000000	0.0
80	0x00000000	0.0
81	0x00000000	0.0
82	0x00000000	0.0
83	0x00000000	0.0
84	0x00000000	0.0
85	0x00000000	0.0
86	0x00000000	0.0
87	0x00000000	0.0
88	0x00000000	0.0
89	0x00000000	0.0
90	0x00000000	0.0
91	0x00000000	0.0
92	0x00000000	0.0
93	0x00000000	0.0
94	0x00000000	0.0
95	0x00000000	0.0
96	0x00000000	0.0
97	0x00000000	0.0
98	0x00000000	0.0
99	0x00000000	0.0
100	0x00000000	0.0
101	0x00000000	0.0
102	0x00000000	0.0
103	0x00000000	0.0
104	0x00000000	0.0
105	0x00000000	0.0
106	0x00000000	0.0
107	0x00000000	0.0
108	0x00000000	0.0
109	0x00000000	0.0
110	0x00000000	0.0
111	0x00000000	0.0
112	0x00000000	0.0
113	0x00000000	0.0
114	0x00000000	0.0
115	0x00000000	0.0
116	0x00000000	0.0
117	0x00000000	0.0
118	0x00000000	0.0
119	0x00000000	0.0
120	0x00000000	0.0
121	0x00000000	0.0
122	0x00000000	0.0
123	0x00000000	0.0
124	0x00000000	0.0
125	0x00000000	0.0
126	0x00000000	0.0
127	0x00000000	0.0

network_body.linear_encoder.seq_layers.0.weight f4 [128, 9]
0	0xbeada33a	-0.33913594
1	0xbeea5850	-0.45770502
2	0xbe8a3e48	-0.27000642
3	0x3e11f33f	0.14252947
4	0xbe1c77e8	-0.15280116
5	0xbd59dc26	-0.053188466
6	0xbe03c0b4	-0.12866479
7	0x3ce8ce1a	0.02841859
8	0xbb414d88	-0.0029495675
9	0x3e0cac02	0.13737491
10	0x3ecaedd4	0.39634573
11	0xbe573a2a	-0.21018282
12	0x3ea45a12	0.32099968
13	0xbec03658	-0.3754146
14	0xbeeda7a7	-0.4641697
15	0xbeec453b	-0.4614657
16	0x3e66bd76	0.22533211
17	0xbe9c2de0	-0.3050375
18	0x3f1cf70c	0.61314464
19	0xbee2052f	-0.4414458
20	0x3efc0468	0.49222112
21	0xbed62d04	-0.4183122
22	0xbe08a279	-0.13343228
23	0x3df59f3c	0.11993262
24	0xbeb4c063	-0.3530303
25	0x3ecf3aab	0.40474448
26	0xbf8313e4	-1.0240445
27	0x3e55a88a	0.20865074
28	0xbe5e574c	-0.21712989
29	0xbe0e395d	-0.1388907
30	0xbe1f0bc5	-0.15531833
31	0xbe2d216e	-0.16907284
32	0xbeada5ba	-0.33915502
33	0x3e6f781e	0.23385665
34	0x3e5a237e	0.21302602
35	0xbe9f4444	-0.3110677
36	0x3e0d8c2d	0.13823004
37	0xbe476160	-0.1947074
38	0x3dd33257	0.10312336
39	0x3e472e4e	0.19451258
40	0xbde94764	-0.1139057
41	0x3e6a2cf8	0.22868717
42	0xbdd54d90	-0.104151845
43	0xbf5429bf	-0.828762
44	0xbe30ad02	-0.17253497
45	0x3db6bcda	0.08922739
46	0x3e97ea30	0.29670858
47	0xbe72e7db	-0.23721258
48	0xbda19e5a	-0.07891531
49	0x3f1fcbf8	0.62420607
50	0x3ec90f2b	0.39269385
51	0xbe50e8c3	-0.20401292
52	0x3d956dd1	0.072963364
53	0xbce9e8d0	-0.028553396
54	0x3ed953c8	0.42446733
55	0xbe0ec998	-0.1394409
56	0x3d91d845	0.07121328
57	0xbefcb07e	-0.49353403
58	0x3e272b46	0.16325101
59	0x3ed8c480	0.42337418
60	0xbe95b7dd	-0.2924184
61	0xbe2ace46	-0.1668025
62	0x3e80ef29	0.25182465
63	0x3e5ff2d0	0.2186997
64	0x3ec258c3	0.37958345
65	0x3e1e1aee	0.1543996
66	0xbeca4d62	-0.39512163
67	0x3e843a6d	0.25825825
68	0xbceb376e	-0.028712954
69	0xbe1ffae3	-0.1562305
70	0x3edadb4a	0.4274543
71	0xbefa6c72	-0.48910862
72	0x3ee65408	0.44985986
73	0x3f088b5a	0.53337634
74	0xbea6e9ae	-0.32600158
75	0xbe5ac6df	-0.21364926
76	0xbd4c3068	-0.04985085
77	0x3d976566	0.07392387
78	0x3f05af0f	0.52220243
79	0xbd31b542	-0.04338575
80	0x3ec845e6	0.39115828
81	0x3efd2780	0.494442
82	0xbe9c0d8e	-0.3047909
83	0x3e98d0d5	0.29846826
84	0x3db3fe97	0.087887935
85	0xbcc9795f	-0.024594007
86	0xbbad874b	-0.005295669
87	0x3e910290	0.28322268
88	0xbf15b11e	-0.58473384
89	0xbdf83abc	-0.12120578
90	0xbd33bb53	-0.04387982
91	0xbde64ad8	-0.11244744
92	0xbe3f0c2b	-0.18656985
93	0x3f093ec2	0.53611386
94	0xbe89b2a3	-0.26894102
95	0x3c813bb4	0.015775539
96	0x3c45ccc7	0.0120727485
97	0xbe7606ee	-0.24026081
98	0xbf2dd804	-0.6790774
99	0xbe9891f6	-0.2979886
100	0xbe161eee	-0.14660236
101	0x3d2ddb66	0.042445563
102	0xbd610fab	-0.054946583
103	0xbc046845	-0.0080815
104	0xbc1ab0c2	-0.009441556
105	0xbdff9016	-0.12478654
106	0x3e0c61c2	0.13709167
107	0xbe9143c1	-0.28372005
108	0x3cb2765f	0.02178496
109	0xbe9c5bea	-0.30538875
110	0xbcfc4936	-0.030796628
111	0x3e26fe39	0.16307916
112	0x3c9b57e6	0.018962812
113	0x3ec152e3	0.3775855
114	0x3edc2cc8	0.43002915
115	0xbeadfe37	-0.33983013
116	0x3e3e6c9a	0.18596116
117	0x3d5c029f	0.053713437
118	0x3caf6503	0.02141047
119	0xbf348ce6	-0.70527494
120	0x3f2ddcdc	0.6791513
121	0xbeb7ce63	-0.35899648
122	0xbd1284cb	-0.035771172
123	0xbf24f715	-0.6443952
124	0xbf0e35d4	-0.55550885
125	0x3de9dfcb	0.11419638
126	0xbdc01d48	-0.09380585
127	0xbf021fa4	-0.5082953
128	0xbf14531a	-0.579393
129	0x3f31477c	0.692497
130	0x3ead8c67	0.3389618
131	0x3dc8a044	0.09796193
132	0xbecbd78e	-0.39812893
133	0x3eeec018	0.4663093
134	0x3e0ca2e1	0.13734008
135	0x3e859256	0.26088208
136	0x3ee1a8e3	0.44074163
137	0xbe8e3edf	-0.27782342
138	0x3ec8bf32	0.3920837
139	0xbf5139f6	-0.81729066
140	0x3eb2a982	0.3489495
141	0x3e528dd4	0.20561916
142	0x3e5cff67	0.21581803
143	0xbe46aab4	-0.19401056
144	0xbf136e22	-0.57589924
145	0x3e15aef8	0.14617527
146	0xbe495a96	-0.19663462
147	0x3e1fe90e	0.15616247
148	0xbeb8cbae	-0.36092895
149	0xbe95f102	-0.29285437
150	0x3e1f8f36	0.15581974
151	0xbf4493d0	-0.76788044
152	0x3e752967	0.23941575
153	0xbe9fe4c6	-0.31229228
154	0x3e55ccd7	0.20878921
155	0xbe1ec198	-0.15503538
156	0xbe8c2fc6	-0.27380198
157	0x3e5a438c	0.2131483
158	0x3f0d88f5	0.55287105
159	0xbe1eba0a	-0.15500656
160	0xbe3416b2	-0.17586783
161	0x3ee72bb2	0.45150524
162	0xbe9c72ff	-0.30556485
163	0x3ddb38af	0.10704171
164	0xbec5da0e	-0.38642925
165	0xbe7e1e87	-0.24816333
166	0x3e19c984	0.15018278
167	0x3ef75b14	0.48311675
168	0x3e67b103	0.22626118
169	0x3e81f0b4	0.25378954
170	0xbec5b04b	-0.38611063
171	0x3f801eb9	1.0009376
172	0x3e091b18	0.13389242
173	0xbe85e760	-0.26153088
174	0xbb8c8175	-0.0042878934
175	0xbe86bc5a	-0.26315576
176	0x3ea7307a	0.32654172
177	0xbeb7dd46	-0.35911006
178	0x3bb45fc3	0.0055045797
179	0xbeee511e	-0.46546263
180	0xbe847e61	-0.2587767
181	0xbe879442	-0.264803
182	0x3decacc7	0.11556392
183	0x3e25955c	0.16170257
184	0xbdaa74d1	-0.08323062
185	0x3c607314	0.013699312
186	0xbe81e426	-0.25369376
187	0x3f15abde	0.58465374
188	0x3e54f957	0.2079824
189	0xbe6f0b60	-0.23344183
190	0x3edebeac	0.43504846
191	0x3e83e56a	0.25760967
192	0xbea5cd28	-0.32383084
193	0x3e325466	0.17415008
194	0xbef1c4cf	-0.47220466
195	0xbf240985	-0.64077026
196	0xbebfee46	-0.37486476
197	0xbca74baa	-0.020421822
198	0xbe9f0584	-0.31058896
199	0x3debc5e0	0.11512351
200	0xbe31d31a	-0.17365685
201	0x3ec92216	0.39283818
202	0xbf0cdf04	-0.55027795
203	0x3f5981e7	0.8496384
204	0x3f8f021b	1.1172518
205	0x3e602db7	0.21892439
206	0xbf152c1b	-0.58270425
207	0xbf019f97	-0.5063414
208	0xbdec9d2f	-0.11553418
209	0xbedd598a	-0.43232375
210	0x3e91601e	0.28393644
211	0x3efe5cd3	0.49680194
212	0x3e0c5dcd	0.13707657
213	0x3e1f6240	0.15564823
214	0x3f06d008	0.5266118
215	0x3ec496f6	0.38396424
216	0x3f4d4ce7	0.8019547
217	0x3e81e592	0.2537046
218	0xbde4125f	-0.111363165
219	0x3e2b5953	0.16733293
220	0xbed06a08	-0.40705895
221	0x3c49e237	0.012322
222	0xbdc46454	-0.095894486
223	0xbf27a30b	-0.6548316
224	0xbd53751f	-0.051625367
225	0x3ee991d6	0.45619076
226	0xbe63d928	-0.22250807
227	0xbc72daeb	-0.014822702
228	0x3de5a7f0	0.11213672
229	0x3e9b4d24	0.3033229
230	0x3e81a186	0.25318545
231	0x3e5ab352	0.21357468
232	0xbe32637c	-0.17420763
233	0xbe87147e	-0.26382822
234	0xbe06759c	-0.13130802
235	0x3d2c98bb	0.042137843
236	0x3d86709a	0.06564446
237	0xbf3573df	-0.7087993
238	0xbdf6872c	-0.12037501
239	0x3dd849d6	0.10560958
240	0x3e7f0902	0.2490578
241	0xbe9eed82	-0.3104058
242	0xbee31197	-0.44349357
243	0xbd9dcca2	-0.07705046
244	0xbea53842	-0.32269484
245	0x3e801a31	0.25019982
246	0x3e1e4e38	0.15459526
247	0xbe418167	-0.1889702
248	0xbe9b7bcf	-0.30367896
249	0xbf0343c0	-0.51275253
250	0xbe66a3c7	-0.22523414
251	0x3e7eddb7	0.24889265
252	0xbe87813c	-0.26465786
253	0x3e840d64	0.25791466
254	0xbe4ce863	-0.20010523
255	0xbf746234	-0.95462346

network_body.linear_encoder.seq_layers.2.bias f4 [128]
0	0x00000000	0.0
1	0x00000000	0.0
2	0x00000000	0.0
3	0x00000000	0.0
4	0x00000000	0.0
5	0x00000000	0.0
6	0x00000000	0.0
7	0x00000000	0.0
8	0x00000000	0.0
9	0x00000000	0.0
10	0x00000000	0.0
11	0x00000000	0.0
12	0x00000000	0.0
13	0x00000000	0.0
14	0x00000000	0.0
15	0x00000000	0.0
16	0x00000000	0.0
17	0x00000000	0.0
18	0x00000000	0.0
19	0x00000000	0.0
20	0x00000000	0.0
21	0x00000000	0.0
22	0x00000000	0.0
23	0x00000000	0.0
24	0x00000000	0.0
25	0x00000000	0.0
26	0x00000000	0.0
27	0x00000000	0.0
28	0x00000000	0.0
29	0x00000000	0.0
30	0x00000000	0.0
31	0x00000000	0.0
32	0x00000000	0.0
33	0x00000000	0.0
34	0x00000000	0.0
35	0x00000000	0.0
36	0x00000000	0.0
37	0x00000000	0.0
38	0x00000000	0.0
39	0x00000000	0.0
40	0x00000000	0.0
41	0x00000000	0.0
42	0x00000000	0.0
43	0x00000000	0.0
44	0x00000000	0.0
45	0x00000000	0.0
46	0x00000000	0.0
47	0x00000000	0.0
48	0x00000000	0.0
49	0x00000000	0.0
50	0x00000000	0.0
51	0x00000000	0.0
52	0x00000000	0.0
53	0x00000000	0.0
54	0x00000000	0.0
55	0x00000000	0.0
56	0x00000000	0.0
57	0x00000000	0.0
58	0x00000000	0.0
59	0x00000000	0.0
60	0x00000000	0.0
61	0x00000000	0.0
62	0x00000000	0.0
63	0x00000000	0.0
64	0x00000000	0.0
65	0x00000000	0.0
66	0x00000000	0.0
67	0x00000000	0.0
68	0x00000000	0.0
69	0x00000000	0.0
70	0x00000000	0.0
71	0x00000000	0.0
72	0x00000000	0.0
73	0x00000000	0.0
74	0x00000000	0.0
75	0x00000000	0.0
76	0x00000000	0.0
77	0x00000000	0.0
78	0x00000000	0.0
79	0x00000000	0.0
80	0x00000000	0.0
81	0x00000000	0.0
82	0x00000000	0.0
83	0x00000000	0.0
84	0x00000000	0.0
85	0x00000000	0.0
86	0x00000000	0.0
87	0x00000000	0.0
88	0x00000000	0.0
89	0x00000000	0.0
90	0x00000000	0.0
91	0x00000000	0.0
92	0x00000000	0.0
93	0x00000000	0.0
94	0x00000000	0.0
95	0x00000000	0.0
96	0x00000000	0.0
97	0x00000000	0.0
98	0x00000000	0.0
99	0x00000000	0.0
100	0x00000000	0.0
101	0x00000000	0.0
102	0x00000000	0.0
103	0x00000000	0.0
104	0x00000000	0.0
105	0x00000000	0.0
106	0x00000000	0.0
107	0x00000000	0.0
108	0x00000000	0.0
109	0x00000000	0.0
110	0x00000000	0.0
111	0x00000000	0.0
112	0x00000000	0.0
113	0x00000000	0.0
114	0x00000000	0.0
115	0x00000000	0.0
116	0x00000000	0.0
117	0x00000000	0.0
118	0x00000000	0.0
119	0x00000000	0.0
120	0x00000000	0.0
121	0x00000000	0.0
122	0x00000000	0.0
123	0x00000000	0.0
124	0x00000000	0.0
125	0x00000000	0.0
126	0x00000000	0.0
127	0x00000000	0.0

network_body.linear_encoder.seq_layers.2.weight f4 [128, 128]
0	0x3ce9a8a3	0.028522795
1	0x3d9d30e6	0.07675342
2	0x3ce35b55	0.027753511
3	0x3c9aac4d	0.018880988
4	0xbe523551	-0.20528151
5	0xbc1c6a6d	-0.009546858
6	0xbe2fb31c	-0.17158169
7	0x3d743d77	0.05962893
8	0x3d13a86e	0.0360493
9	0x3d920335	0.07129518
10	0xbd99ca43	-0.075092815
11	0xbe139e01	-0.14415742
12	0x3d62812a	0.05529896
13	0x3e178e3b	0.1480035
14	0x3cae2c89	0.02126147
15	0xbc5c6e54	-0.013454039
16	0xbaf56210	-0.0018721242
17	0x3d3ba92d	0.045815635
18	0xbdd15838	-0.102219045
19	0xbcec4640	-0.028842092
20	0x3c466841	0.012109817
21	0x3e19fdb0	0.1503818
22	0xbca81a28	-0.020520285
23	0xbd736166	-0.05941906
24	0x3d924f3e	0.071440205
25	0x3c8d3e97	0.01724176
26	0xbd333d1c	-0.04375945
27	0x3c2dac74	0.010600198
28	0xbe0d9388	-0.1382581
29	0x3e0cfbbe	0.13767907
30	0xbe0045fd	-0.12526698
31	0x3d3aedfa	0.04563711
32	0x3d6f46c2	0.05841709
33	0x3dd097f8	0.10185236
34	0xbdb361e2	-0.08758904
35	0xbda7d04f	-0.081940286
36	0xbafba0a3	-0.0019197654
37	0xbd949449	-0.07254846
38	0x3bb67119	0.0055676815
39	0x3c0c5b59	0.008566701
40	0xbdc739d7	-0.09727829
41	0xbdcb7b05	-0.099355735
42	0x3d4711b4	0.048600867
43	0xbc2b3570	-0.010449752
44	0xbc8609ce	-0.016362097
45	0xbd539eb8	-0.051665038
46	0x3db5d656	0.08878772
47	0x3a774eb6	0.0009434031
48	0x3c0436ce	0.008069707
49	0xbcd390f6	-0.025825959
50	0xbc3024a9	-0.010750928
51	0x3d1f9466	0.038959883
52	0x3e17c87d	0.14822574
53	0xbd2bf1c8	-0.041978627
54	0xbe0d291e	-0.13785216
55	0xbc8682ba	-0.016419757
56	0xbdf7fe13	-0.12109008
57	0x3c078152	0.008270578
58	0xbd209ef2	-0.039214082
59	0x3d1c5c72	0.0381741
60	0x3c5cd100	0.013477564
61	0xbd0a2006	-0.033721946
62	0x3cfc5014	0.030799903
63	0x3bad0e8d	0.0052812756
64	0xbdf2691e	-0.11836456
65	0xbe10fdc7	-0.14159308
66	0x3db3a22e	0.08771168
67	0x3d1e9b80	0.038722515
68	0x3d03865c	0.032110557
69	0xbd471865	-0.04860725
70	0x3d909dc0	0.070613384
71	0xbdcd8b43	-0.10036328
72	0xbdba55fe	-0.09098433
73	0x3d3c7e31	0.046018783
74	0xbd39cd99	-0.04536209
75	0x3e21bce2	0.1579471
76	0x3d6f7d53	0.058469128
77	0x3d1b545b	0.037922245
78	0xbdeb87f6	-0.11500542
79	0xbd78623f	-0.06064057
80	0xbe02dec8	-0.12780297
81	0xbb4db9d1	-0.0031391273
82	0x3e006587	0.1253873
83	0xbdf2a753	-0.11848321
84	0x3c16312f	0.009167
85	0x3de1ae0c	0.11019525
86	0x3dc4e03d	0.096130826
87	0x3dde313b	0.10849234
88	0xbd26a755	-0.040686924
89	0xbd9b9679	-0.0759706
90	0xbadb3f7f	-0.0016727297
91	0xbd88732f	-0.066625945
92	0xbd07b674	-0.033132985
93	0x3cb0c732	0.021579359
94	0xbe3e926f	-0.18610547
95	0x3d88fa34	0.066883475
96	0xbd45d720	-0.048300862
97	0xbdb01141	-0.08597041
98	0xbd667e85	-0.056273002
99	0x3d2cd257	0.042192783
100	0x3d008bea	0.031383432
101	0xbd4b7146	-0.049668573
102	0xbe59c741	-0.21267416
103	0xbd2b2566	-0.041783713
104	0x3a3a0aa7	0.0007096924
105	0x3ba7beb6	0.00511917
106	0xbd6e4c25	-0.058178086
107	0xbc223781	-0.0099009285
108	0xbd7b1bcd	-0.06130581
109	0x3d8ec8fa	0.06971927
110	0xbd5c2cab	-0.053753536
111	0xbe0d8462	-0.13820031
112	0xbe0c929a	-0.13727799
113	0x3d44d372	0.048053212
114	0x3e373bc9	0.178939
115	0xbde84ad7	-0.113423996
116	0x3b8b7712	0.0042561376
117	0xbd409d47	-0.04702499
118	0xbdcd4cd2	-0.10024418
119	0x3d1193b7	0.035541262
120	0x3e07bc7e	0.13255498
121	0xbde18713	-0.110120915
122	0xbe2a496b	-0.16629569
123	0x3da290ee	0.079377994
124	0xbd6f67ae	-0.058448486
125	0xbe516936	-0.20450291
126	0xbd787634	-0.060659602
127	0xbcc6ac1b	-0.024251988
128	0x3d757cff	0.05993366
129	0x3d3b5c3c	0.04574226
130	0x3e53385c	0.20626968
131	0x3e17868d	0.14797421
132	0x3d1e2989	0.03861383
133	0x3dccf784	0.10008147
134	0xbd6b5fe0	-0.05746448
135	0x3cdcbd6f	0.026945798
136	0xbe03f746	-0.12887296
137	0x3a1027d3	0.00054990983
138	0x3a95f9e0	0.0011442266
139	0x3d67f479	0.05662963
140	0x3dc11e94	0.094296604
141	0xbcfbfc39	-0.030759918
142	0x3e055430	0.13020396
143	0xbd629c7e	-0.055325024
144	0xbd8fbae6	-0.0701807
145	0xbbd09eeb	-0.0063666007
146	0xbdab8d66	-0.08376579
147	0x3d100105	0.035157222
148	0x3dfdd6aa	0.123944595
149	0xbd3957c7	-0.045249727
150	0x3e3382d7	0.1753038
151	0x3df0a156	0.117495224
152	0x3d4e535a	0.05037246
153	0x3d8b6175	0.06805698
154	0x3d8fd714	0.07023445
155	0x3db8ffb7	0.09033149
156	0x3ddf576d	0.10905347
157	0x3c43900f	0.011936202
158	0x3d5f24bc	0.054478392
159	0x3e117ce2	0.14207795
160	0x3bc11970	0.005892925
161	0x3ccf419e	0.025299843
162	0xbcf69e6c	-0.030104838
163	0x3d60f866	0.05492439
164	0xbbaec6fa	-0.0053337784
165	0xbd46c781	-0.048530106
166	0xbc92615a	-0.017868686
167	0x3dacf985	0.084460296
168	0x3ca9bc38	0.020719633
169	0x3da5e66c	0.0810059
170	0x3e0d6af4	0.1381033
171	0x3db5a3a2	0.08869101
172	0xbdd3d2d2	-0.10342945
173	0x3d5a2f72	0.053267904
174	0x3d31d48c	0.04341559
175	0xbc7367a3	-0.014856252
176	0x3dbaaf6a	0.09115489
177	0xbe8896b8	-0.2667749
178	0x3d736603	0.059423458
179	0x3de992f8	0.11404985
180	0x3e09ea79	0.1346835
181	0xbd557cfc	-0.052121148
182	0x3a2213db	0.0006182768
183	0x3e4368f1	0.19083
184	0xbd48d453	-0.049030613
185	0xbe21ffdf	-0.15820263
186	0x3cccee08	0.025015846
187	0xbe4fee76	-0.2030581
188	0xbd43fdf1	-0.0478496
189	0x3d441e09	0.047880206
190	0xbcdc88b1	-0.026920648
191	0xbd67107a	-0.056412198
192	0x3d54bc41	0.051937345
193	0xbe186e1c	-0.14885753
194	0xbd342445	-0.0439799
195	0x3c379dff	0.011207103
196	0xbd57e56c	-0.052709028
197	0xbd8b36b3	-0.067975424
198	0xbde93cbd	-0.11388538
199	0xbd4a3023	-0.049362313
200	0x3da7510c	0.08169755
201	0xbc166ab1	-0.009180711
202	0xbcf684c7	-0.03009261
203	0xbb75bc9f	-0.003749646
204	0x3d3bb329	0.045825157
205	0xbcb04b8b	-0.021520397
206	0xbd967834	-0.07347146
207	0x3e8f62e3	0.28005132
208	0x3d13ee3e	0.036115877
209	0xbe2ceff7	-0.16888414
210	0xbd8a7582	-0.06760694
211	0x3e4f7566	0.20259628
212	0x3dc40cda	0.09572764
213	0x3d249ed7	0.040190544
214	0x3d3db94d	0.046319295
215	0x3d4c26ad	0.04984157
216	0x3dcb0d75	0.09914676
217	0xbdc9af5d	-0.09847901
218	0x3c9b4f45	0.018958697
219	0xbd70323a	-0.05864165
220	0x3cfe2ed4	0.031028189
221	0xbc05e49e	-0.008172182
222	0xbe1d11c6	-0.15338811
223	0xbbcb00bb	-0.0061951554
224	0x3cba527c	0.02274441
225	0x3cd69176	0.026192408
226	0x3df43856	0.11924808
227	0xbda7f89b	-0.082017146
228	0xbe2295e6	-0.15877494
229	0xbd8b3226	-0.067966744
230	0xbd9b943c	-0.07596633
231	0x3d59582c	0.053062603
232	0xbd5f3010	-0.054489195
233	0xbcb1fd9b	-0.021727374
234	0xbd354395	-0.044253904
235	0xbd28d075	-0.041214425
236	0x3e3bc484	0.18336684
237	0x3ba50f7a	0.0050372453
238	0xbe2b45d8	-0.16725862
239	0xbb219bb1	-0.002465945
240	0x3df1bb41	0.11803294
241	0xbd9760be	-0.07391499
242	0xbd8340b3	-0.06408825
243	0xbe3ac642	-0.18239692
244	0xbb5f2dde	-0.0034054439
245	0xbe0dabb6	-0.13835034
246	0xbe17bd1b	-0.14818232
247	0xbc3129c9	-0.010813185
248	0xbd62b15b	-0.05534492
249	0xbe1a5d1a	-0.15074578
250	0x3dc30dd0	0.09524119
251	0xbc9b6337	-0.018968208
252	0x3e141cc3	0.14464097
253	0x3d4f4fca	0.050613202
254	0xbe3b0277	-0.18262659
255	0x3df1bed6	0.11803977
