results/ppo/HoldBall/HoldBall-113418.onnx (onnx, 74999 bytes, 7 tensors)

action_model._continuous_distribution.log_sigma f4 [1, 2]
0.004843844 -0.0070155705
00000000: 1cb9 9e3b dfe2 e5bb

action_model._continuous_distribution.mu.bias f4 [2]
9.163404e-05 -0.0023143105
00000000: a72b c038 b0ab 17bb

action_model._continuous_distribution.mu.weight f4 [2, 128]
-0.022365628 -0.017819442 0.020575477 0.004811099 0.0079508675 -0.0023207755 -0.035678208 0.00022143393
-0.016474916 0.0172792 -0.026490448 0.002418922 -0.0015467441 0.016664647 -0.009980563 -0.007737871
0.0135907885 -0.00037304263 0.010412797 0.008292548 0.011894238 0.01917398 0.0046246257 0.009713626
-0.00042752083 0.015809419 -0.04268376 -0.014776875 -0.009059625 0.008014716 -0.011492761 0.014195649
0.009526611 0.022266453 0.0012001434 0.016127422 -0.017564423 -0.0017895265 -0.010238697 0.011309934
-0.004617005 0.0246433 -0.014393973 0.004429326 0.00031048697 0.0029647115 0.005806332 8.760838e-06
0.010980347 -0.0024100968 -0.0015608862 0.008608186 -0.007437313 -0.028084481 -0.019508801 -0.0017750092
0.022634733 0.04442183 -0.0068855053 0.011238398 0.010978079 0.0007722999 -0.02258469 -0.027140459
0.006671889 -0.014753449 0.025791503 0.013254491 0.009523046 -0.0062758103 0.01768102 -0.013670163
-0.033889305 0.005789714 -0.0075012487 -0.016228069 0.00032947067 0.014092339 0.00048220519 -0.003945643
-0.021441743 0.027671838 -0.01821225 -0.0014581162 -0.011343499 0.008676389 -0.0006139827 0.0009411565
0.008534548 0.010320159 -0.0075470395 -0.016083293 0.011233299 -0.010656974 -0.014567759 -0.0146469325
-0.0029378384 0.008814785 -0.025895009 0.004535481 -0.00013296175 0.012355161 0.0005601867 -0.008462662
-0.011994976 -0.008736087 0.026925452 -0.0016836597 -0.0010041775 -0.0281093 0.013542515 -0.010083317
0.0063935663 -0.0083450265 -0.005504123 -0.008019587 -0.005865823 -0.016734343 -0.012961055 -0.023012307
0.05111437 -0.010196241 0.012809732 -0.013873729 0.024854476 0.028752806 0.0191554 -0.020734495
0.013649376 0.025867177 -0.013160024 0.012594166 -0.0029639446 -0.015499903 -0.026583219 -0.020313272
0.002537071 -0.014862324 -0.008633683 -0.041243352 -0.014309816 0.024152124 0.011518541 -0.0056235455
0.022630887 0.02484664 0.032598574 0.0034066886 -0.010740153 0.00041484588 -0.026073406 -0.01434623
0.023347443 0.0033077653 0.01891469 0.032590244 -0.0034693938 -0.0069736606 -0.012161074 -0.006302252
-0.011003135 0.0020553987 0.028423263 -0.026626438 0.023344211 -0.033093315 0.01916136 0.0011313212
0.015855981 0.005353885 0.0025124496 -0.00023987712 -0.0032011569 0.0068166987 0.017355692 0.01029511
-0.023632191 0.02016707 0.0039549004 -0.018948551 0.027786767 0.007616231 0.018183352 0.012392378
-0.029184347 -0.013366721 -0.00037572955 -0.0052565983 -0.0023404525 0.0042022285 0.0036096433 -0.008780359
-0.004732245 -0.0185098 0.0040310733 0.013207715 0.018114673 0.029466316 -0.011030494 0.0059491936
-0.0076766755 -0.024239583 -0.020046987 0.022352448 0.005975251 0.016542137 0.0031149555 0.007151038
-0.007511435 0.02386758 0.036754794 0.02014916 0.014045859 0.016713174 0.0024122207 -0.0007638456
0.013836187 0.007877577 0.0058416035 0.0037382809 0.030405778 -0.0260033 0.011909263 0.015024365
-0.01863228 0.0018245539 -0.006365217 -0.014559955 -0.013080521 -0.011603244 -0.009922365 -0.005864391
0.05617537 0.011420415 0.014362334 0.013132794 0.029305581 0.0017488464 0.014592952 0.003573456
0.007748593 0.013482897 0.011694397 0.03468011 -0.010849441 -0.0057374653 0.0014937868 -0.02214226
-0.02139905 0.010181508 0.01482706 -0.006859481 0.013323082 -0.018214192 -0.031093374 0.009561465
00000000: 1f38 b7bc 14fa 91bc e78d a83c 6ca6 9d3b
00000010: 5b44 023c 2718 18bb 5023 12bd b830 6839
00000020: 67f6 86bc 1c8d 8d3c 7f02 d9bc c786 1e3b
00000030: 1fbc caba 4c84 883c 8485 23bc f78d fdbb
00000040: e6ab 5e3c ef94 c3b9 709a 2a3c 78dd 073c
00000050: 0de0 423c c012 9d3c 2c8a 973b e625 1f3c
00000060: e024 e0b9 c182 813c 2bd5 2ebd b51a 72bc
00000070: d26e 14bc 2850 033c 224c 3cbc de94 683c
00000080: 8115 1c3c 2368 b63c 214e 9d3a a81d 843c
00000090: 44e3 8fbc 8c8e eaba 35c0 27bc 4d4d 393c
000000a0: 3f4a 97bb bfe0 c93c b3d4 6bbc e123 913b
000000b0: dbc8 a239 9b4b 423b 0b43 be3b 83fb 1237
000000c0: eae6 333c b7f2 1dbb a696 ccba 5909 0d3c
000000d0: b4b4 f3bb 6d11 e6bc ecd0 9fbc 6da7 e8ba
000000e0: 7a6c b93c aaf3 353d ce9f e1bb 4221 383c
000000f0: 67dd 333c 2b74 4a3a 8703 b9bc ab55 debc
00000100: dd9f da3b 73b8 71bc b448 d33c 5d29 593c
00000110: 8d06 1c3c 50a5 cdbb c9d7 903c d2f8 5fbc
00000120: 83cf 0abd a4b7 bd3b 09cd f5bb baf0 84bc
00000130: cebc ac39 8ee3 663c 7cd0 fc39 744a 81bb
00000140: 98a6 afbc 0db0 e23c db31 95bc 431e bfba
00000150: 15da 39bc 6a27 0e3c aef3 20ba f2b7 763a
00000160: 7dd4 0b3c e215 293c 284d f7bb 1cc1 83bc
00000170: df0b 383c 979a 2ebc 9cad 6ebc b0f9 6fbc
00000180: c088 40bb e36b 103c c521 d4bc 5f9e 943b
00000190: a66b 0bb9 4d6d 4a3c 7ed9 123a faa6 0abc
000001a0: 9386 44bc ce21 0fbc c492 dc3c 3fae dcba
000001b0: 9b9e 83ba 7a45 e6bc 6de1 5d3c 7f34 25bc
000001c0: 1f81 d13b 94b9 08bc ee5b b4bb 9664 03bc
000001d0: 1736 c0bb 7616 89bc 9b5a 54bc 4e84 bcbc
000001e0: 4d5d 513d 220e 27bc e9df 513c a34e 63bc
000001f0: 9d9b cb3c 018b eb3c c9eb 9c3c 63db a9bc
00000200: a2a1 5f3c 67e7 d33c 249d 57bc c357 4e3c
00000210: bd3e 42bb 4ef3 7dbc 0dc5 d9bc 0568 a6bc
00000220: fd44 263b 1b81 73bc 4b74 0dbc caee 28bd
00000230: b873 6abc adda c53c 43b8 3c3c b845 b8bb
00000240: 6964 b93c 2e8b cb3c 1586 053d c042 5f3b
00000250: 77f7 2fbc ac7f d939 e597 d5bc 730c 6bbc
00000260: 2343 bf3c 18c7 583b fbf2 9a3c 597d 053d
00000270: c55e 63bb 4e83 e4bb 3e3f 47bc 1f83 cebb
00000280: 7e46 34bc deb3 063b e7d7 e83c b01f dabc
00000290: 5c3c bf3c db8c 07bd 49f8 9c3c d748 943a
000002a0: 67e4 813c a46f af3b e9a7 243b 8687 7bb9
000002b0: 80ca 51bb 9d5e df3b 862d 8e3c d2ac 283c
000002c0: 4c98 c1bc 6935 a53c 1c98 813b fe39 9bbc
000002d0: 13a1 e33c 9491 f93b 41f5 943c 6709 4b3c
000002e0: 0314 efbc 1700 5bbc 91fd c4b9 8b3f acbb
000002f0: 4762 19bb d9b2 893b c48f 6c3b 7fdb 0fbc
00000300: f310 9bbb dda1 97bc 1817 843b 2c65 583c
00000310: 3965 943c 5863 f13c 3fb9 34bc 74f1 c23b
00000320: 9f8c fbbb 1792 c6bc 9439 a4bc 7b1c b73c
00000330: 0acc c33b 6083 873c 4824 4c3b 4153 ea3b
00000340: 7c22 f6bb f185 c33c 328c 163d da0f a53c
00000350: 9a20 663c 11ea 883c 5916 1e3b cf3c 48ba
00000360: 2db1 623c f410 013c ec6a bf3b f2fd 743b
00000370: 8a15 f93c df04 d5bc 121f 433c c128 763c
00000380: b9a2 98bc df25 ef3a 4f93 d0bb e18c 6ebc
00000390: ae4f 56bc 881b 3ebc 6a91 22bc 142a c0bb
000003a0: 2518 663d b11c 3b3c ff4f 6b3c ee2a 573c
000003b0: 4212 f03c 8c39 e53a 4717 6f3c a530 6a3b
000003c0: e9e7 fd3b 5ee7 5c3c db99 3f3c bb0c 0e3d
000003d0: dbc1 31bc 5901 bcbb 2bcb c33a af63 b5bc
000003e0: 0f4d afbc 57d0 263c 32ed 723c 7fc5 e0bb
000003f0: 0e49 5a3c ee35 95bc 88b7 febc b1a7 1c3c

network_body.linear_encoder.seq_layers.0.bias f4 [128]
0.0025068924 -0.0064925393 -0.0056753294 0.0003946827 0.001572595 -0.0008709076 0.0045245294 0.0032066638
-0.00038425552 0.0006148109 -0.0008970051 0.002136824 -0.0002496738 -0.003581761 0.0066754273 -0.0023437138
0.006176046 -0.0031412558 0.0016393731 0.0023879649 0.0015166979 -0.00020932045 -0.00048680766 0.0003473642
0.0035528697 -0.0028002555 -0.0051280763 -0.0006161476 1.8275754e-05 -0.0014525948 0.0017458785 -0.0008389411
-0.00037958875 0.0014290765 0.0062344642 -0.00062182423 0.0020235493 -0.004537863 -0.0016839046 -0.00082211517
-0.00041528855 0.0068801614 -0.0041280263 0.00767824 -0.00036511483 -0.0010058025 -0.0020554531 0.00034122355
-0.0012704052 0.0044106143 -0.00031773828 0.000473439 0.0019542514 -0.0077119414 0.0026798563 -5.65254e-05
0.0005853023 0.0016071248 0.0059168944 -0.0016573946 0.00046667486 0.0033180956 -0.0024738584 0.0022279385
0.00035504063 -0.0019298813 0.002134041 0.0035354558 0.0016743509 -0.0080800485 -0.0059435563 0.0012676892
-0.002879099 0.0058494145 -0.0025154992 0.004256259 0.011089933 -0.0052965656 0.002187771 -0.0047859163
7.346726e-05 -0.0029898256 -0.0007208893 -0.0027705443 -0.00045252082 -0.0016574195 0.0048531992 0.0026969728
-0.0023018706 0.0022564386 -0.002696902 3.8084552e-06 -0.0017330011 -0.0016523495 0.002898342 -0.0005614914
-0.0040281597 -0.003431623 -0.0037693102 -0.0025598393 0.0030511 -0.001180693 -0.004632107 -0.00069453556
0.013205941 -0.0020438468 -0.0010036674 0.0045079584 -0.0028633038 -0.0026449848 -0.0010846012 0.0041176616
0.0072268983 -0.0024671096 -0.0015152008 0.0013743439 -0.00025526722 0.0010673752 -0.0029857198 -0.0021506522
0.0014128411 0.0033149603 0.010418147 0.0010570395 -0.011392686 0.00014009522 -0.00049999333 -0.00052348676
00000000: ad4a 243b 5ebf d4bb 1df8 b9bb 6aed ce39
00000010: 881f ce3a 9f4d 64ba 8142 943b e426 523b
00000020: e775 c9b9 432b 213a fe24 6bba f509 0c3b
00000030: a6e6 82b9 fabb 6abb 8bbd da3b fe98 19bb
00000040: 6e60 ca3b 87dd 4dbb 3ce0 d63a 677f 1c3b
00000050: f0cb c63a 087d 5bb9 383a ffb9 6f1e b639
00000060: 43d7 683b 7e84 37bb 6c09 a8bb f784 21ba
00000070: e24e 9937 fe64 beba f6d5 e43a 62ec 5bba
00000080: 8a03 c7b9 da4f bb3a 7a4a cc3b eb01 23ba
00000090: 869d 043b 5bb2 94bb 76b6 dcba 3783 57ba
000000a0: 16bb d9b9 fa72 e13b 6544 87bb bf99 fb3b
000000b0: e26c bfb9 22d5 83ba c8b4 06bb 40e6 b239
000000c0: ba83 a6ba ea86 903b 1c96 a6b9 e837 f839
000000d0: e612 003b 74b4 fcbb 87a0 2f3b b015 6db8
000000e0: f96e 193a 29a6 d23a 82e2 c13b ef3c d9ba
000000f0: 0aac f439 6874 593b 7520 22bb 9b02 123b
00000100: bf24 ba39 12f4 fcba 44db 0b3b 1bb3 673b
00000110: e575 db3a 2e62 04bc 2ac2 c2bb 9728 a63a
00000120: 44af 3cbb 72ac bf3b 13db 24bb 1778 8b3b
00000130: 8db2 353c d08e adbb b560 0f3b 2dd3 9cbb
00000140: 6f12 9a38 f3f0 43bb 10fa 3cba 0592 35bb
00000150: 5140 edb9 c53d d9ba 9607 9f3b b2bf 303b
00000160: fbda 16bb c2e0 133b 82be 30bb c394 7f36
00000170: de25 e3ba a693 d8ba 1cf2 3d3b 0d31 13ba
00000180: a7fe 83bb 15e5 60bb 8806 77bb fac2 27bb
00000190: f7f4 473b 7cc1 9aba eec8 97bb 7e11 36ba
000001a0: bb5d 583c 0ff2 05bb 7d8d 83ba 7fb7 933b
000001b0: 44a6 3bbb 7b57 2dbb 2d29 8eba 73ed 863b
000001c0: 9ecf ec3b 3baf 21bb b499 c6ba 5423 b43a
000001d0: 63d5 85b9 2be7 8b3a 11ac 43bb f5f1 0cbb
000001e0: 152f b93a ce3f 593b e0b0 2a3c 5c8c 8a3a
000001f0: 63a8 3abc 86e6 1239 fc11 03ba 9a3a 09ba

network_body.linear_encoder.seq_layers.0.weight f4 [128, 10]
0.0340275 -0.16257717 0.18033007 -0.30917743 0.107032046 -0.44983375 -0.10544547 0.34160995
0.3492639 -0.27721402 0.066008605 0.16114262 0.22807176 0.09902108 -0.16287798 0.17595363
0.14444228 0.31752867 0.10819025 -0.12546504 -0.7889328 -0.02339113 0.013894578 0.23705074
-0.30517304 -0.38226053 0.19039612 0.70620924 -0.5395982 -0.38394025 0.02003982 0.31305864
-0.007862133 -0.0066249482 -0.44595528 0.121683255 0.06715522 0.046836037 0.24120575 0.23826584
-0.022955865 -0.12955755 0.34045562 0.42557013 0.29917848 0.21406013 -0.35531673 -0.06408243
0.23525603 -0.20838445 0.0012957758 -0.10020516 -0.099494204 0.5778127 0.6747395 0.08183091
-0.20591433 0.44000667 -0.12563585 0.29636866 0.07574628 -0.5893732 -0.542155 0.2173467
0.0048393593 0.27196488 0.07557407 -0.48343372 -0.1567914 -0.5488755 -0.4215383 0.1841097
-0.06939757 -0.049159735 -0.594473 0.3487194 0.27281418 0.41004252 0.08854596 0.160609
0.27337167 -0.05172648 -0.5145291 -0.031287786 0.10165607 0.29450294 -0.23348838 0.48907143
-0.02795221 -0.34055424 -0.033125173 0.12196896 -0.5020958 -0.042206734 0.3575358 -0.19172825
-0.056632627 -0.40456936 -0.5972901 -0.13932 0.035110377 -0.1373258 0.44455045 -0.49832794
0.0011275449 0.47270343 -0.22219427 -0.0250295 -0.30573454 -1.0370421 -0.5253238 -0.013616221
0.16052279 0.3618591 0.009724141 0.23211324 -0.2719431 -0.010003178 0.3501932 0.63569725
0.5065437 0.14495465 0.29823297 -0.19211039 -0.085350476 0.2834104 -0.2501078 -0.14541008
-0.23188241 -0.23207882 -0.4419837 -0.07354365 0.30711675 -0.13192272 -0.61515015 -0.105947345
0.27696776 -0.8954108 -0.09845786 0.033014014 -0.22847207 0.08366958 0.76606286 0.02826381
0.26001966 -0.2528643 0.017125988 -0.11291606 0.37684143 -0.5715965 0.31048992 -0.5593959
-0.045873467 -0.20955421 0.4032015 0.41550916 -0.010094413 0.3293046 0.51885957 0.15304543
-0.15646115 -0.0050236094 -0.23309538 -0.20197375 -0.20682217 -0.05653845 -0.2572352 -0.44901568
-0.13735312 -0.22394831 -0.12195806 0.18487726 -0.0057439613 -0.21064138 0.5284004 0.21557476
-0.024540896 -0.05395573 -0.017996095 0.267214 0.30958527 -0.053149924 -0.23548843 0.07428126
-0.45848787 0.029685361 0.117588855 0.06767301 0.30271387 0.023377456 0.4690725 -0.48798963
-0.56110704 -0.21736865 0.028627543 0.04627358 -0.063236035 -0.69161355 -0.7548343 0.1496528
-0.35518968 0.34621754 -0.7419281 0.52395624 -0.22309826 0.37265888 0.048062235 -0.045755047
0.10291985 0.14597964 0.15617341 -0.26763147 -0.3405611 0.10420142 0.10603066 0.24472423
0.21226257 -0.2655329 0.559067 0.033320565 -0.42521858 0.19260816 -0.09996741 0.0808256
-0.12892702 -0.27012402 0.1807061 0.07772823 -0.0549206 -0.5664876 0.3654887 0.2888241
-0.04851173 0.4538919 -0.33359522 -0.04462782 0.4204887 0.23357695 0.0130062215 -0.13969928
0.14007339 -0.05297215 -0.37635934 0.21061654 -0.004633128 -0.19812503 -0.0043681934 -0.29774636
-0.035799373 0.46837133 -0.07089842 -0.35310358 -0.21366538 -0.22861859 0.10392965 -0.63906294
00000000: 6b60 0b3d a17a 26be 72a8 383e 814c 9ebe
00000010: 9e33 db3d 9c50 e6be cbf3 d7bd 80e7 ae3e
00000020: b8d2 b23e ffee 8dbe 852f 873d 9202 253e
00000030: a58b 693e 90cb ca3d 7cc9 26be 302d 343e
00000040: ade8 133e 1e93 a23e da92 dd3d e879 00be
00000050: 80f7 49bf c19e bfbc 16a6 633c 6ebd 723e
00000060: a43f 9cbe a7b7 c3be 33f7 423e 21ca 343f
00000070: 1c23 0abf d193 c4be 8c2a a43c 3949 a03e
00000080: 2dd0 00bc 1816 d9bb 4054 e4be 1235 f93d
00000090: ad88 893d 25d7 3f3d a4fe 763e f6fb 733e
000000a0: f00d bcbc bcaa 04be 3350 ae3e 54e4 d93e
000000b0: ec2d 993e 9432 5b3e 13ec b5be a63d 83bd
000000c0: f5e6 703e bc62 55be 05d7 a93a 5d38 cdbd
000000d0: 9ec3 cbbd 88eb 133f babb 2c3f f796 a73d
000000e0: 35db 52be 8e48 e13e afa6 00be a2bd 973e
000000f0: de20 9b3d 29e1 16bf acca 0abf 2290 5e3e
00000100: 7d93 9e3b fb3e 8b3e 94c6 9a3d a084 f7be
00000110: ed8d 20be 1b83 0cbf ded3 d7be 4187 3c3e
00000120: 5020 8ebd b85b 49bd 622f 18bf 598b b23e
00000130: 4dae 8b3e 18f1 d13e 9657 b53d b076 243e
00000140: 5ff7 8b3e 25df 53bd 2eb8 03bf 9f27 00bd
00000150: 0f31 d03d 17c9 963e 9417 6fbe 9267 fa3e
00000160: 08fc e4bc 205d aebe 43ae 07bd ddca f93d
00000170: 5a89 00bf f8e0 2cbd ef0e b73e 6954 44be
00000180: 9df7 67bd b723 cfbe 01e8 18bf e7a9 0ebe
00000190: e6cf 0f3d 229f 0cbe 1e9c e33e d724 ffbe
000001a0: 21ca 933a 2f06 f23e e586 63be aa0a cdbc
000001b0: 3d89 9cbe ccbd 84bf 9f7b 06bf 9216 5fbc
000001c0: 1660 243e 9945 b93e 0152 1f3c 18af 6d3e
000001d0: 203c 8bbe 5fe4 23bc 864c b33e 0ebd 223f
000001e0: d9ac 013f fe6e 143e feb1 983e 96b8 44be
000001f0: 3bcc aebd 2b1b 913e 210e 80be 61e6 14be
00000200: 9572 6dbe 12a6 6dbe b04b e2be 0e9e 96bd
00000210: 683e 9d3e c016 07be 7b7a 1dbf ecfa d8bd
00000220: b8ce 8d3e a439 65bf 46a4 c9bd b439 073d
00000230: 95f4 69be f55a ab3d b21c 443f 8189 e73c
00000240: 4c21 853e 6e77 81be cd4b 8c3c 8940 e7bd
00000250: 5cf1 c03e 2654 12bf 89f8 9e3e 9234 0fbf
00000260: d1e5 3bbd 6195 56be 6d70 ce3e 9ebd d43e
00000270: 0963 25bc 9d9a a83e fbd3 043f f1b7 1c3e
00000280: 5a37 20be 179d a4bb 8eb0 6ebe 35d2 4ebe
00000290: 31c9 53be dd94 67bd 55b4 83be 62e5 e5be
000002a0: 4ca6 0cbe b552 65be 26c5 f9bd 7750 3d3e
000002b0: d737 bcbb 60b2 57be 4045 073f a1bf 5c3e
000002c0: fd09 c9bc af00 5dbd 8c6c 93bc 46d0 883e
000002d0: f681 9e3e bcb3 59bd e123 71be c620 983d
000002e0: ecbe eabe b72e f33c 6dd2 f03d 2698 8a3d
000002f0: 50fd 9a3e 1482 bf3c 452a f03e c7d9 f9be
00000300: b6a4 0fbf e395 5ebe 4f84 ea3c 5e89 3d3d
00000310: e581 81bd 960d 31bf d23c 41bf 953e 193e
00000320: 6cdb b5be 6d43 b13e 00ef 3dbf ff21 063f
00000330: df73 64be 25cd be3e e8dc 443d a569 3bbd
00000340: a4c7 d23d b07b 153e eceb 1f3e fe06 89be
00000350: 065e aebe 8e67 d53d 9a26 d93d fd98 7a3e
00000360: 5c5b 593e eef3 87be 041f 0f3f 257b 083d
00000370: 40b6 d9be 133b 453e b7bb ccbd e487 a53d
00000380: 7205 04be b24d 8abe 050b 393e fa2f 9f3d
00000390: 6cf4 60bd 5505 11bf 5621 bb3e c1e0 933e
000003a0: 3cb4 46bd 8564 e83e fecc aabe a9cb 36bd
000003b0: 4b4a d73e cc2e 6f3e 0c18 553c 540d 0fbe
000003c0: 666f 0f3e 53f9 58bd 2cb2 c0be ddab 573e
000003d0: 7fd1 97bb 4ae1 4abe 1023 8fbb 3672 98be
000003e0: 5da2 12bd 5ece ef3e 3133 91bd fec9 b4be
000003f0: 19cb 5abe fe1a 6abe 11d9 d43d a199 23bf

network_body.linear_encoder.seq_layers.2.bias f4 [128]
-0.0013876205 0.005441857 0.00560749 -0.0029054396 0.0013663393 0.0014982272 0.003597986 0.003349616
0.004157519 0.00041453502 -0.0012564425 0.002519318 0.0035622092 -0.002154086 -0.0031049757 -0.0030054972
-0.0011833997 -0.0013893918 -0.002446591 0.0038297356 0.007505099 -0.0007081645 0.005925523 0.0070333905
-0.002314673 -0.003513529 0.002523655 -0.010493918 -0.008712387 -0.0007753733 -0.0015060186 -0.00052715134
0.0035354558 -0.006601789 -0.0017653839 0.0027311475 -0.014428498 0.0016843815 -0.0011297786 -0.00454988
-0.0021368526 -0.0019457983 -0.0007331157 -0.0016082416 -0.0055810073 -0.00225134 -0.0023989098 -0.0027304783
0.005241427 -0.0023800628 -0.002405134 0.003358349 -0.0009026786 0.015192526 -0.0013242131 -0.006243652
0.0015902397 -0.0026796125 0.0026425465 -0.0014914466 -0.0021946726 -0.0020158628 -0.0022829005 -0.009320174
0.0016992566 0.0048484486 0.0016173928 -0.0008658816 -0.0009133364 -0.002117817 0.0020610532 0.002618274
0.0050508254 0.0015755007 0.0027661917 -0.0030940517 -0.003549072 -0.0018882537 -0.0036604216 -0.0026215233
0.0011728499 -0.0012043098 0.00021432941 -0.0024736426 -0.008139014 -0.0022481265 -0.010544443 0.00052344735
-0.00051649543 -0.0021671075 0.0018543754 0.0029581606 0.0019731312 0.0022562156 -0.0052282014 -0.0028388053
0.002522967 -0.004426096 0.00030401515 0.005771413 -0.001542876 0.0007437445 0.0020148845 -0.006387468
-0.004310034 -0.0027568794 0.0019180599 -0.0018802852 -0.0018277642 0.00267484 -0.0012041107 0.0012896195
-0.0033444813 -0.0026577683 -0.0046762456 -0.0023346266 -0.00031384066 -0.0016834163 0.0018283561 0.00162377
0.00026862428 -0.0013256323 -0.0013858578 0.005220304 -0.0013552156 0.0117048 0.00240333 -0.009555103
00000000: d1e0 b5ba 9b51 b23b 09bf b73b 3069 3ebb
00000010: bd16 b33a 2a60 c43a 30cc 6b3b 3b85 5b3b
00000020: cc3b 883b f355 d939 37af a4ba 241b 253b
00000030: f473 693b 912b 0dbb d97c 4bbb e0f7 44bb
00000040: 4e1c 9bba 411c b6ba fc56 20bb 4dfc 7a3b
00000050: 55ed f53b 1da4 39ba e42a c23b 5b78 e63b
00000060: c5b1 17bb 3c43 66bb e863 253b afee 2bbc
00000070: 66be 0ebc 6c42 4bba 9965 c5ba 8730 0aba
00000080: 1bb3 673b d253 d8bb 7464 e7ba 0dfd 323b
00000090: 8265 6cbc 77c6 dc3a 1415 94ba 2917 95bb
000000a0: 700a 0cbb 280a ffba 902e 40ba a2cb d2ba
000000b0: e2e0 b6bb 388b 13bb 0737 1dbb d3f1 32bb
000000c0: 47c0 ab3b d4fa 1bbb 749f 1dbb bf17 5c3b
000000d0: bca1 6cba 13ea 783c 3891 adba 8d97 ccbb
000000e0: 976f d03a 709c 2fbb 932e 2d3b a57c c3ba
000000f0: 7fd4 0fbb 911c 04bb b79c 15bb a5b3 18bc
00000100: 97b9 de3a bcdf 9e3b b2fe d33a 55fc 62ba
00000110: f86c 6fba 13cb 0abb bc12 073b 5997 2b3b
00000120: 6581 a53b 0881 ce3a ff48 353b 93c5 4abb
00000130: 8c97 68bb 487f f7ba afe3 6fbb ddcd 2bbb
00000140: 50ba 993a eed9 9dba 9dbd 6039 d61c 22bb
00000150: 8059 05bc 4e55 13bb 99c2 2cbc f537 093a
00000160: 6c65 07ba 0806 0ebb 830e f33a b3dd 413b
00000170: a64f 013b 04dd 133b 5551 abbb 400b 3abb
00000180: 5d58 253b c908 91bb 3964 9f39 1f1e bd3b
00000190: 543a caba d9f7 423a 270c 043b f74d d1bb
000001a0: 303b 8dbb c3ac 34bb 6967 fb3a e773 f6ba
000001b0: 9791 efba 5e4c 2f3b 40d3 9dba 7308 a93a
000001c0: 162f 5bbb f42d 2ebb 313b 99bb 8900 19bb
000001d0: fb8a a4b9 14a6 dcba 73a5 ef3a aed4 d43a
000001e0: 24d6 8c39 d7c0 adba aca5 b5ba 150f ab3b
000001f0: 7da1 b1ba 7dc5 3f3c 3081 1d3b 028d 1cbc

network_body.linear_encoder.seq_layers.2.weight f4 [128, 128]
0.05875189 0.008391129 -0.11566302 0.049989633 -0.12880348 0.07699086 0.082651384 -0.13760518
-0.07657983 0.006168506 -0.070383206 -0.052738603 0.004106212 0.009184834 -0.033979625 -0.22525606
-0.11157799 0.11649609 0.051414978 0.07501875 -0.030672627 0.041684374 0.049670298 -0.0122431
-0.01663616 -0.0026697288 0.085533895 0.040774174 0.037401702 -0.033333756 -0.0032389387 0.1234316
-0.120346814 0.047916897 -0.05034787 -0.07652516 0.08173413 -0.031449612 0.0224559 0.022208333
-0.13515525 0.09363127 -0.09442479 0.0349655 -0.057614613 -0.02318686 -0.09278648 0.06959112
-0.084112026 -0.0071757874 0.04015561 0.05184582 -0.1801944 -0.014576534 0.10628897 -0.07326521
-0.008395794 0.029082198 0.021724137 0.11836258 -0.07982545 0.033165522 0.20762593 0.03992624
0.00097603933 -0.04625466 -0.052180603 -0.19719857 -0.0687382 -0.12859355 -0.04101943 0.14016876
-0.07072883 0.028835276 0.12934294 0.056324355 0.056033242 0.076131955 -0.0536809 -0.018122692
0.056058135 -0.12319176 -0.0099181775 -0.07506757 -0.062319346 0.022539042 0.043881632 -0.08622226
-0.016544936 0.12876385 0.0100630475 0.0044939453 0.11818755 -0.00047796272 -0.002619855 -0.007684688
-0.043822646 0.1261829 -0.044314463 0.07157174 0.043816786 0.15650348 -0.04420172 -0.029330617
0.20223224 0.017438766 -0.037008435 -0.060639016 -0.0019638787 0.0774614 0.06673045 0.074567385
0.02041431 0.19336691 0.100887895 -0.03381948 0.16967928 -0.008409258 0.15685636 -0.02424058
0.005923943 0.10591154 0.054936573 -0.13329616 0.03487152 0.004712146 -0.22604668 0.09528386
0.10539594 0.045371644 0.10647749 0.025458109 -0.043688122 -0.07469737 -0.10868059 -0.05475969
-0.08502887 0.15969796 0.01021506 -0.127863 -0.0092679765 -0.05881446 -0.106715225 0.011585075
-0.03375836 -0.18279508 0.009724724 0.0376526 -0.047204357 0.051479943 -0.017083423 -0.0892296
0.13525546 -0.06321837 -0.13812017 0.030633962 -0.12979016 0.0067534996 -0.13837625 0.0153777925
-0.24794233 -0.118487194 -0.021719018 -0.041911826 0.04571311 0.016025923 0.0347357 0.07433997
0.057223648 -0.13176903 -0.009926422 -0.12591001 -0.09715034 0.117520586 -0.005580338 -0.0024862438
-0.012401339 -0.10801631 0.13214995 0.094923764 -0.09404642 -0.08293898 -0.025573255 -0.12680884
-0.045842983 0.14778394 -0.12462872 -0.12508233 0.0056164344 0.09920159 -0.09674076 0.012345916
-0.028125755 0.009496974 -0.028143773 0.043254282 -0.04017608 -0.028601117 -0.1646312 0.11813777
-0.09997475 -0.10415693 0.18222816 0.0068365554 -0.10217149 0.07540837 -0.036629878 -0.10495254
-0.1255834 0.024793558 0.0831999 -0.032250077 -0.023982326 0.034809086 0.0327241 -0.1082149
-0.052109137 0.056654442 0.07375365 -0.0035986584 -0.003758231 -0.18444341 0.053759936 0.005731194
-0.023271533 -0.10914979 -0.078400515 -0.030737597 0.026406012 -0.038912643 -0.008981804 -0.17329095
0.22680262 0.026240746 -0.12323707 -0.07726149 -0.011967845 -0.13956761 0.00047852186 0.015199329
-0.26766664 -0.17598757 0.08328802 0.12291347 0.040845074 -0.15822805 0.11169211 0.016060159
-0.23341614 0.10784285 -0.010172899 -0.15906645 0.041416813 -0.028356154 0.03520283 -0.035115927
00000000: d2a5 703d f27a 093c bce0 ecbd eec1 4c3d
00000010: 0fe5 03be 62ad 9d3d 2145 a93d 5fe8 0cbe
00000020: e3d5 9cbd 2e21 ca3b 1225 90bd 6f04 58bd
00000030: 678d 863b fc7b 163c 382e 0bbd 86a9 66be
00000040: 0083 e4bd 8195 ee3d 8398 523d 6ea3 993d
00000050: 2945 fbbc 3cbd 2a3d 1573 4b3d 4997 48bc
00000060: 8e48 88bc 9ef6 2ebb 652c af3d d202 273d
00000070: 8732 193d fa88 08bd 6044 54bb b5c9 fc3d
00000080: 6478 f6bd 8244 443d 9139 4ebd 39b9 9cbd
00000090: 3964 a73d 4fd1 00bd 70f5 b73c 40ee b53c
000000a0: 2366 0abe c0c1 bf3d c961 c1bd fc37 0f3d
000000b0: 4dfd 6bbd 5ff2 bdbc d706 bebd ca85 8e3d
000000c0: ed42 acbd de22 ebbb 357a 243d 485c 543d
000000d0: e184 38be 6ad2 6ebc 08ae d93d 120c 96bd
000000e0: 838e 09bc ca3d ee3c d1f6 b13c 1568 f23d
000000f0: 877b a3bd 92d8 073d e49b 543e b289 233d
00000100: e4dc 7f3a 8775 3dbd 54bb 55bd 6cee 49be
00000110: 9dc6 8cbd 07ae 03be fd03 28bd 6688 0f3e
00000120: 47da 90bd f537 ec3c 7a72 043e 5eb4 663d
00000130: 1d83 653d 12eb 9b3d 81e0 5bbd 0a76 94bc
00000140: 379d 653d f64b fcbd da7f 22bc 07bd 99bd
00000150: 9242 7fbd cca3 b83c 3abd 333d 4c95 b0bd
00000160: 3f89 87bc acda 033e 7bdf 243c f241 933b
00000170: 500c f23d 1297 fab9 e0b1 2bbb d6cf fbbb
00000180: 607f 33bd 1736 013e 1583 35bd 3494 923d
00000190: 3b79 333d 7342 203e dd0c 35bd c346 f0bc
000001a0: f815 4f3e bedb 8e3c 2896 17bd 9e60 78bd
000001b0: 6bb4 00bb 15a4 9e3d f9a9 883d c9b6 983d
000001c0: e93b a73c fa01 463e 509e ce3d 4c86 0abd
000001d0: 68c0 2d3e fcc6 09bc f49e 203e 2e94 c6bc
000001e0: a31d c23b 26e8 d83d 2c05 613d ca7e 08be
000001f0: 70d5 0e3d 5868 9a3b c878 67be 2f24 c33d
00000200: d4d9 d73d 9ed7 393d df10 da3d 868d d03c
00000210: 51f2 32bd effa 98bd ee93 debd b24b 60bd
00000220: 9e23 aebd dd87 233e 115d 273c 85ee 02be
00000230: b6d8 17bc 6ee7 70bd 838d dabd 54cf 3d3c
00000240: 3546 0abd a22e 3bbe 7354 1f3c 9d39 1a3d
00000250: 5b59 41bd a2dc 523d 89f2 8bbc 02be b6bd
00000260: 6880 0a3e a278 81bd 606f 0dbe 13f4 fa3c
00000270: b6e7 04be 764c dd3b 81b2 0dbe 23f3 7b3c
00000280: 98e4 7dbe 6aa9 f2bd 15ec b1bc bcab 2bbd
00000290: ac3d 3b3d cc48 833c 0547 0e3d 8e3f 983d
000002a0: 5863 6a3d 76ee 06be 6ea2 22bc 8eee 00be
000002b0: c2f6 c6bd a2ae f03d 45db b6bb 40f0 22bb
000002c0: fc2e 4bbc a837 ddbd 5152 073e 6467 c23d
000002d0: 699b c0bd e9db a9bd 017f d1bc 2dda 01be
000002e0: dac5 3bbd ac54 173e 583d ffbd 9515 00be
000002f0: 110a b83b 342a cb3d 0520 c6bd 8646 4a3c
00000300: fc67 e6bc 3299 1b3c c58d e6bc 672b 313d
00000310: ac8f 24bd e44c eabc 1595 28be 37f2 f13d
00000320: 90bf ccbd 3b50 d5bd 059a 3a3e 2f05 e03b
00000330: 493f d1bd b46f 9a3d 3609 16bd 5bf1 d6bd
00000340: ef98 00be dc1b cb3c b664 aa3d a818 04bd
00000350: 9576 c4bc f993 0e3d b509 063d c69f ddbd
00000360: 6470 55bd 7d0e 683d 270c 973d 78d7 6bbb
00000370: a74c 76bb bcde 3cbe 6133 5c3d bdcc bb3b
00000380: f1a3 bebc ed89 dfbd 7390 a0bd 6acd fbbc
00000390: 6c51 d83c dd62 1fbd 6b28 13bc 2f73 31be
000003a0: f23e 683e d5f6 d63c b863 fcbd 463b 9ebd
000003b0: c814 44bc d0ea 0ebe 1ee2 fa39 9b06 793c
000003c0: 9a0b 89be 1636 34be e992 aa3d 0fba fb3d
000003d0: 2a4d 273d 8906 22be d5be e43d 9890 833c
000003e0: a404 6fbe b6dc dc3d 3bac 26bc 51e2 22be
000003f0: ada4 293d 2a4b e8bc d830 103d b8d5 0fbd
