results/ppo/HoldBall/HoldBall-221.onnx (onnx, 74487 bytes, 7 tensors)

action_model._continuous_distribution.log_sigma f4 [1, 2]
00000000: 0000 0000 0000 0000
0.0 0.0

action_model._continuous_distribution.mu.bias f4 [2]
00000000: 0000 0000 0000 0000
0.0 0.0

action_model._continuous_distribution.mu.weight f4 [2, 128]
00000000: 2c6e 0ebc 5259 acbc 7314 5c3b c76a 503c
00000010: 6fc9 edbb 6ba2 2e3b 1211 153c c96a c63c
00000020: 3241 c53c dbf0 4f3c 4b73 77bc da93 50bc
00000030: 6b0e aebb 1c83 abbc 46f6 313d e365 3b3a
00000040: 5f8b 0bbb 7a33 c2bc 346f 133d d5c6 9ebb
00000050: b24a 7fbb 4528 afbb 54e2 a5bc af8b d53c
00000060: b37e cd3c e21d e6b6 bd03 553b bfc2 8ebb
00000070: 3cc2 93bb b36d 863c 6c8d 02bd 0b79 db3c
00000080: afc5 cf3b 5cd6 aa3b b8c4 ccbb 0cd8 493a
00000090: 1295 dfbb bde8 09bc bdf8 7dba 1158 99bc
000000a0: ef19 8cbc 95cc e2bc a93d 8e3b e01a f23b
000000b0: 6f55 2b3d 2906 c03c 28da fabc db72 a5bc
000000c0: 63f7 8f3c 5353 ea3c f14e 87bc 1be8 653c
000000d0: fc26 22bd 68cb a73c 601d 113c e8de d13b
000000e0: d342 a63b d112 103b 9ba1 fa3a cbaf 823b
000000f0: 1599 013c 7580 c33b 0e2e 823b 3d32 c1bc
00000100: 1baf 93bc 2aeb 5b3c 8cb7 af3c 4a05 8bbc
00000110: 202b 55b9 2b42 a23c 1ac4 bc3b a375 433c
00000120: 813f 2b3b 53b2 08bc 49c9 053d 3902 06bc
00000130: 9b37 8cbb 038c b03b 677c 2ebc 5727 37bb
00000140: 9582 9fbc 5d76 963c f2c3 f23c 0f96 b03c
00000150: 1105 b73c a885 733a 507f 16bb 777e 34bb
00000160: 4b95 e53c 9767 a4bc 1f63 b2bc d65f a1bc
00000170: c508 19bc 083e f2bb 15fc 033d f81e 263c
00000180: e282 a4bc e7a7 83bc 6da9 e8bb 5b0b a53c
00000190: 6d17 64bc e49f cabc 3404 85bc e379 66bb
000001a0: 57e8 553c d6ac 01bc 4d7e d0bb e7e1 dbbc
000001b0: 7a7f d6ba 41f1 c73b aaff f03b 0b03 053d
000001c0: 5a0c 4c3c 1b3e 293d 2055 8f3c c3ce 07bd
000001d0: 060a 423c 7659 bcba a068 d4bb 4762 573c
000001e0: 4e74 c9bb bfb4 85bd 7981 95bb 25aa c4bb
000001f0: 3f17 b8bc c4fc 8ebb 1b33 803a 6c30 0cbd
00000200: ebf7 53bc 2597 993c b2d8 fabb 07ad babb
00000210: f27c 123b d743 b03b 504e b93a 415b 8f3c
00000220: 4d5e c03c cfd2 72ba 4baa 813c 4cb7 2dbd
00000230: 072d 13bd 3ddf 033c c4d9 aa3a 2232 7a3c
00000240: 08e7 893c cb29 b2bc baa0 debb bf50 293b
00000250: ef7e 943b 4078 fcba 350a d1bb 104b 90bb
00000260: 9a45 6dbb e542 2dbc 8797 34bb f510 5dbd
00000270: 7fbe 0b3c 01c9 02bb 1748 903c 1083 4bbb
00000280: 3316 91bc 4f0a c43c dde5 29bd e5b0 743c
00000290: cbcb 10bb 9bd7 e8bb e428 8c3b f76a 523c
000002a0: be63 02bd c9fa 9bbc 078c f1bb cbf3 0dbd
000002b0: a6e7 9a3b a795 d6bc 088b 67ba dfae a8bc
000002c0: 2ac6 2fbc ff58 c0bc 5757 003d a875 81bb
000002d0: 6432 183c 3037 e63a 85e6 d9bb c187 ccbb
000002e0: 1f99 543c 08df 093c 069b 423b e67d b3bc
000002f0: 8b49 cf3b 693b 9cbc 776e 113c ff9c e43c
00000300: 3a69 7dba 1030 1ebd 85d2 c43c 02c1 12bb
00000310: 10ce 10bc e5be 42bc 83bb 92bc ee74 073c
00000320: 58cd e73b cb41 dd3b 4f44 3bba 3e76 093c
00000330: 39ee 123d 6b8e 223d 32aa 84bc ee30 b3bc
00000340: 4ff9 5bbc 0f2d bc3b d361 083d bdba cd3c
00000350: 7ec8 9b3c ba04 e23b 381a babc 83b2 453b
00000360: 0d97 08bc be12 983b bd27 bdbc fb8b 513c
00000370: 7ed7 23bc b03c 25bb 2f7a fe3b 00ef 303d
00000380: ede4 4a3c bb74 22bd 4914 0cbb 63dd 6ebb
00000390: 0d55 05bd 7fcd bbbc ff1d 103c 3f6e 0e3b
000003a0: dafd 3c3c 5535 6a3c 9de0 833c 5d67 a9bc
000003b0: 0390 fe3c 00b7 f03b ab4d f0bc eba5 613c
000003c0: 2226 95bc f3b8 703b b516 0a3c 2685 bd3c
000003d0: f3f6 803b 7bb2 fe3c cb3f 6cbc 22e2 f4bb
000003e0: e7ef b4bc bc31 ac3c 6f63 9d3c f223 24bc
000003f0: bbde 92bc 9bb8 783c 1f7a e1ba cdb6 433c
-0.008693259 -0.021038685 0.0033581525 0.01272077 -0.007256679 0.0026647102 0.009098308 0.024220841
0.02407894 0.012691702 -0.015103172 -0.012730563 -0.0053117773 -0.020936541 0.043447755 0.0007148666
-0.0021292788 -0.023706187 0.035994723 -0.00484548 -0.0038954434 -0.0053453767 -0.020249523 0.026067583
0.025084829 -6.858013e-06 0.003250345 -0.0043567116 -0.0045092385 0.01640973 -0.03187315 0.026791116
0.0063407044 0.005213542 -0.0062490366 0.0007699735 -0.0068231905 -0.008417306 -0.0009688249 -0.018718751
-0.01710221 -0.027685443 0.0043408466 0.0073884577 0.041829523 0.023440437 -0.030621603 -0.020196369
0.017574018 0.028604185 -0.016517134 0.014032389 -0.03958796 0.020482734 0.008857101 0.0064047463
0.005073884 0.0021983872 0.0019121649 0.0039882413 0.007910033 0.005966241 0.0039727753 -0.023583526
-0.018027833 0.013422767 0.021449827 -0.016970295 -0.00020329328 0.019806942 0.005760682 0.011929902
0.002613038 -0.008343297 0.032662664 -0.008179241 -0.0042790896 0.0053877844 -0.010649777 -0.0027947032
-0.019471446 0.018366987 0.02963445 0.021555929 0.022341283 0.00092896307 -0.0022964068 -0.00275412
0.02802529 -0.020068927 -0.02177578 -0.019699018 -0.00934047 -0.0073926486 0.032222826 0.010139219
-0.020081941 -0.016071273 -0.0071002753 0.020147016 -0.013921601 -0.024734445 -0.016237356 -0.0035167865
0.013055882 -0.007914742 -0.0063627125 -0.026841117 -0.0016364895 0.0061017578 0.0073546963 0.032473605
0.012454117 0.041318994 0.017496645 -0.033156168 0.01184321 -0.0014369923 -0.006482199 0.01314599
-0.006147898 -0.06528615 -0.0045625535 -0.006001728 -0.022472022 -0.004363628 0.0009780856 -0.034225866
-0.012937526 0.01874883 -0.0076552266 -0.005696896 0.0022352305 0.005379181 0.0014137719 0.017499568
0.023482466 -0.00092629803 0.015828272 -0.042411134 -0.035931613 0.00804883 0.001303487 0.015270742
0.016833797 -0.021748444 -0.0067940624 0.0025835482 0.004531733 -0.0019261912 -0.0063793906 -0.0044034794
-0.0036204816 -0.010575031 -0.0027556138 -0.05397125 0.0085293045 -0.0019956233 0.0176125 -0.003105346
-0.01771078 0.023930697 -0.04147898 0.014934753 -0.0022094126 -0.0071057803 0.0042773355 0.012842885
-0.031833403 -0.019040482 -0.007371429 -0.034656327 0.0047273217 -0.026194407 -0.0008832668 -0.020591198
-0.010728398 -0.023479937 0.031333294 -0.0039507933 0.009289358 0.0017564055 -0.0066497945 -0.006241769
0.01297596 0.008414991 0.0029694452 -0.021910619 0.0063259057 -0.019071298 0.0088764345 0.027906893
-0.0009666864 -0.038620055 0.024026165 -0.0022392874 -0.008838192 -0.011886333 -0.017911678 0.008267624
0.0070740394 0.006752228 -0.00071436627 0.008390008 0.035871718 0.0396866 -0.016194437 -0.021873917
-0.013426139 0.005742676 0.033296417 0.025113458 0.0190165 0.006897536 -0.02271758 0.0030166216
-0.008336795 0.004640906 -0.023090238 0.012789722 -0.010000108 -0.0025213175 0.0077660303 0.04319668
0.012383682 -0.039662104 -0.0021374396 -0.0036447875 -0.032551814 -0.022925137 0.008796214 0.0021733192
0.011535132 0.014294942 0.016098315 -0.02067917 0.03107453 0.007346034 -0.02933391 0.013772468
-0.01820666 0.0036731332 0.008428265 0.02313478 0.0039356886 0.031090965 -0.014419506 -0.007473246
-0.02208705 0.021019809 0.019212453 -0.010018336 -0.017928472 0.015180732 -0.0017202533 0.011945439

network_body.linear_encoder.seq_layers.0.bias f4 [128]
00000000: 0000 0000 0000 0000 0000 0000 0000 0000
00000010: 0000 0000 0000 0000 0000 0000 0000 0000
00000020: 0000 0000 0000 0000 0000 0000 0000 0000
00000030: 0000 0000 0000 0000 0000 0000 0000 0000
00000040: 0000 0000 0000 0000 0000 0000 0000 0000
00000050: 0000 0000 0000 0000 0000 0000 0000 0000
00000060: 0000 0000 0000 0000 0000 0000 0000 0000
00000070: 0000 0000 0000 0000 0000 0000 0000 0000
00000080: 0000 0000 0000 0000 0000 0000 0000 0000
00000090: 0000 0000 0000 0000 0000 0000 0000 0000
000000a0: 0000 0000 0000 0000 0000 0000 0000 0000
000000b0: 0000 0000 0000 0000 0000 0000 0000 0000
000000c0: 0000 0000 0000 0000 0000 0000 0000 0000
000000d0: 0000 0000 0000 0000 0000 0000 0000 0000
000000e0: 0000 0000 0000 0000 0000 0000 0000 0000
000000f0: 0000 0000 0000 0000 0000 0000 0000 0000
00000100: 0000 0000 0000 0000 0000 0000 0000 0000
00000110: 0000 0000 0000 0000 0000 0000 0000 0000
00000120: 0000 0000 0000 0000 0000 0000 0000 0000
00000130: 0000 0000 0000 0000 0000 0000 0000 0000
00000140: 0000 0000 0000 0000 0000 0000 0000 0000
00000150: 0000 0000 0000 0000 0000 0000 0000 0000
00000160: 0000 0000 0000 0000 0000 0000 0000 0000
00000170: 0000 0000 0000 0000 0000 0000 0000 0000
00000180: 0000 0000 0000 0000 0000 0000 0000 0000
00000190: 0000 0000 0000 0000 0000 0000 0000 0000
000001a0: 0000 0000 0000 0000 0000 0000 0000 0000
000001b0: 0000 0000 0000 0000 0000 0000 0000 0000
000001c0: 0000 0000 0000 0000 0000 0000 0000 0000
000001d0: 0000 0000 0000 0000 0000 0000 0000 0000
000001e0: 0000 0000 0000 0000 0000 0000 0000 0000
000001f0: 0000 0000 0000 0000 0000 0000 0000 0000
0.0 0.0 0.0 0.0 0.0 0.0 0.0 0.0
0.0 0.0 0.0 0.0 0.0 0.0 0.0 0.0
0.0 0.0 0.0 0.0 0.0 0.0 0.0 0.0
0.0 0.0 0.0 0.0 0.0 0.0 0.0 0.0
0.0 0.0 0.0 0.0 0.0 0.0 0.0 0.0
0.0 0.0 0.0 0.0 0.0 0.0 0.0 0.0
0.0 0.0 0.0 0.0 0.0 0.0 0.0 0.0
0.0 0.0 0.0 0.0 0.0 0.0 0.0 0.0
0.0 0.0 0.0 0.0 0.0 0.0 0.0 0.0
0.0 0.0 0.0 0.0 0.0 0.0 0.0 0.0
0.0 0.0 0.0 0.0 0.0 0.0 0.0 0.0
0.0 0.0 0.0 0.0 0.0 0.0 0.0 0.0
0.0 0.0 0.0 0.0 0.0 0.0 0.0 0.0
0.0 0.0 0.0 0.0 0.0 0.0 0.0 0.0
0.0 0.0 0.0 0.0 0.0 0.0 0.0 0.0
0.0 0.0 0.0 0.0 0.0 0.0 0.0 0.0

network_body.linear_encoder.seq_layers.0.weight f4 [128, 9]
00000000: d48c ad3e 8ce3 053e 1433 a23e 90d0 fbbe
00000010: 6bc0 8ebe b61d a7bd ec2e ac3d 5c15 883d
00000020: 32cd dfbe 2040 c73e 6f40 50bf 3635 9cbe
00000030: 9ebf 853e 920d b13c 8a51 2cbe 8389 d03d
00000040: 16f0 efbd ee44 b03e e429 0fbc f94b 1dbe
00000050: f868 81be ef41 4fbe 7081 523e 84a0 853d
00000060: f52b 903e a223 3e3e 0049 a4bd d007 0fbe
00000070: faf1 643e 6212 773d aeb2 c5be a40c d23e
00000080: fbfa 1dbf a32f 8fbd 526f 61be fc3e 003f
00000090: a8cf d63c 4632 e1be 9b88 ef3d a9d8 8d3d
000000a0: ee76 e63e 79d3 a7bd 3111 1cbf 5a72 6bbe
000000b0: 2cca fabc 7676 4c3e 92cc 64bc 15d8 8a3d
000000c0: 78e5 303e 2ad5 a3be 8855 99be c059 01bf
000000d0: 50c1 33bf a3d2 38be f09b ea3e b087 023e
000000e0: 6f40 293e a894 dabd 7ccb 143f cbc8 f6bc
000000f0: f23b 3d3f 3235 edbd 7f95 4e3e f7c9 133e
00000100: 5715 9ebe b3de 7fbe b67a 883b 561f c73d
00000110: 4a3f 7c3d 069b 223f 880b 4dbe ca68 453d
00000120: 1307 383d 90a3 863d 162f 92bf d0fd dabe
00000130: fa0b 0c3e fcf9 90be a025 853e 477b 83be
00000140: 53c6 f63e baa1 9c3e c89b bdbe 4fc7 2cbe
00000150: 4e6f 053f f288 f4be 0b81 f5bd df0e 9a3d
00000160: 109f fe3c 2cd4 863e 181f c3bc d7cf 5c3e
00000170: 0074 4b3e 4487 38be b4df 283e 3e5e 893e
00000180: 74d9 253e c480 a13c c63d ab3e 38e7 1cbf
00000190: 6a76 45be 9e9d 983e e8c5 12be 7feb 1cbc
000001a0: e7ac 0f3f 4f41 2bbe 6e2f d4bc aec9 243d
000001b0: 7a28 4e3f 82c9 e93e 9fd5 ccbe b76d 4dbe
000001c0: 98cd f7bd 813d 1d3f 7b3f 283e f340 afbe
000001d0: 66d3 eabe a7b0 44bf fe88 073f 9e53 9e3d
000001e0: 9c62 613c 3bb9 b43d 69f8 0d3e ab6f 263f
000001f0: cfaf 30bd bc7b b23e cf01 12be 9381 a8bc
00000200: 91bc 983e 6521 963e 98a8 2f3f 9e5b f5be
00000210: 3bb2 29be 0aa3 7b3d cf5d d9be bced 143d
00000220: c619 d93e 6b5c 57b9 b33f 1bbf aced 40bd
00000230: 5455 293d 4885 b13e 6e5e 713e 7080 80be
00000240: 5f5e b63e 72ef 00bd 44df 463f 70c6 87bc
00000250: ea8b 9abd f874 7d3e f24a 1d3e e1cc 1fbf
00000260: f0b6 053e 7e7d 1cbe 9fd7 42bc 2a19 debe
00000270: f06d 86bd 2c42 b73a b424 3ebd b36e c1be
00000280: 57ab 7ebd 86da c5bd 3a68 ea3d 2aaa b63d
00000290: 915a 8e3e f7b2 51bd 14cf e63e 64f4 fabd
000002a0: fc01 043f ead6 23be c22c f0bd d80c 17bf
000002b0: 5a3b a13e fa54 c03e 0914 8c3d 5970 273f
000002c0: a636 54be 1efc e73e 0360 e83e 9c5e febe
000002d0: 73f8 283f 6403 f9be 9232 503e 25a5 1dbd
000002e0: 687b 4ebe 7475 6fbe 48fe e33e 2ed2 633d
000002f0: 02e3 303f 5872 42be 8841 7e3d 1e3d 7cbe
00000300: 1b22 6d3d 2820 4dbe 83a6 81bd 1054 713e
00000310: 8bb4 b03c b325 55be 18ac 7e3e dfd8 193d
00000320: 0cab 83be 775e c5be 70f1 65bd 2abe 25be
00000330: 6a31 f63e 168b fcbd e3b0 65be 3b4c 43bf
00000340: 0a38 70bf 07a4 eebe eb13 b03e 9eb4 d23e
00000350: 2ccf 803e c247 44be a46a fc3d b985 a03e
00000360: 0097 2e3e 9067 253f b33d 69be f8ee 113f
00000370: 5751 fbbd 26d5 82bd 7ca8 a7be 9c87 5d3e
00000380: f6af a6be b488 e03d f690 c83d 1e9e 823d
00000390: 0e58 85be bfe6 d3bd b405 f0bd 7705 1e3b
000003a0: 73d4 22bf d0db 823e 06b0 143e 343a acbd
000003b0: 3d96 96bd 5099 e5bc df4b 2ebe 5f6a 993e
000003c0: a323 2e3e 6019 07bf 2ca6 4dbe df7b 55be
000003d0: 8cdd dcbe 38ff 1fbe f26d 28bd 76a7 ad3e
000003e0: 6e96 1fbf a0b7 5f3e 9ede 583e 0056 15be
000003f0: 221d 85be 5fa2 583e af6e 32be cc86 c7be
0.33896506 0.13075083 0.31679595 -0.49182558 -0.27881178 -0.08159964 0.08407387 0.06644699
-0.4371124 0.3891611 -0.8134832 -0.30509347 0.26122755 0.021612916 -0.1682798 0.10182478
-0.11715715 0.3442759 -0.008738015 -0.15361013 -0.25275397 -0.20239995 0.20557189 0.065247566
0.28158537 0.1856828 -0.08021736 -0.13967824 0.22357932 0.060320266 -0.38612884 0.4102527
-0.6171109 -0.06991508 -0.22015122 0.50096107 0.026222065 -0.43983668 0.11695977 0.0692609
0.4501261 -0.08194632 -0.6096373 -0.2299284 -0.030613981 0.19967064 -0.013964789 0.067794956
0.17275035 -0.3199857 -0.29948068 -0.5052757 -0.70216846 -0.18049102 0.45822096 0.12747073
0.16528486 -0.10672885 0.5812299 -0.030125042 0.73919594 -0.11582412 0.20174216 0.14432512
-0.30875656 -0.24987297 0.004165019 0.09722774 0.061583795 0.63517797 -0.2002393 0.048195638
0.04492862 0.06574166 -1.142062 -0.4277177 0.13676444 -0.28315723 0.26005268 -0.2567999
0.48198184 0.30592138 -0.37032914 -0.16872905 0.5212296 -0.4776073 -0.119875036 0.07522368
0.031081706 0.2633375 -0.023818538 0.2156366 0.19868469 -0.1802035 0.16491586 0.26829714
0.16196233 0.01971472 0.33445567 -0.6129031 -0.19283453 0.29807752 -0.14333308 -0.009577631
0.56123203 -0.16724132 -0.025901522 0.0402314 0.8053051 0.4566155 -0.4000673 -0.20061384
-0.12099761 0.6142197 0.16430466 -0.3422924 -0.4586441 -0.7683205 0.5294341 0.077307925
0.01375642 0.088243924 0.13864292 0.6501414 -0.043136414 0.34860027 -0.14258502 -0.020569598
0.29831365 0.29322353 0.6861663 -0.4792146 -0.16571896 0.061434783 -0.42454383 0.036359534
0.42402476 -0.00020538426 -0.6064407 -0.04710166 0.04134114 0.34671998 0.23571178 -0.2509799
0.35618874 -0.031478353 0.77684426 -0.016574115 -0.07546218 0.24751651 0.1536062 -0.62421995
0.13058066 -0.15282246 -0.011892228 -0.43378574 -0.06563938 0.0013981513 -0.04642172 -0.3777977
-0.06217512 -0.09660821 0.11445661 0.08919175 0.27803472 -0.051196065 0.45079863 -0.12253645
0.5156553 -0.15999952 -0.11727287 -0.59003973 0.31490594 0.37564832 0.06839759 0.65405804
-0.20723972 0.45309538 0.4538575 -0.49681556 0.66004103 -0.486354 0.20331791 -0.038487572
-0.20164263 -0.23384649 0.4452994 0.055620365 0.69096386 -0.18988931 0.062074214 -0.2463269
0.057893854 -0.20031798 -0.06330588 0.23567224 0.021570465 -0.20815162 0.24870336 0.03756034
-0.25716436 -0.38548633 -0.056138456 -0.16185823 0.48084575 -0.12331216 -0.22430758 -0.76288193
-0.9383551 -0.46609518 0.34390196 0.41153425 0.2515806 -0.19167998 0.123250276 0.31352022
0.1704979 0.6461115 -0.22777443 0.5700526 -0.12271374 -0.06388311 -0.3274573 0.21633762
-0.32556123 0.10963574 0.09793274 0.06377815 -0.26043743 -0.10346746 -0.11719838 0.0024112144
-0.6360542 0.2555833 0.14520273 -0.08409539 -0.073528744 -0.028027207 -0.1702113 0.29963967
0.17005782 -0.52773094 -0.20082921 -0.20848034 -0.43137777 -0.15624702 -0.041120477 0.33916825
-0.6233891 0.21847391 0.21178672 -0.14583588 -0.2599879 0.2115569 -0.17425035 -0.3897003

network_body.linear_encoder.seq_layers.2.bias f4 [128]
00000000: 0000 0000 0000 0000 0000 0000 0000 0000
00000010: 0000 0000 0000 0000 0000 0000 0000 0000
00000020: 0000 0000 0000 0000 0000 0000 0000 0000
00000030: 0000 0000 0000 0000 0000 0000 0000 0000
00000040: 0000 0000 0000 0000 0000 0000 0000 0000
00000050: 0000 0000 0000 0000 0000 0000 0000 0000
00000060: 0000 0000 0000 0000 0000 0000 0000 0000
00000070: 0000 0000 0000 0000 0000 0000 0000 0000
00000080: 0000 0000 0000 0000 0000 0000 0000 0000
00000090: 0000 0000 0000 0000 0000 0000 0000 0000
000000a0: 0000 0000 0000 0000 0000 0000 0000 0000
000000b0: 0000 0000 0000 0000 0000 0000 0000 0000
000000c0: 0000 0000 0000 0000 0000 0000 0000 0000
000000d0: 0000 0000 0000 0000 0000 0000 0000 0000
000000e0: 0000 0000 0000 0000 0000 0000 0000 0000
000000f0: 0000 0000 0000 0000 0000 0000 0000 0000
00000100: 0000 0000 0000 0000 0000 0000 0000 0000
00000110: 0000 0000 0000 0000 0000 0000 0000 0000
00000120: 0000 0000 0000 0000 0000 0000 0000 0000
00000130: 0000 0000 0000 0000 0000 0000 0000 0000
00000140: 0000 0000 0000 0000 0000 0000 0000 0000
00000150: 0000 0000 0000 0000 0000 0000 0000 0000
00000160: 0000 0000 0000 0000 0000 0000 0000 0000
00000170: 0000 0000 0000 0000 0000 0000 0000 0000
00000180: 0000 0000 0000 0000 0000 0000 0000 0000
00000190: 0000 0000 0000 0000 0000 0000 0000 0000
000001a0: 0000 0000 0000 0000 0000 0000 0000 0000
000001b0: 0000 0000 0000 0000 0000 0000 0000 0000
000001c0: 0000 0000 0000 0000 0000 0000 0000 0000
000001d0: 0000 0000 0000 0000 0000 0000 0000 0000
000001e0: 0000 0000 0000 0000 0000 0000 0000 0000
000001f0: 0000 0000 0000 0000 0000 0000 0000 0000
0.0 0.0 0.0 0.0 0.0 0.0 0.0 0.0
0.0 0.0 0.0 0.0 0.0 0.0 0.0 0.0
0.0 0.0 0.0 0.0 0.0 0.0 0.0 0.0
0.0 0.0 0.0 0.0 0.0 0.0 0.0 0.0
0.0 0.0 0.0 0.0 0.0 0.0 0.0 0.0
0.0 0.0 0.0 0.0 0.0 0.0 0.0 0.0
0.0 0.0 0.0 0.0 0.0 0.0 0.0 0.0
0.0 0.0 0.0 0.0 0.0 0.0 0.0 0.0
0.0 0.0 0.0 0.0 0.0 0.0 0.0 0.0
0.0 0.0 0.0 0.0 0.0 0.0 0.0 0.0
0.0 0.0 0.0 0.0 0.0 0.0 0.0 0.0
0.0 0.0 0.0 0.0 0.0 0.0 0.0 0.0
0.0 0.0 0.0 0.0 0.0 0.0 0.0 0.0
0.0 0.0 0.0 0.0 0.0 0.0 0.0 0.0
0.0 0.0 0.0 0.0 0.0 0.0 0.0 0.0
0.0 0.0 0.0 0.0 0.0 0.0 0.0 0.0

network_body.linear_encoder.seq_layers.2.weight f4 [128, 128]
00000000: a917 bc3c 81c9 7b3e 4ca9 22be 07d2 4f3d
00000010: 956d bcbc f481 b7bc ca75 bc3c f228 a53d
00000020: 6600 5fbd e460 d3bd ce1d e7bc d0c2 b73c
00000030: 27aa 133d f783 f6bc 8f9f 0dbb 8527 4d3d
00000040: e4fc dbbd 35d2 88bc 2bf0 363e 077d f93c
00000050: 11c8 84bc 1d69 17bd bb42 d33c 6109 6a3c
00000060: 09ce fa3c 748e d7bd a957 50bd 2a4d 08be
00000070: 9549 913d 87c7 b7bd f24c bebb f805 d7bd
00000080: 3695 9a3d 2e38 1d3d 12dd cdbd f6c3 d43c
00000090: 6f36 b13c 4f41 c73d 118c 383e 74b0 98bd
000000a0: f54f c63d 34e6 fa3c ed5c bebb 8556 debc
000000b0: 3b2e 833d 61e4 ccbd 972a debd eeb3 17bd
000000c0: 67bf 8d3d 87a2 c0bd 4740 c7bd 3cdd 593d
000000d0: 902b 5dbd 0e91 0abe 01d9 a03d 060e bfbd
000000e0: c34a 66bd 8f05 123d 0504 c83d 2595 233d
000000f0: f582 d4bb 893b 4a3d 79e7 843d 0e25 dbbd
00000100: ae0c 95bc b91c edba e47a ea3d aab9 6d3b
00000110: 7941 60bd 08ee e5bc f1aa 723d d2bf 403d
00000120: 0d77 bc3d c182 db3d 6fd4 66be b265 b53c
00000130: 54d4 64bd 12cc 18bd bce4 16bd 2e95 a0bc
00000140: d46b 3c3e b0ee a03d 53ef 68bc 10ac 8cbb
00000150: 704e 843e 08e5 103e 7cc1 9b3d 5b81 cc3d
00000160: d3d4 a93d 58e7 543d d4fa 5a3d 3900 fcbd
00000170: ca2a 823d 911b 1ebd a43b cebd f839 1e3e
00000180: 7ef8 dd3d 3c92 d23d 9b93 073d ac3b e03d
00000190: 0aa5 143d 9d43 69be 9ac2 2bbd 467e 893d
000001a0: d055 ffbd 8c3c d4bc 9f20 023e 2230 6dbd
000001b0: ee0a 933d 02c9 6a3d 7400 8c3d c37d 853c
000001c0: fd53 813d 906a 9bbd dd24 363d 73a4 1fbe
000001d0: da99 ca3d ac4e 2abc 0871 c7bd b647 cb3d
000001e0: 8e59 01be 8621 e1bd 8539 743d 9d81 533c
000001f0: a179 c9bd 38f0 543b f2a5 06bd 36a2 7cbd
00000200: c8e2 6f3d dae0 a3bd eef4 dc3d b38d 383e
00000210: b4d8 08bd 083d b03d 4543 3cbc 2281 79bd
00000220: dc21 40be 3810 383e 6e0f 163c 0293 b8bd
00000230: 9461 f8bc 4233 2e3d 2326 b1bd 9a4c bf3d
00000240: 0098 603d fcd1 a13d bba5 3dbe f9d5 643d
00000250: cba2 20bc 31bd 193e f0e1 f03c 7540 a53d
00000260: 0182 1a3c 5c89 533d 1824 bebb 323a e4bc
00000270: 781a 753d 1804 e4bd 6bb1 973d 6f85 e3bc
00000280: 4db4 64bd 5b51 13bd 45de 023d a72c 1ebe
00000290: 6da1 a1bd 0e18 90bd f849 373e 5454 593b
000002a0: d87c 16be 69fe 6039 f92a 083e 3357 373d
000002b0: 0f34 8dbd 55dd d8bd 3393 103e 74ad 953d
000002c0: 163e 823c ed44 ab3c 0cc3 683e db3c 36bc
000002d0: fc22 cd3d 63c6 1b3e 768c b53d cedc ed3d
000002e0: 7922 b7bd 5d15 7abd b18a 02be d5e9 8dbd
000002f0: 8370 86bd 8d23 f7bd 9779 203e d196 743d
00000300: 4773 f6bc 2554 0dbe 4ee8 67be 12f2 c33c
00000310: d4d1 8fbc 88a0 c23d 0a7c d2bd 9ee5 4c3c
00000320: 84d4 f7bc 6d80 ecbd e7e0 20be dada 3cbe
00000330: 5d7e eabd 457c 41bd 5211 303d 0dc8 1e3d
00000340: 15a0 803d 841b 6d3d 8e4a 6a3e 067a 903c
00000350: be62 8c3d 6e69 1dbe 20b8 75bd 7d3d 933d
00000360: 1d95 08bd c4cb a43d 6fba bfbc 76da 7f3b
00000370: f21c 5e3c 7405 993d f4f9 bfbd 1bf2 ecbd
00000380: 5f9c babd 971f 153c ff98 2e3e 7b0c 093d
00000390: 16b7 20be 66b8 4cbc d2c4 eb3c 8016 b6bc
000003a0: 1f1c bebd b744 4bbe 2575 6fbd 624b b0bc
000003b0: 9db3 6b3d 18c1 c03d 3e43 4e3e a482 c33d
000003c0: e035 a5bd e253 77bd c59c 113d aab2 c6bd
000003d0: ba02 793a 685d 3bbc e382 823d 120d e0bc
000003e0: e389 dcbc 8933 923d e9b9 d43d 37d2 44bc
000003f0: 70da 66bd 91ab c8bd 96d0 50ba 6e8c 4f3c
0.0229605 0.24588586 -0.15884894 0.050737407 -0.023001472 -0.022400834 0.023005385 0.0806445
-0.05444374 -0.10321215 -0.028212454 0.022431761 0.03605094 -0.030092223 -0.0021609997 0.050086517
-0.107415944 -0.016701797 0.17865054 0.030455125 -0.01620868 -0.03696548 0.025788656 0.014284463
0.030615823 -0.10525218 -0.05086485 -0.13310686 0.07094113 -0.08973604 -0.0058075124 -0.10499185
0.07547991 0.038383655 -0.100519314 0.025972348 0.021632401 0.097292535 0.18022181 -0.07455531
0.09683219 0.030627348 -0.0058094175 -0.027140865 0.06405302 -0.10004497 -0.10847967 -0.03703683
0.06921273 -0.09406 -0.09729057 0.0531895 -0.053996623 -0.13531896 0.0785389 -0.09328847
-0.056223642 0.035649832 0.09766392 0.039937157 -0.006485338 0.049373183 0.064894624 -0.10700427
-0.018194523 -0.0018090225 0.11449221 0.0036273994 -0.05474994 -0.028067604 0.059245054 0.047057934
0.09202395 0.10718299 -0.22541974 0.022143219 -0.055866554 -0.03730399 -0.03683923 -0.019602384
0.18400508 0.07858026 -0.014217216 -0.0042929724 0.25841093 0.14149868 0.076052636 0.0998561
0.08292546 0.05197844 0.053461865 -0.1230473 0.063558176 -0.038600508 -0.10069969 0.15451801
0.10838412 0.10281798 0.033099752 0.109488815 0.036290206 -0.22779699 -0.041933633 0.06713538
-0.12467539 -0.025907777 0.12707756 -0.05790723 0.07179819 0.057320602 0.06836024 0.01629532
0.063148476 -0.075886846 0.04446875 -0.15590076 0.09892626 -0.010394733 -0.09738356 0.09925787
-0.12631819 -0.10992722 0.059625167 0.01290932 -0.09837652 0.0032491814 -0.0328731 -0.061678134
0.058565885 -0.080018714 0.10788904 0.18022804 -0.03340979 0.08605391 -0.011490648 -0.060914166
-0.18762916 0.17974937 0.009158952 -0.090124145 -0.030319966 0.042529352 -0.08649852 0.093407825
0.05483246 0.079013795 -0.18520252 0.055868123 -0.009804438 0.15013577 0.02940461 0.08068935
0.009430409 0.051644668 -0.0058026426 -0.027859781 0.059839696 -0.11133593 0.07406887 -0.027773587
-0.05583601 -0.03596626 0.031950254 -0.15446721 -0.07892118 -0.07035838 0.1789931 0.0033161836
-0.14696062 0.0002145708 0.13297643 0.044760894 -0.06894695 -0.10589091 0.14118652 0.07308474
0.015898746 0.02090689 0.22730654 -0.0111229075 0.10016438 0.15212397 0.088646814 0.11614381
-0.08942122 -0.06105553 -0.12748219 -0.069293655 -0.06564429 -0.12067328 0.15671383 0.059714142
-0.030084265 -0.1380163 -0.22647211 0.023919139 -0.017556109 0.09503275 -0.10277565 0.012505917
-0.030252703 -0.11547933 -0.15710793 -0.1844286 -0.11449883 -0.047237653 0.042985268 0.038765002
0.06280533 0.05788757 0.22880003 0.01763631 0.06854771 -0.1537225 -0.05999005 0.07189462
-0.03334533 0.08046678 -0.023404328 0.0039040125 0.013556706 0.07471743 -0.09373847 -0.115696155
-0.09111857 0.00910177 0.17050551 0.033459168 -0.15694842 -0.012495136 0.028780375 -0.022227526
-0.092827074 -0.19850431 -0.058461327 -0.02152032 0.05754434 0.0941183 0.20142838 0.09546402
-0.080669165 -0.06038273 0.035549898 -0.09702046 0.00094990025 -0.011435844 0.06372621 -0.027349982
-0.026921218 0.07138736 0.10387022 -0.01201301 -0.056360662 -0.09798349 -0.0007965652 0.012667758
