results/ppo/HoldBall/HoldBall-10198.onnx (onnx, 74999 bytes, 7 tensors)

action_model._continuous_distribution.log_sigma f4 [1, 2]
00000000: 0000 0000 0000 0000
0.0 0.0

action_model._continuous_distribution.mu.bias f4 [2]
00000000: 0000 0000 0000 0000
0.0 0.0

action_model._continuous_distribution.mu.weight f4 [2, 128]
00000000: d389 80ba 9674 363d 8b85 30bc 0d19 f3bc
00000010: 26c7 003c 9939 c23c 3ca4 813c 2f48 f8bb
00000020: fdfd 493c fc36 3dbb 4bda 133c d599 86bb
00000030: 07fb 79bc b6af 933c 7a99 6d3b 6a09 eebb
00000040: 73d3 103b c575 f1bc b714 83bc 3d4e 3f3c
00000050: 5a2a 883c 1c0a 183b 5f05 853c 3fff 88bc
00000060: 9b4b 67bc be9e 3a3a d3ca 0d3b 037a bc3b
00000070: 97dd 8f3c aa78 f6bc a12a 37bb dba6 ca3c
00000080: 2472 a33c 236e a43b 7fb0 5cbc e083 f4bb
00000090: 9824 993c 20de da3c 0d3c bb3b ffc2 2abc
000000a0: 0486 2ebc e50a 993c fa31 063d 4f16 31bb
000000b0: 32cb 983c b319 053c 5dea b73b b720 d63c
000000c0: eb9b 393b 9952 213c ba1c 053d 05da 51bc
000000d0: b8b7 5a3c 4304 8bbb dd5f 0cbc f033 d43b
000000e0: cb13 3cbb 90c2 f3bb c0c5 c5bc bdcc 903b
000000f0: c3d8 ce3b d6ff a2ba e8d9 a13c 2afd 8d3c
00000100: c2e6 c3b9 3f8a 573c 050c 9ebc 01fe 32bc
00000110: a872 af3c 62ae 8e3c e6dd 803c 61ba 90bc
00000120: cb45 f9bc 4207 a43c 7a68 54bc a29a 7d3c
00000130: 2d0e abbc ebd9 a1bc fb8e 49bc 611d be3c
00000140: dbc0 823b 2feb 34bb 3a96 ce3b 6d7e 103c
00000150: 2050 7dbc 43e5 62bc 44b2 04bc 1d37 62bc
00000160: 771d a73b 8c7d 8e3c f705 203a 6402 bf3c
00000170: 0c75 8c3b 5328 8cbc 2b9d 88bb 0537 fcbc
00000180: 81a2 2dbd 9d01 a6bb 7b62 5b3c 8d02 d13b
00000190: 1a26 65bc 73ce 2b3b e110 ad3b 76e8 8bbc
000001a0: d45e 9abb a4d5 283b 68ac 7e3c 28ac 63bc
000001b0: fa67 bfba 9407 8f3c 24bd 353c fba6 42bb
000001c0: 34e7 81bc 5b9d d1bc 3bf8 233c 3b94 633b
000001d0: 08b3 e7bb 3a5e 533c 5102 20bc ada2 fdbc
000001e0: 9d71 5d3d 9f3f 15bc dafa 153d f6b6 9fbb
000001f0: 8b95 823c 3fc8 1ebc 0be5 15bc 4bfc 163d
00000200: 2f1f 583c 87fb 453c d939 08bb baf6 883b
00000210: f5df a13c fbff 433c 6aa5 6b3c 3356 163d
00000220: 2c46 8f3a 6b1e b33c df2b 003c c3c3 0a3a
00000230: b5ec abbc 8886 7a3c e1d8 b6bc 0244 70bb
00000240: 6fef 0fbd 9722 51bc 7270 f9bc 4f8a 493c
00000250: 9d99 873c da7e bc3c fac7 b93b 95ee 10bd
00000260: 7298 56bb eed5 813b f788 f43c fd1f 9fbc
00000270: b2a2 13bd 2146 a7ba b724 8a3c e32a ca3c
00000280: e056 f03b 6b84 af3c 6262 983c 77c1 ff3b
00000290: 489d 103d 176c ca3a ca28 763c cd44 213b
000002a0: 5fa7 653c fb07 c3bc ff11 a13c cba1 a3bc
000002b0: 285f ef3c b83e 73bb 2684 42bc 695b ac3a
000002c0: df9f 9c3c 076b 6d3c 12f7 dcba 2fb4 713a
000002d0: 4265 8dbb 45ba b5bc b0c7 80bc 6e9e b73b
000002e0: 27a0 d1bc 6aa5 833c b0c6 413c 5262 e13c
000002f0: d6a1 2f3c 84fb aeba c03d b9bc 6771 35bc
00000300: 73f7 533c d538 6bbc 85f6 703c 2289 17bc
00000310: 0037 28ba 5b03 883b 60f6 6c3c da76 3bbd
00000320: db7f bb3b 16e7 c13c b5dd 17ba b553 d7bc
00000330: 47f7 563c 707e b13c d73f 2ebb 23c7 74bc
00000340: a9c0 a7bc 08f2 e03c f9ff 10bb d77f 1e3c
00000350: fe10 363b 4b17 cdbb 989f e83c 3338 1bbb
00000360: bff2 0a3b 0068 8cbc f7bc 0e3c 3fb9 b1bb
00000370: 00d2 a33c 0fbe 383c 8ec0 83ba 7016 0d3d
00000380: 438a 923c aa64 493c a8b0 593c 4ff3 b03b
00000390: 9f2a d53a 9fab b63a b336 033d b250 7dbc
000003a0: fcd7 1c3b b628 18bb 918a bb3b 1574 4f3c
000003b0: b39b 95bc dfe2 b8bc b7f0 173c eae6 35bc
000003c0: d48b c6bc 50c9 553c 6cd7 893a 73c4 c73c
000003d0: eb99 72bc 02dd f63a d127 133d 8a1e debc
000003e0: 35dd 76bc d9b2 42bc 38fc d4bc 6acf f03b
000003f0: fea2 453c 72c4 7bbc 9e3d 2b3c 384f 6cbc
-0.00098067 0.04454478 -0.010774027 -0.029675031 0.007859981 0.023709105 0.015825383 -0.0075769643
0.012328622 -0.0028871885 0.009024213 -0.0041076937 -0.0152576035 0.018028121 0.003625481 -0.007264306
0.002209869 -0.029475102 -0.016001089 0.011676368 0.016621757 0.0023199385 0.016237913 -0.016723273
-0.014117147 0.00071189913 0.0021635785 0.0057518496 0.017561717 -0.030086834 -0.0027948993 0.024737766
0.019951887 0.005018012 -0.013469814 -0.00746201 0.018694207 0.026717246 0.0057139457 -0.010422467
-0.010652069 0.018681953 0.032762505 -0.0027021354 0.018651579 0.008123803 0.005612655 0.026138647
0.0028321694 0.009846353 0.0324981 -0.012808328 0.013349466 -0.0042424514 -0.008567777 0.006475918
-0.002869832 -0.007438965 -0.024142146 0.004418938 0.006312461 -0.0012435864 0.019757226 0.017332632
-0.00037365226 0.013155519 -0.01929284 -0.010924817 0.021416977 0.017417137 0.01573081 -0.017666997
-0.030428788 0.020022992 -0.012964362 0.015478762 -0.020880783 -0.019757232 -0.012302156 0.023207368
0.0039902753 -0.0027606 0.0063045295 0.008819205 -0.015460998 -0.013848606 -0.008099142 -0.013807085
0.005099948 0.01739385 0.00061044045 0.02331657 0.004286414 -0.017109072 -0.0041691265 -0.030787954
-0.042391304 -0.0050661103 0.013390179 0.006378478 -0.013986135 0.0026215583 0.005281553 -0.01707862
-0.0047110114 0.0025762105 0.015544035 -0.013896026 -0.0014603131 0.017459668 0.011092458 -0.002970158
-0.015857317 -0.025587728 0.010007913 0.0034725803 -0.0070709027 0.012900883 -0.009766177 -0.030961359
0.05406343 -0.009109407 0.036616184 -0.0048741056 0.015940448 -0.009691297 -0.009148846 0.0368617
0.0131910285 0.012083895 -0.0020786433 0.0041798027 0.019760111 0.011962886 0.0143826995 0.0367033
0.0010930947 0.02186509 0.00782296 0.0005293453 -0.020986894 0.015290864 -0.022320213 -0.003666163
-0.03514045 -0.0127645945 -0.030449126 0.012301042 0.01655274 0.023009706 0.005669591 -0.03538378
-0.0032744673 0.00396227 0.029850466 -0.019424433 -0.03604383 -0.0012761989 0.01686321 0.024678653
0.007334575 0.021425446 0.0186016 0.007805045 0.035306245 0.001544359 0.015024373 0.002460766
0.014016955 -0.023807516 0.019661902 -0.01997461 0.029220179 -0.003711624 -0.011872327 0.0013149801
0.019119201 0.014490849 -0.0016858301 0.000922027 -0.0043150494 -0.022183547 -0.015720218 0.005603603
-0.025589062 0.016070087 0.011827156 0.027512703 0.010719737 -0.0013350104 -0.022612453 -0.0110744005
0.012937414 -0.0143568115 0.014707212 -0.009249004 -0.0006416887 0.0041507906 0.014463037 -0.045767643
0.0057220287 0.02366976 -0.000579323 -0.026285032 0.013120479 0.021666735 -0.0026588344 -0.014940056
-0.02047761 0.02745916 -0.0022125228 0.009674034 0.0027781124 -0.0062588803 0.028396413 -0.002368462
0.0021201817 -0.017139435 0.008712045 -0.0054236944 0.019997597 0.011275782 -0.0010051893 0.034445226
0.017888194 0.012292067 0.013286747 0.0054000984 0.0016263312 0.0013936645 0.032034587 -0.015461134
0.0023932448 -0.0023217625 0.0057233055 0.012661953 -0.01826272 -0.022569118 0.0092736995 -0.0111024175
-0.024236597 0.013048485 0.0010516471 0.024385666 -0.014807205 0.0018834176 0.035926644 -0.027114172
-0.015067388 -0.011883461 -0.025999174 0.0073489444 0.012062786 -0.01536666 0.010451702 -0.014423184

network_body.linear_encoder.seq_layers.0.bias f4 [128]
00000000: 0000 0000 0000 0000 0000 0000 0000 0000
00000010: 0000 0000 0000 0000 0000 0000 0000 0000
00000020: 0000 0000 0000 0000 0000 0000 0000 0000
00000030: 0000 0000 0000 0000 0000 0000 0000 0000
00000040: 0000 0000 0000 0000 0000 0000 0000 0000
00000050: 0000 0000 0000 0000 0000 0000 0000 0000
00000060: 0000 0000 0000 0000 0000 0000 0000 0000
00000070: 0000 0000 0000 0000 0000 0000 0000 0000
00000080: 0000 0000 0000 0000 0000 0000 0000 0000
00000090: 0000 0000 0000 0000 0000 0000 0000 0000
000000a0: 0000 0000 0000 0000 0000 0000 0000 0000
000000b0: 0000 0000 0000 0000 0000 0000 0000 0000
000000c0: 0000 0000 0000 0000 0000 0000 0000 0000
000000d0: 0000 0000 0000 0000 0000 0000 0000 0000
000000e0: 0000 0000 0000 0000 0000 0000 0000 0000
000000f0: 0000 0000 0000 0000 0000 0000 0000 0000
00000100: 0000 0000 0000 0000 0000 0000 0000 0000
00000110: 0000 0000 0000 0000 0000 0000 0000 0000
00000120: 0000 0000 0000 0000 0000 0000 0000 0000
00000130: 0000 0000 0000 0000 0000 0000 0000 0000
00000140: 0000 0000 0000 0000 0000 0000 0000 0000
00000150: 0000 0000 0000 0000 0000 0000 0000 0000
00000160: 0000 0000 0000 0000 0000 0000 0000 0000
00000170: 0000 0000 0000 0000 0000 0000 0000 0000
00000180: 0000 0000 0000 0000 0000 0000 0000 0000
00000190: 0000 0000 0000 0000 0000 0000 0000 0000
000001a0: 0000 0000 0000 0000 0000 0000 0000 0000
000001b0: 0000 0000 0000 0000 0000 0000 0000 0000
000001c0: 0000 0000 0000 0000 0000 0000 0000 0000
000001d0: 0000 0000 0000 0000 0000 0000 0000 0000
000001e0: 0000 0000 0000 0000 0000 0000 0000 0000
000001f0: 0000 0000 0000 0000 0000 0000 0000 0000
0.0 0.0 0.0 0.0 0.0 0.0 0.0 0.0
0.0 0.0 0.0 0.0 0.0 0.0 0.0 0.0
0.0 0.0 0.0 0.0 0.0 0.0 0.0 0.0
0.0 0.0 0.0 0.0 0.0 0.0 0.0 0.0
0.0 0.0 0.0 0.0 0.0 0.0 0.0 0.0
0.0 0.0 0.0 0.0 0.0 0.0 0.0 0.0
0.0 0.0 0.0 0.0 0.0 0.0 0.0 0.0
0.0 0.0 0.0 0.0 0.0 0.0 0.0 0.0
0.0 0.0 0.0 0.0 0.0 0.0 0.0 0.0
0.0 0.0 0.0 0.0 0.0 0.0 0.0 0.0
0.0 0.0 0.0 0.0 0.0 0.0 0.0 0.0
0.0 0.0 0.0 0.0 0.0 0.0 0.0 0.0
0.0 0.0 0.0 0.0 0.0 0.0 0.0 0.0
0.0 0.0 0.0 0.0 0.0 0.0 0.0 0.0
0.0 0.0 0.0 0.0 0.0 0.0 0.0 0.0
0.0 0.0 0.0 0.0 0.0 0.0 0.0 0.0

network_body.linear_encoder.seq_layers.0.weight f4 [128, 10]
00000000: 2558 1abd 32f1 0cbd 2c5d 943e 2ddf 4d3e
00000010: b455 afbe 3f31 5d3e f489 babc af12 263e
00000020: 9e0f 59bf cad9 a4bc 04e7 b33d 7b0f 3fbe
00000030: 3aeb fbbe bdea 8f3e 912c c33d 3048 c43e
00000040: 8d52 4f3f 6317 78bd 2f3c 5b3e b0a4 12bf
00000050: 7e4f 50be 4e49 cbbe 0d41 89bd de0e 1f3e
00000060: eaaf 773e c6a9 963e 4d38 943d ff6d b1bc
00000070: cd44 343c 276d babd d374 193f 1ea2 123e
00000080: 717d 303d 7670 013f 55a2 9ebe 4bc3 cbbe
00000090: ca7e 1f3e 0748 d13e fad4 aebe f870 aebe
000000a0: 7e53 4abd 10d1 5c3e 66cf 18bf 64ce 3b3d
000000b0: e7b7 2d3f e2d1 86bd ed48 9abd c83e ac3e
000000c0: 9be3 193e 1b0d 8ebd ccf8 64be 315b a93e
000000d0: 6de2 edbc cfd8 023e 73d7 5b3e c0b1 6e3d
000000e0: 45f3 37be 65b4 103e 323a 2abe b38a 14be
000000f0: d09b c33e 6429 83be 4ec5 d6be 728e 2a3f
00000100: 9f3d c8bc f347 70be 2626 4a3a 57fa 323e
00000110: 809b 0f3c cda0 e3be aa39 5d3e d27a 1ebe
00000120: f4b8 ad3d 0da9 e83d e3d7 0b3f 3505 9fbe
00000130: b39c 4a3d dfc1 023e 2a4b 453d 6992 bb3d
00000140: 22ab 363e e59e 4d3f edaa b93e 59bd 913e
00000150: 0f9e 933e bb55 40be 8623 b33e 6507 9a3d
00000160: 7df4 bb3e 5eef 92be 550a 36bf 1607 5f3e
00000170: d4fe 123e d780 a13d beea f1bb 0608 87be
00000180: 89aa f73d fad7 81be 8bc9 933e 56e5 15be
00000190: ab65 c1bd 76da 02bd 7bfe 253f 4f2c 6d3d
000001a0: f9bc 4cbd 2719 2cbe 2ed2 113d 9bec 81be
000001b0: e581 7bbe a77e b7bd 9db2 a4bd 4897 093f
000001c0: 0f95 5c3e b188 0c3e de77 2bbf 1dc6 cebd
000001d0: 50d8 0ebf 6089 87bd 6839 92be ccd9 073e
000001e0: c092 c2bc d7e6 8cbe da75 793e f6d2 1f3f
000001f0: 8dac a7bd 0dfa abbe f7ab 143e 6302 1fbf
00000200: 9b30 663e 60c8 283e 67ae 143f dcd3 79bd
00000210: 9ce3 073d b12a 27be 308e a93e 7146 9fbd
00000220: 2b11 d0bd 9144 f33e 9afc 88be 4e8c c5bd
00000230: b964 9a3e 2a12 223f 0b2f 91be d591 04bf
00000240: 4ea1 9fbc bd1e cdbe e1a1 4f3e 98dd 833e
00000250: ec04 1e3f fc55 3abe e4ee 8c3e 0a0a 2bbd
00000260: 8d9a 2cbe 75d3 17bf 265a 51be ee8a 493e
00000270: 839a 843e 3ecd a03e 5627 efbd 0340 2e3e
00000280: 6414 dfbd a67e 6b3e 1f74 0c3f bad8 63be
00000290: 9a3e 4cbd fd7c bdbd e681 64be e7f0 983d
000002a0: e130 ba3e 576d 34bf 9a40 153e ab2e 7a3d
000002b0: 9069 8b3e 7276 93bd bc06 5e3c 585f 983e
000002c0: 6727 20bc f773 d03e 29dc bb3e 33b6 cdbd
000002d0: 76b4 dd3c fb13 77be cb6b f1bc b5ad 93bd
000002e0: 1530 73be 380f 3a3f 9d4a e4be 3dc9 a53d
000002f0: c0c6 06be 0315 1bbf 5338 3cbd 2883 223f
00000300: 8678 00be c40e 0b3d 6efe db3e 5b73 d3bd
00000310: 8865 a03e 0f2e fe3c dedb 63be 6ee0 dfbe
00000320: e913 48be 5586 a83e 532c 9cbe aa6d f0be
00000330: 0ec6 e1be df5d 1d3f 0b6f 8a3d 5c7a 063f
00000340: ee03 f9bb 1b4b c23d 4ea3 1dbe 4990 2e3e
00000350: 153a cabd 0795 633e aea7 b6bd 2841 b9bd
00000360: ac25 8c3b 0684 bf3d caf6 063f 8251 d43d
00000370: 1104 d73d 968c f1bc e57c c03e d511 7b3e
00000380: 59a0 d4bd 4f01 6a3e 18b1 1fbf edd5 9c3e
00000390: d15d d2be 1480 c6bd d221 2fbe a4f7 e43e
000003a0: ace8 d7be f839 51be 84c6 f63d d47a c83c
000003b0: 6609 c2be a93b 933d 2eff dfbd d9ae d63e
000003c0: 8b82 893e 7b7a ddbd 197f 0e3e fae1 a33d
000003d0: 7ef5 d7bd 2973 8cbd ba0d d03d cb51 ff3d
000003e0: 8799 7c3e f6ca 8e3d d43c 313f fe74 97be
000003f0: 964a 993e e27a 61bd 2a46 063e b040 31be
-0.037681717 -0.03440971 0.28977334 0.20104666 -0.34245074 0.21600817 -0.02277086 0.16218065
-0.84789455 -0.020123381 0.08784297 -0.18658249 -0.492029 0.2810878 0.09529985 0.38336325
0.8098534 -0.06056918 0.21409677 -0.57282543 -0.20342824 -0.39704365 -0.067018606 0.15533015
0.241882 0.29426402 0.07237301 -0.021658896 0.0110027315 -0.091028504 0.59943885 0.14319655
0.04308838 0.50562227 -0.30983225 -0.39797434 0.1557571 0.40875265 -0.34146863 -0.34070563
-0.04939603 0.21564126 -0.59691465 0.045851126 0.6785874 -0.06583001 -0.07533441 0.33641648
0.15028231 -0.069360934 -0.22360533 0.33077386 -0.029038632 0.12778018 0.21468906 0.058274984
-0.17963894 0.14131315 -0.16623762 -0.14506035 0.38204813 -0.25617516 -0.41947407 0.66623604
-0.024443446 -0.23464946 0.0007711373 0.1747831 0.008765101 -0.4445862 0.21604028 -0.1547654
0.08482543 0.11360369 0.5462629 -0.3105866 0.049465846 0.12769268 0.048167385 0.09158785
0.1783872 0.8032058 0.3626322 0.28464773 0.28831527 -0.18782704 0.3498804 0.07520942
0.36709967 -0.28698248 -0.71109515 0.21780047 0.14355022 0.078859024 -0.00738272 -0.2637331
0.12093074 -0.2536009 0.28864703 -0.14638266 -0.0944322 -0.03194662 0.6484143 0.057903584
-0.049984906 -0.1680647 0.035600834 -0.25375828 -0.2456127 -0.08959704 -0.0804188 0.5374646
0.21541236 0.13724019 -0.6697978 -0.10096381 -0.55798817 -0.06617999 -0.28559422 0.13266677
-0.023751616 -0.27519867 0.24361363 0.62431276 -0.08187208 -0.3358921 0.14518724 -0.62113017
0.22479479 0.16482687 0.58078617 -0.06099306 0.03317605 -0.16324879 0.33116293 -0.077771075
-0.101595245 0.4751325 -0.2675522 -0.096459016 0.3015497 0.63308966 -0.28356203 -0.5178502
-0.019486096 -0.40062514 0.20276596 0.25755 0.6172626 -0.18196863 0.2752601 -0.04175762
-0.16855831 -0.5930703 -0.20444545 0.19681904 0.25899133 0.31406587 -0.116774246 0.17016606
-0.10892561 0.22997531 0.54864687 -0.22250643 -0.04986439 -0.09252355 -0.22315177 0.074678235
0.36365417 -0.7047934 0.14575425 0.061079662 0.27228975 -0.07200326 0.01355141 0.29760242
-0.009775019 0.40713474 0.36691406 -0.10044517 0.02706359 -0.24128716 -0.029470345 -0.07210866
-0.2374881 0.7267947 -0.44588175 0.08095024 -0.13161755 -0.60578936 -0.045952152 0.6348138
-0.12545976 0.03394963 0.42967552 -0.10324737 0.31327462 0.031027822 -0.22251841 -0.43725914
-0.19538845 0.32914987 -0.30502567 -0.46958667 -0.44096416 0.6147136 0.06759461 0.52530456
-0.0075993454 0.094869815 -0.15394327 0.17047228 -0.098743595 0.22224818 -0.08918701 -0.09045631
0.004276952 0.09351353 0.5272032 0.10367109 0.104988225 -0.029485982 0.37595287 0.24518521
-0.103821464 0.22852062 -0.623796 0.30631962 -0.410872 -0.09692398 -0.17102745 0.44720185
-0.42169702 -0.2043227 0.120495826 0.024472632 -0.37897795 0.07189114 -0.109373435 0.41930273
0.2685741 -0.10814377 0.13915671 0.08002086 -0.10544871 -0.068579026 0.10158868 0.12466773
0.24667941 0.069723055 0.6923344 -0.29581445 0.29939717 -0.05504883 0.13112703 -0.17309833

network_body.linear_encoder.seq_layers.2.bias f4 [128]
00000000: 0000 0000 0000 0000 0000 0000 0000 0000
00000010: 0000 0000 0000 0000 0000 0000 0000 0000
00000020: 0000 0000 0000 0000 0000 0000 0000 0000
00000030: 0000 0000 0000 0000 0000 0000 0000 0000
00000040: 0000 0000 0000 0000 0000 0000 0000 0000
00000050: 0000 0000 0000 0000 0000 0000 0000 0000
00000060: 0000 0000 0000 0000 0000 0000 0000 0000
00000070: 0000 0000 0000 0000 0000 0000 0000 0000
00000080: 0000 0000 0000 0000 0000 0000 0000 0000
00000090: 0000 0000 0000 0000 0000 0000 0000 0000
000000a0: 0000 0000 0000 0000 0000 0000 0000 0000
000000b0: 0000 0000 0000 0000 0000 0000 0000 0000
000000c0: 0000 0000 0000 0000 0000 0000 0000 0000
000000d0: 0000 0000 0000 0000 0000 0000 0000 0000
000000e0: 0000 0000 0000 0000 0000 0000 0000 0000
000000f0: 0000 0000 0000 0000 0000 0000 0000 0000
00000100: 0000 0000 0000 0000 0000 0000 0000 0000
00000110: 0000 0000 0000 0000 0000 0000 0000 0000
00000120: 0000 0000 0000 0000 0000 0000 0000 0000
00000130: 0000 0000 0000 0000 0000 0000 0000 0000
00000140: 0000 0000 0000 0000 0000 0000 0000 0000
00000150: 0000 0000 0000 0000 0000 0000 0000 0000
00000160: 0000 0000 0000 0000 0000 0000 0000 0000
00000170: 0000 0000 0000 0000 0000 0000 0000 0000
00000180: 0000 0000 0000 0000 0000 0000 0000 0000
00000190: 0000 0000 0000 0000 0000 0000 0000 0000
000001a0: 0000 0000 0000 0000 0000 0000 0000 0000
000001b0: 0000 0000 0000 0000 0000 0000 0000 0000
000001c0: 0000 0000 0000 0000 0000 0000 0000 0000
000001d0: 0000 0000 0000 0000 0000 0000 0000 0000
000001e0: 0000 0000 0000 0000 0000 0000 0000 0000
000001f0: 0000 0000 0000 0000 0000 0000 0000 0000
0.0 0.0 0.0 0.0 0.0 0.0 0.0 0.0
0.0 0.0 0.0 0.0 0.0 0.0 0.0 0.0
0.0 0.0 0.0 0.0 0.0 0.0 0.0 0.0
0.0 0.0 0.0 0.0 0.0 0.0 0.0 0.0
0.0 0.0 0.0 0.0 0.0 0.0 0.0 0.0
0.0 0.0 0.0 0.0 0.0 0.0 0.0 0.0
0.0 0.0 0.0 0.0 0.0 0.0 0.0 0.0
0.0 0.0 0.0 0.0 0.0 0.0 0.0 0.0
0.0 0.0 0.0 0.0 0.0 0.0 0.0 0.0
0.0 0.0 0.0 0.0 0.0 0.0 0.0 0.0
0.0 0.0 0.0 0.0 0.0 0.0 0.0 0.0
0.0 0.0 0.0 0.0 0.0 0.0 0.0 0.0
0.0 0.0 0.0 0.0 0.0 0.0 0.0 0.0
0.0 0.0 0.0 0.0 0.0 0.0 0.0 0.0
0.0 0.0 0.0 0.0 0.0 0.0 0.0 0.0
0.0 0.0 0.0 0.0 0.0 0.0 0.0 0.0

network_body.linear_encoder.seq_layers.2.weight f4 [128, 128]
00000000: 6fb3 d83c c6f0 03be 6070 cfbc 723a 3f3e
00000010: e7ed a5bd 2fc3 923c 331f edbd c587 e1bc
00000020: 0afb 82bd b04b b23c ec13 97bd bad7 e8bd
00000030: 113b 65bd bfac 243e 557a eabd 9a37 1b3d
00000040: 2097 fd3a 7e18 93bd 10b8 c3bd ded4 b83a
00000050: 5d14 09bd 7b02 13be c4be 11bc b729 193e
00000060: aa94 5ebd 038b aebd fd9a 373e a67a ab3c
00000070: 2b24 be3d 3ac0 ee3d 8b5e 21ba cb51 0dbd
00000080: c4e7 603d 4e05 163e 7ad6 78bb bb4c 853c
00000090: dce0 303e 55f9 05bd c229 1fbe 9780 85bb
000000a0: 4e56 873d 8562 babc 0728 883d 7ac7 16be
000000b0: 5f08 763d c7da 8ebb 3751 ce3d 5ef9 603d
000000c0: 579c 6d3e 858e 14bd 2865 643a e88e e23d
000000d0: 66f1 843d 7445 30bd 3a55 b7bd 2562 ef3c
000000e0: cdc2 53bd 4f77 7abd cfe2 a1bc 78be 44be
000000f0: 6cad 2f3d a213 013d 1d3b 0d3d 35a2 49bd
00000100: 8bbc 83bd 50fd ea3d 9acd 22bc b9ea c1bc
00000110: 03f6 4c3d b7b2 163d 508b 843d cd18 55bc
00000120: e3fe e63d 5a00 5e3d 51bc 5f3d a124 9fbd
00000130: eac7 cc3c 3662 cbbc bfff 4c3d 0eff 873d
00000140: f913 babc 4b73 1abd 8432 383d 9086 d2bd
00000150: 8bf7 ce3c 574b 983d 2cee b23c 9728 653d
00000160: 949d 07be 5f2b a3bd b8b3 d83c 7293 9c3d
00000170: 1e38 40bd f0a2 4f3e 9291 163b 2502 f7bd
00000180: d919 443d 738c 843e 3939 543d 712e 08bc
00000190: 0cfc 553d 2808 fcbd cb3c 82bd 0932 0dbd
000001a0: c817 d6bc d854 b2bc 09cf ea3d 1e2e c9bd
000001b0: 0f5c 3d3d 4f36 cabd 67d9 933d e3a7 0c3e
000001c0: 3f3a 80bc 0e52 28bd e981 a23c aa12 d6bc
000001d0: e26f 82bc 6198 b2bd 4ba8 bd3c b062 b9bd
000001e0: 55e6 8ebd fb57 a73d 9209 ef3d 8d2b 883e
000001f0: 27fb 6b3d ae15 0c3d 37d4 21bd 7cec 18bc
00000200: 9a34 20be 7d4c b03c 4cb6 923d acd2 4abd
00000210: 6f0d 73bd dde4 993d c29d 903d cbb3 cd3b
00000220: c2e4 963d 0d0d 6c3d 61ca 283c 2d28 e93a
00000230: e94e 853c 142b 3abd e5c7 143d 98ef 3b3e
00000240: 8278 2dbc d066 a7bd ed96 89be 7326 81be
00000250: 5944 afbc 62f6 9f3c eafc e63d f2d7 843d
00000260: 6174 f73d f531 353d dcec 91bd 12c6 0bbe
00000270: edcc 933d 96d6 37bc 22cb f93c 5797 0a3e
00000280: 017b 05be 6d74 66bd a41d 013e 2fe0 e8bc
00000290: 7e2b 33bd c376 ab3d ff48 41bd 8f53 e03d
000002a0: f18e 2dbd a74b 813d bedb 1ebd 0537 d7bd
000002b0: 948f cfbd a872 073e cf94 ac3d a177 2fbd
000002c0: e642 91bc 0017 01bd 468c 313e 174e b63c
000002d0: 8024 493e 01ba d53d d92f 813c 9022 523b
000002e0: cc25 8abd c0d3 283d 4218 02bd 8015 4cbd
000002f0: 5894 383d d465 9cbc 2088 4bbe 3f94 86bd
00000300: 4903 823d b83f ebbc fa77 a93d 0553 01bc
00000310: 5eb7 bcbc 90a0 f23c 0269 9a3d de10 013e
00000320: 1ea8 2b3e 34a5 b3bd ed25 4eba 7aca f8bd
00000330: f382 c33d f2f2 2b3d 4f7a bc3d 7901 243d
00000340: 6750 bdbc bf42 b33c f1fb cabb abf1 703b
00000350: d40e 023d aebb 933d f6fa 14bd 7fe3 383d
00000360: 99c4 73bd 9f91 e93d efaa 393c 4260 8abe
00000370: b318 cb3b f19f 553d dc0e 25be 7713 5abb
00000380: c6e3 3d3e baf4 f83d 9ede b73d 1db6 fb3d
00000390: e342 9f3d d176 ae3d b5c8 ee3d d7b6 71be
000003a0: 71f7 fe3d 8c38 61bd 486e 883d 1d4f cf3d
000003b0: deea 783d 6aac 573b 2bb1 083e c221 c93d
000003c0: 8a0b af3d b787 493d 441f e93d 4466 3abb
000003d0: 12df 793d 9098 0a3e fb05 e5bd 90d4 33bd
000003e0: ea79 f7bb 612a 893d ddf3 103b 873a 82bd
000003f0: 920b 163e 33f8 c23d 464d 083d 6f13 4e3c
0.026452748 -0.12884817 -0.02532214 0.18674639 -0.08102017 0.017915336 -0.115782164 -0.02753056
-0.06395538 0.021764606 -0.07376847 -0.113692716 -0.055964533 0.16081522 -0.11449114 0.037894823
0.0019347407 -0.07182406 -0.095565915 0.0014101525 -0.033466686 -0.14356415 -0.00889558 0.14957319
-0.054340996 -0.08522608 0.17930217 0.020932507 0.09284242 0.11657758 -0.00061557506 -0.034501832
0.05490853 0.14650461 -0.0037969635 0.01627194 0.17273277 -0.032708485 -0.15543273 -0.004074167
0.06608258 -0.022752056 0.066482596 -0.14724532 0.060066577 -0.0043595764 0.10074084 0.054925315
0.2320417 -0.03626873 0.0008712583 0.110624135 0.064913556 -0.043034986 -0.089518026 0.029221604
-0.05169945 -0.061148938 -0.019761471 -0.19213283 0.042889997 0.031512864 0.034480203 -0.04922696
-0.06432446 0.11474097 -0.009936715 -0.023671495 0.050039303 0.03679153 0.06471884 -0.013006401
0.112790845 0.054199554 0.054622952 -0.07770658 0.02499767 -0.024827104 0.050048586 0.06640445
-0.022714602 -0.03770761 0.04497005 -0.10279572 0.025264522 0.07436245 0.021842085 0.055946913
-0.13243705 -0.07967257 0.026452884 0.076453105 -0.046928518 0.20277 0.002297495 -0.12060956
0.047876213 0.25888404 0.051812384 -0.008311854 0.052242324 -0.12306243 -0.063592516 -0.034471545
-0.026134387 -0.021768972 0.1146527 -0.09823249 0.046230372 -0.0987364 0.072192006 0.13735919
-0.015652774 -0.04109388 0.019837337 -0.026131947 -0.01592249 -0.0872047 0.023151537 -0.09052026
-0.06977526 0.08171078 0.11671747 0.26595727 0.057612564 0.034200363 -0.039509024 -0.009333726
-0.15645066 0.021520847 0.071636766 -0.04951732 -0.059338983 0.07514355 0.0706134 0.0062775365
0.07367851 0.057629634 0.010302157 0.0017788463 0.016272979 -0.04545124 0.036323447 0.18353117
-0.010587813 -0.08173907 -0.2687296 -0.25224647 -0.021394895 0.019526664 0.11278708 0.06486501
0.120827444 0.044237096 -0.071252555 -0.13649777 0.07216821 -0.011220595 0.03049237 0.13534294
-0.13035204 -0.056263376 0.12608963 -0.028427212 -0.04374265 0.083722614 -0.047188755 0.109534375
-0.042372648 0.06313258 -0.03878378 -0.10508541 -0.10134807 0.13227332 0.084268205 -0.042838696
-0.017732095 -0.031516075 0.17338666 0.022254033 0.1964283 0.10435868 0.015769886 0.0032064058
-0.067454904 0.041217566 -0.031761415 -0.04982519 0.045063347 -0.019091524 -0.19876146 -0.065712444
0.06348283 -0.028716907 0.08274837 -0.007893329 -0.023036655 0.029617578 0.0753956 0.1260409
0.1676335 -0.08771744 -0.0007863928 -0.12147994 0.09546461 0.041979738 0.09203016 0.040040467
-0.023109628 0.021882413 -0.0061945845 0.003676514 0.031752422 0.072135314 -0.036372148 0.045138832
-0.059513662 0.11404728 0.011332258 -0.27026564 0.0061980127 0.052154485 -0.1611895 -0.0033275762
0.1854392 0.12156053 0.08978008 0.12290595 0.077764295 0.08518756 0.116593756 -0.23604904
0.124495395 -0.054985568 0.066616595 0.101225115 0.06077086 0.0032909163 0.13348834 0.09820892
0.08547123 0.049201693 0.113829166 -0.0028442303 0.061003752 0.1353476 -0.11182781 -0.043903887
-0.007552375 0.06697536 0.002211801 -0.063588195 0.14652851 0.095199965 0.03327682 0.0125778755
