results/ppo/HoldBallBehaviour/HoldBallBehaviour-999970.onnx (onnx, 74487 bytes, 7 tensors)

action_model._continuous_distribution.log_sigma f4 [1, 2]
0.01946465 -0.00042870533
00000000: 5474 9f3c dbc3 e0b9

action_model._continuous_distribution.mu.bias f4 [2]
-0.0016356367 -0.002698013
00000000: dc62 d6ba 26d1 30bb

action_model._continuous_distribution.mu.weight f4 [2, 128]
0.0281238 -0.00054435193 0.020340681 -0.021978263 -0.0067680674 -0.0072410945 0.013585136 -0.006923608
0.006989544 -0.0153812505 0.0036177235 -0.036585152 0.012955988 0.00034276495 0.004023623 -0.02478289
-5.8541762e-05 -0.0024124093 0.01100621 -0.0092001045 -0.018151052 0.009745836 0.015278473 0.016789444
-0.01368519 0.008051349 -0.029904215 0.005441153 -0.014872333 -0.00079619454 0.004267508 -0.01785831
0.030334776 -0.004077298 -0.019036854 0.02450538 0.009261188 0.009598973 -0.018266616 0.00943095
0.015865963 -0.007958553 0.0143823335 0.0050255703 -0.0053722844 0.0024066616 0.0034619775 0.008554948
0.025829636 -0.023478912 0.01574006 -0.022757825 -0.013832269 -0.0011930809 0.025778854 -0.00017255411
-0.024696082 -0.026007375 -0.0027229362 -0.011982327 0.013283135 -0.026726648 -0.007274787 0.013873653
-0.001528281 -0.0030770719 -0.0060173697 -0.011333874 -0.0071685 -0.0052503883 -0.0063312617 -0.024906816
0.021127287 -0.010409237 0.013081094 0.009361725 -0.028219063 0.0020030297 0.0014956438 0.030579504
-0.01757593 0.03270186 0.018382143 0.010327476 -0.00651311 0.017230086 0.0067094867 -0.021212758
-0.008045663 0.0012726038 -0.010230035 0.006273986 0.00034222266 0.030938698 -0.0066381404 0.0032406144
0.03607238 0.023491995 -0.023600789 0.015131355 0.025552308 -0.028487511 -0.004506112 -0.014279894
-0.021704912 0.016804047 -0.0071091237 -0.01987066 -0.03445182 -0.019417327 -0.001536422 -0.011617968
0.011020028 0.04722418 0.012531255 -0.025279557 0.005687054 0.020169491 -0.030596143 -0.025596386
-0.01304421 0.0003565864 0.0063044713 -0.025350345 -0.008075656 -0.0020573915 -0.0024134407 0.021265889
0.034711894 0.005396432 0.003111878 0.016941585 -0.011329673 0.024048911 0.022559645 0.012802081
0.02616 0.013244559 0.01884332 0.03844496 -0.012961369 -0.001677799 -0.0116403345 0.019182282
-0.019223528 0.0018410609 0.013107691 0.028602429 -0.011080744 0.008950788 0.013302096 -0.016115444
0.004557594 0.01749694 0.022068199 -0.044365212 -0.0057094926 0.009509593 0.028544078 -0.008862377
-0.028393585 0.015000683 0.005001814 -0.021450762 0.0016069947 -0.037415158 -0.019248968 0.024249727
-0.011493197 -0.009080207 -0.0040440485 0.016694492 0.0019739743 -0.0015334104 -0.018565798 -0.013082321
0.0027782498 -0.019655347 0.033286434 0.014879183 -0.023641497 0.02641824 -0.023289146 -0.00018962641
-0.006215276 0.022665292 -0.018359035 -0.004790747 0.015829349 -0.007054 0.006442376 -0.017224524
-0.035976753 0.00029641695 0.02420041 0.028572489 0.011821575 -0.0013679421 -0.022077758 -0.0007314974
-0.034073662 0.013375516 -0.021541132 0.017557647 -0.0022467698 -0.040518913 0.0009563331 -0.012315881
0.024696691 0.02128579 -0.018920645 -0.004042109 0.007862105 -0.036102667 -0.024097202 -9.875677e-05
0.01588649 -0.0021033543 -0.0074892575 -0.00066149555 0.010678396 0.011503524 0.035653073 -0.0040987646
-0.010039746 -0.009693568 0.016997509 -0.0005028954 0.008113112 -0.005188772 0.017119864 -0.047704693
0.0010337101 -0.008459177 0.00883293 -0.014332312 0.0052016056 0.0074972757 -0.013211872 0.0010261683
-0.005941061 0.015736144 0.0048228977 0.029715355 -0.008910369 0.012746766 -0.0041966634 0.014239115
-0.009934573 -0.014945823 0.0027165757 -0.012917544 0.021949558 0.015887732 0.027796282 0.019071136
00000000: e263 e63c d7b2 0eba 80a1 a63c c20b b4bc
00000010: aac6 ddbb b446 edbb 3194 5e3c 6fdf e2bb
00000020: 8b08 e53b a401 7cbc 5417 6d3b 50da 15bd
00000030: 5a45 543c 22b5 b339 99d8 833b 7d05 cbbc
00000040: bd8a 75b8 8319 1ebb 6453 343c 09bc 16bc
00000050: 84b1 94bc 00ad 1f3c 8f52 7a3c 048a 893c
00000060: d937 60bc cee9 033c aff9 f4bc b34b b23b
00000070: 16ab 73bc b6b7 50ba 74d6 8b3b 974b 92bc
00000080: a380 f83c db9a 85bb 2df3 9bbc 82bf c83c
00000090: 3dbc 173c 0345 1d3c dfa3 95bc 4584 1a3c
000000a0: 56f9 813c 9764 02bc e1a3 6b3c 8aad a43b
000000b0: fd09 b0bb 15b9 1d3b 58e2 623b 0d2a 0c3c
000000c0: ac98 d33c d956 c0bc 4cf1 803c 9e6e babc
000000d0: bea0 62bc 2761 9cba 2d2e d33c a4ef 34b9
000000e0: 704f cabc 6b0d d5bc 4a73 32bb 8651 44bc
000000f0: 82a1 593c d8f1 dabc 5661 eebb 514e 633c
00000100: 9a50 c8ba b3a8 49bb 5b2d c5bb b7b1 39bc
00000110: bde5 eabb 730b acbb 7976 cfbb 6109 ccbc
00000120: 2213 ad3c 818b 2abc 1652 563c ec61 193c
00000130: aa2b e7bc 4345 033b 7a09 c43a de81 fa3c
00000140: 66fb 8fbc 63f2 053d 2696 963c 9334 293c
00000150: ed6b d5bb 1c26 8d3c 41db db3b 61c6 adbc
00000160: f5d1 03bc 7fcd a63a e09b 27bc 0296 cd3b
00000170: 596c b339 2773 fd3c c284 d9bb 7d60 543b
00000180: a2c0 133d 4972 c03c 7156 c1bc 81e9 773c
00000190: 1353 d13c a45e e9bc 02a8 93bb 37f6 69bc
000001a0: 80ce b1bc a4a8 893c a7f3 e8bb cbc7 a2bc
000001b0: 5a1d 0dbd 1611 9fbc c461 c9ba 4a59 3ebc
000001c0: 598d 343c 246e 413d e54f 4d3c 1317 cfbc
000001d0: 775a ba3b 7d3a a53c c3a4 fabc 83af d1bc
000001e0: 62b7 55bc 37f4 ba39 bd95 ce3b 87ab cfbc
000001f0: c24f 04bc 4dd5 06bb d12a 1ebb cd35 ae3c
00000200: 0f2e 0e3d 8dd4 b03b a6f0 4b3b 14c9 8a3c
00000210: 18a0 39bc 3902 c53c 01cf b83c d2bf 513c
00000220: 7f4d d63c b5ff 583c 4e5d 9a3c 7678 1d3d
00000230: ec5b 54bc 98e9 dbba 1ab7 3ebc 2924 9d3c
00000240: a97a 9dbc c14f f13a a4c1 563c a44f ea3c
00000250: 028c 35bc 53a6 123c 09f1 593c 8904 84bc
00000260: df57 953b be55 8f3c 5ec8 b43c 4cb8 35bd
00000270: b216 bbbb 20ce 1b3c 45d5 e93c 8133 11bc
00000280: aa99 e8bc 6dc5 753c 42e6 a33b 82b9 afbc
00000290: cba1 d23a a340 19bd 03b0 9dbc 5da7 c63c
000002a0: f64d 3cbc 26c5 14bc f083 84bb e3c2 883c
000002b0: cb5d 013b b7fc c8ba 4d17 98bc 3b57 56bc
000002c0: 4c13 363b 4004 a1bc 5b57 083d d1c7 733c
000002d0: d0ab c1bc 116b d83c e1c8 bebc 74d6 46b9
000002e0: 84a9 cbbb 90ac b93c b065 96bc b3fb 9cbb
000002f0: 8dac 813c 3e25 e7bb 911a d33b 721a 8dbc
00000300: 5c5c 13bd 6968 9b39 f03f c63c da10 ea3c
00000310: 48af 413c 854c b3ba 6adc b4bc f6c1 3fba
00000320: d390 0bbd fb24 5b3c 0777 b0bc 0ed5 8f3c
00000330: 8b3e 13bb 29f7 25bd 6eb2 7a3a 8dc8 49bc
00000340: b750 ca3c 895f ae3c 78ff 9abc ab73 84bb
00000350: 0fd0 003c 64e0 13bd 7f67 c5bc a31b cfb8
00000360: 6224 823c 6ed8 09bb 7268 f5bb 3768 2dba
00000370: 70f4 2e3c 4779 3c3c f508 123d ee4e 86bb
00000380: bf7d 24bc c5d1 1ebc 5c3e 8b3c bdd4 03ba
00000390: dcec 043c 9306 aabb f53e 8c3c ff65 43bd
000003a0: 8e7d 873a 5c98 0abc feb7 103c 13d2 6abc
000003b0: 3b72 aa3b b5ab f53b 9c76 58bc 7f80 863a
000003c0: 3bad c2bb 16e9 803c 6609 9e3b 9e6d f33c
000003d0: ccfc 11bc d0d7 503c 2a84 89bb 2d4b 693c
000003e0: 9fc4 22bc 53df 74bc 9408 323b 1ba4 53bc
000003f0: 8fcf b33c fd26 823c 07b5 e33c 123b 9c3c

network_body.linear_encoder.seq_layers.0.bias f4 [128]
0.0027321181 0.0005408175 0.0009375806 0.00084068364 0.0012321115 -0.0010688403 -0.0074018934 -0.0029442636
-0.008126759 0.0013238828 -0.0022141973 0.010680449 -0.002717387 0.00060584047 -0.00059518474 -0.005141987
0.00030466757 0.0019458939 -0.0026933784 0.007891137 -0.0024489397 0.002447926 -0.0046426277 0.001152844
-0.0004832256 -0.0058691567 -0.0030179792 -0.0051286784 0.00018120123 -0.005729817 -0.0030848798 -0.0034169755
-0.00026178724 0.0021765586 0.005169874 0.0035342325 -0.005525392 -0.004514725 0.0055880765 -0.00024311995
-0.0019816204 0.0033883934 -0.0027765895 -0.00080092985 -0.0028588998 0.00038937078 0.0040240292 -0.004756005
-0.003200878 0.0011141482 -0.00047602717 -0.004571032 -0.004884504 -0.0021249603 -0.002852892 -0.0027018785
0.00022757062 -0.004508213 -0.002605459 -0.0025326149 0.0011052216 -0.0016565061 -0.008191592 -0.0043949042
-0.0042907884 -0.010643948 -0.0027194016 0.0016279904 0.0011565854 0.0015385041 -0.00048376457 0.0011815666
0.0002331447 -0.0008936385 -0.0015176155 -0.0005250352 -0.004565629 -0.0011795323 -0.0014715957 0.0015603104
-0.00018490903 -0.0038609637 -0.004026397 -0.0050545377 -0.009786976 0.0043857056 -0.0037558093 0.0049552093
-0.00096633035 -0.0010085619 -0.0007586296 -0.002295887 -0.0065994984 -0.0029150532 -1.2391994e-05 -0.0010564885
-0.0011238329 -0.00082021207 -0.0054136426 0.002227248 0.0034511443 -0.0020464992 -0.014117989 -0.0026363146
0.00057928683 -0.0036589901 -0.0024946549 -0.0013280914 -0.002162456 -0.0011353036 -0.003370504 0.0039895438
-0.0012989973 0.0011985975 0.0014348228 0.003937964 -1.8344597e-05 0.002416575 0.00066795293 -0.0015039333
0.0014709833 -0.0027702162 -0.0053919726 0.0040508304 0.0065873903 -0.00021142502 0.0030317183 0.0063557504
00000000: 560d 333b a6c5 0d3a f8c7 753a 5361 5c3a
00000010: cd7e a13a 5418 8cba 958b f2bb 8cf4 40bb
00000020: 1926 05bc 2386 ad3a 111c 11bb 0dfd 2e3c
00000030: 3016 32bb 44d1 1e3a 2c06 1cba 1d7e a8bb
00000040: cabb 9f39 5d0d ff3a 6483 30bb d449 013c
00000050: 647e 20bb 626d 203b 2f21 98bb 071b 973a
00000060: 7159 fdb9 0e52 c0bb 4ac9 45bb 790e a8bb
00000070: d600 3e39 30c1 bbbb b22b 4abb 56ef 5fbb
00000080: 7d40 89b9 98a4 0e3b 0c68 a93b 959e 673b
00000090: 590e b5bb 42f0 93bb 2f1c b73b 04ee 7eb9
000000a0: 13de 01bb cf0f 5e3b 71f7 35bb 7ef5 51ba
000000b0: 615c 3bbb 7624 cc39 01dc 833b 43d8 9bbb
000000c0: d2c5 51bb 9c08 923a 4993 f9b9 98c8 95bb
000000d0: 300e a0bb eb42 0bbb 96f7 3abb 0012 31bb
000000e0: 06a0 6e39 a2b9 93bb 59c0 2abb 3afa 25bb
000000f0: 15dd 903a 1f1f d9ba 0736 06bc 2103 90bb
00000100: be99 8cbb f463 2ebc fd37 32bb 4b62 d53a
00000110: 9198 973a a2a7 c93a c8a1 fdb9 ccde 9a3a
00000120: 4e78 7439 1143 6aba baea c6ba 84a2 09ba
00000130: 469b 95bb 899a 9aba 8fe2 c0ba 5483 cc3a
00000140: 24e4 41b9 3908 7dbb deef 83bb 89a0 a5bb
00000150: 8d59 20bc f7b5 8f3b 0624 76bb 4f5f a23b
00000160: 5551 7dba b931 84ba c5de 46ba 9876 16bb
00000170: 9b40 d8bb 7a0a 3fbb 35e7 4fb7 df79 8aba
00000180: 934d 93ba 8003 57ba ed64 b1bb 05f7 113b
00000190: 982c 623b 8f1e 06bb 234f 67bc 05c6 2cbb
000001a0: 48db 173a abcb 6fbb 5d7d 23bb 5a13 aeba
000001b0: feb7 0dbb 78ce 94ba ace3 5cbb b8ba 823b
000001c0: 1e43 aaba 421a 9d3a aa10 bc3a 090a 813b
000001d0: b9e2 99b7 675f 1e3b 9019 2f3a a11f c5ba
000001e0: 02ce c03a 848c 35bb 25af b0bb d4bc 843b
000001f0: 09db d73b f9b1 5db9 cbaf 463b e643 d03b

network_body.linear_encoder.seq_layers.0.weight f4 [128, 9]
-0.12435972 0.01321328 -0.36635977 0.1491785 -0.81128967 0.23400623 -0.24569309 0.30599862
-0.17226972 0.30369392 0.118043415 0.33738992 -0.21928288 -0.33607757 0.57312936 0.26864916
-0.1383674 0.24863009 0.3119264 0.7578724 -0.33227548 -0.14739506 -0.0112149725 -0.55238444
0.46475214 0.022082835 0.21886986 -0.3184736 0.24413106 0.3673971 0.38117084 -0.4810236
0.22602575 0.041287888 0.106483474 -0.3675168 0.27638268 0.33885467 0.30223238 0.12653202
-0.2226814 0.037968587 -0.22942428 -0.20150912 0.42103976 -0.47065544 0.3847109 0.6537463
-0.39603433 0.37440473 0.36828685 -0.55537516 0.30009142 0.05881441 0.3574074 -0.30142382
0.19458638 0.19768448 0.3168399 -0.18556556 0.71275073 -0.3483584 -0.3955497 -0.16342035
-0.35758457 0.45296025 0.19234812 0.7331244 0.29300943 -0.012099833 0.038754392 -0.007063102
0.28815132 0.13150479 -0.21505831 0.40556836 -0.22358415 -0.43440574 0.049129244 -0.3594415
0.25102794 0.47797042 -0.21261218 0.44150135 0.5026609 0.15713619 0.3539955 0.4818453
-0.15081482 0.6021936 -0.007386231 -0.32934967 0.32001626 0.32368898 -0.028405253 -0.041350335
0.42546883 0.43250087 -0.02924168 0.06517162 -0.30454522 -0.062185604 -0.0927259 -0.3143991
0.24229008 -0.329623 0.36270836 -0.14734156 0.18490466 -0.34859112 0.12682457 0.2780839
-0.10731399 0.10597721 0.10374481 -0.2723945 0.09455953 0.18003684 -0.63202655 0.15906742
-0.10911802 0.5124561 -0.17889047 0.009790087 -0.119679436 0.565082 -0.083959 -0.46713126
-0.061929587 0.1376915 -0.32307294 -0.162165 -0.731766 -0.2566815 0.016595136 0.3069148
0.11625563 0.1372018 0.47640994 -0.4144307 0.56064075 -0.4011947 -0.0698012 0.7568564
-0.23382725 0.05798696 -0.5290043 0.5180929 0.008461495 0.21386082 0.3882696 0.23895653
-0.059735578 -0.26005787 0.4097768 0.2631853 -0.028193152 0.108018056 0.008327664 -0.5016502
-0.16136922 -0.00676541 0.101327084 -0.048675567 -0.5093303 -0.15357307 0.15557937 0.011245477
-0.0073275724 0.5505874 -0.09574849 0.2826944 -0.44661924 -0.09208901 0.32749552 -0.13199954
0.38494265 0.028316652 0.12737629 -0.44561782 -0.23031048 -0.07073386 0.27475873 -0.0105049815
-0.06252457 0.40385732 0.13459271 0.9133518 -0.2968738 0.6212244 -0.4643861 0.8919889
0.43559957 0.0243439 0.12228676 -0.5460928 0.56105113 -0.19214438 -0.64589804 0.106462635
-0.2050981 0.12795758 0.09359119 0.20420697 -0.5358654 -0.01050929 -0.3112418 0.23825496
-0.27946222 -0.110249035 -0.42756674 0.5354096 -0.22751935 -0.22947241 0.12317879 0.15878324
0.06369712 0.41925356 -0.17731757 -0.20686434 0.0870104 -0.5220862 0.3535648 -0.020424241
0.12582143 -0.5950558 -0.21362092 0.22363968 0.44951996 -0.2010532 -0.5117849 -0.06486755
-0.2003249 -0.10330983 0.16171145 0.071784675 0.12553032 0.40297818 0.37575004 0.08636405
0.48061955 -0.44035488 -0.2860645 -0.18398853 -0.28138068 -0.08409827 -0.06669299 0.32013908
-0.83685195 -0.5903685 -0.4216474 -0.17375393 1.1632562 0.38042754 0.20224299 0.21171857
00000000: 4fb0 febd 837c 583c 8293 bbbe 40c2 183e
00000010: aeb0 4fbf 549f 6f3e f896 7bbe daab 9c3e
00000020: 7967 30be c57d 9b3e bfc0 f13d 5fbe ac3e
00000030: b18b 60be 5c12 acbe 9bb8 123f 628c 893e
00000040: 2fb0 0dbe e398 7e3e d1b4 9f3e ed03 423f
00000050: 0320 aabe bbee 16be 01bf 37bc 1169 0dbf
00000060: fef3 ed3e 10e7 b43c 6c1f 603e f90e a3be
00000070: 7efd 793e 791b bc3e d328 c33e ba48 f6be
00000080: 4b73 673e 7d1d 293d 0214 da3d 292b bcbe
00000090: 0882 8d3e 5c7e ad3e 34be 9a3e 9c91 013e
000000a0: 9806 64be f384 1b3d 33ee 6abe 6858 4ebe
000000b0: 8692 d73e c0f9 f0be d4f8 c43e eb5b 273f
000000c0: 03c5 cabe fab1 bf3e 1890 bc3e 112d 0ebf
000000d0: 95a5 993e 61e7 703d 1afe b63e 3954 9abe
000000e0: a741 473e cd6d 4a3e d738 a23e e604 3ebe
000000f0: d576 363f 085c b2be 7e85 cabe aa57 27be
00000100: 5315 b7be 68ea e73e e8f6 443e 0aae 3b3f
00000110: 5505 963e 613e 46bc edbc 1e3d 9871 e7bb
00000120: 9288 933e 31a9 063e 3f38 5cbe a8a6 cf3e
00000130: 3ef3 64be 6e6a debe bf3b 493d b708 b8be
00000140: bc86 803e 8ab8 f43e 02b7 59be 770c e23e
00000150: 62ae 003f 4fe8 203e e63e b53e 6db4 f63e
00000160: 336f 1abe 5c29 1a3f 3208 f2bb 85a0 a8be
00000170: 2cd9 a33e 90ba a53e 22b2 e8bc f85e 29bd
00000180: 0dd7 d93e c170 dd3e 3f8c efbc b378 853d
00000190: 5aed 9bbe 55b6 7ebd 14e7 bdbd ebf8 a0be
000001a0: e41a 783e 59c4 a8be e9b4 b93e b5e0 16be
000001b0: a657 3d3e 897a b2be 4dde 013e 0361 8e3e
000001c0: 70c7 dbbd 940a d93d 2978 d43d 4b77 8bbe
000001d0: 6da8 c13d 945b 383e 7ecc 21bf 92e2 223e
000001e0: 4579 dfbd 5330 033f 102f 37be 9a66 203c
000001f0: 7e1a f5bd 37a9 103f b2f2 abbd d42b efbe
00000200: e1a9 7dbd 00ff 0c3e d169 a5be 950e 26be
00000210: 0455 3bbf c26b 83be 86f2 873c f023 9d3e
00000220: 6f17 ee3d a17e 0c3e 01ec f33e 4330 d4be
00000230: 2786 0f3f 6469 cdbe eef3 8ebd 57c1 413f
00000240: 6970 6fbe bc83 6d3d d36c 07bf bca1 043f
00000250: 15a2 0a3c 55fe 5a3e 46cb c63e 05b1 743e
00000260: 4bad 74bd 4e26 85be 44ce d13e 39c0 863e
00000270: 53f5 e6bc 9238 dd3d c170 083c 266c 00bf
00000280: f93d 25be 5fb0 ddbb 9384 cf3d 0860 47bd
00000290: 7863 02bf 4242 1dbe 3350 1f3e f33e 383c
000002a0: 221c f0bb 4cf3 0c3f c917 c4bd 52bd 903e
000002b0: 47ab e4be 2a99 bcbd 7ead a73e e32a 07be
000002c0: 3417 c53e 53f8 e73c ee6e 023e 0528 e4be
000002d0: 83d6 6bbe eadc 90bd 2dad 8c3e 161d 2cbc
000002e0: e20c 80bd 63c6 ce3e acd2 093e 6cd1 693f
000002f0: d8ff 97be 9008 1f3f 04c4 edbe 6259 643f
00000300: e806 df3e dc6c c73c 7b71 fa3d bdcc 0bbf
00000310: 0ca1 0f3f 7fc1 44be 9359 25bf 1509 da3d
00000320: 3c05 52be 5007 033e bdac bf3d a21b 513e
00000330: 7a2e 09bf 282f 2cbc 165b 9fbe 1cf9 733e
00000340: ac15 8fbe 3fca e1bd 07ea dabe 9b10 093f
00000350: d5fa 68be d1fa 6abe 2945 fc3d 1398 223e
00000360: a373 823d 67a8 d63e bd92 35be 3fd4 53be
00000370: 8232 b23d 71a7 05bf 7206 b53e bd50 a7bc
00000380: 55d7 003e 9455 18bf 71bf 5abe cd01 653e
00000390: 7b27 e63e e4e0 4dbe 5604 03bf 47d9 84bd
000003a0: f821 4dbe 1b94 d3bd b097 253e d803 933d
000003b0: 058b 003e 2853 ce3e 4f62 c03e a3df b03d
000003c0: c413 f63e 3276 e1be 0c77 92be 7d67 3cbe
000003d0: 2111 90be b73b acbd 5696 88bd 45e9 a33e
000003e0: ee3b 56bf 6422 17bf 2be2 d7be 8dec 31be
000003f0: 94e5 943f 66c7 c23e c918 4f3e c1cc 583e

network_body.linear_encoder.seq_layers.2.bias f4 [128]
0.0030926624 -0.0044978387 0.0006257159 0.0061665755 0.00220567 0.007882261 -0.0036229442 -0.0055243797
0.0069037355 -0.0033148539 -0.0048052473 -0.0045379736 0.00023057466 -0.0022825794 0.00022184347 0.0005396564
1.5535146e-05 -0.004664636 -0.004727035 -0.0029512912 0.0030771748 -0.004265638 -0.0021977932 0.0005781506
0.0001797606 0.0024452622 -0.0009791664 0.0019516528 0.001761175 -0.005179221 -0.0016198303 0.0033161414
0.0016740259 -0.0034523914 0.001584854 -0.0010945993 -0.0041063447 0.0018425055 0.0024651533 -0.0036148932
-0.000113760594 0.0023420972 -0.0016882573 -0.0022897555 -0.0012030896 -0.0033997798 -0.00056298374 0.00068636023
-0.00252352 0.0028238466 0.009980679 -0.00060962467 0.0035896897 0.0071272454 -0.00029322307 -0.0099520255
-0.0039290017 -0.0037868104 0.0018103218 0.0020013277 -0.0023375752 0.0020807951 -0.0027942846 -0.0012064294
0.00075612357 -0.0016111038 -0.0043565123 0.015580034 -0.0023987691 0.0011668183 0.0037753885 0.0013538196
0.0050467625 -0.0053184535 0.0016162727 0.017477352 0.0011670052 0.0017736927 0.0033995952 -0.00041377379
-0.0018794585 -0.0040085125 -0.002498664 0.0013186563 -0.0064826654 0.00073660695 0.0006688475 0.0012757049
0.0008606581 -0.004867452 0.00027044013 -0.002545055 -0.0036031285 -0.0034858752 -0.0024092307 -0.0023970162
-0.0011840074 0.0014725155 -0.0015163722 -0.0038802542 -0.002565846 4.817583e-05 0.007822289 0.002466901
0.0010368206 -0.0008461461 -0.00068007736 -0.0002838192 -0.00049475406 0.00088440196 -0.0007789142 -0.00044895642
-0.0010279241 -0.0043369913 -0.006365478 0.017970461 0.0021105353 0.001236626 0.001968275 -0.00048280146
0.0032965662 0.011231954 -0.00619893 0.0019998525 -0.003182242 -0.0036143612 0.0048699323 -0.0027886888
00000000: 44ae 4a3b 9b62 93bb 1507 243a fc10 ca3b
00000010: 018d 103b 9924 013c eb6e 6dbb db05 b5bb
00000020: bb38 e23b 053e 59bb 5675 9dbb 48b3 94bb
00000030: 6ac6 7139 5497 15bb a79e 6839 ba77 0d3a
00000040: 7951 8237 ced9 98bb 3ee5 9abb 736a 41bb
00000050: 6daa 493b c4c6 8bbb da08 10bb 088f 173a
00000060: 1e7e 3c39 b140 203b 5f57 80ba 9ace ff3a
00000070: 3ad7 e63a 74b6 a9bb 7c50 d4ba 9f53 593b
00000080: fd6a db3a 8441 62bb e0ba cf3a a878 8fba
00000090: 848e 86bb 3a80 f13a 698e 213b d8e7 6cbb
000000a0: c192 eeb8 df7d 193b 8448 ddba b90f 16bb
000000b0: fdb0 9dba d7ce 5ebb 3395 13ba dbec 333a
000000c0: a461 25bb 4910 393b 0086 233c 38cf 1fba
000000d0: 0041 6b3b ab8b e93b bcbb 99b9 d20d 23bc
000000e0: dbbe 80bb 232c 78bb 5248 ed3a b528 033b
000000f0: 0132 19bb f35d 083b 5120 37bb 0e21 9eba
00000100: 9836 463a ac2b d3ba 13c1 8ebb 6643 7f3c
00000110: ab34 1dbb edef 983a 826c 773b a672 b13a
00000120: 505f a53b 6c46 aebb 1dd9 d33a aa2c 8f3c
00000130: 32f6 983a 407b e83a becb 5e3b c7ef d8b9
00000140: 2a58 f6ba d759 83bb a0c0 23bb c3d6 ac3a
00000150: 8a6c d4bb db18 413a 9955 2f3a 8e35 a73a
00000160: ca9d 613a 267f 9fbb dcc9 8d39 f0ca 26bb
00000170: 7722 6cbb 4873 64bb 2fe4 1dbb 4217 1dbb
00000180: b230 9bba 6c01 c13a 02c1 c6ba dd4b 7ebb
00000190: c127 28bb 6710 4a38 0f29 003c bbab 213b
000001a0: ede5 873a e7cf 5dba 3847 32ba 91cd 94b9
000001b0: 62b2 01ba 36d7 673a 0c30 4cba e961 ebb9
000001c0: 69bb 86ba 521d 8ebb 8095 d0bb ca36 933c
000001d0: e850 0a3b 4816 a23a 2dfe 003b 8420 fdb9
000001e0: 340b 583b 3b06 383c 6520 cbbb f50f 033b
000001f0: 298d 50bb ebde 6cbb f493 9f3b 6fc2 36bb

network_body.linear_encoder.seq_layers.2.weight f4 [128, 128]
-0.012099198 -0.04459845 -0.08968083 -0.08031871 0.015818726 0.22578907 -0.009885361 -0.054096248
-0.068011574 0.11902233 0.02962425 -0.02639969 0.1310393 -0.085999556 0.03009547 -0.047368456
0.08128878 -0.12470114 0.07584645 -0.0072425273 -0.0316096 0.020751072 -0.055041786 -0.0062066545
0.192894 -0.023800435 -0.007673537 0.000103795894 -0.2175719 -0.12177728 0.19994618 -0.11138347
-0.09308538 0.06390934 0.20023358 -0.021151321 -0.034424253 -0.017111951 0.124717586 0.03582543
0.006017989 0.041229144 0.045617696 0.09911446 -0.0034812419 -0.091477364 0.0070380154 0.030043691
-0.122027755 -0.041174877 -0.08176948 -0.055850092 -0.22223529 -0.033470046 0.007878574 -0.02633066
-0.11106131 -0.112932205 0.061046135 0.09424637 0.077614844 -0.08439368 -0.07221334 0.14498219
-0.028238347 0.005273225 -0.025896128 0.035149664 -0.09495721 -0.11817213 -0.03551481 0.11171057
-0.19395162 -0.10048646 -6.123235e-05 -0.046795484 -0.13285984 0.034025814 -0.095959954 -0.095349066
-0.009107946 -0.015023657 0.080438375 -0.034014087 0.027244266 0.058043245 0.013864034 -0.12453773
0.009989667 -0.00931858 0.026360467 0.07553926 -0.07139218 -0.0047533624 0.064282075 -0.04943698
-0.013600556 0.043511983 -0.16660276 0.030481687 0.10066404 0.005628215 -0.03230518 0.047391992
0.091823325 0.012993424 -0.055346716 0.07024196 -0.13722692 0.1141822 -0.059056643 -0.020922842
-0.12891927 0.0674908 0.024807118 -0.04461758 -0.00030720353 0.0016506802 -0.0072249114 -0.054617245
-0.12926337 -0.141452 -0.036160104 0.03624698 0.08770797 -0.0652956 -0.13024192 0.099299096
-0.05271111 -0.1291652 0.13673973 -0.10016805 0.018581063 0.02145161 -0.08017202 -0.021166595
0.044192363 0.034263894 0.017661175 0.0076953913 -0.024544662 -0.22628585 0.026115704 0.048869193
-0.17687127 0.08705765 -0.0951617 0.18338919 0.15109836 0.16072127 -0.12217316 0.0511517
-0.14435883 -0.16759112 -0.02975507 0.046840634 -0.14769411 0.043392178 0.074007474 0.33550036
-0.19023411 -0.08314207 -0.054695446 0.0138784535 -0.13037592 -0.028118968 0.13244604 0.10299972
-0.15206437 0.07721725 -0.013741416 0.034123033 -0.08271728 -0.1677617 0.043836813 0.076374985
0.095781945 0.024457065 -0.04683698 0.027022928 0.2112029 0.007602243 0.10305157 0.0372803
0.02424982 -0.04680919 0.014327634 0.08280724 -0.031301927 0.03927747 -0.074533656 0.115855046
-0.10808816 0.10643249 0.0045715594 0.16392021 -0.12777995 -0.107756436 0.08114343 0.21256708
-0.024295053 0.080323346 0.014045087 0.1913523 -0.08547407 -0.017996782 0.051076423 0.09527219
0.021365313 0.086169265 0.06497851 -0.11336278 0.116073176 -0.027045302 -0.024797887 0.00090690056
-0.026524937 -0.039396774 0.04252953 -0.08230024 -0.16524157 -0.0018676127 0.08512182 -0.2591175
0.083194464 0.06528896 -0.07699402 0.084550425 0.04270827 0.027938154 0.13147067 -0.063501015
-0.26737034 -0.023559311 0.12178382 0.03536442 -0.00929974 0.118659966 -0.0906314 -0.17477648
0.13616048 0.017722473 0.018991984 -0.022005046 0.12591569 -0.096007705 -0.048752498 0.03473124
0.08096297 0.18668859 0.04279202 -0.10489094 0.072701894 -0.027450563 -0.1161523 0.240068
00000000: b73b 46bc ddac 36bd 95aa b7bd 237e a4bd
00000010: 4696 813c 4035 673e 36f6 21bc 0794 5dbd
00000020: a749 8bbd fbc1 f33d 8eae f23c 2a44 d8bc
00000030: 2b2f 063e 8920 b0bd c68a f63c 6d05 42bd
00000040: bb7a a63d 5063 ffbd 6255 9b3d b952 edbb
00000050: 1179 01bd 27fe a93c 7f73 61bd 3161 cbbb
00000060: 0186 453e 21f9 c2bc 4b72 fbbb ffac d938
00000070: 2bcb 5ebe 5e66 f9bd b1be 4c3e 041d e4bd
00000080: 8ca3 bebd e6e2 823d 080a 4d3e 8945 adbc
00000090: 7200 0dbd 5d2e 8cbc ef6b ff3d b0bd 123d
000000a0: 8d32 c53b e4df 283d 9fd9 3a3d 86fc ca3d
000000b0: 8c25 64bb 7c58 bbbd 279f e63b 301e f63c
000000c0: b0e9 f9bd fda6 28bd c276 a7bd 11c3 64bd
000000d0: a691 63be e317 09bd 2215 013c 65b3 d7bc
000000e0: 1d74 e3bd 0049 e7bd 830b 7a3d 3e04 c13d
000000f0: 88f4 9e3d 98d6 acbd 96e4 93bd 3676 143e
00000100: 1b54 e7bc 04cb ac3b 1e24 d4bc 18f9 0f3d
00000110: ed78 c2bd 3b04 f2bd fa77 11bd 83c8 e43d
00000120: 419b 46be d8cb cdbd de69 80b8 9fac 3fbd
00000130: 690c 08be a75e 0b3d a786 c4bd 5f46 c3bd
00000140: 7f39 15bc c925 76bc e0bc a43d 5b52 0bbd
00000150: 5e2f df3c c1be 6d3d f925 633c a30d ffbd
00000160: b3ab 233c f5ac 18bc e8f1 d73c 54b4 9a3d
00000170: 1036 92bd 18c2 9bbb 52a6 833d 6e7e 4abd
00000180: ded4 5ebc 9f39 323d ea99 2abe bbb4 f93c
00000190: f328 ce3d e46c b83b 7052 04bd 1b1e 423d
000001a0: de0d bc3d 5fe2 543c 3db3 62bd 04db 8f3d
000001b0: 3785 0cbe 5bd8 e93d 61e5 71bd 6166 abbc
000001c0: 6a03 04be 9e38 8a3d 4c38 cb3c ecc0 36bd
000001d0: 2910 a1b9 a35b d83a f3be ecbb 55b6 5fbd
000001e0: 9e5d 04be cbd8 10be 9e1c 14bd b777 143d
000001f0: 3ca0 b33d b3b9 85bd 235e 05be 535d cb3d
00000200: 9be7 57bd e243 04be 8005 0c3e e824 cdbd
00000210: 5037 983c 49bb af3c 3a31 a4bd 9165 adbc
00000220: 0d03 353d 4c58 0c3d 2bae 903c 9f29 fc3b
00000230: e311 c9bc 7ab7 67be 9af0 d53c 102b 483d
00000240: be1d 35be 484b b23d 23e4 c2bd 60ca 3b3e
00000250: 87b9 1a3e 1e94 243e ec35 fabd 7284 513d
00000260: cdd2 13be 029d 2bbe e8c0 f3bc f7db 3f3d
00000270: 203d 17be ffbb 313d 3b91 973d b4c6 ab3e
00000280: bbcc 42be 6446 aabd 5508 60bd 7462 633c
00000290: 4481 05be c059 e6bc ef9f 073e 84f1 d23d
000002a0: c3b6 1bbe 1424 9e3d ad23 61bc 98c4 0b3d
000002b0: ad67 a9bd b9c9 2bbe 3b8e 333d 7d6a 9c3d
000002c0: 5329 c43d 2f5a c83c 22d8 3fbd 305f dd3c
000002d0: 9345 583e 3d1c f93b b40c d33d 3ab3 183d
000002e0: 8fa7 c63c feba 3fbd 74be 6a3c d896 a93d
000002f0: 7336 00bd 6ae1 203d 1aa5 98bd 6945 ed3d
00000300: 535d ddbd 47f9 d93d 05cd 953b b3da 273e
00000310: bfd8 02be 68af dcbd 872e a63d 2fab 593e
00000320: 6b06 c7bc 9180 a43d 5d1d 663c dbf1 433e
00000330: 070d afbd fd6d 93bc 8335 513d 111e c33d
00000340: 4f06 af3c 8379 b03d 7413 853d bf2a e8bd
00000350: c6b7 ed3d 1c8e ddbc f024 cbbc 11bd 6d3a
00000360: d34a d9bc 835e 21bd 7233 2e3d 078d a8bd
00000370: 1635 29be afca f4ba 5954 ae3d 0dab 84be
00000380: dc61 aa3d 38b6 853d 0aaf 9dbd c628 ad3d
00000390: deee 2e3d 8ede e43c 3fa0 063e d20c 82bd
000003a0: c4e4 88be 75ff c0bc cc69 f93d 48da 103d
000003b0: f05d 18bc ff03 f33d f59c b9bd 9bf8 32be
000003c0: a76d 0b3e b82e 913c 1495 9b3c ed43 b4bc
000003d0: 0bf0 003e b09f c4bd b3b0 47bd 5842 0e3d
000003e0: eacf a53d 4b2b 3f3e af46 2f3d 10d1 d6bd
000003f0: bbe4 943d 01e0 e0bc 42e1 edbd 63d4 753e
